checkpoints_kpconv_24nov/best_model_24nov_mIoU_0.8345.pth (torch, 19357 bytes, 14 tensors)

fc0.weight f4 [8, 3]
0	0x3e2b394e	0.16721079
1	0xbe97a3f4	-0.29617274
2	0xbebdf57f	-0.3710136
3	0xbedaf031	-0.42761377
4	0x3e6f5820	0.23373461
5	0x3e55eea2	0.20891812
6	0xbd4e5fc6	-0.050384305
7	0xbd31bd3e	-0.043393366
8	0xbe9fd593	-0.31217632
9	0x3ecb8624	0.3975078
10	0xbe8aa391	-0.27077916
11	0xbd9e2237	-0.0772137
12	0xbbc051c5	-0.0058691227
13	0x3e869054	0.2628199
14	0x3ea2c6c0	0.3179226
15	0xbd755315	-0.059893686
16	0x3e9eaaa8	0.30989575
17	0x3ea5fdb1	0.32420114
18	0xbeb29b66	-0.34884185
19	0xbd97c041	-0.074097164
20	0x3e9178c9	0.28412464
21	0x3e5f1f24	0.21789223
22	0x3d64aaa5	0.0558268
23	0xbeb49ccd	-0.3527588

fc0.bias f4 [8]
0	0x3ecf8339	0.40529802
1	0x3ee90b42	0.45516402
2	0x3eb24bcc	0.34823453
3	0xbe92a360	-0.2864027
4	0x3f193e3e	0.598606
5	0xbef5b538	-0.4798982
6	0x3d2c8d44	0.04212691
7	0xbd5ec323	-0.054385316

kp1.mlp.0.weight f4 [16, 11]
0	0x3f3a8f61	0.7287503
1	0xbe4fd7f1	-0.20297219
2	0xbe33396c	-0.17502373
3	0xbdbaf522	-0.091287866
4	0x3ea03ddb	0.31297192
5	0x3d682a3b	0.0566809
6	0x3e7a73fe	0.2445831
7	0xbdebcad8	-0.11513299
8	0xbdd7b5eb	-0.10532745
9	0xbe28e456	-0.16493353
10	0x3e811ae0	0.25215816
11	0x3eb337d6	0.35003537
12	0x3e091208	0.13385785
13	0x3d2fb7c3	0.04289986
14	0xbd37001a	-0.04467783
15	0xbdc7ae41	-0.09750033
16	0x3e759f79	0.23986615
17	0xbc878319	-0.016542004
18	0xbc26a887	-0.010172016
19	0xbe05602a	-0.13024965
20	0xbdfc79e6	-0.12327938
21	0x3e2acb2f	0.16679071
22	0x3f427e9a	0.7597443
23	0xbf45dcba	-0.77289927
24	0x3e8c0f2d	0.27355328
25	0x3d4f4f00	0.05061245
26	0xbe2f486b	-0.17117469
27	0x3e204814	0.15652496
28	0x3dfbb85a	0.12291022
29	0x3e3a4a18	0.18192327
30	0xbe1b1052	-0.15142944
31	0x3e8f3866	0.27972716
32	0xbe38ff35	-0.18066104
33	0x3f0d2c71	0.5514594
34	0xbc3b2175	-0.011421551
35	0xbb9f3730	-0.004858874
36	0xbdf620a8	-0.120179474
37	0xbe640dba	-0.22270861
38	0xbd9423ea	-0.072334126
39	0x3e3d4b1f	0.18485688
40	0x3d9d50cd	0.07681427
41	0xbe39ce2b	-0.18145053
42	0xbe2ca158	-0.16858423
43	0xbe2602d0	-0.1621201
44	0x3d316d65	0.043317217
45	0xbf1d0a7d	-0.6134413
46	0x3e2aff06	0.16698846
47	0x3e686df9	0.22698201
48	0x3e2078ca	0.15671077
49	0xbe496265	-0.19666441
50	0xbd87d613	-0.06632628
51	0x3e0a28e8	0.13492167
52	0xbc2f38aa	-0.010694662
53	0x3ce56999	0.028004454
54	0x3e018a85	0.12650497
55	0xbe24bfb5	-0.16088755
56	0x3c4063c0	0.011742532
57	0xbe52ffb8	-0.20605361
58	0x3e0cb2e1	0.13740112
59	0xbd2c0fab	-0.04200713
60	0xbe6fdedd	-0.2342486
61	0xbe983613	-0.29728755
62	0xbe5f03f4	-0.21778852
63	0xbe572af4	-0.21012479
64	0x3e49dfec	0.19714326
65	0xbe8f1f3e	-0.27953523
66	0xbf77cf66	-0.9680084
67	0xbf64d84e	-0.89392555
68	0x3d7eafdf	0.062179442
69	0xbc7f0d04	-0.015567068
70	0xbe296516	-0.16542467
71	0x3e3ead84	0.18620878
72	0x3e04b73d	0.12960525
73	0x3eb2527a	0.3482855
74	0xbd1c72af	-0.03819531
75	0x3e5208c7	0.20511161
76	0xbdcb6413	-0.09931197
77	0xbe6bc41f	-0.23024033
78	0xbf0d27c7	-0.5513882
79	0x3eb4922f	0.3526778
80	0xbdc99ec0	-0.09844732
81	0x3d08fc73	0.03344388
82	0xbb3b53a3	-0.0028583787
83	0x3e404c52	0.18779114
84	0xbe60454a	-0.21901432
85	0x3e4b434e	0.19849893
86	0x3d846cb9	0.0646605
87	0x3e768c6e	0.24077007
88	0x3eb584f7	0.35453007
89	0xbebbe2be	-0.36696428
90	0xbf2c2118	-0.67238
91	0xbd74e98a	-0.059793033
92	0xbd97be40	-0.07409334
93	0x3e53b228	0.2067343
94	0xbd34a083	-0.04409839
95	0xbe08ca93	-0.13358526
96	0x3df8abf1	0.1214217
97	0xbd5c9127	-0.053849366
98	0x3a207d6d	0.00061222055
99	0xbf4c9e38	-0.7992892
100	0xbe351734	-0.17684633
101	0x3d134364	0.03595294
102	0x3e784f7a	0.24249068
103	0x3e1e48c0	0.1545744
104	0xbc00c9a5	-0.007860576
105	0xbe2f2113	-0.1710246
106	0xbe39ed92	-0.18157032
107	0x3e2d5aa2	0.16929105
108	0x3e357f77	0.17724405
109	0x3e25f0ed	0.16205187
110	0x3eadb0dc	0.33923995
111	0xbf0cc510	-0.54988194
112	0xbd80c2e2	-0.06287171
113	0x3d5e1bc2	0.05422569
114	0xbe83efcb	-0.25768885
115	0xbdcc85a0	-0.099864244
116	0xbe15846e	-0.14601299
117	0x3e2b11cd	0.16706009
118	0xbd9ed376	-0.07755177
119	0x3d858298	0.065190494
120	0x3e29aceb	0.16569869
121	0x3f3b7118	0.7321944
122	0xbf66e997	-0.9020018
123	0x3eb42693	0.3518568
124	0x3d8da62b	0.0691646
125	0x3e710246	0.23536023
126	0x3ea551b0	0.32288885
127	0x3e8ad33b	0.2711428
128	0xbe64c100	-0.22339249
129	0x3e86f2fa	0.2635725
130	0xbe1f8ef0	-0.1558187
131	0x3d6cc6d5	0.05780681
132	0x3f546556	0.82967126
133	0xbf57bebe	-0.84275424
134	0xbde0c211	-0.10974515
135	0x3dbc0619	0.091808505
136	0x3cafc0ae	0.021454182
137	0x3e9574ff	0.29190823
138	0xbdbf04b2	-0.093270674
139	0x3d9699a9	0.07353527
140	0x3dd90a5a	0.105976775
141	0xbd94f997	-0.07274168
142	0x3e00f71c	0.12594265
143	0xbf0a97b0	-0.54137707
144	0x3f1eb313	0.61991996
145	0x3d2d09f1	0.04224581
146	0x3e9036ed	0.28166905
147	0x3e3034db	0.17207663
148	0xbdf7d016	-0.12100236
149	0x3e533155	0.20624287
150	0x3e831232	0.2559982
151	0xbda989f6	-0.08278267
152	0x3e89716d	0.2684435
153	0xbe6787a6	-0.2261034
154	0x3f02d181	0.5110093
155	0x3f34fff5	0.7070306
156	0x3e505db1	0.2034824
157	0xbc882c72	-0.016622756
158	0xbe0d0d3c	-0.1377458
159	0x3e2ea210	0.1705401
160	0x3e418011	0.1889651
161	0x3e4ca80d	0.19985981
162	0x3d4fa396	0.050693117
163	0x3df87c38	0.12133068
164	0x3e933390	0.28750277
165	0x3dc8d11e	0.09805511
166	0x3ed54437	0.41653606
167	0x3dcd75c6	0.10032229
168	0xbe823500	-0.2543106
169	0xbf04dd80	-0.5190048
170	0xbe36fee7	-0.17870675
171	0x3e3eb3dd	0.186233
172	0x3d26e8b8	0.04074928
173	0xbe973358	-0.2953136
174	0x3e4014f7	0.18757997
175	0xbd841587	-0.064494185

kp1.mlp.0.bias f4 [16]
0	0xbbec580e	-0.0072126454
1	0xbd222a41	-0.039591078
2	0x3e8ee951	0.2791238
3	0xbeb2dc07	-0.34933493
4	0xbecee40a	-0.40408355
5	0xbd4d56df	-0.050131675
6	0xbb544082	-0.0032387082
7	0xbc12cedb	-0.008960451
8	0xbd8d6a4e	-0.06905042
9	0xbde3f95b	-0.11131545
10	0x3e144594	0.14479667
11	0xbdc7a099	-0.097474284
12	0x3e8d9b67	0.27657625
13	0x3dc45b12	0.09587683
14	0x3ec14ae7	0.37752458
15	0x3e2c0b05	0.16801079

kp1.mlp.2.weight f4 [16, 16]
0	0x3dffa4aa	0.12482579
1	0xbe26cfb3	-0.16290168
2	0x3dd60736	0.10450594
3	0x3cea00c0	0.02856481
4	0x3e8733c0	0.2640667
5	0xbd96a10b	-0.07354935
6	0x3e879ed0	0.26488352
7	0x3c66a7f9	0.014078134
8	0xbf01bf14	-0.5068219
9	0x3de54dd8	0.11196488
10	0x3c39d56d	0.011342389
11	0x3e88ae38	0.26695418
12	0x3e4d4c6f	0.20048688
13	0xbe7831be	-0.24237725
14	0xbbc4a53c	-0.006001143
15	0xbd89ac50	-0.06722319
16	0xbd094ddd	-0.03352152
17	0x3d195975	0.03743883
18	0xbbcc3d7b	-0.006232915
19	0x3c821fbc	0.015884273
20	0x3e4d14aa	0.20027414
21	0x3e10e457	0.14149605
22	0x3e74ccca	0.23906246
23	0x3e425e65	0.18981321
24	0x3dce53db	0.10074588
25	0xbc89b01f	-0.016807614
26	0xbe52f1de	-0.20600078
27	0x3e019793	0.12655477
28	0xbe5f40db	-0.21802084
29	0xbe508003	-0.20361333
30	0xbcec4317	-0.028840585
31	0x3e10c27a	0.14136687
32	0xbe6d54b8	-0.23176849
33	0xbe373142	-0.17889884
34	0xbe020c8f	-0.12700103
35	0x3d165e51	0.03671104
36	0xbdafaa29	-0.08577377
37	0xbcdfd514	-0.027323283
38	0x3d9d3862	0.0767677
39	0x3e4915a7	0.19637166
40	0x3ea4e98e	0.32209438
41	0x3e512fe0	0.20428419
42	0x3e749d50	0.23888135
43	0x3d465856	0.048424087
44	0x3d3c1a50	0.04592353
45	0xbd1a73f2	-0.03770823
46	0x3d8dd0d7	0.06924599
47	0xbdedd500	-0.11612892
48	0xbe457fa0	-0.19286966
49	0xbdabcf6c	-0.08389172
50	0x3db41794	0.0879356
51	0x3e0126ff	0.12612532
52	0xbc97ed51	-0.018545778
53	0xbd924825	-0.07142667
54	0x3ee52af2	0.44759327
55	0xbdaf12c1	-0.08548499
56	0xbeb93400	-0.36172485
57	0x3e1d5ecf	0.15368198
58	0x3da82259	0.08209676
59	0xbd5262c7	-0.051363733
60	0x3e6844a9	0.22682442
61	0x3da25705	0.07926754
62	0xbe4aef01	-0.19817735
63	0x3dea15f1	0.11429966
64	0x3e8db1df	0.27674767
65	0x3e51e4e2	0.20497468
66	0x3e7bcd3a	0.24590006
67	0xbd94f193	-0.07272639
68	0xbe069f27	-0.1314665
69	0x3da086ed	0.07838235
70	0xbe3542ba	-0.17701235
71	0x3dd343f9	0.10315699
72	0xbe955077	-0.29162952
73	0xbe7204fd	-0.23634715
74	0x3d573ad3	0.052546334
75	0xbdcf9b1e	-0.10137008
76	0x3eb3f3f2	0.35147053
77	0xbe15c58d	-0.14626141
78	0xbd9496fd	-0.07255361
79	0x3e804a3b	0.25056633
80	0x3e122d30	0.1427505
81	0x3c93a931	0.018025013
82	0xbd4aa598	-0.04947433
83	0xbbd555f8	-0.0065104924
84	0xbebe2f4f	-0.3714547
85	0xbe0e5999	-0.13901366
86	0xbdcf28d7	-0.101152115
87	0xbca58072	-0.020202849
88	0x3e96cf47	0.29455015
89	0x3e1a247f	0.15052985
90	0x3e761567	0.24031602
91	0xbc522951	-0.012827233
92	0x3e719dc6	0.23595342
93	0x3de02126	0.109438226
94	0x3e21ed11	0.1581309
95	0xbdbcb531	-0.09214247
96	0xbdfa9859	-0.12236089
97	0xbd19bdd1	-0.03753454
98	0x3ded67ed	0.11592088
99	0xbe80fe0d	-0.25193825
100	0xbe7986b4	-0.24367791
101	0xbdf02c58	-0.11727208
102	0x3eb8777b	0.36028656
103	0x3e367bad	0.17820616
104	0xbe91b17c	-0.28455722
105	0x3e6f8ae4	0.23392826
106	0x3e386ece	0.18011019
107	0xbe366cd6	-0.17814955
108	0xba09bd8c	-0.000525438
109	0x3d846ddf	0.06466269
110	0x3e12dd39	0.14342202
111	0xbdb04c07	-0.08608251
112	0x3ca09010	0.019599944
113	0x3d2425f1	0.040075246
114	0x3e258631	0.16164471
115	0x3e66abde	0.225265
116	0xbe082913	-0.13296919
117	0x3d57c0b2	0.052674003
118	0x3e5679dc	0.20944923
119	0x3e5420ba	0.20715609
120	0xbe8071f4	-0.2508694
121	0x3e3e1171	0.18561341
122	0xbdc9cec8	-0.098538935
123	0x3db98143	0.09057858
124	0x3e1ea28b	0.15491693
125	0x3d465d50	0.048428833
126	0xbe75eb0e	-0.24015447
127	0x3d4f6806	0.050636314
128	0x3c107925	0.008817946
129	0xbdc43385	-0.09580139
130	0xbe85e688	-0.26152444
131	0x3dc8352e	0.09775768
132	0xbd967c81	-0.07347966
133	0x3dfddd73	0.12395754
134	0xbddf3d4d	-0.10900364
135	0xbe6802c5	-0.22657306
136	0xbd9a682b	-0.075394
137	0x3d285da5	0.04110493
138	0x3d6d3e69	0.057920847
139	0xbd7a1033	-0.061050605
140	0xbea9f562	-0.33195025
141	0xbd6025d8	-0.05472359
142	0xbe241b35	-0.16026004
143	0x3e5c3ee4	0.21508366
144	0xbc87d8ee	-0.016582932
145	0xbd08bac9	-0.033381257
146	0xbdbf7fff	-0.09350585
147	0x3d010617	0.03149995
148	0xbdf86bb0	-0.12129915
149	0xbd90b3f0	-0.0706557
150	0x3e92a436	0.28640908
151	0x3e803f94	0.25048506
152	0x3ecb5c94	0.3971907
153	0xbdba2539	-0.09089131
154	0xbcec0bdf	-0.028814254
155	0xbd888a98	-0.0666706
156	0xbdab7cee	-0.08373438
157	0x3d90783b	0.07054182
158	0xbe7e2d9a	-0.24822083
159	0x3de5ec89	0.11226756
160	0xbe094d6f	-0.13408445
161	0xbd35fd8b	-0.04443125
162	0x3e5e09a4	0.21683365
163	0x3e344602	0.17604831
164	0x3e8419ed	0.2580103
165	0x3dfe8695	0.12428013
166	0x3d6f0925	0.05835833
167	0x3dbdc625	0.09266309
168	0xbea517b9	-0.3224466
169	0xbe6cf698	-0.23140943
170	0x3e2dc34f	0.16969036
171	0x3e200869	0.15628208
172	0x3cf3940f	0.029733686
173	0xbdd61051	-0.10452331
174	0xbe5e0ee5	-0.2168537
175	0xbdc14f8e	-0.09439002
176	0xbe1d089d	-0.15335317
177	0xbe64ed7b	-0.22356217
178	0x3de37cae	0.11107765
179	0x3e51d368	0.20490801
180	0x3c3f4d4f	0.011676147
181	0xbe7fb64c	-0.24971884
182	0xbe866105	-0.26245895
183	0xbe7af91c	-0.2450909
184	0xbe781649	-0.24227251
185	0x3da02113	0.078188084
186	0x3e186a2b	0.1488425
187	0xbe75718c	-0.23969096
188	0xbeac263c	-0.3362292
189	0x3d46ea2c	0.048563167
190	0x3e7f3118	0.24921072
191	0xbda93598	-0.08262175
192	0xbe096ae1	-0.13419677
193	0xbda22c0f	-0.0791856
194	0x3e4280f4	0.18994504
195	0x3e12c36a	0.14332357
196	0x3e797187	0.24359713
197	0x3cb8fc9b	0.02258139
198	0xbeb24dda	-0.3482502
199	0xbe6828d2	-0.22671822
200	0xbf37dc76	-0.7182077
201	0xbdf40388	-0.11914736
202	0x3e142336	0.14466557
203	0xbe2af394	-0.1669448
204	0x3dda7ac0	0.10667944
205	0xbcbdf567	-0.023188306
206	0xbdff11f0	-0.12454593
207	0xbd7702d1	-0.06030542
208	0x3e7a65df	0.24452923
209	0x3e20336b	0.15644614
210	0x3e5f1cc6	0.2178832
211	0x3da1cf9c	0.079009265
212	0x3d2d429a	0.042299844
213	0xbe399bbf	-0.18125819
214	0xbe795a93	-0.24350958
215	0x3ca5235d	0.020158464
216	0xbf1772e5	-0.5915969
217	0x3e266fcc	0.16253585
218	0x3ce08c37	0.02741061
219	0x3e918596	0.2842223
220	0x3e93ace8	0.28842854
221	0xbdc3bccd	-0.09557495
222	0x3c754f46	0.014972514
223	0xbe55c816	-0.20877108
224	0xbe1559e3	-0.1458507
225	0x3e1d18f0	0.15341544
226	0xbd86ff1b	-0.06591626
227	0xbe0e9976	-0.13925728
228	0x3e375a2a	0.17905489
229	0x3de5a3d0	0.112128854
230	0x3ea182b6	0.31545037
231	0x3d975cc7	0.07390743
232	0xbd93f70d	-0.072248556
233	0xbda019e5	-0.07817439
234	0xbe1ff658	-0.15621316
235	0xbdaffba0	-0.085929155
236	0xbe99748e	-0.29971737
237	0xbcc88d5b	-0.024481466
238	0xbd8369b6	-0.06416647
239	0xbe2d51c5	-0.16925724
240	0x3e4abdf7	0.19799028
241	0xbdc0a059	-0.09405584
242	0xbe9b9efe	-0.3039474
243	0xbca50c83	-0.020147568
244	0x3d482d22	0.048871167
245	0x3e2fa6a0	0.17153406
246	0xbdeef2ad	-0.116673805
247	0xbce753f6	-0.028238278
248	0x3db605e5	0.08887843
249	0xbe1e1747	-0.15438567
250	0xbe049e1e	-0.12950942
251	0xbe61c45e	-0.22047564
252	0xbe7d4251	-0.24732329
253	0xbd9853fa	-0.07437892
254	0xbe54cefe	-0.20782086
255	0xbb4dcc53	-0.0031402304

kp1.mlp.2.bias f4 [16]
0	0xbd981dcb	-0.074275576
1	0xbe870d49	-0.26377323
2	0xbe7c4e63	-0.24639277
3	0x3da3ef44	0.08004621
4	0x3c95a964	0.018269248
5	0x3e700c91	0.23442294
6	0x3e5cdc1d	0.21568342
7	0xbe14a54d	-0.14516182
8	0xbe18fd4f	-0.1494038
9	0x3d2aecc1	0.041729692
10	0xbe78f638	-0.24312675
11	0xbea00b06	-0.3125841
12	0x3d8f326d	0.0699204
13	0x3e2d5e7a	0.16930571
14	0xbe9b2afb	-0.3030623
15	0xbd53392c	-0.051568195

kp2.mlp.0.weight f4 [32, 19]
0	0x3dad6c05	0.08467869
1	0xbdc58e03	-0.09646227
2	0xbbd9459a	-0.0066306116
3	0xbdb8df15	-0.090269245
4	0xbe282058	-0.16418588
5	0x3e06e42f	0.13172983
6	0xbdac9b17	-0.084280185
7	0xbe453460	-0.1925826
8	0xbe3a6089	-0.18200888
9	0xbdf0e7a0	-0.11762929
10	0xbe638666	-0.22219238
11	0xbccfcbc5	-0.02536572
12	0xbd4cd309	-0.050005946
13	0xbe1c8191	-0.152838
14	0xbe2d8a53	-0.16947298
15	0x3e54a4c0	0.20765972
16	0x3d63bfaf	0.055602726
17	0xbdce6bef	-0.100791804
18	0x3dc00ac4	0.093770534
19	0x3f584f00	0.84495544
20	0xbd29ce2c	-0.041456386
21	0xbf0be825	-0.546511
22	0xbda2cdd1	-0.079494126
23	0xbe786de8	-0.24260676
24	0xbdab5c1d	-0.083671786
25	0xbdb1ed47	-0.08687835
26	0xbe3c1508	-0.18367398
27	0xbd9f1cea	-0.07769187
28	0x3d9f6eda	0.07784815
29	0x3d8e0c0e	0.06935893
30	0xbdf6fe6a	-0.120602444
31	0x3cb1bc37	0.021696193
32	0xbe8b6d6b	-0.27231917
33	0xbeb84c34	-0.35995638
34	0x3e17ea4b	0.1483547
35	0xbe034049	-0.12817492
36	0xbe41b681	-0.18917276
37	0xbe3b0b60	-0.18266058
38	0x3eae1d2f	0.3400664
39	0x3f0f57b9	0.5599323
40	0x3fe7bf38	1.810523
41	0x3e35c784	0.1775189
42	0xbd2896fd	-0.04115962
43	0x3d8c6612	0.06855406
44	0x3db448f7	0.088029794
45	0x3d0f132f	0.034930404
46	0xbcc9d362	-0.024636928
47	0x3d5be6f5	0.053687055
48	0x3dd8d809	0.105880804
49	0xbdae2caa	-0.08504613
50	0x3e4bd60c	0.19905871
51	0xbc2f56f5	-0.0107018845
52	0x3c976edf	0.018485485
53	0x3e002ad8	0.12516344
54	0x3e0a46b4	0.13503534
55	0xbe09ec04	-0.13468939
56	0xbd1b3107	-0.037888553
57	0xbf061acf	-0.52384657
58	0x3e653554	0.22383624
59	0x3fae6bc5	1.3626639
60	0xbe506f06	-0.20354852
61	0x3d9bdc6b	0.07610401
62	0xbdc4a6bc	-0.096021146
63	0xbe3b1891	-0.1827109
64	0xbd136059	-0.035980556
65	0x3d9cd6f5	0.07658187
66	0x3c6c6d3b	0.014430339
67	0xbd803991	-0.0626098
68	0x3db975a9	0.09055645
69	0xbd5d4c91	-0.054028098
70	0xbd16c71f	-0.03681099
71	0xbe363f96	-0.17797694
72	0x3e562347	0.20911895
73	0xbd983ab0	-0.07433069
74	0xbe995530	-0.29947805
75	0xbe520fe9	-0.20513882
76	0x3ef10c64	0.47079766
77	0x3f3a0477	0.7266306
78	0x3f43d2dc	0.7649362
79	0xbd222518	-0.039586157
80	0xbdcbd2bc	-0.09952304
81	0xbcfe75a2	-0.031061951
82	0x3e8c0c62	0.27353197
83	0x3e50e087	0.2039815
84	0x3e33b429	0.17549194
85	0x3d0ea594	0.034825876
86	0x3c0e8d8c	0.00870074
87	0x3dc5bad0	0.09654772
88	0x3d61d31a	0.055132963
89	0x3d62520a	0.05525402
90	0x3db9b7ec	0.090682834
91	0xbe0b33fd	-0.1359405
92	0x3d67f233	0.056627464
93	0x3e12dcdb	0.14342062
94	0xbdcc0ab1	-0.09962977
95	0xbd7c4cf9	-0.061596844
96	0xbcaf9d6b	-0.021437367
97	0x3d64cca2	0.055859216
98	0x3d0a7a47	0.03380802
99	0xbe2a48d8	-0.1662935
100	0xbcf0a1a9	-0.02937396
101	0xbe3937de	-0.18087718
102	0x3da95bdc	0.08269474
103	0xbe4ae8d1	-0.19815375
104	0xbd5da005	-0.054107685
105	0x3c0a85e2	0.008454772
106	0x3e3e195b	0.1856436
107	0x3d749798	0.059714884
108	0x3e03fa52	0.12888458
109	0x3d5e0f00	0.054213524
110	0xbe607f65	-0.21923597
111	0xbe1c9cb1	-0.15294148
112	0xbe62f846	-0.22165021
113	0xbda99f23	-0.08282306
114	0xbf00526c	-0.50125766
115	0xbeb66d26	-0.3563015
116	0x3f9dd546	1.2330711
117	0xbe09fa4b	-0.13474385
118	0xbd815449	-0.06314904
119	0x3dd2a70f	0.1028577
120	0x3e02f244	0.1278773
121	0x3e5c4ae5	0.21512945
122	0x3e12d464	0.14338833
123	0xbc1a7f2e	-0.009429736
124	0x3d8fc7d4	0.07020536
125	0xbe69f9ab	-0.22849147
126	0xbd680b41	-0.056651358
127	0xbe4f22a4	-0.20228058
128	0xbe400b10	-0.1875422
129	0x3cc85bed	0.024457896
130	0xbe2643fc	-0.16236871
131	0xbd7783a8	-0.06042829
132	0x3d9a5e94	0.075375706
133	0x3e3e395c	0.18576568
134	0x3f125237	0.571567
135	0x3fa581f3	1.2930282
136	0xbd72356e	-0.059132986
137	0xbe85acaa	-0.26108295
138	0x3e11166d	0.14168711
139	0xbdf92db7	-0.121669225
140	0xbc5d1f06	-0.013496166
141	0x3e1eba81	0.15500833
142	0x3d1607b8	0.036628455
143	0x3dc2253c	0.09479758
144	0xbe42c21d	-0.19019361
145	0x3c56cbb0	0.013110086
146	0x3e4e247a	0.20131102
147	0xbe971918	-0.29511333
148	0x3e56f6a6	0.20992526
149	0xbe2dad68	-0.1696068
150	0xbe05564f	-0.13021205
151	0xbe2498e2	-0.16073945
152	0xbf036312	-0.51323044
153	0xbeba951b	-0.36441883
154	0x3f433568	0.76253366
155	0xbe83744a	-0.2567466
156	0xbe82048f	-0.25394103
157	0xbe80ead0	-0.25179148
158	0xbdd14aea	-0.10219367
159	0x3e62ce08	0.22148907
160	0xbd866a3b	-0.065632306
161	0x3d88fafe	0.06688498
162	0x3ded4c09	0.11586768
163	0x3d24521b	0.040117364
164	0xbe4ad9b1	-0.19809605
165	0xbe6588b3	-0.22415428
166	0xbe31d5e2	-0.17366746
167	0x3e685e0d	0.22692128
168	0xbdf98c25	-0.121849336
169	0xbe749287	-0.23884021
170	0xbe6149de	-0.22000834
171	0x3e7edbaa	0.24888483
172	0xbeeda5a6	-0.46415442
173	0x3f8535f5	1.0407091
174	0xbe2de91e	-0.16983458
175	0x3e060af2	0.13090113
176	0x3ba54a94	0.005044291
177	0xbca150a5	-0.019691775
178	0xbda32f88	-0.0796805
179	0xbe068108	-0.13135159
180	0x3e3c0a9b	0.1836342
181	0xbe6c00b1	-0.23047139
182	0xbe869214	-0.26283324
183	0xbe3be2d4	-0.18348247
184	0xbe27bb62	-0.16380075
185	0xbcaf6974	-0.021412589
186	0xbdd6a0fc	-0.10479924
187	0xbd6f3c09	-0.058406863
188	0xbe83af81	-0.25719836
189	0xbe724f7d	-0.23663135
190	0xbea0d9bc	-0.31416118
191	0xbe8186f2	-0.25298268
192	0xbfa85ac7	-1.3152703
193	0xbcdcb391	-0.026941093
194	0xbea8337f	-0.32851788
195	0x3da43b8d	0.08019171
196	0xbe4b5617	-0.1985706
197	0xbd70d1d5	-0.05879386
198	0x3df0361a	0.11729069
199	0x3d92a955	0.07161204
200	0xbc26e471	-0.010186301
201	0xbe205364	-0.15656811
202	0xbe1ac653	-0.15114717
203	0xbe9a9100	-0.3018875
204	0xbda75b96	-0.081717655
205	0xbd3346e2	-0.04376877
206	0x3e172079	0.14758481
207	0xbea28a88	-0.31746316
208	0x3da8621c	0.08221838
209	0xbea70ca9	-0.32626846
210	0x3c446cd1	0.0119888345
211	0x3faa2efb	1.3295587
212	0x3e348aed	0.17631121
213	0xbe513830	-0.2043159
214	0x3dd98937	0.10621875
215	0xbd81216e	-0.06305204
216	0x3e09f09b	0.1347069
217	0xbde7748b	-0.11301526
218	0xbe7c693b	-0.24649517
219	0xbd1efcf6	-0.03881546
220	0xbd49ecdc	-0.049298152
221	0xbe8750be	-0.2642879
222	0xbdf5c0d8	-0.11999673
223	0x3d115667	0.03548279
224	0x3e376320	0.17908907
225	0x3e6873f4	0.22700483
226	0xbde24b80	-0.11049557
227	0xbe5024bc	-0.20326513
228	0xbe39668d	-0.18105526
229	0x3f0548d6	0.52064264
230	0xbd8508c3	-0.06495812
231	0xbd99b0f0	-0.07504451
232	0x3e55c12f	0.20874475
233	0xbca51ea3	-0.02015621
234	0x3e1cb7bb	0.15304463
235	0x3d11b522	0.035573132
236	0x3e1d65d3	0.15370874
237	0xbe412656	-0.1886228
238	0xbe7b8f3e	-0.24566361
239	0xbe572707	-0.21010982
240	0xbe0cf57d	-0.13765521
241	0xbdbf8bae	-0.09352814
242	0xbe0811e0	-0.13288069
243	0xbdfc50cd	-0.12320099
244	0x3e225a02	0.15854648
245	0x3e184e0a	0.1487352
246	0xbdf345e8	-0.11878568
247	0xbf18d485	-0.5969928
248	0xbe607f10	-0.2192347
249	0xbe102158	-0.1407522
250	0x3e4f6390	0.20252824
251	0xbe1ca722	-0.15298131
252	0x3e1f910c	0.15582675
253	0x3e999a31	0.3000045
254	0xbddce3ce	-0.10785638
255	0x3cbf5df5	0.023360232

kp2.mlp.0.bias f4 [32]
0	0xbe6a7461	-0.22895958
1	0x3db4fec1	0.08837653
2	0x3d8f93fa	0.07010646
3	0x3ed3d65e	0.41374487
4	0x3de00db4	0.10940114
5	0xbdd33e35	-0.103145994
6	0x3e5fc1a9	0.21851219
7	0xbc0817d6	-0.008306464
8	0x3e9f13e3	0.3106986
9	0x3d71b452	0.059009857
10	0xbd8d6946	-0.06904845
11	0x3df4bdc7	0.1195026
12	0x3e709631	0.23494793
13	0xbde1a34e	-0.11017476
14	0x3e82120d	0.25404397
15	0x3ea186ac	0.3154806
16	0x3e52f792	0.20602253
17	0x3da519bf	0.08061551
18	0x3e9a20e2	0.30103213
19	0xbe32a706	-0.17446527
20	0x3dc24191	0.09485162
21	0x3e5a2668	0.21303713
22	0x3b8bb4a7	0.004263479
23	0x3d9e851a	0.07740231
24	0xbe900858	-0.28131366
25	0x3e2c530d	0.16828556
26	0x3e48541c	0.19563335
27	0xbd8feee8	-0.070279896
28	0x3e325133	0.17413788
29	0xbe5324a7	-0.2061945
30	0xbe19a20a	-0.15003219
31	0x3d905eb4	0.07049313

kp2.mlp.2.weight f4 [32, 32]
0	0x3e18d3dd	0.1492457
1	0x3bd11723	0.006380932
2	0x3ec16cd4	0.37778342
3	0x3d81a9f6	0.063312456
4	0x3e8f5bd4	0.27999747
5	0x3e068303	0.13135915
6	0x3ba6b49b	0.005087448
7	0x3e6a7f60	0.22900152
8	0xbcfca84d	-0.03084197
9	0xbe7de388	-0.24793828
10	0x3ca97004	0.020683296
11	0x3e1e08af	0.15433
12	0xbb17c408	-0.0023157615
13	0x3dc36595	0.095408596
14	0x3e562690	0.20913148
15	0xbd7f4e4c	-0.06233053
16	0xbebc564a	-0.36784583
17	0xbc976dac	-0.018484913
18	0xbdacfe0d	-0.08446894
19	0x3d8fd83c	0.07023665
20	0xbe075854	-0.13217288
21	0xbd94c1ce	-0.07263528
22	0x3c0365ac	0.008019846
23	0x3ef53f51	0.4789987
24	0x3d655152	0.055985756
25	0x3e10e549	0.14149965
26	0xba993dde	-0.0011691411
27	0xbad32682	-0.0016109499
28	0xbe1dc6e6	-0.15407905
29	0xbe1e44f8	-0.15455997
30	0xbdb9ce2e	-0.09072529
31	0xbda950c2	-0.082673565
32	0xbe1b2734	-0.15151674
33	0xbeba7e9e	-0.36424726
34	0xbe892128	-0.2678311
35	0xbdceaa79	-0.10091109
36	0xbea734eb	-0.3265756
37	0xbdcde8e3	-0.10054185
38	0x3d98fbe7	0.074699216
39	0x3d1858eb	0.037194174
40	0x3daed832	0.0853733
41	0x3c522fcd	0.012828779
42	0x3dc85100	0.097810745
43	0x3e38ffc7	0.18066321
44	0x3e4ab819	0.1979679
45	0x3e4aa3ab	0.19788997
46	0xbe4e7bab	-0.20164363
47	0xbea4b34d	-0.32168046
48	0xbde3c2cb	-0.11121138
49	0xbe62d370	-0.2215097
50	0xbe844c31	-0.2583938
51	0x3d8fa7b1	0.070144065
52	0x3df39ff0	0.1189574
53	0xbc3cf915	-0.011533995
54	0x3e782330	0.24232173
55	0x3e9b0540	0.30277443
56	0xbe0c3368	-0.13691485
57	0x3daea48a	0.08527477
58	0xbe3359ee	-0.17514774
59	0x3e175b1b	0.14780848
60	0x3d99d6f9	0.07511706
61	0xbda5e5fb	-0.08100506
62	0x3e05fc94	0.13084632
63	0xbb15128b	-0.0022746648
64	0x3d9e859c	0.07740328
65	0x3d4ffac6	0.050776266
66	0xbe04b011	-0.12957789
67	0xbc6b5384	-0.014363173
68	0xbe716860	-0.23574972
69	0x3db87749	0.09007127
70	0xbd5a6a89	-0.053324256
71	0x3df247af	0.11830079
72	0xbdefcb86	-0.11708741
73	0xbe50895a	-0.20364895
74	0x3e3c4f6a	0.18389669
75	0xbe39f436	-0.18159565
76	0x3dc3e2fb	0.095647775
77	0xbd1489b3	-0.036264133
78	0xbe5305c0	-0.20607662
79	0xbeeb63f5	-0.459747
80	0xbe973099	-0.29529265
81	0xbea50eed	-0.3223795
82	0xbda02a3d	-0.07820556
83	0x3e9012c7	0.28139326
84	0xbe6b3fbd	-0.22973533
85	0xbeb9e307	-0.3630602
86	0x3db0dce6	0.08635883
87	0xbee6e24d	-0.4509453
88	0x3e1d3cad	0.15355177
89	0xbe8393f0	-0.25698805
90	0xbe2f1094	-0.17096168
91	0xbe29654a	-0.16542545
92	0xbd2b66b8	-0.041846007
93	0x3f0b12bd	0.5432547
94	0x3dd3e99c	0.10347292
95	0xbd16b5f4	-0.036794618
96	0xbdfc1001	-0.1230774
97	0xbce422da	-0.02784865
98	0x3e4a311e	0.19745299
99	0xbdac2241	-0.08404971
100	0x3dbd34b9	0.09238572
101	0xbd51b61d	-0.051199067
102	0x3d1dfc39	0.038570616
103	0x3d83174a	0.064009264
104	0xbdb6af07	-0.089201026
105	0x3b7d4cc7	0.00386505
106	0xbe8cda1e	-0.2751016
107	0xbe08c2f2	-0.13355616
108	0xbdc9e700	-0.09858513
109	0xbe163ee0	-0.14672422
110	0x3e6dddff	0.23229216
111	0x3e0d1ddf	0.13780926
112	0xbe85d6d8	-0.26140475
113	0xbbe45225	-0.0069678
114	0xbd304ea3	-0.043043744
115	0x3e233f03	0.15942006
116	0x3d309d86	0.043118976
117	0xbcd85f50	-0.026412636
118	0xbe0b3504	-0.13594443
119	0x3d5c6d83	0.053815376
120	0x3c1c2348	0.009529896
121	0x3d049005	0.03236391
122	0x3e892cf9	0.26792124
123	0x3e781fe9	0.24230923
124	0xbd805570	-0.06266296
125	0x3d4edd55	0.050504047
126	0x3dabb95b	0.08384963
127	0xbe490fcf	-0.19634937
128	0x3e20a0d1	0.15686347
129	0xbe075459	-0.1321577
130	0xbefe3431	-0.49649194
131	0xbe907496	-0.28213948
132	0xbe813546	-0.25235957
133	0xbe0baafc	-0.13639444
134	0xbdc3b29d	-0.09555552
135	0xbe7662fe	-0.240612
136	0xbd731416	-0.059345327
137	0x3c0c55cf	0.00856538
138	0x3e3e73f2	0.18598917
139	0xbe3aadfa	-0.1823043
140	0xbe33df92	-0.17565754
141	0x3db371de	0.08761953
142	0xbce43f51	-0.027862223
143	0xbe8e4814	-0.27789366
144	0xbd9e2a58	-0.0772292
145	0xbec99b06	-0.39376086
146	0xbdab8cd1	-0.08376468
147	0x3e026a14	0.12735778
148	0xbc6bf00d	-0.014400494
149	0xbdf32015	-0.118713535
150	0x3d55cf9e	0.052199952
151	0xbe97cb63	-0.2964736
152	0x3e961ee4	0.29320443
153	0xbec73a90	-0.38911867
154	0xbe5066bf	-0.20351695
155	0x3e90b81f	0.28265473
156	0x3d9ac083	0.0755625
157	0xbe77b33e	-0.24189469
158	0x3e53918f	0.20660995
159	0x3e8840a9	0.26611832
160	0x3b822085	0.003971162
161	0xbdf9b583	-0.12192824
162	0x3cd9b07d	0.026573414
163	0xbe9ab28b	-0.30214342
164	0x3e9d5831	0.30731347
165	0xbcf72ddf	-0.03017324
166	0x3cb8692f	0.022511093
167	0x3dd29690	0.10282624
168	0xbde8388f	-0.11338913
169	0xbd590f47	-0.052993085
170	0xbdc2bf8d	-0.09509192
171	0xbd094ece	-0.03352242
172	0x3d39da18	0.045374006
173	0x3dafae34	0.085781485
174	0xbda7054c	-0.08155307
175	0x3e648e60	0.22319937
176	0xbe85a2a6	-0.26100653
177	0x3c50b072	0.01273738
178	0x3e59a1be	0.21253106
179	0x3d2c0113	0.041993212
180	0xbd196521	-0.03744996
181	0xbd7bd42c	-0.06148164
182	0x3dd80d00	0.105493546
183	0x3e7c71e3	0.2465282
184	0x3e40aa5b	0.18814985
185	0x3d3192a4	0.043352738
186	0x3e6ffab4	0.2343548
187	0xbd1cf645	-0.0383208
188	0xbe502f18	-0.20330465
189	0x3df57dcb	0.11986884
190	0x3e52690c	0.20547885
191	0xbe608e1e	-0.21929213
192	0xbd712387	-0.058871772
193	0x3e2616b7	0.16219603
194	0xbe738b1b	-0.23783533
195	0xbed58798	-0.41705012
196	0xbca4e031	-0.020126434
197	0x3b0c0c66	0.0021369695
198	0xbe5f51c8	-0.21808541
199	0xbe655633	-0.22396164
200	0xbcdecf4f	-0.027198462
201	0xbdf404cc	-0.119149774
202	0x3e2ca444	0.16859537
203	0xbd353a84	-0.044245258
204	0xbdc49af7	-0.0959987
205	0xbe04db93	-0.12974386
206	0xbe1020e5	-0.14075048
207	0x3e40c440	0.18824863
208	0xbe010f4d	-0.12603493
209	0x3da08340	0.07837534
210	0x3e80ac93	0.25131664
211	0x3e8249fc	0.2544707
212	0x3d6bdd90	0.057584345
213	0xbcf2a236	-0.029618364
214	0xbdb3a745	-0.087721385
215	0xbe7da238	-0.24768913
216	0x3e87b2f3	0.26503715
217	0xbd922930	-0.07136762
218	0xbd2af0a9	-0.041733418
219	0x3e889cef	0.2668223
220	0xbe770ebb	-0.24126713
221	0xbece56b2	-0.40300518
222	0x3e3e14ca	0.18562618
223	0xbbc465ff	-0.005993604
224	0x3dc111ff	0.094272606
225	0xbe8fb5d7	-0.2806842
226	0xbc678657	-0.01413115
227	0xbca22810	-0.019794494
228	0xbebc02af	-0.36720797
229	0xbcf1de60	-0.029524982
230	0x3e600fee	0.21881077
231	0xbbcdf270	-0.0062850043
232	0x3e51f4f1	0.20503594
233	0xbe2dc111	-0.1696818
234	0xbe2da5d7	-0.16957794
235	0x3c099092	0.008396285
236	0xbd776253	-0.060396504
237	0x3d70cdf8	0.058790177
238	0xbda38e44	-0.079861194
239	0xbe9ec506	-0.31009692
240	0x3dd07c3d	0.101799466
241	0x3dbb1a9e	0.09135936
242	0xbe97a504	-0.29618084
243	0xbd8d5566	-0.06901054
244	0x3dfde85f	0.12397837
245	0x3dc9171d	0.09818862
246	0x3e608894	0.219271
247	0xbd52c37e	-0.051455967
248	0x3dc63af7	0.096792154
249	0x3de72e3c	0.112881154
250	0x3db69b37	0.08916324
251	0x3e27943f	0.16365145
252	0x3e4cee3b	0.20012753
253	0x3b2492d2	0.0025111926
254	0xbdf5e2e5	-0.12006167
255	0xbdfbd507	-0.12296491

kp2.mlp.2.bias f4 [32]
0	0xbd7eb528	-0.062184483
1	0xbd60191f	-0.054711457
2	0xbdc13624	-0.09434155
3	0x3cc47bd5	0.023984829
4	0xbe04fe35	-0.12987597
5	0x3e0aefdf	0.13568066
6	0xbe40e930	-0.18838954
7	0xbd5bc62a	-0.05365578
8	0x3d8c1ac1	0.068410404
9	0xbd35a30d	-0.04434495
10	0xbe167f78	-0.14697063
11	0xbd8c83a9	-0.0686105
12	0xbdc18f72	-0.09451188
13	0xbe375af9	-0.17905797
14	0xbb087fce	-0.002082813
15	0xbd1d6f68	-0.038436323
16	0xbe87ef00	-0.2654953
17	0xbdeea817	-0.11653154
18	0xbd927ac1	-0.0715232
19	0xbe8f809e	-0.28027815
20	0xbe543892	-0.20724705
21	0xbd3cc359	-0.046084736
22	0x3d7e6986	0.062112354
23	0xbe1f9847	-0.15585433
24	0x3d961061	0.07327343
25	0x3dd7cd60	0.10537219
26	0xbe451822	-0.19247487
27	0xbd3275cb	-0.043569367
28	0xbe7c75b4	-0.24654275
29	0xbdd444fc	-0.1036472
30	0x3d675596	0.056478105
31	0x3db82082	0.089905754

head.0.weight f4 [32, 32]
0	0x3e24a160	0.16077185
1	0x3dbfc2b1	0.09363306
2	0xbd007593	-0.031362128
3	0x3c64dc0d	0.01396848
4	0x3d67e27d	0.05661248
5	0x3d5992f7	0.053118672
6	0xbd46988b	-0.04848532
7	0x3e55ec4a	0.20890918
8	0x3e6a49fe	0.22879788
9	0x3c6b30d1	0.0143549
10	0xbd7fcc07	-0.062450435
11	0xbe4f587a	-0.20248595
12	0xbe26f9db	-0.1630625
13	0x3e8483ef	0.25881907
14	0xbe91fe31	-0.28514245
15	0x3da438a7	0.08018618
16	0xbd7651e8	-0.060136706
17	0xbc15a8a0	-0.009134442
18	0x3e49e045	0.19714458
19	0x3e3cb067	0.18426667
20	0x3d8dcf93	0.06924357
21	0x3cfe2b15	0.031026402
22	0xbe112b99	-0.14176787
23	0x3ea8d95c	0.32978332
24	0xbde4123d	-0.11136291
25	0x3e9f5689	0.3112071
26	0x3d481259	0.048845623
27	0xbdf5d4b3	-0.1200346
28	0xbc5ddba4	-0.013541136
29	0xbcd2e732	-0.025745008
30	0x3ed1a10d	0.40943184
31	0x3d5013d6	0.050800167
32	0x3cc83e10	0.024443656
33	0x3ced8b0c	0.028996967
34	0x3d36dfc0	0.04464698
35	0x3dec10e2	0.11526658
36	0x3e0816ca	0.13289943
37	0xbdaa641f	-0.08319878
38	0x3e26ab9a	0.16276398
39	0xbe49ca60	-0.19706106
40	0x3d69ad60	0.05705011
41	0x3e14bb01	0.14524461
42	0x3e3a23d2	0.18177727
43	0xbdc8338a	-0.09775455
44	0x3cc7a73b	0.024371734
45	0xbd0aa18b	-0.033845466
46	0xbe0de949	-0.13858522
47	0x3d60f11c	0.05491744
48	0x3c545577	0.0129598295
49	0x3e00cf18	0.12579
50	0xbd95d464	-0.07315901
51	0xbe149e2b	-0.14513461
52	0xbab750e6	-0.0013985902
53	0x3df79fce	0.12091027
54	0xbd81111d	-0.06302092
55	0xbdbb12b4	-0.09134427
56	0xbe164915	-0.14676316
57	0x3dcc22f4	0.09967604
58	0xbd475ee2	-0.04867447
59	0xbb9f381c	-0.0048589837
60	0x3e3a7e31	0.182122
61	0x3dba2272	0.09088601
62	0xbe42a87a	-0.19009581
63	0xbe463973	-0.19357853
64	0x3d9eff43	0.07763531
65	0xbe53818c	-0.20654887
66	0xbd90c1fe	-0.07068251
67	0x3dff241d	0.1245806
68	0xbe7fbc55	-0.24974187
69	0xbe112e5e	-0.14177844
70	0xbee127ae	-0.43975586
71	0x3d9ee209	0.077579565
72	0x3e231c82	0.15928844
73	0x3e80e254	0.25172675
74	0xbe7dc03f	-0.24780367
75	0xbe64ac6c	-0.22331399
76	0xbe647b56	-0.22312674
77	0x3b2056e6	0.0024465858
78	0xbe9b4b7d	-0.3033103
79	0x3df9a987	0.12190538
80	0xbe8ff3cf	-0.281157
81	0xbe1575df	-0.14595746
82	0x3c8e31d2	0.01735774
83	0xbe542862	-0.2071853
84	0xbd480a25	-0.0488378
85	0xbef4b5b3	-0.47794876
86	0x3e379fdd	0.17932077
87	0xbd360ab3	-0.044443797
88	0x3e999c76	0.30002183
89	0xbe0751ae	-0.13214752
90	0xbe48dbd4	-0.19615108
91	0x3e5d2192	0.21594837
92	0xbe996d42	-0.2996617
93	0xbe2c87c2	-0.16848662
94	0xbeb7d11f	-0.35901734
95	0xbd8fc2e2	-0.07019593
96	0x3bbae2e1	0.0057033156
97	0xbdd64ad5	-0.10463492
98	0xbe991114	-0.29895842
99	0x3e4fcd90	0.2029326
100	0xbe889a6a	-0.2668031
101	0x3dd9b1fd	0.10629652
102	0xbedd4b5a	-0.4322155
103	0x3c8aa34c	0.01692357
104	0x3e4335d0	0.19063497
105	0x3dea78c5	0.11448816
106	0xbe5c252f	-0.2149856
107	0xbe89132a	-0.26772434
108	0xbd901c19	-0.07036609
109	0x3d5e06ee	0.054205827
110	0xbebf5840	-0.37372017
111	0xbd4215a6	-0.047383927
112	0xbe582c47	-0.2111064
113	0xbe4c8b95	-0.19975121
114	0xbe906248	-0.28199983
115	0xbe0a50ea	-0.13507429
116	0xbde4b58f	-0.11167442
117	0xbf04acb2	-0.5182601
118	0x3d19b5c9	0.03752688
119	0xbe377863	-0.17917018
120	0x3e7ad31c	0.24494594
121	0xbcb77d57	-0.022398634
122	0x3c4da9c9	0.012552687
123	0x3e6f75b1	0.2338474
124	0xbeade0d1	-0.33960584
125	0xbea31576	-0.3185231
126	0xbe47e356	-0.19520316
127	0x3d45beb5	0.048277576
128	0x3d68aab5	0.056803424
129	0xbc9543e7	-0.018220855
130	0x3f25c507	0.64753765
131	0xbc805729	-0.015666561
132	0x3e13ac3c	0.14421171
133	0x3e68b4f3	0.22725277
134	0xbd4006cc	-0.046881482
135	0x3a47d509	0.0007622992
136	0x3e4d480b	0.20047013
137	0x3d7c05a9	0.061528835
138	0x3e4b174c	0.19833106
139	0x3e0bb7ea	0.13644376
140	0xbdd84370	-0.10559738
141	0xbbdce617	-0.006741296
142	0x3f1e782a	0.61902106
143	0x3c850154	0.016235985
144	0xbd3a8625	-0.045538086
145	0xbd51e2fd	-0.051241864
146	0x3e4dbcb7	0.2009152
147	0x3cedebcb	0.029043099
148	0xbe0acc3b	-0.1355447
149	0x3dfa16bf	0.1221137
150	0x3ca14e0e	0.01969054
151	0x3dbc65bb	0.09199091
152	0x3df2a4a7	0.11847811
153	0xbea87476	-0.32901353
154	0x3e60b13b	0.21942608
155	0x3e8b862e	0.27250808
156	0x3eb24157	0.34815475
157	0x3ecd9f28	0.4016049
158	0x3da9cabc	0.08290622
159	0xbe8bb1ac	-0.2728399
160	0xbc4743a4	-0.012162123
161	0xbdb16f01	-0.086637504
162	0x3e8b2d9a	0.2718323
163	0x3d21dcb8	0.039517134
164	0xbcf8bfbb	-0.030364862
165	0x3dfa03ae	0.12207733
166	0xbdaa8365	-0.08325843
167	0xbca1cc00	-0.019750595
168	0x3e2a0702	0.16604236
169	0x3a9d07a2	0.0011980424
170	0x3d9850ad	0.07437263
171	0x3e363377	0.1779307
172	0xbdc912b1	-0.09818018
173	0x3e3ea031	0.18615796
174	0x3e2ce117	0.1688274
175	0xbdfca044	-0.12335256
176	0x3dddf7ab	0.108382545
177	0xbd6953f1	-0.05696482
178	0xbdaf1992	-0.08549799
179	0x3cb78448	0.022401944
180	0xbe495115	-0.19659837
181	0x3e825aa6	0.25459784
182	0xbd0b9ecb	-0.034086984
183	0x3a86dfc3	0.0010290075
184	0x3e116124	0.14197212
185	0xbd32237e	-0.04349088
186	0xbd49ee6d	-0.049299646
187	0x3d54a825	0.051918168
188	0x3e937861	0.2880278
189	0xbd6f31d6	-0.058397137
190	0xbbeddc85	-0.007258954
191	0x3dd0e8fc	0.10200688
192	0xbc801652	-0.015635643
193	0x3da7e7b1	0.081984885
194	0xbe32a270	-0.17444777
195	0x3e1353d5	0.14387448
196	0xbeb07d93	-0.34470806
197	0x3e4d17f4	0.20028669
198	0xbe3a3af1	-0.18186547
199	0x3e667acb	0.2250778
200	0xbd707f7f	-0.05871534
201	0x3e80eaa0	0.25179005
202	0xbd8812d9	-0.0664422
203	0xbe90b0a2	-0.2825976
204	0xbe49fcfc	-0.19725412
205	0x3d5cdffc	0.053924546
206	0xbe188c54	-0.14897281
207	0x3e1345c2	0.14382079
208	0xbe026ed9	-0.12737598
209	0xbd85d8ed	-0.06535516
210	0xbe0b2246	-0.13587293
211	0x3b1b45cd	0.0023692728
212	0xbda2e42a	-0.07953675
213	0xbf06d3c2	-0.52666867
214	0x3e2daa9a	0.1695961
215	0xbdba0c62	-0.09084393
216	0x3e0a5d13	0.13512067
217	0x3e615b04	0.22007376
218	0xbcd534e0	-0.02602619
219	0x3e234522	0.15944341
220	0xbdcfae86	-0.101407096
221	0xbe19c2c8	-0.1501571
222	0x3de3933d	0.11112068
223	0xb938a04f	-0.00017607327
224	0xbe6e365f	-0.23262928
225	0xbdc4702a	-0.09591706
226	0xbd11eb22	-0.03562463
227	0xbe52e2d5	-0.20594342
228	0x3bf5f84e	0.007506407
229	0xbe3295a2	-0.17439893
230	0xbe518ade	-0.2046313
231	0xbe05c826	-0.13064632
232	0xbd94f7cd	-0.07273827
233	0xbe1d8196	-0.15381464
234	0x3d3662a5	0.04452767
235	0xbdab759d	-0.08372042
236	0x3cda693a	0.026661504
237	0xbdded19c	-0.108798236
238	0xbc878641	-0.01654351
239	0x3d67f08f	0.0566259
240	0x3d862413	0.06549849
241	0xbd95c046	-0.07312064
242	0xbd1abddd	-0.037778724
243	0x3def6d31	0.116907485
244	0x3e0a4196	0.13501582
245	0x3d0757d0	0.03304273
246	0xbdf841a6	-0.121218964
247	0xbdabfa62	-0.08397366
248	0xbe170422	-0.1474767
249	0x3e047890	0.12936616
250	0xbe0d10e9	-0.13775982
251	0xbdfc6b4a	-0.12325151
252	0xbe0f23ee	-0.1397855
253	0xbde77853	-0.11302247
254	0xbd87578a	-0.066084936
255	0x3c9d67c6	0.019214522

head.0.bias f4 [32]
0	0x3ae022b7	0.001710019
1	0xbe13cc51	-0.1443341
2	0x3e85de67	0.26146242
3	0x3eb63ec1	0.35594752
4	0xbe5accc4	-0.21367174
5	0xbe51b820	-0.20480394
6	0x3c99c7d7	0.018772049
7	0x3dce8126	0.10083227
8	0x3ddc2cf8	0.107507646
9	0x3d7cdb74	0.061732724
10	0x3e52665d	0.20546861
11	0xbda28bf2	-0.07936849
12	0xbbd8a29b	-0.006611181
13	0x3eb6afc4	0.35680974
14	0xbd8eb84b	-0.06968745
15	0xbb5c6898	-0.0033631679
16	0x3b5b33cd	0.0033447624
17	0x3e1e5824	0.1546331
18	0xbe3d399b	-0.18479006
19	0xbc9ab5e5	-0.018885562
20	0x3dc5178f	0.09623634
21	0xbd9c59ad	-0.07634292
22	0x3d0094d7	0.031391945
23	0xbe393ac3	-0.18088822
24	0xbd74f126	-0.05980029
25	0x3ce6c065	0.028167913
26	0xbc765b29	-0.015036383
27	0x3cbc6121	0.022995533
28	0xbd7402a9	-0.05957285
29	0xbd6114a2	-0.054951318
30	0x3e93a5d9	0.2883747
31	0x3deada4f	0.1146742

head.2.weight f4 [3, 32]
0	0x3d9393f1	0.07205952
1	0x3c3855d4	0.011250932
2	0x3bfdb389	0.0077423495
3	0xbdd3fd16	-0.10351007
4	0x3f0acb34	0.54216313
5	0x3e3e1e59	0.18566264
6	0x3ca34669	0.019931035
7	0xbe294b79	-0.16532697
8	0x3d4ca175	0.049958665
9	0xbe324651	-0.17409636
10	0xbe14da47	-0.14536391
11	0x3de5ffc7	0.11230426
12	0xbd78b0fe	-0.060715668
13	0xbee06017	-0.4382331
14	0xbd9fc0e2	-0.07800461
15	0xbc65978b	-0.014013181
16	0xbc52f2be	-0.012875257
17	0xbbe6a9fa	-0.0070393058
18	0x3ca01a9d	0.01954394
19	0x3e82042a	0.25393802
20	0x3ecbf0c5	0.3983213
21	0x3f539815	0.82653934
22	0xbe86bc76	-0.2631566
23	0x3e9f164a	0.31071693
24	0x3e9d7e11	0.30760244
25	0x3d0d8115	0.03454693
26	0xbe163f19	-0.14672507
27	0x3e3a5f7b	0.18200485
28	0x3df5c1a9	0.11999828
29	0x3e85de3f	0.26146123
30	0xbec20dfe	-0.379013
31	0xbe353a8c	-0.17698115
32	0xbd76f172	-0.060288854
33	0x3b0bd5d2	0.0021337164
34	0xbeb85b76	-0.3600728
35	0xbf055c85	-0.520943
36	0xbf03c57b	-0.51473206
37	0xbecd9046	-0.40149134
38	0xbe8f3d5c	-0.279765
39	0x3d16dea2	0.036833413
40	0xbe723dce	-0.23656389
41	0xbe7fdb44	-0.24985987
42	0xbe867d15	-0.26267305
43	0x3e08d85b	0.13363783
44	0x3e37aa13	0.17935972
45	0x3ef98678	0.48735404
46	0x3dfd97bd	0.123824574
47	0x3da19bb6	0.07891028
48	0x3e2912a9	0.16511025
49	0x3e5e75c0	0.21724606
50	0x3e658e7d	0.22417636
51	0xbd9bdf6f	-0.07610976
52	0xbe7c2300	-0.24622726
53	0xbf47b809	-0.7801519
54	0xbe7a395d	-0.24435945
55	0x3e4ad896	0.19809183
56	0x3e39a45a	0.18129101
57	0xbe962bf2	-0.29330403
58	0x3e19c00b	0.15014665
59	0xbe0c8424	-0.13722283
60	0xbe2828e7	-0.16421853
61	0x3d3b8f2f	0.045790847
62	0x3ea8af0a	0.32946044
63	0x3e5ced06	0.21574792
64	0xbe6c1a71	-0.23056962
65	0x3dd1151f	0.10209107
66	0x3e73146a	0.23738256
67	0x3daaac0c	0.083335966
68	0x3d97dbf1	0.07414997
69	0x3c7096ee	0.014684422
70	0xbcc49f84	-0.024001844
71	0xbcd44859	-0.025913404
72	0xbd7bc28f	-0.061464842
73	0x3eb5f718	0.3554008
74	0x3ea0c5c0	0.3140087
75	0x3e278c47	0.16362105
76	0xbdded112	-0.10879721
77	0x3e9781f5	0.29591337
78	0xba908ad7	-0.0011027706
79	0x3e1d0665	0.1533447
80	0xbe87cb19	-0.2652214
81	0xbef343e3	-0.4751273
82	0xbec65551	-0.38736966
83	0xbdd546a2	-0.10413863
84	0x3d042e80	0.03227091
85	0x3ce9cbc4	0.028539546
86	0x3edf048a	0.4355815
87	0xbeabf427	-0.3358471
88	0xbea17761	-0.3153639
89	0xbdc5de12	-0.09661497
90	0x3b91c192	0.004448124
91	0x3dcf45a1	0.101207025
92	0xbea90f2b	-0.33019385
93	0xbea2ece3	-0.31821355
94	0x3ef3ef37	0.47643444
95	0x3ea4f433	0.3221756

head.2.bias f4 [3]
0	0xbd8ac9be	-0.067767605
1	0x3e18b899	0.14914168
2	0x3b3a780f	0.0028452908
