checkpoints_kpconv_24nov/best_model_24nov_mIoU_0.2975.pth (torch, 19357 bytes, 14 tensors)

fc0.weight f4 [8, 3]
00000000: ff12 b13d e24e e2be 6dec 20bf d09e fbbe
00000010: 83a9 9d3e c3fe a53e e366 febc 4234 25bd
00000020: 10a5 25bf 5b52 093f 9730 d0be a321 c3bd
00000030: f56c a33c f71f a23e 669b 083e e782 8fbd
00000040: 5dcf c03e 9c66 de3e 5bb0 f1be 4bfb e8bd
00000050: 11bc 903d b988 a33e aff0 923d e83a 9bbe
0.08646201 -0.44200808 -0.6286076 -0.49144602 0.3079339 0.3242093 -0.03105492 -0.04033304
-0.6470499 0.5364129 -0.4066207 -0.095279 0.019949416 0.31665012 0.1334053 -0.070073895
0.37658206 0.4343766 -0.4720486 -0.11376055 0.07067121 0.3194025 0.07174813 -0.3031838

fc0.bias f4 [8]
00000000: 5a8e b73e cd5c eb3e 3f3f 853e c2b3 6fbe
00000010: 80fd 1b3f 7884 e1be e583 cc3d 61d3 1cbc
0.35850793 0.4596924 0.26024815 -0.23408416 0.60933685 -0.44046378 0.099860944 -0.009571881

kp1.mlp.0.weight f4 [16, 11]
00000000: 505c e63e 3d59 47be 86e9 23be f11a a9bd
00000010: 4bcb 933e b0d5 743d ded0 8e3e 429d 23be
00000020: ddca 0abe 7f69 3dbe 53c2 923e 7b45 473e
00000030: 3335 6c3e 624c 643d 237b 72bc e953 c5bd
00000040: f63a 3a3e a6ee 4d3d fd61 da3b 47cf 19be
00000050: 5a41 b7bd 2024 6f3e ee64 083f d79e 02bf
00000060: b062 5a3e 198a 8f3d cb23 2dbe 3356 623e
00000070: 81f0 043e af4b ce3d 1fba 47be 5f49 9a3e
00000080: 075f 41be 8eb4 df3e f06d 9d3d 4c82 543e
00000090: 5c1c e2bd b44e e13c 6dcc 29bd 3068 403e
000000a0: bb78 e23c 931a 9dbe 9907 20be dbc7 31be
000000b0: 0fb8 2b3e 4683 79be 6272 363e 354b 533e
000000c0: 3aa3 2b3e 4db2 10be c98b c4bd 9d25 063e
000000d0: e983 7bbc b6af 063d 4988 f03d 64ef 063e
000000e0: 0d06 113e 6931 0d3d bc77 483e 9504 adbc
000000f0: 020f 2cbe 4fb9 93be 4fba 7abe 8e92 85be
00000100: a248 813e 020d a8be 1e06 e8be c929 06bf
00000110: 8b1c 9abd 1788 d9bc d9da 33be 29c6 6c3e
00000120: 9676 d73d ae47 a53e dce0 e5bc cbf9 593e
00000130: de90 e7bd 31fa f03b e403 83be af21 833d
00000140: 715b a0bd db90 03be b13d 13bd b920 6e3e
00000150: 2446 88be 370e 233e ef26 1cbd 2439 8d3e
00000160: 3a5c ec3c c7e3 79bd c684 3abe b9a3 30be
00000170: 3245 93be c9d8 443d edf2 81bd e815 08be
00000180: 3f5d a33d fdb9 06be 1238 943d 1d52 dcbe
00000190: 941f 71bd ec75 6bbe 0e1e 603e b1a7 893e
000001a0: f310 973d c939 56be 167a 01be e147 843e
000001b0: 5e11 873e ec02 1e3e 8f5c 393e 89c1 67be
000001c0: 3c2b 15be d63f 243d cdfe 90be 29f3 f4bd
000001d0: 7166 2bbe 8b5c 453e 4e6b 05bd 568b 883d
000001e0: 14c5 3d3e e508 033f 3856 18bf a763 dc3d
000001f0: d1f0 893d 3ace 823e c08c a03e 9000 983e
00000200: 1e99 77be 4fda 8d3e 958c 2bbe 9eba 8d3d
00000210: 44e4 113f e175 14bf 78c4 13be 6465 8c3d
00000220: ef6d 7bba 636f 893e 72a5 dabd 8b7f bb3d
00000230: 4354 143e 1334 eabd 13cf 113e e416 e7be
00000240: a700 8d3e a6bb 433d 8f32 9c3e efe2 403e
00000250: beaf 17be cb14 663e bfe9 8e3e af67 85bd
00000260: 85ca 8d3e a045 6fbe c468 e8bd 7079 a53e
00000270: c216 c03d 554a 2dbb 4cbb fdbd 1de7 f33d
00000280: 4003 593e a37b 733e a390 a23d bf60 e33d
00000290: be84 993e 401e f9bd 4124 8a3e 3f80 093e
000002a0: dc4d 88be e874 c6be 5636 49be df81 5a3e
000002b0: 8a62 013e d403 8cbe a7a0 0b3b 9ea9 413b
0.44992304 -0.19467635 -0.16007051 -0.08257092 0.28866038 0.0597741 0.27893728 -0.15977958
-0.13553949 -0.18497275 0.28663883 0.19460098 0.23067169 0.055736907 -0.014799866 -0.09635145
0.18186554 0.05027642 0.006664513 -0.15020476 -0.08948012 0.23353624 0.53279006 -0.5102362
0.21326709 0.07008762 -0.16908185 0.22103195 0.1298237 0.10073029 -0.19504593 0.30134103
-0.18883906 0.4369244 0.076869845 0.2075283 -0.11040565 0.027503349 -0.04145472 0.18789744
0.02764546 -0.30684337 -0.15627898 -0.17361395 0.16769432 -0.24366483 0.17817071 0.20634158
0.16761485 -0.14130516 -0.095969744 0.13100286 -0.015351274 0.032882415 0.11744744 0.13177258
0.14162464 0.03447095 0.19576925 -0.021120349 -0.168026 -0.28852317 -0.24485134 -0.26088375
0.25250727 -0.32822424 -0.45317167 -0.5240751 -0.075249754 -0.02655415 -0.17563953 0.23122467
0.10520665 0.3228125 -0.028061323 0.21286695 -0.11306928 0.007354044 -0.25588906 0.06402909
-0.07829941 -0.12848227 -0.035947505 0.2325467 -0.26616013 0.15923391 -0.038123067 0.27582657
0.02885257 -0.06100824 -0.18214712 -0.17249955 -0.2876373 0.048058305 -0.063451625 -0.13289607
0.0797677 -0.13156886 0.07237257 -0.43031397 -0.058868006 -0.22994202 0.21886465 0.2688575
0.0737628 -0.20920481 -0.12644228 0.2583609 0.26380438 0.15430802 0.18101715 -0.22632422
-0.14567274 0.04009994 -0.28319398 -0.119604416 -0.16738297 0.19273584 -0.032573037 0.06667201
0.1853221 0.51185447 -0.5950656 0.10761195 0.06735385 0.25547963 0.31357384 0.2968793
-0.24179503 0.2770562 -0.16752847 0.0692036 0.5698893 -0.5799237 -0.14430416 0.06855276
-0.00095912715 0.26842794 -0.106760874 0.09155186 0.14485268 -0.114357136 0.14239149 -0.45134652
0.2753956 0.047786377 0.30507323 0.18836568 -0.14813134 0.2246887 0.2791271 -0.06513917
0.27693573 -0.23366404 -0.113481075 0.32319212 0.09379341 -0.002644201 -0.1238924 0.11909316
0.21192646 0.23777632 0.079377435 0.11102437 0.29984087 -0.12163973 0.26980785 0.13427828
-0.26621902 -0.38761067 -0.19649634 0.21338604 0.12635246 -0.2734667 0.0021305473 0.0029550563

kp1.mlp.0.bias f4 [16]
00000000: fd47 88bc bfb1 43bd 1a2f 993e 9379 96be
00000010: ae54 8dbe ce12 9c3d c636 77bd d94b 7dba
00000020: 0125 abbd 37ea 46be 19a2 f83d 7f50 cabd
00000030: a993 6b3e 2bf9 2b3d ede1 a73e 430a 333e
-0.01663589 -0.047776934 0.29918748 -0.2938963 -0.27603668 0.07620774 -0.06035497 -0.0009662486
-0.08356667 -0.19425283 0.12140293 -0.09878635 0.23005547 0.041985672 0.32789555 0.17484383

kp1.mlp.2.weight f4 [16, 16]
00000000: 728d 043e 0664 2bbe 1b6e af3d 1347 a23c
00000010: f154 6b3e ab60 95bd 33b8 513e b249 883c
00000020: 4d09 2cbe 9713 e43d 5a2b 0d3c ef82 7e3e
00000030: 9bca 2f3e 47de 7ebe b099 923b 6f26 a9bd
00000040: 0db2 9bbc 55f2 843d 4f74 4abd cd92 8c3b
00000050: 5386 c23d e122 ff3d d7cc e13c 2f1b 113e
00000060: bb48 83be 6548 39bd 9fc8 63be b912 983d
00000070: dcd6 79be 2210 68be fa69 c63b 8b52 3d3e
00000080: ac38 45be 6a2d 50be cc06 10be d12f a23d
00000090: 7b8d 8abd ec91 5bbd 5280 b3bd f2ef 393e
000000a0: 3ee7 723d fcd7 323e 8f62 743e c9bc 8d3d
000000b0: 4fe2 003e 6de4 92bd 34b9 a63d b839 2abe
000000c0: 01c8 3cbe 05ee a5bd 71f7 c83d 90a1 133e
000000d0: 9c49 2fbc 28b1 6dbd 9cba ab3e 7a6d e6bd
000000e0: 7261 d4bd 2f09 233e 063b e43d c9ec 55bd
000000f0: df65 8a3e dc90 813d e569 43be 2143 b13d
00000100: 308e 8b3e a1f8 553e bbb8 763e 5535 94bd
00000110: 0413 2dbe ebf9 bd3d 4867 07be 1c67 f63d
00000120: 468c 023d c8ba 73be 4acd 993d 3c86 f6bd
00000130: b5dc a43e f68e 1bbe 4cb1 5fbd 627f 813e
00000140: 9e02 1b3e 53d9 1b3c ba9e 03be 80af 10bb
00000150: 148e 58be 29f9 3ebe 2056 be3d 30f6 7e3d
00000160: d457 08bc db54 713e 3879 6f3e 9faf 3c3d
00000170: 6280 593e 1a40 3b3e 70e3 353e a01f 82bd
00000180: b30c 99bd 2c09 893b 571a 253e 7709 72be
00000190: 2b13 7abe f524 c3bd 351f 833e 75b0 253e
000001a0: 9f2f e7bd 86c8 833e 9996 493e 595b 1dbe
000001b0: 2beb 753d 99c1 0d3d 845e 013e 2232 c4bd
000001c0: b589 2d3d 79fa 423d 16be 413e 1a3c 813e
000001d0: e339 27be b428 a33d 9779 153e 6ba7 673e
000001e0: d8a8 de3d 589e 2f3e 112b cebd 2c65 c83d
000001f0: c070 143e 7902 483d c8e9 5fbe dbbb 3b3d
00000200: 77f1 7a3c 029b e7bd f6b4 55be d3cd 9b3d
00000210: 0246 b2bd d855 0c3e f856 08be c35d 7cbe
00000220: 6e80 78bd 5dcf f13c f4b1 f03d df93 7bbd
00000230: c8c9 65be 79c7 f6bd 2a2c 55be 13ba 2c3e
00000240: e4c9 cf3b 7258 16bd 5c37 8bbd f736 8e3d
00000250: 2010 33be c40a 83bd 6d27 9f3d f653 623e
00000260: 8356 d73d 0d65 fdbd 664c 92bd 18fe 8dbd
00000270: f8ab 7dbd f2f4 853d 31e6 6ebe afed c53d
00000280: b3aa 17be 9d5b 61bd 81e3 4a3e 659b 183e
00000290: 2ef8 473e d1a1 043e 99e0 c7bb c97c 9d3d
000002a0: 9b27 3cbe 2f37 76be 2dc7 2e3e dcfa eb3d
000002b0: e363 76bc a643 ebbd ea72 53be d218 dfbd
000002c0: 5a78 09be eaf6 82be f100 2e3e 29f2 443e
000002d0: 5c7d af3c 3f56 81be 6afa 72be c139 79be
000002e0: 1472 2abd e8e7 903d 01e0 533e ed22 60be
000002f0: fcdd 64be eb1d 21bb 3332 533e c65f 0dbe
00000300: 12ae 37be 9179 8cbd af57 5d3e 2724 f53d
00000310: b125 4e3e 81df 553d 4a52 25be 19cf 6cbe
00000320: ae87 b8bd 53c9 06be 1c6f 553e 5c3f 53be
00000330: 82e1 5d3d 1667 f1bc fdf1 fbbd 63e6 c8bc
00000340: 97f1 7f3e 612e 163e a50e 523e 6dec 8d3d
00000350: 9d7e f53c fe6e 3dbe b38e 70be 4c72 dc3c
00000360: 1976 8ebd cf58 373e c191 203d 64f0 8c3e
00000370: 5339 8d3e f531 c0bd 83cc 9b3c e61f 6dbe
00000380: 4608 f3bd 6db3 123e 8f25 68bc b101 e0bd
00000390: cea0 2c3e 3e32 f83d 41fd 333e ca30 743d
000003a0: 58ff 09be fd9c e4bd 393d dabd 1500 94bd
000003b0: 0ddf 3abe 0991 89bd 8220 80bd 3e9d 57be
000003c0: f4c0 593e ada1 d7bd 436d 86be cbf6 f4bc
000003d0: 5e04 1a3d f575 243e fa8d f7bd 6523 f8bc
000003e0: a109 563e ad36 31be 1ae7 9bbd 9ee6 56be
000003f0: 9f4e 29be 772c 04be 951e 75be 5d3f 1cbd
0.12944582 -0.16737375 0.08565923 0.019809281 0.22981621 -0.072938286 0.20480423 0.016636703
-0.16800423 0.11136549 0.008616293 0.24854635 0.17167132 -0.2488948 0.0044738874 -0.08259284
-0.0190058 0.06491534 -0.049427327 0.004289961 0.094982766 0.124578245 0.027563496 0.14170526
-0.25641426 -0.045235056 -0.222445 0.07425446 -0.24398369 -0.22662404 0.006055114 0.18488519
-0.192599 -0.20329824 -0.14065093 0.079192765 -0.067652665 -0.05360596 -0.087647095 0.18157938
0.05930256 0.17465204 0.23865722 0.069207735 0.1258633 -0.07172475 0.081407934 -0.1662358
-0.1843567 -0.08102039 0.09812821 0.144171 -0.010698702 -0.058030277 0.3354081 -0.1125135
-0.10370149 0.15921472 0.1114407 -0.05222777 0.27030846 0.06326458 -0.19083364 0.08655382
0.27256918 0.20895626 0.24093907 -0.07236735 -0.16901785 0.09276184 -0.13222992 0.12031385
0.031872056 -0.2380172 0.07509859 -0.12037322 0.32199636 -0.15191254 -0.054612443 0.25292498
0.15137717 0.009512263 -0.12853518 -0.0022077262 -0.21147949 -0.18649735 0.09293771 0.0622465
-0.008321721 0.23567526 0.23386085 0.046065923 0.2124038 0.18286172 0.17762542 -0.06353688
-0.07473125 0.0041820016 0.16123329 -0.23636423 -0.24421374 -0.09528533 0.25609747 0.16180594
-0.1128838 0.25738925 0.19686355 -0.15366878 0.060038727 0.034608457 0.12633711 -0.095798746
0.042367656 0.04760215 0.18920168 0.25241166 -0.16330676 0.07966748 0.14597164 0.22622459
0.10872048 0.17150247 -0.10066808 0.09784922 0.14496136 0.048830483 -0.21866524 0.04583345
0.015316359 -0.11308862 -0.20869812 0.07607617 -0.08704759 0.13704622 -0.13314426 -0.24645142
-0.060669355 0.029517824 0.11752692 -0.061420318 -0.22440255 -0.12049765 -0.20817629 0.16867857
0.006341206 -0.03670544 -0.06797668 0.069440775 -0.1748662 -0.06398538 0.07771192 0.22102341
0.10514548 -0.123727895 -0.07143478 -0.0693323 -0.06193158 0.0654086 -0.23329999 0.09664475
-0.1481121 -0.05501901 0.19813348 0.14903028 0.19528267 0.12952353 -0.006099772 0.076898165
-0.18374483 -0.24044488 0.17068167 0.11522457 -0.015038463 -0.11487512 -0.20649305 -0.10893406
-0.13424817 -0.25579005 0.16992547 0.19233002 0.02142208 -0.25261113 -0.23728338 -0.24338438
-0.0416127 0.070754826 0.2069092 -0.21888323 -0.22350305 -0.0024584483 0.20624618 -0.13806066
-0.17937496 -0.068591245 0.2161548 0.11969786 0.20131566 0.052215103 -0.16144672 -0.23125876
-0.09010254 -0.13162737 0.20843166 -0.20629638 0.05417014 -0.0294681 -0.12302015 -0.02452392
0.24994503 0.1466613 0.20513399 0.0692986 0.0299676 -0.18499371 -0.23491935 0.02690997
-0.06956119 0.17904972 0.0392015 0.27527153 0.27582797 -0.093845285 0.019018417 -0.231567
-0.118668124 0.14326258 -0.014169111 -0.109378226 0.16858217 0.12118958 0.17577077 0.05961684
-0.13476312 -0.11162756 -0.106562085 -0.07226578 -0.1824915 -0.067171164 -0.062562004 -0.21056077
0.21265012 -0.10528884 -0.26255235 -0.029902836 0.03760182 0.16060622 -0.12087627 -0.030290315
0.2090211 -0.17306013 -0.076124385 -0.20986411 -0.16533898 -0.12907587 -0.23937447 -0.038146365

kp1.mlp.2.bias f4 [16]
00000000: 9a94 fbbc 3d0f 17be 6d8a 44be e92a b13d
00000010: 94b8 6b3d 27c8 ca3d 139f 1e3e cdd2 babd
00000020: 3308 dabd 0761 fe3d 88cb 2fbe 3bd1 7bbe
00000030: 05ad 5a3d ebe6 5a3e e2e8 54be 016b 2cbb
-0.030710507 -0.14751907 -0.1919343 0.086507626 0.057549074 0.09901457 0.1549037 -0.09122238
-0.10646095 0.1242085 -0.17167485 -0.24591534 0.05338766 0.2137715 -0.20791963 -0.0026308896

kp2.mlp.0.weight f4 [32, 19]
00000000: 056c ad3d 038e c5bd 9645 d9bb 15df b8bd
00000010: 5820 28be 2fe4 063e 179b acbd 6034 45be
00000020: 8960 3abe a0e7 f0bd 6686 63be c5cb cfbc
00000030: 09d3 4cbd 9181 1cbe 538a 2dbe c0a4 543e
00000040: afbf 633d ef6b cebd c40a c03d e65c 573e
00000050: e20a a33d dee0 e93b 1b14 6abd 51f0 55be
00000060: 674f 55bd 27b5 89bd 96a1 41be d4ae cdbd
00000070: edf6 523d 8e94 bf3d 2bc1 9dbd 7d92 c83c
00000080: d101 51be f2ac 88be aa26 363e de6c 02be
00000090: b962 ffbd 09e7 1dbe b5b7 ce3e af06 fc3e
000000a0: 4c4f c93e 9892 c03d be63 1ebd a9a1 983c
000000b0: c04c 01bd 7d98 0c3e ea19 aabc cebc 9e3c
000000c0: 6c11 ca3c 0ee3 19bd 6efd 083e f778 93bd
000000d0: 8ba1 c43d d993 0a3e fced 1c3e 2b1a 35be
000000e0: bc17 053c c347 d6be 398a 9a3e c76d 723e
000000f0: ebd8 30be be94 c73d 5e75 bfbd e7d3 1fbe
00000100: eafe d2bc 4ddf ce3d 53ca 9e3d 6c8e 15bd
00000110: fcab d33d 2fa6 7abb e22f 58bd a672 08be
00000120: b44f 413e 37e7 87bd 36d6 82be 053d 4fbe
00000130: 294b d33e bd62 013f cec3 e83d b986 b3bd
00000140: 45bc f1bd f2b5 55bc 9c02 7c3e 79e1 7b3e
00000150: a363 2a3e 9a39 8bba 643e c9bc 0038 e43d
00000160: 71cf a9bb 313b 7f3d 4f08 0e3e 9a73 cabd
00000170: 7094 803d c938 f33d b71e b0bd 50b3 73bd
00000180: adbc acbc 40dd 643d d7db 043d 4366 2abe
00000190: 8260 efbc e6e3 38be e731 a83d fb75 4bbe
000001a0: d5d6 61bd 5fb5 bf3b 98aa 3e3e fba9 763d
000001b0: 8245 043e cd3f 5f3d b116 60be bebe 1dbe
000001c0: afb3 61be 2797 a7bd f822 ddbe 9806 44be
000001d0: 597f 983e ccbb bcbd ce35 c9bc 6bf8 0d3e
000001e0: 62bc 423e 8365 3f3e 703c 1c3e 35da 833d
000001f0: ba2d dc3d 2495 5ebe 540f 7ebc 93bb 54be
00000200: c7f1 39be 3e1b 303c 908d 3cbe 80b4 013c
00000210: cc4a 933d 44dd a83d 75f8 c93e 38de 3a3e
00000220: adc9 80bd 631a 5bbe 970c 373e 1fff 1fbe
00000230: 8ad3 f03b 5568 413e 9e93 a93d d091 c03d
00000240: 284b 31be 2512 173d 65ba 1e3e 8b56 56be
00000250: 0bcf 2d3e 5981 14be c0ba b3bd 58ca 21be
00000260: 2b6d cdbe 0412 f8bd 4ce9 3cbd 896e 37be
00000270: 5aac 66be bdb6 5abe 1f0b 88bc 886f 683e
00000280: fad2 2abd f366 1d3e f3e5 413e 1c9a 3a3d
00000290: 8c96 08be 62e7 43be c184 06be 5024 5c3e
000002a0: cabd d8bd 4380 2cbe fe25 6ebe 491a bfbd
000002b0: d693 c1bd 8182 853c f6ed 08be 965b 363e
000002c0: a543 313d 836e 76bc a009 93bd f4cf 0abe
000002d0: 177a 3d3e ecfb 5bbe af59 74be 7e2d 39be
000002e0: cb52 02be 420c 013d b7be debd 1cf7 63bd
000002f0: 7821 4cbe 5a5c 63be 1cf7 77be c0f1 613d
00000300: da18 a4bd dc2c 503b de5a 57be 3e63 393e
00000310: 65d9 66be f502 01be 0758 a23d e484 dabb
00000320: c6b3 843a 37c6 13be 6b30 9dbd e594 66be
00000330: 37ea 9dbd 1888 aabd d707 e43d b810 62be
00000340: dd25 d23d 8305 87be ff44 6f3d b04f 403e
00000350: 04e4 843e 643d 1bbe f2e2 273e cb95 a43c
00000360: 0b36 ec3d 46e1 a3bd ebc3 0fbe 94cc 043d
00000370: a64e 84bd ddb0 59be 4073 f2bd bf54 f8bc
00000380: 8b54 0e3e 7498 833e 3eb3 b1bd 2c9a 6fbe
00000390: 8e80 f3bd 135f 2a3e 3f4f 79bd 642c 9dbd
000003a0: af38 533e 4534 8abc d1a7 253e 3655 fa3b
000003b0: ddcd 383e 2413 10be 9e3e 74be 72db 4fbe
000003c0: 0b42 eabd 58db 1bbe 07ca 8abd f5bc 14be
000003d0: 8ad8 1f3e 255a 353e 5ee8 f9bd ca48 aa3c
000003e0: ea45 74be 5796 953e 594c 283e 8d67 15be
000003f0: 289a 463e 5c7d 853e c594 4dbe 4943 c0bb
0.08467869 -0.09646227 -0.0066306097 -0.090269245 -0.16418588 0.13172983 -0.084280185 -0.1925826
-0.18200888 -0.11762929 -0.22219238 -0.02536572 -0.050005946 -0.152838 -0.16947298 0.20765972
0.055602726 -0.100791804 0.093770534 0.21031532 0.0796106 0.007137402 -0.05714808 -0.20892455
-0.052077677 -0.06724005 -0.18909296 -0.100431114 0.051505018 0.093545064 -0.077028595 0.024483914
-0.20410849 -0.26694447 0.17788187 -0.12736842 -0.12470002 -0.15420164 0.40374532 0.4922385
0.3931831 0.094029605 -0.03866934 0.018631773 -0.031567335 0.13730045 -0.02076431 0.019377138
0.02466651 -0.03757005 0.13377926 -0.072008066 0.096011244 0.13532962 0.15325159 -0.17685764
0.0081233345 -0.41851625 0.3018358 0.23674689 -0.17270248 0.09745167 -0.09348558 -0.15608178
-0.025756318 0.10101185 0.07753434 -0.036512777 0.10335538 -0.0038246026 -0.05278004 -0.13324985
0.1887806 -0.066358976 -0.25554055 -0.20238121 0.4126828 0.5054129 0.11365472 -0.08765931
-0.11803488 -0.013043867 0.2461037 0.2459773 0.16639571 -0.0010622025 -0.024565883 0.11143494
-0.0051821996 0.06231231 0.13870357 -0.098853305 0.06278312 0.11876065 -0.085996084 -0.059497178
-0.021086061 0.055875063 0.032436218 -0.16640572 -0.029220823 -0.18055686 0.08212643 -0.19869225
-0.05513652 0.0058504785 0.18619764 0.0602207 0.1291714 0.054504205 -0.21883656 -0.15404794
-0.220412 -0.08183127 -0.43190742 -0.1914314 0.2978466 -0.09215507 -0.024561789 0.13864295
0.19017175 0.18691067 0.1525743 0.06438104 0.10750909 -0.2173658 -0.015506584 -0.20774679
-0.18158637 0.010748683 -0.18413377 0.00791657 0.07192001 0.08245328 0.3944737 0.18248832
-0.062884666 -0.21396784 0.17875896 -0.15624665 0.007349436 0.18887456 0.08280109 0.094028115
-0.17313826 0.03688254 0.15500791 -0.20931451 0.16973512 -0.14502467 -0.08775854 -0.15799844
-0.4012235 -0.12112811 -0.046120927 -0.1791326 -0.22526684 -0.21358772 -0.016606865 0.22698796
-0.04170511 0.15371303 0.18935375 0.045557126 -0.13338679 -0.19131234 -0.13136579 0.21498227
-0.105830744 -0.16845803 -0.2325668 -0.09331185 -0.094520256 0.01629758 -0.13372025 0.17808375
0.0432774 -0.0150409965 -0.0717957 -0.1355589 0.18503605 -0.2148282 -0.23862337 -0.1808376
-0.12726896 0.03150583 -0.1087622 -0.055655584 -0.19934642 -0.22203198 -0.24215358 0.05516219
-0.080125526 0.003176502 -0.21030757 0.18104264 -0.22543867 -0.12598784 0.07926946 -0.006668674
0.0010124377 -0.14431082 -0.076752506 -0.22517736 -0.077106886 -0.08326739 0.11134308 -0.2207669
0.10261128 -0.26371393 0.05841541 0.18780398 0.25955212 -0.15160137 0.16395167 0.020090958
0.115337454 -0.08001952 -0.1403958 0.032421663 -0.064603135 -0.21258874 -0.118383884 -0.030313848
0.13899438 0.2570225 -0.08676766 -0.23398656 -0.11889754 0.1663783 -0.06086659 -0.076744825
0.20627092 -0.016870627 0.16177298 0.0076395525 0.1804728 -0.14069802 -0.23852012 -0.20298555
-0.11438378 -0.15220392 -0.06776815 -0.14525206 0.15609947 0.17710169 -0.12202524 0.020786662
-0.23854795 0.29216263 0.16435374 -0.14590283 0.19394743 0.26072204 -0.20076282 -0.005867396

kp2.mlp.0.bias f4 [32]
00000000: 6174 6abe 85e2 0dbc 0746 253d 9679 c13e
00000010: a62f dd3d f12d d4bd 3407 223e c38d a0bd
00000020: bd5e 873e ba28 1bbd d2bc 52be a730 163e
00000030: b579 5b3e 33ea 0bbe 7bd1 9a3e 9205 1c3e
00000040: 0e89 033e 3595 cdbc 80a5 4a3e 8e2c 0abe
00000050: cff3 613d 2603 243e 5f42 0c3d 5dd6 673d
00000060: 39b2 55be 583a 683e 507b 683e 132e dabc
00000070: 2f0a ed3d 5da6 27be a9ad 06be 5b9b 0ebe
-0.22895958 -0.0086599635 0.040349986 0.37788075 0.10800104 -0.10360325 0.1582306 -0.07839539
0.26439467 -0.037880637 -0.20579842 0.14666997 0.21433146 -0.13663559 0.30237946 0.152365
0.12845251 -0.025095562 0.19789696 -0.13493559 0.055164155 0.16016826 0.034242984 0.056600917
-0.20868768 0.22678506 0.2270329 -0.026633298 0.11574208 -0.16372056 -0.13152184 -0.13926451

kp2.mlp.2.weight f4 [32, 32]
00000000: ddd3 183e b8f7 cf3d af8d 9f3e 6817 8f3d
00000010: 3bbb 833e 0383 063e 07b0 613d 4c21 2b3e
00000020: 50e8 e13c 46e8 23be 20cb c63d e8e5 193e
00000030: f1b2 8d38 b824 063e f0c3 393e 9387 253d
00000040: dfec 7dbe fa7f 19bb 6abe 81bd 5afc c93d
00000050: 1797 68bd 2c81 3c3c 6160 d43c a171 cf3e
00000060: 09c6 bf3d 0f84 d63d 9932 e6ba 3120 ba3d
00000070: 22cf e5bd 7c1b 28ba fa3e a4bd c1a4 c9bc
00000080: 3427 1bbe 5572 5fbe e7f1 22be 8cac a2bd
00000090: 9775 8fbe 38b8 cdbd 4b2c ba3d e703 973d
000000a0: a0bd a83d a53d a03d feda 933d dc93 323e
000000b0: 170c 393e b9ca 443e 4323 36be 525e 86bd
000000c0: 8c55 9dbd 8e39 91bd 8590 24be 8068 9f3d
000000d0: 42db 453e 9e8f 293d dc65 633e 9b52 383e
000000e0: 6acb debd 3c9b c93d 8ccc 18be f642 283e
000000f0: 398f a13d e84e bc3d cd8e ef3d f59f 80bd
00000100: 9c85 9e3d 6cc9 223c db1e b93d 4b2b 0e3e
00000110: 2805 51be 4391 b83d f79c 693d 21ed 2e3e
00000120: fcb0 d1bd de1b 1fbe afdf 1d3d 7fe7 33be
00000130: c491 6f3d 1e1a 08be d075 01be 33da 043d
00000140: 0be4 01be b3d8 703d 66b5 01be f4f6 013e
00000150: d294 05be 8705 eebd 4810 883d 0c3c 91be
00000160: 1168 1d3d e438 c8bd 6210 c7bd e50a 18be
00000170: 0776 35bd 01bd 263e 9fee 06be 63af 21be
00000180: 0110 fcbd 8b6a db3b dc7e 0e3e 30ac 03bc
00000190: a3e9 753d 1db6 51bd eede d63d c1a5 de3c
000001a0: 81e2 16bc d3e1 133d 50ab 39be dcaa d9bd
000001b0: 2994 abbd 01ac 0cbe 4d04 4d3e 4f76 a93d
000001c0: 0289 48be d259 95bd 23e2 85bd 9604 2f3e
000001d0: ff84 5b3d 0cde 34bb 3672 eabd 2470 163d
000001e0: fa68 ff3c d486 c63b 2f10 713e 28c8 8e3e
000001f0: d02d 39bb ccca c43a 6edd cb3d bc93 d6bd
00000200: d1a0 203e d6fa 21be 16ac 46be 6e0b 05be
00000210: 52b0 23be 727a 0bbe cd73 22bd ae52 33be
00000220: cf20 4abd 7f9b 6a3c cd00 aa3d 8d32 1abe
00000230: c5b5 38be 7a95 093b f704 573d 0488 0bbe
00000240: 3a71 84bd 5335 4cbe 902f 03be b236 143c
00000250: d0dc dd3b 5ed9 77bd 7c09 30bc 320a 8bbd
00000260: afcc d63d 72d8 36be 7edd 79be 9d77 d83d
00000270: 098b 9d3d 9a1b dabd 6e61 fb3d fbb0 2a3e
00000280: 8520 823b 82b2 c2bd f370 91bb 5dd3 66be
00000290: 265d 8a3e df2d f7bc ff25 913d ccf4 bb3d
000002a0: fbe3 64bd 7563 8abc b906 61bd c7a7 efbb
000002b0: e87f 4d3d b69e 873d 713e babd 5ab9 553e
000002c0: 72ad 4abe 361d 863c 268d 313e 81e5 ad3c
000002d0: 0b02 6f3b 9987 1c3b ace9 e83d dacb 7e3e
000002e0: 0152 3a3e f5a6 2e3d 1f99 5c3e 8e99 ccbc
000002f0: 95c4 26be 854b d13d a026 3a3e 4932 39be
00000300: 8723 71bd 3f21 053e 79c5 33be 5351 93be
00000310: d845 b4bd 660c 0c3b 9f83 25be dd5b 21be
00000320: 59d4 913c 06d3 cdbd ed56 163e 791b 0b3d
00000330: ccc8 b4bd 9530 31be 3fe8 edbd ec5f 123e
00000340: 39f6 d8bd 8bc6 123e e400 173e a39b 213e
00000350: e23b c43d 2ad5 913d 87ad 7bbd 2f70 90bc
00000360: 136e 2a3e 307f 853d de46 debd 78ab 353e
00000370: 1b90 5cbe 68fc 7cbd a7e6 ec3d 594a 35bc
00000380: ff11 c13d cd6b d6bd 2863 b13d 593d e3ba
00000390: 347f 6abe ce91 f3bc 93ef 563e 224e 923d
000003a0: a165 5d3e 9e74 10be 79f5 20be 7eb0 60bb
000003b0: 5d9a 43bd 6055 823d 71e4 28bd abb4 37be
000003c0: 181e b03d 1957 d03d 4a02 20be d615 74bc
000003d0: 8a83 0c3e a0f4 8f3d 3c1b 4e3e f8b8 f63b
000003e0: 75d1 fb3d 9a65 ec3d f09b ed3d 65e3 353e
000003f0: bc1d 483e 8323 7f3d 7903 42bd 4095 0abe
0.1492457 0.101546705 0.31162784 0.06986886 0.25728783 0.13135915 0.055099513 0.1671192
0.027576596 -0.16006574 0.09706712 0.15029109 6.7567344e-05 0.13099945 0.1814115 0.040412497
-0.2479739 -0.0023422227 -0.06335147 0.09862585 -0.056784716 0.011505406 0.025924863 0.4051638
0.09363944 0.10474407 -0.0017562687 0.09088171 -0.11221148 -0.0006412787 -0.08019824 -0.024614694
-0.15151674 -0.21820958 -0.15912591 -0.07943067 -0.280194 -0.100449026 0.090904795 0.07373791
0.08239293 0.07824258 0.07219504 0.17439216 0.18071018 0.19217958 -0.17786889 -0.06560959
-0.076823324 -0.07091056 -0.16070755 0.07783604 0.19321921 0.04139673 0.22206825 0.18000261
-0.10878642 0.09844062 -0.14921778 0.16431794 0.07888646 0.09194738 0.11697159 -0.062805094
0.07740328 0.009935718 0.09039088 0.13883702 -0.20412123 0.090120815 0.05703446 0.17082645
-0.10238835 -0.15537974 0.0385434 -0.17568778 0.058488622 -0.13291213 -0.12642598 0.032434653
-0.12684648 0.05880041 -0.12666854 0.12691861 -0.13045052 -0.11622148 0.066437304 -0.28366125
0.038429324 -0.09776476 -0.09719922 -0.14847906 -0.044302013 0.16283037 -0.13176964 -0.15789561
-0.1230774 0.0066960505 0.1391558 -0.008036658 0.060037266 -0.051199067 0.10491739 0.027178647
-0.009209276 0.036104035 -0.18131757 -0.10628292 -0.08377869 -0.1373749 0.20021172 0.08274519
-0.19583514 -0.072925225 -0.06537273 0.17091593 0.05359363 -0.002759817 -0.11447565 0.03672804
0.031177986 0.0060585532 0.2354133 0.27887082 -0.0028256066 0.0015014051 0.09954344 -0.10477397
0.15686347 -0.15818343 -0.19401583 -0.12992641 -0.1598523 -0.13620928 -0.039661217 -0.17512009
-0.049347695 0.0143193 0.08300934 -0.15058346 -0.1803809 0.0020993636 0.05249497 -0.13626105
-0.06466909 -0.19942217 -0.12811112 0.0090462435 0.0067707077 -0.060510032 -0.010744449 -0.06789054
0.10488259 -0.17856005 -0.24400899 0.105696894 0.076925345 -0.10649796 0.122744426 0.16669075
0.003971162 -0.09506704 -0.0044385134 -0.22541566 0.27024192 -0.03017324 0.07087325 0.09177551
-0.05588148 -0.016893128 -0.05493805 -0.007313702 0.05017081 0.066220686 -0.09093941 0.20871487
-0.19792727 0.01637135 0.17339 0.0212276 0.0036469724 0.0023884533 0.113726944 0.2488245
0.18195345 0.04263969 0.21542786 -0.024975564 -0.16285928 0.10219482 0.18178797 -0.18085589
-0.058871772 0.13000964 -0.17555799 -0.28772983 -0.08802384 0.0021369695 -0.1616349 -0.157577
0.01780145 -0.10050015 0.14681597 0.033961747 -0.088273615 -0.17303689 -0.11616563 0.14294404
-0.10593838 0.1433355 0.14746433 0.15782027 0.09581734 0.07120736 -0.061444785 -0.017631618
0.16643552 0.065184 -0.108533606 0.17741191 -0.21539347 -0.06176415 0.11567431 -0.011065089
0.094272606 -0.1046978 0.08661491 -0.0017337009 -0.22900087 -0.029732611 0.20989828 0.07143809
0.216208 -0.14106986 -0.1571864 -0.0034284885 -0.047754634 0.0636394 -0.041233484 -0.17940013
0.0859949 0.101728626 -0.15625873 -0.014897784 0.13722053 0.070290804 0.20127577 0.007529374
0.1229581 0.115428165 0.11602008 0.17762525 0.19542593 0.062289726 -0.047366593 -0.13533497

kp2.mlp.2.bias f4 [32]
00000000: 143d e93c b3c8 8ebc b42e e1bc e363 cd3d
00000010: fc31 23be 1e5c 433e 9425 30be 8fc4 ae3c
00000020: 2de3 043e 90b6 773d 2ce4 c7bd 4521 50be
00000030: 84a7 0bbe 0334 47be 7955 90bc 4a32 ebbc
00000040: c965 64be 870e a6bd 98d5 cabd bfd3 66be
00000050: cbfa 44be 6edd 49be a61a aa3d 8b9d f4bd
00000060: 9071 bf3d cc26 143e 1456 3bbc d61a 2c3e
00000070: d684 58be a031 00be 5727 ce3d 18ef 0b3e
0.028471507 -0.017429685 -0.02748809 0.100288175 -0.15937036 0.19078109 -0.17201835 0.02133396
0.12977286 0.06047684 -0.09760317 -0.20325191 -0.13638121 -0.19453435 -0.017618882 -0.028710503
-0.22304453 -0.081082396 -0.09904021 -0.22541712 -0.19236295 -0.19713375 0.08305864 -0.119441114
0.09347832 0.14467925 -0.011434097 0.16807112 -0.21144423 -0.1251893 0.10066097 0.13665426

head.0.weight f4 [32, 32]
00000000: d0d4 fd3d ecc1 263d 5aa1 ad3c 210d b8bc
00000010: 6390 893d fbfe 543c 101a 9fbd d8ef 293e
00000020: dbc0 433e 7dc8 683d 6f5f e7bd 777e efbd
00000030: 63f4 0cbe 184a 363e 55fd 20be 51ff ea3c
00000040: 9e97 8ebd 47d3 a2bd 2a4d 213e 58a6 233e
00000050: 4497 453d ab83 3a3e 4510 0cbe ee1f 563e
00000060: 00d8 8dbd a86b 4f3e c309 b03d 0355 d9bd
00000070: 915f 443d d7b2 ea3c 86bd 993e 83e6 b73c
00000080: 9394 df3c b891 eb3c c35b 373d 9d94 f23d
00000090: faf9 073e 7a59 a3bd 4323 303e ee8a 47be
000000a0: 314c 7a3d 0590 1e3e ec07 3a3e f568 c4bd
000000b0: 3742 be3c 3b2d 0fbd d68c 0bbe fb13 603d
000000c0: 5612 3f3c 1777 013e 1753 94bd 70b4 14be
000000d0: c812 d6ba cba7 f93d 77ba 7cbd dae9 bebd
000000e0: 8137 f7bd de1b ca3d 3776 4bbd 9d07 43ba
000000f0: 53e6 393e 4e13 bc3d 210a 3dbe 65b2 47be
00000100: 1dfa 483c 8808 0bbe 3a06 fabb ea2e 05bd
00000110: bc72 7ebd 470b 10be 9047 86be f64b 54bb
00000120: 71fa fe3d ae30 ad3d 7f4b 40be 4e1e 8bbd
00000130: bb74 09be cf51 af3d 9565 2fbe 57da 223e
00000140: dc96 40be 1f61 29bd 93af d73d c566 12be
00000150: 7380 f9bb 63de 48be b72b da3d 2a46 923d
00000160: 6145 093e 0a65 03be e5e1 14be df90 223d
00000170: b1d9 4dbe 5eea 55bd dc05 7fbe cf3b 1b3c
00000180: 75ef a5bd cae7 adbc 626e 44be 1569 18ba
00000190: 2cd1 ebbc 23d8 be3d 8349 30be ce57 f1bd
000001a0: 55a7 033e 54c2 b4bd dff5 efbd 16b7 75bd
000001b0: bdb1 693d 7db8 103e 1547 0fbe e93e d0bc
000001c0: 758c 94bd 22bb 91bd 12a5 54be 3e7f 03bd
000001d0: 46de 34bd ecb7 1abe a2dc 8cbd 1870 10bd
000001e0: 6a29 733d 01ad 6dbd 2b79 bd3d 4f96 323d
000001f0: 1f7f 50be a51e 2abe 6b92 85bd a454 063e
00000200: adbd e6bd 62be 00be c337 f83d 23a9 10be
00000210: 8ade d73d b758 023e 8fb8 aebd 75e5 cebd
00000220: 8e29 d03d 98f9 fdbd 8217 263e 4c35 4a3d
00000230: 7fd5 9dbc b4e4 b1bd 45ee e43d 0bab a4bd
00000240: 77bc 063e d3a2 edbd 2e0c 0a3e 25c0 db3d
00000250: 5abd 0f3d 7fd9 cbbd da57 c5bd 624a b63d
00000260: 51c6 03be 70a0 d0bd 737c c2bc b020 493c
00000270: 1af6 983d 888d 703d 4f4d faba a0c0 11be
00000280: fb4e 85bd 2c85 c2bd 71fa 163e b3de febc
00000290: b6cc 1d3c dabc ac3d 2838 85bd 622b bfbc
000002a0: f26f 2f3e 327d 28bd 3f46 533d 16c6 113e
000002b0: 93f9 94bd 3ef8 3d3e ab7f 7cbc 4744 0cbe
000002c0: 33bd 003e ebd1 9abd 7957 bebd eee3 3a3d
000002d0: f762 32be 73f5 ac3d ec47 7dbd 5598 2b3c
000002e0: 9de7 143d 9d66 393d ecdb f8bd 8214 363b
000002f0: 79ee 273e d3d7 03be 5237 7dbd c52c 1f3e
00000300: 8bb7 57bd e22e e93d f521 3abe c999 8e3d
00000310: 2e3c 49be 2a87 773e 9632 39bd 7a64 1d3e
00000320: 4089 86bd 8554 403e 9d8c 15be 0ce5 36bd
00000330: 37bd 28be c4b5 923d b1c9 7dbd 4ec5 313e
00000340: ff30 e7bd 290a ddbb 889d c2bb 92aa 01bd
00000350: bcb2 c2bd 5e74 f2bd 4d88 383e fa48 7dbd
00000360: 72ce 733d 084e 343e 206a 86bd a02a 153d
00000370: 36e0 81bd e82f 9cbd c2d5 373e 5b1d 2e3d
00000380: 1b8c 46be 50c4 22bd 050a 19bd 3023 16be
00000390: db2b b73c de28 1ebe 0784 f3bd 5d11 46bd
000003a0: 3a0d 04bd 7268 c5bd 59ca 9c3d 53bf d7bd
000003b0: 55d4 bf3c 3db8 8b3c aa65 eebc 2bf8 083e
000003c0: c885 cd3d cabe 17bc 5598 ff3a 357d 053e
000003d0: 99fc 043e 4269 80bc de47 e1bd 452d 3a3d
000003e0: 5926 f4bd 0e87 1c3e 41cd f6bd 9324 b6bd
000003f0: 1a48 15be e3a5 eebd b779 2bbd ea08 193d
0.123941064 0.040712282 0.021195102 -0.022467198 0.06716993 0.013000245 -0.07768643 0.165954
0.19116537 0.056831826 -0.112974994 -0.11694043 -0.13765101 0.17801702 -0.15721639 0.028686197
-0.069625124 -0.07950454 0.15752092 0.15981424 0.04823996 0.1821429 -0.13678081 0.20910618
-0.06925964 0.20255911 0.08595612 -0.10611918 0.0479427 0.02864973 0.30027407 0.022448784
0.027292525 0.028756008 0.044765245 0.11844752 0.13278952 -0.07976051 0.17200951 -0.19486591
0.061107818 0.15484627 0.18167084 -0.095903315 0.023224933 -0.034955245 -0.13627943 0.054706555
0.0116620865 0.12643085 -0.07242411 -0.14521956 -0.0016332502 0.12190207 -0.061701264 -0.093219474
-0.120711334 0.098685965 -0.049673285 -0.0007439794 0.18154268 0.091833696 -0.18460895 -0.19501646
0.012266663 -0.13577473 -0.007630137 -0.032515444 -0.062121138 -0.14066802 -0.26226473 -0.003239391
0.12450112 0.084565505 -0.187788 -0.067928895 -0.13423435 0.085605256 -0.17128594 0.15903603
-0.18807548 -0.041352388 0.10531535 -0.14297016 -0.0076141893 -0.19616084 0.10652869 0.07142289
0.13405372 -0.12831512 -0.14539297 0.03968894 -0.20102574 -0.052225463 -0.24904579 0.009474709
-0.081023134 -0.02122869 -0.19182733 -0.0005813998 -0.028786264 0.093185686 -0.17215542 -0.117843255
0.12856801 -0.08826128 -0.11716818 -0.059989057 0.05705427 0.14132877 -0.1399196 -0.025420623
-0.072533526 -0.07115771 -0.20766094 -0.03210377 -0.04415729 -0.15109223 -0.0687802 -0.03526315
0.059365667 -0.058026318 0.092516266 0.043600377 -0.20360993 -0.16613252 -0.06522068 0.13118225
-0.112666465 -0.12572625 0.12120011 -0.1412702 0.10540493 0.12729155 -0.085312955 -0.10102359
0.10164176 -0.12401122 0.16219905 0.049367234 -0.019266842 -0.086862 0.11178259 -0.08040436
0.13157831 -0.11603322 0.13481209 0.10730008 0.03509269 -0.099535935 -0.09635897 0.08900906
-0.1286862 -0.10186851 -0.023740983 0.01227586 0.07468815 0.058728725 -0.0019096526 -0.14233637
-0.06509205 -0.09498057 0.14743973 -0.03111205 0.009631326 0.08434458 -0.065048516 -0.023336116
0.17132547 -0.04113502 0.051580664 0.1423572 -0.07274165 0.18551728 -0.015411298 -0.1369792
0.12572174 -0.0755957 -0.09294028 0.045627527 -0.17420565 0.08445253 -0.06183617 0.0104733305
0.036353696 0.045263875 -0.12151322 0.002778322 0.16399564 -0.12875299 -0.061820336 0.15544422
-0.052665275 0.11385895 -0.18177016 0.06962926 -0.19651863 0.24172655 -0.045214258 0.1537036
-0.06569147 0.18782242 -0.14604421 -0.04465203 -0.1647843 0.07163575 -0.061959926 0.17360422
-0.11288642 -0.006745596 -0.0059391893 -0.03165681 -0.09506747 -0.118386015 0.18020745 -0.061837174
0.059523053 0.17607892 -0.065632105 0.036417603 -0.06341593 -0.07626325 0.17952636 0.042508464
-0.19389383 -0.039738 -0.03736307 -0.1466186 0.02235978 -0.15445277 -0.118904166 -0.048356403
-0.032239176 -0.09639062 0.07655782 -0.10534539 0.023416677 0.017055625 -0.029101212 0.13375919
0.100352824 -0.009261796 0.0019500355 0.13036044 0.12986983 -0.01567519 -0.11000036 0.04545333
-0.11921377 0.15285894 -0.12050868 -0.08893695 -0.14578286 -0.11652734 -0.041864123 0.037362017

head.0.bias f4 [32]
00000000: d005 483d 2f2a 13be 4916 623e 493e 893e
00000010: 653a 01be cbdf 12be 56da f93d 2c8a ca3d
00000020: 0fde 703e 20eb 73bd 39f3 0b3e 1b6a a0bd
00000030: a8c5 c3bd a96a fa3d 0db8 8ebd 2802 bd3b
00000040: ffd5 45bd e6bb be3d 3ec1 5cbe 1fd1 2b3d
00000050: 5612 573e d5e4 ba3d 0579 173d 8ce5 36be
00000060: 2786 26bd 45ed 003e 2e01 5dbc e33b 013e
00000070: 8d5f 243c ac42 c7bc 5130 9a3d 6890 2cbc
0.04883367 -0.1437156 0.22078814 0.26805332 -0.12619932 -0.14343183 0.121998474 0.098896354
0.23522209 -0.059550405 0.13667001 -0.07832738 -0.09559184 0.12227375 -0.06968699 0.0057680793
-0.048299786 0.093131825 -0.21558091 0.04194748 0.21003088 0.091256775 0.036980648 -0.17861003
-0.04065528 0.12590511 -0.013489051 0.12620501 0.010032547 -0.024323784 0.07528747 -0.010532476

head.2.weight f4 [3, 32]
00000000: 7884 ba3b 9b86 383c 75f4 283d 4126 75bd
00000010: e904 1b3e f7ec db3d cf06 4b3c 90c3 12be
00000020: 45a1 a83c 1852 c73c c26f 34bd 132b fd3d
00000030: c2ef ee3c 40e2 91bd e4c0 9fbd badc f2bc
00000040: 2b72 4d3a b3bd 8fbd 3368 47bd ccab 1c3e
00000050: 2139 893e 5c08 ee3d 1f6c 1cbe 460d 683e
00000060: 13f8 553e faaf 843c 0a27 17be 0694 283e
00000070: 5251 573b 2278 2e3e 6181 b2bd 3e54 6e3d
00000080: d742 c9bd 1a29 eb3a d059 23be dfba 32be
00000090: 4642 8c3d c0d3 01be 1266 56be 899b 943c
000000a0: 3485 51be f092 85bd 8a33 48be 5f50 ee3d
000000b0: 8e46 af3b 65e9 1d3e bd97 fd3d 2cf2 bd3d
000000c0: 6edc 583c cd7f ba3d ec8c 993d a5b8 fbbd
000000d0: 108f 18be 1762 333d b756 043c 3a18 0e3e
000000e0: 78b0 e43d 3792 79be 9e89 1a3e c8d3 5ebd
000000f0: e105 3cbe f51e 483b 0c54 6f3d 6802 ec3d
00000100: 3e0f 15be 6cb5 d13d b67d 263e cc15 d8bc
00000110: a8cd 873c 7618 ba3b a8ec 2cbd 7ef6 41bd
00000120: dca1 56bd 068a 0f3e f51b 4e3e c8b7 273e
00000130: 53f3 c0bd e7a9 32be bc89 90ba d4cd 283e
00000140: 7226 22be 975b 18be 966c 67be 4135 783c
00000150: dad4 d73d 8080 d33b 33bf 503c e467 5bbe
00000160: 6716 20be fa11 c8bd 8cba b23b 17bd ac3d
00000170: 9810 4fbe 7e22 47be 87e0 f13d 4f43 c83d
0.005692061 0.011262561 0.041248757 -0.059850935 0.15138592 0.10738557 0.01239176 -0.14332414
0.020584712 0.024331138 -0.044051893 0.123617314 0.02916706 -0.07123232 -0.07800463 -0.029646266
0.0007837142 -0.07018604 -0.048683356 0.1529991 0.26801398 0.11622688 -0.1527562 0.22661313
0.20895414 0.016197193 -0.14760986 0.16462716 0.0032854867 0.17038015 -0.08716083 0.05818581
-0.09827202 0.0017941326 -0.1595223 -0.17454098 0.06848578 -0.12678432 -0.20937374 0.018140571
-0.20460969 -0.06522167 -0.1955091 0.11636423 0.005348987 0.15421064 0.123824574 0.09274706
0.013236148 0.09106407 0.07497582 -0.122910775 -0.14898324 0.043794718 0.008077315 0.13876429
0.11166471 -0.24372183 0.1509156 -0.05440119 -0.18361618 0.003053603 0.058429763 0.115238965
-0.14556596 0.102396816 0.16258892 -0.026377581 0.016577557 0.0056791855 -0.04221788 -0.047354214
-0.052400455 0.14017496 0.20127852 0.163787 -0.094214104 -0.17447625 -0.0011027376 0.16484767
-0.15834978 -0.14878689 -0.22600016 0.0151494155 0.10538645 0.0064545274 0.012740898 -0.2142635
-0.15633546 -0.09769054 0.005454367 0.084345035 -0.20221174 -0.19446751 0.11810403 0.09778463

head.2.bias f4 [3]
00000000: 66d8 91bb 0734 d33d f219 4dbd
-0.0044508455 0.10312658 -0.05007357
