checkpoints_kpconv_24nov/best_model_24nov_mIoU_0.8541.pth (torch, 19357 bytes, 14 tensors)

fc0.weight f4 [8, 3]
0	0x3e3675d7	0.1781839
1	0xbe87666f	-0.26445338
2	0xbe66c8c3	-0.22537522
3	0xbebafe78	-0.3652227
4	0x3e679f6f	0.22619413
5	0x3e3fe0ac	0.1873805
6	0xbd614ea5	-0.055006642
7	0xbd0817b2	-0.033225723
8	0xbe7777a4	-0.24166733
9	0x3eb4d27d	0.3531684
10	0xbe701fbd	-0.23449607
11	0xbca02ffd	-0.019554133
12	0xbca7156a	-0.020395953
13	0x3e77a671	0.24184586
14	0x3ed49046	0.41516322
15	0xbd4760a1	-0.048676137
16	0x3e918a9b	0.2842606
17	0x3e62a095	0.2213157
18	0xbeaa8710	-0.3330617
19	0xbd3c9d60	-0.046048522
20	0x3ebf74b3	0.37393722
21	0x3e38a5f4	0.18032056
22	0x3d8a2468	0.06745225
23	0xbea3f461	-0.32022384

fc0.bias f4 [8]
0	0x3ec2cd2b	0.38047156
1	0x3ee088ba	0.43854314
2	0x3ebde8bc	0.37091625
3	0xbe93ba5a	-0.28853112
4	0x3f180427	0.59381336
5	0xbefc8859	-0.49322775
6	0x3d4220a4	0.04739441
7	0xbd57f03f	-0.05271935

kp1.mlp.0.weight f4 [16, 11]
0	0x3f3eec79	0.7457958
1	0xbe273f18	-0.16332662
2	0xbe90efce	-0.28307956
3	0xbdc5cbb5	-0.09657995
4	0x3e9b7f9a	0.3037079
5	0x3d3cbd44	0.046078935
6	0x3e6f2a75	0.2335604
7	0xbdce5cb5	-0.10076276
8	0xbdb8eed4	-0.09029928
9	0xbe3337e6	-0.17501792
10	0x3e80e75f	0.25176522
11	0x3eae93b0	0.34097052
12	0x3de78432	0.11304511
13	0xbcbfe65d	-0.023425275
14	0xbd80cb3d	-0.062887646
15	0xbe03166d	-0.12801524
16	0x3e635f8d	0.22204418
17	0xbd02ebc3	-0.03196312
18	0x3be2649f	0.0069089676
19	0xbdd6b573	-0.104838274
20	0xbe13f017	-0.14447056
21	0x3e28a300	0.1646843
22	0x3f4d9bc1	0.80315787
23	0xbf44ea68	-0.76920176
24	0x3e9b406d	0.3032259
25	0x3d35795d	0.044305194
26	0xbe2ec063	-0.17065577
27	0x3e111f0f	0.14172004
28	0x3deed14c	0.11661014
29	0x3e3e0107	0.1855508
30	0xbe11dc05	-0.14244087
31	0x3e8dbbcf	0.2768235
32	0xbe3c323e	-0.18378541
33	0x3f1f1996	0.62148416
34	0xb9a2e32b	-0.000310683
35	0x3d886d08	0.06661421
36	0xbddb1a3c	-0.10698363
37	0xbe9090b7	-0.2823541
38	0xbd66a113	-0.056305956
39	0x3e49f334	0.19721681
40	0x3dc43411	0.095802434
41	0xbe27ebe6	-0.16398582
42	0xbe13a0f4	-0.14416867
43	0xbe146652	-0.14492157
44	0x3d3cd62c	0.046102688
45	0xbf24e7bd	-0.64416105
46	0x3e9c53bd	0.30532637
47	0x3e6d665b	0.23183577
48	0x3e17d295	0.14826424
49	0xbe5a01f8	-0.21289814
50	0xbd84eaef	-0.064901225
51	0x3e04da16	0.12973818
52	0xbbdd4df5	-0.006753678
53	0x3cad283b	0.021137347
54	0x3e015a30	0.1263206
55	0xbe6c7cc3	-0.23094468
56	0xbd905504	-0.070474654
57	0xbe907a59	-0.28218344
58	0x3dff9ecc	0.1248146
59	0xbd217ff1	-0.039428655
60	0xbe723ac5	-0.23655231
61	0xbe96f629	-0.2948468
62	0xbe5afedb	-0.21386282
63	0xbe538c5a	-0.20659009
64	0x3e43ae95	0.19109567
65	0xbe590594	-0.21193534
66	0xbf85d54e	-1.045572
67	0xbf637050	-0.8884325
68	0x3e0960b7	0.134158
69	0xbbde114d	-0.0067769648
70	0xbe2f40f2	-0.17114618
71	0x3e3784d5	0.17921765
72	0x3e0f6edd	0.14007135
73	0x3eb14c18	0.34628367
74	0xbd484ff3	-0.04890437
75	0x3e476bbb	0.1947469
76	0xbdba41ea	-0.09094603
77	0xbe9f0b4f	-0.31063315
78	0xbf120f79	-0.5705486
79	0x3f00fe9f	0.5038852
80	0xbde823fb	-0.11334988
81	0x3cb2e836	0.021839242
82	0x3bba85de	0.0056922277
83	0x3e2dda84	0.16977888
84	0xbe6c1f96	-0.23058924
85	0x3e38837d	0.18018909
86	0x3d6bb4db	0.057545524
87	0x3e6c305c	0.23065323
88	0x3ec3fdef	0.38279673
89	0xbec438b8	-0.38324523
90	0xbf44a8a6	-0.7681984
91	0xbd84eec9	-0.06490857
92	0xbd6383b0	-0.05554551
93	0x3e3f2072	0.1866472
94	0xbd0286f2	-0.031866975
95	0xbe0c5c71	-0.13707139
96	0x3df9801b	0.12182637
97	0xbd90f4bd	-0.0707793
98	0xbb36e46d	-0.0027907148
99	0xbf550830	-0.8321562
100	0xbda9b4a4	-0.082864076
101	0x3d7f49d2	0.06232626
102	0x3e800d14	0.25009978
103	0x3df9e9c4	0.122027904
104	0xbd89488a	-0.06703289
105	0xbe20c161	-0.15698768
106	0xbe291b5a	-0.1651434
107	0x3e2d682a	0.16934267
108	0x3e04075e	0.12893435
109	0x3e3749a9	0.17899193
110	0x3ec235d1	0.37931684
111	0xbf1296f2	-0.57261574
112	0xbbdb6c88	-0.0066962875
113	0x3d66c820	0.056343198
114	0xbe5fa112	-0.21838787
115	0xbdaf2a81	-0.08553029
116	0xbe1b8e18	-0.15190923
117	0x3e283eda	0.16430226
118	0xbda92298	-0.08258551
119	0x3da78691	0.081799634
120	0x3e1e7934	0.15475923
121	0x3f3797d9	0.71716076
122	0xbf66f98f	-0.90224546
123	0x3ec9a191	0.39381078
124	0x3d7995fd	0.060934056
125	0x3e6cb741	0.23116781
126	0x3eac28b5	0.33624807
127	0x3e81e6eb	0.2537149
128	0xbe6cdd5e	-0.2313132
129	0x3e8131f4	0.25233424
130	0xbe1cf782	-0.15328792
131	0x3d329b73	0.04360528
132	0x3f59458b	0.8487174
133	0xbf560dae	-0.83614624
134	0xbe5a932c	-0.21345204
135	0x3dc2d4f5	0.095132746
136	0x3c648168	0.0139468685
137	0x3e95bafa	0.29244214
138	0xbdb9d3a1	-0.09073568
139	0x3d8a9885	0.06767372
140	0x3dc6233f	0.096746914
141	0xbd8d7927	-0.069078736
142	0x3e08b668	0.13350832
143	0xbf0f3606	-0.5594181
144	0x3f2584a7	0.64655536
145	0xbd238a24	-0.039926663
146	0x3e8d374b	0.27581248
147	0x3e3127fd	0.1730041
148	0xbdebf8d1	-0.11522067
149	0x3e5144d7	0.20436417
150	0x3e80f622	0.25187784
151	0xbdbab500	-0.09116554
152	0x3e8a1161	0.26966384
153	0xbe69e759	-0.22842158
154	0x3f15ba62	0.5848752
155	0x3f424dbc	0.75899863
156	0x3e3af439	0.18257226
157	0xbcbc9d4a	-0.02302422
158	0xbe043fe5	-0.12914999
159	0x3e3d4b62	0.18485788
160	0x3e3b205e	0.18274066
161	0x3e476384	0.19471556
162	0x3d3a7592	0.04552228
163	0x3e065090	0.1311667
164	0x3e8e0525	0.277383
165	0x3da49528	0.08036262
166	0x3ec8cbf1	0.39218095
167	0x3d82db8d	0.06389532
168	0xbe83fc4a	-0.2577842
169	0xbefd2d94	-0.49448836
170	0xbe363d4b	-0.17796819
171	0x3e3ae480	0.18251228
172	0x3d2b1b10	0.041773856
173	0xbe97c6d1	-0.29643872
174	0x3e46ccab	0.19414012
175	0xbd8f547f	-0.06998538

kp1.mlp.0.bias f4 [16]
0	0x3a63c036	0.00086880045
1	0xbd513e3c	-0.051084742
2	0x3e8a9675	0.27067915
3	0xbeacd6dd	-0.33757678
4	0xbedca17b	-0.4309195
5	0xbd926852	-0.07148804
6	0x3cc1559d	0.023600394
7	0xbad7c2c9	-0.0016461249
8	0xbdca0925	-0.098650254
9	0xbd8e1906	-0.069383666
10	0x3e1c2694	0.15249091
11	0xbdb8b253	-0.09018388
12	0x3e97c480	0.29642105
13	0x3dd086c8	0.101819575
14	0x3ec296a5	0.38005558
15	0x3e2d0694	0.1689704

kp1.mlp.2.weight f4 [16, 16]
0	0x3df19b23	0.11797168
1	0xbe263b59	-0.16233577
2	0x3dc8e795	0.09809796
3	0x3d093d69	0.03350583
4	0x3e878bd3	0.26473865
5	0xbd908b15	-0.07057778
6	0x3e86228f	0.2619824
7	0x3c2da5db	0.010598625
8	0xbf032564	-0.5122893
9	0x3de1129a	0.10989876
10	0x3c39e496	0.011346003
11	0x3e873b1e	0.2641229
12	0x3e4d2bd6	0.20036253
13	0xbe7a1c39	-0.24424829
14	0xbbba7c80	-0.005691111
15	0xbd86178e	-0.065474615
16	0xbd06d169	-0.032914553
17	0x3d1735e8	0.036916643
18	0xbb7a048d	-0.0038149685
19	0x3cc09156	0.023506802
20	0x3e6d40f0	0.23169303
21	0x3e161a87	0.14658557
22	0x3e883555	0.2660319
23	0x3e6189b2	0.22025183
24	0x3e5867bf	0.21133326
25	0xbacdcde9	-0.0015701625
26	0xbe53a590	-0.20668626
27	0x3e0f9e63	0.14025263
28	0xbe5ca2d4	-0.21546489
29	0xbe545847	-0.207368
30	0xbd4b3182	-0.04960776
31	0x3e12a50f	0.14320777
32	0xbe70a47b	-0.23500244
33	0xbe3a4e90	-0.18194032
34	0xbdfa7623	-0.12229564
35	0x3da916e4	0.08256319
36	0xbdcbfce6	-0.09960346
37	0xbcd701ba	-0.02624594
38	0x3d99df79	0.07513327
39	0x3e47f28b	0.19526117
40	0x3ed6ae3c	0.41929805
41	0x3e51b142	0.20477775
42	0x3e6f3abe	0.23362252
43	0x3d455cf6	0.048184358
44	0x3cdb0510	0.026735812
45	0xbd20a025	-0.039215226
46	0x3d66fe1c	0.05639468
47	0xbdfc7882	-0.123276725
48	0xbe43f79f	-0.19137429
49	0xbdaf9b91	-0.08574594
50	0x3d95767e	0.07297991
51	0x3e0ecca5	0.13945253
52	0xbca6e5ad	-0.02037319
53	0xbd913422	-0.07090022
54	0x3ee7602d	0.45190564
55	0xbd9b493c	-0.07582328
56	0xbeb90761	-0.36138442
57	0x3e186b48	0.14884675
58	0x3da5703f	0.0807805
59	0xbd580e91	-0.052748267
60	0x3e5c77b3	0.21530037
61	0x3da21483	0.079140685
62	0xbe41b008	-0.18914807
63	0x3df1224c	0.1177412
64	0x3e903e2c	0.28172433
65	0x3e572e90	0.21013856
66	0x3e7b9190	0.24567246
67	0xbd5b58be	-0.053551428
68	0xbdf97ed5	-0.121823944
69	0x3da41f8d	0.0801383
70	0xbe46e056	-0.19421515
71	0x3dd54d19	0.10415096
72	0xbe9da002	-0.3078614
73	0xbe732478	-0.2374438
74	0x3d582691	0.052771155
75	0xbdc216d0	-0.094770074
76	0x3eb88010	0.36035204
77	0xbe14e24b	-0.14539449
78	0xbd890a90	-0.06691468
79	0x3e7ebf44	0.2487765
80	0x3e193e14	0.14965087
81	0x3cbcb9a8	0.023037747
82	0xbd927f87	-0.0715323
83	0x3ad715e1	0.0016409719
84	0xbed0a4a9	-0.40750626
85	0xbdfa786a	-0.122299984
86	0xbe4fe597	-0.20302425
87	0xbd285f18	-0.041106313
88	0x3e8ca093	0.27466258
89	0x3e0a0f97	0.1348251
90	0x3e59b3fe	0.21260068
91	0xbcef155a	-0.029184986
92	0x3e568fbe	0.20953271
93	0x3df13730	0.11778104
94	0x3e3ad82c	0.18246526
95	0xbd8b605c	-0.068054885
96	0xbe0bc0d2	-0.13647774
97	0xbd4a23a7	-0.049350407
98	0x3dcb944f	0.09940397
99	0xbe826627	-0.2546856
100	0xbe7599ef	-0.23984502
101	0xbdfaa81c	-0.122390956
102	0x3ebd3ed0	0.36961985
103	0x3e37fd51	0.17967726
104	0xbe999c37	-0.30001995
105	0x3e6a6179	0.22888745
106	0x3e20435b	0.15650694
107	0xbe40ae9c	-0.18816608
108	0xbd2438ed	-0.04009335
109	0x3d8e9a29	0.069629975
110	0x3e169644	0.1470576
111	0xbd8fea8d	-0.07027159
112	0x3c30ff98	0.010803126
113	0x3d1c3621	0.03813756
114	0x3e17f37c	0.14838976
115	0x3e58f1b4	0.21185952
116	0xbe08b397	-0.13349758
117	0x3d4e5efa	0.050383545
118	0x3e55cce4	0.20878941
119	0x3e4e18ca	0.20126644
120	0xbe8df442	-0.27725416
121	0x3e3dd4a1	0.18538143
122	0xbdce06c2	-0.10059883
123	0x3daefb4f	0.08544027
124	0x3e1b580a	0.15170303
125	0x3d3b0b85	0.045665283
126	0xbe7acd79	-0.24492444
127	0x3d45fc07	0.048336055
128	0x3c6d72d6	0.014492711
129	0xbdb80bb6	-0.08986609
130	0xbe8b3da8	-0.27195477
131	0x3e094308	0.13404477
132	0xbd60b8a3	-0.054863583
133	0x3e017378	0.12641704
134	0xbdd6152e	-0.104532585
135	0xbe5b2e0d	-0.21404286
136	0xbda7160a	-0.081585005
137	0x3d350a9c	0.04419957
138	0x3d41ccef	0.04731458
139	0xbd460686	-0.048346065
140	0xbeacc77a	-0.3374594
141	0xbd3037db	-0.043022018
142	0xbe153782	-0.14571956
143	0x3e677a82	0.22605327
144	0xbceba5fc	-0.028765671
145	0xbd1fc6d0	-0.03900796
146	0xbdd75e0a	-0.105159834
147	0x3cdaf101	0.026726248
148	0xbe03a554	-0.12856036
149	0xbda96360	-0.082709074
150	0x3ea548f9	0.32282236
151	0x3e89d4b6	0.26920098
152	0x3f15b238	0.58475065
153	0xbdd27885	-0.102768935
154	0x3b564383	0.0032694049
155	0xbd9ab526	-0.075540826
156	0xbdcc406f	-0.09973227
157	0x3d3a632e	0.04550474
158	0xbe8484d5	-0.25882593
159	0x3de89420	0.113563776
160	0xbe09e7b8	-0.134673
161	0xbd293de5	-0.041318793
162	0x3e5bf777	0.21481119
163	0x3e38e63d	0.18056579
164	0x3e8a058a	0.2695735
165	0x3e036e17	0.12834965
166	0x3d6dfe26	0.058103703
167	0x3dc99b45	0.098440684
168	0xbe9f7ac8	-0.31148362
169	0xbe6a03c8	-0.22853005
170	0x3e2ea117	0.17053638
171	0x3e24fbb5	0.16111644
172	0x3d0c2976	0.034219228
173	0xbdd80db1	-0.105494864
174	0xbe5e53f5	-0.21711715
175	0xbdbbf6ca	-0.09177931
176	0xbe19f194	-0.15033561
177	0xbe5c7398	-0.2152847
178	0x3dd30aa5	0.10304765
179	0x3e7cf6ed	0.2470357
180	0x3ccebe10	0.025237113
181	0xbe7e8275	-0.24854453
182	0xbe911d17	-0.28342506
183	0xbe7b0023	-0.24511771
184	0xbe8373f2	-0.25674397
185	0x3da1faf1	0.079091914
186	0x3e0e81b2	0.13916662
187	0xbe6c2b2c	-0.23063344
188	0xbeab5828	-0.33465695
189	0x3d63c289	0.055605445
190	0x3e84790c	0.258736
191	0xbda2bf43	-0.079466365
192	0xbe05e4e9	-0.13075604
193	0xbd853c56	-0.06505649
194	0x3e63cb89	0.22245611
195	0x3e043d76	0.1291407
196	0x3e7c4a49	0.24637713
197	0x3cec8855	0.028873602
198	0xbed455ca	-0.41471702
199	0xbe675793	-0.22592
200	0xbf599c06	-0.850037
201	0xbe0dd974	-0.13852483
202	0x3e4e1654	0.20125705
203	0xbe23c5a9	-0.1599337
204	0x3e19d5c8	0.15022957
205	0xbd46bcdc	-0.048519954
206	0xbdf2baeb	-0.11852058
207	0xbd82e8b6	-0.06392042
208	0x3e70c5b9	0.23512925
209	0x3e220ece	0.1582596
210	0x3e56cec4	0.20977312
211	0x3d977bb1	0.07396639
212	0x3d247fe0	0.040161014
213	0xbe36eef7	-0.17864595
214	0xbe844442	-0.25833327
215	0x3c7da1f6	0.015480509
216	0xbf2e2873	-0.6803047
217	0x3e21d0e8	0.15802348
218	0x3cbb7791	0.022884162
219	0x3e8e4cb2	0.2779289
220	0x3e90d8aa	0.28290302
221	0xbdcadf57	-0.0990588
222	0x3c885065	0.016639898
223	0xbe5048af	-0.20340227
224	0xbe15b2f2	-0.14619043
225	0x3e1b6567	0.151754
226	0xbda13955	-0.07872263
227	0xbdc7e6fa	-0.09760852
228	0x3e3cc72b	0.18435352
229	0x3de77f6f	0.11303603
230	0x3ea3aac2	0.31966215
231	0x3da3915c	0.079867095
232	0x3c2348a7	0.009966052
233	0xbd939462	-0.07206036
234	0xbe2840b3	-0.16430931
235	0xbda475e1	-0.08030296
236	0xbea206fc	-0.31645954
237	0xbc8a5905	-0.016888151
238	0xbd7f0201	-0.06225777
239	0xbe2b58b9	-0.16733064
240	0x3e412bba	0.18864337
241	0xbdc28de7	-0.09499722
242	0xbe9defdd	-0.30847064
243	0xbc1fbc55	-0.009749492
244	0x3d658bbb	0.05604146
245	0x3e33c6c1	0.17556287
246	0xbdd0c8d2	-0.101945534
247	0xbcc3ac05	-0.023885736
248	0x3e6c932b	0.23103015
249	0xbe1c9ced	-0.15294237
250	0xbe08a880	-0.13345528
251	0xbe5f17a3	-0.2178636
252	0xbe82b6a2	-0.25529963
253	0xbd8edd70	-0.069758296
254	0xbe4f108a	-0.20221153
255	0xbb364787	-0.002781363

kp1.mlp.2.bias f4 [16]
0	0xbda5646d	-0.08075795
1	0xbe952229	-0.29127625
2	0xbe871d07	-0.26389334
3	0x3da4a0fd	0.080385186
4	0x3c19b0b0	0.0093805045
5	0x3e722250	0.23645902
6	0x3e7932cd	0.24335785
7	0xbe2179df	-0.15769146
8	0xbe1ed4a4	-0.15510803
9	0x3d35c39f	0.044376012
10	0xbe824717	-0.25444862
11	0xbea5e828	-0.32403684
12	0x3d8bb716	0.0682203
13	0x3e2430a9	0.16034187
14	0xbea34076	-0.31885117
15	0xbd5d459c	-0.054021463

kp2.mlp.0.weight f4 [32, 19]
0	0x3dad6c05	0.08467869
1	0xbdc58e03	-0.09646227
2	0xbbd9459a	-0.0066306116
3	0xbdb8df15	-0.090269245
4	0xbe282058	-0.16418588
5	0x3e06e42f	0.13172983
6	0xbdac9b17	-0.084280185
7	0xbe453460	-0.1925826
8	0xbe3a6089	-0.18200888
9	0xbdf0e7a0	-0.11762929
10	0xbe638666	-0.22219238
11	0xbccfcbc5	-0.02536572
12	0xbd4cd309	-0.050005946
13	0xbe1c8191	-0.152838
14	0xbe2d8a53	-0.16947298
15	0x3e54a4c0	0.20765972
16	0x3d63bfaf	0.055602726
17	0xbdce6bef	-0.100791804
18	0x3dc00ac4	0.093770534
19	0x3f4e9be2	0.8070661
20	0xbda44f6b	-0.0802296
21	0xbf2273c1	-0.63457876
22	0xbdaee957	-0.085406
23	0xbe8286af	-0.2549338
24	0xbdc060ab	-0.09393438
25	0xbda5b394	-0.080908924
26	0xbe399526	-0.18123302
27	0xbd93269a	-0.07185097
28	0x3dbad159	0.09121961
29	0x3d872de8	0.06600553
30	0xbdf13eee	-0.11779581
31	0x3d4a3add	0.049372543
32	0xbe9251f1	-0.2857814
33	0xbeb7b54d	-0.3588051
34	0x3e137ce9	0.14403118
35	0xbe06bd94	-0.13158256
36	0xbe448e0b	-0.1919481
37	0xbe38217d	-0.17981525
38	0x3e923a6e	0.28560203
39	0x3f08047b	0.53131837
40	0x3fef378f	1.868883
41	0x3e35c8da	0.177524
42	0xbd910f88	-0.070830405
43	0x3d46f1bf	0.04857039
44	0x3dbf2ee4	0.093351156
45	0x3ce24ef5	0.02762554
46	0xbd24d6b7	-0.04024383
47	0x3d3d3baf	0.046199497
48	0x3dcde6d1	0.1005379
49	0xbdc72363	-0.09723546
50	0x3e544553	0.2072957
51	0xb92c0e7e	-0.00016408597
52	0xbcf02173	-0.029312825
53	0x3e01793d	0.12643905
54	0x3e0179b1	0.12644078
55	0xbe159a20	-0.14609575
56	0xbd2aac03	-0.04166795
57	0xbf0d9c32	-0.5531646
58	0x3e2df47d	0.16987796
59	0x3fafee74	1.3744645
60	0xbe448de6	-0.19194755
61	0x3d97cf9e	0.07412647
62	0xbdd27cf9	-0.10277743
63	0xbe379b85	-0.1793042
64	0xbba6cd30	-0.005090378
65	0x3d9efb15	0.07762734
66	0x3be91ad1	0.0071137925
67	0xbd5d318b	-0.054002326
68	0x3db1157a	0.086466745
69	0xbd8aa327	-0.067694
70	0xbc577b8c	-0.013152014
71	0xbe3731d3	-0.178901
72	0x3e626327	0.22108136
73	0xbd7d8691	-0.06189591
74	0xbe9ceb41	-0.30648234
75	0xbe546117	-0.20740162
76	0x3ed5fe54	0.417956
77	0x3f330031	0.6992217
78	0x3f50ed6d	0.81612283
79	0xbd23879b	-0.039924245
80	0xbde6ed76	-0.11275761
81	0xbd674e5d	-0.056471217
82	0x3e829424	0.25503647
83	0x3e32c5e6	0.17458305
84	0x3e2c44f3	0.16823177
85	0x3ce32b54	0.027730621
86	0xbbb105f7	-0.0054023224
87	0x3dabd964	0.08391073
88	0x3caeb157	0.021324797
89	0x3d0aecc7	0.033917215
90	0x3d629014	0.055313185
91	0xbe222184	-0.15833098
92	0x3d448873	0.04798169
93	0x3dfafb3e	0.12254952
94	0xbdddfbc5	-0.10839037
95	0xbd7c4cf9	-0.061596844
96	0xbcaf9d6b	-0.021437367
97	0x3d64cca2	0.055859216
98	0x3d0a7a47	0.03380802
99	0xbe2a48d8	-0.1662935
100	0xbcf0a1a9	-0.02937396
101	0xbe3937de	-0.18087718
102	0x3da95bdc	0.08269474
103	0xbe4ae8d1	-0.19815375
104	0xbd5da005	-0.054107685
105	0x3c0a85e2	0.008454772
106	0x3e3e195b	0.1856436
107	0x3d749798	0.059714884
108	0x3e03fa52	0.12888458
109	0x3d5e0f00	0.054213524
110	0xbe607f65	-0.21923597
111	0xbe1c9cb1	-0.15294148
112	0xbe62f846	-0.22165021
113	0xbda99f23	-0.08282306
114	0xbedd7f60	-0.43261242
115	0xbea48d94	-0.32139266
116	0x3fa7bebc	1.3105083
117	0xbddf5de1	-0.10906578
118	0xbd66ec35	-0.05637761
119	0x3dd5282b	0.10408052
120	0x3e0267a4	0.12734848
121	0x3e7f24c8	0.24916375
122	0x3e201151	0.15631606
123	0xbbfe0d6b	-0.0077530644
124	0x3dab2f6d	0.08358655
125	0xbe700cdb	-0.23442404
126	0xbd594988	-0.05304864
127	0xbe355c5c	-0.17711014
128	0xbe345336	-0.17609867
129	0x3cc00208	0.023438469
130	0xbe0c453c	-0.13698286
131	0xbd746252	-0.059664078
132	0x3d926fb9	0.07150216
133	0x3e452d80	0.19255638
134	0x3f13933a	0.57646525
135	0x3fae905a	1.3637803
136	0xbd4b95b8	-0.04970333
137	0xbe8cc018	-0.27490306
138	0x3de94842	0.11390735
139	0xbdd3cffc	-0.10342404
140	0x3cb39800	0.021923065
141	0x3e15852d	0.14601584
142	0x3cd2177b	0.025645962
143	0x3dd2990e	0.10283099
144	0xbe4a1f9d	-0.19738622
145	0x3caba9aa	0.020954926
146	0x3e7896e3	0.24276309
147	0xbeacfc8b	-0.33786425
148	0x3e6b2fd9	0.22967471
149	0xbe31a218	-0.1734699
150	0xbe1e0342	-0.1543093
151	0xbe212716	-0.15737566
152	0xbf01a861	-0.5064755
153	0xbec46309	-0.38356808
154	0x3f3b0cb5	0.73066264
155	0xbe7fa0c0	-0.24963665
156	0xbe851762	-0.25994402
157	0xbe895ac7	-0.2682707
158	0xbdeb33cd	-0.114844896
159	0x3e74a330	0.23890376
160	0xbd78a429	-0.06070343
161	0x3d5d1f82	0.053985126
162	0x3dec90fe	0.115510926
163	0x3d258e9e	0.040419213
164	0xbe6bf7b7	-0.23043714
165	0xbe5ceedf	-0.21575497
166	0xbe2cbd67	-0.16869126
167	0x3e6bd645	0.23030956
168	0xbde56539	-0.11200947
169	0xbe806e2b	-0.2508405
170	0xbe5f4068	-0.21801913
171	0x3e9e09e7	0.3086693
172	0xbeec597c	-0.4616202
173	0x3f8b3c0e	1.0877702
174	0xbe23b310	-0.15986276
175	0x3df9a1eb	0.121890865
176	0xbbda88c4	-0.0066691358
177	0xbc1d491a	-0.009599948
178	0xbd96d2ca	-0.073644236
179	0xbe00aa2a	-0.12564912
180	0x3e455b8b	0.19273202
181	0xbe60cdc4	-0.21953493
182	0xbe8682be	-0.26271623
183	0xbe2c932d	-0.16853018
184	0xbe20b8dd	-0.1569552
185	0xbcb67b02	-0.022275452
186	0xbdd77f8d	-0.10522375
187	0xbd552ba5	-0.052043576
188	0xbe859eb7	-0.26097652
189	0xbe71f19c	-0.23627323
190	0xbe93d6cb	-0.28874812
191	0xbe7df4e0	-0.24800444
192	0xbfbcf7c0	-1.4763107
193	0xbd44ac36	-0.048015796
194	0xbec83b23	-0.39107618
195	0x3cbf18c9	0.023327248
196	0xbe4cfa59	-0.20017375
197	0xbd8d48bd	-0.06898639
198	0x3df98a50	0.12184584
199	0x3d96f82c	0.07371554
200	0xbcc504cd	-0.02405014
201	0xbe17a483	-0.1480885
202	0xbe50ecd7	-0.20402847
203	0xbea90b71	-0.33016542
204	0xbd7ee80d	-0.06223302
205	0xbccbb2b0	-0.024865478
206	0x3e0a53cc	0.13508528
207	0xbeb10992	-0.34577614
208	0x3db07092	0.08615221
209	0xbea0b919	-0.31391218
210	0x3d98e291	0.07465089
211	0x3fa9ef67	1.3276185
212	0x3e393ebd	0.18090339
213	0xbe6cb812	-0.23117092
214	0x3dcb0919	0.099138446
215	0xbd8912dd	-0.06693051
216	0x3e2ebb55	0.17063649
217	0xbdd950d1	-0.10611118
218	0xbe820090	-0.25391054
219	0xbd38de96	-0.04513415
220	0xbd6655a3	-0.056234013
221	0xbe93c9e1	-0.2886496
222	0xbde84ff4	-0.11343375
223	0x3d380b7a	0.04493282
224	0x3e4bd965	0.19907148
225	0x3e736a1f	0.2377095
226	0xbdf1708a	-0.11789043
227	0xbe51591b	-0.20444147
228	0xbe79c857	-0.2439283
229	0x3f16a9f9	0.5885311
230	0xbddbef04	-0.10738948
231	0xbd9018b7	-0.07035964
232	0x3e59cd86	0.21269807
233	0xbd12dcbd	-0.035855044
234	0x3e1c0ec0	0.15240002
235	0x3d7eab76	0.062175237
236	0x3e15a53a	0.1461381
237	0xbe5393a5	-0.2066179
238	0xbe768264	-0.24073178
239	0xbe54f81a	-0.20797768
240	0xbe1d4120	-0.15356874
241	0xbd6abe7b	-0.057310563
242	0xbe167d9a	-0.1469635
243	0xbddd56ec	-0.10807595
244	0x3e250efb	0.16118996
245	0x3e0b1999	0.13583983
246	0xbdebbe6a	-0.11510928
247	0xbf2542fd	-0.6455534
248	0xbe0c0eac	-0.13677472
249	0xbe4b6634	-0.19863206
250	0x3e55af3f	0.20867632
251	0xbe0f80bb	-0.1401395
252	0x3e1b0576	0.15138802
253	0x3e9963dc	0.29959
254	0xbde3eb09	-0.11128814
255	0x3cd0d64e	0.025492813

kp2.mlp.0.bias f4 [32]
0	0xbe6a7461	-0.22895958
1	0x3dcf9c15	0.10137192
2	0x3dc3418f	0.09533989
3	0x3ed3f5a4	0.41398346
4	0x3de9dbc0	0.11418867
5	0xbdd33e35	-0.103145994
6	0x3e68ca1d	0.2273335
7	0x3c7b372f	0.015332981
8	0x3e9e7cbc	0.3095454
9	0x3d9957b4	0.07487431
10	0xbd76f6a3	-0.060293805
11	0x3e032776	0.12808022
12	0x3e65d9f8	0.2244643
13	0xbdf793ce	-0.120887384
14	0x3e78fdb9	0.24315538
15	0x3eb66760	0.35625744
16	0x3e623a42	0.22092536
17	0x3dd4179e	0.10356067
18	0x3e9d506e	0.30725425
19	0xbe3f3d59	-0.18675746
20	0x3dd77a60	0.10521388
21	0x3e66b286	0.22529039
22	0xb9954eab	-0.00028478107
23	0x3db5414b	0.08850344
24	0xbe94b9be	-0.2904796
25	0x3e34180d	0.175873
26	0x3e4463bc	0.1917867
27	0xbd9b6a73	-0.07588663
28	0x3e32f6b7	0.17476927
29	0xbe652b49	-0.22379793
30	0xbe24bdf6	-0.1608809
31	0x3da0297e	0.07820414

kp2.mlp.2.weight f4 [32, 32]
0	0x3e18d3dd	0.1492457
1	0xbc78b476	-0.015179744
2	0x3ec478c5	0.3837339
3	0x3d9213f5	0.07132713
4	0x3e8ddb05	0.2770616
5	0x3e068303	0.13135915
6	0x3c1df766	0.009641504
7	0x3e7f8b2c	0.24955434
8	0xbce95906	-0.028484832
9	0xbe7c5aca	-0.24644008
10	0xbcbc5081	-0.022987606
11	0x3e292365	0.16517408
12	0x3b9d53f8	0.0048012696
13	0x3db29c56	0.08721225
14	0x3e5a6b06	0.21329889
15	0xbd9c8c66	-0.076439664
16	0xbec33099	-0.38123015
17	0xbd0b3992	-0.03399045
18	0xbdd19c6a	-0.10234912
19	0x3d711974	0.058862165
20	0xbe229e19	-0.15880622
21	0xbda90c08	-0.08254248
22	0x3ba8f413	0.005156049
23	0x3efa6740	0.48906898
24	0x3d1a3cff	0.037655827
25	0x3e1a93eb	0.15095489
26	0xbc99dc12	-0.018781696
27	0x3a9f4833	0.0012152254
28	0xbe184840	-0.14871311
29	0xbe592974	-0.2120722
30	0xbdc0d9b9	-0.09416527
31	0xbde166b4	-0.11005917
32	0xbe1b2734	-0.15151674
33	0xbeba9ae1	-0.36446288
34	0xbe82b4b1	-0.25528482
35	0xbdce531c	-0.100744456
36	0xbe9cb679	-0.30607966
37	0xbdcde8e3	-0.10054185
38	0x3d7aff09	0.061278377
39	0x3d7d5b83	0.06185485
40	0x3da146ea	0.07874854
41	0x3b127bb3	0.0022351563
42	0x3dd4bbbb	0.10387369
43	0x3e3e46bd	0.18581672
44	0x3e607199	0.21918334
45	0x3e4733b4	0.19453317
46	0xbe4de1a7	-0.20105611
47	0xbeb5eb60	-0.3553114
48	0xbe0c3e5c	-0.13695663
49	0xbe823c53	-0.2543665
50	0xbe86673f	-0.26250646
51	0x3db1bcc1	0.0867858
52	0x3dd54bd6	0.10414855
53	0xbd2aa468	-0.041660696
54	0x3e6f0ea5	0.2334543
55	0x3ea6a063	0.3254424
56	0xbe0739f6	-0.13205704
57	0x3da06def	0.07833468
58	0xbe5187c5	-0.20461948
59	0x3e191edd	0.1495318
60	0x3d94c63d	0.072643735
61	0xbe02469a	-0.12722245
62	0x3e272d46	0.16325864
63	0x3ae991ae	0.0017819905
64	0x3d9e859c	0.07740328
65	0x3daaf3da	0.08347292
66	0xbe0a8e3c	-0.1353082
67	0xbd36f7da	-0.044669963
68	0xbe495822	-0.19662526
69	0x3db87749	0.09007127
70	0xbd2f94a4	-0.042866364
71	0x3e05ca48	0.13065445
72	0xbd1deaaa	-0.03855387
73	0xbe464883	-0.19363599
74	0x3e3e340b	0.1857454
75	0xbe3fbcc3	-0.1872435
76	0x3dbc831f	0.09204697
77	0xbc8d63b9	-0.017259466
78	0xbe672ba9	-0.22575249
79	0xbf02d446	-0.51105154
80	0xbe6a5e34	-0.22887498
81	0xbeaf3801	-0.34222415
82	0xbd2d1eaf	-0.04226559
83	0x3e9f6e35	0.3113877
84	0xbe656389	-0.22401251
85	0xbeb46f3f	-0.35241124
86	0x3daed0d9	0.08535928
87	0xbeda17a3	-0.42596158
88	0x3e4e98b2	0.20175436
89	0xbe97dadd	-0.29659167
90	0xbe3b6b89	-0.1830274
91	0xbdca9fc7	-0.09893756
92	0x3b36ef98	0.0027913805
93	0x3f0f0106	0.55860937
94	0x3e102109	0.14075102
95	0xbc9f1951	-0.019421251
96	0xbdfc1001	-0.1230774
97	0xbc9f9ff2	-0.019485448
98	0x3e433aaa	0.19065347
99	0xbdb942f3	-0.09045973
100	0x3d97d1a1	0.074130304
101	0xbd51b61d	-0.051199067
102	0x3d0e5945	0.034753103
103	0x3d94d123	0.07266452
104	0xbdca68df	-0.09883284
105	0x3d0233ab	0.031787556
106	0xbea3d454	-0.3199793
107	0xbe121eaf	-0.14269517
108	0xbdd72ffa	-0.10507198
109	0xbe248707	-0.16067134
110	0x3e717e93	0.2358344
111	0x3e19658d	0.14980145
112	0xbe83fc64	-0.25778496
113	0x3bac350c	0.005255347
114	0xbd1f4cb2	-0.0388915
115	0x3e0ce1ac	0.13757962
116	0x3d43506d	0.047684122
117	0xbca23c5a	-0.019804168
118	0xbe1526b5	-0.14565547
119	0x3ce24b59	0.02762382
120	0x3c1ed451	0.009694175
121	0x3ce94b94	0.028478421
122	0x3e7c32fc	0.24628824
123	0x3e8a450e	0.2700581
124	0xbd913ca0	-0.070916414
125	0x3d6cd646	0.057821535
126	0x3d770eb5	0.06031676
127	0xbe844e10	-0.25840807
128	0x3e20a0d1	0.15686347
129	0xbe06b9d7	-0.1315683
130	0xbef8f4db	-0.4862431
131	0xbe9942fc	-0.29933918
132	0xbe88c7ed	-0.2671503
133	0xbe0baafc	-0.13639444
134	0xbde2a3a0	-0.11066365
135	0xbe6a57fa	-0.22885123
136	0xbdbb48d3	-0.091447495
137	0x3c0d0caa	0.008608976
138	0x3e443f16	0.1916469
139	0xbe558fdd	-0.2085566
140	0xbe49d035	-0.19708331
141	0x3db6267a	0.088940576
142	0xbc9407c4	-0.01807011
143	0xbe81b2fb	-0.25331864
144	0xbda6d0d9	-0.08145303
145	0xbec98514	-0.39359343
146	0xbd9b7113	-0.075899266
147	0x3e137918	0.14401662
148	0xbcb5ff76	-0.02221654
149	0xbe018363	-0.12647776
150	0x3d57d590	0.052693903
151	0xbeb59b3f	-0.35470006
152	0x3ea03a43	0.3129445
153	0xbed2626b	-0.41090712
154	0xbe35b5db	-0.17745154
155	0x3e8e2574	0.2776295
156	0x3d60f1a8	0.05491796
157	0xbe166a0e	-0.14688894
158	0x3e5b1061	0.21392967
159	0x3e7f8ba3	0.24955611
160	0x3b822085	0.003971162
161	0xbdf0a184	-0.11749557
162	0x3c90c5cd	0.017672444
163	0xbe9ec405	-0.31008926
164	0x3e948775	0.29009596
165	0xbcf72ddf	-0.03017324
166	0x3ca03ac4	0.019559272
167	0x3dd3ed31	0.10347975
168	0xbdf8d81c	-0.121505946
169	0xbd29d45e	-0.041462295
170	0xbde92088	-0.11383158
171	0xbd270897	-0.040779676
172	0x3d3f9622	0.046774037
173	0x3db423ed	0.08795915
174	0xbdb55098	-0.08853263
175	0x3e6218f8	0.22079837
176	0xbe8731bf	-0.2640514
177	0x3c28e75d	0.010309068
178	0x3e5d5965	0.21616133
179	0x3cfa3dc5	0.030547032
180	0xbd4a2e4d	-0.049360562
181	0xbd9a4e4c	-0.07534465
182	0x3dd42710	0.10359013
183	0x3e643680	0.22286415
184	0x3e3f75cc	0.1869728
185	0x3d28e102	0.04123021
186	0x3e544a04	0.2073136
187	0xbd0b937e	-0.034076206
188	0xbe5515c6	-0.20809087
189	0x3deca23f	0.115543835
190	0x3e489824	0.19589287
191	0xbe7d1766	-0.24715957
192	0xbd712387	-0.058871772
193	0x3e2c57b8	0.16830337
194	0xbe7826c7	-0.24233542
195	0xbed2a9f0	-0.41145277
196	0xbc14dd23	-0.009085926
197	0x3b0c0c66	0.0021369695
198	0xbe69d68b	-0.22835748
199	0xbe687f29	-0.22704758
200	0xbce27297	-0.027642531
201	0xbdef2f21	-0.11678911
202	0x3e43663d	0.1908197
203	0xbd8264d4	-0.06366888
204	0xbdaefae1	-0.08543945
205	0xbe04a6a8	-0.129542
206	0xbded0129	-0.11572487
207	0x3e399a53	0.18125276
208	0xbe039106	-0.12848291
209	0x3d971687	0.073773436
210	0x3e88f55d	0.26749697
211	0x3e870a41	0.2637501
212	0x3d4226b7	0.047400203
213	0xbd6e34b2	-0.058155723
214	0xbdd17e12	-0.10229124
215	0xbe991a04	-0.2990266
216	0x3e8a36a3	0.2699481
217	0xbdd5c2ea	-0.104375675
218	0xbd2d5508	-0.04231742
219	0x3e7ad115	0.24493821
220	0xbe783182	-0.24237636
221	0xbed39916	-0.41327733
222	0x3e449c8d	0.19200344
223	0x3bb9a063	0.0056648715
224	0x3dc111ff	0.094272606
225	0xbe9cc481	-0.3061867
226	0xbc83ff5a	-0.016112972
227	0xbcd4da8f	-0.025983123
228	0xbebb9eef	-0.36644694
229	0xbcf1de60	-0.029524982
230	0x3e4fc815	0.20291169
231	0xbbb5f11c	-0.005552424
232	0x3e47058b	0.19435708
233	0xbe38ade7	-0.18035088
234	0xbe38ac3a	-0.18034449
235	0x3c74c3be	0.014939247
236	0xbd670b2a	-0.05640713
237	0x3d44e217	0.04806718
238	0xbda81e1a	-0.082088664
239	0xbeb3a9b5	-0.35090414
240	0x3d9f9442	0.0779195
241	0x3d8cfe56	0.06884448
242	0xbea75ca6	-0.32687873
243	0xbda819b6	-0.08208029
244	0x3de2210f	0.11041462
245	0x3da3e622	0.08002879
246	0x3e54c530	0.20778346
247	0xbd5c82e7	-0.053835776
248	0x3dbcfb9e	0.0922768
249	0x3dcee3e1	0.10102058
250	0x3d837715	0.064191975
251	0x3e1ad58e	0.15120527
252	0x3e48bc27	0.19603024
253	0x3b918ccb	0.0044418327
254	0xbe03d141	-0.12872793
255	0xbe011da6	-0.12608966

kp2.mlp.2.bias f4 [32]
0	0xbd970df6	-0.0737571
1	0xbd657a6c	-0.056024954
2	0xbdf20643	-0.118176006
3	0x3c2a0247	0.0103765195
4	0xbe0d942e	-0.13826057
5	0x3e004ef1	0.12530114
6	0xbe43240c	-0.1905672
7	0xbda13898	-0.078721225
8	0x3d647834	0.055778697
9	0xbd6c78be	-0.057732336
10	0xbe1d2dc7	-0.15349494
11	0xbd972e29	-0.07381851
12	0xbdc0a172	-0.09405793
13	0xbe383346	-0.1798831
14	0xbc2c3bc6	-0.010512298
15	0xbd1fae43	-0.03898455
16	0xbe8ce10d	-0.2751545
17	0xbdfc7100	-0.123262405
18	0xbd7e1026	-0.06202712
19	0xbe985c8a	-0.29758102
20	0xbe60ccf4	-0.21953183
21	0xbd16c790	-0.03681141
22	0x3d208537	0.039189544
23	0xbe233222	-0.15937093
24	0x3d708a11	0.05872542
25	0x3dde2236	0.10846369
26	0xbe5885df	-0.21144818
27	0xbd83b980	-0.06431866
28	0xbe8deff5	-0.27722135
29	0xbddbdc7a	-0.10735412
30	0x3d5f6796	0.054542147
31	0x3d9ccbcc	0.07656059

head.0.weight f4 [32, 32]
0	0x3e1e62f7	0.1546744
1	0x3dd2889d	0.10279963
2	0xbd3041ab	-0.043031376
3	0x3aafa89d	0.0013401691
4	0x3d3deb94	0.046367243
5	0x3d119ef8	0.035551995
6	0xbd3d1012	-0.046157904
7	0x3e508b72	0.20365694
8	0x3e70acb1	0.23503377
9	0xbb37cac9	-0.0028044453
10	0xbd587fc3	-0.052856218
11	0xbe62eef2	-0.22161463
12	0xbe266a80	-0.16251564
13	0x3e8dfdbb	0.27732643
14	0xbe99f581	-0.30070117
15	0x3da447bb	0.08021494
16	0xbd5e4d25	-0.05427279
17	0x3c8536fb	0.016261568
18	0x3e573b82	0.21018794
19	0x3e33f6f6	0.17574677
20	0x3d81613d	0.06317375
21	0x3bde2912	0.0067797983
22	0xbe16de70	-0.1473329
23	0x3eb4699e	0.3523683
24	0xbde1dbea	-0.110282734
25	0x3ea59bbb	0.32345375
26	0x3d219348	0.0394471
27	0xbe0b3b06	-0.13596734
28	0xbc947c10	-0.018125564
29	0xbd054529	-0.03253666
30	0x3ec6b16b	0.38807234
31	0x3d9e7083	0.07736304
32	0x3cfeb2e5	0.031091163
33	0x3d037ddd	0.032102454
34	0x3d6ac59b	0.057317358
35	0x3e0afeb1	0.1357372
36	0x3e204654	0.15651828
37	0xbd875606	-0.066082045
38	0x3e571e87	0.21007739
39	0xbe37eaba	-0.17960635
40	0x3d88ac4d	0.06673489
41	0x3e211d97	0.15733944
42	0x3e49e9be	0.19718072
43	0xbdacb0d8	-0.08432168
44	0x3ce7a4ab	0.028276762
45	0xbd0a870b	-0.033820193
46	0xbdcdf79c	-0.10056993
47	0x3d867122	0.06564547
48	0x3cde8336	0.027162176
49	0x3e0736fd	0.1320457
50	0xbd97f009	-0.0741883
51	0xbe0c9cd9	-0.13731708
52	0x3b6d339a	0.0036194087
53	0x3df077a7	0.11741572
54	0xbd6f8c9a	-0.058483697
55	0xbda031ef	-0.07822024
56	0xbe033ad5	-0.12815411
57	0x3dd6197f	0.10454082
58	0xbc94bc91	-0.018156322
59	0x3ba26f6a	0.0049571292
60	0x3e5b5f44	0.2142306
61	0x3dd98d1b	0.10622617
62	0xbe207f02	-0.1567345
63	0xbe33f46f	-0.17573713
64	0x3dadd7c5	0.084884204
65	0xbe65117b	-0.2236995
66	0xbd479a0c	-0.048730895
67	0x3e043c1a	0.12913552
68	0xbe7e776a	-0.2485024
69	0xbe04a2ea	-0.12952772
70	0xbee73ebc	-0.4516505
71	0x3d5f5fd8	0.054534763
72	0x3e18b25f	0.14911793
73	0x3e6510d1	0.22369696
74	0xbe818683	-0.25297937
75	0xbe56d991	-0.20981432
76	0xbe6d9ba2	-0.232039
77	0xbc4ad3bb	-0.012379582
78	0xbe7d28be	-0.24722573
79	0x3de1f21c	0.11032507
80	0xbe9bc21a	-0.30421525
81	0xbe2f85eb	-0.1714093
82	0x3c87b03a	0.016563524
83	0xbe563f07	-0.2092248
84	0xbd5ba6e8	-0.05362597
85	0xbede919e	-0.43470472
86	0x3e3af6b0	0.18258166
87	0xbd9ffbf0	-0.07811725
88	0x3e9515c3	0.29118165
89	0xbe124685	-0.14284714
90	0xbe3cf1a7	-0.18451558
91	0x3e499b8b	0.19688241
92	0xbe90df97	-0.28295586
93	0xbe26184d	-0.16220208
94	0xbeb28b60	-0.3487196
95	0xbdad7947	-0.084703974
96	0x3bbb1631	0.0057094325
97	0xbe0041de	-0.12525126
98	0xbe8dd3c4	-0.27700627
99	0x3e45733c	0.1928224
100	0xbe88f908	-0.26752496
101	0x3de9d2e8	0.1141718
102	0xbee201b2	-0.44141918
103	0xbcbd699b	-0.023121646
104	0x3e39bcba	0.181384
105	0x3d9c5b92	0.07634653
106	0xbe68d380	-0.22736931
107	0xbe786491	-0.24257113
108	0xbda0796c	-0.078356594
109	0x3d37fff6	0.044921838
110	0xbea03138	-0.3128755
111	0xbd78be93	-0.06072862
112	0xbe790e04	-0.24321753
113	0xbe6a5c01	-0.22886659
114	0xbe8b6188	-0.27222848
115	0xbe143220	-0.14472246
116	0xbdfa7b40	-0.12230539
117	0xbee7a8af	-0.45245883
118	0x3d1ee9c2	0.038797148
119	0xbe5df384	-0.21674925
120	0x3e6d1659	0.23153056
121	0xbcbf4079	-0.023346173
122	0x3caa72b8	0.020806655
123	0x3e44354a	0.19160953
124	0xbea5b094	-0.3236128
125	0xbe9e49da	-0.3091572
126	0xbe4332bd	-0.19062324
127	0x3d19ca21	0.03754628
128	0x3db4cb4a	0.08827837
129	0xbc89514d	-0.0167624
130	0x3f321729	0.6956659
131	0xbba6bb8b	-0.005088275
132	0x3d66ec71	0.05637783
133	0x3e67669c	0.22597736
134	0xbd900830	-0.07032812
135	0x3d225a3d	0.03963684
136	0x3e59a0cd	0.21252747
137	0x3d619c0d	0.055080462
138	0x3e5e325c	0.21698898
139	0x3dfab9c6	0.12242465
140	0xbe182022	-0.14856008
141	0x3d338083	0.04382373
142	0x3f2e744d	0.6814621
143	0x3d0ac5bd	0.033879984
144	0xbe0f0652	-0.13967255
145	0xbd96a45b	-0.07355567
146	0x3e501a8d	0.20322628
147	0xbd018d23	-0.03162874
148	0xbe572f91	-0.21014239
149	0x3d97e577	0.07416814
150	0x3cc29294	0.023751535
151	0x3dd70a00	0.10499954
152	0x3e1815e1	0.14852096
153	0xbe9103f6	-0.28323334
154	0x3e6ab03d	0.22918792
155	0x3e89ae60	0.2689085
156	0x3ecc2b8f	0.39876983
157	0x3ed2ad57	0.41147873
158	0x3d9efcc2	0.077630535
159	0xbe9522ab	-0.29128012
160	0x3cb3b8ee	0.021938767
161	0xbda38e33	-0.07986107
162	0x3e9eca9e	0.3101396
163	0x3d7cdfca	0.06173686
164	0xbdf84920	-0.121233225
165	0x3df9f69e	0.122052416
166	0xbe141438	-0.14460838
167	0xbc6c63d5	-0.014428099
168	0x3e29985d	0.16562028
169	0xbcb7faf2	-0.022458527
170	0x3da7fe1c	0.082027644
171	0x3e1335c5	0.1437598
172	0xbe2d17a5	-0.16903551
173	0x3e6c6354	0.23084766
174	0x3e6b2e32	0.22966841
175	0xbdd4ad24	-0.103845865
176	0x3d75bbcf	0.05999356
177	0xbdb90f8c	-0.090361685
178	0xbd96e058	-0.07367009
179	0xbd5b1dd8	-0.053495258
180	0xbe8adf6f	-0.2712359
181	0x3e87d1fa	0.26527387
182	0xbcfcb1ca	-0.030846495
183	0x3c213af6	0.009840718
184	0x3e3f0647	0.18654738
185	0xbcaf510c	-0.02140095
186	0xbd4d08d9	-0.050057266
187	0x3c3642fd	0.01112437
188	0x3e9e7d13	0.309548
189	0xbe133149	-0.1437427
190	0xbc811f24	-0.01576192
191	0x3d9b1751	0.075728066
192	0x3b8d4e77	0.0043123323
193	0x3da494e0	0.08036208
194	0xbe23306e	-0.15936443
195	0x3e2a6d7a	0.16643324
196	0xbeba2625	-0.36357227
197	0x3e503d88	0.20335972
198	0xbe376430	-0.17909312
199	0x3e6a3849	0.22873034
200	0xbd542478	-0.05179259
201	0x3e584b06	0.21122369
202	0xbc530f66	-0.012882089
203	0xbe9b5e9c	-0.3034562
204	0xbe5b4a1d	-0.2141499
205	0x3d8b44ba	0.06800218
206	0xbdfab68c	-0.12241849
207	0x3e173e85	0.14769943
208	0xbe0c948e	-0.13728544
209	0xbd6141a9	-0.05499426
210	0xbe079165	-0.13239057
211	0x3b508364	0.0031816596
212	0xbd9c0520	-0.07618165
213	0xbf0f84f9	-0.56062275
214	0x3e373e38	0.17894828
215	0xbdb32708	-0.08747679
216	0x3e15c468	0.14625704
217	0x3e6af961	0.22946693
218	0xbc65a1d8	-0.014015637
219	0x3e1d32da	0.1535143
220	0xbdaabdec	-0.08337006
221	0xbe218236	-0.15772328
222	0x3df219e3	0.11821344
223	0x3cf3ed12	0.02977613
224	0xbe85415d	-0.2602643
225	0xbdf08338	-0.11743778
226	0xbd0534a1	-0.032520894
227	0xbe744931	-0.23856045
228	0x3c941e90	0.01808098
229	0xbe446e2b	-0.1918265
230	0xbe794eac	-0.24346417
231	0xbde8c951	-0.11366523
232	0xbdd33e14	-0.10314575
233	0xbe42ea53	-0.190347
234	0x3d3009b6	0.04297801
235	0xbd96ed1f	-0.07369446
236	0x3ccff1f3	0.025383925
237	0xbe171d08	-0.14757168
238	0xbabe50cd	-0.001451993
239	0x3de21993	0.11040034
240	0x3d6c840b	0.057743113
241	0xbde9e990	-0.11421502
242	0xbd858bc0	-0.06520796
243	0x3df621f6	0.12018196
244	0x3e12f38a	0.14350715
245	0x3d54b200	0.051927567
246	0xbdd91e7f	-0.1060152
247	0xbd9ddebc	-0.07708499
248	0xbe5209b9	-0.20511521
249	0x3e2120f9	0.15735234
250	0xbe03d282	-0.12873271
251	0xbe0913bf	-0.13386439
252	0xbe070481	-0.13185312
253	0xbde1f1a2	-0.11032416
254	0xbd8fee7f	-0.070279114
255	0x3d16f63c	0.03685592

head.0.bias f4 [32]
0	0xbb569c74	-0.0032747062
1	0xbe15f101	-0.14642717
2	0x3e8e78d4	0.2782656
3	0x3ec6240f	0.38699386
4	0xbe61bf05	-0.22045524
5	0xbe518f3c	-0.20464796
6	0x3c0cba56	0.008589348
7	0x3de3293c	0.11091849
8	0x3dc6dd41	0.097101696
9	0x3d7965fa	0.060888268
10	0x3e554263	0.20826106
11	0xbda2b1f0	-0.07944095
12	0x3b628c5b	0.0034568522
13	0x3eb3ebea	0.35140926
14	0xbd8eb84b	-0.06968745
15	0xbd23cca0	-0.039990067
16	0x3b089ead	0.0020846531
17	0x3e2442c9	0.16041102
18	0xbe2cd90b	-0.1687967
19	0xbd1df4d7	-0.038563576
20	0x3db89598	0.09012908
21	0xbdb12ac0	-0.08650732
22	0xbd23203a	-0.039825656
23	0xbe2efee0	-0.17089415
24	0xbd4f0619	-0.050542925
25	0x3c472e13	0.012156981
26	0xbc8a9dd0	-0.016920954
27	0x3cbf7f12	0.023376022
28	0xbd9bcccb	-0.076074205
29	0xbd79e413	-0.061008524
30	0x3e91a6f9	0.28447703
31	0x3e02d72c	0.12777394

head.2.weight f4 [3, 32]
0	0x3d98134e	0.07425557
1	0x3c1ca02f	0.009559675
2	0x3c291d7f	0.010321974
3	0xbdcaef08	-0.09908873
4	0x3f0fc9e4	0.56167436
5	0x3e6eec39	0.233323
6	0x3cca47d1	0.024692448
7	0xbe5b7285	-0.21430404
8	0x3d6015b0	0.054708183
9	0xbe34ceb8	-0.17656982
10	0xbe123c16	-0.14280733
11	0x3de750f7	0.1129474
12	0xbd9c102a	-0.076202706
13	0xbeeb0606	-0.45903033
14	0xbd9fc0e2	-0.07800461
15	0xbd55faa6	-0.05224099
16	0xbc0367da	-0.008020366
17	0x39156d2a	0.00014250414
18	0x3cede8dc	0.0290417
19	0x3e85abb9	0.26107576
20	0x3ed11574	0.4083668
21	0x3f551c47	0.8324627
22	0xbea20fcc	-0.31652677
23	0x3ea096b9	0.31364992
24	0x3ea0589c	0.31317604
25	0x3d27426e	0.040834837
26	0xbe120723	-0.14260535
27	0x3e3db9ae	0.18527862
28	0x3e081172	0.13287905
29	0x3e88bbbf	0.2670574
30	0xbec511f1	-0.3849025
31	0xbe5621d5	-0.20911343
32	0xbd6fb9eb	-0.058526915
33	0xbb05eb0e	-0.0020434293
34	0xbeb25c0c	-0.3483585
35	0xbf02bed5	-0.51072437
36	0xbf1c4c7f	-0.61054224
37	0xbf0e86bd	-0.55674344
38	0xbe917de9	-0.28416374
39	0x3dc3d8ad	0.09562812
40	0xbe7d42d4	-0.24732524
41	0xbe9f3fc6	-0.31103343
42	0xbe8cdfb0	-0.2751441
43	0x3e08d85b	0.13363783
44	0x3e582b85	0.21110351
45	0x3f0248e3	0.50892466
46	0x3dfd97bd	0.123824574
47	0x3c6cf17c	0.014461871
48	0x3e39409f	0.18091057
49	0x3e6838c7	0.22677909
50	0x3e697776	0.22799477
51	0xbdabd005	-0.08389286
52	0xbe853b45	-0.26021782
53	0xbf579c89	-0.8422323
54	0xbe71deb0	-0.23620105
55	0x3e4eca15	0.20194276
56	0x3e381959	0.1797842
57	0xbe9a1017	-0.300904
58	0x3e19748a	0.14985862
59	0xbe18be81	-0.14916421
60	0xbe31e772	-0.17373446
61	0x3d3abd45	0.045590658
62	0x3eb44b9a	0.3521393
63	0x3dc1c855	0.094620384
64	0xbe724c28	-0.23661864
65	0x3ddfdb06	0.10930447
66	0x3e6e2248	0.23255265
67	0x3d9d9fe9	0.07696516
68	0x3db5592e	0.088549
69	0x3c9423e3	0.018083518
70	0xbcdf9cdb	-0.027296474
71	0x3bcef016	0.0063152416
72	0xbd6dfb3a	-0.058100916
73	0x3eb9d648	0.36296296
74	0x3ea04d93	0.31309184
75	0x3e2641a3	0.16235976
76	0xbe034c08	-0.12821972
77	0x3e95e89a	0.29279023
78	0xba908ad7	-0.0011027706
79	0x3e6488aa	0.22317758
80	0xbe96f7e9	-0.29486015
81	0xbf069189	-0.5256582
82	0xbed71f31	-0.42015985
83	0xbdd70baf	-0.10500275
84	0x3d049f44	0.03237845
85	0x3d29c348	0.041446
86	0x3effdcd8	0.49973178
87	0xbeb2453a	-0.3481844
88	0xbea6ade1	-0.32554534
89	0xbdcc2be7	-0.09969311
90	0xbb411b0f	-0.002946559
91	0x3dd55696	0.104169056
92	0xbeae04ca	-0.3398803
93	0xbea83a65	-0.32857051
94	0x3ee28a20	0.44246006
95	0x3eba5622	0.3639384

head.2.bias f4 [3]
0	0xbd8daea7	-0.06918078
1	0x3e26c7f4	0.16287214
2	0xbb88b120	-0.0041715056
