checkpoints_kpconv_24nov/checkpoint_epoch_25_24nov.pth (torch, 19297 bytes, 14 tensors)

fc0.weight f4 [8, 3]
0.16982855 -0.28298458 -0.28264907 -0.40677178 0.22183491 0.23029466 -0.051323876 -0.035717044
-0.27428362 0.37667218 -0.2558271 -0.06321961 -0.011061137 0.25598913 0.32288745 -0.05670173
0.29395056 0.28662574 -0.3398204 -0.060558174 0.30671844 0.1951613 0.060431615 -0.32523024
00000000: 89e7 2d3e 5be3 90be 61b7 90be 6444 d0be
00000010: b128 633e 5dd2 6b3e fc38 52bd 094c 12bd
00000020: e76e 8cbe 2ddb c03e c5fb 82be 4879 81bd
00000030: c539 35bc 0211 833e 8151 a53e 1340 68bd
00000040: b080 963e 9cc0 923e f1fc adbe d90b 78bd
00000050: 330a 9d3e 5dd8 473e 2487 773d 9484 a6be

fc0.bias f4 [8]
0.41042843 0.44174898 0.35751647 -0.28534642 0.59815335 -0.4908699 0.045922264 -0.061341874
00000000: ad23 d23e ec2c e23e 660c b73e ed18 92be
00000010: 9420 193f 4d53 fbbe fc18 3c3d 9e41 7bbd

kp1.mlp.0.weight f4 [16, 11]
0.73659617 -0.17418535 -0.21808532 -0.096355684 0.30959526 0.052269805 0.23755905 -0.110205255
-0.09873332 -0.16813922 0.24992386 0.3478653 0.12969288 0.00793121 -0.057849016 -0.113507256
0.23687103 -0.028967332 0.00015623363 -0.116276726 -0.13080399 0.16183949 0.7814357 -0.7706409
0.2983373 0.04647044 -0.16897044 0.1491225 0.11868038 0.18290977 -0.1459005 0.2788755
-0.18530667 0.58999836 -0.012988353 0.045205288 -0.10266712 -0.21714361 -0.03931119 0.19713677
0.07652852 -0.1851736 -0.15357864 -0.15662636 0.050704364 -0.62991416 0.2527665 0.23055686
0.15584572 -0.20122093 -0.065338515 0.13436654 -0.0068853637 0.028522609 0.1260592 -0.18931033
-0.023308573 -0.23371613 0.13352257 -0.04421415 -0.23601896 -0.2954395 -0.22264998 -0.21415432
0.1942459 -0.2634362 -1.0024735 -0.89198786 0.09804785 -0.013792962 -0.16870683 0.1828154
0.13214642 0.34636188 -0.043636683 0.20325027 -0.093359806 -0.25533944 -0.5612529 0.42322552
-0.10575528 0.027883625 0.0010820369 0.17829125 -0.22873569 0.18631032 0.06773951 0.23431037
0.36340293 -0.38578007 -0.7320824 -0.06446393 -0.060885463 0.19708632 -0.040027402 -0.12995608
0.12539214 -0.058678538 0.0024122817 -0.81459063 -0.11841749 0.063265786 0.24155252 0.13576889
-0.042538453 -0.16779292 -0.18405074 0.16390824 0.15242882 0.16747834 0.36228326 -0.5520869
-0.04196807 0.04998201 -0.2357708 -0.09540454 -0.15511954 0.16485193 -0.07894809 0.06977167
0.15627958 0.7334058 -0.90221804 0.39770895 0.06464684 0.23341943 0.32864004 0.26190484
-0.23330261 0.25403035 -0.15294982 0.04667498 0.8371148 -0.8389012 -0.14517061 0.09353259
0.015770022 0.29086122 -0.09244382 0.07000523 0.10270566 -0.073344655 0.1281877 -0.55563897
0.6325995 -0.00578572 0.2799289 0.17069487 -0.11806477 0.20593998 0.25302577 -0.08802601
0.26739272 -0.22666469 0.5451877 0.7359556 0.1904219 -0.01985485 -0.1355442 0.1761951
0.18542768 0.19597799 0.04703265 0.12338509 0.2817365 0.081629366 0.40887833 0.09069139
-0.25945133 -0.4953228 -0.17739822 0.18303216 0.04347725 -0.29516858 0.18853688 -0.06585535
00000000: 9191 3c3f a55d 32be c251 5fbe 2156 c5bd
00000010: 4583 9e3e dd18 563d ae42 733e 4bb3 e1bd
00000020: b234 cabd b02c 2cbe 0aec 7f3e 671b b23e
00000030: 36ce 043e e8f1 013c 17f3 6cbd 7e76 e8bd
00000040: 528e 723e e64c edbc a5d2 2339 7e22 eebd
00000050: 7bf1 05be 40b9 253e 2c0c 483f b948 45bf
00000060: abbf 983e ca57 3e3d 9606 2dbe 92b3 183e
00000070: b30e f33d b34c 3b3e f166 15be c5c8 8e3e
00000080: 08c1 3dbe 220a 173f 1acd 54bc 2e29 393d
00000090: 2443 d2bd e55a 5ebe c504 21bd 39de 493e
000000a0: fcba 9c3d 269e 3dbe b843 1dbe a962 20be
000000b0: 61af 4f3d 0e42 21bf 9c6a 813e 1917 6c3e
000000c0: 0596 1f3e dc0c 4ebe 33d0 85bd 6297 093e
000000d0: 9e9e e1bb 3fa8 e93c aa15 013e 91da 41be
000000e0: 9ff1 bebc 4853 6fbe 24ba 083e e619 35bd
000000f0: f4ae 71be d943 97be 5bfe 63be 454b 5bbe
00000100: 66e8 463e 1ce1 86be 0d51 80bf 5159 64bf
00000110: 50cd c83d e0fb 61bc 7cc1 2cbe f633 3b3e
00000120: 6451 073e 5856 b13e 61bc 32bd d720 503e
00000130: 6d33 bfbd dabb 82be 45ae 0fbf 04b1 d83e
00000140: 3996 d8bd 336c e43c 22d3 8d3a fb91 363e
00000150: b039 6abe 22c8 3e3e 03bb 8a3d 0fef 6f3e
00000160: f30f ba3e f784 c5be c169 3bbf aa05 84bd
00000170: 0963 79bd ffd0 493e c6f3 23bd 3513 05be
00000180: cc66 003e e858 70bd 5f17 1e3b 0389 50bf
00000190: de84 f2bd 7e91 813d 8b59 773e 0007 0b3e
000001a0: cd3c 2ebd e8d1 2bbe cc77 3cbe 90d7 273e
000001b0: 4d16 1c3e 717f 2b3e 317d b93e 9155 0dbf
000001c0: b6e6 2bbd f0b9 4c3d e76d 71be 7563 c3bd
000001d0: a8d7 1ebe f2ce 283e 89af a1bd 73e4 8e3d
000001e0: c107 203e 7cc0 3b3f c3f7 66bf 82a0 cb3e
000001f0: 9065 843d 8105 6f3e 8243 a83e 6418 863e
00000200: e1e6 6ebe 4410 823e e19e 1cbe 442e 3f3d
00000210: 284d 563f 3bc2 56bf 9ba7 14be 048e bf3d
00000220: 2230 813c c3eb 943e 2f53 bdbd e75e 8f3d
00000230: 5857 d23d b935 96bd a343 033e 5b3e 0ebf
00000240: 0af2 213f 2396 bdbb d752 8f3e a3ca 2e3e
00000250: f1cb f1bd eee1 523e 988c 813e fb46 b4bd
00000260: b3e7 883e ca1a 68be 6c91 0b3f 9667 3c3f
00000270: f5fd 423e a3a6 a2bc 19cc 0abe 7d6c 343e
00000280: c1e0 3d3e 74ae 483e 4fa5 403d 52b1 fc3d
00000290: c43f 903e 4c2d a73d 8058 d13e 68bc b93d
000002a0: ced6 84be f39a fdbe e1a7 35be c86c 3b3e
000002b0: 3315 323d 5620 97be d00f 413e 2bdf 86bd

kp1.mlp.0.bias f4 [16]
-0.0046049054 -0.04825747 0.275274 -0.33365512 -0.4115692 -0.06155537 0.010287084 -0.011289138
-0.08022995 -0.09715924 0.14639163 -0.097724564 0.28343278 0.09728936 0.3761115 0.1640473
00000000: bfe4 96bb a0a9 45bd b7f0 8c3e d8d4 aabe
00000010: 33b9 d2be 7c21 7cbd 288b 283c 14f6 38bc
00000020: 9a4f a4bd 6cfb c6bd b0e7 153e d123 c8bd
00000030: 1a1e 913e a53f c73d b091 c03e 04fc 273e

kp1.mlp.2.weight f4 [16, 16]
0.12200426 -0.16403535 0.10108807 0.034851335 0.26431522 -0.069612615 0.2620074 0.012341588
-0.51547784 0.11104058 0.010482216 0.2655473 0.20093578 -0.24291953 -0.005387354 -0.06662692
-0.030595804 0.036941323 -0.0002582189 0.037779685 0.21832424 0.14794062 0.25222906 0.20304482
0.15352613 -0.007735863 -0.21488906 0.13614264 -0.21331844 -0.2017777 -0.0421299 0.14303489
-0.23055698 -0.178996 -0.12141474 0.055483483 -0.09440531 -0.02496332 0.0734097 0.19598372
0.37254345 0.20086035 0.24512702 0.047550008 0.039219618 -0.041866355 0.06676716 -0.1214923
-0.19102482 -0.08581161 0.0795091 0.13201262 -0.019518124 -0.06778627 0.45007205 -0.0803177
-0.3692185 0.15214811 0.08067503 -0.052806 0.22212444 0.08006734 -0.19298062 0.11686481
0.27908134 0.20589331 0.24504861 -0.060500707 -0.12622671 0.08225374 -0.18424444 0.10371118
-0.29673198 -0.23588136 0.05385516 -0.09856067 0.3562532 -0.14535 -0.06986061 0.24903843
0.14278877 0.020683158 -0.068407975 0.0014679495 -0.39649665 -0.1360591 -0.15335082 -0.034257405
0.28796417 0.14068253 0.2284759 -0.02733668 0.21709684 0.10892434 0.1660766 -0.08214277
-0.13132702 -0.04464096 0.10561289 -0.24177238 -0.24393924 -0.118210435 0.3621412 0.17774145
-0.29399395 0.23128718 0.15682907 -0.18324848 -0.022524828 0.067419566 0.1406579 -0.0764793
0.015426963 0.03732237 0.15423994 0.22279292 -0.13284115 0.055280413 0.20778602 0.2042049
-0.26395014 0.18580832 -0.09730345 0.087043926 0.15309368 0.046879206 -0.24146682 0.048741404
0.012738426 -0.09468872 -0.26848817 0.12521751 -0.0645668 0.12723786 -0.10767683 -0.22052628
-0.09406943 0.042444456 0.049066067 -0.054850783 -0.33528054 -0.047765788 -0.15296495 0.22208351
-0.021929177 -0.03555366 -0.09666582 0.031003317 -0.12685016 -0.07085323 0.30820245 0.26096016
0.4988584 -0.09698074 -0.012825817 -0.07190169 -0.090573885 0.058939174 -0.25219268 0.114227265
-0.13337924 -0.044419847 0.21606968 0.18418054 0.26488298 0.12884173 0.057690036 0.09488915
-0.32565415 -0.22957432 0.16745453 0.15948191 0.032878798 -0.10322169 -0.21660478 -0.09310638
-0.15082747 -0.2214543 0.10515958 0.22853836 0.018493848 -0.24512884 -0.27340618 -0.24515636
-0.25295758 0.07986629 0.14413568 -0.23649313 -0.33480427 0.05284377 0.25407413 -0.08067238
-0.13056806 -0.074550636 0.20815897 0.15321639 0.24522682 0.02644864 -0.37213865 -0.22418864
-0.78494537 -0.12851992 0.15849943 -0.15868191 0.12552473 -0.031973142 -0.12350841 -0.062369753
0.24079384 0.15594654 0.21370949 0.084804684 0.040755082 -0.17758973 -0.25123838 0.018061735
-0.63911533 0.16028799 0.022350233 0.28163606 0.28539202 -0.09692627 0.015107555 -0.20619006
-0.14435127 0.15136296 -0.07057313 -0.11916191 0.18231474 0.11598397 0.31714532 0.07674357
-0.03550411 -0.075803384 -0.15733337 -0.082923725 -0.304546 -0.020913858 -0.061625294 -0.16921116
0.19540468 -0.094850734 -0.30595297 -0.011171584 0.051472202 0.1764147 -0.109102085 -0.024843661
0.13057925 -0.15315863 -0.13303035 -0.21961617 -0.2507031 -0.07075725 -0.20339508 -0.0007228251
00000000: 5fdd f93d e2f8 27be 4307 cf3d 46c0 0e3d
00000010: 5354 873e 0f91 8ebd d525 863e 5f34 4a3c
00000020: 5bf6 03bf 3e69 e33d 9abd 2b3c d1f5 873e
00000030: 1cc2 4d3e e6bf 78be 6788 b0bb b273 88bd
00000040: 0da4 fabc c94f 173d 8e61 87b9 dfbe 1a3d
00000050: 6490 5f3e bf7d 173e 2b24 813e fbea 4f3e
00000060: f435 1d3e 1f7d fdbb e10b 5cbe fa68 0b3e
00000070: 2670 5abe d09e 4ebe 6790 2cbd bd77 123e
00000080: 2117 6cbe ba4a 37be 4ba8 f8bd a642 633d
00000090: 9257 c1bd e07f ccbc d357 963d f5af 483e
000000a0: 04be be3e 56ae 4d3e 9402 7b3e ccc3 423d
000000b0: c0a4 203d 0e7c 2bbd 39bd 883d f4d0 f8bd
000000c0: 039c 43be ffbd afbd abd5 a23d 512e 073e
000000d0: 79e4 9fbc 87d3 8abd d86f e63e 9b7d a4bd
000000e0: 350a bdbe b7cc 1b3e f338 a53d 1b4b 58bd
000000f0: 9774 633e 58fa a33d b69c 45be d156 ef3d
00000100: c0e3 8e3e b2d5 523e 06ee 7a3e 97cf 77bd
00000110: 9341 01be a674 a83d 93aa 3cbe 8766 d43d
00000120: 41ed 97be e28a 71be 3a97 5c3d 2dda c9bd
00000130: d266 b63e a1d6 14be 1413 8fbd ee03 7f3e
00000140: 3837 123e ba6f a93c 7b19 8cbd 3668 c03a
00000150: 9c01 cbbe 1453 0bbe ff07 1dbe 7e51 0cbd
00000160: 0a70 933e 150f 103e 96f5 693e 2cf1 dfbc
00000170: a24e 5e3e b913 df3d fc0f 2a3e 783a a8bd
00000180: 977a 06be 70d9 36bd 924b d83d 2e93 77be
00000190: 35cb 79be 5018 f2bd 926a b93e db01 363e
000001a0: 6086 96be 8cd6 6c3e cd97 203e 7da5 3bbe
000001b0: fd85 b8bc 4513 8a3d a008 103e 2ea1 9cbd
000001c0: 5fc1 7c3c 57df 183d 13f1 1d3e d423 643e
000001d0: 8307 08be b76d 623d dcc5 543e 171b 513e
000001e0: 7924 87be 8944 3e3e 0847 c7bd 1644 b23d
000001f0: 97c4 1c3e 6904 403d 1443 77be 11a5 473d
00000200: d5b4 503c 29ec c1bd 4877 89be 0539 003e
00000210: 993b 84bd a44a 023e ab85 dcbd a4d1 61be
00000220: 79a7 c0bd 3dda 2d3d 80f9 483d 37ab 60bd
00000230: e4a9 abbe 0fa6 43bd d8a2 1cbe dc69 633e
00000240: d1a4 b3bc b7a0 11bd bbf8 c5bd abfa fd3c
00000250: 02e5 01be 801b 91bd b6cc 9d3e 929c 853e
00000260: 5e6a ff3e d79d c6bd 6023 52bc 3141 93bd
00000270: cd7e b9bd 346a 713d 661f 81be fcef e93d
00000280: 9194 08be 96f1 35bd 5f41 5d3e d399 3c3e
00000290: be9e 873e 16ef 033e 634c 6c3d 3e55 c23d
000002a0: 24bc a6be 8815 6bbe 3379 2b3e 3a4f 233e
000002b0: ebab 063d e565 d3bd a5cd 5dbe 8fae bebd
000002c0: 8472 1abe ebc4 62be e85d d73d f605 6a3e
000002d0: 6980 973c 0e03 7bbe e5fb 8bbe 450a 7bbe
000002e0: a883 81be f090 a33d 4e98 133e 412b 72be
000002f0: 776b abbe b572 583d 0116 823e 9037 a5bd
00000300: a2b3 05be 01ae 98bd a027 553e c2e4 1c3e
00000310: bd1c 7b3e d1aa d83c f588 bebe b591 65be
00000320: 2ef2 48bf ba9a 03be ad4d 223e 837d 22be
00000330: 8e89 003e 45f6 02bd faf1 fcbd 6d77 7fbd
00000340: a992 763e 73b0 1f3e a9d6 5a3e 14ae ad3d
00000350: cdee 263d 15da 35be 51a2 80be 34f6 933c
00000360: 109d 23bf 8922 243e d617 b73c 9a32 903e
00000370: e71e 923e 4881 c6bd ae85 773c 7d23 53be
00000380: d2d0 13be e4fe 1a3e a588 90bd 290b f4bd
00000390: b7b0 3a3e 0189 ed3d df60 a23e bc2b 9d3d
000003a0: c26c 11bd ce3e 9bbd 001c 21be ead3 a9bd
000003b0: 74ed 9bbe 8a53 abbc ce6a 7cbd b145 2dbe
000003c0: 2a18 483e 1a41 c2bd dea5 9cbe 0509 37bc
000003d0: 84d4 523d 0ea6 343e ea70 dfbd ef84 cbbc
000003e0: 91b6 053e 9ed5 1cbe 1c39 08be 10e3 60be
000003f0: 285c 80be 2de9 90bd cd46 50be f97b 3dba

kp1.mlp.2.bias f4 [16]
-0.07577303 -0.27559254 -0.2554188 0.08282611 0.014948541 0.23231494 0.22861068 -0.15106247
-0.1500693 0.043586917 -0.24688734 -0.3162997 0.06722473 0.16630006 -0.30881134 -0.049842164
00000000: e42e 9bbd 771a 8dbe 41c6 82be bca0 a93d
00000010: baea 743c f8e3 6d3e eb18 6a3e 1fb0 1abe
00000020: c4ab 19be 3288 323d 09d0 7cbe 09f2 a1be
00000030: 1fad 893d 904a 2a3e 851c 9ebe 4c27 4cbd

kp2.mlp.0.weight f4 [32, 19]
0.08467869 -0.09646227 -0.0066306116 -0.090269245 -0.16418588 0.13172983 -0.084280185 -0.1925826
-0.18200888 -0.11762929 -0.22219238 -0.02536572 -0.050005946 -0.152838 -0.16947298 0.20765972
0.055602726 -0.100791804 0.093770534 0.81754005 -0.071747325 -0.6126913 -0.08350836 -0.24688481
-0.082742155 -0.0820841 -0.18245696 -0.07483163 0.08671428 0.06662557 -0.11980077 0.041256927
-0.27873498 -0.35839066 0.14759223 -0.13149711 -0.18818003 -0.18200481 0.32121155 0.54707885
1.8466492 0.17560342 -0.04943923 0.058302987 0.09146871 0.029246945 -0.035484478 0.04804652
0.10505219 -0.08914322 0.21337755 -0.006166107 -0.0046537057 0.1256488 0.12924963 -0.13422409
-0.038636155 -0.54336244 0.18557124 1.3779579 -0.19881867 0.078164004 -0.0991524 -0.18225646
-0.023545383 0.07436822 0.0074930848 -0.057289638 0.090539396 -0.058103226 -0.021212671 -0.17559311
0.21495855 -0.06939047 -0.300112 -0.20532905 0.44055572 0.71270186 0.80055845 -0.042131394
-0.106745884 -0.041806687 0.26349136 0.18781944 0.17189007 0.030497307 -0.0001553311 0.090494625
0.03975308 0.040812667 0.07288286 -0.14653483 0.051531937 0.13480209 -0.103505544 -0.061596844
-0.021437367 0.055859216 0.03380802 -0.1662935 -0.02937396 -0.18087718 0.08269474 -0.19815375
-0.054107685 0.008454772 0.1856436 0.059714884 0.12888458 0.054213524 -0.21923597 -0.15294148
-0.22165021 -0.08282306 -0.4780065 -0.3418345 1.270909 -0.119957805 -0.0543732 0.10152734
0.1292839 0.23106763 0.1475703 -0.0101463795 0.08321246 -0.23024493 -0.04681701 -0.18460344
-0.18070826 0.022427032 -0.14752823 -0.057878293 0.07365307 0.18511309 0.57789785 1.3277339
-0.05455555 -0.26379493 0.12469499 -0.11314451 0.0011820904 0.14746992 0.028532214 0.10086684
-0.19297406 0.017420402 0.22329159 -0.3157391 0.21857578 -0.17100768 -0.13886055 -0.16012591
-0.51120293 -0.37429616 0.75140786 -0.25367907 -0.25444126 -0.25500867 -0.10736441 0.22612898
-0.06536387 0.059649386 0.116256036 0.040807977 -0.20939988 -0.21723352 -0.16957714 0.22923455
-0.118944116 -0.24191426 -0.21904024 0.29185873 -0.47501448 1.0605465 -0.1632719 0.12874739
0.0044934857 -0.012223726 -0.077378266 -0.12888122 0.18915135 -0.2235091 -0.26324362 -0.1714344
-0.15835078 -0.02065084 -0.10485739 -0.055314604 -0.25733393 -0.23742098 -0.30462116 -0.2486936
-1.3971448 -0.03811986 -0.35529318 0.06133642 -0.20322725 -0.060918286 0.120048404 0.0730237
-0.021845268 -0.15252496 -0.18088813 -0.31501514 -0.06986167 -0.033934586 0.13967101 -0.33047578
0.085073814 -0.32093158 0.04622232 1.3331163 0.18050899 -0.21628657 0.0948568 -0.06355751
0.15315367 -0.11069391 -0.25150254 -0.036754854 -0.051650032 -0.2734758 -0.115569234 0.0368302
0.18595012 0.23552953 -0.11580842 -0.2039005 -0.20772319 0.55447876 -0.09343054 -0.06993731
0.21271038 -0.023124611 0.15478331 0.04980856 0.15071146 -0.19510722 -0.24176754 -0.20927201
-0.14487727 -0.070133924 -0.1361192 -0.11554165 0.1607318 0.144893 -0.11827417 -0.6136678
-0.16775528 -0.16643833 0.20671323 -0.14760403 0.15608153 0.29915243 -0.111717306 0.024868108
00000000: 056c ad3d 038e c5bd 9a45 d9bb 15df b8bd
00000010: 5820 28be 2fe4 063e 179b acbd 6034 45be
00000020: 8960 3abe a0e7 f0bd 6686 63be c5cb cfbc
00000030: 09d3 4cbd 9181 1cbe 538a 2dbe c0a4 543e
00000040: afbf 633d ef6b cebd c40a c03d 4e4a 513f
00000050: 43f0 92bd 56d9 1cbf 6e06 abbd 5fcf 7cbe
00000060: b874 a9bd b51b a8bd ffd5 3abe 5341 99bd
00000070: 4297 b13d fd72 883d 1b5a f5bd 06fd 283d
00000080: 5ab6 8ebe fb7e b7be 6b22 173e 2ea7 06be
00000090: 44b2 40be 785f 3abe d775 a43e 5c0d 0c3f
000000a0: 005f ec3f 62d1 333e ca80 4abd 1dcf 6e3d
000000b0: f253 bb3d 4a97 ef3c 2c58 11bd 6ecc 443d
000000c0: 9a25 d73d b890 b6bd a57f 5a3e 0e0d cabb
000000d0: 1d7e 98bb 14aa 003e 045a 043e 0a72 09be
000000e0: f240 1ebd cd19 0bbf 6306 3e3e ed60 b03f
000000f0: 1f97 4bbe 7314 a03d 6a10 cbbd 70a1 3abe
00000100: 3fe2 c0bc 5e4e 983d 8d88 f53b 8aa8 6abd
00000110: b86c b93d a6fd 6dbd 32c6 adbc aece 33be
00000120: 181e 5c3e 971c 8ebd 48a8 99be c741 52be
00000130: 8590 e13e a173 363f 66f1 4c3f f891 2cbd
00000140: 969d dabd 7d3d 2bbd 57e8 863e bd53 403e
00000150: f303 303e 7dd5 f93c 60e0 22b9 3f55 b93d
00000160: 20d4 223d 2f2b 273d 9c43 953d 3a0d 16be
00000170: 2713 533d 8f09 0a3e b7fa d3bd f94c 7cbd
00000180: 6b9d afbc a2cc 643d 477a 0a3d d848 2abe
00000190: a9a1 f0bc de37 39be dc5b a93d d1e8 4abe
000001a0: 05a0 5dbd e285 0a3c 5b19 3e3e 9897 743d
000001b0: 52fa 033e 000f 5e3d 657f 60be b19c 1cbe
000001c0: 46f8 62be 239f a9bd 45bd f4be ee04 afbe
000001d0: 25ad a23f 70ac f5bd 6fb6 5ebd 91ed cf3d
000001e0: 0063 043e fe9c 6c3e ab1c 173e 003d 26bc
000001f0: 4b6b aa3d 54c5 6bbe 31c3 3fbd af08 3dbe
00000200: 960b 39be e5b8 b73c a411 17be ca11 6dbd
00000210: 6cd7 963d 498e 3d3e 1df1 133f 2ff3 a93f
00000220: a475 5fbd 2110 87be 1660 ff3d 4fb8 e7bd
00000230: 5ff0 9a3a 5b02 173e 64bc e93c 4693 ce3d
00000240: fe9a 45be 3bb5 8e3c 8da6 643e 8ea8 a1be
00000250: 54d2 5f3e a31c 2fbe 7631 0ebe 0cf8 23be
00000260: 32de 02bf bfa3 bfbe 445c 403f 39e2 81be
00000270: 2046 82be 7f90 82be dfe1 dbbd 5b8e 673e
00000280: 7edd 85bd ea52 743d a517 ee3d 4426 273d
00000290: ec6c 56be 7772 5ebe a1a5 2dbe 76bc 6a3e
000002a0: f998 f3bd 5fb8 77be 164c 60be 826e 953e
000002b0: 1935 f3be fdbf 873f c030 27be 5bd6 033e
000002c0: 173e 933b 0646 48bc 7f78 9ebd 70f9 03be
000002d0: e4b0 413e 92df 64be dec7 86be 808c 2fbe
000002e0: b526 22be f32b a9bc 79bf d6bd 9191 62bd
000002f0: 46c1 83be 7c1e 73be 4ef7 9bbe 89a9 7ebe
00000300: a4d5 b2bf 9223 1cbd fde8 b5be e63b 7b3d
00000310: ce1a 50be 7485 79bd f0db f53d 738d 953d
00000320: d9f4 b2bc 812f 1cbe bd3a 39be aa49 a1be
00000330: a313 8fbd fefe 0abd eb05 0f3e 1f34 a9be
00000340: 2e3b ae3d 2551 a4be 9e53 3d3d 8ea3 aa3f
00000350: 59d7 383e 3a7a 5dbe 4844 c23d 712a 82bd
00000360: 51d4 1c3e 7db3 e2bd f1c4 80be 428c 16bd
00000370: fc8e 53bd 0505 8cbe 90af ecbd 44db 163d
00000380: b569 3e3e a72e 713e f72c edbd 4bcb 50be
00000390: 63b5 54be 52f2 0d3f 8358 bfbd 4b3b 8fbd
000003a0: c0d0 593e d36f bdbc 847f 1e3e 1004 4c3d
000003b0: 1b54 1a3e 30ca 47be e991 77be 674b 56be
000003c0: b55a 14be 60a2 8fbd d562 0bbe 1aa1 ecbd
000003d0: e196 243e d55e 143e ba39 f2bd 5519 1dbf
000003e0: 0ac8 2bbe cf6e 2abe a2ac 533e 8325 17be
000003f0: d6d3 1f3e 822a 993e 0bcc e4bd 34b8 cb3c

kp2.mlp.0.bias f4 [32]
-0.22895958 0.09347261 0.08170388 0.40984204 0.111590005 -0.103145994 0.2211456 0.0016555515
0.3071224 0.06540861 -0.06850281 0.12757571 0.2283383 -0.11585998 0.25099835 0.33807486
0.21338771 0.09545429 0.30026478 -0.17981793 0.100119576 0.21831782 0.004601233 0.08513657
-0.28788486 0.17098966 0.19487646 -0.07046811 0.17217962 -0.2142536 -0.15542543 0.07575597
00000000: 6174 6abe 916e bf3d 5d54 a73d d1d6 d13e
00000010: 4d89 e43d 353e d3bd fe73 623e 17ff d83a
00000020: 263f 9d3e f3f4 853d 344b 8cbd 35a3 023e
00000030: 84d1 693e ff47 edbd db82 803e 2618 ad3e
00000040: 4f82 5a3e 8a7d c33d 4ebc 993e 3122 38be
00000050: 7e0b cd3d b58e 5f3e f1c5 963b 155c ae3d
00000060: a565 93be ea17 2f3e b28d 473e 9651 90bd
00000070: db4f 303e 4c65 5bbe d827 1fbe f225 9b3d

kp2.mlp.2.weight f4 [32, 32]
0.1492457 -0.0042623123 0.3821252 0.070099436 0.2791817 0.13135915 0.005034685 0.23991308
-0.028975341 -0.24907812 0.0009107105 0.16263501 0.003791345 0.09152916 0.21245578 -0.07182824
-0.37611142 -0.026096974 -0.09325233 0.06345057 -0.14634563 -0.0759075 0.008286087 0.4883716
0.04485082 0.14985715 -0.008173359 -0.012060315 -0.15042162 -0.19078955 -0.09255414 -0.0940858
-0.15151674 -0.36322117 -0.2596213 -0.09704128 -0.31287405 -0.10054185 0.06913848 0.049629163
0.08400448 0.0063852225 0.101385996 0.18473922 0.2095256 0.1949326 -0.19878946 -0.33752722
-0.12338739 -0.23682226 -0.26044464 0.07659521 0.11243479 -0.022324346 0.23849285 0.32129616
-0.14009733 0.084785715 -0.18813476 0.1431938 0.07561982 -0.12018532 0.14603607 0.0008015869
0.07740328 0.060378697 -0.12934667 -0.034788493 -0.21070589 0.09007127 -0.056880508 0.1219504
-0.08001353 -0.19987707 0.18288624 -0.18215808 0.0968928 -0.029029544 -0.21918611 -0.50032705
-0.27323928 -0.33768544 -0.065928206 0.29983413 -0.2310953 -0.3633598 0.08228092 -0.43158424
0.17379667 -0.28615287 -0.17562784 -0.14895536 -0.018999312 0.54445916 0.12726042 -0.030667348
-0.1230774 -0.025205767 0.19476672 -0.08468312 0.08406688 -0.051199067 0.034715004 0.06876751
-0.09194085 0.016028173 -0.29612148 -0.13529883 -0.100269526 -0.1543635 0.23505814 0.1422717
-0.26000237 -0.0005501122 -0.043426868 0.14733975 0.04680538 -0.020409219 -0.1402683 0.04508706
0.0057665547 0.03248277 0.25842884 0.25257674 -0.064834826 0.054315034 0.07133367 -0.22482024
0.15686347 -0.12459511 -0.49329698 -0.28045347 -0.26002222 -0.13639444 -0.103473715 -0.23444496
-0.0736459 0.012697602 0.19123577 -0.19590187 -0.18139979 0.086405925 -0.022689886 -0.26328027
-0.07910403 -0.39590433 -0.07313002 0.13481161 -0.017184021 -0.12194191 0.049385805 -0.3309135
0.30486006 -0.40261573 -0.19481412 0.2786302 0.065609954 -0.187776 0.20954143 0.2595987
0.003971162 -0.11824008 0.021351412 -0.30417037 0.29833233 -0.03017324 0.019377578 0.102985576
-0.11572033 -0.04786184 -0.1018028 -0.035706762 0.047818672 0.08743104 -0.08498095 0.22057323
-0.2634657 0.010396833 0.21391132 0.036077604 -0.043083716 -0.06728263 0.10491042 0.23617199
0.18561217 0.04159846 0.22001164 -0.044112016 -0.20387419 0.11970078 0.20080896 -0.23010339
-0.058871772 0.16936198 -0.24267964 -0.40896428 -0.016391145 0.0021369695 -0.21769226 -0.22582865
-0.023074279 -0.11533264 0.18307163 -0.053245436 -0.09025625 -0.13171248 -0.12793736 0.18613398
-0.123669125 0.076668665 0.26079273 0.25659734 0.052919753 -0.041783683 -0.09591508 -0.278181
0.26709607 -0.09079726 -0.046413496 0.25245726 -0.23875572 -0.41197708 0.18651547 0.003643704
0.094272606 -0.2910816 -0.013497089 -0.020475466 -0.36543876 -0.029524982 0.21135177 -0.0043791947
0.20235455 -0.17330357 -0.17306367 0.013220067 -0.05921703 0.052793425 -0.07817495 -0.3278833
0.09190114 0.08184455 -0.31159902 -0.07616239 0.120129585 0.09389329 0.21490702 -0.048115857
0.09480752 0.10799324 0.08128693 0.1593718 0.20025362 0.014365296 -0.12494572 -0.12343979
00000000: ddd3 183e deaa 8bbb eaa5 c33e 4b90 8f3d
00000010: e7f0 8e3e 0383 063e 00fa a43b c6ab 753e
00000020: b25d edbc 560e 7fbe bfbc 6e3a cb89 263e
00000030: 3778 783b a473 bb3d 028e 593e af1a 93bd
00000040: ad91 c0be 52c9 d5bc 14fb bebd 5ff2 813d
00000050: a1db 15be 6475 9bbd 5ec2 073c d80b fa3e
00000060: 7eb5 373d 2774 193e 8de9 05bc a198 45bc
00000070: 2008 1abe 565e 43be 068d bdbd 0eb0 c0bd
00000080: 3427 1bbe 20f8 b9be 15ed 84be 94bd c6bd
00000090: 0731 a0be e3e8 cdbd 7a98 8d3d f347 4b3d
000000a0: 8a0a ac3d 213b d13b 76a3 cf3d 472c 3d3e
000000b0: e18d 563e 699c 473e 778f 4bbe 5ed0 acbe
000000c0: 87b2 fcbd 8981 72be 0059 85be f3dd 9c3d
000000d0: 3644 e63d 8ce1 b6bc 7837 743e ee80 a43e
000000e0: ad75 0fbe 22a4 ad3d 66a6 40be 65a1 123e
000000f0: 90de 9a3d b923 f6bd 7b8a 153e 9621 523a
00000100: 9c85 9e3d a74f 773d 7473 04be 617e 0ebd
00000110: 49c3 57be 4977 b83d 89fb 68bd 22c1 f93d
00000120: 22de a3bd 93ac 4cbe 8846 3b3e a687 3abe
00000130: bb6f c63d 5ecf edbc 5372 60be 6f15 00bf
00000140: 05e6 8bbe 1be5 acbe 5e05 87bd dc83 993e
00000150: 3fa4 6cbe 4c0a babe e682 a83d 9cf8 dcbe
00000160: c1f7 313e a182 92be c9d7 33be c187 18be
00000170: 72a4 9bbc ad61 0b3f 8e50 023e 173a fbbc
00000180: 0110 fcbd 537c cebc ed70 473e 586e adbd
00000190: 422b ac3d 1db6 51bd 5231 0e3d fbd5 8c3d
000001a0: 7c4b bcbd 844d 833c 3c9d 97be c78b 0abe
000001b0: 1c5a cdbd 7711 1ebe 15b3 703e acaf 113e
000001c0: 081f 85be 6835 10ba 5fe0 31bd 3be0 163e
000001d0: 00b7 3f3d 3c31 a7bc 7ea2 0fbe 36ad 383d
000001e0: 5ef5 bc3b a70c 053d c950 843e bd51 813e
000001f0: 1fc8 84bd 7179 5e3d 6317 923d 4737 66be
00000200: d1a0 203e b92b ffbd 6c91 fcbe 9997 8fbe
00000210: a221 85be fcaa 0bbe 07ea d3bd 5712 70be
00000220: a9d3 96bd 9a09 503c 4fd3 433e 809a 48be
00000230: dec0 39be 97f5 b03d 24e0 b9bc accc 86be
00000240: 4b01 a2bd f9b3 cabe 31c5 95bd 0e0c 0a3e
00000250: 81c5 8cbc aebc f9bd c548 4a3d 7f6d a9be
00000260: 9e16 9c3e a623 cebe 5a7d 47be 9ea8 8e3e
00000270: 835e 863d 5a48 40be 0792 563e 1fea 843e
00000280: 8520 823b db27 f2bd 28e9 ae3c 38bc 9bbe
00000290: 04bf 983e df2d f7bc babd 9e3c 1aea d23d
000002a0: c8fe ecbd c70a 44bd fd7d d0bd 4141 12bd
000002b0: 83dd 433d 0c0f b33d 7e0a aebd f3dd 613e
000002c0: fae4 86be 7a57 2a3c 920b 5b3e 1cc6 133d
000002d0: 8d78 30bd 7acb 89bd 46db d63d 12d7 713e
000002e0: 1e11 3e3e 2663 2a3d bb4a 613e cdae 34bd
000002f0: 65c4 50be af25 f53d dda0 4d3e 39a0 6bbe
00000300: 8723 71bd 3a6d 2d3e 0381 78be c463 d1be
00000310: b946 86bc 660c 0c3b b8ea 5ebe a03f 67be
00000320: 4506 bdbc 8533 ecbd 2177 3b3e e317 5abd
00000330: 45d8 b8bd a3df 06be 0302 03be e899 3e3e
00000340: 3d46 fdbd 7604 9d3d a086 853e ba60 833e
00000350: 62c2 583d 5e25 2bbd 206f c4bd bd6d 8ebe
00000360: d1c0 883e eaf3 b9bd 141c 3ebd 1442 813e
00000370: 617c 74be a9ee d2be e9fd 3e3e 36cb 6e3b
00000380: ff11 c13d a608 95be e522 5dbc 2abc a7bc
00000390: ca1a bbbe 60de f1bc 996c 583e 597f 8fbb
000003a0: 0836 4f3e 7e76 31be 9a37 31be fb98 583c
000003b0: 8e8d 72bd eb3d 583d 301a a0bd 52e0 a7be
000003c0: aa36 bc3d 1e9e a73d e889 9fbe 07fb 9bbd
000003d0: 8006 f63d 204b c03d 9610 5c3e 2215 45bd
000003e0: 722a c23d 8f2b dd3d c379 a63d 5c32 233e
000003f0: 490f 4d3e 6b5c 6b3c 8be3 ffbd 00ce fcbd

kp2.mlp.2.bias f4 [32]
-0.06563711 -0.05299902 -0.11267958 0.018281436 -0.13192685 0.132392 -0.18674421 -0.0628141
0.06318512 -0.051810108 -0.14989449 -0.073424526 -0.09387348 -0.17784418 -0.012411308 -0.03770552
-0.26661405 -0.11672852 -0.06668363 -0.28766027 -0.21081324 -0.043142766 0.047012333 -0.15644428
0.06372224 0.10850858 -0.20916899 -0.055276614 -0.26729524 -0.11055891 0.056993924 0.08650742
00000000: c06c 86bd 8015 59bd 8dc4 e6bd f3c2 953c
00000010: d517 07be c591 073e e039 3fbe aea4 80bd
00000020: 3367 813d d636 54bd f17d 19be 995f 96bd
00000030: bd40 c0bd c91c 36be cc58 4bbc 1a71 1abd
00000040: a381 88be 5d0f efbd 6d91 88bd 3548 93be
00000050: 6ddf 57be 78b6 30bd 0190 403d ee32 20be
00000060: ce80 823d bf39 de3d 6530 56be bb69 62bd
00000070: ecda 88be b66c e2bd 7672 693d cd2a b13d

head.0.weight f4 [32, 32]
0.1589444 0.09891779 -0.041666865 0.00047693044 0.04588557 0.04271217 -0.054410394 0.20729135
0.23270527 0.006383544 -0.061273485 -0.21446136 -0.16575457 0.26800558 -0.29950824 0.08078345
-0.0577263 -0.0049000857 0.20078811 0.17808282 0.064032465 0.007615236 -0.1435982 0.3449376
-0.11110694 0.3203065 0.040346634 -0.13011165 -0.019594412 -0.03320014 0.3976412 0.060126364
0.02420717 0.02894348 0.04459636 0.11502992 0.13240705 -0.08362177 0.16083513 -0.19716968
0.056739677 0.14437595 0.18169773 -0.09815864 0.024531944 -0.033843048 -0.13921581 0.054689985
0.013144562 0.1256478 -0.0733727 -0.1450967 -0.0013702705 0.1206118 -0.06313934 -0.09134509
-0.14866689 0.099781916 -0.048524167 -0.0051386007 0.18207486 0.09071495 -0.1906996 -0.19363305
0.08588383 -0.21422824 -0.054004285 0.13466336 -0.2438367 -0.13415915 -0.4413206 0.066495754
0.15309726 0.23522557 -0.24495864 -0.20379902 -0.22509831 -0.0068981326 -0.26685494 0.11688979
-0.28441268 -0.15083647 0.015349169 -0.20193167 -0.04483666 -0.44531307 0.18356875 -0.058377553
0.2976071 -0.14006151 -0.18567863 0.20634098 -0.2858672 -0.1582756 -0.34892648 -0.07136865
0.008369289 -0.11628637 -0.2806293 0.20151936 -0.26143947 0.10897815 -0.4352761 -0.0043997886
0.18221647 0.09055035 -0.21600206 -0.2388066 -0.06993738 0.04374658 -0.3326698 -0.05549767
-0.21708491 -0.2099196 -0.28144556 -0.1333782 -0.10976953 -0.47243452 0.039921362 -0.19769964
0.2377906 -0.027610391 0.022732051 0.21165602 -0.32434693 -0.30448553 -0.19096307 0.046933774
0.06977288 -0.020426098 0.68057877 -0.018837458 0.08557016 0.21935071 -0.07462504 0.02099825
0.20682411 0.06021227 0.19934748 0.12855925 -0.12698632 0.010247775 0.65801895 0.020388808
-0.09286586 -0.07106061 0.19499044 -0.007668134 -0.18588234 0.09269188 0.01628123 0.097781
0.13590816 -0.30499545 0.23026155 0.28196695 0.3853633 0.4107889 0.073231876 -0.28675756
0.009194769 -0.082440175 0.29667258 0.048363704 -0.077647075 0.120720185 -0.12148592 -0.013930972
0.16791272 -0.010527322 0.07964013 0.16899602 -0.13368247 0.20929396 0.2043239 -0.111386485
0.08867817 -0.07383499 -0.08333245 -0.0074426495 -0.22893089 0.2520527 -0.031904962 0.0059022796
0.17103826 -0.026700417 -0.044670343 0.037358668 0.30703345 -0.08510757 -0.010835427 0.090939105
-0.004446972 0.08027346 -0.16332015 0.15580644 -0.35594535 0.19915111 -0.18730111 0.2303097
-0.056600004 0.23053649 -0.037316337 -0.2855384 -0.2041897 0.06141549 -0.13166831 0.14542186
-0.118895896 -0.062165294 -0.13919385 0.009192748 -0.07302963 -0.5457073 0.17385525 -0.08792333
0.14020473 0.23094706 -0.015133608 0.16112448 -0.086700715 -0.14836895 0.11384072 0.014742313
-0.24772622 -0.11008591 -0.031267896 -0.21758676 0.014911634 -0.17565918 -0.21442957 -0.1321281
-0.09196523 -0.17926529 0.04911922 -0.07265182 0.027670192 -0.15483649 -0.006367632 0.066987745
0.06400218 -0.08227484 -0.05364631 0.12275279 0.1424715 0.050884902 -0.11663914 -0.092299744
-0.17887987 0.12813108 -0.13097878 -0.13382126 -0.1333382 -0.10731536 -0.05446924 0.021035604
00000000: 52c2 223e 6995 ca3d e0aa 2abd 850c fa39
00000010: 82f2 3b3d f5f2 2e3d 6fdd 5ebd 2f44 543e
00000020: 4a4a 6e3e 0c2d d13b e8f9 7abd c29b 5bbe
00000030: 91bb 29be 0738 893e 2559 99be cb71 a53d
00000040: 6a72 6cbd e690 a0bb 669b 4d3e 585b 363e
00000050: 7423 833d 3b89 f93b 680b 13be a99b b03e
00000060: 098c e3bd 37ff a33e 8342 253d fd3b 05be
00000070: 7684 a0bc dffc 07bd a197 cb3e 1047 763d
00000080: 1d4e c63c e11a ed3c acaa 363d cf94 eb3d
00000090: b795 073e e441 abbd f7b1 243e d9e6 49be
000000a0: dd67 683d 4ad7 133e f80e 3a3e 6607 c9bd
000000b0: 37f7 c83c 029f 0abd 978e 0ebe 9b02 603d
000000c0: 4a5c 573c d1a9 003e 6d44 96bd 3b94 14be
000000d0: a69a b3ba 5203 f73d 334f 81bd 2213 bbbd
000000e0: 223c 18be 765a cc3d 47c1 46bd b561 a8bb
000000f0: d571 3a3e c2c8 b93d c246 43be be47 46be
00000100: dde3 af3d a65e 5bbe 9933 5dbd 31e5 093e
00000110: 54b0 79be 0461 09be c6f4 e1be ed2e 883d
00000120: 87c5 1c3e f9de 703e 70d6 7abe b1b0 50be
00000130: 2c80 66be bb09 e2bb 36a1 88be ea63 ef3d
00000140: 8a9e 91be e074 1abe 157b 7b3c 2dc7 4ebe
00000150: a5a6 37bd 1300 e4be 72f9 3b3e 4d1d 6fbd
00000160: f55f 983e 496c 0fbe 8a22 3ebe 0d4b 533e
00000170: 305d 92be 0013 22be 7ea6 b2be ba29 92bd
00000180: 581f 093c 8c27 eebd a5ae 8fbe 175b 4e3e
00000190: 65db 85be f02f df3d 82dc debe 1a2c 90bb
000001a0: f496 3a3e 7672 b93d a52f 5dbe b889 74be
000001b0: 543b 8fbd 9d2f 333d b253 aabe 8651 63bd
000001c0: 824b 5ebe 2af5 56be a219 90be 4b94 08be
000001d0: d9ce e0bd f0e2 f1be 9584 233d c671 4abe
000001e0: 617f 733e 302f e2bc 9138 ba3c 5bbc 583e
000001f0: cd10 a6be 87e5 9bbe d38b 43be a13d 403d
00000200: 15e5 8e3d a254 a7bc 693a 2e3f 0351 9abc
00000210: 683f af3d 799d 603e 03d5 98bd 8604 ac3c
00000220: b3c9 533e 24a1 763d bf21 4c3e 09a5 033e
00000230: b408 02be 49e6 273c ee73 283f 6e06 a73c
00000240: 7530 bebd 3a88 91bd 93ab 473e f844 fbbb
00000250: f157 3ebe 3ed5 bd3d 3760 853c 6841 c83d
00000260: 822b 0b3e 5d28 9cbe afc9 6b3e f95d 903e
00000270: 574e c53e ec52 d23e 98fa 953d e3d1 92be
00000280: a8a5 163c 65d6 a8bd 78e5 973e 0519 463d
00000290: 6e05 9fbd 253c f73d 9ccd f8bd bb3e 64bc
000002a0: 50f1 2b3e ca7a 2cbc 5d1a a33d 4b0d 2d3e
000002b0: 0fe4 08be 2851 563e 493a 513e 991e e4bd
000002c0: e79c b53d cd36 97bd 34aa aabd 78e1 f3bb
000002d0: dc6c 6abe 0d0d 813e c7ae 02bd e967 c13b
000002e0: a724 2f3e d5ba dabc 40f8 36bd 6705 193d
000002f0: 7d33 9d3e e14c aebd 1387 31bc 483e ba3d
00000300: e8b7 91bb 6966 a43d 663d 27be b98b 1f3e
00000310: 783e b6be 45ee 4b3e ddcb 3fbe 4ed6 6b3e
00000320: 68d5 67bd c211 6c3e 04d9 18bd 1732 92be
00000330: 1b17 51be cf8e 7b3d 0fd4 06be 78e9 143e
00000340: b17f f3bd 09a1 7ebd d588 0ebe 2e9d 163c
00000350: 8f90 95bd 79b3 0bbf 1c07 323e 2611 b4bd
00000360: d491 0f3e 637d 6c3e f4f2 77bc d1fd 243e
00000370: 2590 b1bd 08ee 17be 5325 e93d be89 713c
00000380: f1ab 7dbe b974 e1bd c412 00bd 10cf 5ebe
00000390: ed4f 743c 00e0 33be 6d93 5bbe 974c 07be
000003a0: 4458 bcbd 5291 37be 3c31 493d 7aca 94bd
000003b0: 99ac e23c 758d 1ebe 92a7 d0bb df30 893d
000003c0: 9313 833d b67f a8bd 3cbc 5bbd d165 fb3d
000003d0: 0de4 113e b06c 503d 80e0 eebd a607 bdbd
000003e0: 492c 37be cb34 033e 4d1f 06be 7108 09be
000003f0: cf89 08be 28c8 dbbd 231b 5fbd dc52 ac3c

head.0.bias f4 [32]
0.0014105492 -0.1444894 0.2658707 0.36638895 -0.2270834 -0.21504727 0.0076358435 0.103063315
0.09821384 0.059418194 0.20518316 -0.07940753 0.00038038677 0.34595793 -0.06968745 -0.008155934
0.007766547 0.15878783 -0.17661205 -0.026837155 0.09401234 -0.0855007 0.0046358225 -0.17406194
-0.05646265 0.017486684 -0.015868029 0.019698227 -0.06575887 -0.054659653 0.29090858 0.11990772
00000000: 2de2 b83a 07f5 13be 3420 883e 5597 bb3e
00000010: 8d88 68be 5a35 5cbe 1936 fa3b dc12 d33d
00000020: 5624 c93d 7e60 733d 891b 523e 6aa0 a2bd
00000030: a66e c739 6621 b13e 4bb8 8ebd 77a0 05bc
00000040: 857e fe3b 4799 223e cad9 34be 98d9 dbbc
00000050: 8b89 c03d fe1a afbd 19e8 973b 4b3d 32be
00000060: 6145 67bd 3c40 8f3c abfd 81bc 2d5e a13c
00000070: 96ac 86bd cde2 5fbd f8f1 943e 2e92 f53d

head.2.weight f4 [3, 32]
0.07492245 0.011287051 0.009603186 -0.10021616 0.5510973 0.20686258 0.023734033 -0.18974105
0.054502483 -0.17331952 -0.14242986 0.112335384 -0.06696535 -0.44464263 -0.07800461 -0.038974106
-0.010776958 -0.0034484037 0.023721319 0.25902402 0.40619582 0.8281773 -0.2821094 0.31271023
0.31087306 0.038887013 -0.1443944 0.184186 0.1274651 0.265776 -0.38131645 -0.19032706
-0.059747744 0.0021334002 -0.3412666 -0.4989591 -0.5760211 -0.49329725 -0.27914268 0.06271704
-0.24290629 -0.27015445 -0.26031157 0.13363783 0.19234417 0.49466348 0.123824574 0.040525965
0.17665069 0.22232841 0.2258195 -0.07980037 -0.25194865 -0.8174601 -0.2551774 0.19985406
0.1796191 -0.2950769 0.14989762 -0.14073053 -0.1682386 0.046020184 0.33799466 0.1676715
-0.23601781 0.10202097 0.23196872 0.07600337 0.0882803 0.02503291 -0.02843408 -0.010293809
-0.06210349 0.35638392 0.3108613 0.1635566 -0.11772522 0.291355 -0.0011027706 0.20676522
-0.2852863 -0.5003866 -0.4010382 -0.10800411 0.026234943 0.039687496 0.46993056 -0.34261546
-0.31938076 -0.10059226 0.00047291676 0.1005732 -0.33835542 -0.32674038 0.46298742 0.33907932
00000000: f170 993d 53ed 383c ae56 1d3c 213e cdbd
00000010: b614 0d3f c9d3 533e e06d c23c 7a4b 42be
00000020: ff3d 5f3d ac7a 31be 22d9 11be 1810 e63d
00000030: 2125 89bd 33a8 e3be e2c0 9fbd 50a3 1fbd
00000040: d791 30bc 9dfe 61bb 3653 c23c cc9e 843e
00000050: e6f8 cf3e 6d03 543f a570 90be 8e1b a03e
00000060: c12a 9f3e fd47 1f3d 20dc 13be 419b 3c3e
00000070: 3686 023e cb13 883e e93b c3be 19e5 42be
00000080: 0dba 74bd 84d0 0b3b 7fba aebe 9177 ffbe
00000090: 1e76 13bf 7591 fcbe caeb 8ebe cb71 803d
000000a0: 6dbc 78be af51 8abe 8f47 85be 5bd8 083e
000000b0: dff5 443e 8844 fd3e bd97 fd3d 8efe 253d
000000c0: ebe3 343e 0faa 633e 3a3d 673e 606e a3bd
000000d0: 6aff 80be 1145 51bf 9da6 82be 8ba6 4c3e
000000e0: 12ee 373e 5214 97be c37e 193e aa1b 10be
000000f0: bd46 2cbe a97f 3c3d a30d ad3e 14b2 2b3e
00000100: a7ae 71be 5ff0 d03d 3589 6d3e a8a7 9b3d
00000110: 4dcc b43d d111 cd3c 96ee e8bc 5da7 28bc
00000120: 3b60 7ebd f477 b63e 3629 9f3e 627b 273e
00000130: ec19 f1bd 7c2c 953e d78a 90ba 43ba 533e
00000140: 0c11 92be 5619 00bf e154 cdbe 4231 ddbd
00000150: aaea d63c 5b8f 223d bd9a f03e 4b6b afbe
00000160: e085 a3be 5103 cebd d0f1 f739 52f9 cd3d
00000170: ec3c adbe 844a a7be b00c ed3e ce9b ad3e

head.2.bias f4 [3]
-0.06890153 0.15852515 -0.0018359799
00000000: 3f1c 8dbd 6b54 223e 43a5 f0ba
