checkpoints_kpconv_24nov/checkpoint_epoch_12_24nov.pth (torch, 19297 bytes, 14 tensors)

fc0.weight f4 [8, 3]
000000 80 fc 1e 3e 0d 18 ab be 2e 19 f4 be a7 d4 e6 be
       0.15526009 -0.33416787 -0.4767546 -0.45084116
000010 fb ab 83 3e 86 cb 74 3e 7c 70 3b bd 76 12 49 bd
       0.25717148 0.23905763 -0.04576157 -0.04908987
000020 29 de e1 be 03 37 df 3e 98 5c a3 be 42 15 bd bd
       -0.44114807 0.43596658 -0.3190658 -0.0923257
000030 2e 90 e3 bb 31 8b 8e 3e 0f 49 9a 3e 33 81 73 bd
       -0.006944678 0.2784057 0.30133864 -0.059449386
000040 d8 c6 a6 3e 55 53 a5 3e aa 76 c3 be 61 94 a2 bd
       0.3257358 0.3229014 -0.3817647 -0.07938457
000050 e5 59 72 3e 59 95 85 3e b2 34 5d 3d 0e dd b9 be
       0.23667105 0.26090506 0.054005332 -0.36301464

fc0.bias f4 [8]
000000 2c 25 c7 3e 5f 6d e9 3e b4 ca a3 3e 92 7a 8b be
       0.38895547 0.45591256 0.31990588 -0.2724195
000010 1d 91 1a 3f 60 d1 f3 be 92 71 3a 3d 36 0d 4c bd
       0.60377675 -0.47620678 0.045518465 -0.049817286

kp1.mlp.0.weight f4 [16, 11]
000000 81 bf 36 3f 30 ca 74 be 35 94 b9 bd 5f be a2 bd
       0.7138596 -0.23905253 -0.090614714 -0.07946467
000010 f2 1b a1 3e 8a 1b 97 3d 5d dd 84 3e f2 f2 e9 bd
       0.31466633 0.073782995 0.25950137 -0.11423291
000020 5a 7a cc bd 1c 7a 25 be c6 2e 89 3e 24 6f c1 3e
       -0.09984274 -0.16159862 0.26793498 0.37780106
000030 93 a2 24 3e 58 10 10 3e d0 95 e9 bc 9f 5a c7 bd
       0.16077642 0.14068735 -0.028513819 -0.097340815
000040 68 db 72 3e 6c 5a 2f ba cd 33 d2 bc 76 17 1c be
       0.2371651 -0.0006689194 -0.025659466 -0.15243325
000050 99 6e 8c bd f9 99 2e 3e 6a 37 3f 3f f8 68 46 bf
       -0.06857032 0.17050923 0.7469393 -0.7750392
000060 d4 a6 6b 3e 63 91 6c 3d b9 51 2c be 03 b0 34 3e
       0.23012859 0.05775584 -0.1682805 0.17645268
000070 71 4d 05 3e af 7d 3e 3e fe 2d 13 be 49 1c 8f 3e
       0.13017823 0.18602632 -0.14373013 0.27951267
000080 d5 3a 31 be 41 16 05 3f 7a 80 06 bd dd 18 a9 3c
       -0.17307599 0.5198708 -0.03283737 0.020641739
000090 71 27 01 be 84 39 21 be 0c dc 75 bd f5 51 37 3e
       -0.12612702 -0.15744597 -0.060024306 0.17902358
0000a0 0a c5 8f 3d 3e 7c 47 be 96 cf 1e be a5 0d 2d be
       0.07020004 -0.19480988 -0.15508875 -0.16899736
0000b0 12 35 5a 3d 50 13 19 bf c1 04 0b 3d a9 21 66 3e
       0.053273268 -0.59795094 0.03394008 0.22473778
0000c0 17 eb 1f 3e 4e a9 36 be ca 54 8a bd 85 3d 08 3e
       0.15617023 -0.17838022 -0.067544535 0.13304718
0000d0 10 06 89 bc ea 22 c3 3c 11 f5 01 3e 73 08 00 be
       -0.016726524 0.02382036 0.12691142 -0.12503223
0000e0 6a e2 f3 3d b2 94 bb bd 7d 49 26 3e 05 11 1b bd
       0.119084194 -0.09159221 0.16238971 -0.037858028
0000f0 dd 2d 52 be e0 6e 92 be b9 6d 7b be 7c df 7e be
       -0.20525308 -0.28600216 -0.24553575 -0.2488994
000100 e9 f8 60 3e 4b 45 9a be c4 c7 5f bf 00 90 5e bf
       0.21969952 -0.3013099 -0.87414193 -0.86938477
000110 4d 57 df bb 4f 01 99 bc 09 08 2c be a3 df 48 3e
       -0.006815827 -0.018677382 -0.1679994 0.1961656
000120 5d 26 fd 3d 07 9a b0 3e f2 f7 f4 bc 27 cf 52 3e
       0.12360833 0.34492514 -0.029903386 0.20586835
000130 52 52 cf bd ef dd cd bd 08 5d 08 bf c2 a3 50 3e
       -0.10123123 -0.10052096 -0.53266954 0.20374969
000140 34 05 bd bd 47 1e 19 3d 0c 31 6b bc 32 cb 4f 3e
       -0.09229508 0.03738239 -0.014354955 0.20292357
000150 06 ac 57 be 9d 86 57 3e 1c f1 5b 3d fd 1d 83 3e
       -0.21061715 0.21047445 0.053696737 0.25608817
000160 34 91 93 3e e0 29 ab be 26 51 00 bf d9 66 58 bd
       0.2882172 -0.33430386 -0.5012382 -0.05283246
000170 c6 6d 04 be 88 d1 5c 3e 27 44 d0 bc e3 b0 19 be
       -0.129325 0.21564305 -0.025423123 -0.15008883
000180 a9 49 b2 3d b5 e0 10 bd ff aa b0 3c 17 d2 37 bf
       0.08705456 -0.035370547 0.021565912 -0.71804947
000190 2a 71 84 be f3 6f 94 bd bc 97 7c 3e 8b 91 3d 3e
       -0.25867587 -0.07247915 0.24667257 0.18512551
0001a0 fe 05 c2 3c b5 32 31 be 0a b5 3f be d5 51 3d 3e
       0.023684498 -0.173045 -0.18721405 0.18488248
0001b0 76 c4 55 3e 94 07 0e 3e 96 c2 ae 3e 3a 51 02 bf
       0.20875725 0.13870078 0.34132832 -0.5090519
0001c0 f1 92 6d bd 5a a5 49 3d 28 e9 86 be 61 b3 eb bd
       -0.058001462 0.049229957 -0.2634976 -0.11508823
0001d0 da 98 0f be ab 21 3d 3e 5e 77 5c bd b8 50 58 3d
       -0.14023152 0.18469875 -0.053824775 0.052811354
0001e0 04 2f 3d 3e 74 e5 3c 3f 58 10 66 bf a6 78 6a 3e
       0.18474966 0.7378762 -0.8986869 0.22897586
0001f0 9b 75 9c 3d 8e 0a 74 3e e9 a6 a5 3e 2e 6d 92 3e
       0.07639619 0.23832151 0.32353905 0.28598922
000200 3b 57 6c be 29 40 87 3e e2 e4 22 be 12 f9 85 3d
       -0.23080151 0.26416138 -0.15907624 0.06541647
000210 ca 31 50 3f 3a a8 55 bf 7a a4 33 bd 16 23 c4 3d
       0.8132597 -0.8345982 -0.04385803 0.095770046
000220 36 39 81 3c 9c 55 92 3e 39 0f b1 bd 48 f5 ae 3d
       0.01577435 0.2858094 -0.086454816 0.085428774
000230 c4 cd ff 3d b4 2c b1 bd 58 f2 0c 3e fc 91 09 bf
       0.124904186 -0.086511046 0.13764322 -0.5373838
000240 97 5d 15 3f ca 87 9e 3d 1b 64 91 3e 56 7e 35 3e
       0.5834593 0.077407435 0.28396687 0.17723975
000250 49 7b 06 be 86 1a 53 3e 6e ad 84 3e 6a 62 a3 bd
       -0.13132967 0.20615587 0.25913566 -0.07977755
000260 08 77 8c 3e 24 78 6c be fa e4 d4 3e 5f 97 25 3f
       0.27434564 -0.23092705 0.41580945 0.646841
000270 bc 13 21 3e a5 67 48 bc 56 10 0e be 7b e0 1c 3e
       0.15730184 -0.012231742 -0.13873419 0.15320008
000280 9c ad 46 3e b3 19 50 3e 1a 2c 55 3d a6 a3 f5 3d
       0.19402164 0.20322303 0.05204401 0.11994104
000290 ed 33 94 3e a2 9e 0f 3e 59 dc e8 3e 22 59 0a 3e
       0.28945866 0.14025357 0.45480612 0.13510564
0002a0 48 c0 7c be 54 4c 19 bf d5 1a 2a be ce 6b 49 3e
       -0.24682724 -0.5988209 -0.16611798 0.1967003
0002b0 a1 cb 6e 3d b1 a4 97 be e6 8e ef 3d 5a 50 42 bd
       0.058299664 -0.29617837 0.116971776 -0.04743991

kp1.mlp.0.bias f4 [16]
000000 da 6b 43 bc d6 42 50 bd 2f 54 93 3e c1 e0 b0 be
       -0.011927569 -0.05084499 0.28775164 -0.34546474
000010 cd 43 c0 be 76 0f e0 ba ab 2f e8 bc 49 63 7d bb
       -0.37551728 -0.0017094451 -0.028343042 -0.0038663915
000020 99 21 0d bd e0 87 42 be 3d ed 09 3e 22 93 d8 bd
       -0.03445587 -0.18997145 0.13469405 -0.10574938
000030 3f 51 81 3e da 27 b7 3d bf ed bd 3e 8e bd 32 3e
       0.25257298 0.08943148 0.37095448 0.17455122

kp1.mlp.2.weight f4 [16, 16]
000000 39 64 06 3e 23 18 27 be cf 7c da 3d 28 d1 a4 3c
       0.1312417 -0.16317801 0.106683366 0.020119265
000010 b6 a4 85 3e 02 7a a3 bd f6 ac 85 3e 7e 8a 95 3c
       0.26102227 -0.079822555 0.2610852 0.018254515
000020 20 cb eb be 55 4d e1 3d 04 76 90 3c 76 2f 8b 3e
       -0.4605341 0.11001078 0.0176344 0.27184647
000030 fa c2 50 3e 17 41 7c be d1 08 9b bb fd 1f 94 bd
       0.20386878 -0.24634205 -0.0047312756 -0.07232664
000040 82 75 33 bd 3d 89 15 3d 37 78 ab bc 83 c3 12 3b
       -0.043813236 0.036507834 -0.020931346 0.0022394366
000050 ac ca 2c 3e 4f 3f f6 3d b3 23 55 3e 91 b8 1d 3e
       0.16874188 0.12023794 0.208144 0.15402438
000060 ee 7e 8f 3c 77 0d c2 bc 33 61 5c be f8 7d e2 3d
       0.01751658 -0.023688061 -0.21521454 0.11059183
000070 88 d4 5a be 8b 02 4a be 3f 43 44 bc 19 09 0c 3e
       -0.21370137 -0.19727533 -0.011978923 0.13675345
000080 19 2a 65 be 29 ed 41 be e0 38 06 be 7f d3 53 3d
       -0.2237934 -0.18938126 -0.13107634 0.05171537
000090 42 cd 93 bd 25 14 b5 bc 78 c3 8b 3d b8 67 51 3e
       -0.07216884 -0.022104332 0.06824392 0.20449722
0000a0 6b 7c 63 3e 3d 61 4e 3e 53 cf 81 3e 9a d2 67 3d
       0.2221543 0.20154281 0.25353488 0.05659733
0000b0 49 d5 99 3d c4 a5 09 bd 18 13 b5 3d 14 e2 fd bd
       0.07511384 -0.033605352 0.088415325 -0.123966366
0000c0 7c 97 46 be e0 82 a3 bd 3c 55 b5 3d 62 38 01 3e
       -0.19393724 -0.07983947 0.08854148 0.12619165
0000d0 d8 aa 28 bc d4 75 9a bd 3e 78 dc 3e 09 f1 c1 bd
       -0.010294639 -0.07542005 0.43060488 -0.09469802
0000e0 6c 3f b8 be 49 f8 20 3e 95 52 bf 3d 42 d4 45 bd
       -0.35985887 0.15719713 0.09341923 -0.048298128
0000f0 59 62 7b 3e 95 3d 9c 3d a4 99 48 be 6b 7e de 3d
       0.24549235 0.07628933 -0.19589859 0.10863956
000100 98 06 8e 3e ef 01 57 3e d1 70 7a 3e c7 3d 89 bd
       0.27739406 0.20996831 0.24457099 -0.06701236
000110 f6 a8 0c be 04 96 9e 3d 80 f8 29 be 2c bb dc 3d
       -0.13736328 0.07743457 -0.16598701 0.10777888
000120 7b e5 a3 be 6c 16 75 be d7 21 83 3d 2e b4 d0 bd
       -0.32011017 -0.23934335 0.06402939 -0.101906165
000130 78 c5 b4 3e 73 c5 19 be f0 82 87 bd f9 c0 82 3e
       0.35306907 -0.15016727 -0.06616771 0.2553785
000140 28 27 13 3e 00 5f 70 3c e3 cc 88 bd 62 8c 25 3c
       0.14370406 0.014671087 -0.06679704 0.010104271
000150 19 ca 94 be 8d f0 19 be 93 72 84 bc 86 0e c9 3c
       -0.29060438 -0.15033169 -0.016167914 0.024543058
000160 ca bf 93 3d 07 7f 34 3e a7 e5 76 3e 8e 1e 74 3c
       0.07214315 0.17626582 0.24111043 0.014899863
000170 5c a8 78 3e 07 83 f8 3d 17 e6 23 3e f4 dd a9 bd
       0.24282974 0.121343665 0.16005741 -0.08294287
000180 60 be ed bd dd e0 d9 bc f3 a6 02 3e 80 80 85 be
       -0.11608577 -0.026596481 0.12758999 -0.260746
000190 f7 f0 84 be 42 3f 09 be ee 5a ab 3e 58 50 26 3e
       -0.25965092 -0.13403037 0.3346781 0.16241586
0001a0 fc 04 4b be d8 c3 6f 3e b9 34 36 3e d5 ae 2e be
       -0.1982612 0.23414552 0.1779355 -0.1705888
0001b0 ad 00 2d 3c ad 41 52 3d 07 31 06 3e cb 91 d8 bd
       0.010559243 0.051332165 0.1310464 -0.10574683
0001c0 72 7c f0 3c 17 91 35 3d 0c 55 35 3e a5 cf 69 3e
       0.029356215 0.04432782 0.17708224 0.22833116
0001d0 3c 6d 0a be 44 5a 6d 3d 96 ed 53 3e 79 bf 5c 3e
       -0.13518232 0.057947412 0.206961 0.21557416
0001e0 3c a5 6c be b5 51 39 3e f0 50 bc bd 35 15 cb 3d
       -0.23109907 0.18097575 -0.09195125 0.09916154
0001f0 11 e0 2a 3e a5 3f 37 3d b5 ed 70 be 62 46 51 3d
       0.16687037 0.04473843 -0.23528178 0.051092513
000200 4c 37 b7 3b bc cd c7 bd c9 cd 81 be e7 bc 9b 3d
       0.0055913087 -0.097560376 -0.25352314 0.0760439
000210 49 94 ad bd c2 fc f1 3d b4 de e4 bd 54 97 70 be
       -0.08475549 0.11815788 -0.1117529 -0.23495227
000220 b8 5f 88 bd 73 6a 23 3d ff 75 98 3d 19 75 82 bd
       -0.06658882 0.03989644 0.07444381 -0.06369991
000230 2e 31 a0 be c4 cb 84 bd 28 a7 2b be 1a 52 4f 3e
       -0.3128752 -0.06484178 -0.16762984 0.20246163
000240 0e fe 14 bc ee da 08 bd d3 9e b2 bd ca e0 1e 3d
       -0.0090937745 -0.033411913 -0.087216996 0.038788594
000250 e6 eb 03 be 58 b6 7d bd 1d e1 82 3e 9a a7 73 3e
       -0.12882957 -0.061941475 0.25562373 0.23794404
000260 51 be 73 3e a6 99 ac bd 79 4c 10 bd e1 03 86 bd
       0.23803069 -0.084277436 -0.03522918 -0.065437086
000270 a1 94 84 bd a3 10 b7 3d 25 38 6a be 0b 12 e4 3d
       -0.06473661 0.0893872 -0.2287298 0.11136254
000280 95 16 08 be 1e 2d 3c bd f3 ca 5f 3e 10 f4 23 3e
       -0.13289864 -0.045941465 0.21854763 0.16011071
000290 0d d8 77 3e 91 79 ee 3d cf 84 4e 3d 52 d7 b6 3d
       0.2420351 0.11644281 0.050419625 0.08927788
0002a0 e7 41 9f be c8 02 74 be 92 23 36 3e 10 45 1d 3e
       -0.31104967 -0.23829186 0.17787006 0.15358377
0002b0 9e 37 f7 3c 27 0b e1 bd 01 b0 5a be 46 2d cb bd
       0.030177888 -0.10988455 -0.21356203 -0.099207446
0002c0 b3 fe 1b be 36 f4 68 be cb 99 f4 3d 5d 01 3e 3e
       -0.15233879 -0.22749409 0.11943396 0.18555208
0002d0 44 89 6b 3b 00 0d 83 be 41 e9 81 be fa e3 78 be
       0.003593997 -0.25595856 -0.2537327 -0.24305716
0002e0 3a 3a 74 be af cf 97 3d 9b a4 2b 3e 63 4f 75 be
       -0.23850337 0.074126594 0.16762011 -0.23956065
0002f0 d9 d6 a4 be 3c 3e 1f 3d 7e 87 7b 3e eb c4 b5 bd
       -0.32195166 0.03887771 0.24563405 -0.0887545
000300 a4 b4 1b be ec e8 ac bd 7b 8f 3a 3e 9e 58 12 3e
       -0.15205628 -0.08442864 0.18218796 0.14291617
000310 35 2e 72 3e d5 f2 68 3c 29 e4 84 be 27 07 6f be
       0.23650439 0.014218052 -0.25955322 -0.23342572
000320 b4 71 09 bf 21 5d e6 bd 72 21 f8 3d 7c fc 34 be
       -0.5368912 -0.11248232 0.12115754 -0.1767444
000330 2c 7e a9 3d 82 86 ac bc 43 4d 10 be c1 bd 6f bd
       0.082760185 -0.021060232 -0.14091973 -0.058530573
000340 ba 9a 81 3e a4 bb 20 3e 3c e3 62 3e d3 1d ad 3d
       0.2531336 0.15696579 0.22156996 0.08452954
000350 23 96 35 3d a7 c4 44 be ea d1 74 be 2c 35 c4 3c
       0.044332635 -0.19215642 -0.23908201 0.023951136
000360 8f 1c dd be c9 d7 26 3e ab 9a 1c 3d 92 4f 96 3e
       -0.4318585 0.16293253 0.03823344 0.29357582
000370 c5 88 99 3e d7 05 c7 bd 5f 64 7f 3c 5f a9 5e be
       0.2998716 -0.09717911 0.015587895 -0.21744297
000380 03 72 13 be b4 db 17 3e 22 3c 64 bd 10 48 0e be
       -0.14398961 0.14829904 -0.05572141 -0.13894677
000390 05 f6 2f 3e 18 6a e8 3d 01 e0 9b 3e a5 2d 94 3d
       0.17183693 0.11348361 0.3044434 0.072352685
0003a0 25 5f 29 be 73 6a b2 bd 79 ac 11 be 47 fc ae bd
       -0.16540201 -0.0871171 -0.1422595 -0.08544212
0003b0 b1 df 8c be ce 42 03 bd a6 fa 73 bd 1b d6 35 be
       -0.27514413 -0.03204613 -0.05956521 -0.17757456
0003c0 f5 de 4f 3e ab 56 bf bd 9e 28 9c be e9 41 02 bd
       0.20299895 -0.093427025 -0.30499738 -0.031801138
0003d0 75 30 2c 3d 02 fc 26 3e 3c fb 07 be c0 b4 02 bd
       0.0420384 0.16307071 -0.13279432 -0.031910658
0003e0 85 a2 a7 3d 47 a6 22 be 46 29 e9 bd 0b c7 60 be
       0.08185295 -0.15883742 -0.113848254 -0.21950929
0003f0 79 25 6b be 55 cc a9 bd 98 4f 56 be 61 68 fd bb
       -0.22963513 -0.08290926 -0.209288 -0.00773339

kp1.mlp.2.bias f4 [16]
000000 39 35 94 bd a1 6e 5a be df bf 67 be 4a e1 88 3d
       -0.07236714 -0.21331264 -0.22631787 0.066835955
000010 5e a9 ce 3c a8 15 34 3e f6 6b 28 3e 94 6c 08 be
       0.025227245 0.17586386 0.16447434 -0.1332267
000020 04 2c 12 be 1b f6 97 3d 20 29 6b be 6a b5 9a be
       -0.14274603 0.07419988 -0.22964907 -0.30216533
000030 5b f6 99 3d 07 e8 30 3e d1 af 91 be 58 52 39 bd
       0.07517692 0.17276011 -0.2845445 -0.045244545

kp2.mlp.0.weight f4 [32, 19]
000000 05 6c ad 3d 03 8e c5 bd 9a 45 d9 bb 15 df b8 bd
       0.08467869 -0.09646227 -0.0066306116 -0.090269245
000010 58 20 28 be 2f e4 06 3e 17 9b ac bd 60 34 45 be
       -0.16418588 0.13172983 -0.084280185 -0.1925826
000020 89 60 3a be a0 e7 f0 bd 66 86 63 be c5 cb cf bc
       -0.18200888 -0.11762929 -0.22219238 -0.02536572
000030 09 d3 4c bd 91 81 1c be 53 8a 2d be c0 a4 54 3e
       -0.050005946 -0.152838 -0.16947298 0.20765972
000040 af bf 63 3d ef 6b ce bd c4 0a c0 3d 9f 50 52 3f
       0.055602726 -0.100791804 0.093770534 0.8215427
000050 75 2c 32 3d 42 19 a1 be 6a 25 a0 bd 51 74 69 be
       0.04349943 -0.31464583 -0.07819636 -0.22798277
000060 4e 51 8a bd 15 c1 b0 bd 44 7d 46 be 3c 4f b4 bd
       -0.06753789 -0.086305775 -0.19383723 -0.08804175
000070 09 1b 82 3d 46 19 a2 3d 62 2f ea bd fa 8c 87 3c
       0.06352813 0.07914977 -0.11434819 0.016546715
000080 54 14 85 be 1b c6 b2 be 97 8f 1d 3e 43 1c 04 be
       -0.25992072 -0.34916767 0.15386806 -0.12901406
000090 0c f2 33 be c5 3b 36 be f0 58 c8 3e 04 d1 1c 3f
       -0.17572802 -0.17796238 0.39130354 0.6125643
0000a0 4d 85 d3 3f 40 f1 2d 3e 79 82 da bc ed 5d 90 3d
       1.6525055 0.16986561 -0.026673542 0.07049165
0000b0 a0 c9 93 3d 92 17 67 3d f7 23 bc bc d1 6c 62 3d
       0.07216191 0.056418963 -0.022966368 0.055279557
0000c0 92 8c c7 3d 09 e8 6a bd 31 f3 35 3e 42 6b 53 bc
       0.097436085 -0.057350192 0.17768551 -0.01290399
0000d0 d2 63 92 3d 15 25 07 3e d3 85 13 3e 90 d0 fc bd
       0.071479455 0.1319774 0.14406519 -0.12344468
0000e0 41 5a a6 bc f7 04 ff be c8 3a 89 3e a8 b5 9b 3f
       -0.020306708 -0.49808475 0.2680266 1.2164812
0000f0 92 ea 5e be 98 81 94 3d f8 a5 db bd 84 e2 3b be
       -0.21769169 0.072512805 -0.107250154 -0.18348128
000100 f4 9a 60 bd 94 26 9e 3d c7 19 e7 3c c5 ed 8f bd
       -0.054835275 0.07722202 0.028210534 -0.07027773
000110 63 99 ba 3d e2 9f 0f bd 1d 20 82 bd c7 ee 39 be
       0.091112874 -0.035064586 -0.06353781 -0.18157493
000120 26 aa 4d 3e 0e 85 ab bd 40 0b 97 be db 92 51 be
       0.20084438 -0.083749875 -0.2950077 -0.20466177
000130 98 29 02 3f a9 fd 3b 3f a6 67 23 3f 44 5f f5 bc
       0.5084472 0.7343393 0.6383003 -0.029952653
000140 2a 47 bc bd a9 a0 bd ba 81 c7 90 3e 6d 23 70 3e
       -0.09193261 -0.0014467436 0.2827721 0.23451014
000150 dc 70 39 3e 5e a0 09 3d 87 08 82 3c 3f d8 d0 3d
       0.18109459 0.033600204 0.015873207 0.10197496
000160 3e 2e 1b 3d 07 7e 9b 3d 3f 64 f8 3d d0 ce f7 bd
       0.037885897 0.07592397 0.121284954 -0.12099993
000170 61 e8 8e 3d 82 8f 17 3e 2b b6 c9 bd c6 46 7c bd
       0.069779165 0.14800838 -0.09849199 -0.061590932
000180 4d 64 af bc 50 9c 64 3d 7f 58 0a 3d 0f 49 2a be
       -0.021410132 0.055813134 0.033775803 -0.16629432
000190 d4 8e f0 bc a2 34 39 be 0a 52 a9 3d c9 ed 4a be
       -0.02936498 -0.18086484 0.08267601 -0.1981727
0001a0 10 a8 5d bd 7f ff 09 3c 57 1d 3e 3e ec cc 74 3d
       -0.054115355 0.008422731 0.1856588 0.05976574
0001b0 52 fd 03 3e 64 15 5e 3d 82 7c 60 be d3 a3 1c be
       0.12889603 0.05421962 -0.21922496 -0.15296869
0001c0 e3 eb 62 be 51 92 a9 bd e3 11 0d bf 1e c4 c3 be
       -0.22160296 -0.08279861 -0.5510542 -0.38235563
0001d0 8b b1 86 3f 81 d9 29 be fd 68 65 bd ac d3 b5 3d
       1.0522932 -0.16586877 -0.056008328 0.08878264
0001e0 89 32 01 3e 08 d4 34 3e cb 71 03 3e 51 ca 12 bc
       0.12616934 0.17659009 0.12836377 -0.008959369
0001f0 7e 3e 59 3d a3 7e 60 be ba d8 3c bd 85 95 6b be
       0.053038113 -0.21923308 -0.046105124 -0.23006256
000200 9b dc 4d be fe 48 ce 3c 32 56 44 be 68 41 4a bd
       -0.20103686 0.02518129 -0.19173506 -0.049378783
000210 c9 ee aa 3d 2a e2 21 3e a9 ba 0d 3f bd 0c 85 3f
       0.08346326 0.15808931 0.55362946 1.0394512
000220 ad 21 83 bd 3b 5d 6b be 25 4f 26 3e 7d d2 0a be
       -0.064029075 -0.22984783 0.16241129 -0.13556857
000230 39 11 bd bc dc 6d 22 3e 81 24 58 3d 12 be bd 3d
       -0.023079501 0.1586222 0.052769188 0.09264769
000240 cf f1 3a be 9d c2 1e 3d d9 6d 3d 3e 7d 54 8a be
       -0.18256305 0.038759816 0.18498935 -0.27017584
000250 ad b8 43 3e 9d 1b 27 be 5d 63 d6 bd 0d 69 22 be
       0.19113417 -0.16319127 -0.10468171 -0.15860386
000260 7d 60 05 bf 16 9b aa be 78 3c 2d 3f f2 43 89 be
       -0.52100354 -0.33321446 0.67670393 -0.2680965
000270 1b 9a 7f be 46 eb 81 be 22 78 b0 bd 3a 53 55 3e
       -0.2496113 -0.25374812 -0.086166635 0.2083253
000280 99 d6 8e bd 6f bb ab 3d 2c cc f0 3d 8b ed 2c 3d
       -0.06974525 0.083853595 0.11757693 0.042218726
000290 99 f4 29 be 1e 8a 6d be 24 6b 30 be a5 87 68 3e
       -0.16597213 -0.23197219 -0.17228371 0.22707994
0002a0 fe cd 08 be ff 5a 65 be 1e e4 60 be ff c2 ba 3d
       -0.1335983 -0.22397994 -0.2196202 0.09119224
0002b0 9b c8 e1 be fc 70 58 3f 74 fc 3d be d8 95 12 3e
       -0.44098362 0.845474 -0.18553334 0.14314973
0002c0 c4 a3 2d 3c 64 c3 fc bc 10 e0 c9 bd c4 f5 11 be
       0.010598127 -0.030854888 -0.0985719 -0.14253908
0002d0 ca ab 30 3e fd 7e 75 be 64 28 84 be 6e c0 45 be
       0.17253032 -0.23974223 -0.25812066 -0.19311687
0002e0 53 dd 2d be bd 96 98 bc 9a fd d5 bd b2 a1 90 bd
       -0.1697896 -0.018626565 -0.10448761 -0.07062091
0002f0 44 08 7c be 49 3c 6e be cd 18 a0 be 9d ec 87 be
       -0.24612528 -0.23265184 -0.31268921 -0.2654771
000300 5b 75 85 bf e3 8e 6c bc 3e 98 91 be 02 ae f9 3d
       -1.0426439 -0.014438364 -0.28436464 0.121913925
000310 20 ae 4c be 7d 3b a1 bd fb 12 dd 3d 64 69 64 3d
       -0.19988298 -0.078726746 0.10794636 0.05576457
000320 ad cc 44 3b 4e 56 28 be b1 2f ec bd f6 32 90 be
       0.0030029223 -0.16439173 -0.11532534 -0.2816388
000330 44 e4 ca bd 45 bd 73 bd d9 1d 12 3e 5c c0 95 be
       -0.099068195 -0.059506673 0.14269198 -0.2924832
000340 fd 05 a3 3d 45 9b c4 be 54 0b c5 bd 15 b2 9c 3f
       0.079601265 -0.3839971 -0.09621301 1.2241846
000350 0a 0b 38 3e eb 71 1b be b5 b8 03 3e ba 8d 71 bd
       0.17972961 -0.15180175 0.12863429 -0.05897305
000360 f6 6f e1 3d 1c 09 01 be 2f 88 78 be f1 d9 09 bd
       0.11007683 -0.12601131 -0.242707 -0.03365511
000370 a8 72 18 bd d5 f5 6f be 92 23 c5 bd cd 70 a8 3c
       -0.03721872 -0.23433621 -0.09625925 0.0205616
000380 67 f2 29 3e ae 7b 62 3e 34 55 a7 bd 3f 47 49 be
       0.16596375 0.22117493 -0.08170548 -0.19656084
000390 d5 ae e6 bd ff ff e5 3e 87 2b 80 3c 92 e8 ca bd
       -0.11263815 0.44921872 0.015645755 -0.099076405
0003a0 10 ea 4d 3e 62 01 a6 bc cc e9 15 3e 01 f5 90 ba
       0.20108819 -0.020264331 0.14639968 -0.0011059345
0003b0 1e 74 1c 3e 21 c0 39 be 3f 18 83 be f3 bc 55 be
       0.1527867 -0.18139698 -0.25604436 -0.2087286
0003c0 cd 21 fc bd f2 0f 08 be 93 09 f7 bd d0 c1 06 be
       -0.123111345 -0.13287333 -0.12062373 -0.13159871
0003d0 76 ba 11 3e c6 13 21 3e ed 86 f0 bd 78 87 06 bf
       0.14231285 0.15730199 -0.11744485 -0.5255046
0003e0 5c 52 b2 be 96 8a 0b bd 5e 15 3f 3e 36 46 20 be
       -0.3482846 -0.034067713 0.18660495 -0.15651783
0003f0 13 e7 1c 3e 78 99 8d 3e 47 f3 ff bd b4 0c 7b 3c
       0.15322523 0.2765615 -0.12497573 0.015322853

kp2.mlp.0.bias f4 [32]
000000 61 74 6a be 49 9d 8a 3d 9d de 00 3d 2b 09 d9 3e
       -0.22895958 0.06768281 0.0314623 0.42389807
000010 72 e6 bd 3d 70 44 d3 bd 7d d8 56 3e 5b 13 f4 bc
       0.092724696 -0.10315788 0.20981021 -0.029794386
000020 1c ff a1 3e 11 89 15 3d 0d 81 ad bd c2 9d af 3d
       0.31639946 0.03650767 -0.0847188 0.08575012
000030 a4 6f 77 3e 24 ae f3 bd 80 2f 8b 3e a1 53 7f 3e
       0.24163681 -0.11898449 0.27184677 0.24934246
000040 43 e3 38 3e 16 fa 04 3d 6f be 91 3e cc e5 2d be
       0.18055443 0.032465063 0.28465602 -0.16982192
000050 5e de 70 3d 65 fc 32 3e 4b 24 f3 3b 2e c7 6b 3d
       0.058805816 0.17479093 0.007420098 0.057563
000060 7b de 87 be 94 79 2a 3e 98 8d 46 3e 4d af 73 bd
       -0.26536927 0.16647941 0.19389951 -0.05949335
000070 c8 af 23 3e 13 a0 39 be f0 3b 1b be f4 e4 e1 3c
       0.15985024 -0.1812747 -0.15159583 0.027574994

kp2.mlp.2.weight f4 [32, 32]
000000 dd d3 18 3e 89 76 b4 3c 50 53 ba 3e dd b6 82 3d
       0.1492457 0.022029178 0.36391687 0.06382535
000010 39 42 90 3e 03 83 06 3e 4c 8f a3 3c 05 77 49 3e
       0.28175524 0.13135915 0.01996579 0.19674309
000020 cd 36 95 bc 82 79 6e be 3a af 6f 3d f5 51 1c 3e
       -0.018214608 -0.23288539 0.05851672 0.15265639
000030 7e 70 f1 bb fd c3 e8 3d d2 33 48 3e 44 18 56 bd
       -0.0073681464 0.11365507 0.19551018 -0.052269235
000040 df b7 ad be ac 14 bb bc 64 4c b6 bd 02 6d ae 3d
       -0.33929345 -0.022837006 -0.08901289 0.08516885
000050 1f 57 e0 bd ab cf 5f bd b2 a1 b2 3c ab 50 f6 3e
       -0.10954117 -0.054641407 0.021805618 0.4810842
000060 23 16 96 3d 8f f0 09 3e 38 67 6e 3c c7 e5 6a 3d
       0.07328441 0.13470672 0.014550976 0.05734804
000070 41 5c 13 be e0 27 84 bd e5 b8 a1 bd 2c 64 29 bd
       -0.14390661 -0.06452918 -0.07896594 -0.041355297
000080 34 27 1b be 60 cb b5 be 20 81 8b be cf a6 d9 bd
       -0.15151674 -0.35506725 -0.27246952 -0.10627519
000090 e5 84 b8 be de e5 cd bd 29 e8 b8 3d 45 0c f1 3c
       -0.3603889 -0.10053609 0.09028656 0.029424796
0000a0 ae c9 ac 3d 78 a5 0a 3d 68 79 b7 3d c4 f4 39 3e
       0.08436905 0.03384921 0.08958703 0.18159777
0000b0 a5 c0 37 3e a3 69 4e 3e f6 66 52 be 10 2c 86 be
       0.17944582 0.20157485 -0.20547089 -0.26205492
0000c0 68 a0 ab bd 73 1f 2e be a5 77 84 be 71 0b 80 3d
       -0.083802044 -0.17004184 -0.25872532 0.06252182
0000d0 c3 ee 1a 3e 83 6d bb 3c 1e 09 80 3e 25 d0 81 3e
       0.15130143 0.022879368 0.25006956 0.25354114
0000e0 07 b7 ff bd 65 56 c7 3d 5d 66 23 be 05 22 37 3e
       -0.124860816 0.09733275 -0.15957017 0.17884071
0000f0 ed 57 9f 3d 31 c1 86 3c 70 89 d8 3d b7 01 5a bc
       0.077804424 0.016449543 0.10573089 -0.013306073
000100 9c 85 9e 3d 89 68 52 3d 46 ef d5 bd 91 e6 39 3d
       0.07740328 0.051369224 -0.104460284 0.0453859
000110 08 52 88 be 7c 77 b8 3d a6 f4 a8 bb 45 8a fd 3d
       -0.26625085 0.09007165 -0.0051561175 0.123798884
000120 ec a0 01 be c3 9e 46 be e5 cb 0b 3e 14 67 43 be
       -0.12659043 -0.193965 0.13651998 -0.1908229
000130 12 8b 8b 3d 3a c1 cd bd 15 3a 30 be b5 06 84 be
       0.06813635 -0.10046621 -0.17209657 -0.25786367
000140 38 a8 6b be 77 4d 55 be 20 f2 c1 bd 26 ad 4d 3e
       -0.23013389 -0.20830332 -0.0947001 0.20085582
000150 53 bc 41 be 22 99 86 be e3 18 8d 3d bf 81 06 bf
       -0.18919496 -0.26288706 0.068895124 -0.52541727
000160 8e 7e c8 3d 0d 38 41 be b2 56 20 be e9 10 14 be
       0.097897634 -0.18869038 -0.15658072 -0.14459576
000170 a0 b0 54 bd d9 ad 9a 3e 4f 5b bf bb 6e cb b3 bd
       -0.051926255 0.3021076 -0.0058397423 -0.087790355
000180 01 10 fc bd 9d 87 be bc 2a de 48 3e 70 55 8e bd
       -0.1230774 -0.023258025 0.19615999 -0.0694989
000190 3f 0b e5 3d 1d b6 51 bd ed d1 50 3d 7d ce 39 3d
       0.11183786 -0.051199067 0.05098145 0.04536294
0001a0 65 de 95 bd 11 64 19 bc c3 d3 68 be 18 6b 00 be
       -0.07317809 -0.009362237 -0.2273703 -0.12540853
0001b0 cb e5 bf bd 58 e0 0c be 97 77 60 3e d9 a1 fc 3d
       -0.093700014 -0.13757455 0.2192062 0.123355575
0001c0 69 3b 84 be 68 6a 09 bd 7e 87 35 bd 50 b0 43 3e
       -0.25826576 -0.033548743 -0.04431867 0.19110227
0001d0 a1 d2 34 3d c1 c2 04 bd ca a0 01 be f3 02 a0 3d
       0.044146184 -0.032412294 -0.12658992 0.078130625
0001e0 25 ab 12 3d d6 68 b0 3c 27 1c 93 3e ff 0d 95 3e
       0.035807747 0.021534365 0.28732416 0.2911224
0001f0 80 ba 3a bd 0d f1 a6 3d b1 a1 f7 3d 16 d9 0e be
       -0.045588017 0.081514455 0.12091387 -0.13949999
000200 d1 a0 20 3e a7 26 6e be cf b8 00 bf 12 d6 88 be
       0.15686347 -0.23256932 -0.50281996 -0.26725823
000210 e9 89 9e be be a5 0b be c5 9d 35 bd 49 42 87 be
       -0.30964592 -0.13637444 -0.044339914 -0.2641776
000220 69 0c ae bc 7f f1 61 bb 24 a6 2c 3e 33 89 11 be
       -0.021246152 -0.0034476218 0.16860253 -0.14212494
000230 11 8b 36 be 3f fc ad 3d 2c 0c 13 bd 4f 79 9b be
       -0.17826487 0.08495378 -0.03590028 -0.3036599
000240 88 4d 3c bd ab 06 be be 47 d1 24 be f2 51 9a 3d
       -0.045972377 -0.37114462 -0.16095458 0.07535161
000250 f1 4c 53 bc 76 33 b6 bd c8 d7 89 3d d1 d0 59 be
       -0.012896762 -0.08896534 0.0673061 -0.21271063
000260 12 d5 63 3e 92 29 a1 be 15 e8 75 be dc 10 86 3e
       0.22249249 -0.31477028 -0.24014314 0.26184738
000270 c5 5f d4 3d 19 8e cf be d4 e2 1e 3e 62 06 8f 3e
       0.10369829 -0.405381 0.15516216 0.27934557
000280 85 20 82 3b 9a 74 f5 bd 0f b5 07 3d 5e 7f 94 be
       0.003971162 -0.119851306 0.033131655 -0.29003423
000290 f0 29 a7 3e df 2d f7 bc 17 c2 de 3c ba 40 c8 3d
       0.32649183 -0.03017324 0.027192159 0.097779706
0002a0 b6 cc d6 bd 57 c8 6c bd 33 a9 9b bd 32 e7 cc bc
       -0.10488264 -0.057808246 -0.076006316 -0.025012586
0002b0 33 ac 3b 3d a1 aa 9e 3d 78 dd a7 bd 10 d1 61 3e
       0.04581852 0.07747389 -0.08196539 0.22052407
0002c0 9e d9 83 be 2d 66 82 3b 14 4d 50 3e 50 35 61 3d
       -0.25751966 0.0039794655 0.20341903 0.054982483
0002d0 f3 3d b7 bc 25 fb 3e bd a6 33 da 3d 9d a3 91 3e
       -0.022368407 -0.04662623 0.106543824 0.2844514
0002e0 f3 ec 46 3e 2a 77 2c 3d 1b f3 82 3e a4 e3 50 bc
       0.19426326 0.04210583 0.255761 -0.012749586
0002f0 d5 5c 48 be 71 69 18 3e df 4b 63 3e b2 f7 43 be
       -0.19566663 0.14883973 0.22196911 -0.19137457
000300 87 23 71 bd e4 72 12 3e 69 6c 55 be ad 27 d5 be
       -0.058871772 0.1430164 -0.20842136 -0.41631833
000310 3a a7 e2 bc 66 0c 0c 3b af 91 53 be b1 bb 4d be
       -0.02766763 0.0021369695 -0.20661043 -0.2009113
000320 49 d5 ef bc 0e 1e e6 bd d4 4b 13 3e b7 ea 35 bc
       -0.029276507 -0.11236201 0.14384395 -0.011103324
000330 7a e8 cd bd af 31 0d be 10 24 14 be ae 35 52 3e
       -0.10054107 -0.13788484 -0.14466882 0.2052829
000340 8a 97 fb bd bb d4 f3 3d 0a c0 5d 3e 5a 6e 71 3e
       -0.12284763 0.119058095 0.21655288 0.23577252
000350 d0 d6 d0 3d 73 08 0c 3d 5e 5c 8d bd 7b 05 11 be
       0.10197222 0.034187745 -0.06902383 -0.14162247
000360 8b df 7d 3e 4f 66 44 bc 2a 82 15 bd 55 28 8c 3e
       0.24792306 -0.011987283 -0.036501087 0.2737452
000370 e9 37 74 be bd 33 c3 be c6 50 2e 3e 6b 3b 8b bc
       -0.23849453 -0.3812541 0.17023 -0.016996106
000380 ff 11 c1 3d 9f 79 6f be 07 36 17 3c fe 07 aa 3a
       0.094272606 -0.23386239 0.00922919 0.0012972353
000390 79 c1 aa be 66 05 f2 bc c5 17 6f 3e 8b 55 97 3c
       -0.33350733 -0.02954359 0.23348911 0.018473407
0003a0 61 37 63 3e 8f 34 19 be 00 64 26 be bb 5d d6 3b
       0.22189094 -0.14961456 -0.16249084 0.0065419353
0003b0 10 aa 65 bd b7 29 85 3d 70 e3 81 bd 94 a9 82 be
       -0.056070387 0.06502097 -0.063422084 -0.25520003
0003c0 e6 c8 fe 3d ba bb f5 3d b1 67 85 be 7d e3 5c bd
       0.12440662 0.119986966 -0.26055673 -0.053927887
0003d0 e0 58 17 3e 1a 10 ff 3d e0 ed 66 3e 75 70 3f bc
       0.14779997 0.12454243 0.2255168 -0.011684527
0003e0 f2 bc d9 3d 5a e6 02 3e 55 81 f1 3d c2 1c 47 3e
       0.106317416 0.12783185 0.11792246 0.19444564
0003f0 53 32 52 3e 1b ec 71 3d 2b 1e db bd 1b e4 f0 bd
       0.2052701 0.05906306 -0.106991135 -0.11762258

kp2.mlp.2.bias f4 [32]
000000 c4 26 22 bd 6e e6 7a bd 11 dd 07 bc 45 a1 4c 3d
       -0.03958775 -0.06125491 -0.008292452 0.049958486
000010 6c b4 11 be 34 d6 1c 3e ce e6 48 be 3e 1a bd bc
       -0.14228982 0.15316087 -0.19619295 -0.023083802
000020 8a 9e c4 3d c7 ee 11 ba 23 bb 10 be 33 78 ca bd
       0.096005514 -0.00055668916 -0.14133887 -0.098862074
000030 32 97 e4 bd 44 9e 3e be 20 c1 66 3d f5 19 25 bd
       -0.11161651 -0.18615061 0.056336522 -0.040307958
000040 ba 6a 8b be bc cf e8 bd bf 99 b8 bd fd 33 8c be
       -0.27229863 -0.11367747 -0.090137 -0.27383414
000050 56 ea 64 be ff 2c c4 bd 58 1b 94 3d c3 9d 16 be
       -0.22355017 -0.09578895 0.07231778 -0.14708619
000060 05 cb f0 3d c8 0b d0 3d b4 8d c7 bd 3d f0 dd 3c
       0.11757473 0.10158497 -0.097438246 0.027092094
000070 93 43 5c be a7 3f b3 bd 1b e2 6f 3d 9d 53 b2 3d
       -0.21510153 -0.08752375 0.05856524 0.08707354

head.0.weight f4 [32, 32]
000000 35 b2 2d 3e 0d df b0 3d e1 91 d5 bb f0 bf 25 3d
       0.16962512 0.086362936 -0.0065176343 0.04046625
000010 b7 64 97 3d f7 a8 8f 3d 87 ba 31 bd 09 e1 56 3e
       0.07392257 0.07014649 -0.043390777 0.20984282
000020 bb 63 6d 3e 8e 20 3f 3d b7 a7 96 bd 74 b5 2a be
       0.23182575 0.046661906 -0.07356208 -0.16670781
000030 cf 4a 23 be d9 d8 79 3e eb 1c 72 be 87 97 a0 3d
       -0.15946506 0.24399127 -0.23643844 0.078414015
000040 eb 56 7c bd 76 a3 ec bc b3 5e 44 3e f4 2c 3e 3e
       -0.06160633 -0.028886538 0.1917675 0.18571836
000050 2b 14 90 3d 78 06 94 3d 31 8f 06 be 51 3a a1 3e
       0.07035097 0.07227796 -0.1314056 0.31489804
000060 75 45 bf bd e5 68 96 3e af c7 84 3d 9f 76 d3 bd
       -0.0933942 0.29376903 0.06483399 -0.103253596
000070 33 7a 0d 3a e4 1a 6e bc 20 24 d9 3e 5e 7e 42 3d
       0.0005396932 -0.014532778 0.42410374 0.047483794
000080 93 94 df 3c b8 91 eb 3c c3 5b 37 3d 9d 94 f2 3d
       0.027292525 0.028756008 0.044765245 0.11844752
000090 fa f9 07 3e 7a 59 a3 bd 43 23 30 3e ee 8a 47 be
       0.13278952 -0.07976051 0.17200951 -0.19486591
0000a0 31 4c 7a 3d 05 90 1e 3e ec 07 3a 3e f5 68 c4 bd
       0.061107818 0.15484627 0.18167084 -0.095903315
0000b0 37 42 be 3c 3b 2d 0f bd d6 8c 0b be fb 13 60 3d
       0.023224933 -0.034955245 -0.13627943 0.054706555
0000c0 56 12 3f 3c 17 77 01 3e 17 53 94 bd 70 b4 14 be
       0.0116620865 0.12643085 -0.07242411 -0.14521956
0000d0 c8 12 d6 ba cb a7 f9 3d 77 ba 7c bd da e9 be bd
       -0.0016332502 0.12190207 -0.061701264 -0.093219474
0000e0 81 37 f7 bd de 1b ca 3d 37 76 4b bd 9d 07 43 ba
       -0.120711334 0.098685965 -0.049673285 -0.0007439794
0000f0 53 e6 39 3e 4e 13 bc 3d 21 0a 3d be 65 b2 47 be
       0.18154268 0.091833696 -0.18460895 -0.19501646
000100 49 88 1c 3d 8f f0 4e be a3 c2 8f bd 61 bd 3b 3d
       0.03821591 -0.20208953 -0.07019546 0.045834903
000110 2e 60 79 be 20 89 31 be 51 58 d3 be cb a4 61 3d
       -0.24353096 -0.17337465 -0.41278318 0.0550888
000120 c7 c8 1e 3e 32 eb 83 3e 64 61 85 be ba ba 4e be
       0.15506278 0.25765377 -0.26050866 -0.20188418
000130 4f 06 51 be 76 9a e7 3a 97 53 99 be b2 f0 e8 3d
       -0.20412563 0.0017669934 -0.29946586 0.11374034
000140 14 a1 8e be 87 ae 06 be e2 aa ce 3c 18 d3 61 be
       -0.27857268 -0.13152514 0.025227968 -0.22053182
000150 4e 38 86 bd 5e 43 ef be 9d 9f 24 3e 41 44 89 bc
       -0.06553708 -0.46731085 0.16076513 -0.016756179
000160 30 cd 92 3e 70 9c 20 be c0 aa 4a be 1d fe 4a 3e
       0.2867217 -0.15684676 -0.19791698 0.19823499
000170 9f b6 97 be 8c cc 1d be 07 d7 cd be de 6f 8f bd
       -0.29631516 -0.1541006 -0.40203115 -0.07003759
000180 0c dc fc bc 38 f6 cd bd d1 ec 94 be 3d db 15 3e
       -0.030866645 -0.10056728 -0.29086927 0.14634414
000190 8d 47 85 be cd b0 a3 3d f3 7d c8 be b6 7b 13 bc
       -0.2603115 0.079927064 -0.39158592 -0.009001663
0001a0 6a 42 3d 3e 36 f2 09 3e 7c e0 63 be ec 20 76 be
       0.18482366 0.13471302 -0.22253603 -0.24035996
0001b0 72 0b 3f bd 6e e6 33 3d 6a 46 b9 be e2 c6 78 bd
       -0.046641774 0.043920927 -0.36186534 -0.060736544
0001c0 a2 c0 4b be 9e d3 33 be be 92 92 be 51 f8 11 be
       -0.19897702 -0.17561194 -0.2862758 -0.14254881
0001d0 d5 61 ff bd 10 20 08 bf 57 01 9f 3c ab 5f 0b be
       -0.12469832 -0.53173923 0.019409819 -0.13610713
0001e0 f1 cc 73 3e 41 1a 98 bd 4e 5e 99 3c bf 17 70 3e
       0.23808648 -0.074268825 0.018721726 0.23446558
0001f0 71 5f a9 be 5b e7 99 be 2a 13 6b be c7 97 19 3d
       -0.3308063 -0.30059323 -0.2295653 0.03749826
000200 7f 5f 40 bd 97 87 7d bd 05 75 bc 3e e1 10 cb bd
       -0.046966072 -0.061896887 0.3680803 -0.09915329
000210 22 bc 7d 3e b3 51 3f 3e a3 65 7e bc c6 ae f2 bd
       0.24778798 0.1868351 -0.015527162 -0.11849742
000220 32 14 17 3e ac 03 e6 bc ba 29 03 3e 61 63 0c 3e
       0.14753798 -0.028077923 0.12808886 0.13709785
000230 e5 11 17 bd df 96 38 bd 33 24 b7 3e df ba d7 bc
       -0.0368823 -0.045065757 0.35769805 -0.026334224
000240 87 ed eb 3c ee 01 b6 bd 41 21 4c 3e 13 02 36 3d
       0.028799785 -0.08887087 0.1993456 0.044435572
000250 d6 b8 33 bd c7 73 a1 3d 37 85 dd bc 19 cb 94 3d
       -0.043877445 0.07883411 -0.02704106 0.072653
000260 7c b8 a9 bc 00 a9 36 be 65 a2 e7 3d 49 51 ba 3d
       -0.020717852 -0.17837906 0.11310271 0.09097535
000270 db 4d 2a 3e 10 ef 53 3e bf 9a 48 3d bb 67 23 be
       0.16631262 0.20696664 0.048975702 -0.15957539
000280 66 b7 83 bd 41 a4 c0 bd ab 2c 31 3e dc d2 a3 bc
       -0.06431465 -0.09406329 0.17302196 -0.019998007
000290 6f e2 fb 3c 62 a5 c2 3d 91 61 16 bd 48 6b 9f bc
       0.03074762 0.095042005 -0.03671414 -0.019460335
0002a0 93 4f 36 3e ab ee 2b bc eb 75 6e 3d 34 2b 28 3e
       0.17803793 -0.010493915 0.058217924 0.1642273
0002b0 a2 b9 7d bd 24 fe 3d 3e 86 5a c0 3c a5 b8 07 be
       -0.06194461 0.18553978 0.023480665 -0.1325403
0002c0 d5 e7 fc 3d 25 57 60 bd 93 f9 8b bd 80 3b 4c 3d
       0.12348906 -0.054770608 -0.06834712 0.04986143
0002d0 f5 d6 30 be 59 d6 2e 3e e4 f2 62 bd 9b 78 e7 3b
       -0.172695 0.17073955 -0.05540742 0.007063938
0002e0 94 6b 65 3d d7 9b 49 3d de fc c8 bd 97 eb e6 3c
       0.056010798 0.049220886 -0.098138556 0.02818851
0002f0 53 ef 46 3e d6 98 d3 bd d0 2b 2d bd 29 af 20 3e
       0.19427232 -0.103318855 -0.04227811 0.15691818
000300 e1 e1 1e bd b7 7b af 3d cc 61 3e be 3a fd e5 3d
       -0.038789634 0.085685186 -0.18591994 0.1122994
000310 37 72 9d be 1d a7 57 3e 7e 4a f6 bd a2 e0 48 3e
       -0.30751202 0.21059842 -0.12025927 0.1961694
000320 d8 c9 59 bd 74 4f 93 3e c6 75 f7 bd 6a 16 3d be
       -0.05317101 0.28771555 -0.120830104 -0.18465582
000330 e2 7e 3e be bc 89 21 3d 8f c9 1b be 1a 96 13 3e
       -0.1860309 0.039437994 -0.15213607 0.14412728
000340 55 fe 09 be 4d 04 5e bd 0c ec e1 bd a8 9a 83 bc
       -0.13475926 -0.05420332 -0.110313505 -0.016064957
000350 6c 77 c4 bd 08 04 e5 be 06 34 34 3e d5 ca 97 bd
       -0.095930904 -0.44729638 0.1759797 -0.07411734
000360 07 cb 01 3e dd ca 3d 3e ce 15 54 bd 04 f4 f2 3d
       0.12675105 0.18534417 -0.051778607 0.118629485
000370 d2 f5 f4 bd 72 70 11 be 53 ef e8 3d 1f 7c 21 3b
       -0.11960949 -0.1420305 0.113737725 0.0024640632
000380 16 1f 47 be ad 64 26 bd e4 e2 12 bd 1d 81 15 be
       -0.19445452 -0.040623356 -0.03586091 -0.14600034
000390 5f e6 ba 3c ec ae 1e be 58 77 ef bd b1 13 4d bd
       0.022814928 -0.15496415 -0.11692685 -0.050067607
0003a0 f7 7f 08 bd e9 72 cf bd b5 7e a0 3d af b0 d4 bd
       -0.03332516 -0.10129339 0.078366674 -0.10385262
0003b0 70 00 cb 3c 61 a9 60 3c 38 87 e2 bc b4 a0 06 3e
       0.024780482 0.013712258 -0.027652368 0.13147241
0003c0 b2 84 d2 3d 5a bf 18 bc 0b e8 6c ba b9 a7 06 3e
       0.10279216 -0.0093229655 -0.00090372626 0.13149919
0003d0 db a0 05 3e eb 19 78 bc a7 7d e2 bd eb c2 32 3d
       0.13049643 -0.015142898 -0.110591225 0.04364292
0003e0 a9 1f f9 bd da fc 1b 3e a2 0d ed bd 14 d8 b6 bd
       -0.12164242 0.15233174 -0.11574866 -0.089279324
0003f0 4f 1e 13 be 7a 95 e9 bd ed 4f 2b bd c6 9a 17 3d
       -0.1436703 -0.114054635 -0.04182427 0.037012838

head.0.bias f4 [32]
000000 f5 39 69 3c 2f 2a 13 be b2 9f 87 3e e3 7f b0 3e
       0.014235009 -0.1437156 0.26489025 0.3447257
000010 60 21 b2 bd 95 94 13 be 4e e7 97 3d 9e 24 ca 3d
       -0.08697772 -0.14412148 0.07417165 0.098702654
000020 d1 b8 1f 3e 03 8a 78 3d 7f 60 54 3e f0 53 a2 bd
       0.15597846 0.060678493 0.20739935 -0.07926166
000030 df 8c 68 bd c3 0c a0 3e 4b b8 8e bd 4d 11 4d 37
       -0.05677497 0.31259736 -0.06968745 1.222298e-05
000040 79 82 c0 bb 81 80 13 3e 2d 85 55 be e0 36 1c 3c
       -0.0058749286 0.14404489 -0.20851584 0.009534568
000050 bd b4 09 3e 4c 02 10 3d a2 38 7b 3d cc c3 3f be
       0.13447852 0.03515844 0.061333306 -0.18727034
000060 5f 72 81 bd 3c a2 91 3d 89 25 6b bc c9 ee 87 3d
       -0.06320643 0.07111022 -0.014352211 0.066373415
000070 5c ff 22 bd d8 a3 3e bd c8 0f 82 3e 34 1f b9 3d
       -0.03979431 -0.046542972 0.25402665 0.09039155

head.2.weight f4 [3, 32]
000000 31 f3 75 3d 9b 86 38 3c 72 40 b5 3b 91 d4 e4 bd
       0.06004638 0.011262561 0.005531364 -0.11173356
000010 6e 18 b2 3e 44 fc f7 3d be ba 4d 3c a5 a2 12 be
       0.34784263 0.12108663 0.01255673 -0.14319856
000020 73 75 27 3d 5f 88 20 be d6 ed 0b be 2f 0c e6 3d
       0.040883493 -0.15677021 -0.13664946 0.112327926
000030 46 1a 23 bd 10 51 c1 be e2 c0 9f bd 99 c0 91 bc
       -0.03981998 -0.37757158 -0.07800461 -0.017792033
000040 7f e6 c4 bb ef 02 ad bc 1e 40 04 3c 94 c5 76 3e
       -0.0060089226 -0.021119563 0.008071927 0.24098808
000050 be 4c be 3e 22 92 3b 3f 6e 88 5a be 7c ef 99 3e
       0.37167925 0.73269856 -0.21341106 0.30065525
000060 7e d8 97 3e ad ab d4 3c 47 b5 16 be 1d 8f 30 3e
       0.29657358 0.025960768 -0.1471759 0.17242093
000070 05 5d ca 3d 85 55 7c 3e 48 3f b3 be 7b bd de bd
       0.09881023 0.24641998 -0.35009217 -0.10875984
000080 71 97 4c bd 1a 29 eb 3a bc 0e b3 be f1 92 f5 be
       -0.049949113 0.0017941326 -0.3497218 -0.4796367
000090 e9 b7 0c be 7d 10 0c be 20 87 86 be ad 80 94 3c
       -0.13742031 -0.13678165 -0.26274967 0.018127764
0000a0 6f 9f 5d be 12 07 8f be b5 c2 95 be c3 af 08 3e
       -0.2164285 -0.27935082 -0.29250112 0.13348298
0000b0 26 e0 10 3e e3 cb db 3e bd 97 fd 3d 9a c3 a2 3d
       0.14148006 0.4292899 0.123824574 0.07947464
0000c0 63 a9 02 3e ca 5c 54 3e a7 c1 67 3e b6 00 81 bd
       0.12759928 0.20738521 0.22632466 -0.06298964
0000d0 5e 01 56 be fb cc 18 bf ce 55 3c be 31 5c 51 3e
       -0.20898959 -0.59687775 -0.18392107 0.20445324
0000e0 88 ac 44 3e f6 23 8e be 05 e1 19 3e fa f6 d5 bd
       0.1920644 -0.2776181 0.15027244 -0.10447498
0000f0 85 a4 15 be d9 ff 5c 3d 4a 45 95 3e 4c e4 d4 3d
       -0.1461354 0.053954933 0.29154426 0.10395107
000100 93 93 65 be 6c b5 d1 3d 3f 36 73 3e a2 9f ac 3d
       -0.22419576 0.102396816 0.23751162 0.08428885
000110 8b 72 46 bc 38 1e c2 bb 21 61 bc bc 89 99 42 bd
       -0.01211227 -0.0059240125 -0.022995533 -0.047509704
000120 d1 7b 84 bd 8d c3 ae 3e 49 b1 9e 3e 01 b7 27 3e
       -0.064689286 0.34133568 0.30994633 0.16378404
000130 80 ba b2 bd a8 06 8f 3e d7 8a 90 ba 52 b6 22 3e
       -0.08726978 0.27934766 -0.0011027706 0.15889862
000140 b9 2e 68 be 9e 4a d4 be ac 28 bc be db 72 cd bd
       -0.22674073 -0.41463178 -0.3674978 -0.100316726
000150 1b 4c 0a 3d a0 aa 3d bc 90 e1 a8 3e bb ad a7 be
       0.033763986 -0.011576325 0.3298459 -0.32749733
000160 be e4 9f be 05 78 c1 bd b1 cc ab 3b 5a 29 c5 3d
       -0.31229204 -0.0944672 0.005242907 0.09627028
000170 0d 2c a3 be 53 9d 9b be 92 48 01 3f a7 74 86 3e
       -0.31869546 -0.30393466 0.5050136 0.26260874

head.2.bias f4 [3]
000000 e0 3b 61 bd 17 31 f7 3d ae 17 d1 3b
       -0.054988742 0.1206991 0.0063809967
