checkpoints_kpconv_24nov/checkpoint_epoch_24_24nov.pth (torch, 19297 bytes, 14 tensors)

fc0.weight f4 [8, 3]
0	0x3e36d52b	0.17854755
1	0xbe9221e6	-0.28541487
2	0xbe9f094c	-0.3106178
3	0xbed4a9fc	-0.41535938
4	0x3e629cf1	0.22130181
5	0x3e72e371	0.23719575
6	0xbd4e180d	-0.050315905
7	0xbd280413	-0.04101951
8	0xbe8e2b69	-0.27767494
9	0x3ec1999a	0.378125
10	0xbe86b2f5	-0.26308408
11	0xbd884503	-0.06653788
12	0xbc2b7db5	-0.010466983
13	0x3e852a3c	0.26008785
14	0x3e9d45d0	0.30717325
15	0xbd6aa7fc	-0.05728911
16	0x3e97ef70	0.29674864
17	0x3e9dcea8	0.3082173
18	0xbeae5277	-0.3404729
19	0xbd7775af	-0.060414966
20	0x3e925d78	0.28586936
21	0x3e4ead26	0.20183238
22	0x3d70c17f	0.058778282
23	0xbea81d5d	-0.32834902

fc0.bias f4 [8]
0	0x3ed383fb	0.4131163
1	0x3ee3b4f7	0.44474003
2	0x3eb69963	0.356639
3	0xbe91861e	-0.28422636
4	0x3f190b0e	0.59782493
5	0xbef9acd7	-0.4876468
6	0x3d385dbc	0.045011267
7	0xbd76bd51	-0.06023914

kp1.mlp.0.weight f4 [16, 11]
0	0x3f3c494b	0.73549336
1	0xbe39919b	-0.1812195
2	0xbe46719a	-0.19379273
3	0xbdbeb4e9	-0.093118496
4	0x3e9ea268	0.3098328
5	0x3d6f5220	0.05842793
6	0x3e771bac	0.2413165
7	0xbdebd247	-0.115147166
8	0xbdd6c705	-0.10487179
9	0xbe27b31f	-0.16376923
10	0x3e80f86b	0.25189528
11	0x3eb1826f	0.34669825
12	0x3e0b672c	0.13613576
13	0x3c7a3b84	0.015272979
14	0xbd5ef126	-0.054429196
15	0xbdddf304	-0.10837367
16	0x3e726867	0.23672639
17	0xbcd9493a	-0.026524175
18	0xbb805f91	-0.0039176424
19	0xbdf69655	-0.12040392
20	0xbe059ccc	-0.13048095
21	0x3e2566cd	0.16152497
22	0x3f46eca6	0.77704847
23	0xbf45cf2b	-0.7726924
24	0x3e9a6f00	0.3016281
25	0x3d3ba4ca	0.045811452
26	0xbe2cb301	-0.1686516
27	0x3e1b9d4c	0.15196723
28	0x3df3cab9	0.11903901
29	0x3e3a41dd	0.18189187
30	0xbe185097	-0.14874493
31	0x3e8fd996	0.28095692
32	0xbe3b59e0	-0.18296003
33	0x3f16c658	0.588964
34	0xbc97ed90	-0.018545896
35	0x3cf77de3	0.030211395
36	0xbde4b2d1	-0.11166919
37	0xbe5b822a	-0.21436372
38	0xbd4c16a9	-0.049826298
39	0x3e42c467	0.19020234
40	0x3d9f3bc2	0.0777507
41	0xbe353264	-0.17695004
42	0xbe27283b	-0.1632394
43	0xbe245c1f	-0.16050766
44	0x3d41e55b	0.04733787
45	0xbf20d68d	-0.6282738
46	0x3e75e4d8	0.24013078
47	0x3e650c38	0.22367942
48	0x3e225274	0.15851766
49	0xbe4be614	-0.19911987
50	0xbd8fac90	-0.070153356
51	0x3e0a8598	0.13527524
52	0xbbfb32a5	-0.0076659494
53	0x3d011ee7	0.03152361
54	0x3e015a4b	0.126321
55	0xbe3c5275	-0.1839083
56	0xbc256227	-0.010094202
57	0xbe70818a	-0.23486915
58	0x3e0762e4	0.13221318
59	0xbd30431e	-0.043032758
60	0xbe7356e7	-0.2376362
61	0xbe97b20b	-0.29628024
62	0xbe5c9101	-0.2153969
63	0xbe580e94	-0.21099311
64	0x3e464f0e	0.19366094
65	0xbe93a09e	-0.2883348
66	0xbf7f10d1	-0.99635035
67	0xbf657dee	-0.8964528
68	0x3dba59ff	0.09099197
69	0xbc870185	-0.016480217
70	0xbe2c76b2	-0.16842154
71	0x3e3e72e6	0.18598518
72	0x3e030681	0.1279545
73	0x3eafe0cc	0.34351194
74	0xbd3cfe20	-0.04614079
75	0x3e52c398	0.20582426
76	0xbdc8f17a	-0.09811683
77	0xbe8051f7	-0.25062534
78	0xbf0fbac3	-0.5614435
79	0x3ed28e05	0.41123977
80	0xbddce98c	-0.10786733
81	0x3d063bef	0.032772
82	0x3a50b92b	0.00079621625
83	0x3e348b45	0.17631252
84	0xbe65cd8d	-0.22441693
85	0x3e43bf1f	0.19115876
86	0x3d8e341b	0.06943532
87	0x3e6e6326	0.2328001
88	0x3eb58423	0.35452375
89	0xbec56f0f	-0.38561293
90	0xbf382594	-0.7193234
91	0xbd7d5969	-0.061852846
92	0xbd8eb1a8	-0.06967479
93	0x3e4b33fa	0.19844046
94	0xbd1ae778	-0.037818402
95	0xbe072893	-0.13199072
96	0x3dfc2fc9	0.12313802
97	0xbd7a0191	-0.06103665
98	0x3ac3bd24	0.0014933688
99	0xbf5021b7	-0.81301445
100	0xbe039d2b	-0.12852924
101	0x3d8428a8	0.06453067
102	0x3e7e7576	0.24849495
103	0x3e084815	0.13308747
104	0xbd133ab1	-0.035944644
105	0xbe2756cd	-0.16341706
106	0xbe46c6a1	-0.19411708
107	0x3e1f527f	0.15558814
108	0x3e1f2e17	0.15544926
109	0x3e26cc42	0.16288856
110	0x3eb25341	0.34829143
111	0xbf0d684c	-0.5523727
112	0xbd415c64	-0.04720725
113	0x3d3fc61e	0.0468198
114	0xbe74bc64	-0.2389999
115	0xbdcee7ca	-0.10102804
116	0xbe1eebb0	-0.15519595
117	0x3e2aef06	0.16692743
118	0xbd9d14a1	-0.0766995
119	0x3d86d406	0.06583409
120	0x3e223469	0.15840305
121	0x3f3b780b	0.73230046
122	0xbf672595	-0.9029172
123	0x3ecd086f	0.40045497
124	0x3d8062a1	0.06268812
125	0x3e70bb38	0.23508918
126	0x3ea7ae0a	0.3274997
127	0x3e862c92	0.2620588
128	0xbe6cadd8	-0.23113191
129	0x3e82e72e	0.25567
130	0xbe1b6cbb	-0.15178196
131	0x3d4cbae8	0.049982935
132	0x3f55db43	0.8353769
133	0xbf56c3e1	-0.8389264
134	0xbe005120	-0.12530947
135	0x3dc56dd2	0.09640087
136	0x3c83e2fa	0.016099442
137	0x3e95b488	0.29239297
138	0xbdb616b6	-0.088910505
139	0x3d8ed1b1	0.06973589
140	0x3dd081fb	0.10181042
141	0xbd967a81	-0.073475845
142	0x3e053662	0.13009027
143	0xbf0d7c6d	-0.55267984
144	0x3f2140f7	0.62989753
145	0xbc014239	-0.007889324
146	0x3e9147fe	0.28375238
147	0x3e2e96e1	0.17049743
148	0xbdf509a5	-0.1196473
149	0x3e5562fb	0.2083854
150	0x3e82bc3d	0.2553424
151	0xbdad3e2e	-0.084591255
152	0x3e880e80	0.26573563
153	0xbe67c544	-0.22633845
154	0x3f0a2b62	0.53972447
155	0x3f3b5633	0.73178405
156	0x3e433866	0.19064483
157	0xbc8270ab	-0.015922865
158	0xbe0c1a12	-0.1368182
159	0x3e313d99	0.17308654
160	0x3e413997	0.18869625
161	0x3e4a6f2d	0.19768973
162	0x3d4a3049	0.049362455
163	0x3df704f7	0.12061494
164	0x3e90e48a	0.2829936
165	0x3dadc5be	0.08484982
166	0x3ed51c6f	0.41623256
167	0x3db35ed2	0.0875832
168	0xbe83ba5a	-0.25728112
169	0xbef7749e	-0.4833116
170	0xbe35b6f2	-0.1774557
171	0x3e3c8f04	0.18413931
172	0x3d28547e	0.041096203
173	0xbe96de90	-0.29466677
174	0x3e456d20	0.19279909
175	0xbd86b97c	-0.06578347

kp1.mlp.0.bias f4 [16]
0	0xbba19572	-0.0049311453
1	0xbd4569de	-0.048196666
2	0x3e8d3580	0.2757988
3	0xbeaebbfe	-0.34127802
4	0xbed279c5	-0.41108528
5	0xbd784bcf	-0.06061917
6	0x3bbc5f81	0.0057486896
7	0xbc35de37	-0.011100343
8	0xbd9ea1ad	-0.07745681
9	0xbdd6fbad	-0.10497222
10	0x3e132fe1	0.14373733
11	0xbdc937c7	-0.09825092
12	0x3e90e1db	0.28297314
13	0x3dc986fe	0.09840201
14	0x3ec10483	0.37698755
15	0x3e280f34	0.1641205

kp1.mlp.2.weight f4 [16, 16]
0	0x3dfad9da	0.12248583
1	0xbe272a94	-0.16324836
2	0x3dd06af8	0.10176653
3	0x3d03b22d	0.032152344
4	0x3e86f294	0.26356947
5	0xbd8ec7a1	-0.0697167
6	0x3e86556d	0.2623705
7	0x3c5af442	0.0133639
8	0xbf0428b7	-0.51624626
9	0x3de4708d	0.1115428
10	0x3c3250f8	0.010883562
11	0x3e8778c2	0.26459318
12	0x3e4c87fa	0.19973746
13	0xbe79d4c6	-0.24397573
14	0xbbd0490f	-0.0063563655
15	0xbd8850d7	-0.06656044
16	0xbd14ad81	-0.03629828
17	0x3d172379	0.036899064
18	0x3a94d498	0.0011354862
19	0x3ce28659	0.027651953
20	0x3e57261a	0.21010628
21	0x3e1a518c	0.1507017
22	0x3e7ce9ee	0.24698612
23	0x3e493d8d	0.19652386
24	0x3e1f9b6f	0.15586637
25	0xbc235fa0	-0.009971529
26	0xbe53ade3	-0.20671801
27	0x3e044c01	0.12919618
28	0xbe5a6c23	-0.21330313
29	0xbe5318dc	-0.20614952
30	0xbd338636	-0.043829165
31	0x3e10994f	0.14120983
32	0xbe714476	-0.23561272
33	0xbe37ce6f	-0.17949842
34	0xbe02eaa7	-0.12784825
35	0x3d10040c	0.03516011
36	0xbdc126de	-0.094312415
37	0xbd02d1fd	-0.03193854
38	0x3d91822d	0.07104907
39	0x3e445787	0.19174014
40	0x3eb9655c	0.36210144
41	0x3e4ddd01	0.20103838
42	0x3e7946a8	0.2434336
43	0x3d2eded7	0.042692985
44	0x3d15bf89	0.036559615
45	0xbd31e2d6	-0.04342922
46	0x3d7e827c	0.06213616
47	0xbdf560fb	-0.11981388
48	0xbe45f1be	-0.19330499
49	0xbdaf6f32	-0.08566131
50	0x3da7c8d8	0.08192605
51	0x3e01d3f2	0.12678507
52	0xbcb76c35	-0.022390464
53	0xbd8beaed	-0.06831918
54	0x3ee603bc	0.44924724
55	0xbda828ea	-0.08210929
56	0xbebd6cc5	-0.36997047
57	0x3e1b40dc	0.1516146
58	0x3da594a3	0.08084991
59	0xbd5efcea	-0.054440416
60	0x3e619706	0.22030267
61	0x3da07c1d	0.07836173
62	0xbe4872dd	-0.19575067
63	0x3decaf68	0.115568936
64	0x3e8e881d	0.2783822
65	0x3e5297c2	0.20565704
66	0x3e7b1876	0.2452105
67	0xbd88c06e	-0.06677328
68	0xbe03b72a	-0.1286284
69	0x3da6923f	0.08133363
70	0xbe3cb996	-0.1843017
71	0x3dd3ca8d	0.10341368
72	0xbe9a1892	-0.3009687
73	0xbe723416	-0.23652682
74	0x3d5b69ce	0.0535677
75	0xbdcd8a7c	-0.100361794
76	0x3eb5a075	0.35473981
77	0xbe166ddf	-0.1469035
78	0xbd911e35	-0.0708584
79	0x3e7f9fd3	0.24963312
80	0x3e12f3d3	0.14350824
81	0x3c9429fe	0.01808643
82	0xbd7469d1	-0.059671227
83	0xb7c2889e	-2.319022e-05
84	0xbeca7860	-0.39544964
85	0xbe0e56b0	-0.13900256
86	0xbe0d36b8	-0.13790405
87	0xbcefa800	-0.029254913
88	0x3e900c0f	0.281342
89	0x3e0fac16	0.1403049
90	0x3e6a83d8	0.22901857
91	0xbcb0f358	-0.02160041
92	0x3e60bb48	0.21946442
93	0x3de58cfd	0.11208532
94	0x3e2c2800	0.16812134
95	0xbda8921f	-0.082309954
96	0xbe028f65	-0.12750013
97	0xbd2e979c	-0.042625055
98	0x3de77b1d	0.11302779
99	0xbe6f3cf1	-0.23363091
100	0xbe7d002b	-0.24707095
101	0xbde2184c	-0.110397905
102	0x3eb97b11	0.36226705
103	0x3e38b77f	0.18038748
104	0xbe9641ec	-0.2934717
105	0x3e6cedf9	0.23137654
106	0x3e260adb	0.16215079
107	0xbe39c820	-0.18142748
108	0xbc9e6b53	-0.019338286
109	0x3d876160	0.0661037
110	0x3e120b6e	0.14262173
111	0xbda02beb	-0.07820877
112	0x3c852305	0.01625205
113	0x3d1c9d42	0.03823591
114	0x3e1f2698	0.15542066
115	0x3e618c9e	0.22026297
116	0xbe06a0c6	-0.13147268
117	0x3d5cd091	0.053909842
118	0x3e54e83c	0.20791715
119	0x3e51d1fe	0.20490262
120	0xbe8535c7	-0.2601759
121	0x3e3eeee5	0.18645819
122	0xbdc62f7e	-0.09677027
123	0x3db2ce3b	0.087307416
124	0x3e1de514	0.15419418
125	0x3d3fb73f	0.046805616
126	0xbe77ecf2	-0.24211481
127	0x3d4aa9be	0.049478285
128	0x3c302392	0.010750668
129	0xbdbfafbd	-0.09359691
130	0xbe88fc24	-0.26754868
131	0x3de7d3f5	0.113197245
132	0xbd8f9817	-0.07011431
133	0x3e0354ee	0.12825367
134	0xbde0082a	-0.10939057
135	0xbe630a07	-0.22171794
136	0xbdc260d9	-0.094911285
137	0x3d2b1c2a	0.041774906
138	0x3d575831	0.05257434
139	0xbd73132c	-0.059344456
140	0xbeacb693	-0.33733043
141	0xbd52a24f	-0.05142432
142	0xbe1f676e	-0.15566799
143	0x3e624ead	0.22100325
144	0xbcc33e6a	-0.023833472
145	0xbd144fc2	-0.036208875
146	0xbdbe2bf4	-0.09285727
147	0x3cfce8cd	0.030872727
148	0xbe0194ce	-0.1265442
149	0xbd893089	-0.066987105
150	0x3e9ce31b	0.30642018
151	0x3e842f98	0.2581756
152	0x3ef64b28	0.48104215
153	0xbdbcf6c7	-0.092267565
154	0xbc33e331	-0.01097946
155	0xbd96e6eb	-0.07368263
156	0xbdb88088	-0.090088904
157	0x3d7f3959	0.06231055
158	0xbe82106e	-0.2540316
159	0x3de5634d	0.11200581
160	0xbe09190f	-0.13388465
161	0xbd34d369	-0.04414693
162	0x3e5d11ad	0.21588774
163	0x3e380744	0.17971522
164	0x3e86eefe	0.26354212
165	0x3e0435a8	0.12911093
166	0x3d703bea	0.05865089
167	0x3dc24c17	0.09487169
168	0xbea46075	-0.3210484
169	0xbe6ac15d	-0.22925325
170	0x3e2d5678	0.16927516
171	0x3e212ea6	0.15740451
172	0x3d04af06	0.032393478
173	0xbdd686f9	-0.10474963
174	0xbe5ed1ca	-0.21759716
175	0xbdbf2428	-0.09333068
176	0xbe1c115b	-0.15240996
177	0xbe6265f8	-0.2210921
178	0x3dd7b14a	0.10531862
179	0x3e5c6c4b	0.21525685
180	0x3c7be717	0.01537492
181	0xbe7c4610	-0.24636102
182	0xbe8b44e1	-0.27200988
183	0xbe7b6f6c	-0.24554223
184	0xbe7e268d	-0.24819393
185	0x3da31adb	0.07964107
186	0x3e15c5cb	0.14626233
187	0xbe756260	-0.23963308
188	0xbeac54e7	-0.33658525
189	0x3d4e7260	0.050402045
190	0x3e80e2d7	0.25173065
191	0xbda6de80	-0.08147907
192	0xbe02a1a5	-0.12756975
193	0xbd9455c6	-0.072429225
194	0x3e51a6b1	0.20473744
195	0x3e1d439e	0.15357825
196	0x3e7bf140	0.24603748
197	0x3d00f18c	0.031480357
198	0xbebe7356	-0.3719737
199	0xbe63d495	-0.22249062
200	0xbf44caa7	-0.7687172
201	0xbe009003	-0.12554936
202	0x3e1daa9a	0.1539711
203	0xbe2368e1	-0.15957977
204	0x3dfd09e2	0.123554006
205	0xbcf2d3fa	-0.029642094
206	0xbdf5bd7b	-0.11999031
207	0xbd7485d3	-0.059697937
208	0x3e76cdb4	0.24101907
209	0x3e20644d	0.15663262
210	0x3e5bd22b	0.21466891
211	0x3da8dc35	0.08245126
212	0x3d1e641e	0.038669698
213	0xbe35829a	-0.17725602
214	0xbe80ba2b	-0.25142035
215	0x3c98e83a	0.018665422
216	0xbf201e0d	-0.62545854
217	0x3e247ef8	0.1606406
218	0x3cbf7a46	0.023373734
219	0x3e8f61d7	0.28004333
220	0x3e914bae	0.28378052
221	0xbdc9d070	-0.098542094
222	0x3c64512c	0.0139353685
223	0xbe536ee5	-0.20647772
224	0xbe16ebb5	-0.14738353
225	0x3e1bafa7	0.15203725
226	0xbd947478	-0.07248777
227	0xbe0bf8ec	-0.13669175
228	0x3e387ee9	0.18017162
229	0x3de656d5	0.11247031
230	0x3ea19578	0.31559348
231	0x3d97ddea	0.074153736
232	0xbd31f2c2	-0.043444403
233	0xbd9c6420	-0.07636285
234	0xbe20262f	-0.15639566
235	0xbdb267d8	-0.08711213
236	0xbe9cb185	-0.30604187
237	0xbcc05fb9	-0.023483144
238	0xbd84f4ef	-0.0649203
239	0xbe2d4e6d	-0.16924448
240	0x3e480786	0.1953412
241	0xbdc09de5	-0.09405116
242	0xbe9c952a	-0.30582553
243	0xbc87c55a	-0.016573597
244	0x3d4762d8	0.04867825
245	0x3e354f9a	0.17706147
246	0xbde55f8f	-0.11199867
247	0xbcd00ef9	-0.025397765
248	0x3deeec38	0.11666149
249	0xbe1cc47e	-0.15309331
250	0xbe05d2ba	-0.13068667
251	0xbe63a457	-0.2223066
252	0xbe80b071	-0.25134614
253	0xbd9600c2	-0.07324363
254	0xbe52b80b	-0.2057802
255	0xbaaa5927	-0.001299654

kp1.mlp.2.bias f4 [16]
0	0xbd9c285a	-0.07624884
1	0xbe8c7def	-0.2743983
2	0xbe83903c	-0.2569598
3	0x3da65e8c	0.08123502
4	0x3c7626b3	0.015023875
5	0x3e724792	0.23660114
6	0x3e6713f4	0.22566205
7	0xbe19d9bc	-0.15024465
8	0xbe1b4266	-0.15162048
9	0x3d341bb3	0.04397173
10	0xbe7c327d	-0.24628635
11	0xbea212cf	-0.31654975
12	0x3d8adedd	0.06780789
13	0x3e29669e	0.16543052
14	0xbe9e553c	-0.30924404
15	0xbd512f9b	-0.05107079

kp2.mlp.0.weight f4 [32, 19]
0	0x3dad6c05	0.08467869
1	0xbdc58e03	-0.09646227
2	0xbbd9459a	-0.0066306116
3	0xbdb8df15	-0.090269245
4	0xbe282058	-0.16418588
5	0x3e06e42f	0.13172983
6	0xbdac9b17	-0.084280185
7	0xbe453460	-0.1925826
8	0xbe3a6089	-0.18200888
9	0xbdf0e7a0	-0.11762929
10	0xbe638666	-0.22219238
11	0xbccfcbc5	-0.02536572
12	0xbd4cd309	-0.050005946
13	0xbe1c8191	-0.152838
14	0xbe2d8a53	-0.16947298
15	0x3e54a4c0	0.20765972
16	0x3d63bfaf	0.055602726
17	0xbdce6bef	-0.100791804
18	0x3dc00ac4	0.093770534
19	0x3f529b17	0.822679
20	0xbd8f7395	-0.070044674
21	0xbf173773	-0.59068984
22	0xbda8a8eb	-0.082353435
23	0xbe7d837a	-0.24757186
24	0xbdafee7c	-0.08590409
25	0xbdab376e	-0.08360182
26	0xbe3df645	-0.18550976
27	0xbd9bbee4	-0.07604769
28	0x3daa6c7a	0.083214715
29	0x3d87bb29	0.06627495
30	0xbdf6fdff	-0.12060165
31	0x3d08b53d	0.033375967
32	0xbe8e4337	-0.27785656
33	0xbeb84b83	-0.3599511
34	0x3e16ca20	0.14725542
35	0xbe05918b	-0.13043801
36	0xbe41f1c1	-0.18939878
37	0xbe3b4fce	-0.18292162
38	0x3eaa1629	0.33220032
39	0x3f0dbcd1	0.55366236
40	0x3fea255b	1.829265
41	0x3e3410a9	0.1758448
42	0xbd2f1ae0	-0.04275024
43	0x3d7423bc	0.05960439
44	0x3db96a7f	0.09053516
45	0x3d011003	0.03150941
46	0xbd019da9	-0.031644497
47	0x3d55548a	0.052082576
48	0x3ddaa96c	0.10676846
49	0xbdb92fd8	-0.090423286
50	0x3e56f25e	0.20990893
51	0xbc43ecb4	-0.01195829
52	0xbb7a4cca	-0.0038192743
53	0x3dfcf6e2	0.12351777
54	0x3e0664a6	0.13124332
55	0xbe0c3b91	-0.13694598
56	0xbd24e4a6	-0.04025712
57	0xbf0a371f	-0.5399036
58	0x3e41a6ae	0.1891124
59	0x3faef887	1.3669595
60	0xbe49cf41	-0.19707967
61	0x3d9f0347	0.07764297
62	0xbdd0e80a	-0.10200508
63	0xbe398d09	-0.18120207
64	0xbcde7b93	-0.027158534
65	0x3d9ca003	0.07647707
66	0x3c30da4a	0.010794232
67	0xbd68c8c9	-0.05683211
68	0x3db3c032	0.08776893
69	0xbd7910c7	-0.060807016
70	0xbcdb828a	-0.026795644
71	0xbe374719	-0.17898215
72	0x3e589284	0.21149641
73	0xbd8b8833	-0.06813087
74	0xbe9b37f5	-0.3031613
75	0xbe54f5d2	-0.20796898
76	0x3ee46c15	0.4461371
77	0x3f379c4d	0.7172287
78	0x3f4aae35	0.7917207
79	0xbd2ab0a9	-0.041672383
80	0xbdd54ab0	-0.10414636
81	0xbd161469	-0.03664056
82	0x3e88787b	0.2665442
83	0x3e45b8a4	0.19308716
84	0x3e30e896	0.17276224
85	0x3d08c0cd	0.033386994
86	0x3b0da578	0.002161352
87	0x3dbd6bf8	0.09249109
88	0x3d441056	0.04786714
89	0x3d3c9482	0.046040066
90	0x3da1d48f	0.079018705
91	0xbe12fa92	-0.14353397
92	0x3d577a8d	0.052607108
93	0x3e0eabe8	0.13932765
94	0xbdd1cb07	-0.102438025
95	0xbd7c4cf9	-0.061596844
96	0xbcaf9d6b	-0.021437367
97	0x3d64cca2	0.055859216
98	0x3d0a7a47	0.03380802
99	0xbe2a48d8	-0.1662935
100	0xbcf0a1a9	-0.02937396
101	0xbe3937de	-0.18087718
102	0x3da95bdc	0.08269474
103	0xbe4ae8d1	-0.19815375
104	0xbd5da005	-0.054107685
105	0x3c0a85e2	0.008454772
106	0x3e3e195b	0.1856436
107	0x3d749798	0.059714884
108	0x3e03fa52	0.12888458
109	0x3d5e0f00	0.054213524
110	0xbe607f65	-0.21923597
111	0xbe1c9cb1	-0.15294148
112	0xbe62f846	-0.22165021
113	0xbda99f23	-0.08282306
114	0xbef80ad2	-0.48445755
115	0xbeb08206	-0.344742
116	0x3fa0c43d	1.2559887
117	0xbdfca4c8	-0.12336117
118	0xbd6baf8e	-0.05754047
119	0x3dc69453	0.09696259
120	0x3e03478a	0.12820259
121	0x3e69725b	0.2279753
122	0x3e166bfb	0.14689629
123	0xbc22e5b7	-0.009942464
124	0x3da445ad	0.08021102
125	0xbe6d6e41	-0.2318659
126	0xbd617eda	-0.055052616
127	0xbe449002	-0.1919556
128	0xbe3e56b8	-0.18587768
129	0x3cb7b4c9	0.022425072
130	0xbe19a620	-0.15004778
131	0xbd81196c	-0.06303677
132	0x3d946004	0.07244876
133	0x3e477f03	0.19482045
134	0x3f13df25	0.57762367
135	0x3fa7919f	1.3091315
136	0xbd639777	-0.05556437
137	0xbe869799	-0.26287535
138	0x3dfe4255	0.124149956
139	0xbdef35d1	-0.116801865
140	0xbb1e598f	-0.0024162268
141	0x3e1bd734	0.15218812
142	0x3d0059c0	0.031335592
143	0x3dccd299	0.10001106
144	0xbe46f5a5	-0.19429643
145	0x3c153392	0.009106534
146	0x3e5991f5	0.21247084
147	0xbe9f65b8	-0.31132293
148	0x3e5bc8b4	0.21463281
149	0xbe2dc8a6	-0.16971073
150	0xbe11e621	-0.14247943
151	0xbe25a42b	-0.16175906
152	0xbf02f6c1	-0.51157767
153	0xbebea10e	-0.3723225
154	0x3f40eb79	0.753593
155	0xbe811919	-0.2521446
156	0xbe82e357	-0.25564072
157	0xbe844bd3	-0.258391
158	0xbdd79494	-0.10526386
159	0x3e651572	0.22371462
160	0xbd83f51f	-0.064432375
161	0x3d7dc754	0.061957672
162	0x3deffe29	0.11718399
163	0x3d1d31ca	0.03837756
164	0xbe56f343	-0.20991234
165	0xbe60ff1a	-0.21972314
166	0xbe30e239	-0.17273797
167	0x3e68aa9f	0.22721337
168	0xbdf0cdce	-0.11758004
169	0xbe79bc66	-0.24388275
170	0xbe62e26e	-0.22156689
171	0x3e91ab63	0.2845107
172	0xbef23219	-0.47303846
173	0x3f867ec2	1.0507433
174	0xbe28a4f9	-0.16469182
175	0x3e030b5b	0.127973
176	0x3a8989e8	0.001049337
177	0xbc6dcbd9	-0.014513933
178	0xbda1ddc1	-0.07903624
179	0xbe048eaa	-0.12945047
180	0x3e401e7d	0.1876163
181	0xbe66e939	-0.22549905
182	0xbe878191	-0.2646604
183	0xbe36f1da	-0.17865697
184	0xbe24717c	-0.16058916
185	0xbcba5c91	-0.022749217
186	0xbdd81769	-0.1055134
187	0xbd62ca9c	-0.055369005
188	0xbe84d47e	-0.2594337
189	0xbe7481ae	-0.23877594
190	0xbe9ea169	-0.3098252
191	0xbe81f5b0	-0.25382757
192	0xbfaf8f9c	-1.3715701
193	0xbd0ecee7	-0.034865286
194	0xbeb41235	-0.3517014
195	0x3d874ae1	0.06606079
196	0xbe4ddd90	-0.2010405
197	0xbd7a07fb	-0.061042767
198	0x3df52b40	0.1197114
199	0x3d926bc1	0.07149459
200	0xbc9e4e1e	-0.019324359
201	0xbe1c7f43	-0.15282921
202	0xbe2ffefc	-0.17187113
203	0xbe9ea03d	-0.30981627
204	0xbd90abcc	-0.07064018
205	0xbd11f485	-0.035633583
206	0x3e11b779	0.14230146
207	0xbea6d1ea	-0.32582027
208	0x3dad429b	0.084599696
209	0xbea65bc2	-0.3249188
210	0x3d0804cd	0.033207703
211	0x3faa3e7e	1.3300321
212	0x3e35ab40	0.17741108
213	0xbe54c0bc	-0.20776647
214	0x3dc3efde	0.095672354
215	0xbd8b71e4	-0.06808832
216	0x3e1acb84	0.15116698
217	0xbde4a0ca	-0.111634806
218	0xbe80feb1	-0.25194314
219	0xbd1dcb2c	-0.038523838
220	0xbd4e3add	-0.050349105
221	0xbe8c35bc	-0.27384746
222	0xbdf8014b	-0.121096216
223	0x3d1234cb	0.03569488
224	0x3e3bf03d	0.18353362
225	0x3e6defcb	0.23236005
226	0xbdedf52d	-0.11619029
227	0xbe4eeae8	-0.20206797
228	0xbe4f61fe	-0.20252225
229	0x3f0c0ded	0.5470875
230	0xbdb48edd	-0.088163115
231	0xbd8f499b	-0.06996461
232	0x3e5643e6	0.20924339
233	0xbccc10fc	-0.024910443
234	0x3e1ed7df	0.15512036
235	0x3d350c51	0.0442012
236	0x3e1b3710	0.15157723
237	0xbe468e2b	-0.1939017
238	0xbe78bb82	-0.24290279
239	0xbe579735	-0.21053775
240	0xbe142d9b	-0.14470522
241	0xbd9e7c69	-0.07738573
242	0xbe0bb77a	-0.1364421
243	0xbdf24290	-0.11829102
244	0x3e250c41	0.16117956
245	0x3e14078c	0.14456004
246	0xbdf4f18f	-0.11960136
247	0xbf1b8485	-0.60749084
248	0xbe3ca5d6	-0.18422636
249	0xbe1db7ee	-0.15402195
250	0x3e5332cf	0.2062485
251	0xbe19da2d	-0.15024634
252	0x3e21897c	0.15775102
253	0x3e990eb4	0.2989403
254	0xbde30191	-0.11084283
255	0x3cbbc5fa	0.022921551

kp2.mlp.0.bias f4 [32]
0	0xbe6a7461	-0.22895958
1	0x3dbd48ac	0.09242377
2	0x3da69c79	0.081353135
3	0x3ed3962a	0.41325504
4	0x3de321df	0.11090445
5	0xbdd33e35	-0.103145994
6	0x3e63ea4d	0.22257347
7	0x3af3c285	0.00185974
8	0x3e9ea4f9	0.3098524
9	0x3d84a7b4	0.06477299
10	0xbd8db21c	-0.06918737
11	0x3dfe6912	0.12422384
12	0x3e6c917d	0.23102374
13	0xbdef37b7	-0.11680549
14	0x3e8132bb	0.25234017
15	0x3eab4ba8	0.3345616
16	0x3e5b77e5	0.21432455
17	0x3db97cd5	0.09057013
18	0x3e9a277e	0.30108255
19	0xbe383af0	-0.17991233
20	0x3dc4fdff	0.096187584
21	0x3e5f519f	0.2180848
22	0x3b5a7090	0.0033331253
23	0x3da8f615	0.082500614
24	0xbe937b27	-0.28804895
25	0x3e2ecec2	0.1707106
26	0x3e465fde	0.19372508
27	0xbd902abf	-0.07039403
28	0x3e31ef42	0.17376426
29	0xbe553ce0	-0.20824003
30	0xbe1f3876	-0.15548882
31	0x3d954d2a	0.072901085

kp2.mlp.2.weight f4 [32, 32]
0	0x3e18d3dd	0.1492457
1	0xbad4e6fb	-0.0016243154
2	0x3ec35d0f	0.38156936
3	0x3d883bb0	0.066520095
4	0x3e8fd6d5	0.2809359
5	0x3e068303	0.13135915
6	0x3b708bfd	0.0036704533
7	0x3e731555	0.23738606
8	0xbd0008b9	-0.03125832
9	0xbe7fe6ed	-0.24990435
10	0x3b961a6d	0.004580787
11	0x3e227d59	0.15868129
12	0x3a8f4da5	0.0010933174
13	0x3db7180a	0.08940132
14	0x3e596118	0.21228445
15	0xbd8d7afa	-0.069082215
16	0xbec02dfb	-0.3753508
17	0xbcc2142a	-0.023691256
18	0xbdb6a543	-0.0891824
19	0x3d877979	0.06614966
20	0xbe11bf2e	-0.14233086
21	0xbd99e446	-0.07514243
22	0x3bb34782	0.005471171
23	0x3ef8e0df	0.48609063
24	0x3d4614b1	0.048359577
25	0x3e15b2ad	0.1461894
26	0xbb98c9ab	-0.0046627126
27	0xbbf12fc2	-0.0073604295
28	0xbe1d193d	-0.15341659
29	0xbe3a3fbb	-0.18188374
30	0xbdbb1b95	-0.0913612
31	0xbdbe50df	-0.09292769
32	0xbe1b2734	-0.15151674
33	0xbebb4f8d	-0.3658413
34	0xbe870095	-0.26367632
35	0xbdcab8d0	-0.098985314
36	0xbea28cec	-0.3174814
37	0xbdcde8e3	-0.10054185
38	0x3d905f29	0.070494
39	0x3d358b1d	0.044322122
40	0x3dac9a93	0.0842792
41	0x3bca5a0d	0.0061752857
42	0x3dcd5847	0.10026603
43	0x3e3aeb4a	0.18253818
44	0x3e5261ca	0.20545116
45	0x3e489f8c	0.19592112
46	0xbe4d644d	-0.20057793
47	0xbeabf5ec	-0.3358606
48	0xbdf74460	-0.12073588
49	0xbe6ef84e	-0.23336908
50	0xbe8585c0	-0.26078606
51	0x3d98e545	0.07465605
52	0x3de90113	0.11377158
53	0xbca7606c	-0.02043172
54	0x3e74ed6c	0.23918694
55	0x3ea1bbac	0.31588495
56	0xbe0f4f05	-0.13994987
57	0x3dac5d99	0.0841629
58	0xbe3b7cbc	-0.18309301
59	0x3e12e350	0.14344525
60	0x3d98ec3c	0.07466933
61	0xbdd15e18	-0.10223025
62	0x3e10e37e	0.14149281
63	0x3a0bde4e	0.0005335555
64	0x3d9e859c	0.07740328
65	0x3d7c9608	0.06166652
66	0xbdfffec3	-0.12499764
67	0xbce9475c	-0.02847641
68	0xbe59e3d3	-0.21278314
69	0x3db87749	0.09007127
70	0xbd7096d5	-0.058737595
71	0x3dffca27	0.124897294
72	0xbdb77c58	-0.089592636
73	0xbe4e32f2	-0.20136622
74	0x3e3a7f10	0.18212533
75	0xbe398316	-0.18116412
76	0x3dc39763	0.09550359
77	0xbd09762d	-0.033559967
78	0xbe5ba731	-0.21450497
79	0xbef963de	-0.48709005
80	0xbe8f2550	-0.27958155
81	0xbea8bf08	-0.32958245
82	0xbd8d08ef	-0.068864696
83	0x3e974cba	0.29550725
84	0xbe66ea7d	-0.22550388
85	0xbeb6e68b	-0.35722765
86	0x3da4ed03	0.08053019
87	0xbedd68cf	-0.43244025
88	0x3e2ca76a	0.16860738
89	0xbe90cd54	-0.28281653
90	0xbe2ffe7a	-0.17186919
91	0xbe199165	-0.1499687
92	0xbcd5c84a	-0.026096482
93	0x3f0abfcf	0.54198927
94	0x3df9c5e7	0.1219595
95	0xbd0d2bec	-0.034465715
96	0xbdfc1001	-0.1230774
97	0xbcdb97fe	-0.026805874
98	0x3e487262	0.19574884
99	0xbdaeacc7	-0.085290484
100	0x3db2ce7b	0.08730789
101	0xbd51b61d	-0.051199067
102	0x3d10f2f8	0.035387963
103	0x3d8a7a01	0.06761552
104	0xbdbd8ff1	-0.0925597
105	0x3c482351	0.012215451
106	0xbe959f18	-0.2922294
107	0xbe0ad037	-0.1355599
108	0xbdcde207	-0.10052877
109	0xbe1e885b	-0.15481703
110	0x3e70e0da	0.23523274
111	0x3e0fd0e1	0.14044525
112	0xbe85d4d9	-0.26138952
113	0xba8bf172	-0.0010676815
114	0xbd32a6c7	-0.043616083
115	0x3e19e51c	0.15028805
116	0x3d3edc69	0.04659692
117	0xbcb14b9a	-0.021642495
118	0xbe106e62	-0.14104608
119	0x3d4560e2	0.048188098
120	0x3be581a7	0.007003981
121	0x3d058564	0.032597914
122	0x3e862a76	0.2620427
123	0x3e7b3292	0.2453101
124	0xbd86d831	-0.06584204
125	0x3d6801e3	0.056642424
126	0x3d976ce0	0.07393813
127	0xbe5f5e57	-0.21813332
128	0x3e20a0d1	0.15686347
129	0xbe0c1c20	-0.13682604
130	0xbefd379d	-0.49456492
131	0xbe910fa7	-0.28332254
132	0xbe83f8b8	-0.25775695
133	0xbe0baafc	-0.13639444
134	0xbdd537db	-0.10411044
135	0xbe73d7e9	-0.23812832
136	0xbd97973e	-0.07401894
137	0x3b95af84	0.0045680422
138	0x3e3f01c3	0.18653016
139	0xbe4566f9	-0.19277562
140	0xbe3b2a18	-0.18277776
141	0x3db413ed	0.08792863
142	0xbcc887e8	-0.024478868
143	0xbe8b4076	-0.27197617
144	0xbda7a4c4	-0.081857234
145	0xbecc78b6	-0.39935845
146	0xbdab768b	-0.0837222
147	0x3e0913cb	0.13386457
148	0xbc8bc9c3	-0.01706398
149	0xbdf9d734	-0.1219925
150	0x3d4f8df7	0.050672498
151	0xbea3862f	-0.3193831
152	0x3e99fb30	0.30074453
153	0xbecc2393	-0.3987089
154	0xbe480846	-0.19534406
155	0x3e8ed721	0.27898505
156	0x3d8670fc	0.06564519
157	0xbe50c696	-0.20388255
158	0x3e56e7d7	0.20986877
159	0x3e853a38	0.2602098
160	0x3b822085	0.003971162
161	0xbdf7c6c2	-0.12098457
162	0x3cb11321	0.021615567
163	0xbe9c744d	-0.3055748
164	0x3e99e368	0.3005631
165	0xbcf72ddf	-0.03017324
166	0x3c9bb09f	0.019005118
167	0x3dcfea9e	0.101521716
168	0xbdef6f93	-0.11691203
169	0xbd519387	-0.051166084
170	0xbdcfd355	-0.1014773
171	0xbd16710d	-0.036728907
172	0x3d3adf8e	0.045623355
173	0x3daf92c6	0.08572917
174	0xbdacc7a9	-0.0843652
175	0x3e60cc08	0.21952832
176	0xbe877226	-0.26454276
177	0x3c2c39cf	0.0105118295
178	0x3e5a26b3	0.21303825
179	0x3d199bcb	0.03750209
180	0xbd2e6380	-0.04257536
181	0xbd898a75	-0.06715862
182	0x3dd3bb2d	0.10338435
183	0x3e7353f1	0.2376249
184	0x3e3eb76e	0.1862466
185	0x3d2726b7	0.040808406
186	0x3e6603ca	0.22462383
187	0xbd342fa8	-0.04399076
188	0xbe52bbff	-0.20579527
189	0x3e011d86	0.12608919
190	0x3e4e3b5a	0.20139828
191	0xbe6a02f4	-0.22852689
192	0xbd712387	-0.058871772
193	0x3e25f6e0	0.16207457
194	0xbe7956e0	-0.24349546
195	0xbed3e99b	-0.41389164
196	0xbc9811da	-0.0185632
197	0x3b0c0c66	0.0021369695
198	0xbe60de1e	-0.21959731
199	0xbe6a1b78	-0.22862041
200	0xbce33bd3	-0.027738487
201	0xbdf77f1d	-0.12084792
202	0x3e33e4ae	0.17567703
203	0xbd5e1a0d	-0.054224063
204	0xbdc0c6c5	-0.09412912
205	0xbe0454d5	-0.12922986
206	0xbe080d0b	-0.13286225
207	0x3e3d2a5e	0.18473193
208	0xbe01f25e	-0.12690112
209	0x3d9bcd98	0.07607573
210	0x3e83a5da	0.25712472
211	0x3e830aa2	0.2559405
212	0x3d506470	0.050877035
213	0xbd2a9fc1	-0.04165626
214	0xbdbf9c9d	-0.093560435
215	0xbe8c57e1	-0.27410796
216	0x3e87a987	0.26496527
217	0xbdafa4f7	-0.085763864
218	0xbd324b4e	-0.043528847
219	0x3e8201cf	0.25392005
220	0xbe79422d	-0.2434165
221	0xbed30bf8	-0.4122007
222	0x3e3dc78f	0.18533157
223	0xbab96bc7	-0.00141465
224	0x3dc111ff	0.094272606
225	0xbe94efb4	-0.2908913
226	0xbc690934	-0.014223386
227	0xbcaa1f38	-0.02076684
228	0xbebbec50	-0.3670373
229	0xbcf1de60	-0.029524982
230	0x3e5ad172	0.2136896
231	0xbbb2cbff	-0.005456447
232	0x3e4fc451	0.20289733
233	0xbe312220	-0.17298174
234	0xbe32301a	-0.17401162
235	0x3c2d23e8	0.010567643
236	0xbd7d93d2	-0.06190855
237	0x3d57d6ad	0.052694965
238	0xbda1f39b	-0.07907792
239	0xbea59212	-0.32338005
240	0x3dc15b16	0.094412014
241	0x3db09801	0.086227424
242	0xbe9d63f0	-0.3074031
243	0xbd994dd7	-0.0748555
244	0x3df9a952	0.121904984
245	0x3dc2a2e3	0.095037244
246	0x3e5bedfd	0.21477504
247	0xbd4bf92d	-0.04979818
248	0x3dc626ac	0.09675345
249	0x3de0409a	0.10949822
250	0x3daf259a	0.08552094
251	0x3e27c415	0.16383393
252	0x3e4b672f	0.1986358
253	0x3c21eeda	0.009883607
254	0xbe004fdc	-0.12530464
255	0xbe006b30	-0.12540889

kp2.mlp.2.bias f4 [32]
0	0xbd857d69	-0.06518061
1	0xbd5d9c99	-0.05410442
2	0xbdde09ce	-0.10841714
3	0x3c9bf6da	0.019038606
4	0xbe099e93	-0.13439398
5	0x3e0700ff	0.13183974
6	0xbe41c730	-0.1892364
7	0xbd7d6a0b	-0.06186871
8	0x3d81ca87	0.06337457
9	0xbd4c424d	-0.049867917
10	0xbe1913bf	-0.14948939
11	0xbd966664	-0.07343748
12	0xbdc15d97	-0.09441679
13	0xbe37c085	-0.17944534
14	0xbc2ca26d	-0.010536772
15	0xbd201334	-0.039080814
16	0xbe890f9c	-0.26769722
17	0xbdf36d4a	-0.118860796
18	0xbd8d5750	-0.06901419
19	0xbe92f254	-0.28700507
20	0xbe57ec71	-0.21086289
21	0xbd369feb	-0.044586103
22	0x3d524e62	0.051344283
23	0xbe215298	-0.15754163
24	0x3d891732	0.06693877
25	0x3ddb9eeb	0.107236706
26	0xbe51615a	-0.20447293
27	0xbd54217e	-0.051789753
28	0xbe861aa3	-0.26192197
29	0xbde0a788	-0.10969454
30	0x3d64b3f4	0.05583568
31	0x3db06424	0.0861285

head.0.weight f4 [32, 32]
0	0x3e2334eb	0.15938155
1	0x3dc83eef	0.09777629
2	0xbd15babe	-0.036555044
3	0x3be6511b	0.0070287115
4	0x3d501667	0.050802615
5	0x3d39b936	0.045342647
6	0xbd4dfcc3	-0.05028988
7	0x3e57c384	0.21070677
8	0x3e6f0812	0.23342922
9	0x3c2f650b	0.010705243
10	0xbd749985	-0.05971672
11	0xbe53b26f	-0.20673536
12	0xbe26cd7d	-0.16289325
13	0x3e8814a6	0.26578254
14	0xbe95967a	-0.29216367
15	0x3da733fb	0.08164211
16	0xbd65e0a5	-0.05612244
17	0xbb92425c	-0.004463477
18	0x3e4bb95f	0.19894932
19	0x3e3a7d9d	0.1821198
20	0x3d8b6006	0.068054244
21	0x3ca59bd5	0.020215908
22	0xbe121e64	-0.14269406
23	0x3eaf4f83	0.3424035
24	0xbde2d760	-0.11076236
25	0x3ea3f9ee	0.3202662
26	0x3d370759	0.04468474
27	0xbdf95abf	-0.121755116
28	0xbc7a3a7c	-0.015272733
29	0xbce5aa34	-0.02803526
30	0x3ece17b6	0.40252465
31	0x3d7543d0	0.059879124
32	0x3cc64e1d	0.02420717
33	0x3ced1ae1	0.02894348
34	0x3d36aaac	0.04459636
35	0x3deb94cf	0.11502992
36	0x3e0795b7	0.13240705
37	0xbdab41e4	-0.08362177
38	0x3e24b1f7	0.16083513
39	0xbe49e6d9	-0.19716968
40	0x3d6867dd	0.056739677
41	0x3e13d74a	0.14437595
42	0x3e3a0ef8	0.18169773
43	0xbdc90766	-0.09815864
44	0x3cc8f737	0.024531944
45	0xbd0a9f02	-0.033843048
46	0xbe0e8e97	-0.13921581
47	0x3d60029b	0.054689985
48	0x3c575c4a	0.013144562
49	0x3e00a9d1	0.1256478
50	0xbd96446d	-0.0733727
51	0xbe14943b	-0.1450967
52	0xbab39aa6	-0.0013702705
53	0x3df70352	0.1206118
54	0xbd814f33	-0.06313934
55	0xbdbb1322	-0.09134509
56	0xbe183c22	-0.14866689
57	0x3dcc5a76	0.099781916
58	0xbd46c145	-0.04852416
59	0xbba861b5	-0.0051386007
60	0x3e3a71d5	0.18207486
61	0x3db9c8c2	0.09071495
62	0xbe4346c2	-0.1906996
63	0xbe4647be	-0.19363305
64	0x3db1d19b	0.08682557
65	0xbe58d8dc	-0.21176475
66	0xbd7c394d	-0.061578084
67	0x3e08d84d	0.13363762
68	0xbe7fe6f6	-0.24990448
69	0xbe09407f	-0.1340351
70	0xbee186ba	-0.440481
71	0x3d8b450c	0.06800279
72	0x3e1faed0	0.1559403
73	0x3e767b85	0.24070556
74	0xbe7d47f5	-0.2473448
75	0xbe5765d7	-0.21034943
76	0xbe68a9ff	-0.22721098
77	0xbba3dcb3	-0.0050006746
78	0xbe90051d	-0.281289
79	0x3df04edc	0.11733791
80	0xbe91a98f	-0.28449675
81	0xbe1aae73	-0.1510561
82	0x3c88086e	0.016605582
83	0xbe5193fb	-0.20466606
84	0xbd3e8e27	-0.046522286
85	0xbeea430e	-0.45754284
86	0x3e3c6d9f	0.18401192
87	0xbd5fab2e	-0.05460661
88	0x3e9a0d66	0.30088347
89	0xbe0fc43e	-0.14039704
90	0xbe44464a	-0.19167438
91	0x3e53b7bf	0.20675562
92	0xbe96257c	-0.29325473
93	0xbe2887af	-0.16458009
94	0xbeb31a9c	-0.3498124
95	0xbd998a5d	-0.07497094
96	0x3c1b8f8d	0.009494674
97	0xbde7b752	-0.113142624
98	0xbe93de45	-0.28880516
99	0x3e4e5613	0.20150022
100	0xbe89ea6d	-0.26936665
101	0x3ddf8195	0.10913388
102	0xbedef8f8	-0.43549323
103	0xbb007e25	-0.0019606438
104	0x3e3ce8b6	0.18448147
105	0x3dc74785	0.09730438
106	0xbe5ff196	-0.21869501
107	0xbe7eec34	-0.24894792
108	0xbd9403d9	-0.072272964
109	0x3d3b9b0d	0.045802165
110	0xbeb20cb5	-0.3477532
111	0xbd6589f6	-0.056039773
112	0xbe5dc3bd	-0.216567
113	0xbe580d14	-0.21098739
114	0xbe90633f	-0.2820072
115	0xbe0b710e	-0.13617346
116	0xbde5addc	-0.11214802
117	0xbef9a50c	-0.48758733
118	0x3d250eb0	0.04029721
119	0xbe45d0ad	-0.19317885
120	0x3e77379e	0.2414231
121	0xbcede346	-0.029039036
122	0x3c89ed01	0.016836645
123	0x3e5c03a0	0.21485758
124	0xbeaa053a	-0.33207113
125	0xbe9fc11b	-0.31202015
126	0xbe447ba4	-0.1918779
127	0x3d2074aa	0.03917376
128	0x3d9323ed	0.07184587
129	0xbcb0a81f	-0.021564541
130	0x3f2a238b	0.66460484
131	0xbc5c5dd2	-0.013450103
132	0x3dc23bbd	0.094840504
133	0x3e646c0e	0.22306845
134	0xbd850567	-0.06495171
135	0x3c8d59df	0.017254768
136	0x3e5b2c82	0.21403697
137	0x3d900903	0.07032969
138	0x3e50019b	0.20313112
139	0x3e09d43f	0.13459872
140	0xbdfaaa49	-0.122395106
141	0x39ddf8a5	0.0004233766
142	0x3f25125f	0.6448116
143	0x3ca9ad93	0.02071265
144	0xbd9729bb	-0.07381006
145	0xbd81351b	-0.06308957
146	0x3e495924	0.1966291
147	0x3afa323c	0.0019088457
148	0xbe2b2047	-0.16711532
149	0x3dbcb3ec	0.09214005
150	0x3ca62e89	0.020285862
151	0x3dc389fa	0.09547801
152	0x3e0df75e	0.13863894
153	0xbea45096	-0.32092732
154	0x3e64d8f5	0.22348388
155	0x3e929d54	0.28635657
156	0x3ebf3b6e	0.3735003
157	0x3ecf7f44	0.40526783
158	0x3d9f9712	0.07792486
159	0xbe8e7bcb	-0.27828822
160	0x3c452312	0.012032287
161	0xbda63bc8	-0.08116871
162	0x3e8eb635	0.27873388
163	0x3d58b9ff	0.052911755
164	0xbd8c5001	-0.06851197
165	0x3e00417c	0.1252498
166	0xbddf5b54	-0.10906091
167	0xbc21306b	-0.009838204
168	0x3e3807d7	0.1797174
169	0x3bccfec7	0.0062559578
170	0x3da65fb3	0.08123722
171	0x3e357d95	0.17723687
172	0xbe0451c5	-0.12921818
173	0x3e51d4f1	0.20491387
174	0x3e3faf1f	0.18719147
175	0xbdde8eca	-0.108670786
176	0x3dc76d2b	0.09737619
177	0xbd82cbd5	-0.06386534
178	0xbda202d3	-0.07910695
179	0x3a6ad211	0.0008957694
180	0xbe5cd890	-0.21566987
181	0x3e7d0c4e	0.24711725
182	0xbcdc6260	-0.026902378
183	0x3bff88b8	0.0077982806
184	0x3e3279b1	0.17429234
185	0xbd017de7	-0.03161421
186	0xbd5ae682	-0.053442486
187	0x3d465f96	0.048431
188	0x3e973bd2	0.29537827
189	0xbdaa3137	-0.08310168
190	0xbba8fa90	-0.0051568225
191	0x3dce220d	0.100650884
192	0xbbc1dda4	-0.005916314
193	0x3da2f21a	0.079563335
194	0xbe2c262c	-0.16811436
195	0x3e1df32b	0.15424792
196	0xbeb7a8c2	-0.3587094
197	0x3e4cdc7f	0.20005988
198	0xbe3d36aa	-0.18477884
199	0x3e6a1920	0.22861147
200	0xbd5dc3f2	-0.054141946
201	0x3e763533	0.24043731
202	0xbd3bb7a7	-0.04582944
203	0xbe91538d	-0.28384057
204	0xbe4f700c	-0.20257586
205	0x3d6cf2e4	0.057848826
206	0xbe0d53b1	-0.13801457
207	0x3e13963a	0.14412776
208	0xbdf9fd51	-0.122065194
209	0xbd835118	-0.06411952
210	0xbe0dd523	-0.13850836
211	0x3bcee299	0.0063136336
212	0xbd97a6b0	-0.0740484
213	0xbf0ad730	-0.542346
214	0x3e31c648	0.17360795
215	0xbdb85a38	-0.09001583
216	0x3e12b681	0.14327432
217	0x3e66db33	0.22544555
218	0xbca3e328	-0.020005777
219	0x3e25f1d4	0.16205531
220	0xbdbccdd4	-0.09218946
221	0xbe19b374	-0.15009862
222	0x3de889a6	0.11354379
223	0x3c148dcf	0.009067013
224	0xbe7743a2	-0.24146894
225	0xbddd20e6	-0.107972905
226	0xbd0ebc5d	-0.034847606
227	0xbe5dd980	-0.21665001
228	0x3c20d3db	0.009816135
229	0xbe303f2c	-0.17211598
230	0xbe5b36ba	-0.21407595
231	0xbe0ede50	-0.13951993
232	0xbdb81190	-0.08987725
233	0xbe32ec90	-0.17473054
234	0x3d3ab2b3	0.045580577
235	0xbda04219	-0.07825107
236	0x3cc8bdaa	0.024504501
237	0xbe198d40	-0.14995289
238	0xbc3b07d6	-0.011415442
239	0x3d7b39c3	0.061334383
240	0x3d7c2809	0.061561618
241	0xbda9ebc1	-0.082969196
242	0xbd4e153d	-0.050313223
243	0x3df3928a	0.118931845
244	0x3e0e0832	0.13870314
245	0x3d2f0d75	0.042737443
246	0xbdf082a2	-0.11743666
247	0xbdc344d1	-0.0953461
248	0xbe2dfee8	-0.1699177
249	0x3dfe19f5	0.12407295
250	0xbe0a97f1	-0.13534524
251	0xbe0aa8de	-0.1354098
252	0xbe0cd916	-0.13754687
253	0xbde45467	-0.11148911
254	0xbd6296cd	-0.055319596
255	0x3c7da693	0.015481609

head.0.bias f4 [32]
0	0x39b4864f	0.00034432343
1	0xbe13f507	-0.1444894
2	0x3e88b500	0.26700592
3	0x3ebb7de6	0.3661949
4	0xbe64240a	-0.22279373
5	0xbe54ca04	-0.20780188
6	0x3c3e4c6e	0.011614902
7	0x3dd3592c	0.103197426
8	0x3dce8c4d	0.10085354
9	0x3d77ea89	0.060526405
10	0x3e52afee	0.20574924
11	0xbda2a06a	-0.07940753
12	0xb8ae23ac	-8.303611e-05
13	0x3eb3a77e	0.35088724
14	0xbd8eb84b	-0.06968745
15	0x3a9f0826	0.0012133166
16	0x3b8f088f	0.004365034
17	0x3e1e4a60	0.1545806
18	0xbe366852	-0.17813233
19	0xbccf4c84	-0.02530504
20	0x3dc0e0b0	0.09417856
21	0xbdaeff88	-0.085448325
22	0x3c0d8ba9	0.008639255
23	0xbe3504db	-0.17677633
24	0xbd6bb93e	-0.057549708
25	0x3ca7479b	0.020419886
26	0xbc78d468	-0.01518736
27	0x3cafc314	0.021455325
28	0xbd85efce	-0.0653988
29	0xbd6386f0	-0.05554861
30	0x3e92b8cb	0.2865661
31	0x3df4e5cb	0.11957892

head.2.weight f4 [3, 32]
0	0x3d96c344	0.07361463
1	0x3c38ed53	0.011287051
2	0x3c1060bb	0.008812125
3	0xbdd05706	-0.101728484
4	0x3f0cf4b9	0.5506092
5	0x3e5136fb	0.2043113
6	0x3cb9df42	0.022689465
7	0xbe3ce847	-0.18447982
8	0x3d5ee88c	0.054420993
9	0xbe325319	-0.17414512
10	0xbe140369	-0.14454426
11	0x3de61018	0.112335384
12	0xbd851c95	-0.06499592
13	0xbee360f4	-0.44409907
14	0xbd9fc0e2	-0.07800461
15	0xbd25030c	-0.04028611
16	0xbc718064	-0.014740083
17	0xbbacd7c3	-0.0052747442
18	0x3cb7b9c2	0.022427443
19	0x3e83ebe6	0.25765914
20	0x3ecef326	0.40419883
21	0x3f544c7d	0.8292921
22	0xbe8c138f	-0.27358672
23	0x3e9fc8ff	0.31208035
24	0x3e9ed0a4	0.31018555
25	0x3d18fd7d	0.03735112
26	0xbe161826	-0.1465765
27	0x3e3c0e8f	0.18364929
28	0x3e008b88	0.12553227
29	0x3e874ed0	0.26427317
30	0xbec28023	-0.37988386
31	0xbe417085	-0.18890579
32	0xbd749463	-0.059711825
33	0x3b0bd084	0.0021334002
34	0xbeb41ee2	-0.35179812
35	0xbf02f331	-0.5115233
36	0xbf0ef54c	-0.55843043
37	0xbef0d2b9	-0.4703577
38	0xbe903b49	-0.2817023
39	0x3d661fe9	0.056182776
40	0xbe794c1d	-0.24345441
41	0xbe886b45	-0.2664434
42	0xbe868e6c	-0.26280534
43	0x3e08d85b	0.13363783
44	0x3e44b550	0.1920979
45	0x3efd42ce	0.4946503
46	0x3dfd97bd	0.123824574
47	0x3d8624b9	0.06549973
48	0x3e31d2b7	0.17365538
49	0x3e634e53	0.22197847
50	0x3e67ab46	0.2262393
51	0xbda2e650	-0.07954085
52	0xbe8146ea	-0.25249416
53	0xbf4db3f0	-0.8035269
54	0xbe835e40	-0.25657845
55	0x3e4beeb7	0.19915281
56	0x3e387b1b	0.18015711
57	0xbe9768d7	-0.29572174
58	0x3e19bff2	0.15014628
59	0xbe113c18	-0.1418308
60	0xbe2c1348	-0.1680423
61	0x3d3a47d8	0.04547867
62	0x3eac6ad3	0.3367525
63	0x3e3262a3	0.1742044
64	0xbe6f7bc0	-0.2338705
65	0x3dd0f05f	0.10202097
66	0x3e705ed4	0.23473674
67	0x3da37307	0.07980924
68	0x3da8cc88	0.08242136
69	0x3ca0a4c3	0.019609815
70	0xbcd66dff	-0.026175497
71	0xbc5d4a2a	-0.013506452
72	0xbd7bdc01	-0.06148911
73	0x3eb6b6c2	0.35686308
74	0x3ea05eac	0.3132223
75	0x3e277b62	0.1635566
76	0xbdf77d8e	-0.120844945
77	0x3e93b034	0.2884537
78	0xba908ad7	-0.0011027706
79	0x3e510115	0.20410569
80	0xbe8c9bd5	-0.2746264
81	0xbefcc566	-0.49369353
82	0xbecc2d2f	-0.39878222
83	0xbdd87995	-0.10570065
84	0x3cf67140	0.030083299
85	0x3d0bee17	0.034162607
86	0x3eeb6a55	0.45979562
87	0xbeae2df1	-0.34019426
88	0xbea347d4	-0.31890738
89	0xbdc9c626	-0.09852247
90	0x3b87bd9a	0.0041424753
91	0x3dd0840c	0.10181436
92	0xbeab6424	-0.3347484
93	0xbea55dc1	-0.3229809
94	0x3eeca272	0.46217686
95	0x3eac9b98	0.3371246

head.2.bias f4 [3]
0	0xbd8c0e27	-0.06838637
1	0x3e1f3684	0.1554814
2	0xba0a9657	-0.00052866846
