checkpoints_kpconv_24nov/checkpoint_epoch_13_24nov.pth (torch, 19297 bytes, 14 tensors)

fc0.weight f4 [8, 3]
0.15798014 -0.3327456 -0.46937525 -0.4527463 0.25824502 0.23799427 -0.046838693 -0.046967793
-0.42078012 0.43362623 -0.31641996 -0.086138055 -0.0031244531 0.2783594 0.30516028 -0.06272025
0.32436812 0.3211626 -0.3733453 -0.088025935 0.24469738 0.25866988 0.048585143 -0.3644119
00000000: 8cc5 213e a25d aabe f451 f0be 5dce e7be
00000010: b138 843e c5b4 733e eed9 3fbd 4d61 40bd
00000020: 7e70 d7be 4204 de3e cc01 a2be 2669 b0bd
00000030: a0c3 4cbb 2085 8e3e f83d 9c3e 7973 80bd
00000040: 9413 a63e 6d6f a43e 1d27 bfbe f146 b4bd
00000050: f391 7a3e 6170 843e 3701 473d 3294 babe

fc0.bias f4 [8]
0.39908385 0.45713767 0.32238683 -0.26832113 0.6067339 -0.47750574 0.043508433 -0.053898953
00000000: b854 cc3e f30d ea3e e30f a53e 6361 89be
00000010: ea52 1b3f a27b f4be e635 323d 26c5 5cbd

kp1.mlp.0.weight f4 [16, 11]
0.71539855 -0.22954026 -0.09487938 -0.08186808 0.31544465 0.06847806 0.2585275 -0.11556778
-0.10208477 -0.16214588 0.267281 0.3806341 0.16889268 0.12174403 -0.030994032 -0.082311034
0.24354003 -0.004977692 -0.024149219 -0.14979982 -0.066929236 0.16733247 0.7474773 -0.7712959
0.23545195 0.0558784 -0.16889046 0.17219225 0.12976246 0.18428251 -0.1465504 0.27915522
-0.17161809 0.5268785 -0.031121694 0.01883561 -0.12603274 -0.15808775 -0.060598128 0.17958191
0.07262749 -0.19210252 -0.15769424 -0.16768087 0.048036724 -0.59369546 0.034781054 0.22322917
0.15681632 -0.18241118 -0.067551896 0.12891848 -0.019705776 0.025148792 0.12618838 -0.12761655
0.101200104 -0.09447124 0.16263759 -0.040704325 -0.20683041 -0.28246728 -0.24788456 -0.25057834
0.21719842 -0.3015406 -0.88413614 -0.86846334 -0.00015487005 -0.01848997 -0.1664102 0.19272113
0.12618877 0.344987 -0.031038405 0.20626523 -0.0984431 -0.12636085 -0.5269486 0.22067823
-0.09257464 0.03916842 -0.015327336 0.20237742 -0.2107289 0.21118635 0.05641989 0.2563791
0.28080928 -0.33427718 -0.5202739 -0.055555142 -0.12683962 0.21401195 -0.024211435 -0.14969888
0.088063896 -0.03950438 0.02613721 -0.73136353 -0.25769496 -0.062065605 0.2493101 0.18328947
0.020685656 -0.16598453 -0.18348745 0.18524505 0.2057729 0.14950086 0.3414425 -0.508606
-0.05442593 0.050261203 -0.2811046 -0.11428754 -0.13780771 0.17574789 -0.0663344 0.05390948
0.18410018 0.73444426 -0.89387864 0.24025849 0.075457826 0.23898673 0.3220081 0.28526333
-0.23249485 0.26216617 -0.1580134 0.06493029 0.81287825 -0.8299559 -0.04405544 0.094250485
0.017663838 0.28624037 -0.08765488 0.08288186 0.12119006 -0.084139206 0.13623767 -0.5370834
0.58150655 0.081634074 0.28502116 0.17614938 -0.12805614 0.20597787 0.26207888 -0.07723291
0.2732528 -0.2302607 0.428872 0.64944094 0.16199972 -0.011039675 -0.13998917 0.15695696
0.19390789 0.20585684 0.0542675 0.11902826 0.29008096 0.13694498 0.4510249 0.13259189
-0.24794157 -0.59163755 -0.16393636 0.19438525 0.05760069 -0.2943177 0.12991442 -0.05098051
00000000: 5c24 373f 9a0c 6bbe 1f50 c2bd 74aa a7bd
00000010: f681 a13e 3a3e 8c3d b75d 843e cdae ecbd
00000020: d211 d1bd 9209 26be 0ed9 883e 79e2 c23e
00000030: 34f2 2c3e ef54 f93d 32e7 fdbc b092 a8bd
00000040: 8f62 793e e81b a3bb 95d4 c5bc 2065 19be
00000050: 3212 89bd 3459 2b3e ac5a 3f3f a673 45bf
00000060: 511a 713e c0e0 643d 9ff1 2cbe 2a53 303e
00000070: 73e0 043e 8eb4 3c3e 4f11 16be 6fed 8e3e
00000080: a7bc 2fbe 82e1 063f ecf2 febc 234d 9a3c
00000090: ba0e 01be c1e1 21be be35 78bd 52e4 373e
000000a0: b9bd 943d 86b6 44be 997a 21be 89b4 2bbe
000000b0: 28c2 443d 6dfc 17bf 9476 0e3d 3096 643e
000000c0: 7594 203e ffc9 3abe a658 8abd 3503 043e
000000d0: 026e a1bc d704 ce3c 8737 013e eaad 02be
000000e0: 0042 cf3d 237a c1bd 788a 263e 94b9 26bd
000000f0: 5acb 53be 8d9f 90be 73d5 7dbe ce4b 80be
00000100: 4369 5e3e 8863 9abe bf56 62bf 9d53 5ebf
00000110: 9d64 22b9 4778 97bc 6f67 2abe b058 453e
00000120: a137 013e 23a2 b03e 4144 febc 3137 533e
00000130: 899c c9bd bd64 01be 1ae6 06bf 79f9 613e
00000140: c697 bdbd 116f 203d 821f 7bbc 073c 4f3e
00000150: 51c9 57be 3c41 583e 8b18 673d 1f44 833e
00000160: 3cc6 8f3e 6126 abbe ac30 05bf ca8d 63bd
00000170: 3fe2 01be f325 5b3e 0f57 c6bc aa4a 19be
00000180: d85a b43d 58cf 21bd b41d d63c a43a 3bbf
00000190: 98f0 83be 8138 7ebd 264b 7f3e 3cb0 3b3e
000001a0: f774 a93c d9f7 29be 22e4 3bbe e1b0 3d3e
000001b0: 22b6 523e c116 193e 8dd1 ae3e 0134 02bf
000001c0: b9ed 5ebd b1de 4d3d f1ec 8fbe 960f eabd
000001d0: 771d 0dbe 41f7 333e 54da 87bd 30d0 5c3d
000001e0: c284 3c3e 8a04 3c3f 3bd5 64bf 5206 763e
000001f0: a289 9a3d f0b8 743e 3fde a43e 090e 923e
00000200: 2113 6ebe a53a 863e 44ce 21be 2cfa 843d
00000210: ca18 503f fd77 54bf 7a73 34bd 6606 c13d
00000220: c1b3 903c 198e 923e 6784 b3bd f7bd a93d
00000230: 7f32 f83d 2d51 acbd e381 0b3e 4c7e 09bf
00000240: 9ddd 143f c42f a73d 4bee 913e 8160 343e
00000250: 2621 03be ddeb 523e 342f 863e 4a2c 9ebd
00000260: cae7 8b3e 76c9 6bbe 1c95 db3e c341 263f
00000270: 41e3 253e c1df 34bc 5259 0fbe 53b9 203e
00000280: ca8f 463e 23cc 523e 9947 5e3d 17c5 f33d
00000290: 7e85 943e 4e3b 0c3e bcec e63e 2bc6 073e
000002a0: 65e4 7dbe 8f75 17bf efde 27be ed0c 473e
000002b0: b3ee 6b3d cfb0 96be 4908 053e f0d0 50bd

kp1.mlp.0.bias f4 [16]
-0.012701095 -0.046243384 0.28565028 -0.34441844 -0.38349047 -0.0050813206 -0.027018134 -0.006236361
-0.040980525 -0.17590931 0.13309465 -0.107101835 0.2557726 0.09387804 0.3752627 0.17546523
00000000: 4118 50bc b469 3dbd c140 923e 9d57 b0be
00000010: dd58 c4be 3581 a6bb 2255 ddbc 635a ccbb
00000020: 32db 27bd 9221 34be f749 083e 3558 dbbd
00000030: a0f4 823e 2143 c03d 6f22 c03e 28ad 333e

kp1.mlp.2.weight f4 [16, 16]
0.1325972 -0.16155265 0.10510868 0.02091867 0.2612563 -0.07929233 0.25811738 0.01867607
-0.46092975 0.11067037 0.016838094 0.27141038 0.1997772 -0.24607976 -0.0059559564 -0.070369065
-0.040525235 0.03596491 -0.022093812 0.005112946 0.17213406 0.116515875 0.20502467 0.15796323
0.022901675 -0.027326897 -0.22061607 0.114492185 -0.21731901 -0.19992568 -0.014684467 0.1358351
-0.2251806 -0.18898766 -0.13540438 0.050286632 -0.073338024 -0.02061981 0.06779107 0.20321336
0.24399498 0.2036551 0.2506607 0.053856704 0.06870041 -0.03354763 0.08483187 -0.12198706
-0.19243181 -0.0783841 0.087168746 0.126191 -0.012141068 -0.07528199 0.4302159 -0.093518816
-0.3502165 0.15635404 0.0925279 -0.04918264 0.24019966 0.07576111 -0.19742213 0.11148184
0.27823064 0.21066818 0.24241903 -0.06831127 -0.1377964 0.0776899 -0.17285891 0.107039094
-0.30467707 -0.23867531 0.06258358 -0.102930196 0.34845564 -0.15076369 -0.06890802 0.25616595
0.14785896 0.022855474 -0.057984438 0.0025689346 -0.29802734 -0.14583509 -0.017210083 0.023373362
0.14025639 0.1746182 0.25195658 0.014950086 0.25286523 0.12103386 0.16623332 -0.07596546
-0.10927657 -0.026058657 0.13159458 -0.25580502 -0.25448644 -0.139313 0.34044272 0.17053185
-0.2210684 0.22973572 0.18086472 -0.16318855 0.012319961 0.05481362 0.13941298 -0.101042986
0.029650697 0.0447435 0.17269203 0.22763614 -0.1347035 0.058287922 0.20454334 0.21506153
-0.23467903 0.18340486 -0.09363332 0.09760725 0.16157 0.045498285 -0.23746467 0.052491486
0.009425697 -0.0950546 -0.25619775 0.0797755 -0.08205383 0.11633306 -0.11495784 -0.23185012
-0.06368099 0.03967263 0.07253599 -0.061525483 -0.31896493 -0.0649975 -0.16899075 0.20491944
-0.0078520235 -0.033559673 -0.091582865 0.038891505 -0.12523523 -0.06519788 0.25363564 0.2388
0.24501987 -0.084481016 -0.038326334 -0.06374621 -0.069876164 0.08773913 -0.23224169 0.11063389
-0.13124391 -0.04455952 0.21619996 0.16175172 0.24314842 0.11648335 0.046588358 0.09022705
-0.31511006 -0.23750027 0.17514327 0.15369642 0.02490012 -0.109656624 -0.21540464 -0.09753285
-0.15034759 -0.22574988 0.11587882 0.18640138 0.004900246 -0.25544068 -0.25880343 -0.24186772
-0.23793282 0.07513003 0.1655302 -0.23944506 -0.32839736 0.03846614 0.24295673 -0.08721369
-0.15173417 -0.08563815 0.18178648 0.14170447 0.23481056 0.011856468 -0.274391 -0.2363043
-0.55287313 -0.11431006 0.11973791 -0.17682774 0.08144673 -0.022025948 -0.14319065 -0.061398074
0.2544137 0.158454 0.22008616 0.084555216 0.04436686 -0.19164476 -0.2424413 0.024718514
-0.44997805 0.16340475 0.03683016 0.2930075 0.29509735 -0.09720853 0.014248164 -0.21483381
-0.14237818 0.15001836 -0.059599318 -0.13957766 0.17325902 0.11409122 0.303092 0.07342041
-0.1613614 -0.085201636 -0.14432824 -0.08557352 -0.28132337 -0.032147855 -0.062269952 -0.17589864
0.20469679 -0.09236788 -0.3062791 -0.029809574 0.043889042 0.16287276 -0.13385922 -0.030186262
0.0820959 -0.15830842 -0.11551088 -0.21831237 -0.2351945 -0.083057 -0.21127577 -0.0068661044
00000000: 8fc7 073e 0f6e 25be 3843 d73d a15d ab3c
00000010: 63c3 853e 0464 a2bd f627 843e 8ffe 983c
00000020: fcfe ebbe 26a7 e23d 0bf0 893c 4df6 8a3e
00000030: 6592 4c3e 55fc 7bbe 2f2a c3bb a81d 90bd
00000040: cafd 25bd f14f 133d 15fe b4bc 808a a73b
00000050: e943 303e e09f ee3d fdf1 513e 1dc1 213e
00000060: 4b9c bb3c a8dc dfbc 2ee9 61be e17a ea3d
00000070: e088 5ebe 51b9 4cbe 1e97 70bc 5b18 0b3e
00000080: be95 66be fb85 41be 72a7 0abe 5bf9 4d3d
00000090: 3f32 96bd e0ea a8bc 0bd6 8a3d 2a17 503e
000000a0: d2d9 793e f68a 503e 9956 803e d998 5c3d
000000b0: cdb2 8c3d 3d69 09bd 55bc ad3d 5ad4 f9bd
000000c0: d80c 45be d887 a0bd 8785 b23d 3738 013e
000000d0: 54eb 46bc 722d 9abd 4245 dc3e cb86 bfbd
000000e0: 944f b3be 461b 203e 457f bd3d bc73 49bd
000000f0: e6f6 753e a428 9b3d 0729 4abe 9750 e43d
00000100: 3f74 8e3e 66b9 573e b23c 783e c7e6 8bbd
00000110: 801a 0dbe e21b 9f3d ed01 31be 5037 db3d
00000120: a2fe 9bbe 4d67 74be d22b 803d 11cd d2bd
00000130: c768 b23e cc61 1abe a61f 8dbd 2f28 833e
00000140: 5768 173e 673b bb3c 1781 6dbd 925b 283b
00000150: 0a97 98be cb55 15be 29fc 8cbc 7e79 bf3c
00000160: 5f9f 0f3e 1dcf 323e 7400 813e 35f1 743c
00000170: 8d77 813e 9ae0 f73d 1139 2a3e c793 9bbd
00000180: 65cc dfbd f778 d5bc bbc0 063e e0f8 82be
00000190: 0c4c 82be 11a8 0ebe 824e ae3e e79f 2e3e
000001a0: c15f 62be d73f 6b3e 9a34 393e e61a 27be
000001b0: a9d9 493c 3f84 603d 47c2 0e3e a0ef cebd
000001c0: 05e6 f23c f644 373d 2ed6 303e 7319 693e
000001d0: b7ef 09be 51bf 6e3d cf73 513e 1739 5c3e
000001e0: b34f 70be 7cce 3b3e d3c2 bfbd 4fe6 c73d
000001f0: 9b72 253e 695c 3a3d f029 73be 5001 573d
00000200: 3d6e 1a3c fcab c2bd 5a2c 83be 5661 a33d
00000210: d70b a8bd 0740 ee3d 046f ebbd 1e6a 6dbe
00000220: 2e6b 82bd c57f 223d c08d 943d 2502 7cbd
00000230: 5f4f a3be 691d 85bd e90b 2dbe 67d6 513e
00000240: c6a5 00bc de75 09bd cc8f bbbd b34c 1f3d
00000250: aa3d 00be 7786 85bd 88dc 813e fd87 743e
00000260: 7de6 7a3e 6204 adbd 13fc 1cbd 5f8d 82bd
00000270: 3c1b 8fbd 93b0 b33d c4d0 6dbe 0594 e23d
00000280: ce64 06be 0b84 36bd 8663 5d3e 3ea2 253e
00000290: e6fb 783e d38e ee3d 6fd3 3e3d f6c8 b83d
000002a0: 1b56 a1be 4533 73be c258 333e 9862 1d3e
000002b0: 56fb cb3c a793 e0bd 0993 5cbe 4ebf c7bd
000002c0: b8f4 19be fa2a 67be e051 ed3d 01e0 3e3e
000002d0: 3e92 a03b 1fc9 82be e281 84be 2cac 77be
000002e0: a9a4 73be c6dd 993d c080 293e 1631 75be
000002f0: b323 a8be ac8e 1d3d a6c9 783e 179d b2bd
00000300: 3460 1bbe 0e63 afbd 3c26 3a3e fa1a 113e
00000310: 2e72 703e a241 423c fa7c 8cbe c1f9 71be
00000320: 1889 0dbf 651b eabd 2639 f53d 5512 35be
00000330: 8bcd a63d c36f b4bc 92a0 12be 8c7c 7bbd
00000340: 8342 823e c441 223e 445e 613e 492b ad3d
00000350: 06ba 353d 863e 44be 8842 78be 7b7e ca3c
00000360: 8663 e6be 9353 273e 39db 163d 1405 963e
00000370: 0017 973e 4415 c7bd 2271 693c 65fd 5bbe
00000380: 96cb 11be 6a9e 193e 6a1e 74bd 72ed 0ebe
00000390: d06a 313e a8a8 e93d e02e 9b3e 715d 963d
000003a0: ec3b 25be 327e aebd c8ca 13be 2b41 afbd
000003b0: 9e09 90be 78ad 03bd c70e 7fbd c61e 34be
000003c0: 099c 513e 5f2b bdbd 9dd0 9cbe 3533 f4bc
000003d0: ffc4 333d 1ec8 263e 6412 09be 2e49 f7bc
000003e0: e521 a83d 9a1b 22be f890 ecbd 478d 5fbe
000003f0: d4d6 70be ca19 aabd ad58 58be 0ffd e0bb

kp1.mlp.2.bias f4 [16]
-0.0753753 -0.2272021 -0.23078363 0.066978 0.021492667 0.19463511 0.1731869 -0.13664034
-0.14760463 0.064331435 -0.23513527 -0.30764043 0.07211365 0.16942571 -0.29048482 -0.050224032
00000000: 5e5e 9abd aba7 68be 8b52 6cbe c32b 893d
00000010: 6411 b03c 6d4e 473e e857 313e 72eb 0bbe
00000020: ab25 17be 33c0 833d 4dc7 70be 0c83 9dbe
00000030: 52b0 933d ef7d 2d3e 6dba 94be b7b7 4dbd

kp2.mlp.0.weight f4 [32, 19]
0.08467869 -0.09646227 -0.0066306116 -0.090269245 -0.16418588 0.13172983 -0.084280185 -0.1925826
-0.18200888 -0.11762929 -0.22219238 -0.02536572 -0.050005946 -0.152838 -0.16947298 0.20765972
0.055602726 -0.100791804 0.093770534 0.8291031 0.025179282 -0.350115 -0.07593634 -0.23363236
-0.06613631 -0.08038003 -0.1916221 -0.08472129 0.07097722 0.07940815 -0.11761441 0.017552579
-0.26225486 -0.3505263 0.15411322 -0.12754336 -0.1789596 -0.1813861 0.38500893 0.59761214
1.6947187 0.17137927 -0.026943062 0.064024195 0.070958875 0.052028544 -0.022800732 0.053613786
0.09842988 -0.06354905 0.17985745 -0.010699884 0.0631262 0.12820193 0.14347593 -0.12578274
-0.024639955 -0.49515787 0.24743931 1.2513618 -0.2159484 0.07157914 -0.10578345 -0.18200822
-0.05405585 0.07708893 0.028094724 -0.06970703 0.089814305 -0.03702258 -0.060703173 -0.18121125
0.20169649 -0.08328194 -0.295846 -0.20591523 0.5079087 0.73326445 0.6606149 -0.031944428
-0.091438346 -0.005704373 0.28166774 0.23324597 0.18112074 0.033344507 0.015254462 0.10297768
0.043398764 0.072453335 0.118010186 -0.12224463 0.06893444 0.14811544 -0.09682533 -0.061645634
-0.021430772 0.055822793 0.033828698 -0.16628851 -0.029369546 -0.18087587 0.08269405 -0.19815604
-0.05407052 0.008494423 0.18564317 0.05974229 0.12888822 0.054213893 -0.21923622 -0.1529339
-0.22164169 -0.08282397 -0.544703 -0.3759926 1.0806441 -0.16249715 -0.059447497 0.085486166
0.12657976 0.18064569 0.13010335 -0.008318835 0.054461885 -0.2224696 -0.048802566 -0.22733946
-0.20102996 0.02460716 -0.18879347 -0.052802153 0.08067757 0.16784951 0.5470683 1.095579
-0.06012841 -0.23492903 0.15938172 -0.13275197 -0.023828689 0.15948716 0.053672876 0.093840525
-0.18566474 0.035587646 0.18782835 -0.27223554 0.19157584 -0.16243102 -0.108509324 -0.16129291
-0.52199215 -0.33712906 0.6848422 -0.2654807 -0.25355053 -0.25204155 -0.08410414 0.20869021
-0.067939505 0.08560356 0.118116386 0.039439723 -0.16950205 -0.2324612 -0.17342322 0.22699212
-0.13172437 -0.22737151 -0.22233033 0.10697483 -0.43974537 0.88625705 -0.18363103 0.13855861
0.010021976 -0.026635922 -0.09630318 -0.14086626 0.1767572 -0.23948075 -0.26026905 -0.192951
-0.16900377 -0.018298065 -0.103401124 -0.069674835 -0.24827893 -0.2348693 -0.31336918 -0.26346844
-1.0963916 -0.013689474 -0.29220068 0.12604782 -0.19157049 -0.074119486 0.11095484 0.064951524
0.0032090028 -0.16412908 -0.115778774 -0.28369445 -0.09569748 -0.05580857 0.14455386 -0.29490393
0.07843048 -0.3651176 -0.07089118 1.2561342 0.18149413 -0.15546186 0.11884233 -0.06392548
0.11378083 -0.12280784 -0.24535367 -0.032277763 -0.040707484 -0.23727457 -0.098397575 0.018333565
0.16288373 0.22433195 -0.088940255 -0.19840235 -0.106470935 0.44796413 0.0017147546 -0.094557665
0.20005777 -0.016064987 0.15107685 0.0024799525 0.15406995 -0.17772843 -0.2538252 -0.21050718
-0.12386449 -0.1289572 -0.12064674 -0.1305829 0.14475004 0.15674156 -0.11965089 -0.54077053
-0.33775496 -0.06193346 0.18423168 -0.15717651 0.1558572 0.28128582 -0.123872586 0.014700405
00000000: 056c ad3d 038e c5bd 9a45 d9bb 15df b8bd
00000010: 5820 28be 2fe4 063e 179b acbd 6034 45be
00000020: 8960 3abe a0e7 f0bd 6686 63be c5cb cfbc
00000030: 09d3 4cbd 9181 1cbe 538a 2dbe c0a4 543e
00000040: afbf 633d ef6b cebd c40a c03d 1a40 543f
00000050: c844 ce3c 4642 b3be 8384 9bbd 523d 6fbe
00000060: 7972 87bd 499e a4bd 9538 44be 5b82 adbd
00000070: 815c 913d bda0 a23d d3df f0bd 6dca 8f3c
00000080: 4546 86be 2f78 b3be dbcf 1d3e ba9a 02be
00000090: 2f41 37be 47bd 39be e41f c53e 1cfd 183f
000000a0: 8bec d83f 0c7e 2f3e b2b7 dcbc 1e1f 833d
000000b0: e352 913d e21b 553d 9ac8 babc 219a 5b3d
000000c0: 9b95 c93d 0126 82bd 8d2c 383e 914e 2fbc
000000d0: 4f48 813d 5e47 033e 5beb 123e 31cd 00be
000000e0: bbd9 c9bc 5585 fdbe bb60 7d3e a02c a03f
000000f0: 9421 5dbe 1698 923d fea4 d8bd 5d60 3abe
00000100: ab69 5dbd cde0 9d3d e826 e63c 8fc2 8ebd
00000110: 90f0 b73d fda4 17bd e4a3 78bd 718f 39be
00000120: 8689 4e3e b98f aabd 2079 97be 71db 52be
00000130: 4e06 023f 38b7 3b3f 0f1e 293f 29d8 02bd
00000140: 0744 bbbd c0eb babb c136 903e 08d8 6e3e
00000150: b777 393e 4094 083d daed 793c f6e5 d23d
00000160: e7c2 313d 6a62 943d 53af f13d 645b fabd
00000170: 802d 8d3d 93ab 173e 5c4c c6bd 2280 7cbd
00000180: 968f afbc 71a6 643d f68f 0a3d 8947 2abe
00000190: 6798 f0bc 8637 39be 805b a93d 6be9 4abe
000001a0: 0d79 5dbd 312c 0b3c 3e19 3e3e 55b4 743d
000001b0: 46fb 033e 630f 5e3d 767f 60be b49a 1cbe
000001c0: 0af6 62be 9d9f a9bd a871 0bbf 1a82 c0be
000001d0: 8c52 8a3f a765 26be 387f 73bd 5f13 af3d
000001e0: 209e 013e 2ffb 383e d039 053e b94b 08bc
000001f0: 6d13 5f3d 12cf 63be 33e5 47bd adcb 68be
00000200: ccda 4dbe f494 c93c 1353 41be 1247 58bd
00000210: 483a a53d bee0 2b3e ab0c 0c3f ef3b 8c3f
00000220: 3549 76bd 3c91 70be f634 233e 22f0 07be
00000230: 6234 c3bc 9a50 233e 17d8 5b3d 762f c03d
00000240: e61e 3ebe 5ac4 113d 1356 403e 7562 8bbe
00000250: 752c 443e 5154 26be 233a debd f829 25be
00000260: 47a1 05bf 2e9c acbe d251 2f3f 16ed 87be
00000270: 60d1 81be 970b 81be cb3e acbd e3b2 553e
00000280: de23 8bbd eb50 af3d 01e7 f13d 8c8b 213d
00000290: f291 2dbe 4f0a 6ebe db95 31be 9f70 683e
000002a0: c1e2 06be 14d4 68be 90aa 63be 9f15 db3d
000002b0: 4e26 e1be bee1 623f c609 3cbe 4fe2 0d3e
000002c0: 3733 243c 9433 dabc 9a3a c5bd 3f3f 10be
000002d0: d7ff 343e 713a 75be fc41 85be f294 45be
000002e0: 530f 2dbe d3e5 95bc f8c3 d3bd aeb1 8ebd
000002f0: d53c 7ebe 9481 70be ed71 a0be 56e5 86be
00000300: 8f56 8cbf d149 60bc 549b 95be ae12 013e
00000310: 0e2b 44be f5cb 97bd 4b3c e33d 4e05 853d
00000320: 224e 523b 7411 28be 6c1d edbd 6640 91be
00000330: 0afd c3bd 8797 64bd ed05 143e a6fd 96be
00000340: 29a0 a03d b2f0 babe 652f 91bd 01c9 a03f
00000350: 99d9 393e 6531 1fbe 9c63 f33d 5deb 82bd
00000360: ec05 e93d ad82 fbbd fe3d 7bbe b035 04bd
00000370: e4bc 26bd 1bf8 72be ab84 c9bd 4630 963c
00000380: feca 263e 46b7 653e 4f26 b6bd fc29 4bbe
00000390: 6f0d dabd 8e5b e53e 9ec1 e03a 73a7 c1bd
000003a0: f2db 4c3e b89a 83bc e4b3 1a3e b386 223b
000003b0: 83c4 1d3e 71fe 35be 60f5 81be 328f 57be
000003c0: aaac fdbd 5b0d 04be a315 f7bd 86b7 05be
000003d0: 5b39 143e dc80 203e 870b f5bd f06f 0abf
000003e0: 38ee acbe f1ad 7dbd 3ba7 3c3e e1f2 20be
000003f0: 0899 1f3e b204 903e e9b0 fdbd f8d9 703c

kp2.mlp.0.bias f4 [32]
-0.22895958 0.07547865 0.036511645 0.42430285 0.09519333 -0.10314423 0.2134384 -0.0246606
0.319495 0.042317353 -0.077778384 0.09107116 0.24352698 -0.11876816 0.2689169 0.2627405
0.18740843 0.041832656 0.2950819 -0.17219937 0.065294646 0.18485759 0.004286849 0.058073718
-0.26952544 0.16332875 0.18997185 -0.06505731 0.16677679 -0.18628564 -0.15179521 0.036876902
00000000: 6174 6abe 8d94 9a3d 3c8d 153d 393e d93e
00000010: b8f4 c23d 483d d3bd 998f 5a3e 0705 cabc
00000020: d994 a33e f654 2d3d 464a 9fbd 8483 ba3d
00000030: 235f 793e b93c f3bd 7aaf 893e ec85 863e
00000040: ffe7 3f3e b858 2b3d fa14 973e 0855 30be
00000050: 33b9 853d 4f4b 3d3e b278 8c3b b5de 6d3d
00000060: 3dff 89be a73f 273e fb87 423e c43c 85bd
00000070: 89c7 2a3e aac1 3ebe 3470 1bbe 3c0c 173d

kp2.mlp.2.weight f4 [32, 32]
0.1492457 0.01924545 0.36525932 0.05968865 0.2792768 0.13135915 0.015210338 0.19872093
-0.02301126 -0.23659019 0.0540412 0.15183385 -0.009085164 0.10841595 0.19461416 -0.054521758
-0.3455913 -0.019410338 -0.09034755 0.08395801 -0.111105956 -0.05648214 0.018471597 0.47764283
0.07465634 0.13436167 0.013261857 0.051450882 -0.14637035 -0.070755705 -0.081081845 -0.04997102
-0.15151674 -0.35820735 -0.27489784 -0.107811704 -0.35924342 -0.10053925 0.08604309 0.027727129
0.08237182 0.028571209 0.09069784 0.18063621 0.18042263 0.1983264 -0.20645998 -0.2745942
-0.08994101 -0.18049449 -0.26235244 0.062190566 0.14458677 0.016529925 0.24726331 0.26154885
-0.12632532 0.09377266 -0.16404095 0.17158021 0.07660913 0.0047427155 0.10839016 -0.012893544
0.07740328 0.045525376 -0.11408938 0.0335196 -0.26794744 0.09007127 -0.014888493 0.11881906
-0.13393268 -0.1972333 0.15185264 -0.19095078 0.06970419 -0.084759384 -0.17820235 -0.29308075
-0.24495567 -0.2313361 -0.09202877 0.224483 -0.19700494 -0.28661335 0.07763027 -0.5312115
0.11799964 -0.19703087 -0.1549824 -0.14397538 -0.054033607 0.4050573 0.022562684 -0.07634272
-0.1230774 -0.028774673 0.19612749 -0.074578874 0.107127026 -0.051199067 0.045889042 0.04608652
-0.07885632 -0.012013774 -0.23275928 -0.12625839 -0.095687106 -0.1409584 0.2193067 0.12122266
-0.2630863 -0.030964483 -0.048749026 0.18689728 0.041479055 -0.033668455 -0.12837805 0.077404685
0.032312118 0.024331756 0.2843278 0.2786634 -0.048906144 0.083094046 0.11583147 -0.1473337
0.15686347 -0.2219923 -0.505749 -0.27357197 -0.29788035 -0.13637444 -0.05371809 -0.2633629
-0.02851298 -0.0070066075 0.17246182 -0.14893061 -0.17725937 0.08965172 -0.035969544 -0.30886546
-0.055144787 -0.37970263 -0.14888869 0.0864354 -0.018112026 -0.099939294 0.065593064 -0.22344811
0.2333049 -0.3305784 -0.2339996 0.26443583 0.097500354 -0.38204253 0.16767193 0.28047064
0.003971162 -0.123200424 0.032324504 -0.29342762 0.32292578 -0.03017324 0.024672773 0.097402036
-0.10840095 -0.059518896 -0.07800738 -0.025748257 0.044696793 0.07667232 -0.08252945 0.21880898
-0.2602702 0.006186577 0.20141046 0.053410254 -0.024245732 -0.048154075 0.10581749 0.28127733
0.19442306 0.04324922 0.25354135 -0.018017983 -0.19729254 0.15057464 0.21959327 -0.1957221
-0.058871772 0.1452902 -0.21432638 -0.4192372 -0.027681088 0.0021369695 -0.21014243 -0.20553552
-0.032100014 -0.11495603 0.14644666 -0.015191957 -0.10087456 -0.13805309 -0.14622448 0.20047036
-0.12552866 0.11272073 0.21981142 0.23833025 0.0957554 0.025010737 -0.07313908 -0.15535903
0.25244743 -0.021599934 -0.037992027 0.2737845 -0.23979941 -0.3827561 0.17271474 -0.017678391
0.094272606 -0.24051225 0.0031172847 -0.002403446 -0.3433001 -0.029537695 0.23054342 0.013894003
0.21860199 -0.1526237 -0.1628102 0.006715645 -0.057238277 0.061148893 -0.067167215 -0.26477033
0.12088208 0.11477276 -0.2680414 -0.057730984 0.14382525 0.1206088 0.22360489 -0.019732105
0.10574282 0.12531474 0.10995743 0.18672447 0.2050701 0.050593022 -0.11091595 -0.12005471
00000000: ddd3 183e a2a8 9d3c 4503 bb3e 167c 743d
00000010: 5efd 8e3e 0383 063e c834 793c 807d 4b3e
00000020: 1c82 bcbc b344 72be 4e5a 5d3d 557a 1b3e
00000030: f1d9 14bc 2e09 de3d ef48 473e 3552 5fbd
00000040: 58f1 b0be 6e02 9fbc 2308 b9bd 2df2 ab3d
00000050: 858b e3bd d159 67bd bf51 973c 9a8d f43e
00000060: 6ce5 983d 1b96 093e 4348 593c 29be 523d
00000070: 1ce2 15be 5ee8 90bd 3d0e a6bd 6aae 4cbd
00000080: 3427 1bbe f466 b7be 69bf 8cbe 62cc dcbd
00000090: c1ee b7be 86e7 cdbd 5c37 b03d 0124 e33c
000000a0: 8fb2 a83d 2b0e ea3c cabf b93d b3f8 383e
000000b0: b6c0 383e 1316 4b3e 3f6a 53be 9c97 8cbe
000000c0: fe32 b8bd 8cd3 38be 0f53 86be 89bb 7e3d
000000d0: 8e0e 143e c469 873c 9832 7d3e bbe9 853e
000000e0: 6d5b 01be e10b c03d 5afa 27be b9b2 2f3e
000000f0: 3fe5 9c3d c868 9b3b a9fb dd3d 713f 53bc
00000100: 9c85 9e3d d178 3a3d b1a7 e9bd d94b 093d
00000110: 6830 89be 4977 b83d deee 73bc 6857 f33d
00000120: a625 09be 87f7 49be 427f 1b3e 9a88 43be
00000130: 12c1 8e3d 5496 adbd ad7a 36be ae0e 96be
00000140: a9d5 7abe 5fe3 6cbe 9479 bcbd dfde 653e
00000150: aabb 49be fcbe 92be 9efc 9e3d 7afd 07bf
00000160: cca9 f13d 76c2 49be b5b3 1ebe 486e 13be
00000170: 5852 5dbd ac63 cf3e 61d5 b83c 9259 9cbd
00000180: 0110 fcbd ddb8 ebbc a5d5 483e cfbc 98bd
00000190: 6a65 db3d 1db6 51bd 26f6 3b3d 38c5 3c3d
000001a0: 6c7f a1bd 6cd5 44bc 7358 6ebe e149 01be
000001b0: 9af7 c3bd 6657 10be f091 603e 9643 f83d
000001c0: 3fb3 86be 3aa9 fdbc 0fad 47bd 0062 3f3e
000001d0: f1e5 293d efe7 09bd 8975 03be 5986 9e3d
000001e0: b659 043d 6453 c73c 6a93 913e f8ac 8e3e
000001f0: cf51 48bd 362d aa3d 0d39 ed3d a5de 16be
00000200: d1a0 203e f351 63be c478 01bf a011 8cbe
00000210: c683 98be bea5 0bbe 8007 5cbd 81d7 86be
00000220: 0e94 e9bc af97 e5bb d599 303e 4481 18be
00000230: 7b83 35be 529b b73d cd54 13bd 9d23 9ebe
00000240: 80df 61bd 6268 c2be 4776 18be 0b05 b13d
00000250: ac5f 94bc f9ac ccbd a855 863d 95cf 64be
00000260: 7be7 6e3e 9241 a9be 979d 6fbe 2264 873e
00000270: 44ae c73d 149b c3be 31b2 2b3e d999 8f3e
00000280: 8520 823b 8150 fcbd b366 043d 253c 96be
00000290: 8756 a53e df2d f7bc 8e1e ca3c b87a c73d
000002a0: 5101 debd 16ca 73bd 55c2 9fbd 02ee d2bc
000002b0: fc13 373d 6106 9d3d 3305 a9bd 760f 603e
000002c0: 2342 85be c5b8 ca3b 8b3e 4e3e b6c4 5a3d
000002d0: fc9e c6bc 353d 45bd d7b6 d83d 9503 903e
000002e0: d716 473e 1826 313d 2cd0 813e 739a 93bc
000002f0: 0e07 4abe 3d30 1a3e 0fdd 603e 606b 48be
00000300: 8723 71bd f4c6 143e 6078 5bbe 42a6 d6be
00000310: 73c3 e2bc 660c 0c3b 942f 57be e777 52be
00000320: 4e7b 03bd 116e ebbd 1df6 153e b0e7 78bc
00000330: 5297 cebd ca5d 0dbe dfbb 15be 1a48 4d3e
00000340: 968a 00be 20da e63d 3f16 613e d80c 743e
00000350: 681b c43d 51e3 cc3c f1c9 95bd 7016 1fbe
00000360: ca40 813e 58f2 b0bc 879d 1bbd 7b2d 8c3e
00000370: fa8d 75be 9cf8 c3be 22dc 303e 46d2 90bc
00000380: ff11 c13d d848 76be 5c4b 4c3b 2283 1dbb
00000390: 08c5 afbe 09f9 f1bc 9313 6c3e aca3 633c
000003a0: 33d9 5f3e 6349 1cbe b8b7 26be ea0e dc3b
000003b0: af72 6abd 4377 7a3d f78e 89bd fa8f 87be
000003c0: 0691 f73d fb0d eb3d b93c 89be 5377 6cbd
000003d0: ed46 133e bf01 f73d aef8 643e 39a5 a1bc
000003e0: b18f d83d 8252 003e 5c31 e13d b334 3f3e
000003f0: e5fd 513e a13a 4f3d e727 e3bd 3edf f5bd

kp2.mlp.2.bias f4 [32]
-0.046610333 -0.062695116 -0.024178643 0.041651633 -0.1409178 0.14749332 -0.19745788 -0.02960053
0.087793835 -0.0073250043 -0.14446239 -0.086090595 -0.10459257 -0.18743329 0.043535084 -0.042199392
-0.27321926 -0.11662586 -0.08935681 -0.27601054 -0.21985847 -0.07973889 0.07626065 -0.15311141
0.11058846 0.098816134 -0.12113589 0.012119674 -0.21674138 -0.08831879 0.05544344 0.084935606
00000000: 7aea 3ebd 4c66 80bd 4a12 c6bc e79a 2a3d
00000010: c14c 10be 7d08 173e 6632 4abe d07c f2bc
00000020: 41cd b33d 9706 f0bb f3ed 13be 4450 b0bd
00000030: a134 d6bd 83ee 3fbe d851 323d 45d9 2cbd
00000040: 65e3 8bbe 8ad9 eebd b400 b7bd 4151 8dbe
00000050: 9422 61be 254e a3bd 8b2e 9c3d 3dc9 1cbe
00000060: 347c e23d 1d60 ca3d 1816 f8bd 9991 463c
00000070: 74f1 5dbe 7be0 b4bd a918 633d b8f2 ad3d

head.0.weight f4 [32, 32]
0.16843481 0.08819773 -0.0065814494 0.03954302 0.07473487 0.06746239 -0.04257268 0.21010885
0.22894767 0.038785413 -0.07066782 -0.17075785 -0.1585241 0.24714184 -0.24040134 0.07857814
-0.05913872 -0.027883848 0.19044752 0.18822487 0.07205534 0.06396141 -0.13450232 0.31696078
-0.09936665 0.29675314 0.06575737 -0.108226225 0.00091879384 -0.015159299 0.42328656 0.048524264
0.027292525 0.028756008 0.044765245 0.11844752 0.13278952 -0.07976051 0.17200951 -0.19486591
0.061107818 0.15484627 0.18167084 -0.095903315 0.023224933 -0.034955245 -0.13627943 0.054706555
0.0116620865 0.12643085 -0.07242411 -0.14521956 -0.0016332502 0.12190207 -0.061701264 -0.093219474
-0.120711334 0.098685965 -0.049673285 -0.0007439794 0.18154268 0.091833696 -0.18460895 -0.19501646
0.043957442 -0.20327304 -0.07663083 0.060879964 -0.24914096 -0.16809246 -0.4191666 0.061826352
0.15747565 0.26227188 -0.25915986 -0.21276313 -0.20906417 0.0016479647 -0.3194181 0.11493321
-0.27940503 -0.13344854 0.023261333 -0.2193158 -0.063422345 -0.48694226 0.1644412 -0.021280266
0.29042393 -0.15133272 -0.20142484 0.206826 -0.3028991 -0.16181417 -0.39526466 -0.07152126
-0.024853665 -0.1011517 -0.2999154 0.16040117 -0.26606023 0.08468906 -0.40105885 0.0028663075
0.188601 0.13955566 -0.22143391 -0.255406 -0.05299434 0.04660898 -0.3905182 -0.057858497
-0.20075475 -0.17840041 -0.28658178 -0.14185897 -0.12319581 -0.5556635 0.02299045 -0.1437646
0.24117821 -0.06204777 0.013698713 0.24408956 -0.33917058 -0.31026807 -0.22372758 0.037224997
-0.019640787 -0.038034104 0.48925632 -0.06847524 0.27349567 0.20704599 0.0051710606 -0.07952996
0.16328438 -0.01369112 0.17063424 0.1408449 -0.046404026 -0.020170085 0.43327078 -0.004105518
0.033936035 -0.052549083 0.21235913 0.084222265 -0.0471615 0.10942707 -0.011447481 0.089725256
0.008923594 -0.22024713 0.16357197 0.11829018 0.22212158 0.2690083 0.06966964 -0.16511436
-0.05936406 -0.094402984 0.1922468 0.00014349094 0.03221889 0.10664187 -0.028948091 -0.019960305
0.17350808 -0.012938088 0.06479056 0.17026028 -0.060518313 0.18191907 0.046106804 -0.13249026
0.12573884 -0.043412905 -0.07013589 0.05582184 -0.1694917 0.19274884 -0.053222705 0.005539576
0.062436596 0.030517751 -0.08530992 0.028819982 0.21161476 -0.0920651 -0.020001555 0.15179603
-0.03632791 0.08614847 -0.18504511 0.11691888 -0.3105921 0.2093604 -0.13072035 0.20159012
-0.054975644 0.28413692 -0.115127146 -0.20423074 -0.18749095 0.042685993 -0.15776142 0.14411896
-0.13234422 -0.056905057 -0.11396263 -0.010869827 -0.09349384 -0.4654161 0.17399883 -0.078586586
0.12546861 0.1910204 -0.04800749 0.12438435 -0.11991525 -0.14626119 0.11358576 7.58001e-05
-0.19514681 -0.04162542 -0.034977175 -0.14669347 0.022355737 -0.15554634 -0.11687041 -0.051975638
-0.034081686 -0.10562443 0.078485645 -0.10312181 0.025443934 0.01061963 -0.026396748 0.12927599
0.10348227 -0.009896073 -0.0028618218 0.13169132 0.13066323 -0.0150920795 -0.11100787 0.041307323
-0.12280956 0.15174077 -0.113722384 -0.089621946 -0.14256512 -0.1128968 -0.042335242 0.03662956
00000000: 2d7a 2c3e 03a1 b43d 33a9 d7bb ddf7 213d
00000010: 980e 993d b929 8a3d b160 2ebd c626 573e
00000020: 4271 6a3e 74dd 1e3d 4aba 90bd 25db 2ebe
00000030: 2454 22be c012 7d3e c52b 76be 93ed a03d
00000040: 713b 72bd ab6c e4bc ad04 433e 05be 403e
00000050: c091 933d 33fe 823d faba 09be af48 a23e
00000060: be80 cbbd 07f0 973e cdab 863d b6a5 ddbd
00000070: 36db 703a b55e 78bc 04b9 d83e 61c1 463d
00000080: 9394 df3c b891 eb3c c35b 373d 9d94 f23d
00000090: faf9 073e 7a59 a3bd 4323 303e ee8a 47be
000000a0: 314c 7a3d 0590 1e3e ec07 3a3e f568 c4bd
000000b0: 3742 be3c 3b2d 0fbd d68c 0bbe fb13 603d
000000c0: 5612 3f3c 1777 013e 1753 94bd 70b4 14be
000000d0: c812 d6ba cba7 f93d 77ba 7cbd dae9 bebd
000000e0: 8137 f7bd de1b ca3d 3776 4bbd 9d07 43ba
000000f0: 53e6 393e 4e13 bc3d 210a 3dbe 65b2 47be
00000100: b80c 343d cf26 50be a0f0 9cbd 455d 793d
00000110: cf1e 7fbe 6e20 2cbe 019d d6be a13d 7d3d
00000120: 4c41 213e 8048 863e 9ab0 84be 94de 59be
00000130: eb14 56be 8500 d83a c58a a3be 1a62 eb3d
00000140: 2d0e 8fbe bca6 08be 8d8e be3c 5294 60be
00000150: 93e3 81bd 7f50 f9be 4663 283e f453 aebc
00000160: 72b2 943e f7f6 1abe 5042 4ebe 32ca 533e
00000170: 9715 9bbe 9db2 25be 2160 cabe bd79 92bd
00000180: ea99 cbbc 9f28 cfbd 838e 99be 3440 243e
00000190: 0c39 88be 7571 ad3d 9657 cdbe a9d8 3b3b
000001a0: 9f20 413e aee7 0e3e 92bf 62be 93c4 82be
000001b0: 9810 59bd 0fe9 3e3d 00f2 c7be 08fd 6cbd
000001c0: a792 4dbe 99ae 36be d9ba 92be 7a43 11be
000001d0: 164e fcbd f73f 0ebf 7856 bc3c 0737 13be
000001e0: 6cf7 763e cd25 7ebd 9170 603c 9df2 793e
000001f0: c4a7 adbe 75db 9ebe d818 65be 3d79 183d
00000200: b7e5 a0bc a6c9 1bbd ce7f fa3e bf3c 8cbd
00000210: a007 8c3e dd03 543e 0072 a93b 9be0 a2bd
00000220: 0534 273e b850 60bc beba 2e3e a539 103e
00000230: 2612 3ebd bc3b a5bc abd5 dd3e 9587 86bb
00000240: 8300 0b3d b53d 57bd ac74 593e b97c ac3d
00000250: 6b2c 41bd 4d1b e03d 378e 3bbc e0c1 b73d
00000260: 4434 123c 7788 61be 697f 273e 1f42 f23d
00000270: d773 633e 75bb 893e f5ae 8e3d bd13 29be
00000280: bb27 73bd 5a56 c1bd 58dc 443e 0e76 1639
00000290: f4f7 033d 0e67 da3d 8c24 edbc cb83 a3bc
000002a0: 1aac 313e 46fa 53bc eab0 843d b658 2e3e
000002b0: 0de2 77bd fe48 3a3e 7dda 3c3d 87ab 07be
000002c0: afc1 003e bbd1 31bd 68a3 8fbd 71a5 643d
000002d0: 3b8f 2dbe f45f 453e 0d00 5abd 5585 b53b
000002e0: 84bd 7f3d 5d00 fa3c f8b6 aebd e217 ec3c
000002f0: 8ab1 583e a18c bcbd 4dda a3bc 6b70 1b3e
00000300: 93cc 14bd 9c6e b03d 777c 3dbe 2a73 ef3d
00000310: ed05 9fbe 9362 563e 8edb 05be a46d 4e3e
00000320: 242e 61bd 657a 913e c8c7 ebbd dd21 51be
00000330: a1fd 3fbe 82d7 2e3d 368c 21be ec93 133e
00000340: 3e85 07be 4715 69bd 3d65 e9bd 5c17 32bc
00000350: b379 bfbd 054b eebe c02c 323e 01f2 a0bd
00000360: d87a 003e da9a 433e 80a3 44bd 39bd fe3d
00000370: 2096 f5bd 7ec5 15be a79f e83d def6 9e38
00000380: 91d4 47be 6b7f 2abd 3a44 0fbd d036 16be
00000390: 6123 b73c 8a47 1fbe c159 efbd 68e4 54bd
000003a0: 3d99 0bbd 9f51 d8bd 15bd a03d 8731 d3bd
000003b0: cc6f d03c f5fd 2d3c fe3d d8bc ed60 043e
000003c0: 83ee d33d 2323 22bc 678d 3bbb 17da 063e
000003d0: 95cc 053e c544 77bc 1858 e3bd de31 293d
000003e0: 9483 fbbd ef61 1b3e 48e7 e8bd b68b b7bd
000003f0: 97fc 11be 7036 e7bd b867 2dbd e108 163d

head.0.bias f4 [32]
0.008975441 -0.1437156 0.26365882 0.3444196 -0.13081406 -0.15774189 0.06390716 0.0986045
0.14486063 0.06437209 0.2095543 -0.0792701 -0.046061542 0.33002728 -0.06968745 -0.0003477202
-0.0042928145 0.14501692 -0.20670296 0.0007607879 0.123483524 -0.0032032218 0.071128875 -0.18936251
-0.06605658 0.062385537 -0.014380913 0.05577146 -0.04568477 -0.050508298 0.26886338 0.102563664
00000000: ba0d 133c 2f2a 13be 4afe 863e c457 b03e
00000010: 1ff4 05be 1787 21be c2e1 823d 28f1 c93d
00000020: 5856 143e 84d5 833d 6795 563e 5d58 a2bd
00000030: 07ab 3cbd 56f9 a83e 4bb8 8ebd 374e b6b9
00000040: bdaa 8cbb 517f 143e f1a9 53be 9d6f 473a
00000050: eee4 fc3d 25ed 51bb 04ac 913d 3fe8 41be
00000060: ac48 87bd fa87 7f3d ec9d 6bbc 9d70 643d
00000070: f41f 3bbd cae1 4ebd 76a8 893e e60c d23d

head.2.weight f4 [3, 32]
0.06227089 0.011262561 0.0040776753 -0.11183787 0.4256448 0.12987907 0.012209 -0.14302993
0.04046576 -0.16365986 -0.14074647 0.11222568 -0.04523999 -0.39175698 -0.07800461 -0.017427146
-0.0073765013 -0.018840328 0.009469198 0.24286631 0.3755476 0.76720804 -0.23203959 0.3022334
0.298183 0.026402362 -0.14713645 0.17287 0.101636685 0.24893132 -0.35939413 -0.12946546
-0.05252339 0.0017941326 -0.35786402 -0.5008694 -0.23664552 -0.17187342 -0.26664263 0.018120088
-0.21904024 -0.27174115 -0.28835246 0.13363783 0.14883836 0.44197994 0.123824574 0.0793648
0.13325207 0.2080191 0.22569554 -0.06558247 -0.216608 -0.64064384 -0.18802148 0.20272851
0.19016881 -0.28089747 0.15020062 -0.11042491 -0.14950995 0.0518019 0.30015227 0.14002563
-0.22480324 0.102396816 0.2405427 0.08809567 0.0067806854 -0.0060101193 -0.021086877 -0.04773222
-0.062492874 0.34728628 0.31326532 0.16378404 -0.088481866 0.29461864 -0.0011027706 0.15841734
-0.23097382 -0.42149588 -0.36911112 -0.10002571 0.035511732 -0.006567873 0.35570845 -0.32784352
-0.31230545 -0.09349246 0.0052377363 0.098426916 -0.3189232 -0.30528218 0.50843394 0.28092933
00000000: c30f 7f3d 9b86 383c 059e 853b 410b e5bd
00000010: 1dee d93e 05ff 043e 4208 483c 7076 12be
00000020: 6dbf 253d 7396 27be d81f 10be 94d6 e53d
00000030: 914d 39bd 5f94 c8be e2c0 9fbd 60c3 8ebc
00000040: 94b6 f1bb 0857 9abc b224 1b3c f2b1 783e
00000050: c647 c03e bf67 443f c99b 6dbe 56be 9a3e
00000060: 71ab 983e c449 d83c f0aa 16be d504 313e
00000070: e526 d03d dae7 7e3e 8202 b8be 9892 04be
00000080: c422 57bd 1a29 eb3a f439 b7be fa38 00bf
00000090: 3453 72be 96ff 2fbe 6285 88be 9470 943c
000000a0: 164c 60be a821 8bbe efa2 93be 5bd8 083e
000000b0: 1569 183e 324b e23e bd97 fd3d 038a a23d
000000c0: 3b73 083e f502 553e bb1c 673e 1a50 86bd
000000d0: 7dce 5dbe 3c01 24bf b488 40be 1098 4f3e
000000e0: 9dbb 423e cbd1 8fbe 31ce 193e 7526 e2bd
000000f0: 2319 19be 3b2e 543d 8fad 993e e162 0f3e
00000100: d232 66be 6cb5 d13d d350 763e 816b b43d
00000110: 8330 de3b 89f0 c4bb 63be acbc dc82 43bd
00000120: 87f8 7fbd 82cf b13e 5064 a03e 01b7 273e
00000130: fb35 b5bd 41d8 963e d78a 90ba 2838 223e
00000140: 6784 6cbe 4fce d7be 22fc bcbe 48da ccbd
00000150: c074 113d 5037 d7bb 6b1f b63e 1bdb a7be
00000160: 80e6 9fbe fa78 bfbd 51a1 ab3b 0d94 c93d
00000170: e749 a3be f24d 9cbe ba28 023f f8d5 8f3e

head.2.bias f4 [3]
-0.05959877 0.12612534 0.008416273
00000000: d71d 74bd 0027 013e 68e4 093c
