checkpoints_kpconv_24nov/checkpoint_epoch_11_24nov.pth (torch, 19297 bytes, 14 tensors)

fc0.weight f4 [8, 3]
000000 88 1d 1e 3e f7 1b b1 be 1a 8b fc be a6 da ea be
       0.15440953 -0.34591648 -0.49324876 -0.4586994
000010 90 c2 85 3e 12 ac 7a 3e 98 02 4b bd a9 eb 34 bd
       0.26125002 0.24479702 -0.04956302 -0.044170056
000020 d5 85 ee be 7e ec e5 3e e0 29 a3 be 36 b9 91 bd
       -0.4658648 0.44906992 -0.31867886 -0.07115404
000030 ee f4 c9 ba 6c 2f 91 3e 7a 9c 9e 3e c6 bf 81 bd
       -0.0015408078 0.28356493 0.30978757 -0.06335406
000040 8a f0 a5 3e e5 b0 a5 3e a2 37 c6 be bf 72 a4 bd
       0.3241008 0.32361522 -0.3871432 -0.080296986
000050 4c a8 70 3e 83 4b 87 3e 6c 0c 49 3d 4b fa bd be
       0.235017 0.26424798 0.049084112 -0.3710502

fc0.bias f4 [8]
000000 9c 45 c6 3e 27 1e e7 3e 32 d7 9e 3e ff 78 88 be
       0.38724983 0.45140192 0.31023556 -0.26654813
000010 27 a5 1a 3f d8 61 f6 be 2c 7c 4f 3d 18 c0 63 bd
       0.6040825 -0.48121524 0.05065553 -0.055603117

kp1.mlp.0.weight f4 [16, 11]
000000 08 a0 32 3f df 10 7e be 38 93 c1 bd f8 e9 a8 bd
       0.6977544 -0.24811123 -0.09451908 -0.08247751
000010 0f 7c a2 3e e5 3f 8f 3d 7f 2e 86 3e b3 12 f8 bd
       0.31735274 0.06994609 0.2620735 -0.121129416
000020 ed 54 d7 bd 41 8c 21 be c9 30 8b 3e 0e 4b bd 3e
       -0.10514245 -0.15776159 0.27185658 0.36971325
000030 95 86 25 3e 91 65 07 3e 63 88 eb bc 62 51 d3 bd
       0.1616462 0.13222338 -0.028751558 -0.10318257
000040 8d 02 75 3e 16 d3 e9 ba dc e2 c9 bc 5c 05 1c be
       0.23926754 -0.0017839398 -0.024644308 -0.1523642
000050 8a 0a 8c bd f1 4e 2c 3e 68 fa 3c 3f 61 ea 45 bf
       -0.06837948 0.16826989 0.7381959 -0.7731076
000060 68 ef 6f 3e 8e c1 68 3d 4a 7f 25 be ab 22 3a 3e
       0.2343117 0.056825213 -0.16161838 0.18177287
000070 3c 4a 06 3e e6 41 3d 3e 74 ce 11 be 31 36 93 3e
       0.13114256 0.1848217 -0.14238912 0.28752282
000080 4d 5f 2c be 29 be 04 3f 9c 78 15 bd 42 a9 27 3d
       -0.1683323 0.5185266 -0.036491975 0.0409329
000090 cf 19 00 be b6 4e 0b be d8 cc 8c bd b4 4b 3b 3e
       -0.12509845 -0.13604245 -0.06875008 0.18290597
0000a0 c1 7e 95 3d f0 67 46 be 5a ea 1e be ce 4d 25 be
       0.07299567 -0.19375587 -0.15519086 -0.16142961
0000b0 19 db 45 3d 8f 83 17 bf 93 68 3e 3d e2 f7 63 3e
       0.04830465 -0.5918512 0.04648645 0.22262529
0000c0 c6 91 22 3e 8f 5a 31 be 19 99 8c bd 52 9e 05 3e
       0.1587592 -0.17319702 -0.068651386 0.13048676
0000d0 c1 55 9c bc b5 37 f4 3c 27 69 04 3e 5b fc f8 bd
       -0.01908386 0.02981172 0.12930737 -0.12157508
0000e0 6d d9 0e 3e 8c 1b 9a bd 76 49 29 3e 83 df 54 bd
       0.13950129 -0.075247854 0.1653193 -0.05197097
0000f0 1e bc 59 be 95 42 91 be 28 11 87 be 37 ff 87 be
       -0.21263167 -0.2837111 -0.26380277 -0.265619
000100 3b ba 58 3e 62 a8 9c be 51 73 59 bf e9 0c 5c bf
       0.21164791 -0.30597216 -0.84941584 -0.859572
000110 15 4b 33 3c 53 f4 b8 bc 20 f6 2b be 1c 78 4a 3e
       0.010943194 -0.02257744 -0.16793108 0.1977238
000120 a1 70 f8 3d c4 8d ad 3e 61 e7 09 bd f0 ff 57 3e
       0.12130857 0.3389722 -0.033667926 0.21093726
000130 f4 9e cd bd 5d d5 b0 bd 3c 97 06 bf 9f 6f 5d 3e
       -0.100400835 -0.08634446 -0.52574515 0.21624611
000140 c9 09 b6 bd 35 d4 0e 3d ea 0b 1d bc de f6 52 3e
       -0.08888585 0.034870345 -0.00958536 0.20601985
000150 5e e2 5a be 44 bb 54 3e 5c 27 6d 3d 32 46 85 3e
       -0.21375415 0.20774561 0.057898864 0.26030117
000160 7f b1 95 3e 6c 7f a6 be c8 89 f3 be d3 b5 41 bd
       0.2923698 -0.3251909 -0.47566056 -0.04729254
000170 ec ad 05 be 9e 1a 5b 3e 15 97 8c bc 5d 76 27 be
       -0.13054627 0.21396872 -0.017161885 -0.16353746
000180 e9 64 9b 3d 7e 0e 15 bd 4c 55 bf 3c 10 73 30 bf
       0.075876065 -0.036390774 0.023356102 -0.6892557
000190 11 3c 82 be c3 a1 a1 bd ab dd 78 3e d6 73 47 3e
       -0.25436452 -0.07892182 0.2430331 0.19477782
0001a0 af 49 dd 3c cc 38 2f be 10 0b 42 be d3 a9 3e 3e
       0.027012674 -0.1711151 -0.18949533 0.1861947
0001b0 3a 11 60 3e 6b 04 11 3e 77 55 b1 3e ff b1 fd be
       0.21881571 0.14161842 0.34635517 -0.49549863
0001c0 f2 74 56 bd 1e 74 62 3d c4 74 86 be c1 2e d9 bd
       -0.05235762 0.05528652 -0.2626096 -0.10604621
0001d0 1d 92 10 be 6f 42 3a 3e 72 c9 60 bd 8a bc 81 3d
       -0.14118238 0.18189405 -0.054879613 0.06334789
0001e0 95 18 3b 3e 60 cc 39 3f 8c b9 64 bf 57 ad 69 3e
       0.18271096 0.72577477 -0.8934562 0.2282003
0001f0 48 e8 9a 3d b2 c1 77 3e 45 42 a6 3e da 37 93 3e
       0.075638354 0.24194983 0.32472435 0.2875355
000200 00 68 6e be 7f 0f 87 3e c9 9e 1d be 13 61 8d 3d
       -0.2328186 0.2637901 -0.15392603 0.06903281
000210 bc 76 4d 3f 91 c8 54 bf f8 d3 1d bd e5 35 bf 3d
       0.802593 -0.8311854 -0.038532227 0.093364514
000220 17 35 3f 3c e4 ea 8f 3e 9e 76 af bd ea 6f a5 3d
       0.011670372 0.28108895 -0.08567546 0.080779865
000230 57 f0 f9 3d 21 95 b6 bd 36 ba 0f 3e 50 a3 06 bf
       0.12204044 -0.08915163 0.14035878 -0.52592945
000240 54 bc 12 3f fb 35 72 3d c9 a9 92 3e 80 da 33 3e
       0.57318616 0.05913351 0.2864516 0.1756382
000250 11 e3 09 be 50 cf 53 3e bf 1a 87 3e f4 a9 9b bd
       -0.13465525 0.20684552 0.26387593 -0.07600775
000260 d0 b4 89 3e 63 e2 6e be 4c 55 c8 3e d7 48 23 3f
       0.2689576 -0.23328547 0.39127576 0.6378302
000270 5b e8 03 3e 57 b4 1b bc 7b e3 11 be 16 22 16 3e
       0.12881605 -0.009503446 -0.14246933 0.1466144
000280 4a 52 48 3e f4 01 55 3e 3e e1 64 3d 15 e5 e2 3d
       0.19562641 0.20801526 0.05587887 0.1107885
000290 88 8d 93 3e c0 89 15 3e 29 cb eb 3e d6 11 e7 3d
       0.28818917 0.14603329 0.46053436 0.11282699
0002a0 0c 4e 82 be a9 77 18 bf dd 5e 2d be bb d3 42 3e
       -0.2545017 -0.59557587 -0.16930719 0.19026081
0002b0 d8 9b 7c 3d 0d 50 96 be 47 66 cc 3d 66 1a 54 bd
       0.06167206 -0.2935795 0.09980445 -0.051782988

kp1.mlp.0.bias f4 [16]
000000 1e a8 9f bc 6a a8 54 bd ae fd 92 3e 05 50 ae be
       -0.019489344 -0.051918425 0.28709167 -0.34045425
000010 82 5c bf be 6e 8c 86 bb f4 59 1d bd a0 23 bd bb
       -0.37375265 -0.004106096 -0.038415864 -0.005772069
000020 c4 ee a8 bc b5 6d 4e be dd a2 04 3e b8 24 df bd
       -0.020621665 -0.20159037 0.12952752 -0.108956754
000030 20 de 77 3e ee c1 bc 3d 8b 02 bf 3e d1 30 30 3e
       0.24205828 0.09216677 0.37306628 0.17206122

kp1.mlp.2.weight f4 [16, 16]
000000 53 5a 0a 3e 17 54 24 be 8e 6b d9 3d 9f 32 b1 3c
       0.13511018 -0.16047703 0.106162176 0.021630583
000010 21 14 86 3e d9 0e a4 bd d4 46 84 3e 87 99 af 3c
       0.26187232 -0.080106445 0.25835288 0.021435512
000020 6e 03 e6 be 80 de e8 3d fa 91 7d 3c 42 38 8b 3e
       -0.44924492 0.113705635 0.015476698 0.2719136
000030 53 d8 4b 3e 5a 18 7c be ad b8 bd bb 9c f5 8d bd
       0.1990674 -0.24618664 -0.0057898373 -0.06931612
000040 5e f1 12 bd d0 37 2a 3d 87 73 95 bc e0 f7 43 3b
       -0.035874717 0.041557133 -0.018243564 0.0029902384
000050 b4 9e 29 3e 54 e9 ff 3d 37 52 4d 3e 46 f2 1f 3e
       0.16564447 0.12495676 0.20050894 0.15619764
000060 b7 47 04 bc bc 97 9f bc f9 1b 5f be 72 6c e2 3d
       -0.008073739 -0.019481532 -0.21788014 0.110558406
000070 13 8a 5d be 00 cd 46 be ab 9f ec bb 44 90 10 3e
       -0.21634702 -0.19414139 -0.0072211823 0.14117533
000080 d3 84 65 be 94 04 41 be 15 da 07 be 30 10 4c 3d
       -0.2241395 -0.18849403 -0.13266785 0.049820125
000090 83 c0 92 bd 70 55 d7 bc 6e 46 80 3d 48 bd 4f 3e
       -0.07165625 -0.026285857 0.062634334 0.20287049
0000a0 68 bd 45 3e 50 11 4c 3e 2e d4 82 3e 82 02 64 3d
       0.19310534 0.19928479 0.25552505 0.055666454
0000b0 ab 33 9d 3d 1f cf 14 bd 3a a3 b6 3d f3 c5 f9 bd
       0.076758705 -0.03633034 0.08917852 -0.12195959
0000c0 53 2b 43 be cb f2 9e bd 53 9b b5 3d dc 0a 01 3e
       -0.19059496 -0.07761153 0.08867516 0.12601799
0000d0 3c 57 1e bc ba ba 97 bd 97 c3 d7 3e 00 17 c2 bd
       -0.009664353 -0.07408662 0.4214141 -0.09477043
0000e0 ba 6c b8 be ac f6 23 3e f2 3d bc 3d 34 b8 48 bd
       -0.36020452 0.16012067 0.09191503 -0.049003795
0000f0 12 fa 77 3e ea 53 9a 3d 21 ce 4a be 9e a5 e1 3d
       0.24216488 0.075355366 -0.19805194 0.11017917
000100 d9 46 8f 3e 30 ec 58 3e c5 63 7a 3e 7a 8e 86 bd
       0.2798374 0.21183848 0.24452122 -0.06570144
000110 9f d1 0b be d7 bd 9e 3d 4e 03 28 be f5 ed e3 3d
       -0.13654183 0.07751053 -0.1640751 0.11129371
000120 38 78 9c be 95 88 70 be 0d 18 81 3d 14 67 d1 bd
       -0.3056047 -0.23489602 0.063034154 -0.10224739
000130 a3 69 b2 3e 96 87 19 be d7 d0 88 bd f9 3a 84 3e
       0.3484622 -0.14993128 -0.06680458 0.25826243
000140 ff 9a 16 3e 0d 95 43 3c 49 ff 9f bd a8 6b 13 3c
       0.14707564 0.011937392 -0.07812364 0.008997835
000150 fa fe 8e be 4f 83 1c be da b5 14 bc af 0c 0f 3d
       -0.27928907 -0.15284465 -0.00907656 0.034924205
000160 69 3a 49 3b cc ba 3c 3e dc 76 6a 3e 7f 8a 96 3c
       0.0030704981 0.18430632 0.22896904 0.018376587
000170 10 f3 6a 3e c9 61 00 3e 38 d9 1e 3e bb bd a5 bd
       0.22944283 0.12537302 0.1551255 -0.08092829
000180 12 62 d0 bd 35 07 9d bc c1 51 06 3e 08 ca 84 be
       -0.101749554 -0.019168476 0.13117124 -0.25935388
000190 72 2a 85 be 66 b1 ff bd 53 d8 a2 3e 44 a9 2b 3e
       -0.26008946 -0.12485008 0.31805667 0.16763788
0001a0 c1 ca 4d be 06 73 76 3e a4 f4 2c 3e 68 70 29 be
       -0.20096876 0.24067315 0.16890198 -0.16546786
0001b0 3d 24 c9 38 76 05 53 3d 60 69 03 3e 80 38 d2 bd
       9.591177e-05 0.05151888 0.12833166 -0.10264683
0001c0 a5 22 0a 3d 4a 67 43 3d 36 27 38 3e d5 c4 6b 3e
       0.033724446 0.047705926 0.17983708 0.23024304
0001d0 4e 66 08 be 5a 01 69 3d 6a 57 53 3e 80 b0 60 3e
       -0.13320276 0.056886055 0.20638815 0.2194233
0001e0 2e fb 52 be f2 18 3b 3e ff fa bb bd 94 5c cf 3d
       -0.2060363 0.18271235 -0.09178733 0.1012508
0001f0 57 f5 2a 3e d0 85 36 3d 16 d1 6f be 0a 7d 5f 3d
       0.16695152 0.044561207 -0.23419604 0.054562606
000200 17 29 4d 3c 6e 02 c0 bd cc 72 80 be 7b 8e 9d 3d
       0.012522004 -0.093754634 -0.25087583 0.076931916
000210 05 62 a9 bd 54 a3 f7 3d bf 05 ed bd b4 7c 6c be
       -0.08270649 0.12091699 -0.115733616 -0.23094445
000220 45 30 67 bd ce c3 3a 3d fd f0 95 3d c4 2f 7e bd
       -0.056442518 0.04559689 0.073213555 -0.06205727
000230 cd 40 a1 be 3f 93 84 bd d0 4d 2d be d2 54 52 3e
       -0.31494752 -0.064733975 -0.16924214 0.20540169
000240 c5 05 ee bb f4 c0 fc bc f4 c6 b1 bd ae 39 1b 3d
       -0.0072638714 -0.030853726 -0.086805254 0.037896805
000250 08 26 07 be 68 ba 79 bd 31 39 7e 3e 61 e5 72 3e
       -0.13198102 -0.060968786 0.24826504 0.23720314
000260 58 2b 5e 3e 15 95 ac bd 9c 34 10 bd b9 f8 8a bd
       0.21696222 -0.08426873 -0.035206422 -0.06785721
000270 c8 de 8a bd 8a af b4 3d 77 f1 68 be 93 54 eb 3d
       -0.067807734 0.08822544 -0.22748362 0.114907406
000280 e4 b3 04 be 99 73 30 bd 6f 1c 60 3e 14 f1 24 3e
       -0.12959248 -0.043078993 0.21885847 0.16107589
000290 2d c3 77 3e e2 52 ef 3d 7c 3f 46 3d 34 39 bc 3d
       0.24195547 0.116857305 0.048400387 0.09190598
0002a0 24 37 9c be c2 56 70 be fc 0b 36 3e 11 ae 1c 3e
       -0.3051082 -0.23470595 0.17778009 0.15300776
0002b0 46 8a d8 3c 60 c4 e0 bd 28 b4 5a be fb 7b c4 bd
       0.026433121 -0.109749556 -0.21357787 -0.0959396
0002c0 47 3f 16 be 84 20 65 be 91 88 f8 3d a8 d2 3e 3e
       -0.14672576 -0.22375685 0.12135423 0.18635046
0002d0 f1 b2 ce 3b cc 93 83 be dc 79 82 be f8 a2 74 be
       0.0063079526 -0.25698698 -0.25483596 -0.23890293
0002e0 48 92 6b be de bf 9f 3d ce 95 2a 3e a7 88 73 be
       -0.2300502 0.07800268 0.16658708 -0.23782597
0002f0 ac 13 a5 be d1 1d 1f 3d 04 0c 7b 3e f9 f0 ac bd
       -0.3224157 0.038846795 0.24516302 -0.084443994
000300 c8 f7 1b be 9b 24 b1 bd 67 49 3f 3e 36 26 10 3e
       -0.1523124 -0.0864956 0.18680345 0.14077076
000310 e1 a9 70 3e a6 ad a8 3c ef 0b 80 be 1e 2d 6d be
       0.23502304 0.020590615 -0.25009105 -0.23161742
000320 c8 ce fc be 8c a9 e1 bd 85 ba f8 3d 0a 83 35 be
       -0.49376512 -0.110186666 0.12144951 -0.17725769
000330 67 36 a5 3d c7 2e ba bc 2c ce 13 be 86 dc 7c bd
       0.08067017 -0.022727383 -0.14434117 -0.061733745
000340 ae d5 83 3e b3 24 23 3e 7a 94 62 3e 37 9c b1 3d
       0.25748962 0.15931968 0.22126952 0.08672374
000350 6d 32 3b 3d 78 41 44 be a6 7f 76 be ff a9 e3 3c
       0.045702387 -0.191656 -0.24072132 0.027791021
000360 e4 23 c9 be 87 ab 2b 3e 7b a3 12 3d 03 8a 96 3e
       -0.39285195 0.16764651 0.03580044 0.2940217
000370 f7 05 97 3e 15 4c c5 bd 59 a1 65 3c 8d 11 5c be
       0.29496738 -0.09633652 0.014015519 -0.2149107
000380 a7 1c 11 be e5 e4 19 3e bf c9 5a bd 05 16 0f be
       -0.14171086 0.15028723 -0.053415056 -0.13973244
000390 11 5b 30 3e 30 56 e5 3d d3 12 9a 3e 0c c7 94 3d
       0.17222239 0.111980796 0.30092487 0.07264528
0003a0 4c c7 38 be 12 4f b1 bd 12 aa 10 be 74 62 af bd
       -0.18044776 -0.086576596 -0.14127377 -0.085637
0003b0 be 46 8c be eb 55 08 bd 34 67 74 bd c3 83 33 be
       -0.27397722 -0.033285063 -0.059668735 -0.17530732
0003c0 5f c5 53 3e 33 88 ba bd ed e3 9b be 11 45 01 bd
       0.2068076 -0.09108009 -0.3044733 -0.031560007
0003d0 df cc 2a 3d 5d 22 27 3e 1f af 0d be 99 15 f5 bc
       0.041699287 0.16321702 -0.13836335 -0.029917525
0003e0 09 b7 bb 3d 51 22 20 be 83 03 eb bd 08 ea 60 be
       0.091657706 -0.1563809 -0.11475279 -0.21964276
0003f0 ff 5f 6e be 95 e8 ad bd 47 a3 58 be 1c 02 b1 bb
       -0.23278807 -0.08491627 -0.21156035 -0.005401863

kp1.mlp.2.bias f4 [16]
000000 07 77 9c bd 9b a0 4c be 65 04 6d be 99 89 73 3d
       -0.0763989 -0.19983141 -0.23146208 0.059457395
000010 b2 c9 b3 3c 30 55 23 3e ec a9 1d 3e e9 a1 0a be
       0.021946762 0.15950465 0.15396851 -0.13538326
000020 1e a8 13 be b7 74 98 3d 93 5a 6c be ff 91 9b be
       -0.144196 0.074441366 -0.23081426 -0.30384824
000030 c5 57 9c 3d 56 89 2d 3e ce 65 92 be 59 54 47 bd
       0.07633928 0.16946921 -0.28593296 -0.048664425

kp2.mlp.0.weight f4 [32, 19]
000000 05 6c ad 3d 03 8e c5 bd 9a 45 d9 bb 15 df b8 bd
       0.08467869 -0.09646227 -0.0066306116 -0.090269245
000010 58 20 28 be 2f e4 06 3e 17 9b ac bd 60 34 45 be
       -0.16418588 0.13172983 -0.084280185 -0.1925826
000020 89 60 3a be a0 e7 f0 bd 66 86 63 be c5 cb cf bc
       -0.18200888 -0.11762929 -0.22219238 -0.02536572
000030 09 d3 4c bd 91 81 1c be 53 8a 2d be c0 a4 54 3e
       -0.050005946 -0.152838 -0.16947298 0.20765972
000040 af bf 63 3d ef 6b ce bd c4 0a c0 3d 79 16 4c 3f
       0.055602726 -0.100791804 0.093770534 0.7972179
000050 c9 45 62 3d d7 d5 8b be c5 27 a4 bd 6c 1d 6d be
       0.055242334 -0.27311584 -0.08015398 -0.23155755
000060 3f c5 89 bd 81 80 ab bd 5c d6 45 be 61 fa b8 bd
       -0.06727075 -0.083741195 -0.19320053 -0.09032131
000070 20 0b 7a 3d 74 f5 97 3d 9f 8a e7 bd cc 4f 7f 3c
       0.061045766 0.07419863 -0.11305737 0.01558299
000080 79 1a 82 be 6e 92 b0 be 0f a7 22 3e 00 6a 06 be
       -0.25410822 -0.34486717 0.1588404 -0.13126373
000090 a5 6d 31 be 73 5a 35 be 01 9a ce 3e 8b 62 21 3f
       -0.17326982 -0.17710285 0.4035187 0.6304099
0000a0 a7 65 ca 3f f5 af 29 3e d4 cb c0 bc 61 44 81 3d
       1.5812272 0.16571029 -0.023534693 0.0631187
0000b0 70 84 6b 3d a9 04 82 3d 71 46 b6 bc 5b 2e 4d 3d
       0.05749935 0.06348545 -0.022250386 0.050093036
0000c0 c3 96 c5 3d bc ee 56 bd 6a 57 2d 3e ad 22 ad bc
       0.09647896 -0.05247377 0.16927877 -0.021134699
0000d0 d0 e2 91 3d 97 b7 04 3e 89 2d 17 3e b7 01 03 be
       0.07123339 0.12960659 0.14763464 -0.12793623
0000e0 fc c8 73 bc 2f 7c 00 bf 43 ad 8a 3e a3 45 94 3f
       -0.014879461 -0.5018949 0.27085313 1.1583751
0000f0 34 03 5f be 32 4e 8c 3d 6d 01 de bd d4 41 39 be
       -0.21778566 0.06850852 -0.10840116 -0.18091518
000100 d3 43 5d bd 21 6d a2 3d 08 8e 04 3d bc e2 91 bd
       -0.05401976 0.07930971 0.032362014 -0.07123324
000110 b4 4f b7 3d ea e1 04 bd 81 28 87 bd 9f 8b 3b be
       0.08950749 -0.03244201 -0.065995224 -0.1831498
000120 dd 84 4d 3e ae c5 a8 bd a0 9d 97 be 9b 5c 53 be
       0.20070215 -0.082408294 -0.29612446 -0.20640795
000130 ae 3b 00 3f 6f 4e 3b 3f 8d e2 1a 3f b9 75 f8 bc
       0.50091064 0.73166555 0.6050194 -0.030329572
000140 26 76 b6 bd da 9d 62 3a 05 8a 8e 3e 96 6e 6f 3e
       -0.08909254 0.00086447375 0.27839676 0.23382029
000150 e9 6a 38 3e e5 de f1 3c 09 dc 8f 3c 81 34 d5 3d
       0.18009533 0.02952523 0.017560976 0.10410405
000160 8f 3a 01 3d 5e f4 9b 3d 78 f8 ff 3d a1 95 f8 bd
       0.031549986 0.07614969 0.124985635 -0.121379144
000170 6d a4 8f 3d 6e 6a 17 3e 4f e3 c5 bd 02 da 7a bd
       0.070137836 0.14786693 -0.09662496 -0.061243065
000180 24 e8 af bc 48 b3 64 3d 7e b0 07 3d ab 63 2a be
       -0.021472998 0.05583504 0.0331273 -0.16639583
000190 7c 14 f0 bc 3f 04 39 be 13 ec a8 3d ec 25 4b be
       -0.029306643 -0.18068026 0.082481526 -0.19838685
0001a0 e5 88 5e bd 25 bd f4 3b 4e 65 3e 3e ba 44 76 3d
       -0.05432977 0.007468837 0.18593332 0.060124137
0001b0 5e 1f 04 3e 9b ec 5e 3d 72 47 60 be aa 1b 1d be
       0.1290259 0.054424863 -0.21902254 -0.15342584
0001c0 4c 68 62 be 96 b9 a8 bd db 07 0d bf 7e fb c8 be
       -0.22110099 -0.08238523 -0.5509011 -0.39254373
0001d0 60 75 80 3f 8c 62 2a be 57 d1 68 bd f5 d9 b4 3d
       1.003582 -0.16639155 -0.056840267 0.088306345
0001e0 dc 7d 03 3e 8d a6 34 3e 57 06 04 3e 78 8e b1 bb
       0.1284098 0.17641659 0.12893043 -0.005418595
0001f0 3c f1 59 3d 88 cd 61 be 40 6e 2e bd 0e f7 6b be
       0.053208575 -0.2205106 -0.04258561 -0.23043463
000200 91 1e 52 be cf b3 cb 3c 7a 08 44 be b5 39 49 bd
       -0.20519473 0.024866013 -0.19143859 -0.0491273
000210 67 49 a8 3d 7d fa 13 3e c4 ba 0d 3f 9b 2b 76 3f
       0.082171254 0.14451022 0.55363107 0.96160287
000220 69 3f 89 bd 15 08 6b be 71 6b 25 3e cb c4 0f be
       -0.06701548 -0.22952302 0.16154267 -0.14039914
000230 3c 9a b4 bc 51 b8 23 3e 40 c0 5a 3d e8 da bb 3d
       -0.0220462 0.1598828 0.053406 0.091726124
000240 91 78 3a be ad a8 17 3d e0 63 39 3e de 14 8a be
       -0.18210055 0.037026096 0.18104506 -0.26969045
000250 8e f8 41 3e 1e c0 25 be 4a 0f d7 bd 94 13 22 be
       0.18942472 -0.16186568 -0.10500963 -0.15827781
000260 47 25 03 bf 22 88 a8 be dc d8 26 3f 97 ae 89 be
       -0.51228756 -0.3291636 0.6517465 -0.26891014
000270 56 d1 81 be ee 27 82 be 47 ee a4 bd 94 52 56 3e
       -0.25355023 -0.2542109 -0.0805326 0.20929939
000280 4f 29 8e bd d6 72 b4 3d 00 b4 ed 3d d8 3e 2a 3d
       -0.06941473 0.08810966 0.11606598 0.04156384
000290 fd b1 24 be f9 e9 6b be 20 2b 30 be 32 fb 6a 3e
       -0.16083522 -0.23038472 -0.17203951 0.22947386
0002a0 d0 7b 09 be 6f b0 63 be f8 0c 62 be ae d5 91 3d
       -0.13426137 -0.22235273 -0.2207526 0.07120834
0002b0 49 40 e3 be b5 40 49 3f 0e d7 3f be 7f ba 10 3e
       -0.44384983 0.7861436 -0.1873438 0.14133643
0002c0 42 90 2e 3c 6b 63 fa bc e7 0e c9 bd a3 e4 12 be
       0.010654511 -0.030564984 -0.098172955 -0.1434503
0002d0 57 af 2f 3e 03 15 79 be 00 26 84 be 2e 8b 46 be
       0.1715673 -0.24324422 -0.25810242 -0.1938903
0002e0 26 d6 2b be 21 2b 96 bc 1f 13 d2 bd d8 de 92 bd
       -0.1678091 -0.018331112 -0.10257553 -0.0717141
0002f0 13 10 7b be 50 42 6e be 4a 51 a2 be 5a 5f 86 be
       -0.2451785 -0.23267484 -0.31702644 -0.26244622
000300 7f d5 77 bf b7 a5 89 bc a1 0c 90 be 0f b8 02 3e
       -0.96810144 -0.016802652 -0.28134635 0.12765525
000310 9e fc 4a be 42 7e ae bd 39 d5 d0 3d 73 07 4a 3d
       -0.19822928 -0.085201755 0.10196919 0.04932351
000320 f6 72 87 bb 6e ed 26 be 23 99 e6 bd 23 70 8b be
       -0.0041335775 -0.1630151 -0.11259677 -0.2723399
000330 77 8f c1 bd f9 2e 65 bd 47 ed 09 3e e4 6b 91 be
       -0.09451192 -0.055953 0.1346942 -0.28402627
000340 fb d5 a5 3d 8b 52 c9 be 59 38 f1 bd 51 86 95 3f
       0.08097454 -0.39320788 -0.117783256 1.1681615
000350 76 94 3b 3e 0c 64 11 be 7b 5e 05 3e c7 fb 83 bd
       0.18318352 -0.14198321 0.13024323 -0.06444507
000360 9d fc dc 3d 86 3d fd bd 64 73 77 be 08 60 d3 bc
       0.1079037 -0.1236525 -0.24165112 -0.025802627
000370 21 65 1e bd 90 3b 6d be e6 bc d0 bd de f8 fe 3b
       -0.038670663 -0.23167253 -0.101922795 0.007781132
000380 d7 d7 20 3e bd 9f 67 3e e8 96 ab bd 6e e5 49 be
       0.15707336 0.22619529 -0.083783925 -0.19716427
000390 31 28 e6 bd e3 3b e3 3e 33 8c 2b 3d 6c 32 d3 bd
       -0.11238135 0.44381627 0.04188175 -0.103123516
0003a0 68 05 49 3e 1e 67 bb bc 3c 5d 17 3e bf dd 14 bb
       0.19630969 -0.022876319 0.1478166 -0.0022715179
0003b0 f0 40 1c 3e db d7 38 be 63 b7 85 be b7 82 55 be
       0.15259147 -0.18051092 -0.26116475 -0.20850645
0003c0 eb d3 f9 bd a5 cb 09 be 15 fe f0 bd 8c 53 04 be
       -0.12198623 -0.1345659 -0.11767212 -0.12922496
0003d0 12 17 0f 3e c8 6c 21 3e 01 8a f0 bd 0c 8c 01 bf
       0.13973644 0.15764153 -0.11745072 -0.5060432
0003e0 48 e5 b8 be bd 7f 2d bb 25 e0 3c 3e ee 59 1b be
       -0.36112428 -0.0026473843 0.1844488 -0.15171024
0003f0 6a 65 23 3e 5b 29 8c 3e fe 7d 0b be bd dd 2e 3c
       0.15956655 0.27375302 -0.13622281 0.010672984

kp2.mlp.0.bias f4 [32]
000000 61 74 6a be 35 72 89 3d 73 be d1 3c 7b e5 db 3e
       -0.22895958 0.067112364 0.025603509 0.42948517
000010 0e 54 ae 3d 15 85 d3 bd e0 93 5a 3e 0b 4f f9 bc
       0.08512126 -0.10328118 0.21345472 -0.030433198
000020 1e 97 a4 3e 78 e1 15 3d 14 61 bc bd 38 5f a8 3d
       0.32146543 0.036591977 -0.09198204 0.082212865
000030 92 3f 7b 3e 5c 8d 04 be 9a 80 8e 3e 51 1b 7a 3e
       0.24535969 -0.1294455 0.2783249 0.24424483
000040 f5 f4 39 3e 5f 2f ae 3c 56 88 90 3e e7 67 32 be
       0.1815985 0.021262823 0.28229016 -0.17422448
000050 67 51 61 3d b3 73 29 3e 9b 9a ba 3b 01 24 55 3d
       0.055009272 0.16548042 0.0056947 0.05203629
000060 00 5b 88 be 79 f7 29 3e 3a af 45 3e b7 88 80 bd
       -0.26631927 0.1659831 0.19305125 -0.06276076
000070 22 85 25 3e c3 55 34 be 30 14 23 be 2c f7 f7 3b
       0.16164067 -0.1761084 -0.1592567 0.007567307

kp2.mlp.2.weight f4 [32, 32]
000000 dd d3 18 3e fe a0 be 3c ba 04 b8 3e 50 7c 7d 3d
       0.1492457 0.023270126 0.35941106 0.06188613
000010 eb 8a 8f 3e 03 83 06 3e 01 74 a9 3c 2e 9d 43 3e
       0.28035673 0.13135915 0.020685198 0.19102928
000020 f4 28 92 bc 6f c7 6b be f0 bd 85 3d 06 73 1b 3e
       -0.017841794 -0.23025297 0.06530368 0.15180597
000030 84 bb ef bb 55 ba ee 3d ab 8e 45 3e ce 3d 5c bd
       -0.007316055 0.11656634 0.19292705 -0.05376988
000040 8c 51 ac be 55 12 e3 bc 89 fe b6 bd 72 68 b5 3d
       -0.33655965 -0.027718702 -0.089352675 0.08857812
000050 c9 ab e2 bd 51 1f 5b bd 5c f0 c2 3c 24 2f f6 3e
       -0.11067922 -0.053496663 0.023796253 0.4808284
000060 58 bd 9c 3d c9 c0 08 3e ce e1 6a 3c 9c a0 7d 3d
       0.07653302 0.13354792 0.014336063 0.061920747
000070 d4 13 12 be 11 47 56 bd 45 10 9b bd 14 1c 10 bd
       -0.14265376 -0.052313868 -0.075714625 -0.035183027
000080 34 27 1b be f9 0c b4 be a4 cb 89 be 4e 65 e0 bd
       -0.15151674 -0.35166147 -0.26913178 -0.10956822
000090 82 d6 ba be 38 b8 cd bd d5 64 b9 3d 2f 1b f0 3c
       -0.3649178 -0.100449026 0.09052435 0.029309837
0000a0 8a 84 a4 3d 2a a1 19 3d ef aa b2 3d 2b fb 39 3e
       0.08033092 0.037507214 0.08724009 0.18162219
0000b0 21 30 34 3e 0b 01 4e 3e e0 f4 52 be ca e1 7f be
       0.17596485 0.20117585 -0.20601225 -0.24988475
0000c0 c7 56 a7 bd 37 d1 1e be 9b 46 83 be 72 d8 83 3d
       -0.08170848 -0.15509497 -0.25639805 0.06437768
0000d0 2f 2a 21 3e 3f 58 f4 3c e7 3f 80 3e ac 0e 7a 3e
       0.15738748 0.029827235 0.25048754 0.2441966
0000e0 6c dc f5 bd 62 c8 cf 3d 67 d0 1e be 80 85 36 3e
       -0.12004933 0.10145642 -0.15509187 0.17824364
0000f0 81 59 9d 3d a6 81 ec 3c 34 fb d2 3d bf 7b 92 bc
       0.07683087 0.028870415 0.103018194 -0.017881272
000100 9c 85 9e 3d 58 39 42 3d b4 40 8d bd b6 19 81 3d
       0.07740328 0.04741797 -0.06897107 0.06303732
000110 dc d6 76 be 43 91 b8 3d 23 cf 06 3c d0 cb 09 3e
       -0.241054 0.090120815 0.008228096 0.13456655
000120 ca 8c ef bd 1a 6e 3c be 60 c0 d3 3d 38 d0 3f be
       -0.11696775 -0.18401375 0.10339427 -0.18731773
000130 23 28 88 3d d0 d6 ef bd d6 04 27 be d4 01 51 be
       0.066482805 -0.11710894 -0.16310439 -0.20410854
000140 6c c8 55 be 56 96 2f be a2 dd ce bd 55 21 35 3e
       -0.20877236 -0.17147192 -0.10100867 0.17688496
000150 0d b6 32 be ad d0 6f be 42 23 7e 3d e0 ae fb be
       -0.1745226 -0.23419447 0.062045343 -0.49156857
000160 34 dc 9d 3d a6 8a 32 be 06 87 11 be 17 e4 17 be
       0.07708016 -0.17435703 -0.14211664 -0.14833103
000170 2b 61 4c bd b4 57 20 3e 2f 84 1a bd 2d ee e2 bd
       -0.049897354 0.15658456 -0.037723716 -0.11080585
000180 01 10 fc bd 2d 5a b9 bc c8 5f 45 3e 15 65 8f bd
       -0.1230774 -0.022626007 0.19274819 -0.07001702
000190 ed 9a e4 3d 1d b6 51 bd c8 3e 51 3d 14 d2 27 3d
       0.11162362 -0.051199067 0.051085263 0.04097183
0001a0 1e e4 95 bd d6 0a 2b bc e6 b8 60 be e3 08 00 be
       -0.073189005 -0.010439595 -0.21945533 -0.1250339
0001b0 f9 ee bd bd e8 cd 0b be 5d d1 5c 3e f6 ae ec 3d
       -0.09274096 -0.13652766 0.21564241 0.11556809
0001c0 d1 f5 84 be a5 44 2c bd 5b d5 36 bd e6 8d 48 3e
       -0.25968793 -0.042057652 -0.044637065 0.1958538
0001d0 71 91 1f 3d 2f f7 11 bd 53 4d 00 be e9 54 a2 3d
       0.038957063 -0.035636123 -0.12529497 0.079263516
0001e0 86 10 26 3d 61 00 a2 3c 02 b4 92 3e ea 20 96 3e
       0.0405431 0.019775571 0.2865296 0.29321986
0001f0 66 51 32 bd 6c 00 ac 3d 13 9d 01 3e c8 ce 07 be
       -0.04353466 0.08398518 0.12657575 -0.13262475
000200 d1 a0 20 3e 0b 57 81 be ad 8b fe be e2 76 87 be
       0.15686347 -0.2526172 -0.4971594 -0.26457888
000210 fd 16 a5 be be a5 0b be 0b d1 16 bd 1e 74 88 be
       -0.322441 -0.13637444 -0.036820453 -0.2665109
000220 47 13 b0 bc a9 14 1d bb 9c e6 1e 3e 24 dd 0c be
       -0.021493567 -0.0023968613 0.15517658 -0.13756233
000230 48 05 3d be d1 07 a4 3d 9e 36 14 bd 42 a1 97 be
       -0.18459046 0.08009303 -0.0361849 -0.29615217
000240 ff 24 22 bd a2 ab b4 be 12 70 35 be b3 6d 7d 3d
       -0.039586063 -0.35287195 -0.17718533 0.061872195
000250 3a 20 db bb d6 6f 9d bd df fd 87 3d 29 ec 59 be
       -0.0066871913 -0.07687347 0.06640219 -0.21281494
000260 8e be 54 3e 54 a9 96 be d6 55 76 be 1d ac 82 3e
       0.20775816 -0.29426062 -0.24056181 0.25521937
000270 b5 8d d3 3d 27 ce d5 be 1f 24 0d 3e ac ec 8a 3e
       0.10329763 -0.41758844 0.1378331 0.2713369
000280 85 20 82 3b 10 c7 f7 bd 20 7c 07 3d 7a b8 94 be
       0.003971162 -0.12098515 0.03307736 -0.29046994
000290 db 27 a7 3e df 2d f7 bc ad 2b db 3c 84 08 c5 3d
       0.32647595 -0.03017324 0.026754225 0.09620765
0002a0 57 99 d8 bd bb f6 6b bd 95 52 96 bd 75 06 c6 bc
       -0.10576122 -0.057608347 -0.0733997 -0.024173
0002b0 00 14 3b 3d 7a ee 9b 3d ce 5d aa bd 46 a9 5e 3e
       0.04567337 0.07613845 -0.08318673 0.2174426
0002c0 98 60 84 be 85 30 1d 3b f5 07 4e 3e c0 7e 67 3d
       -0.25854945 0.0023985219 0.20120223 0.056517363
0002d0 4f 58 be bc 66 4c 3a bd 05 f2 da 3d 82 13 94 3e
       -0.023235468 -0.045483015 0.10690693 0.28921133
0002e0 77 a9 48 3e f9 f9 32 3d db 73 83 3e 63 9f 70 bc
       0.19595896 0.043695424 0.25674328 -0.014686438
0002f0 26 66 47 be 3d ad 16 3e 9f 02 65 3e d7 b8 41 be
       -0.1947256 0.14714523 0.22364281 -0.18918167
000300 87 23 71 bd 29 bb 0a 3e 60 25 4e be fc df d5 be
       -0.058871772 0.13547958 -0.20131445 -0.4177245
000310 00 ef e9 bc 66 0c 0c 3b eb 08 54 be 5b 5c 4a be
       -0.028556347 0.0021369695 -0.20706527 -0.19761793
000320 b2 11 04 bd c0 ae e8 bd 1b 67 0f 3e 8c 73 ef bb
       -0.032243438 -0.11361456 0.14004175 -0.0073074754
000330 f4 5a d0 bd 3f 7b 0e be de 8e 13 be 9b 3f 52 3e
       -0.10173598 -0.13914202 -0.14409968 0.20532076
000340 02 da 00 be 35 4b 02 3e 21 00 57 3e 26 f1 6e 3e
       -0.12583163 0.12724002 0.20996143 0.23334178
000350 26 b9 d5 3d c7 e2 24 3d 4d be 88 bd cd 81 ff bd
       0.10435705 0.040255334 -0.06676922 -0.124759294
000360 85 27 79 3e e8 4d 9f ba df a3 0c bd 4b fb 86 3e
       0.24331482 -0.0012153955 -0.034335967 0.26363596
000370 38 a2 74 be 4e d9 bf be fc 3d 2c 3e fb dc 9a bc
       -0.23890007 -0.37470478 0.1682052 -0.0189042
000380 ff 11 c1 3d 81 11 69 be 5b c6 46 3c 99 1c b4 39
       0.094272606 -0.22760583 0.012132253 0.00034353582
000390 fb 6d a8 be 56 16 f3 bc dd 6e 6e 3e dd fb a6 3c
       -0.32896408 -0.029673737 0.23284478 0.02038377
0003a0 9a d6 62 3e e2 91 18 be 59 46 23 be 3f 2c bc 3b
       0.22152176 -0.148994 -0.15944804 0.0057425792
0003b0 37 81 62 bd 76 90 85 3d 0a 45 80 bd e6 b6 80 be
       -0.05529901 0.06521694 -0.06263168 -0.2513954
0003c0 fc 5a fd 3d 8e 44 fb 3d 24 a8 82 be 0c 30 47 bd
       0.123708695 0.12268935 -0.25518906 -0.048629805
0003d0 bc e6 17 3e e3 21 00 3e 3e 74 67 3e b8 f6 a8 bb
       0.14834112 0.12512927 0.22602937 -0.0051563643
0003e0 5f 78 e3 3d 7e cb 03 3e bf 0e fa 3d 28 17 4a 3e
       0.11106943 0.12870595 0.12209844 0.19735396
0003f0 70 10 52 3e 57 bc 7a 3d 6f 8d cf bd 25 b5 ed bd
       0.20514083 0.06121477 -0.10134398 -0.11606816

kp2.mlp.2.bias f4 [32]
000000 3b 64 16 bd 73 c3 87 bd 0e b5 de ba 59 6b 58 3d
       -0.03671668 -0.06629076 -0.0016991214 0.05283675
000010 a8 77 1c be 53 bb 1c 3e e6 03 4f be d8 08 a5 bc
       -0.1528002 0.15305834 -0.20216331 -0.020145819
000020 34 3c cc 3d 9e c6 98 3c f5 63 14 be b3 71 ee bd
       0.0997242 0.018649396 -0.14491256 -0.1164278
000030 27 ba ec bd d8 41 46 be 38 51 8d 3d f1 bc 32 bd
       -0.11558943 -0.19361055 0.06900257 -0.04363722
000040 a8 06 90 be ab d9 ef bd 1e 56 c9 bd c2 3e 8f be
       -0.28130078 -0.11711439 -0.09830879 -0.27977568
000050 74 f4 6e be 9c 10 ef bd a7 4b 8e 3d 31 db 17 be
       -0.23335439 -0.1167309 0.06948023 -0.14829709
000060 13 76 0a 3e 90 72 ca 3d b6 63 a2 bd 7d 75 5e 3d
       0.13521604 0.09885132 -0.079291746 0.054311264
000070 ec 88 62 be 45 32 ba bd c6 d8 63 3d 68 95 a8 3d
       -0.22122544 -0.090916194 0.055626653 0.08231622

head.0.weight f4 [32, 32]
000000 47 e5 2c 3e f7 06 ad 3d 2d 88 f3 ba 13 e2 22 3d
       0.16884337 0.08448594 -0.0018580012 0.039766382
000010 aa 67 9d 3d 6c 3a 91 3d 15 37 27 bd 28 63 55 3e
       0.07685788 0.07091221 -0.040824015 0.20838606
000020 d8 f4 6c 3e 62 b7 43 3d b8 f2 95 bd de 23 21 be
       0.23140275 0.04778231 -0.073216856 -0.15736338
000030 ab 7f 20 be 47 bf 76 3e c9 43 64 be 1d 11 9f 3d
       -0.15673701 0.24096404 -0.22291483 0.07766936
000040 99 5a 74 bd c8 8d df bc ec 7c 43 3e 28 94 3f 3e
       -0.059656713 -0.027289286 0.19090623 0.18708861
000050 4e fe 91 3d a7 2d b2 3d f5 b3 06 be 96 98 9f 3e
       0.07128583 0.08700114 -0.13154586 0.311711
000060 3b 2f be bd 69 c0 93 3e 6b d6 8a 3d 58 c9 d3 bd
       -0.09286352 0.28857735 0.06779178 -0.10341138
000070 44 cc c7 3b 71 1b 1a bc f0 43 da 3e 46 b1 49 3d
       0.0060973484 -0.009405957 0.42629957 0.049241327
000080 93 94 df 3c b8 91 eb 3c c3 5b 37 3d 9d 94 f2 3d
       0.027292525 0.028756008 0.044765245 0.11844752
000090 fa f9 07 3e 7a 59 a3 bd 43 23 30 3e ee 8a 47 be
       0.13278952 -0.07976051 0.17200951 -0.19486591
0000a0 31 4c 7a 3d 05 90 1e 3e ec 07 3a 3e f5 68 c4 bd
       0.061107818 0.15484627 0.18167084 -0.095903315
0000b0 37 42 be 3c 3b 2d 0f bd d6 8c 0b be fb 13 60 3d
       0.023224933 -0.034955245 -0.13627943 0.054706555
0000c0 56 12 3f 3c 17 77 01 3e 17 53 94 bd 70 b4 14 be
       0.0116620865 0.12643085 -0.07242411 -0.14521956
0000d0 c8 12 d6 ba cb a7 f9 3d 77 ba 7c bd da e9 be bd
       -0.0016332502 0.12190207 -0.061701264 -0.093219474
0000e0 81 37 f7 bd de 1b ca 3d 37 76 4b bd 9d 07 43 ba
       -0.120711334 0.098685965 -0.049673285 -0.0007439794
0000f0 53 e6 39 3e 4e 13 bc 3d 21 0a 3d be 65 b2 47 be
       0.18154268 0.091833696 -0.18460895 -0.19501646
000100 71 c9 07 3d 5f 3d 4a be f6 f8 86 bd bf fb ec 3c
       0.033151094 -0.19749974 -0.06590454 0.028928636
000110 f2 7e 72 be 48 01 33 be 8e 8e cf be 35 f8 42 3d
       -0.23681238 -0.17480958 -0.40538448 0.04759999
000120 f1 92 1e 3e 84 51 81 3e 56 a2 87 be fe b5 40 be
       0.15485741 0.25257504 -0.2649104 -0.18819425
000130 4d 7e 4e be 57 eb e2 3b 22 49 8d be 84 18 ef 3d
       -0.20165367 0.0069250274 -0.27594858 0.11674598
000140 e1 00 90 be fc b1 05 be 18 b4 09 3d fc 29 66 be
       -0.2812567 -0.13056177 0.033619016 -0.22476953
000150 f1 5c 90 bd 80 9d e0 be c1 15 24 3e 0c 91 18 bc
       -0.07048977 -0.43870163 0.16023923 -0.009311926
000160 6b 35 92 3e 76 b3 21 be 5c ca 4a be f5 e1 3e 3e
       0.2855638 -0.15791115 -0.19803756 0.18640883
000170 65 c2 95 be 66 48 16 be f9 ca cf be ef 03 84 bd
       -0.29249874 -0.14676055 -0.40584543 -0.06446063
000180 35 96 22 bd ff ea c7 bd e2 6e 90 be 63 fe f6 3d
       -0.03969403 -0.09761619 -0.28209597 0.12060239
000190 69 ce 81 be 12 f9 96 3d 72 73 c4 be b5 a9 c7 bc
       -0.2535279 0.07371725 -0.38369328 -0.024372915
0001a0 a0 d5 38 3e 1d ac 02 3e 69 92 69 be 74 cc 63 be
       0.18050241 0.12760969 -0.22809757 -0.22245961
0001b0 f2 81 26 bd 0e dd 3c 3d a4 d9 a4 be e6 ca 7e bd
       -0.04065127 0.04610925 -0.32197297 -0.062205218
0001c0 96 21 4e be e9 c7 39 be de 48 90 be b1 05 17 be
       -0.2013 -0.18142666 -0.28180593 -0.14748265
0001d0 f3 bd 05 be 45 f3 fd be 03 07 85 3c 68 79 03 be
       -0.13060741 -0.49599662 0.016238695 -0.12839282
0001e0 5a 29 71 3e c9 f6 a3 bd 5e c8 b2 3c 03 3b 62 3e
       0.2355093 -0.08006055 0.021824058 0.22092824
0001f0 ea 77 a5 be a5 25 94 be 57 d2 75 be b5 91 22 3d
       -0.3231805 -0.2893497 -0.2400602 0.03968974
000200 40 01 d2 bd e1 c3 e8 bd 21 d6 08 3e 8b 45 0a be
       -0.10254145 -0.11365486 0.13362934 -0.13503091
000210 e1 af f0 3d 76 1d 0f 3e 1a 46 95 bd 16 22 e7 bd
       0.11752296 0.13976082 -0.072887614 -0.11285798
000220 ce a9 e8 3d 43 6c e6 bd a0 a1 19 3e 70 7d 7b 3d
       0.11360513 -0.11251118 0.15003061 0.061398923
000230 03 fd ff bc 51 1b 9a bd c5 b6 fe 3d bc bd 8b bd
       -0.031248575 -0.075247414 0.12437204 -0.06823298
000240 da e4 f4 3d b4 b1 01 be 84 20 16 3e aa ec c4 3d
       0.119577125 -0.12665445 0.14660841 0.096154526
000250 76 00 bb 3c 24 3e b4 bd 69 5c ac bd ba 42 9f 3d
       0.022827368 -0.08800915 -0.08416063 0.07776399
000260 02 6d ee bd 46 64 c0 bd 87 c1 37 bc ce 77 ac 3c
       -0.11641885 -0.09394126 -0.011215574 0.021053221
000270 57 02 84 3d e0 df 44 3d 53 43 2d 3c df c8 05 be
       0.06445759 0.048065066 0.010575133 -0.13064907
000280 6f 5e 8c bd 23 50 c0 bd c9 74 26 3e d5 fe f6 bc
       -0.06853949 -0.09390285 0.16255488 -0.03015081
000290 9b f3 d1 3c 17 a3 a5 3d 06 c9 46 bd 27 20 a0 bc
       0.025628855 0.080877475 -0.048531555 -0.019546581
0002a0 28 aa 32 3e 5e 43 d5 bc 79 81 67 3d b2 b0 1a 3e
       0.17447722 -0.0260331 0.05651996 0.15106466
0002b0 12 b9 82 bd 19 a0 3f 3e 49 92 44 3a be 04 0a be
       -0.063829556 0.18713416 0.0007498605 -0.13478372
0002c0 cb e9 ff 3d a5 11 84 bd 80 53 a4 bd 4d 5b 4c 3d
       0.12495764 -0.06448678 -0.08023739 0.04989176
0002d0 88 8f 31 be d9 00 fb 3d 58 dd 80 bd 48 fe 11 3c
       -0.17339909 0.12256021 -0.06292218 0.008910723
0002e0 0a 8e 26 3d 74 95 6b 3d 48 57 d8 bd 70 7a 85 3c
       0.040662803 0.057515576 -0.105635226 0.016293734
0002f0 12 fc 3a 3e bd e7 ea bd 44 e7 9c bd 54 33 23 3e
       0.1826022 -0.11469982 -0.07661298 0.15937549
000300 7d ff 35 bd 9a 04 b2 3d a7 26 3d be 4a 3a d4 3d
       -0.044433106 0.08692284 -0.18471776 0.1036268
000310 79 45 99 be 44 ca 56 3e 59 13 e3 bd d0 49 43 3e
       -0.29935816 0.20975596 -0.11087675 0.19071126
000320 87 8a 59 bd 8b 70 90 3e e8 4b ff bd 76 41 21 be
       -0.053110626 0.28210863 -0.1246565 -0.15747628
000330 f7 2e 3b be 93 88 25 3d 6c ad 10 be d2 56 15 3e
       -0.18279634 0.04041345 -0.14128655 0.145839
000340 03 37 09 be 03 7c 53 bd 9b 01 d6 bd c1 92 99 bc
       -0.13399892 -0.05163194 -0.10449525 -0.018746736
000350 a3 03 c7 bd ef 04 d9 be 9a 3e 33 3e b4 8e 90 bd
       -0.097174905 -0.42386577 0.1750435 -0.070584685
000360 0e 3d f3 3d f4 0b 3b 3e a6 12 60 bd fe 65 d8 3d
       0.1187688 0.18266279 -0.054705285 0.105663285
000370 5f 18 eb bd 85 c7 08 be c4 ac e7 3d 34 c6 0d 3c
       -0.11479258 -0.1335736 0.11312249 0.008653212
000380 34 fb 46 be bd a8 25 bd ca dc 14 bd e3 98 15 be
       -0.19431764 -0.040444124 -0.036343373 -0.14609103
000390 9f 90 b9 3c 6a 98 1e be 8e 28 f1 bd cc 3f 4b bd
       0.022651969 -0.15487829 -0.11775313 -0.04962139
0003a0 a3 70 07 bd 78 ea cb bd d1 84 9f 3d cd ab d5 bd
       -0.033066403 -0.09956831 0.077890046 -0.10433159
0003b0 2a 0e c8 3c a9 93 6c 3c f6 0a e7 bc 01 2b 07 3e
       0.024420816 0.014439502 -0.028203469 0.13199998
0003c0 54 f3 d0 3d a4 4f 1c bc bb 16 a1 b9 77 4e 06 3e
       0.10202661 -0.009540472 -0.00030725249 0.1311587
0003d0 a9 77 05 3e bf 3e 7b bc bc 1f e2 bd 6e 80 34 3d
       0.13033928 -0.015334784 -0.11041209 0.044067793
0003e0 71 ab f7 bd be 23 1c 3e 2d 66 ef bd 7a a4 b6 bd
       -0.12093247 0.1524801 -0.1168941 -0.0891809
0003f0 a7 bf 13 be 4d ef ea bd 3a a6 2b bd f1 ea 17 3d
       -0.14428578 -0.11471424 -0.041906573 0.037089292

head.0.bias f4 [32]
000000 8d 46 6b 3c 2f 2a 13 be 0d 33 8c 3e 1d aa b4 3e
       0.014360082 -0.1437156 0.273827 0.35286036
000010 cb 3b e9 bd db 5e 19 be 5a 03 ab 3d 3b 47 ca 3d
       -0.11388358 -0.1497759 0.08350249 0.098768674
000020 f5 78 28 3e 50 94 81 3d c8 fd 56 3e 1b 6a a0 bd
       0.16452391 0.063271165 0.20995247 -0.07832738
000030 fb d2 89 bd 83 4d 94 3e 4b b8 8e bd 36 01 d7 3a
       -0.067296945 0.28965387 -0.06968745 0.0016403559
000040 7d b0 48 bc f3 ec 0c 3e a6 0d 5b be 78 b7 5d 3c
       -0.012249109 0.13762264 -0.21391925 0.013532512
000050 da 6a 13 3e 72 8f 9a 3d 19 c7 7d 3d 99 58 41 be
       0.1439623 0.07546891 0.061957452 -0.18881454
000060 ec 0a 83 bd ee 9e 9f 3d 01 2b 69 bc c9 16 9a 3d
       -0.063985676 0.07793985 -0.014231444 0.07523877
000070 c4 30 1a bd 9e ff 3e bd 62 dd 72 3e be 94 b8 3d
       -0.037644163 -0.046630494 0.23717263 0.09012745

head.2.weight f4 [3, 32]
000000 78 48 68 3d 9b 86 38 3c 69 af 43 3a 64 76 f7 bd
       0.056709737 0.011262561 0.0007464798 -0.12083128
000010 57 5a 23 3e a8 0c f0 3d 23 97 14 3c 42 b5 12 be
       0.1595243 0.11721164 0.009069237 -0.14326957
000020 37 ca 19 3d e7 e4 1e be fe bf 0b be 13 2b fd 3d
       0.037546363 -0.15517007 -0.13647458 0.123617314
000030 e5 e2 ff bc d8 84 b6 be e2 c0 9f bd af 3f 9f bc
       -0.031236121 -0.35648227 -0.07800461 -0.019439546
000040 80 7e 94 bb 2c d1 bf bc 47 e6 f8 3b e5 ee 71 3e
       -0.0045316815 -0.02341517 0.0075958106 0.23626287
000050 57 57 b8 3e 02 d9 22 3f 87 8a 54 be 61 3b 98 3e
       0.36004135 0.6361238 -0.20755969 0.29732803
000060 41 75 96 3e 90 2c bb 3c cd cf 16 be b9 c0 2b 3e
       0.29386333 0.022848397 -0.14727707 0.16772737
000070 e3 99 be 3d 15 57 78 3e b8 80 ad be 45 d4 cc bd
       0.09306695 0.24251969 -0.33887267 -0.10001425
000080 22 5b 42 bd 1a 29 eb 3a 06 30 aa be 28 8f e1 be
       -0.047450192 0.0017941326 -0.33239764 -0.44054532
000090 22 8f 81 3d 65 77 fc bd 2b 0b 83 be 06 84 94 3c
       0.063261285 -0.1232746 -0.25594458 0.01812936
0000a0 dc b9 57 be fc f4 90 be 6b 8f 96 be 5f 50 ee 3d
       -0.21066993 -0.28311908 -0.29406294 0.11636423
0000b0 37 63 07 3e 37 1a d2 3e bd 97 fd 3d a6 a7 a3 3d
       0.13221441 0.41035625 0.123824574 0.07990961
0000c0 d9 f0 ef 3d e7 c4 52 3e ab d5 67 3e 6f 70 71 bd
       0.1171586 0.20582925 0.22640102 -0.058945116
0000d0 b1 65 48 be eb 28 00 bf bc 20 1e be 74 85 54 3e
       -0.19570042 -0.50062436 -0.15442175 0.20754033
0000e0 48 34 47 3e 6b 92 8b be 5f 0e 1a 3e 46 4c c0 bd
       0.19453537 -0.27260146 0.15044545 -0.09389548
0000f0 35 21 10 be 90 0b 69 3d cc b1 8f 3e 89 92 a4 3d
       -0.14075167 0.056895792 0.28065336 0.08035762
000100 e1 51 63 be 6c b5 d1 3d dc 75 74 3e 9a c6 b0 3d
       -0.22199203 0.102396816 0.23873085 0.0863163
000110 7f 47 23 3c 40 1c a7 bb 05 ce b3 bc cd 34 42 bd
       0.0099657765 -0.005099803 -0.021948824 -0.047413636
000120 de ac 83 bd b0 27 ae 3e 8c ba 9e 3e c8 b7 27 3e
       -0.06429456 0.34014654 0.310017 0.163787
000130 bb 28 b6 bd b1 50 82 3e d7 8a 90 ba 20 00 25 3e
       -0.088944875 0.25452188 -0.0011027706 0.16113329
000140 8f 29 5f be d4 d5 cf be da c5 bb be 6f 3c c8 bd
       -0.21793197 -0.40592825 -0.36674386 -0.09777152
000150 ff 90 1a 3d 20 e2 b9 3b 7f 04 99 3e f6 ed a6 be
       0.037735935 0.005672708 0.29886243 -0.32603425
000160 03 4a 9f be 7f 0d bf bd 92 9c ac 3b 87 1f c6 3d
       -0.31111154 -0.09328746 0.005267688 0.09673982
000170 ce e2 a1 be cf 4a 9a be 4a c5 00 3f 7c b4 82 3e
       -0.3161835 -0.301352 0.5030104 0.25528324

head.2.bias f4 [3]
000000 e9 93 58 bd 29 6b ec 3d fd b6 f2 3b
       -0.052875433 0.11543877 0.007407068
