checkpoints_kpconv_24nov/checkpoint_epoch_3_24nov.pth (torch, 19277 bytes, 14 tensors)

fc0.weight f4 [8, 3]
000000 5d 4f c4 3d 23 fa dd be cf fe 19 bf 85 31 f7 be
       0.0958545 -0.43354902 -0.6015443 -0.48279968
000010 79 ab a2 3e f4 3e 9a 3e dc bb 42 bd 67 b6 1b bd
       0.31771448 0.30126154 -0.047542438 -0.03801575
000020 e0 18 23 bf bd df 02 3f ce d0 c0 be 66 73 66 bd
       -0.6370983 0.5112265 -0.37659305 -0.056262396
000030 a7 9d f2 3b d1 84 9a 3e 2d 9b 53 3e 29 08 93 bd
       0.0074040475 0.30179456 0.20664664 -0.07179291
000040 27 9a be 3e 10 a8 d3 3e 6b c3 e8 be 59 5d d4 bd
       0.37226984 0.4133916 -0.45461592 -0.10369367
000050 df 78 10 3e e3 ab 9d 3e b5 7c 84 3d 4b a6 a4 be
       0.14108609 0.30795202 0.064690985 -0.3215812

fc0.bias f4 [8]
000000 73 15 c2 3e 37 b6 eb 3e d3 91 88 3e e8 bf 86 be
       0.3790699 0.46037456 0.26673755 -0.26318288
000010 99 82 1e 3f 86 e5 e8 be 38 6a cd 3d ae 9f aa bc
       0.61918026 -0.45487612 0.10030025 -0.020828094

kp1.mlp.0.weight f4 [16, 11]
000000 3f 26 0d 3f 84 99 81 be 97 69 eb bd ea 29 a9 bd
       0.55136484 -0.25312436 -0.11494749 -0.082599476
000010 66 1a 9a 3e 7a 6d 86 3d 98 34 8c 3e a8 d4 12 be
       0.30098265 0.0656385 0.27383876 -0.14338934
000020 b5 19 f3 bd 22 4e 31 be 2b 04 92 3e 79 55 88 3e
       -0.118701376 -0.17314962 0.28518805 0.2662771
000030 ab b1 24 3e 79 c1 c0 3d 27 10 88 bc e2 e1 bb bd
       0.160834 0.09411902 -0.016609265 -0.09173943
000040 34 a3 41 3e db 70 0c 3d 88 a0 db bb dd 30 1f be
       0.18909913 0.034287315 -0.0067024864 -0.15545984
000050 bc eb b6 bd b4 62 55 3e fd 63 21 3f a6 2c 24 bf
       -0.089316815 0.20838434 0.63043195 -0.6413063
000060 76 cf 79 3e b8 fa 8a 3d 05 47 2b be c1 b1 5f 3e
       0.24395546 0.06786102 -0.1672631 0.21845151
000070 9f 74 01 3e 11 22 eb 3d bb c9 43 be 33 af 9b 3e
       0.12642144 0.11481107 -0.19119923 0.30407104
000080 fb 17 41 be 61 81 f6 3e d5 90 28 3b 0f 86 20 3e
       -0.18856804 0.48145583 0.0025721092 0.1567614
000090 45 60 00 be 64 ac 67 3c 5f ef 8c bd c9 4e 3b 3e
       -0.12536724 0.014140222 -0.06881594 0.18291773
0000a0 65 e6 1d 3d d2 cc 9c be d1 85 16 be e0 a0 27 be
       0.0385498 -0.30625015 -0.14699484 -0.16369963
0000b0 47 40 5a 3e 5b 3d d6 be f4 d0 ea 3d 26 97 5d 3e
       0.21313582 -0.41843686 0.11465636 0.2163969
0000c0 b8 f3 2b 3e 1c f2 13 be f4 18 ad bd f1 cd 08 3e
       0.1679219 -0.14447826 -0.08452025 0.1335981
0000d0 3f f6 15 bc c0 fe 1a 3d a0 df fb 3d 47 55 85 3d
       -0.009152948 0.037840605 0.122985125 0.06510406
0000e0 e5 c2 42 3e 9d 7e 03 bc 75 20 43 3e be 7d ce bc
       0.19019659 -0.008025792 0.1905535 -0.025206443
0000f0 16 4a 30 be 52 cf 95 be 09 92 77 be bf de 82 be
       -0.17215762 -0.29259735 -0.24176802 -0.25560567
000100 47 a6 7d 3e c3 b0 a8 be 1e 70 13 bf f7 e1 2a bf
       0.24770461 -0.32947358 -0.5759295 -0.66751045
000110 d3 63 59 bd a8 e0 ec bc bc e3 2a be 1b 0e 5f 3e
       -0.053073715 -0.028915718 -0.16688436 0.21782725
000120 1a d4 d7 3d eb fe a9 3e 4f be 9d bc 48 ff 5d 3e
       0.10538502 0.332023 -0.019255785 0.21679413
000130 d1 97 e2 bd c1 47 5b 3d 98 8c b5 be c9 46 c0 3d
       -0.11064113 0.053535227 -0.35458827 0.09388501
000140 5e fc aa bd ee a5 da bd 96 2c 29 bd e7 79 67 3e
       -0.083489165 -0.1067618 -0.041302286 0.22605096
000150 61 34 85 be 3b 32 2d 3e ce 7a 36 bc 3a 6f 8d 3e
       -0.26016524 0.16913693 -0.011137677 0.27623922
000160 80 01 04 3d df f2 91 bd a9 67 3c be ab 7f 2c be
       0.032227993 -0.07126402 -0.18398918 -0.16845576
000170 f3 a3 96 be a4 30 6a 3d 47 27 83 bd b0 10 08 be
       -0.29421958 0.057175294 -0.06403976 -0.13287616
000180 c6 a1 a2 3d 05 55 14 be 42 cd 93 3d 15 c0 03 bf
       0.07941012 -0.14485557 0.07216884 -0.5146497
000190 d7 0a 15 be 16 e9 36 be eb ed 69 3e 21 a5 85 3e
       -0.14554916 -0.17862353 0.22844665 0.26102546
0001a0 23 38 8c 3d ee ff 4e be 73 e0 06 be 9a 38 81 3e
       0.06846645 -0.20214817 -0.13171558 0.25238496
0001b0 f5 b4 83 3e ce ed 12 3e fc 80 8b 3e 58 e4 ae be
       0.25723997 0.14348528 0.27246845 -0.34158587
0001c0 55 c6 0e be e4 fc 91 3d de 7a 94 be 00 87 b3 bd
       -0.13942845 0.07128313 -0.2899999 -0.087659836
0001d0 74 07 1b be ef c4 3b 3e 16 43 3f bd 63 25 b1 3d
       -0.15139562 0.18336843 -0.046694838 0.08649709
0001e0 72 f7 3c 3e 33 1b 1d 3f 64 be 3c bf 82 de 17 3e
       0.18453768 0.6136963 -0.73728013 0.14830974
0001f0 76 6a 94 3d f5 98 83 3e 23 c0 a2 3e 02 3b 96 3e
       0.07246868 0.25702634 0.31787214 0.29341894
000200 a0 b8 70 be 42 7d 90 3e 33 c3 20 be 46 f1 8e 3d
       -0.23507929 0.28220564 -0.15699463 0.06979613
000210 dd 1d 29 3f 12 f8 31 bf d7 34 c0 bd b1 e0 ab 3d
       0.6606119 -0.6951915 -0.093850784 0.08392466
000220 76 b2 39 3b 4b 00 8e 3e 50 2e c5 bd d7 59 bf 3d
       0.002833513 0.277346 -0.09627974 0.093433075
000230 8a fe 14 3e 17 25 d6 bd 1e b0 12 3e 7c b8 08 bf
       0.14550224 -0.10456293 0.14324996 -0.534065
000240 41 a0 cc 3e e7 92 a7 3c 7a 79 97 3e 15 58 3a 3e
       0.39966014 0.02045579 0.29584867 0.18197663
000250 eb 01 1a be 6f 50 5f 3e 1f 06 8d 3e 6d 18 94 bd
       -0.15039794 0.21808027 0.27543733 -0.07231221
000260 35 1e 89 3e bb 55 6e be 1b eb 99 bd e7 c4 e1 3e
       0.2678086 -0.23274891 -0.07515546 0.44095537
000270 74 f0 dd 3d be cb c0 bb 06 ad 07 be bb 7e f5 3d
       0.108368784 -0.005883663 -0.13249597 0.119870625
000280 8a 3b 54 3e 33 3e 6a 3e 71 06 8b 3d c5 25 d3 3d
       0.20725837 0.2287529 0.06788338 0.10309938
000290 8e 7b 97 3e 19 9d e8 bc f7 ed b9 3e 9a 99 21 3e
       0.29586452 -0.028395222 0.36314365 0.1578125
0002a0 6b b9 85 be 88 cb e8 be 3f 1b 36 be 89 85 51 3e
       -0.26118025 -0.45467782 -0.17783831 0.20461096
0002b0 09 6c e2 3d 06 a9 8e be 07 d9 30 3c 33 22 90 bc
       0.11055762 -0.2786333 0.010793931 -0.017594432

kp1.mlp.0.bias f4 [16]
000000 60 d9 ae bc f5 30 48 bd 12 62 96 3e 05 f8 a4 be
       -0.021343887 -0.048874814 0.29371697 -0.32220474
000010 9e 6e a6 be d5 e6 51 3d 21 16 81 bd f6 84 be bc
       -0.3250627 0.05124553 -0.06303049 -0.02325676
000020 d4 d3 a5 bd f8 e4 41 be 56 a9 05 3e 06 cb ea bd
       -0.08097044 -0.18935001 0.13052878 -0.11464505
000030 a8 de 6c 3e 16 2e 97 3d 92 bd b6 3e d9 16 3d 3e
       0.23131812 0.07381837 0.35691506 0.18465747

kp1.mlp.2.weight f4 [16, 16]
000000 d8 06 0a 3e 10 84 28 be b7 74 d0 3d 77 c8 e7 3c
       0.13479173 -0.16456628 0.101785116 0.028293831
000010 5a ac 7f 3e 5f 68 88 bd 6b 17 6b 3e d7 d2 a1 3c
       0.2496809 -0.06660532 0.22958152 0.019753857
000020 14 62 35 be 8c f2 f3 3d 4a 48 2c 3c f8 65 87 3e
       -0.17713195 0.119114965 0.010515282 0.26444983
000030 a8 20 44 3e d3 bb 7b be 6b c4 9a ba c7 a3 9e bd
       0.19153082 -0.24583368 -0.0011807805 -0.07746082
000040 36 c9 98 bc 55 0d 7d 3d d4 df 45 bd 83 bc e0 3b
       -0.018650632 0.061780293 -0.048309162 0.00685841
000050 78 c5 ca 3d b5 59 f4 3d 58 01 40 3d b0 5a 14 3e
       0.099009454 0.11931173 0.04687628 0.1448772
000060 bb 48 83 be e0 e7 3b bd 48 e3 5f be 81 50 a4 3d
       -0.25641426 -0.04587543 -0.21864045 0.080231674
000070 f2 ac 75 be 52 5f 67 be a7 58 91 3b 79 b0 35 3e
       -0.23991755 -0.22594956 0.004435617 0.177431
000080 e1 ac 49 be 23 6e 46 be 28 47 17 be 13 42 aa 3d
       -0.19694854 -0.19377951 -0.14773238 0.08313384
000090 3f 51 7d bd a5 f4 3b bd 67 3a 2c bd 3f 63 47 3e
       -0.06184506 -0.045887608 -0.042047884 0.19471453
0000a0 b1 26 49 3d ac 5f 3e 3e 17 d7 70 3e 37 b1 98 3d
       0.049109165 0.18591183 0.2351955 0.07455676
0000b0 58 f9 e6 3d 93 2d 64 bd 1a ed b8 3d 38 44 16 be
       0.11278027 -0.055707525 0.090295985 -0.14674461
0000c0 5a cc 3f be 8d d4 a3 bd c4 5c cd 3d b0 3c 0b 3e
       -0.18730298 -0.07999525 0.10027459 0.13597369
0000d0 c1 26 98 bb 5b dd 64 bd 3f 30 be 3e 0c 03 df bd
       -0.0046432917 -0.055875164 0.37146184 -0.10889253
0000e0 47 81 d3 bd 14 97 2a 3e 9f b3 d9 3d fd d7 43 bd
       -0.10327392 0.16659194 0.10629963 -0.047813404
0000f0 77 c0 89 3e 92 49 92 3d 46 1c 45 be 60 51 c6 3d
       0.26904652 0.07142939 -0.19249067 0.0968349
000100 f8 f5 8c 3e 43 68 57 3e 93 95 80 3e dc c3 87 bd
       0.2753141 0.21035866 0.25114116 -0.06629154
000110 7f 67 1b be d7 5e c8 3d 5a 8e 0e be 5d 84 f0 3d
       -0.151762 0.09783714 -0.1392149 0.11743996
000120 6c de f5 3c 2c 85 6c be 9d 86 98 3d 81 3d e3 bd
       0.030013286 -0.23097676 0.074475504 -0.11095715
000130 9c c8 ad 3e 54 0f 19 be 98 fb 71 bd 54 a2 82 3e
       0.33942115 -0.14947253 -0.05907783 0.25514472
000140 b3 7a 21 3e f8 4c 47 3c c9 6a f8 bd 0f 28 21 bc
       0.15769462 0.012164347 -0.12129743 -0.009836211
000150 d4 5e 67 be c4 ca 3f be 13 3a 48 3d 29 3d 7a 3d
       -0.22594768 -0.18729693 0.04888351 0.061093483
000160 74 4d cf bb 60 fe 60 3e 48 03 68 3e 67 ce 34 3d
       -0.006326372 0.21972036 0.22657502 0.044142153
000170 25 83 59 3e 82 fb 2d 3e 37 0e 33 3e 26 37 74 bd
       0.21241434 0.16990474 0.17485891 -0.059622906
000180 63 b9 a6 bd 8a ba 38 3b 6d 25 20 3e d6 15 80 be
       -0.081408285 0.0028187358 0.15639277 -0.2501666
000190 29 f7 7e be e5 07 c9 bd 22 6a 8c 3e 2f 06 24 3e
       -0.24898972 -0.09815959 0.27424723 0.16017984
0001a0 03 e9 e0 bd 45 2d 85 3e ba ad 43 3e 6a 3e 23 be
       -0.109819435 0.260111 0.1910924 -0.15941778
0001b0 11 93 50 3d 45 1b 27 3d b2 66 03 3e 1f d1 b5 bd
       0.050921503 0.04079749 0.12832144 -0.08877777
0001c0 f0 23 26 3d f6 f1 43 3d c5 fa 44 3e 62 d0 80 3e
       0.040561616 0.047838174 0.19236286 0.25158983
0001d0 f5 26 16 be 7d 50 a2 3d c2 1b 30 3e c2 f8 65 3e
       -0.14663298 0.07925508 0.17198089 0.22458175
0001e0 2f c3 e0 3d 87 9b 38 3e a0 3c c5 bd 56 d5 d1 3d
       0.10974728 0.18028079 -0.09630704 0.10245769
0001f0 1e d3 28 3e f3 a5 3c 3d 17 da 65 be f6 25 4e 3d
       0.16486785 0.0460567 -0.22446476 0.05032917
000200 53 c1 49 3c 62 34 d4 bd 69 67 62 be d1 3f 9e 3d
       0.0123141585 -0.10361554 -0.2210976 0.07727016
000210 86 5d b0 bd 28 c7 0e 3e 2a 4f 0b be 0e 06 7a be
       -0.08611588 0.1394316 -0.13604417 -0.24416372
000220 49 70 68 bd d4 66 23 3d 1f 26 d0 3d c2 ee 85 bd
       -0.05674771 0.039892986 0.10163521 -0.0653968
000230 0e fc 80 be fc b6 cc bd 40 c7 46 be c4 ae 3d 3e
       -0.25192302 -0.09995839 -0.19411945 0.18523699
000240 40 ad 92 3c 62 ae b5 bc 82 20 a0 bd 14 9c 9d 3d
       0.017904878 -0.022177879 -0.078187004 0.07695785
000250 c5 bf 2a be 76 2d 83 bd dc cc d2 3d 96 96 72 3e
       -0.16674717 -0.06405155 0.1029298 0.23690256
000260 6a 05 d6 3d 40 2f ed bd a2 82 8d bd 08 07 7c bd
       0.104502514 -0.11581278 -0.06909682 -0.061530143
000270 fc d9 82 bd 36 45 88 3d ac 74 69 be c0 f6 ee 3d
       -0.063892335 0.06653826 -0.22798413 0.116681576
000280 28 28 0d be 17 2c 4a bd 69 9c 57 3e 8f 65 24 3e
       -0.1378485 -0.049358454 0.2105576 0.16054367
000290 97 a0 5e 3e 1f 54 08 3e fc 15 69 3c 43 1e ab 3d
       0.21740948 0.1331334 0.014226433 0.08355381
0002a0 e5 00 3e be c2 f2 6e be fc 7b 31 3e 68 70 0a 3e
       -0.18555029 -0.23334792 0.17332453 0.13519442
0002b0 d6 5c 25 3c 08 38 e9 bd 76 41 58 be f6 94 d2 bd
       0.010092935 -0.1138764 -0.21118721 -0.10282318
0002c0 5e 61 0a be d1 0e 76 be d5 cc 1f 3e e8 1b 49 3e
       -0.13513705 -0.2402909 0.15605481 0.19639552
0002d0 e6 9f a5 3c 87 a7 7d be ca b9 7a be 11 a5 73 be
       0.020217847 -0.24770938 -0.24484935 -0.23793437
0002e0 13 8a 1a bd fd 68 a0 3d 48 51 46 3e 30 4c 63 be
       -0.037729334 0.07832525 0.19366944 -0.22197032
0002f0 83 16 7f be a5 b4 49 3c fa ca 62 3e a7 db e7 bd
       -0.24910931 0.012311135 0.22147742 -0.11321192
000300 30 a4 3b be a0 f6 a0 bd a6 a9 6a 3e 47 7d ce 3d
       -0.18324351 -0.0785954 0.22916278 0.100824885
000310 c2 d2 51 3e 07 a6 5d 3d 44 64 24 be 59 d4 76 be
       0.20490554 0.054113414 -0.16053873 -0.24104442
000320 c3 5c b3 bd 22 00 02 be a6 d9 5a 3e dc 14 56 be
       -0.08757927 -0.12695363 0.21372089 -0.20906395
000330 46 64 94 3d ac 9e e0 bc 7f 89 01 be 43 82 0f bd
       0.07245688 -0.02741941 -0.12650107 -0.035036337
000340 26 7c 82 3e 3f 3e 1a 3e 82 32 5e 3e 52 cd 9d 3d
       0.25485343 0.15062808 0.21698955 0.07705177
000350 28 85 30 3d 6d 2f 38 be 7f cf 6e be 98 d6 df 3c
       0.043095738 -0.17986841 -0.23321341 0.027324006
000360 e9 4f 91 bd 72 df 3a 3e bd 01 22 3d 15 10 93 3e
       -0.0709532 0.182493 0.03955244 0.28723207
000370 89 81 95 3e fd 84 be bd d9 44 6d 3c e9 b3 67 be
       0.2920039 -0.09302709 0.014481747 -0.22627224
000380 65 1a 00 be dc a1 15 3e 32 52 c4 bc a1 6e e4 bd
       -0.12510069 0.14612526 -0.023964975 -0.11153913
000390 9b 11 35 3e cf a9 fd 3d d5 42 6a 3e b7 e0 88 3d
       0.17682497 0.12385904 0.22877057 0.06683486
0003a0 63 fd 09 be e7 a6 c5 bd 24 3c f7 bd 29 3c 91 bd
       -0.13475566 -0.09650975 -0.12072018 -0.07091553
0003b0 76 0e 54 be 2a 04 5c bd 20 20 84 bd 3c 12 4a be
       -0.20708641 -0.05371491 -0.0645144 -0.19733518
0003c0 d7 42 5a 3e 22 ae c2 bd a1 8b 8d be 31 03 ac bc
       0.2131456 -0.095058694 -0.2764559 -0.020997616
0003d0 31 c9 2e 3d 65 9d 2a 3e 1e e3 0f be fe b8 ea bc
       0.04267234 0.16661604 -0.14051482 -0.028652664
0003e0 84 3b 56 3e 65 1c 29 be 2c ec b8 bd ca e1 58 be
       0.20921141 -0.16514738 -0.09029421 -0.21179882
0003f0 86 8e 38 be fc f4 ed bd 7d c8 6c be 13 73 ba bc
       -0.18023118 -0.11618993 -0.23123355 -0.02275995

kp1.mlp.2.bias f4 [16]
000000 84 3e 6c bd 1f 36 1a be 32 46 6f be c2 de 8e 3d
       -0.057676807 -0.15059708 -0.23366621 0.069760814
000010 1d 05 29 3d f1 d4 02 3e 8c b6 22 3e 97 6f ea bd
       0.041264642 0.12776543 0.15889949 -0.11447065
000020 a4 59 01 be 7e c5 c2 3d 54 50 53 be b3 16 8f be
       -0.12631851 0.09510325 -0.20636111 -0.27947006
000030 e0 88 c0 3d 7b 08 44 3e 07 cf 85 be a6 dc 13 bd
       0.09401107 0.1914386 -0.26134512 -0.0360991

kp2.mlp.0.weight f4 [32, 19]
000000 05 6c ad 3d 03 8e c5 bd 9a 45 d9 bb 15 df b8 bd
       0.08467869 -0.09646227 -0.0066306116 -0.090269245
000010 58 20 28 be 2f e4 06 3e 17 9b ac bd 60 34 45 be
       -0.16418588 0.13172983 -0.084280185 -0.1925826
000020 89 60 3a be a0 e7 f0 bd 66 86 63 be c5 cb cf bc
       -0.18200888 -0.11762929 -0.22219238 -0.02536572
000030 09 d3 4c bd 91 81 1c be 53 8a 2d be c0 a4 54 3e
       -0.050005946 -0.152838 -0.16947298 0.20765972
000040 af bf 63 3d ef 6b ce bd c4 0a c0 3d 85 11 c0 3e
       0.055602726 -0.100791804 0.093770534 0.37513366
000050 89 81 20 3e c5 78 df bd b5 34 99 bd 92 f5 60 be
       0.15674414 -0.10911707 -0.07480756 -0.21968678
000060 83 fe 7e bd f2 23 a6 bd fb 5b 42 be 84 92 ca bd
       -0.06225444 -0.08112325 -0.189804 -0.09891227
000070 9e b4 47 3d b6 3b 9e 3d 88 82 b7 bd f2 60 d2 3c
       0.048756234 0.07726233 -0.08960444 0.025680993
000080 09 8f 64 be cc 17 97 be c2 bc 2d 3e 84 08 06 be
       -0.22320189 -0.29510343 0.16966537 -0.13089186
000090 65 4c 10 be ef b4 23 be 2f d7 f1 3e 5f 26 1d 3f
       -0.14091642 -0.1598699 0.47234485 0.61386675
0000a0 65 24 01 3f 88 de f1 3d 53 47 41 bd 02 36 bf 3c
       0.5044616 0.118100226 -0.04718716 0.023341183
0000b0 a4 90 e7 ba b8 65 03 3e 53 e2 1b bc 28 0d 3b 3d
       -0.0017667008 0.12831771 -0.009514409 0.045666844
0000c0 f8 08 47 3d cb 41 1d bd 0b 14 ff 3d f2 c6 92 bd
       0.048592538 -0.038392823 0.12454995 -0.07166852
0000d0 34 90 d6 3d 5a 6d 0d 3e a2 7d 25 3e b0 0c 32 be
       0.10476723 0.13811246 0.16161206 -0.17387652
0000e0 4c 3f 5a ba c4 ee 04 bf 4d d7 b8 3e c8 75 ae 3e
       -0.0008325472 -0.5192683 0.3610176 0.34074235
0000f0 14 2e 55 be 40 c4 9a 3d 4d df dd bd 64 2e 2b be
       -0.20818359 0.07556963 -0.10833607 -0.16716915
000100 bd 30 11 bd 82 f1 bd 3d d0 65 82 3d dd 93 86 bd
       -0.03544687 0.092745796 0.063670754 -0.065711714
000110 7b a0 c8 3d 84 24 4c bb 1f 90 92 bd 53 79 1b be
       0.09796234 -0.0031149695 -0.07156395 -0.15183
000120 88 92 47 3e 5a 62 9f bd 42 78 8c be 3b d3 4f be
       0.19489491 -0.07782431 -0.274355 -0.20295422
000130 18 39 f8 3e c8 7d 1d 3f c8 30 41 3e de 04 67 bd
       0.4848106 0.6152005 0.18866265 -0.056401126
000140 e8 44 df bd 72 09 13 bc 79 2c 83 3e ba 25 81 3e
       -0.10901815 -0.00897442 0.25619867 0.25224096
000150 ee df 37 3e c2 ab 77 3c ee ad 03 bb 90 10 dc 3d
       0.17956516 0.015116634 -0.0020092684 0.107453465
000160 e2 02 cb bb 43 fc 83 3d 6c 7b 0f 3e a4 47 df bd
       -0.006195412 0.064445995 0.14011925 -0.10902336
000170 a1 a0 9c 3d aa e3 f6 3d 37 8e be bd 50 b3 73 bd
       0.07647825 0.12055142 -0.09304469 -0.059497178
000180 ad bc ac bc 40 dd 64 3d d7 db 04 3d 43 66 2a be
       -0.021086061 0.055875063 0.032436218 -0.16640572
000190 82 60 ef bc e6 e3 38 be e7 31 a8 3d fb 75 4b be
       -0.029220823 -0.18055686 0.08212643 -0.19869225
0001a0 d5 d6 61 bd 5f b5 bf 3b 98 aa 3e 3e fb a9 76 3d
       -0.05513652 0.0058504785 0.18619764 0.0602207
0001b0 82 45 04 3e cd 3f 5f 3d b1 16 60 be be be 1d be
       0.1291714 0.054504205 -0.21883656 -0.15404794
0001c0 af b3 61 be 27 97 a7 bd 3c b7 07 bf 10 ae 94 be
       -0.220412 -0.08183127 -0.5301397 -0.2903905
0001d0 61 f8 c4 3e d5 74 10 be cd 25 2a bd 76 82 ed 3d
       0.38470748 -0.14107068 -0.041539956 0.11597149
0001e0 0a 34 34 3e f5 7b 3a 3e 8a 24 0e 3e 85 98 42 3d
       0.17597976 0.18211348 0.13881126 0.047508735
0001f0 65 85 97 3d ee ac 5b be a5 55 14 bc a1 31 63 be
       0.0739849 -0.21452686 -0.009053622 -0.221869
000200 6b 1a 40 be 73 b5 cb 3c 11 a2 4b be d1 e1 e3 bb
       -0.18760078 0.024866795 -0.19886042 -0.0069544096
000210 04 58 a3 3d a1 0f 9e 3d 2e bb 00 3f 36 75 56 3e
       0.07975772 0.07717825 0.50285614 0.2094315
000220 57 37 a2 bd 1b 7f 65 be eb e3 30 3e fc eb 1b be
       -0.079207115 -0.22411768 0.17274444 -0.1522674
000230 bb 10 b2 b9 93 c4 39 3e 01 58 a2 3d d4 f1 a5 3d
       -0.0003396327 0.18141393 0.07926942 0.08102766
000240 64 cd 2e be f6 de 23 3d 8c dd 18 3e 82 36 5c be
       -0.17070538 0.040007554 0.14928263 -0.21505168
000250 47 e3 35 3e a4 f5 1d be 1b 24 bb bd 0a e1 1d be
       0.1776248 -0.15425736 -0.09137746 -0.15417877
000260 b1 37 f7 be d6 eb 46 be 29 2f 7a 3d ee 46 70 be
       -0.48284677 -0.19425902 0.06108013 -0.23464558
000270 61 b9 7b be 34 c1 70 be fd 80 0e bd 7e 6d 61 3e
       -0.24582435 -0.23511201 -0.03479098 0.22014424
000280 68 04 68 bd f6 ae 09 3e 5b a2 16 3e dc ee 3b 3d
       -0.056644827 0.13445649 0.14710371 0.04588209
000290 4b aa 01 be 8b 36 59 be 6e 88 14 be 98 ea 69 3e
       -0.12662618 -0.21212213 -0.14505169 0.22843397
0002a0 6f 92 00 be cd 78 3f be 69 1c 67 be bf 24 14 be
       -0.1255586 -0.18698426 -0.22569431 -0.14467143
0002b0 cb fe 1d be 81 fc b3 3d 28 ca 2a be 7e 57 22 3e
       -0.15429227 0.08788396 -0.16678679 0.15853688
0002c0 95 35 d5 3c fe bc d4 bc 66 a2 a4 bd f8 7c 0d be
       0.026026526 -0.025969025 -0.080387875 -0.13817203
0002d0 c2 be 38 3e 8d ce 72 be 35 d3 7d be 09 ae 37 be
       0.18041518 -0.23711605 -0.247876 -0.17937483
0002e0 ac 6e 1a be 03 96 36 3c 19 f5 db bd 9f 3e 85 bd
       -0.1508128 0.011144164 -0.10740108 -0.06506085
0002f0 42 d1 5f be 09 d1 67 be 18 a0 a2 be f9 62 b7 bd
       -0.2185717 -0.22638334 -0.31762767 -0.089544244
000300 8c 5d 3f be eb a8 85 bb c4 f4 63 be 95 aa 2f 3e
       -0.18688029 -0.0040789745 -0.2226134 0.17154916
000310 33 8f 69 be c6 45 01 be 07 78 a5 3d 20 d6 83 bb
       -0.22808532 -0.12624273 0.08079534 -0.0040233284
000320 18 fb 49 bb 30 7e 1c be 18 9d a6 bd d6 6b 6d be
       -0.003081983 -0.15282512 -0.08135432 -0.23185667
000330 b3 80 b4 bd b0 2e aa bd f2 c7 e7 3d c7 7f 6c be
       -0.0881361 -0.08309686 0.113174334 -0.23095618
000340 1e 9a c4 3d 2c 96 b0 be 31 eb 33 bd 6a fb 8c 3e
       0.09599708 -0.34489572 -0.043925468 0.27535564
000350 4f 79 81 3e cb bf 22 be b9 d4 1e 3e 2f cf c9 3c
       0.25287864 -0.15893476 0.15510835 0.024634926
000360 be 7d ed 3d 7b 5f a3 bd 3f ef 0b be 80 2b 04 3d
       0.11596249 -0.07977196 -0.13665484 0.032268047
000370 57 08 84 bd 54 83 5a be 36 3b f5 bd ee f4 d7 bc
       -0.06446903 -0.2133916 -0.11974184 -0.026361909
000380 dd 2d 15 3e c1 cd 84 3e 16 dc bc bd b6 90 70 be
       0.14568277 0.25938228 -0.092216656 -0.23492703
000390 69 a6 4d be 98 22 94 3e 25 df c1 bd e8 52 de bd
       -0.20083012 0.28932643 -0.094663896 -0.10855657
0003a0 2f e1 49 3e bf 19 ca bc b7 5d 1a 3e 35 d3 cf b9
       0.19714807 -0.02467048 0.15074812 -0.00039639478
0003b0 49 32 2a 3e 20 25 22 be 75 b8 86 be cc 09 4e be
       0.16620745 -0.15834475 -0.26312605 -0.20120925
0003c0 31 92 de bd da dd 21 be c3 0b a4 bd 73 be 0c be
       -0.108677275 -0.15807286 -0.08010056 -0.13744526
0003d0 55 34 0f 3e 96 87 30 3e 53 ac ec bd f3 03 fc bd
       0.13984807 0.17239222 -0.11556306 -0.12305441
0003e0 60 8d a2 be ab 09 97 3e 35 28 38 3e 79 52 13 be
       -0.31748486 0.29499564 0.17984088 -0.1438693
0003f0 11 79 47 3e 56 67 8b 3e 4b 45 41 be a0 36 20 bb
       0.19479777 0.27227277 -0.1887409 -0.0024446622

kp2.mlp.0.bias f4 [32]
000000 61 74 6a be 1d 30 c6 3c a1 d6 1f 3d 4f 8a d8 3e
       -0.22895958 0.024192864 0.039023045 0.4229302
000010 5a 84 c0 3d f1 2d d4 bd ce 11 4d 3e 46 4a 54 bd
       0.09400244 -0.10360325 0.20026323 -0.051828645
000020 ec 64 9f 3e 30 9a c6 3b ba 87 3a be 55 9c 23 3e
       0.31131685 0.006060861 -0.18215838 0.15977605
000030 52 98 72 3e 45 da 13 be 8e c7 a6 3e d6 11 40 3e
       0.23690918 -0.14438732 0.32574123 0.18756804
000040 3a 33 2c 3e 44 13 68 bc a7 a5 63 3e ba 99 24 be
       0.16816416 -0.0141647495 0.2223116 -0.16074267
000050 a7 65 57 3d 3d eb 39 3e d2 2b bf 3c ca 5f 61 3d
       0.052587178 0.18156143 0.023336325 0.055022992
000060 21 12 6e be 57 de 61 3e 4a 72 5c 3e 52 54 2a bd
       -0.23249103 0.22057472 0.21527973 -0.04158432
000070 e6 7e 1d 3e df 3d 34 be 27 23 27 be 84 08 c6 bd
       0.15380439 -0.17601727 -0.16322003 -0.09669593

kp2.mlp.2.weight f4 [32, 32]
000000 dd d3 18 3e d9 d4 a9 3d 50 3d ad 3e a6 96 6b 3d
       0.1492457 0.082925506 0.3383584 0.057516716
000010 27 5b 93 3e 03 83 06 3e 09 51 18 3d d8 28 32 3e
       0.2878048 0.13135915 0.037186656 0.17398393
000020 fb 07 2c 3c bd fa 38 be 09 1b b8 3d 5d be 17 3e
       0.01049995 -0.18064399 0.089895315 0.14818712
000030 cc 58 84 bb 1a 7a 08 3e f7 a0 3f 3e 3e 77 45 3c
       -0.0040389057 0.13327828 0.18713747 0.012052355
000040 74 02 92 be dd 86 c1 bc 90 52 79 bd e6 35 dd 3d
       -0.28517497 -0.023623878 -0.060869753 0.10801296
000050 81 23 98 bd 69 17 80 bc 38 a5 b2 3c f1 7c e7 3e
       -0.07428647 -0.015636163 0.021807298 0.4521251
000060 fd 03 ad 3d f2 37 e0 3d 58 f6 66 3c 46 29 95 3d
       0.08448026 0.10948171 0.014096819 0.07283263
000070 e7 2d 03 be 28 aa a5 39 c0 45 70 bd e5 e8 8a bc
       -0.12810479 0.0003159803 -0.05866027 -0.016956756
000080 34 27 1b be d1 e9 85 be 3d 93 59 be 66 2c d8 bd
       -0.15151674 -0.2615495 -0.21247573 -0.10555343
000090 ad b7 ab be 38 b8 cd bd e7 ba c7 3d f2 ab 5f 3d
       -0.3353857 -0.100449026 0.09752446 0.05460734
0000a0 c7 15 a6 3d 08 af 91 3d 64 8b 9c 3d 9b 2e 37 3e
       0.081096224 0.07113463 0.07643774 0.17888872
0000b0 7b e6 31 3e 9d e8 4f 3e 7f dd 49 be a7 4a db bd
       0.17373078 0.20303579 -0.197134 -0.10707598
0000c0 83 d9 86 bd 7b 5e 8b bd ac e9 47 be 16 ec a1 3d
       -0.06584456 -0.0680513 -0.19522732 0.07906358
0000d0 22 f9 48 3e 14 33 5b 3d d7 68 76 3e 97 93 34 3e
       0.19626287 0.05351551 0.2406343 0.17634426
0000e0 11 cf cf bd b9 a9 c9 3d cf 5d 12 be b1 8f 4b 3e
       -0.10146917 0.09846825 -0.14293598 0.19879033
0000f0 3f b1 a4 3d 09 d0 ba 3d 54 c1 e0 3d 45 1f 2a bd
       0.080416195 0.09121711 0.109743744 -0.041533727
000100 9c 85 9e 3d 77 ae 10 3c 79 3a ac 3d d5 ff 0b 3e
       0.07740328 0.008830658 0.0840959 0.13671811
000110 26 a7 58 be 43 91 b8 3d 1b f7 5d 3d c0 79 2d 3e
       -0.21157512 0.090120815 0.054190736 0.16940975
000120 5f ae d6 bd 93 8e 1f be 5a 36 26 3d b7 32 34 be
       -0.104824774 -0.15581731 0.040579177 -0.17597471
000130 20 07 74 3d a9 a6 0b be f1 4b 03 be 3b dc ba 3c
       0.059577107 -0.13637795 -0.12821938 0.022810092
000140 16 fc 0c be 30 08 5f 3d 78 68 04 be cc 87 fe 3d
       -0.13768038 0.054451168 -0.12930477 0.12428245
000150 f1 e2 06 be 13 75 f7 bd f5 bf 7b 3d 85 c1 8d be
       -0.13172509 -0.12082877 0.06146236 -0.27686706
000160 fc 41 18 3d ea 60 c6 bd c0 f8 d6 bd 01 ef 1f be
       0.037172303 -0.09686454 -0.10496664 -0.15618517
000170 89 00 3b bd 67 18 27 3e 0f d9 04 be b2 48 25 be
       -0.045654807 0.16317903 -0.12973426 -0.16141012
000180 01 10 fc bd 94 d4 fb 3a be aa 30 3e e6 a5 21 bd
       -0.1230774 0.0019213133 0.17252633 -0.039464854
000190 e4 21 c6 3d 1d b6 51 bd 7d 2c a9 3d 3a 50 07 3d
       0.09674433 -0.051199067 0.082604386 0.033035494
0001a0 53 e1 00 bd c3 58 9d 3c f3 a5 44 be 2e a4 e6 bd
       -0.031464886 0.019207364 -0.1920393 -0.112617835
0001b0 13 7f b6 bd 54 ad 02 be b6 a3 52 3e 34 13 d1 3d
       -0.08910956 -0.12761432 0.20570263 0.10208741
0001c0 83 95 65 be 5c 25 90 bd 92 be 4d bd a2 9d 45 3e
       -0.22420315 -0.07038376 -0.05023057 0.19298413
0001d0 90 5b 56 3d 99 28 72 bc 33 af f2 bd f7 61 94 3d
       0.052333415 -0.014780187 -0.11849823 0.07245248
0001e0 a9 2b 24 3d b0 7d 28 3c d2 12 89 3e ee 66 97 3e
       0.0400807 0.0102838725 0.2677217 0.29570717
0001f0 72 a9 97 bc 2a cc c4 3a 66 70 01 3e c9 b5 db bd
       -0.018513415 0.0015014459 0.12640533 -0.10728032
000200 d1 a0 20 3e 41 26 5b be 84 94 90 be 8c 7d 50 be
       0.15686347 -0.21401311 -0.28238308 -0.20360392
000210 d4 96 76 be 72 7a 0b be 66 09 0e bd 0d 61 4e be
       -0.24080974 -0.13620928 -0.03467693 -0.2015421
000220 9e 87 7d bd e1 bd 55 3c c2 42 ce 3d 3c 12 10 be
       -0.061896913 0.013045759 0.10071327 -0.14069456
000230 b0 42 3f be 65 ac da 3c 29 33 81 3c 7b 69 29 be
       -0.18677783 0.026693532 0.015771465 -0.16544144
000240 c7 3c 60 bd cf fd 33 be 89 9c 2a be 38 c1 23 3d
       -0.05474546 -0.17577289 -0.16661276 0.03997919
000250 6c 9a c0 3c 08 46 35 bd 2a 81 9e 3c b3 c2 e5 bd
       0.023511134 -0.04425624 0.0193487 -0.112187766
000260 e3 d0 1c 3e 19 98 3b be 38 b1 6c be d5 61 34 3e
       0.15314059 -0.1831974 -0.23114479 0.17615445
000270 de e0 ac 3d 90 e6 d9 bd bb ff 14 3e e1 29 4b 3e
       0.084413275 -0.106396794 0.14550678 0.19840194
000280 85 20 82 3b 42 0d cf bd 7f af f4 3c 3e f2 85 be
       0.003971162 -0.101099506 0.02986884 -0.2616138
000290 1a a8 9f 3e df 2d f7 bc bc 08 53 3d 93 d3 c6 3d
       0.3118294 -0.03017324 0.051522 0.09708323
0002a0 f7 10 9d bd b4 45 f8 bc f7 ba 7b bd ea bf 30 bc
       -0.076692514 -0.030306675 -0.0614576 -0.010787943
0002b0 6c 6f 3e 3d fc e0 9b 3d 23 0a b3 bd c5 6f 6a 3e
       0.04649298 0.07611272 -0.08742168 0.22894199
0002c0 49 0a 69 be cc 4a 8e 3c 9c 4c 42 3e 3c 89 41 3d
       -0.2275783 0.01736965 0.18974537 0.047250018
0002d0 be 3c 7c 3b 05 4e 15 bc 20 ad e5 3d 3b 91 95 3e
       0.0038488354 -0.00911284 0.112146616 0.29212365
0002e0 1c 93 46 3e 37 2b 41 3d 10 37 7d 3e 63 04 ba bb
       0.19392055 0.047160354 0.24728036 -0.0056767925
0002f0 b0 b1 33 be f0 4b d1 3d af a8 5a 3e ba 09 39 be
       -0.17548251 0.10219562 0.2135341 -0.18070117
000300 87 23 71 bd 4e 84 f7 3d 84 19 20 be 8f 88 b9 be
       -0.058871772 0.12085782 -0.15634733 -0.36236998
000310 79 6a 5c bd 66 0c 0c 3b b3 ae 3a be 06 8a 27 be
       -0.053812478 0.0021369695 -0.18230705 -0.16361246
000320 10 f3 29 bc 80 26 de bd 1d e2 13 3e be 4d f5 3c
       -0.010372892 -0.10847187 0.14441724 0.029944297
000330 3a 17 c6 bd 6c c0 19 be b3 9e 06 be 5a a4 41 3e
       -0.09672399 -0.1501481 -0.13146476 0.18910351
000340 b7 d2 f7 bd db bb 29 3e 39 01 28 3e 2e 4a 53 3e
       -0.121007375 0.16575567 0.16406716 0.20633766
000350 4b bc f1 3d 27 f3 9e 3d 25 bb 4e bd 1c 0c 15 bc
       0.11803492 0.077612214 -0.050471444 -0.009097125
000360 94 fb 55 3e f9 2a 82 3d 1c 03 6c bd 54 69 7e 3e
       0.2089675 0.06355853 -0.057620153 0.24844867
000370 0c 57 64 be 4c 3c 92 bd 30 a2 22 3e 9e df 3e bc
       -0.22298831 -0.07140407 0.15882182 -0.011649994
000380 ff 11 c1 3d 16 2f 0d be 66 05 3a 3d c0 73 1d bc
       0.094272606 -0.13787493 0.045415305 -0.0096101165
000390 bc 4f 8c be ce 91 f3 bc 1e 4d 61 3e 0d e4 5a 3d
       -0.27404583 -0.029732611 0.22002074 0.053440142
0003a0 7b 46 63 3e e6 00 13 be 2c 48 20 be ab 04 76 ba
       0.22194855 -0.14355811 -0.15652531 -0.0009384851
0003b0 9a 8e 57 bd 57 b0 96 3d 90 64 5f bd fc a7 49 be
       -0.05262623 0.07357853 -0.054539263 -0.19692987
0003c0 80 d0 d9 3d 54 0b e5 3d fd 34 3c be 34 37 a6 bc
       0.10635471 0.11183801 -0.18379588 -0.020289995
0003d0 84 35 14 3e fe b2 be 3d 95 58 5c 3e ef f9 14 bb
       0.1447354 0.09311484 0.21518166 -0.002273198
0003e0 36 4a 00 3e 75 82 ec 3d c7 b8 00 3e 9e 9b 50 3e
       0.12528309 0.1154832 0.12570487 0.20371863
0003f0 63 b2 4b 3e db b3 76 3d f2 42 80 bd fa c4 f7 bd
       0.19892268 0.060230117 -0.06262769 -0.12098117

kp2.mlp.2.bias f4 [32]
000000 90 11 e5 3b a7 64 38 bd bb bd d8 bc 2c 21 ac 3d
       0.006990619 -0.045017865 -0.026457658 0.084047645
000010 53 8a 47 be 11 b2 30 3e 4c 53 4f be 5d e7 3b 3c
       -0.1948636 0.17255427 -0.20246619 0.0114687355
000020 db 14 02 3e 60 c8 a3 3d 77 1d 02 be 35 49 69 be
       0.12703268 0.07997203 -0.12706552 -0.22781833
000030 cd b7 0f be 26 1d 5d be 1c f7 0c bc 7e 25 1c bd
       -0.14034958 -0.2159315 -0.008603837 -0.038121693
000040 d3 d6 87 be 3f 63 d7 bd a3 e8 f5 bd 96 10 8b be
       -0.26531085 -0.105169766 -0.120072626 -0.27161092
000050 1c a5 6b be ea b0 69 be 9c ad 9d 3d 2f b7 05 be
       -0.23012203 -0.22821394 0.07699129 -0.1305816
000060 a0 5c 10 3e 1c bb 00 3e 7f 3c 18 bd 91 ea 3a 3e
       0.14097834 0.12571377 -0.03716707 0.18253542
000070 4b 8a 66 be f5 03 06 be 1c ef 96 3d 0d 47 d8 3d
       -0.22513692 -0.13087447 0.07369825 0.10560427

head.0.weight f4 [32, 32]
000000 af 42 0f 3e e9 7d 5d 3d 5d 82 ea 3c c7 e9 a4 3c
       0.13990282 0.054075155 0.028626615 0.020131005
000010 35 db c7 3d 63 c7 49 3d 13 91 1e bd f4 ec 35 3e
       0.09758607 0.049262416 -0.038712572 0.17766172
000020 1a 49 50 3e 32 af 60 3d 0f 89 a5 bd b7 78 d9 bd
       0.20340386 0.05485458 -0.080827825 -0.10618728
000030 b5 40 04 be 64 1c 4c 3e eb 2d 1c be b8 f6 44 3d
       -0.12915309 0.19932705 -0.15251891 0.04808685
000040 b1 ed 51 bd a2 4a 44 bd 8e 83 30 3e 2b c7 3e 3e
       -0.05125207 -0.047922738 0.17237684 0.18630664
000050 1e 6b 93 3d 33 f6 4b 3e 90 fa 0a be ea 12 71 3e
       0.07198165 0.19918136 -0.13572145 0.23542371
000060 9a c1 ac bd 24 53 65 3e 2d ed be 3d 37 9c dc bd
       -0.08435364 0.22394997 0.093225814 -0.10771983
000070 b1 9a 70 3d ba 7a 16 3d a7 7e c6 3e dc f5 12 3d
       0.058741275 0.036738135 0.38768503 0.035879
000080 93 94 df 3c b8 91 eb 3c c3 5b 37 3d 9d 94 f2 3d
       0.027292525 0.028756008 0.044765245 0.11844752
000090 fa f9 07 3e 7a 59 a3 bd 43 23 30 3e ee 8a 47 be
       0.13278952 -0.07976051 0.17200951 -0.19486591
0000a0 31 4c 7a 3d 05 90 1e 3e ec 07 3a 3e f5 68 c4 bd
       0.061107818 0.15484627 0.18167084 -0.095903315
0000b0 37 42 be 3c 3b 2d 0f bd d6 8c 0b be fb 13 60 3d
       0.023224933 -0.034955245 -0.13627943 0.054706555
0000c0 56 12 3f 3c 17 77 01 3e 17 53 94 bd 70 b4 14 be
       0.0116620865 0.12643085 -0.07242411 -0.14521956
0000d0 c8 12 d6 ba cb a7 f9 3d 77 ba 7c bd da e9 be bd
       -0.0016332502 0.12190207 -0.061701264 -0.093219474
0000e0 81 37 f7 bd de 1b ca 3d 37 76 4b bd 9d 07 43 ba
       -0.120711334 0.098685965 -0.049673285 -0.0007439794
0000f0 53 e6 39 3e 4e 13 bc 3d 21 0a 3d be 65 b2 47 be
       0.18154268 0.091833696 -0.18460895 -0.19501646
000100 f9 e8 49 bc 3c 09 25 be f6 32 9e bc be a2 b9 bd
       -0.012323611 -0.16116804 -0.01931141 -0.09064244
000110 23 18 f5 bd 50 eb 53 be d6 17 ab be e6 6b 89 bc
       -0.11967494 -0.20695233 -0.33416623 -0.016775083
000120 ad db dc 3d f3 80 ca 3d e1 e5 75 be f3 5b bb bd
       0.10784087 0.09887876 -0.24013473 -0.09148397
000130 f8 2b 16 be 06 26 48 3d b0 5e 36 be 86 99 fb 3d
       -0.1466521 0.048864387 -0.17809558 0.12285142
000140 56 78 65 be 33 46 d0 bd 9a c8 93 3d 01 a3 41 be
       -0.22409186 -0.101696394 0.07215996 -0.18909837
000150 c9 e4 38 bd 38 a7 7b be 18 77 d8 3d 8a a3 0d 3d
       -0.04514006 -0.24575508 0.1056959 0.03457979
000160 42 d7 2d 3e 45 ff 14 be 51 d8 1a be 8c 34 4a 3d
       0.16976646 -0.14550503 -0.1512158 0.04936652
000170 84 27 64 be 7b 78 87 bd 46 f6 c2 be 4d 2a 9f bc
       -0.22280699 -0.06614777 -0.38078517 -0.01942935
000180 52 ae ce bd c7 ba 48 bd 64 e1 58 be 33 26 71 bd
       -0.10091843 -0.04900625 -0.2117973 -0.05887432
000190 ea 40 e4 bd f5 74 e8 3c 3a 02 8e be 04 80 02 be
       -0.11145194 0.028376082 -0.27736074 -0.12744147
0001a0 d1 10 ec 3d 86 ed 77 bd c3 a8 42 be e8 b5 c6 bd
       0.11526645 -0.060529254 -0.1900969 -0.097026646
0001b0 d4 67 10 3d 22 71 c6 3d 66 87 1c be 18 2b 85 bd
       0.03525527 0.09689547 -0.15286025 -0.0650236
0001c0 19 42 00 be 83 7b 18 be 58 ae 7f be 12 16 c5 bd
       -0.12525214 -0.14890866 -0.2496885 -0.0962335
0001d0 97 1f c2 bd a2 16 71 be b0 89 80 bd 42 94 93 bd
       -0.094786815 -0.2354379 -0.06276262 -0.07206012
0001e0 3b ca e3 3d 95 21 91 bd c7 ba a4 3d 98 c0 7d 3d
       0.11122557 -0.070864834 0.080434375 0.06195125
0001f0 ef ce 73 be 55 d1 41 be bb 18 55 be 1e 41 cd 3d
       -0.23809408 -0.1892751 -0.20810215 0.10022186
000200 ad bd e6 bd 62 be 00 be c3 37 f8 3d 23 a9 10 be
       -0.112666465 -0.12572625 0.12120011 -0.1412702
000210 8a de d7 3d b7 58 02 3e 8f b8 ae bd 75 e5 ce bd
       0.10540493 0.12729155 -0.085312955 -0.10102359
000220 8e 29 d0 3d 98 f9 fd bd 82 17 26 3e 4c 35 4a 3d
       0.10164176 -0.12401122 0.16219905 0.049367234
000230 7f d5 9d bc b4 e4 b1 bd 45 ee e4 3d 0b ab a4 bd
       -0.019266842 -0.086862 0.11178259 -0.08040436
000240 77 bc 06 3e d3 a2 ed bd 2e 0c 0a 3e 25 c0 db 3d
       0.13157831 -0.11603322 0.13481209 0.10730008
000250 5a bd 0f 3d 7f d9 cb bd da 57 c5 bd 62 4a b6 3d
       0.03509269 -0.099535935 -0.09635897 0.08900906
000260 51 c6 03 be 70 a0 d0 bd 73 7c c2 bc b0 20 49 3c
       -0.1286862 -0.10186851 -0.023740983 0.01227586
000270 1a f6 98 3d 88 8d 70 3d 4f 4d fa ba a0 c0 11 be
       0.07468815 0.058728725 -0.0019096526 -0.14233637
000280 63 45 79 bd 8d 74 ba bd 2c e5 12 3e 6b 78 1a bd
       -0.060857188 -0.091042615 0.14345235 -0.037712496
000290 b8 69 ad 3b 90 0f b0 3d 04 c3 8f bd 02 a7 a4 bc
       0.0052921437 0.08596718 -0.07019618 -0.020099167
0002a0 8b 0b 35 3e 28 46 1a bd 17 9c 35 3d 4d 49 0f 3e
       0.17680185 -0.037664562 0.044338312 0.13992806
0002b0 d2 1d 9d bd e5 c0 43 3e 64 02 86 bc 77 76 08 be
       -0.076717034 0.19116552 -0.016358562 -0.13326441
0002c0 b5 6e f6 3d 9e 85 9e bd 9e b3 a3 bd 0d 6f 1e 3d
       0.120328344 -0.07740329 -0.07993244 0.038680125
0002d0 ae 4b 38 be 23 6d af 3d f6 0a 69 bd 8b a0 80 3c
       -0.1799762 0.08565738 -0.05689522 0.015701553
0002e0 b4 52 40 3d af c5 4c 3d 70 23 02 be f0 6b f7 3b
       0.04695387 0.049993213 -0.12708831 0.007550709
0002f0 ec b2 22 3e 02 16 07 be a6 09 9e bd 54 69 21 3e
       0.15888566 -0.13191989 -0.07716684 0.15762836
000300 ee 8a 79 bd 7f c2 d6 3d 0f 75 31 be 79 61 85 3d
       -0.06092351 0.10486316 -0.1732981 0.06512732
000310 36 f7 4c be 14 60 65 3e 4f 60 77 bd dc 95 1a 3e
       -0.20016178 0.22399932 -0.06039458 0.1509623
000320 b6 ee 94 bd c0 18 41 3e 31 69 14 be b6 65 35 bd
       -0.07272093 0.18857098 -0.14493252 -0.044286452
000330 c0 b7 20 be 86 ad 7f 3d 7d 12 6d bd 2d 78 24 3e
       -0.15695095 0.062421344 -0.05787896 0.16061468
000340 be 71 e5 bd cc 68 d7 bc f6 0f 00 bd 53 aa f7 bc
       -0.11203335 -0.026295088 -0.03126522 -0.030232584
000350 83 d4 bd bd de 65 13 be bc 33 30 3e a6 73 85 bd
       -0.09269049 -0.14394328 0.17207235 -0.06516199
000360 ef 12 6a 3d db 9e 35 3e 54 a1 4f bd 87 72 0c 3d
       0.057146963 0.1773638 -0.050690964 0.03428891
000370 fc a5 6f bd fb 60 90 bd 1d 48 1c 3e 5b c8 0b 3d
       -0.058507904 -0.070497476 0.15261884 0.03412662
000380 1b 8c 46 be 50 c4 22 bd 05 0a 19 bd 30 23 16 be
       -0.19389383 -0.039738 -0.03736307 -0.1466186
000390 db 2b b7 3c de 28 1e be 07 84 f3 bd 5d 11 46 bd
       0.02235978 -0.15445277 -0.118904166 -0.048356403
0003a0 3a 0d 04 bd 72 68 c5 bd 59 ca 9c 3d 53 bf d7 bd
       -0.032239176 -0.09639062 0.07655782 -0.10534539
0003b0 55 d4 bf 3c 3d b8 8b 3c aa 65 ee bc 2b f8 08 3e
       0.023416677 0.017055625 -0.029101212 0.13375919
0003c0 c8 85 cd 3d ca be 17 bc 55 98 ff 3a 35 7d 05 3e
       0.100352824 -0.009261796 0.0019500355 0.13036044
0003d0 99 fc 04 3e 42 69 80 bc de 47 e1 bd 45 2d 3a 3d
       0.12986983 -0.01567519 -0.11000036 0.04545333
0003e0 59 26 f4 bd 0e 87 1c 3e 41 cd f6 bd 93 24 b6 bd
       -0.11921377 0.15285894 -0.12050868 -0.08893695
0003f0 1a 48 15 be e3 a5 ee bd b7 79 2b bd ea 08 19 3d
       -0.14578286 -0.11652734 -0.041864123 0.037362017

head.0.bias f4 [32]
000000 d8 ab ca 3c 2f 2a 13 be 5c 8b 84 3e cb 9b a3 3e
       0.024740145 -0.1437156 0.25887573 0.31954798
000010 65 3a 01 be 4f 21 0f be 5e 87 fc 3d 2c 8a ca 3d
       -0.12619932 -0.1397755 0.12330507 0.098896354
000020 ae 82 69 3e 0c 26 3d 3c a3 90 37 3e 1b 6a a0 bd
       0.22803757 0.011544716 0.17926268 -0.07832738
000030 15 22 c3 bd 3e e1 fb 3d 4b b8 8e bd 28 02 bd 3b
       -0.09527985 0.12298821 -0.06968745 0.0057680793
000040 a1 cc 4a bd a5 6d cf 3d d2 0a 69 be 42 c1 48 3d
       -0.049511556 0.10128335 -0.22758034 0.04901243
000050 2f 00 52 3e 52 80 bb 3d 05 79 17 3d 49 43 3c be
       0.20507883 0.091553345 0.036980648 -0.18385042
000060 30 7b 5c bd 8d a5 f4 3d 2e 01 5d bc 89 7e f8 3d
       -0.05382842 0.11945639 -0.013489051 0.1213351
000070 cf 8f a9 bb 41 c3 08 bd 9b f3 98 3d 68 90 2c bc
       -0.005174614 -0.033389334 0.07468339 -0.010532476

head.2.weight f4 [3, 32]
000000 8c 3a bb 3c 9b 86 38 3c 3f a0 7b 3c 0c 0f c8 bd
       0.022855066 0.011262561 0.01535803 -0.09768495
000010 e9 04 1b 3e b9 6d e8 3d ee 06 aa 3b 90 c3 12 be
       0.15138592 0.11349053 0.0051888144 -0.14332414
000020 0b e7 d1 3c 4c e7 4a bd e7 10 a9 bd 13 2b fd 3d
       0.025622865 -0.04953699 -0.08255177 0.123617314
000030 c3 13 fc 3c a8 4e 95 bd e2 c0 9f bd ba dc f2 bc
       0.030771142 -0.07290393 -0.07800461 -0.029646266
000040 2a 12 d4 3a 71 5d 99 bd ac 1b 6e bc a8 8c 3d 3e
       0.001617973 -0.07488526 -0.014532965 0.18510687
000050 b4 84 95 3e 4a 3d ec 3d 1f 6c 1c be fb 1b 84 3e
       0.29202807 0.115351275 -0.1527562 0.25802597
000060 1c cb 80 3e cc bd 40 3c 0a 27 17 be ba ce 24 3e
       0.2515496 0.011764001 -0.14760986 0.16094485
000070 e2 e3 08 3d 64 bb 48 3e 49 d7 dc bd 3e 54 6e 3d
       0.03342045 0.19602734 -0.1078325 0.05818581
000080 b9 48 8d bd 1a 29 eb 3a d8 b0 47 be f1 5b 67 be
       -0.06898636 0.0017941326 -0.19501054 -0.22593667
000090 46 42 8c 3d ec 6a fa bd 90 81 54 be 89 9b 94 3c
       0.06848578 -0.12227425 -0.20752549 0.018140571
0000a0 6f ee 42 be f9 bd 4f be 8d a7 7c be 5f 50 ee 3d
       -0.19036268 -0.20287313 -0.2467329 0.11636423
0000b0 a7 78 c3 3c 52 d5 1f 3e bd 97 fd 3d 2c f2 bd 3d
       0.023861242 0.15608719 0.123824574 0.09274706
0000c0 4f 29 89 3c 6a 0d 10 3e e9 bc 2e 3e 27 aa 7e bd
       0.01674333 0.14067617 0.17064251 -0.06217399
0000d0 fd e7 03 be 11 a6 3e 3d b7 56 04 3c a9 19 41 3e
       -0.12881465 0.046545092 0.008077315 0.18857445
0000e0 b9 2e 2b 3e 44 0a 76 be 9e 89 1a 3e 9e 5f 4c bd
       0.16717042 -0.24027354 0.1509156 -0.049895875
0000f0 e1 60 06 be 94 ac 3c 3d c0 20 c1 3d 68 02 ec 3d
       -0.13122894 0.04606302 0.09430075 0.115238965
000100 b9 3e 33 be 6c b5 d1 3d 63 fd 48 3e 92 be c2 3c
       -0.17504396 0.102396816 0.1962791 0.023772512
000110 a8 cd 87 3c bb f4 cd ba e2 06 11 bd 7e f6 41 bd
       0.016577557 -0.0015713194 -0.035406955 -0.047354214
000120 bc 1b 80 bd 81 f3 6a 3e 0d 7b 7f 3e c8 b7 27 3e
       -0.0625529 0.22944452 0.24949284 0.163787
000130 59 6f d4 bd 13 45 31 be d7 8a 90 ba d4 cd 28 3e
       -0.103728004 -0.17311506 -0.0011027706 0.16484767
000140 90 89 24 be 2c ac 5d be 01 d4 99 be 7e 5c 23 bd
       -0.16068101 -0.2164771 -0.3004456 -0.03988313
000150 de 21 92 3d d0 65 38 3b 33 bf 50 3c 31 8f 8a be
       0.07135366 0.0028136857 0.012740898 -0.2706237
000160 18 02 71 be dc 2f c1 bd 8c ba b2 3b b9 6d b1 3d
       -0.23535955 -0.094329566 0.005454367 0.08663506
000170 15 af 82 be dc 7b 77 be b0 70 e5 3d 4f 43 c8 3d
       -0.25524202 -0.24168342 0.11203134 0.09778463

head.2.bias f4 [3]
000000 78 a9 9f bc 16 63 c1 3d 79 61 ae bc
       -0.019489989 0.09442727 -0.021286713
