checkpoints_kpconv_24nov/checkpoint_epoch_14_24nov.pth (torch, 19297 bytes, 14 tensors)

fc0.weight f4 [8, 3]
0.15816844 -0.32187146 -0.45559913 -0.44519117 0.2519596 0.2427094 -0.047368597 -0.04886875
-0.38850343 0.42905152 -0.3148708 -0.08405741 -0.007909556 0.27682108 0.30923137 -0.06039167
0.32303113 0.31627703 -0.37557635 -0.07250778 0.23651223 0.24902494 0.0568706 -0.3710307
00000000: e8f6 213e 56cc a4be 4a44 e9be 19f0 e3be
00000010: d900 813e d088 783e 9305 42bd 992a 48bd
00000020: ece9 c6be a4ac db3e bf36 a1be 4b26 acbd
00000030: 1597 01bc 7ebb 8d3e 9353 9e3e 415d 77bd
00000040: 5664 a53e 10ef a13e 8b4b c0be f57e 94bd
00000050: 4330 723e 6500 7f3e 25f1 683d bcf7 bdbe

fc0.bias f4 [8]
0.39037365 0.4515286 0.32707995 -0.26829708 0.6061322 -0.48116007 0.045258794 -0.05187817
00000000: 0edf c73e c22e e73e 0677 a73e 3c5e 89be
00000010: 7b2b 1b3f 9d5a f6be 4961 393d 347e 54bd

kp1.mlp.0.weight f4 [16, 11]
0.71677065 -0.22368753 -0.09787049 -0.08412521 0.31326798 0.06937324 0.253418 -0.11338085
-0.10058008 -0.16326062 0.26176184 0.3685528 0.17462747 0.10467766 -0.032751467 -0.086881466
0.24384335 -0.0060075717 -0.020534268 -0.1488861 -0.0882373 0.16768388 0.7465543 -0.77110744
0.23348041 0.055558056 -0.16975981 0.17238738 0.12667505 0.18688138 -0.14391233 0.27921107
-0.17707616 0.51988137 -0.024051616 0.006459253 -0.12574601 -0.17876507 -0.060559835 0.17974837
0.07255591 -0.19490701 -0.16004387 -0.16788132 0.043473613 -0.5967491 0.045682568 0.2262723
0.15416034 -0.18118897 -0.06771348 0.1297115 -0.018195193 0.025429515 0.12415296 -0.13770267
0.088530846 -0.11219621 0.15682904 -0.041373268 -0.21299481 -0.2919767 -0.23968473 -0.24159028
0.21318479 -0.29531375 -0.90206426 -0.8743474 -0.010196433 -0.01604881 -0.16881149 0.19270904
0.12604773 0.34669018 -0.030041974 0.20458885 -0.10130769 -0.16203125 -0.53203094 0.224947
-0.08824034 0.03438064 -0.011622121 0.20206696 -0.20873679 0.21293795 0.05492402 0.25264403
0.31784573 -0.35146177 -0.53785366 -0.057749506 -0.10567985 0.21167083 -0.020490017 -0.10888538
0.1389546 -0.045161214 0.047576793 -0.7514909 -0.24750191 -0.054446694 0.2382962 0.18415911
0.015256279 -0.17703247 -0.18260509 0.18419012 0.20443094 0.14339337 0.33911636 -0.517116
-0.064475514 0.05298388 -0.26065958 -0.106227 -0.14318022 0.18085627 -0.058324613 0.05902481
0.17846243 0.7315615 -0.89625865 0.25831264 0.07539199 0.23664305 0.3232825 0.2817559
-0.2321538 0.26263213 -0.15796192 0.06026408 0.81396055 -0.83344954 -0.052816484 0.09013486
0.01779392 0.28651217 -0.093636006 0.08394008 0.12103375 -0.08398925 0.12950362 -0.53192466
0.58852994 0.080776155 0.2835111 0.17762381 -0.12965266 0.20745805 0.26006585 -0.079253055
0.27263197 -0.22768998 0.45268765 0.6605071 0.18935993 -0.013463985 -0.1359844 0.15704139
0.19421484 0.20474277 0.05328278 0.1214688 0.2924873 0.123568386 0.43968463 0.1307031
-0.24966763 -0.58564687 -0.16250798 0.19337198 0.06244188 -0.28985494 0.16852868 -0.05014869
00000000: 487e 373f 580e 65be 5370 c8bd d749 acbd
00000010: a964 a03e 8f13 8e3d 01c0 813e 3834 e8bd
00000020: eefc cdbd cb2d 27be a605 863e f4b2 bc3e
00000030: 8bd1 323e 3e61 d63d 6726 06bd e9ee b1bd
00000040: 12b2 793e 2adb c4bb 7b37 a8bc 9975 18be
00000050: c2b5 b4bd 53b5 2b3e 2f1e 3f3f 4c67 45bf
00000060: 7d15 6f3e d890 633d 84d5 2dbe 5186 303e
00000070: 1bb7 013e d55d 3f3e c15d 13be c1f4 8e3e
00000080: 7453 35be f216 053f e507 c5bc 24a8 d33b
00000090: 90c3 00be 310e 37be 970d 78bd f50f 383e
000000a0: 3198 943d b495 47be 8ae2 23be 15e9 2bbe
000000b0: 6311 323d 8dc4 18bf a51d 3b3d edb3 673e
000000c0: 35dc 1d3e 9a89 39be 5dad 8abd 17d3 043e
000000d0: 160e 95bc 8f51 d03c e843 fe3d ee01 0dbe
000000e0: a94f b53d 20c7 e5bd cb97 203e 0477 29bd
000000f0: 501b 5abe f87d 95be ea6f 75be 7163 77be
00000100: 1d4d 5a3e 5d33 97be afed 66bf 3bd5 5fbf
00000110: f10e 27bc cb78 83bc ebdc 2cbe 8555 453e
00000120: a812 013e 6081 b13e 961a f6bc bd7f 513e
00000130: 687a cfbd 85eb 25be 2e33 08bf 8258 663e
00000140: 5ab7 b4bd b7d2 0c3d b56a 3ebc a4ea 4e3e
00000150: 19bf 55be 680c 5a3e 02f8 603d 8f5a 813e
00000160: adbc a23e ccf2 b3be c7b0 09bf bf8a 6cbd
00000170: ad6e d8bd 3dc0 583e aeda a7bc 4cff debd
00000180: 1d4a 0e3e f7fa 38bd e2df 423d b561 40bf
00000190: 2471 7dbe 7f03 5fbd eb03 743e 3594 3c3e
000001a0: 79f5 793c 0048 35be d4fc 3abe 569c 3c3e
000001b0: 5856 513e b6d5 123e a9a0 ad3e b761 04bf
000001c0: bd0b 84bd a005 593d 2c75 85be 8b8d d9bd
000001d0: d69d 12be 6332 393e cae5 6ebd 00c4 713d
000001e0: dbbe 363e 9d47 3b3f 3571 65bf 8e41 843e
000001f0: 1e67 9a3d 8e52 723e 4985 a53e 4f42 903e
00000200: bab9 6dbe b877 863e c5c0 21be 78d7 763d
00000210: b85f 503f f35c 55bf 1956 58bd a098 b83d
00000220: 8ec4 913c b9b1 923e 3cc4 bfbd c7e8 ab3d
00000230: 8be0 f73d 8e02 acbd 999c 043e 372c 08bf
00000240: e6a9 163f f86d a53d 5e28 913e 04e3 353e
00000250: abc3 04be e26f 543e 5a27 853e 6d4f a2bd
00000260: 6b96 8b3e 9027 69be adc6 e73e fe16 293f
00000270: 92e7 413e 0c98 5cbc 7f3f 0bbe 75cf 203e
00000280: 41e0 463e 17a8 513e 0b3f 5a3d a2c4 f83d
00000290: e5c0 953e 6c11 fd3d 581e e13e 09d7 053e
000002a0: dfa8 7fbe f4ec 15bf 7e68 26be 4e03 463e
000002b0: 0fc3 7f3d de67 94be c892 2c3e b668 4dbd

kp1.mlp.0.bias f4 [16]
-0.010863244 -0.04168103 0.2867838 -0.34616315 -0.3854157 -0.015081006 -0.024401229 -0.0036145886
-0.036414955 -0.16938922 0.13807198 -0.106725365 0.25799242 0.092849374 0.37530065 0.17932665
00000000: bffb 31bc bab9 2abd 54d5 923e 4c3c b1be
00000010: 3555 c5be 5316 77bc 16e5 c7bc bce2 6cbb
00000020: d927 15bd 5e74 2dbe be62 0d3e d492 dabd
00000030: 9517 843e d027 be3d 6827 c03e 68a1 373e

kp1.mlp.2.weight f4 [16, 16]
0.12698571 -0.16477725 0.10633252 0.021196902 0.26003343 -0.07769433 0.26268044 0.015031418
-0.48567286 0.10970324 0.014576934 0.2686232 0.20113073 -0.24603544 -0.006542507 -0.072663024
-0.03637636 0.038663864 -0.017780347 0.0040574432 0.17945726 0.1274154 0.21218178 0.16526914
0.03520744 -0.017776467 -0.22488211 0.1165279 -0.22230588 -0.19496626 -0.01740332 0.1394908
-0.22839707 -0.1900147 -0.13246597 0.052644905 -0.07418979 -0.021417033 0.07561948 0.20276795
0.2566974 0.20277458 0.24480693 0.054757413 0.06508792 -0.03337364 0.08298916 -0.1232297
-0.19646502 -0.08137477 0.0867168 0.12555642 -0.013859908 -0.07503971 0.43541464 -0.09513063
-0.3373363 0.15525332 0.08854662 -0.051576708 0.23953862 0.07584629 -0.19830416 0.10943861
0.27285245 0.20546477 0.24377924 -0.07018639 -0.1390958 0.07735576 -0.16827236 0.10285914
-0.32147086 -0.24165282 0.060239814 -0.105055824 0.35084948 -0.15149575 -0.070086524 0.25115168
0.1378649 0.011399385 -0.06461236 -0.01459411 -0.3101472 -0.15011232 -0.030940423 0.005902354
0.17444338 0.16878267 0.25272423 0.0035079706 0.25493413 0.1150462 0.15952013 -0.09088483
-0.11048778 -0.027102254 0.12809661 -0.26102898 -0.25226617 -0.1321654 0.3418342 0.17092718
-0.22337823 0.23553695 0.17994247 -0.16881587 0.008512541 0.057496596 0.13717729 -0.09759193
0.022671197 0.040156137 0.17255387 0.22774415 -0.13674647 0.057301663 0.20984621 0.21025437
-0.2536215 0.18134955 -0.0968762 0.09457688 0.16145122 0.045232836 -0.2387576 0.04876575
0.0049753073 -0.097965166 -0.25492465 0.08142666 -0.08240987 0.11954554 -0.11081951 -0.23413727
-0.06342357 0.04009155 0.06594088 -0.064789735 -0.31957984 -0.06380763 -0.1692031 0.20214751
-0.009730156 -0.03263035 -0.08536502 0.041670445 -0.12280787 -0.06419538 0.26377118 0.24077874
0.26779324 -0.085726485 -0.039847612 -0.061438214 -0.06735921 0.08682295 -0.23291087 0.11092412
-0.13559322 -0.04722639 0.2183943 0.16222675 0.24365677 0.11947117 0.051498897 0.087976605
-0.33528766 -0.23719421 0.17257859 0.15208589 0.026575172 -0.10908696 -0.21619044 -0.09959037
-0.15494752 -0.2291473 0.1192764 0.19014484 0.004406453 -0.25256136 -0.25461498 -0.24528085
-0.25767574 0.07430334 0.16004907 -0.2413964 -0.32613876 0.040078018 0.24452728 -0.09111529
-0.14918974 -0.08458153 0.18226326 0.14131193 0.23544478 0.011557259 -0.2860836 -0.23656853
-0.5836256 -0.113110416 0.114410095 -0.1758901 0.082374796 -0.021154702 -0.14370358 -0.06067834
0.24959758 0.15547402 0.2209891 0.082331985 0.043098528 -0.1892572 -0.23924698 0.02163417
-0.49016345 0.16309196 0.03292411 0.28999004 0.29484147 -0.09694652 0.013438125 -0.21639162
-0.14678383 0.14827539 -0.057257783 -0.13691431 0.17347068 0.114553995 0.3101233 0.071830824
-0.12696467 -0.08552041 -0.14800401 -0.086338386 -0.28132436 -0.03131542 -0.062346388 -0.1783845
0.20003076 -0.09458558 -0.30332083 -0.028327733 0.042986725 0.16597056 -0.12770107 -0.032423627
0.08611111 -0.15838067 -0.12071529 -0.22116518 -0.23557468 -0.08224661 -0.21115582 -0.009224511
00000000: 8b08 023e 5ebb 28be ddc4 d93d 20a5 ad3c
00000010: 1a23 853e 341e 9fbd 0d7e 863e 5646 763c
00000020: 1daa f8be 18ac e03d 18d4 6e3c fb88 893e
00000030: 37f5 4d3e b7f0 7bbe 8762 d6bb 5ad0 94bd
00000040: 61ff 14bd 005e 1e3d 17a8 91bc 4df4 843b
00000050: a5c3 373e 2f79 023e 2e46 593e 503c 293e
00000060: ad35 103d f49f 91bc 7f47 66be 2ea6 ee3d
00000070: 27a4 63be 3ca5 47be 6891 8ebc add6 0e3e
00000080: ece0 69be 3793 42be 29a5 07be 2fa2 573d
00000090: d1f0 97bd c672 afbc 63de 9a3d 67a2 4f3e
000000a0: d76d 833e 24a4 4f3e abae 7a3e 4f49 603d
000000b0: d14c 853d ccb2 08bd 39f6 a93d da5f fcbd
000000c0: 202e 49be d1a7 a6bd 9498 b13d dd91 003e
000000d0: ab14 63bc 6bae 99bd abee de3e d9d3 c2bd
000000e0: 58b7 acbe bafa 1e3e ee57 b53d 1942 53bd
000000f0: 9d49 753e 4d55 9b3d 3f10 4bbe 5a21 e03d
00000100: 51b3 8b3e 5b65 523e 44a1 793e e2bd 8fbd
00000110: 216f 0ebe b26c 9e3d 974f 2cbe d0a7 d23d
00000120: d497 a4be d673 77be 06be 763d 8227 d7bd
00000130: 8ba2 b33e b421 1bbe 8689 8fbd f496 803e
00000140: 752c 0d3e 7cc4 3a3c 7c53 84bd 221c 6fbc
00000150: 9dcb 9ebe 0bb7 19be c576 fdbc 8968 c13b
00000160: 49a1 323e 5dd5 2c3e 1265 813e fbe5 653b
00000170: ba86 823e 589d eb3d 3f59 233e d321 babd
00000180: 6b47 e2bd 8c05 debc c22b 033e 97a5 85be
00000190: 0829 81be 5e56 07be e404 af3e 8907 2f3e
000001a0: 43bd 64be 9930 713e d742 383e 11de 2cbe
000001b0: 2f78 0b3c 8d81 6b3d 3478 0c3e 47de c7bd
000001c0: f2b8 b93c c37a 243d f6b1 303e c335 693e
000001d0: 4407 0cbe 26b5 6a3d ede1 563e ec4c 573e
000001e0: adda 81be b2b3 393e 0767 c6bd 86b1 c13d
000001f0: 7853 253e 1146 393d df7c 74be 98be 473d
00000200: e707 a33b f6a1 c8bd 7c85 82be 05c3 a63d
00000210: 82c6 a8bd 4bd4 f43d 57f5 e2bd aec1 6fbe
00000220: 37e4 81bd 0a37 243d 030c 873d 7bb0 84bd
00000230: f89f a3be 93ad 82bd 9443 2dbe c2ff 4e3e
00000240: 3b6b 1fbc 67a7 05bd dbd3 aebd a1ae 2a3d
00000250: b182 fbbd de78 83bd 040d 873e b48e 763e
00000260: 321c 893e 5e91 afbd 4037 23bd a3a6 7bbd
00000270: a0f3 89bd 3bd0 b13d 3080 6ebe 2f2c e33d
00000280: f3d8 0abe 7670 41bd c1a2 5f3e c51e 263e
00000290: 2981 793e 4dad f43d 82f0 523d 142d b43d
000002a0: d3aa abbe 0ae3 72be 71b8 303e 67bc 1b3e
000002b0: 2db4 d93c fc68 dfbd 0761 5dbe 09f6 cbbd
000002c0: 90aa 1ebe 97a5 6abe 2f47 f43d 54b5 423e
000002d0: 0264 903b b94f 81be e55c 82be e72a 7bbe
000002e0: 13ee 83be 592c 983d e7e3 233e 9e30 77be
000002f0: a9fb a6be d928 243d 5c65 7a3e a79a babd
00000300: 32c5 18be 1539 adbd 38a3 3a3e 13b4 103e
00000310: 7018 713e a85a 3d3c 8d79 92be 053f 72be
00000320: 7d68 15bf 6fa6 e7bd d74f ea3d 891c 34be
00000330: 1eb4 a83d a04c adbc 0827 13be da89 78bd
00000340: 8296 7f3e 9534 1f3e f74a 623e ac9d a83d
00000350: 1588 303d a4cc 41be 29fd 74be 253a b13c
00000360: b4f6 fabe 9401 273e 6edb 063d 9379 943e
00000370: 76f5 963e e68b c6bd 952b 5c3c c495 5dbe
00000380: 804e 16be 81d5 173e 2387 6abd 4433 0cbe
00000390: 4ca2 313e 499b ea3d 7bc8 9e3e 0a1c 933d
000003a0: 0703 02be 5325 afbd 5d8e 17be 2ed2 b0bd
000003b0: bf09 90be 9944 00bd ed5e 7fbd 6daa 36be
000003c0: ddd4 4c3e 16b6 c1bd de4c 9bbe 900f e8bc
000003d0: d912 303d 30f4 293e 12c4 02be a3ce 04bd
000003e0: 065b b03d 8b2e 22be 9439 f7bd 2079 62be
000003f0: 7d3a 71be e970 a8bd 3b39 58be 6722 17bc

kp1.mlp.2.bias f4 [16]
-0.0739001 -0.23186678 -0.23421201 0.06978988 0.022414904 0.20174974 0.18058166 -0.13707273
-0.14664997 0.059483565 -0.23500237 -0.3060644 0.07268151 0.17060998 -0.29183695 -0.049570058
00000000: f058 97bd 7c6e 6dbe 46d5 6fbe ffed 8e3d
00000010: 769f b73c 7c97 4e3e 66ea 383e cb5c 0cbe
00000020: 692b 16be 0aa5 733d 76a4 70be 79b4 9cbe
00000030: 0bda 943d 62b4 2e3e a76b 95be f909 4bbd

kp2.mlp.0.weight f4 [32, 19]
0.08467869 -0.09646227 -0.0066306116 -0.090269245 -0.16418588 0.13172983 -0.084280185 -0.1925826
-0.18200888 -0.11762929 -0.22219238 -0.02536572 -0.050005946 -0.152838 -0.16947298 0.20765972
0.055602726 -0.100791804 0.093770534 0.8450595 0.008368694 -0.37324944 -0.075444445 -0.23169746
-0.06998273 -0.08774886 -0.18895186 -0.08372636 0.06737194 0.076963924 -0.11765788 0.015844166
-0.26391932 -0.35406202 0.15063624 -0.1263001 -0.18204261 -0.18061312 0.38174093 0.5920594
1.7216622 0.17213623 -0.033325564 0.063859835 0.072835684 0.04968049 -0.019639898 0.05643133
0.10305063 -0.0659757 0.18705685 -0.02543843 0.05386597 0.12380133 0.14475985 -0.13047825
-0.025724923 -0.50194657 0.23835869 1.2765994 -0.21431936 0.07117859 -0.1041237 -0.18384369
-0.052285556 0.07758722 0.02486101 -0.0679074 0.09121268 -0.040044885 -0.06044364 -0.1814077
0.20158003 -0.081167385 -0.2977118 -0.20465796 0.51386994 0.73101854 0.6774915 -0.031796962
-0.09282872 -0.0077276058 0.28484228 0.22989392 0.18085727 0.035900153 0.014169564 0.10113825
0.047665913 0.07229521 0.11503297 -0.12228257 0.06683755 0.1487622 -0.09812091 -0.061645634
-0.021430772 0.055822793 0.033828698 -0.16628851 -0.029369546 -0.18087587 0.08269405 -0.19815604
-0.05407052 0.0084944265 0.18564317 0.05974229 0.12888822 0.054213893 -0.21923622 -0.1529339
-0.22164169 -0.08282397 -0.53857654 -0.37562916 1.1070559 -0.16208793 -0.06422334 0.08366173
0.12073894 0.18446185 0.13248383 -0.011698609 0.055216014 -0.22088137 -0.053091235 -0.23237771
-0.1999717 0.022777347 -0.18506983 -0.05755338 0.082548775 0.1804161 0.55148244 1.137569
-0.060802083 -0.2384985 0.1564524 -0.13406876 -0.023594523 0.1595071 0.05024054 0.09622175
-0.18433183 0.0342108 0.18275958 -0.27644402 0.19112186 -0.16223185 -0.112319455 -0.15917467
-0.5218795 -0.34711137 0.6985074 -0.26376882 -0.25398558 -0.25405362 -0.090830915 0.21124887
-0.06637552 0.08098072 0.11806721 0.039684292 -0.17440727 -0.23464079 -0.1757308 0.22432059
-0.12825648 -0.23151939 -0.22162855 0.12441754 -0.45167658 0.92431724 -0.18024732 0.13810268
0.009881863 -0.03029312 -0.091530755 -0.13773777 0.17638288 -0.2378016 -0.26058763 -0.19248034
-0.1721471 -0.02103937 -0.106990024 -0.065577336 -0.25214815 -0.23455606 -0.31932873 -0.26799002
-1.1397536 -0.011814682 -0.29248878 0.12194666 -0.19222736 -0.069682226 0.11212697 0.06512478
0.0011271758 -0.16507354 -0.12004861 -0.278479 -0.09445651 -0.0545907 0.14660653 -0.29814392
0.07718679 -0.3538566 -0.055826977 1.2672492 0.17630792 -0.16991554 0.112981156 -0.066037275
0.11532943 -0.12135921 -0.24585076 -0.034781966 -0.03927906 -0.24232803 -0.11303524 0.021264128
0.16557862 0.2233717 -0.09422243 -0.19636157 -0.118817694 0.4547213 -0.008089143 -0.0898016
0.20311782 -0.016142912 0.14849505 0.008111518 0.15431446 -0.18074444 -0.25205576 -0.21050201
-0.12649438 -0.123271555 -0.123500735 -0.1314513 0.14810409 0.15480445 -0.11944958 -0.5508012
-0.3362769 -0.0802305 0.18964052 -0.15701428 0.15728827 0.28938663 -0.12063837 0.016652845
00000000: 056c ad3d 038e c5bd 9a45 d9bb 15df b8bd
00000010: 5820 28be 2fe4 063e 179b acbd 6034 45be
00000020: 8960 3abe a0e7 f0bd 6686 63be c5cb cfbc
00000030: 09d3 4cbd 9181 1cbe 538a 2dbe c0a4 543e
00000040: afbf 633d ef6b cebd c40a c03d d255 583f
00000050: d91c 093c 8d1a bfbe 9e82 9abd 1942 6dbe
00000060: 1b53 8fbd adb5 b3bd 997c 41be ba78 abbd
00000070: 4dfa 893d 439f 9d3d 9df6 f0bd a0cb 813c
00000080: 6f20 87be 9e47 b5be 6340 1a3e d054 01be
00000090: 6169 3abe a5f2 38be 8c73 c33e 3491 173f
000000a0: 6d5f dc3f 7b44 303e 6380 08bd f2c8 823d
000000b0: e02a 953d c57d 4b3d dae3 a0bc 8a24 673d
000000c0: 350c d33d 451e 87bd d58b 3f3e 4164 d0bc
000000d0: 90a2 5c3d 8d8b fd3d ed3b 143e 179c 05be
000000e0: 13bd d2bc 927f 00bf 4d14 743e 9c67 a33f
000000f0: 8976 5bbe 15c6 913d ce3e d5bd 8541 3cbe
00000100: 6129 56bd 0ce6 9e3d 51a9 cb3c 0913 8bbd
00000110: b7cd ba3d 1b06 24bd c093 77bd f1c2 39be
00000120: ff6a 4e3e 163b a6bd ae6d 98be db91 51be
00000130: fb8c 033f 0824 3b3f 1570 2d3f 883d 02bd
00000140: fc1c bebd db37 fdbb d9d6 913e 5069 6b3e
00000150: a632 393e 0a0c 133d 7527 683c 9221 cf3d
00000160: 553d 433d 830f 943d 6896 eb3d 496f fabd
00000170: 20e2 883d 1e55 183e 9ef3 c8bd 2280 7cbd
00000180: 968f afbc 71a6 643d f68f 0a3d 8947 2abe
00000190: 6798 f0bc 8637 39be 805b a93d 6be9 4abe
000001a0: 0d79 5dbd 352c 0b3c 3e19 3e3e 55b4 743d
000001b0: 46fb 033e 630f 5e3d 767f 60be b49a 1cbe
000001c0: 0af6 62be 9d9f a9bd 27e0 09bf 7752 c0be
000001d0: 02b4 8d3f 61fa 25be 8787 83bd d756 ab3d
000001e0: fa45 f73d 91e3 3c3e d7a9 073e 86ab 3fbc
000001f0: 302a 623d ba2e 62be 3276 59bd 6cf4 6dbe
00000200: 62c5 4cbe 8f97 ba3c f282 3dbe 18bd 6bbd
00000210: 550f a93d 00bf 383e f42d 0d3f dc9b 913f
00000220: 9b0b 79bd f338 74be 0f35 203e 5249 09be
00000230: 4d49 c1bc d455 233e 06c9 4d3d e90f c53d
00000240: 7cc1 3cbe a020 0c3d 5425 3b3e 128a 8dbe
00000250: 73b5 433e 1b20 26be be07 e6bd affe 22be
00000260: e599 05bf 95b8 b1be 62d1 323f b50c 87be
00000270: 660a 82be 5113 82be 8f05 babd a051 583e
00000280: e3ef 87bd 38d9 a53d 39cd f13d ff8b 223d
00000290: d297 32be ad45 70be c6f2 33be 4cb4 653e
000002a0: ab55 03be 6b13 6dbe 98f2 62be a0ce fe3d
000002b0: 2742 e7be 0ea0 6c3f c192 38be ca6a 0d3e
000002c0: 8ae7 213c 4729 f8bc 7a74 bbbd 210b 0dbe
000002d0: b79d 343e 4382 73be be6b 85be 9119 45be
000002e0: 5447 30be c25a acbc 961d dbbd 694d 86bd
000002f0: 9019 81be 772f 70be 0e7f a3be fd35 89be
00000300: 72e3 91bf 5e92 41bc 17c1 95be 2cbf f93d
00000310: 40d7 44be 8eb5 8ebd d3a2 e53d 2460 853d
00000320: bebd 933a 0a09 29be 0cdc f5bd cd94 8ebe
00000330: 6a72 c1bd 7f9a 5fbd 0620 163e 52a6 98be
00000340: 1c14 9e3d b12c b5be d4aa 64bd 3935 a23f
00000350: 108a 343e 57fe 2dbe aa62 e73d 8d3e 87bd
00000360: d631 ec3d 2d8b f8bd 4dc0 7bbe 8977 0ebd
00000370: 14e3 20bd d724 78be 057f e7bd 1c32 ae3c
00000380: 718d 293e 8dbb 643e b0f7 c0bd 0213 49be
00000390: b156 f3bd 3bd1 e83e 5388 04bc e7e9 b7bd
000003a0: 1efe 4f3e 243e 84bc 160f 183e 2ce6 043c
000003b0: 9c04 1e3e 1215 39be 740d 81be d78d 57be
000003c0: be87 01be cc75 fcbd f4ed fcbd 2b9b 06be
000003d0: 99a8 173e 0f85 1e3e fba1 f4bd 4f01 0dbf
000003e0: 7c2c acbe e34f a4bd 2031 423e 5ac8 20be
000003f0: 2d10 213e 7c2a 943e 4011 f7bd 8c6b 883c

kp2.mlp.0.bias f4 [32]
-0.22895958 0.07482219 0.046443 0.42238116 0.09957187 -0.10314423 0.21402559 -0.022714859
0.31791624 0.044538107 -0.07743924 0.09862838 0.24128139 -0.11490881 0.2655746 0.27276334
0.19056089 0.04807605 0.29287037 -0.17135166 0.06949314 0.19059911 0.0055376333 0.06174578
-0.2715111 0.16545732 0.1932773 -0.06529034 0.16857661 -0.1851682 -0.15052125 0.046099596
00000000: 6174 6abe 603c 993d 043b 3e3d 5842 d83e
00000010: 56ec cb3d 483d d3bd 8629 5b3e 8314 babc
00000020: ebc5 a23e 976d 363d 7798 9ebd adfd c93d
00000030: 7812 773e 4f55 ebbd 65f9 873e a3a7 8b3e
00000040: 6522 433e 64eb 443d 1bf3 953e cf76 2fbe
00000050: 6b52 8e3d 6a2c 433e 0975 b53b 25e9 7c3d
00000060: 8103 8bbe a56d 293e 7cea 453e f1b6 85bd
00000070: 599f 2c3e bc9c 3dbe 3e22 1abe eed2 3c3d

kp2.mlp.2.weight f4 [32, 32]
0.1492457 0.0199534 0.3662308 0.058237556 0.2805572 0.13135915 0.011785956 0.2024113
-0.024662642 -0.24011865 0.04857441 0.14890385 -0.009521146 0.105906844 0.19638914 -0.05424614
-0.34979153 -0.01995645 -0.08460942 0.08226502 -0.11621282 -0.062129945 0.013868767 0.47300172
0.07246869 0.13124637 0.011812545 0.04005014 -0.14968506 -0.07673735 -0.08315419 -0.056805495
-0.15151674 -0.35878664 -0.27761063 -0.10796406 -0.35444623 -0.10053925 0.08439089 0.027870717
0.08379725 0.026091471 0.09119407 0.1790659 0.18216465 0.20096305 -0.20690252 -0.28300598
-0.09272147 -0.19232063 -0.2592563 0.06281332 0.13746272 0.009004772 0.24675669 0.26344332
-0.12940374 0.08870761 -0.1670638 0.16822608 0.07572864 -0.0024946271 0.111503385 -0.010485702
0.07740328 0.032632057 -0.12064392 0.023504905 -0.27252442 0.09007127 -0.027942156 0.11470265
-0.13936096 -0.20658681 0.16022766 -0.19244114 0.07302941 -0.0713644 -0.18232527 -0.33897176
-0.26685712 -0.25195965 -0.09193023 0.23361605 -0.20935337 -0.31058383 0.08137711 -0.51826584
0.11490801 -0.20075096 -0.1580561 -0.16467819 -0.058466498 0.47450498 0.037300896 -0.06645882
-0.1230774 -0.028121589 0.19651948 -0.076384455 0.10642179 -0.051199067 0.044229835 0.04924749
-0.08023209 -0.012219342 -0.24072316 -0.1294733 -0.09725865 -0.14046897 0.22220854 0.12469125
-0.26371875 -0.028188666 -0.04491994 0.1823823 0.038499437 -0.03558203 -0.13072895 0.071392395
0.026355127 0.024190186 0.2834366 0.26972306 -0.05312533 0.077959605 0.11003726 -0.15515304
0.15686347 -0.20907868 -0.5074731 -0.27873814 -0.29027572 -0.13637444 -0.060993224 -0.25912264
-0.035667602 -0.0037629828 0.17395398 -0.15421213 -0.17577156 0.0934232 -0.03661921 -0.30741912
-0.060215358 -0.38762066 -0.13704026 0.09492168 -0.021002946 -0.107347585 0.065371834 -0.24042574
0.24490821 -0.34255874 -0.23014927 0.2694486 0.093737856 -0.3559715 0.17738953 0.27962932
0.003971162 -0.12197149 0.03082382 -0.2953285 0.32175282 -0.03017324 0.023674667 0.09847931
-0.10909446 -0.059729744 -0.08198076 -0.028476357 0.04386722 0.07942302 -0.08202531 0.2202279
-0.26122072 0.005192845 0.20570727 0.051620383 -0.02840394 -0.052774914 0.10511981 0.27257803
0.19245596 0.04109347 0.25164357 -0.022384092 -0.19959407 0.14896424 0.21696115 -0.19946234
-0.058871772 0.14887142 -0.21888277 -0.4199663 -0.02517158 0.0021369695 -0.21105714 -0.2068591
-0.03149078 -0.114672534 0.14688516 -0.020006245 -0.100463845 -0.13404298 -0.1463068 0.19902983
-0.12607704 0.104236655 0.22737941 0.24117257 0.08811279 0.01389238 -0.07512209 -0.1717593
0.25367546 -0.031052629 -0.039087273 0.27193514 -0.24064137 -0.37679708 0.1756299 -0.017089486
0.094272606 -0.24563204 -0.0007312673 -0.0042471923 -0.34724092 -0.029537695 0.23005238 0.0098551335
0.21887767 -0.15546028 -0.1642637 0.006175333 -0.058462717 0.062071946 -0.06961419 -0.27002352
0.11997547 0.11117632 -0.26906666 -0.060292955 0.14034724 0.11751687 0.22337878 -0.026747208
0.10173192 0.12365231 0.1080864 0.18035693 0.20432083 0.040291786 -0.11443866 -0.12050315
00000000: ddd3 183e 5075 a33c 9a82 bb3e 818a 6e3d
00000010: 31a5 8f3e 0383 063e e219 413c e844 4f3e
00000020: 4f09 cabc aae1 75be f6f5 463d 407a 183e
00000030: 95fe 1bbc b0e5 d83d 3c1a 493e 3331 5ebd
00000040: e017 b3be b67b a3bc b447 adbd 907a a83d
00000050: fd00 eebd f87b 7ebd d339 633c 482d f23e
00000060: 776a 943d 7365 063e 6889 413c 9e0b 243d
00000070: 0a47 19be 7928 9dbd be4c aabd e1ac 68bd
00000080: 3427 1bbe e2b2 b7be fb22 8ebe 431c ddbd
00000090: fa79 b5be 86e7 cdbd 22d5 ac3d 2151 e43c
000000a0: e59d ab3d c8bd d53c f5c3 ba3d 0d5d 373e
000000b0: 5f89 3a3e 42c9 4d3e 41de 53be 29e6 90be
000000c0: c1e4 bdbd b3ef 44be 3ebd 84be 45a4 803d
000000d0: 07c3 0c3e c088 133c c9ad 7c3e 0be2 863e
000000e0: 6a82 04be 56ac b53d c612 2bbe 7543 2c3e
000000f0: 9e17 9b3d e67c 23bb e35b e43d 39cc 2bbc
00000100: 9c85 9e3d 31a9 053d 2914 f7bd 5c8d c03c
00000110: 5288 8bbe 4977 b83d f3e6 e4bc 39e9 ea3d
00000120: a4b4 0ebe 7e8b 53be b812 243e 4a0f 45be
00000130: 7190 953d 8027 92bd 7ab3 3abe b58d adbe
00000140: 7fa1 88be db00 81be eb45 bcbd 0c39 6f3e
00000150: bb60 56be d804 9fbe 0ba9 a63d 12ad 04bf
00000160: e454 eb3d a991 4dbe 75d9 21be 66a1 28be
00000170: 917a 6fbd 51f2 f23e d3c8 183d 901b 88bd
00000180: 0110 fcbd 3f5f e6bc 673c 493e 746f 9cbd
00000190: abf3 d93d 1db6 51bd 582a 353d bcb7 493d
000001a0: b950 a4bd a333 48bc 2280 76be a694 04be
000001b0: 8b2f c7bd 19d7 0fbe a38a 633e 205e ff3d
000001c0: 2506 87be ebeb e6bc f9fd 37bd 6dc2 3a3e
000001d0: 96b1 1d3d 76be 11bd cfdd 05be 2d36 923d
000001e0: b5e6 d73c 7f2a c63c 9a1e 913e 2419 8a3e
000001f0: f299 59bd 49a9 9f3d 375b e13d 70e0 1ebe
00000200: d1a0 203e b918 56be c2e9 01bf c4b6 8ebe
00000210: 059f 94be bea5 0bbe 08d4 79bd b9ab 84be
00000220: 3118 12bd 609c 76bb fe20 323e c9e9 1dbe
00000230: 76fd 33be aa54 bf3d 06fe 15bd 0a66 9dbe
00000240: 61a4 76bd 3776 c6be 4854 0cbe 4c66 c23d
00000250: 5f0e acbc 0dd9 dbbd abe1 853d 2a32 76be
00000260: 38c9 7a3e dc63 afbe 40ac 6bbe 2bf5 893e
00000270: a2f9 bf3d e541 b6be 9aa5 353e 932b 8f3e
00000280: 8520 823b 30cc f9bd 3c82 fc3c 4c35 97be
00000290: c9bc a43e df2d f7bc 60f1 c13c 85af c93d
000002a0: eb6c dfbd 2da7 74bd 87e5 a7bd 4047 e9bc
000002b0: 1dae 333d 89a8 a23d e3fc a7bd 6c83 613e
000002c0: b9be 85be be28 aa3b eda4 523e e56f 533d
000002d0: 61af e8bc 822a 58bd 0e49 d73d 598f 8b3e
000002e0: 2d13 453e a051 283d 6dd7 803e d85e b7bc
000002f0: 6362 4cbe 158a 183e 102b 5e3e db3f 4cbe
00000300: 8723 71bd c071 183e ce22 60be d305 d7be
00000310: a134 cebc 660c 0c3b 5d1f 58be dfd2 53be
00000320: 7afc 00bd 6fd9 eabd 1069 163e 23e4 a3bc
00000330: fdbf cdbd 9042 09be 73d1 15be 7ace 4b3e
00000340: 571a 01be 077a d53d 26d6 683e f1f5 763e
00000350: 7a74 b43d dd9c 633c 9cd9 99bd ace1 2fbe
00000360: c0e1 813e 1562 febc fa19 20bd 153b 8b3e
00000370: b16a 76be 8ceb c0be 53d8 333e 40ff 8bbc
00000380: ff11 c13d f786 7bbe 85b2 3fba 082c 8bbb
00000390: 90c9 b1be 09f9 f1bc da92 6b3e 6d77 213c
000003a0: 7821 603e fb30 1fbe be34 28be 735a ca3b
000003b0: 9a76 6fbd 273f 7e3d e291 8ebd 8640 8abe
000003c0: b3b5 f53d 69b0 e33d 1bc3 89be bff5 76bd
000003d0: 30b7 0f3e afac f03d 68bd 643e f61c dbbc
000003e0: d358 d03d 6c3d fd3d 675c dd3d 7daf 383e
000003f0: 7b39 513e 0009 253d d15e eabd 5bca f6bd

kp2.mlp.2.bias f4 [32]
-0.04872308 -0.05975209 -0.04157624 0.038819253 -0.13899773 0.1462124 -0.19510053 -0.031963784
0.085611574 -0.017030576 -0.143724 -0.08232495 -0.10375517 -0.18424253 0.029644309 -0.040188085
-0.2707293 -0.11544666 -0.084777035 -0.2749673 -0.2151528 -0.07177924 0.07567855 -0.15276836
0.10095543 0.101566784 -0.14103836 -0.0006021913 -0.22029418 -0.09357913 0.056679286 0.08736406
00000000: da91 47bd 9cbe 74bd d94b 2abd f000 1f3d
00000010: 6c55 0ebe b4b8 153e 6fc8 47be 75ec 02bd
00000020: 1f55 af3d b583 8bbc 622c 13be fc99 a8bd
00000030: 977d d4bd 13aa 3cbe 9fd8 f23c 439c 24bd
00000040: 089d 8abe 4c6f ecbd 959f adbd 84c8 8cbe
00000050: 0451 5cbe ff00 93bd 5bfd 9a3d 4f6f 1cbe
00000060: b8c1 ce3d 3f02 d03d 5c6c 10be 60dc 1dba
00000070: cc94 61be 6aa6 bfbd 8a28 683d eeeb b23d

head.0.weight f4 [32, 32]
0.16623287 0.08790934 -0.009730853 0.037286054 0.07185985 0.06733661 -0.044643395 0.2086965
0.22746105 0.0350606 -0.070129596 -0.17476851 -0.15944865 0.24797012 -0.24628507 0.07773454
-0.060550295 -0.026629329 0.19165456 0.18733543 0.072125584 0.06386095 -0.13534066 0.31537044
-0.10142416 0.29761866 0.06422386 -0.111014724 -0.001013845 -0.015673963 0.42341354 0.044384472
0.026788222 0.028784866 0.04467183 0.11798652 0.13260297 -0.08035436 0.17048386 -0.19548206
0.0603656 0.1530291 0.18168357 -0.09636369 0.023367481 -0.034804378 -0.13721016 0.05474713
0.011825693 0.12628609 -0.072565265 -0.1452053 -0.0015645911 0.12162674 -0.062095337 -0.09297634
-0.12626635 0.09888931 -0.049693055 -0.0016442287 0.18128079 0.09150597 -0.18551823 -0.19480361
0.04896274 -0.20475312 -0.079470105 0.07383328 -0.25173482 -0.16620287 -0.4235868 0.06879377
0.15981877 0.26624796 -0.2566662 -0.21842875 -0.21091777 0.0024395022 -0.32739827 0.116500944
-0.2782477 -0.13580397 0.020463178 -0.21714394 -0.05983579 -0.4987945 0.16653244 -0.024922952
0.2928836 -0.14396672 -0.20168976 0.21524982 -0.3046287 -0.165236 -0.3910227 -0.0699575
-0.01722263 -0.10087569 -0.30494738 0.1753994 -0.2686223 0.08858798 -0.4059637 0.014758616
0.19257508 0.14371447 -0.21901128 -0.26250824 -0.05632856 0.051310778 -0.40178463 -0.053315774
-0.19982208 -0.18158272 -0.2869083 -0.13928327 -0.118804894 -0.56778514 0.027008986 -0.14774884
0.24417502 -0.046992734 0.011769211 0.2525388 -0.3424723 -0.31505796 -0.21683718 0.043599747
-0.013634418 -0.044511043 0.5575755 -0.06417794 0.25153494 0.20750016 -0.010998524 -0.070178084
0.16255344 0.0046630823 0.17057315 0.14951389 -0.046719708 -0.033058237 0.4973608 -0.008191685
0.020413563 -0.048036013 0.20625769 0.06686472 -0.072028026 0.12947339 -0.009440487 0.07651825
0.027806194 -0.27272063 0.20356968 0.16307361 0.27002788 0.33246565 0.068653725 -0.21031137
-0.052264925 -0.09591316 0.20635805 0.01464495 0.030059151 0.1149992 -0.030171337 -0.019874929
0.17266221 -0.0038988562 0.06853204 0.18147652 -0.061736323 0.17712879 0.070570074 -0.13127916
0.12711479 -0.034717724 -0.07094125 0.056067776 -0.16805004 0.2148988 -0.046889026 0.0028146706
0.078029886 0.012385491 -0.07467831 0.041526392 0.22717543 -0.079423696 -0.010473072 0.14610566
-0.034621943 0.08476585 -0.1844427 0.12159832 -0.31956172 0.20718598 -0.14107895 0.20650081
-0.056832787 0.28328753 -0.10816041 -0.21608424 -0.18755499 0.043470986 -0.15969713 0.14312708
-0.12915076 -0.059699368 -0.1197187 -0.007249639 -0.088926345 -0.47708663 0.17230064 -0.08250985
0.12584458 0.19699194 -0.042561725 0.13402236 -0.11696031 -0.14515758 0.11279448 -0.0042922837
-0.19534355 -0.042129237 -0.03626153 -0.14827383 0.020312166 -0.1555922 -0.11834765 -0.053248797
-0.034053892 -0.10573512 0.07648311 -0.10426975 0.02468853 0.009423252 -0.028162556 0.1282575
0.10161947 -0.0115203615 -0.0030117773 0.13061959 0.13017479 -0.016604768 -0.11084745 0.039616715
-0.12104498 0.15137362 -0.117870055 -0.08989318 -0.14398147 -0.11478036 -0.0429238 0.03631824
00000000: f338 2a3e d009 b43d 286e 1fbc 43b9 183d
00000010: 422b 933d c7e7 893d fedb 36bd 89b4 553e
00000020: 8deb 683e b49b 0f3d 1ba0 8fbd 84f6 32be
00000030: 8246 23be e1eb 7d3e 2732 7cbe 4933 9f3d
00000040: 9603 78bd c025 dabc 1841 443e dcd4 3f3e
00000050: 94b6 933d 88c9 823d be96 0abe 3c78 a13e
00000060: 78b7 cfbd 7961 983e cd87 833d b05b e3bd
00000070: fee2 84ba af66 80bc a9c9 d83e 7ecc 353d
00000080: f972 db3c 3dce eb3c cff9 363d eba2 f13d
00000090: 13c9 073e d490 a4bd 5293 2e3e 732c 48be
000000a0: eb41 773d a9b3 1c3e 420b 3a3e 545a c5bd
000000b0: 296d bf3c 098f 0ebd d280 0cbe 873e 603d
000000c0: 8dc0 413c 2451 013e 199d 94bd b3b0 14be
000000d0: f712 cdba 7117 f93d ae57 7ebd 616a bebd
000000e0: f74b 01be 7b86 ca3d f28a 4bbd 2983 d7ba
000000f0: aca1 393e 7b67 bb3d 7ef8 3dbe 997a 47be
00000100: 278d 483d cdaa 51be 39c1 a2bd e735 973d
00000110: 63e3 80be 1631 2abe 5ee0 d8be c0e3 8c3d
00000120: 88a7 233e a751 883e c169 83be c9ab 5fbe
00000130: d4fa 57be 0ee0 1f3b bfa0 a7be 0c98 ee3d
00000140: 7c76 8ebe 3210 0bbe 65a2 a73c fb5a 5ebe
00000150: 6016 75bd fe61 ffbe 7b87 2a3e 382b ccbc
00000160: d7f4 953e 036c 13be c387 4ebe 736a 5c3e
00000170: 4bf8 9bbe a033 29be 2134 c8be e145 8fbd
00000180: 7916 8dbc ea97 cebd 1022 9cbe e69b 333e
00000190: dd88 89be 9d6d b53d 79da cfbe 1fce 713c
000001a0: 6732 453e e329 133e 7e44 60be 7b67 86be
000001b0: c7b8 66bd 402b 523d b7b6 cdbe a461 5abd
000001c0: 299e 4cbe d2f0 39be a5e5 92be 46a0 0ebe
000001d0: fb4f f3bd 5e5a 11bf f341 dd3c 794b 17be
000001e0: 0409 7a3e 747b 40bd a6d3 403c c44c 813e
000001f0: 8858 afbe 474f a1be 910a 5ebe a695 323d
00000200: e562 5fbc 3651 36bd 45bd 0e3f b96f 83bd
00000210: 30c9 803e ec7a 543e 2733 34bc 87b9 8fbd
00000220: 6974 263e c5cc 983b baaa 2e3e 2b1a 193e
00000230: 2a5d 3fbd 1368 07bd 13a6 fe3e 6b36 06bc
00000240: 583a a73c 69c1 44bd 3735 533e 5ff0 883d
00000250: 6e83 93bd ac94 043e 46ac 1abc 9ab5 9c3d
00000260: d1c9 e33c 0aa2 8bbe 9274 503e c5fc 263e
00000270: 1841 8a3e f038 aa3e 539a 8c3d dd5b 57be
00000280: bf13 56bd 1e6e c4bd 864f 533e 5ff1 6f3c
00000290: 9c3e f63c b384 eb3d e129 f7bc bfd0 a2bc
000002a0: 5dce 303e f483 7fbb 875a 8c3d fbd4 393e
000002b0: 3adf 7cbd 4061 353e 0b87 903d 0b6e 06be
000002c0: 612a 023e 2c34 0ebd a549 91bd 53a7 653d
000002d0: 4f15 2cbe 6e0e 5c3e b50e 40bd 5676 383b
000002e0: 22ce 9f3d 84ec 4a3c f1f0 98bd 9417 2a3d
000002f0: ada0 683e e4a8 a2bd 3f97 2bbc b99c 153e
00000300: bdcf 0dbd b899 ad3d 8cde 3cbe 8a08 f93d
00000310: 989d a3be 9028 543e 0077 10be f374 533e
00000320: 7fc9 68bd 100b 913e 3483 ddbd 3045 5dbe
00000330: 6a0e 40be a20e 323d a587 23be e88f 123e
00000340: 1940 04be 5387 74bd 142f f5bd 618e edbb
00000350: 041f b6bd b344 f4be 946f 303e edfa a8bd
00000360: 67dd 003e 41b8 493e 3455 2ebd 283d 093e
00000370: e388 efbd 30a4 14be cb00 e73d 49a6 8cbb
00000380: 2408 48be b58f 2cbd f886 14bd 18d5 17be
00000390: b365 a63c 9053 1fbe 4160 f2bd 691b 5abd
000003a0: 187c 0bbd a88b d8bd 2da3 9c3d 618b d5bd
000003b0: 9a3f ca3c fc63 1a3c 29b5 e6bc ef55 033e
000003c0: de1d d03d e6bf 3cbc 3d61 45bb 24c1 053e
000003d0: 8a4c 053e b906 88bc fd03 e3bd 2345 223d
000003e0: 6ee6 f7bd b001 1b3e db65 f1bd ea19 b8bd
000003f0: e16f 13be f711 ebbd ded0 2fbd 6fc2 143d

head.0.bias f4 [32]
0.009058155 -0.14379902 0.2609376 0.3435743 -0.15554313 -0.16130982 0.055449598 0.09871853
0.1375103 0.06394598 0.20812276 -0.0792701 -0.038327586 0.33764142 -0.06968745 -0.0015097986
-0.0014681156 0.14860344 -0.2012091 -0.0026819552 0.118390575 -0.026429027 0.06796278 -0.18779196
-0.06433015 0.056186143 -0.014414763 0.048152626 -0.047483336 -0.0506546 0.27387312 0.10279534
00000000: a868 143c 0d40 13be 9d99 853e f8e8 af3e
00000010: b346 1fbe 672e 25be 1e1f 633d f12c ca3d
00000020: 80cf 0c3e 1cf6 823d 221e 553e 5d58 a2bd
00000030: 63fd 1cbd 56df ac3e 4bb8 8ebd 6fe4 c5ba
00000040: c96d c0ba 802b 183e c209 4ebe bec3 2fbb
00000050: c276 f23d b081 d8bc 1230 8b3d 894c 40be
00000060: 87bf 83bd 7123 663d e62b 6cbc b03b 453d
00000070: e37d 42bd 337b 4fbd 1939 8c3e 5d86 d23d

head.2.weight f4 [3, 32]
0.06286931 0.011281801 0.0035459946 -0.111293316 0.4796922 0.14147657 0.0125212055 -0.14291704
0.04108782 -0.16703965 -0.14270234 0.11222568 -0.049191635 -0.3999654 -0.07800461 -0.016517764
-0.01040189 -0.018091219 0.0099336775 0.2432269 0.37820384 0.7977351 -0.23528005 0.3026094
0.29885542 0.026739622 -0.1471028 0.17364585 0.10327917 0.24981816 -0.36380222 -0.1405162
-0.05341293 0.0017941326 -0.36167482 -0.5119434 -0.30991757 -0.21513152 -0.2694536 0.018175704
-0.22233854 -0.2679065 -0.28489333 0.13363783 0.15678832 0.45017892 0.123824574 0.07920365
0.14110439 0.21039088 0.22597678 -0.06699959 -0.22269109 -0.67613256 -0.20271747 0.20224546
0.18925339 -0.28279194 0.15018812 -0.11486027 -0.15164171 0.051068816 0.306312 0.15942828
-0.22474642 0.102359265 0.24181312 0.089496896 0.007716444 -0.0056628752 -0.02029392 -0.047969416
-0.061015267 0.3502002 0.31463212 0.16378404 -0.09364185 0.2930744 -0.0011027706 0.1571052
-0.23588605 -0.42877114 -0.37047184 -0.098661564 0.037661098 -0.012442903 0.36981237 -0.32779497
-0.31205857 -0.09300608 0.005181879 0.0995979 -0.3187382 -0.30576333 0.50036293 0.290608
00000000: a0c1 803d 4ed7 383c eb63 683b c0ed e3bd
00000010: 379a f53e 3cdf 103e be25 4d3c d858 12be
00000020: b44b 283d 710c 2bbe 9020 12be 94d6 e53d
00000030: 2b7d 49bd 44c8 ccbe e2c0 9fbd 4350 87bc
00000040: b06c 2abc 0934 94bc ddc0 223c 7910 793e
00000050: efa3 c13e 5e38 4c3f 41ed 70be 9fef 9a3e
00000060: 9403 993e 0d0d db3c 1ea2 16be 38d0 313e
00000070: 0884 d33d 55d0 7f3e 4944 babe 7be3 0fbe
00000080: 84c7 5abd 1a29 eb3a 712d b9be b90e 03bf
00000090: 84ad 9ebe 704b 5cbe d2f5 89be 37e5 943c
000000a0: b7ac 63be 0a2b 89be 8add 91be 5bd8 083e
000000b0: 1e8d 203e da7d e63e bd97 fd3d 8635 a23d
000000c0: ab7d 103e b570 573e 7566 673e 1537 89bd
000000d0: 2209 64be 0617 2dbf 2b95 4fbe 6f19 4f3e
000000e0: a4cb 413e 1bca 90be eaca 193e dc3b ebbd
000000f0: f747 1bbe 892d 513d edd4 9c3e 2b41 233e
00000100: ed23 66be bca1 d13d dc9d 773e 264a b73d
00000110: 39da fc3b a48f b9bb 6f3f a6bc 947b 44bd
00000120: 25eb 79bd 714d b33e 7617 a13e 01b7 273e
00000130: 4cc7 bfbd d90d 963e d78a 90ba 30e0 203e
00000140: 1d8c 71be e487 dbbe 7cae bdbe 130f cabd
00000150: 8642 1a3d 51dd 4bbc 0c58 bd3e bed4 a7be
00000160: 24c6 9fbe f979 bebd c0cc a93b fcf9 cb3d
00000170: a731 a3be 038d 9cbe c917 003f 92ca 943e

head.2.bias f4 [3]
-0.061477765 0.13040185 0.007795778
00000000: 1cd0 7bbd 1088 053e ba73 ff3b
