checkpoints_kpconv_24nov/checkpoint_epoch_18_24nov.pth (torch, 19297 bytes, 14 tensors)

fc0.weight f4 [8, 3]
0	0x3e2c3a97	0.16819225
1	0xbe98247e	-0.2971534
2	0xbecd6853	-0.40118656
3	0xbedf364f	-0.43596122
4	0x3e7b1bfa	0.24522391
5	0x3e7b494b	0.24539678
6	0xbd424cef	-0.04743665
7	0xbd2fd0b6	-0.04292365
8	0xbeab62b4	-0.33473742
9	0x3ed29a99	0.41133574
10	0xbe92701c	-0.28601158
11	0xbd838e78	-0.06423658
12	0xbb7b118b	-0.0038310017
13	0x3e87d158	0.26526904
14	0x3ea78e9e	0.32725996
15	0xbd962950	-0.073320985
16	0x3ea0344c	0.312899
17	0x3ea8a73f	0.329401
18	0xbeb77685	-0.3583261
19	0xbd9bacd2	-0.07601322
20	0x3e8926d9	0.2678745
21	0x3e6e7dc2	0.2329016
22	0x3d5aecbb	0.05344842
23	0xbebb7d7f	-0.36619183

fc0.bias f4 [8]
0	0x3ece18f4	0.40253413
1	0x3eea68bf	0.4578304
2	0x3eaf2e53	0.3421503
3	0xbe8b12f0	-0.27162886
4	0x3f1a84f5	0.60359126
5	0xbef6fe81	-0.48241046
6	0x3d200073	0.03906293
7	0xbd56bd72	-0.052426763

kp1.mlp.0.weight f4 [16, 11]
0	0x3f3b66de	0.7320384
1	0xbe6b61ce	-0.22986528
2	0xbe10abbe	-0.14128014
3	0xbdb57a75	-0.088612475
4	0x3ea1db78	0.31612754
5	0x3d72abfa	0.05924604
6	0x3e7e7196	0.24848017
7	0xbde30184	-0.110842735
8	0xbdcb6258	-0.09930867
9	0xbe2b3413	-0.16719083
10	0x3e8235de	0.25431722
11	0x3eb78d1b	0.35849842
12	0x3e224d50	0.15849805
13	0x3d972b19	0.07381267
14	0xbd2429b6	-0.04007884
15	0xbdd136b9	-0.10215516
16	0x3e768f21	0.24078037
17	0xbc3f7cc7	-0.011687464
18	0xbc1eb620	-0.009686977
19	0xbe09cea5	-0.13457735
20	0xbdf1b8ff	-0.11802863
21	0x3e2d0ad6	0.16898665
22	0x3f41aba0	0.75652504
23	0xbf472498	-0.7779021
24	0x3e8264f8	0.25467658
25	0x3d5913ba	0.05299733
26	0xbe3017f1	-0.17196633
27	0x3e22b613	0.15889768
28	0x3e003391	0.12519671
29	0x3e3ca61f	0.18422745
30	0xbe17b2e3	-0.14814334
31	0x3e8c68ec	0.274238
32	0xbe3a4b15	-0.18192704
33	0x3f0b032e	0.54301727
34	0xbcd8e249	-0.026475089
35	0xbcb27d95	-0.021788398
36	0xbdf4635d	-0.119330145
37	0xbe59c9c5	-0.21268375
38	0xbd65df40	-0.05612111
39	0x3e3bff7d	0.1835918
40	0x3d9ad799	0.07560653
41	0xbe434345	-0.1906863
42	0xbe25a5a3	-0.16176467
43	0xbe2b9c4f	-0.16758846
44	0x3d2746da	0.040839054
45	0xbf1a4dee	-0.6027516
46	0x3dd9d2d2	0.10635914
47	0x3e6a5bfa	0.22886649
48	0x3e20b47f	0.15693854
49	0xbe473202	-0.1945267
50	0xbd867655	-0.06565539
51	0x3e0dce1e	0.13848159
52	0xbbd62702	-0.006535412
53	0x3caeb29b	0.0213254
54	0x3dfc3962	0.123156324
55	0xbe078a11	-0.13236262
56	0x3d6220c0	0.055207014
57	0xbe1c01d2	-0.1523507
58	0x3e150a21	0.14554645
59	0xbd0222c1	-0.031771425
60	0xbe5ff694	-0.21871406
61	0xbe97ad07	-0.29624197
62	0xbe640f45	-0.2227145
63	0xbe5a51b0	-0.21320224
64	0x3e58dd45	0.21178158
65	0xbe8ebafb	-0.2787703
66	0xbf70d1ac	-0.94069934
67	0xbf635dce	-0.8881501
68	0x3ccb0ceb	0.024786433
69	0xbc7fa8b9	-0.015604191
70	0xbe290964	-0.16507488
71	0x3e3b3134	0.18280488
72	0x3e046b4e	0.12931558
73	0x3eb43875	0.35199323
74	0xbcee1813	-0.029064214
75	0x3e4d8dbb	0.20073597
76	0xbdccc237	-0.09997981
77	0xbe3d7943	-0.18503289
78	0xbf0bb80a	-0.54577696
79	0x3e9153a2	0.2838412
80	0xbdc26c74	-0.09493342
81	0x3d165902	0.03670598
82	0xbc3d90c1	-0.011570157
83	0x3e46da5b	0.19419234
84	0xbe587fe4	-0.21142536
85	0x3e55ec61	0.20890953
86	0x3d6ff663	0.058584582
87	0x3e7ce622	0.24697164
88	0x3eac823f	0.3369312
89	0xbeb1b2f3	-0.3470684
90	0xbf1bbbd4	-0.6083348
91	0xbd6e76b6	-0.05821868
92	0xbd9530d3	-0.07284703
93	0x3e5f663d	0.21816345
94	0xbd65d0f0	-0.05610746
95	0xbe04a860	-0.12954855
96	0x3e019137	0.12653051
97	0xbd1873f0	-0.03721994
98	0x3b833149	0.004003678
99	0xbf48ff3e	-0.7851447
100	0xbe61a31c	-0.22034878
101	0xbc283481	-0.010266424
102	0x3e70899c	0.23489994
103	0x3e25d825	0.16195734
104	0xbbec7f63	-0.007217334
105	0xbe3554dc	-0.17708153
106	0xbe450360	-0.19239569
107	0x3e29ba36	0.1657494
108	0x3e3e2528	0.18568861
109	0x3e1a5ce8	0.15074503
110	0x3ea5ad32	0.323587
111	0xbf0d84d4	-0.55280805
112	0xbd9836f2	-0.07432355
113	0x3d60af7c	0.054854855
114	0xbe84ded0	-0.25951242
115	0xbddca69b	-0.10773965
116	0xbe0ec81d	-0.13943525
117	0x3e2c983e	0.16854951
118	0xbd97d385	-0.07413391
119	0x3d6fffad	0.05859344
120	0x3e300db7	0.17192732
121	0x3f3c43e2	0.7354108
122	0xbf67714b	-0.90407246
123	0x3e9eb8d6	0.31000394
124	0x3d948042	0.07251026
125	0x3e7247c2	0.23660186
126	0x3ea39f8e	0.31957668
127	0x3e8d63d0	0.27615213
128	0xbe665100	-0.22491837
129	0x3e888bf4	0.26669276
130	0xbe241e60	-0.16027212
131	0x3d691b9c	0.056911096
132	0x3f538b57	0.8263449
133	0xbf58e97c	-0.8473127
134	0xbdabdb21	-0.08391405
135	0x3dbef1e4	0.09323481
136	0x3cb3ae06	0.021933567
137	0x3e937ead	0.28807583
138	0xbdb79585	-0.089640655
139	0x3da547f3	0.08070364
140	0x3de97e1f	0.11401009
141	0xbda2e801	-0.079544075
142	0x3e048151	0.12939955
143	0xbf0b3888	-0.54383135
144	0x3f1c130d	0.6096657
145	0x3d8a0597	0.067393474
146	0x3e900352	0.28127533
147	0x3e313303	0.17304616
148	0xbdf7e1ab	-0.121035896
149	0x3e529f9a	0.20568696
150	0x3e81cf39	0.2535341
151	0xbdb170a7	-0.08664065
152	0x3e8c4526	0.27396506
153	0xbe6712f9	-0.22565831
154	0x3ef770db	0.4832829
155	0x3f2fe679	0.6871105
156	0x3e475bf4	0.19468671
157	0xbc8a7bed	-0.016904796
158	0xbe0ea0cf	-0.13928531
159	0x3e2d0ab8	0.1689862
160	0x3e42191e	0.18954894
161	0x3e496fc3	0.1967154
162	0x3d38beae	0.04510372
163	0x3e00a3e0	0.12562513
164	0x3e94bd2f	0.29050586
165	0x3dd10071	0.10205162
166	0x3ed64a65	0.41853634
167	0x3e086120	0.133183
168	0xbe8016ff	-0.25017545
169	0xbf0bdd60	-0.54634666
170	0xbe355ebc	-0.1771192
171	0x3e45c3bb	0.19312946
172	0x3d79585c	0.06087528
173	0xbe918a39	-0.28425768
174	0x3e40b30c	0.18818301
175	0xbd570cf5	-0.05250259

kp1.mlp.0.bias f4 [16]
0	0xbbc71f74	-0.0060767476
1	0xbd178a10	-0.0369969
2	0x3e90e550	0.28299952
3	0xbeb1a9ac	-0.34699762
4	0xbec99aa6	-0.393758
5	0xbd11bc53	-0.03557999
6	0xbc249b20	-0.01004675
7	0xbc052062	-0.008125396
8	0xbd7cceac	-0.061720535
9	0xbe142f74	-0.14471227
10	0x3e0e29c5	0.13883121
11	0xbdcebd19	-0.10094661
12	0x3e8cbfb7	0.27490017
13	0x3dbed14d	0.09317265
14	0x3ebfd1f7	0.37464878
15	0x3e37a415	0.17933686

kp1.mlp.2.weight f4 [16, 16]
0	0x3e020627	0.1269766
1	0xbe284d64	-0.16435772
2	0x3dd58f96	0.104277775
3	0x3ce54af4	0.027989842
4	0x3e876225	0.26442066
5	0xbd9eeaa7	-0.077596
6	0x3e875e40	0.26439095
7	0x3c6ae811	0.0143375555
8	0xbef1e428	-0.47244382
9	0x3ddf81a4	0.10913399
10	0x3c016803	0.0078983335
11	0x3e8a9a6d	0.27070943
12	0x3e51e294	0.20496589
13	0xbe795808	-0.24349988
14	0xbbc383cc	-0.005966639
15	0xbd90aa77	-0.070637636
16	0xbd192ea9	-0.037398014
17	0x3d1ed668	0.038778692
18	0xbc86c998	-0.01645355
19	0x3ba2c9c1	0.0049678986
20	0x3e41f182	0.18939784
21	0x3e0d1b64	0.1377998
22	0x3e615d30	0.22008204
23	0x3e345979	0.17612256
24	0x3d180406	0.037113212
25	0xbc9195b5	-0.017771581
26	0xbe691d3e	-0.22765061
27	0x3df4a0a5	0.11944703
28	0xbe6a9769	-0.22909321
29	0xbe4f00b0	-0.20215106
30	0xbcedc69b	-0.029025367
31	0x3e1151c2	0.14191344
32	0xbe6de3ba	-0.23231402
33	0xbe3f1b79	-0.18662824
34	0xbe0cfb7e	-0.13767812
35	0x3d23f848	0.0400317
36	0xbda954b7	-0.08268111
37	0xbcd1ad0b	-0.025595209
38	0x3d9592b3	0.07303371
39	0x3e491cce	0.19639894
40	0x3e8eb9de	0.2787618
41	0x3e4fcbe5	0.20292623
42	0x3e70403c	0.23462003
43	0x3d470026	0.048584126
44	0x3d4b55c4	0.04964234
45	0xbd134f12	-0.03596408
46	0x3d9add62	0.07561757
47	0xbdfd6a9a	-0.12373848
48	0xbe45669d	-0.19277425
49	0xbda8f7d9	-0.08250398
50	0x3dae69ae	0.085162506
51	0x3e00db81	0.12583734
52	0xbc7a6ed3	-0.015285212
53	0xbd97d487	-0.07413583
54	0x3ee34f62	0.44396502
55	0xbdb6e8af	-0.089310996
56	0xbebfe664	-0.37480462
57	0x3e1d15f1	0.15340401
58	0x3da0a1a8	0.078433335
59	0xbd46ae05	-0.0485058
60	0x3e705eb3	0.23473625
61	0x3da19ae0	0.07890868
62	0xbe4b8099	-0.19873275
63	0x3de650c3	0.11245873
64	0x3e8df987	0.27729437
65	0x3e519b84	0.20469481
66	0x3e7a62bf	0.24451731
67	0xbd8c3dab	-0.068477
68	0xbe0748d9	-0.13211383
69	0x3d9c9078	0.07644743
70	0xbe30f0b1	-0.17279316
71	0x3dd2f9ba	0.10301538
72	0xbe8fc843	-0.28082475
73	0xbe75e05b	-0.24011366
74	0x3d51c778	0.05121562
75	0xbdcbb64f	-0.09946882
76	0x3eb60a5a	0.35554773
77	0xbe16e3d1	-0.14735343
78	0xbd9172d5	-0.071019806
79	0x3e7fbd3b	0.2497453
80	0x3e0f7bd6	0.14012083
81	0x3ca462a8	0.020066574
82	0xbd605704	-0.054770485
83	0xbc139608	-0.009007938
84	0xbeb53231	-0.35389856
85	0xbe123e3e	-0.14281556
86	0xbd93f9b8	-0.072253644
87	0xbc565b74	-0.013083328
88	0x3e8048d5	0.25055566
89	0x3e1fef93	0.15618734
90	0x3e7bf274	0.24604207
91	0xbc0e8c77	-0.008700482
92	0x3e772e63	0.24138789
93	0x3dddca2f	0.10829579
94	0x3e1ea7ca	0.15493694
95	0xbdb5659c	-0.08857271
96	0xbdede4b1	-0.11615885
97	0xbce3d9aa	-0.027813751
98	0x3dfd005d	0.12353585
99	0xbe82c3c5	-0.25539985
100	0xbe7cfed0	-0.24706578
101	0xbdfb6186	-0.122744605
102	0x3eb4b589	0.3529475
103	0x3e348e5c	0.17632431
104	0xbe7b23e5	-0.24525411
105	0x3e6f74b4	0.23384362
106	0x3e396e8b	0.18108575
107	0xbe31e646	-0.17372999
108	0x3bbc8c0c	0.0057539996
109	0x3d74b909	0.059746776
110	0x3e0e822c	0.13916844
111	0xbdaa64c3	-0.0832
112	0x3cb6101c	0.022224478
113	0x3d1ed2cf	0.03877526
114	0x3e28aed8	0.16472948
115	0x3e6759d2	0.22592857
116	0xbe069ec4	-0.13146502
117	0x3d548c4e	0.051891617
118	0x3e5894b0	0.2115047
119	0x3e569356	0.20954642
120	0xbe5d6e12	-0.2162402
121	0x3e3b1cf3	0.18272762
122	0xbdcd0dc3	-0.100123905
123	0x3dc37d9e	0.09545444
124	0x3e25b98e	0.16184065
125	0x3d43ca54	0.047800377
126	0xbe743092	-0.23846653
127	0x3d431dcf	0.04763585
128	0x3be13f2d	0.006873986
129	0xbdc8df77	-0.098082475
130	0xbe863b82	-0.26217276
131	0x3dbeb771	0.093123324
132	0xbd9a516b	-0.075350605
133	0x3df54673	0.11976328
134	0xbde0d181	-0.1097746
135	0xbe6c4d7f	-0.23076437
136	0xbd80bc20	-0.06285882
137	0x3d201172	0.039079137
138	0x3d60f5c6	0.054921888
139	0xbd77d928	-0.06050983
140	0xbea6138d	-0.3243679
141	0xbd6ce6fa	-0.057837464
142	0xbe288d6d	-0.164602
143	0x3e5658a9	0.20932259
144	0xbc33670c	-0.010949861
145	0xbd05f89a	-0.032707788
146	0xbdbda60a	-0.09260185
147	0x3d0c5c33	0.034267616
148	0xbdec368b	-0.11533841
149	0xbd893dce	-0.067012414
150	0x3e8cfe48	0.2753775
151	0x3e7da046	0.2476817
152	0x3eaa2c17	0.33236763
153	0xbdb1dee1	-0.08685089
154	0xbd219cf0	-0.039456308
155	0xbd753a44	-0.05987002
156	0xbd8f2fe7	-0.069915585
157	0x3da395ba	0.079875425
158	0xbe753c3b	-0.23948757
159	0x3de4608b	0.111512266
160	0xbe08f5df	-0.13375042
161	0xbd3fc430	-0.04681796
162	0x3e5d0651	0.21584441
163	0x3e305ace	0.17222139
164	0x3e824898	0.2544601
165	0x3df6376c	0.1202229
166	0x3d65d3ef	0.05611032
167	0x3db91cc8	0.09038693
168	0xbea787bc	-0.32720745
169	0xbe70f5a8	-0.2353121
170	0x3e275fe5	0.16345175
171	0x3e215ff8	0.15759265
172	0x3d02dc2a	0.031948246
173	0xbdd78166	-0.10522728
174	0xbe5db065	-0.2164932
175	0xbdc870f3	-0.09787168
176	0xbe1e9dcc	-0.15489882
177	0xbe6a32e5	-0.22870977
178	0x3de14ae3	0.11000612
179	0x3e4aa492	0.19789341
180	0x3c0ce076	0.0085984375
181	0xbe8238a2	-0.25433832
182	0xbe8423a2	-0.25808436
183	0xbe7cb61c	-0.24678844
184	0xbe716f80	-0.2357769
185	0x3d978a16	0.07399385
186	0x3e174297	0.14771496
187	0xbe74f869	-0.23922886
188	0xbea9712a	-0.3309415
189	0x3d38b403	0.045093548
190	0x3e7c9649	0.24666704
191	0xbdb66151	-0.089052804
192	0xbe0ef818	-0.13961828
193	0xbd9ebdcf	-0.07751047
194	0x3e3aa919	0.18228568
195	0x3e1683da	0.14698735
196	0x3e777864	0.24167019
197	0x3cadb1ff	0.02120304
198	0xbea6b7f0	-0.32562208
199	0xbe6cba47	-0.23117934
200	0xbf27db4c	-0.65568995
201	0xbde4459a	-0.11146088
202	0x3e0494c9	0.12947382
203	0xbe3065c8	-0.17226326
204	0x3dc19f88	0.09454256
205	0xbc947d73	-0.018126225
206	0xbe069fea	-0.1314694
207	0xbd595028	-0.05305496
208	0x3e7cf0b5	0.24701197
209	0x3e1f0164	0.15527874
210	0x3e5db6c8	0.21651757
211	0x3dab9627	0.08378249
212	0x3d31eaa6	0.04343667
213	0xbe3f092f	-0.18655847
214	0xbe78451f	-0.24245118
215	0x3ca08fb5	0.019599775
216	0xbf0ba095	-0.54541904
217	0x3e248107	0.16064845
218	0x3cc1feb4	0.023681022
219	0x3e938c22	0.2881785
220	0x3e961dd9	0.29319647
221	0xbdc57c09	-0.096427985
222	0x3c5e7b33	0.013579178
223	0xbe598038	-0.21240318
224	0xbe1738e6	-0.14767799
225	0x3e17fce0	0.14842558
226	0xbd8b729e	-0.06808971
227	0xbe0e8bf3	-0.13920574
228	0x3e34ad23	0.17644171
229	0x3de19f79	0.11016745
230	0x3e9fa867	0.31183168
231	0x3d918bf2	0.071067706
232	0xbde6e080	-0.11273289
233	0xbda9874e	-0.082777604
234	0xbe232b69	-0.15934528
235	0xbdaf6872	-0.08564843
236	0xbe957d73	-0.29197273
237	0xbcda8e41	-0.02667916
238	0xbd810b73	-0.06301012
239	0xbe34ce3b	-0.17656796
240	0x3e4c64bf	0.19960307
241	0xbdc3e8d8	-0.09565896
242	0xbe9c9c5d	-0.30588046
243	0xbcc1cf4a	-0.023658413
244	0x3d4775c1	0.048696283
245	0x3e2ba2b8	0.16761291
246	0xbdfa11d5	-0.122104324
247	0xbcfc4b04	-0.030797489
248	0x3d9a85ab	0.075450264
249	0xbe20f519	-0.15718497
250	0xbe073c11	-0.13206507
251	0xbe5eed8e	-0.21770307
252	0xbe74e8d0	-0.23916936
253	0xbd9a8cbf	-0.075463764
254	0xbe5577a1	-0.20846416
255	0xbbd6fc20	-0.0065608174

kp1.mlp.2.bias f4 [16]
0	0xbd930970	-0.071795344
1	0xbe8729e8	-0.2639916
2	0xbe77ca7a	-0.24198332
3	0x3da22657	0.07917469
4	0x3cba8503	0.022768503
5	0x3e6526b8	0.22378051
6	0x3e4da57f	0.20082663
7	0xbe0f2ca4	-0.13981873
8	0xbe16a846	-0.14712629
9	0x3d429e18	0.04751405
10	0xbe73dca5	-0.23814638
11	0xbe9de039	-0.3083513
12	0x3d94553c	0.0724282
13	0x3e2f3945	0.1711169
14	0xbe982263	-0.29713735
15	0xbd454a57	-0.0481666

kp2.mlp.0.weight f4 [32, 19]
0	0x3dad6c05	0.08467869
1	0xbdc58e03	-0.09646227
2	0xbbd9459a	-0.0066306116
3	0xbdb8df15	-0.090269245
4	0xbe282058	-0.16418588
5	0x3e06e42f	0.13172983
6	0xbdac9b17	-0.084280185
7	0xbe453460	-0.1925826
8	0xbe3a6089	-0.18200888
9	0xbdf0e7a0	-0.11762929
10	0xbe638666	-0.22219238
11	0xbccfcbc5	-0.02536572
12	0xbd4cd309	-0.050005946
13	0xbe1c8191	-0.152838
14	0xbe2d8a53	-0.16947298
15	0x3e54a4c0	0.20765972
16	0x3d63bfaf	0.055602726
17	0xbdce6bef	-0.100791804
18	0x3dc00ac4	0.093770534
19	0x3f5ae27a	0.85501826
20	0xbceb991d	-0.028759534
21	0xbeefa7e3	-0.46807775
22	0xbda3b48e	-0.079934224
23	0xbe72c536	-0.23708043
24	0xbd94db27	-0.072683625
25	0xbdb5290e	-0.08845721
26	0xbe3e6a82	-0.18595317
27	0xbda46ecf	-0.080289476
28	0x3d9b4adf	0.0758264
29	0x3d933d7a	0.0718946
30	0xbdf3f49d	-0.11911891
31	0x3c8d6ce2	0.017263833
32	0xbe898d8c	-0.26865804
33	0xbeb59306	-0.35463732
34	0x3e18c7ef	0.14920019
35	0xbe03f97a	-0.12888137
36	0xbe3dc5d6	-0.185325
37	0xbe3a40f9	-0.18188848
38	0x3eb35ffd	0.3503417
39	0x3f139d2c	0.576617
40	0x3fe319e2	1.7742274
41	0x3e39b647	0.1813594
42	0xbd078c9b	-0.033093076
43	0x3d83640f	0.06415569
44	0x3dadec0f	0.0849229
45	0x3d2b2ab4	0.04178877
46	0xbca1810b	-0.019714853
47	0x3d6a683f	0.057228323
48	0x3de34a3f	0.11098146
49	0xbda6aa96	-0.081380054
50	0x3e487b78	0.1957835
51	0xbc59ba73	-0.013289082
52	0x3cf2359d	0.02956658
53	0x3df80b12	0.121114865
54	0x3e11fa87	0.14255725
55	0xbe0c5ecd	-0.13708039
56	0xbd16cec6	-0.03681829
57	0xbf03eeec	-0.5153644
58	0x3e6dfd3e	0.23241135
59	0x3fabdb79	1.3426353
60	0xbe57c3c4	-0.21070772
61	0x3d9999f5	0.07500068
62	0xbdc368c4	-0.09541467
63	0xbe3b4742	-0.18288901
64	0xbd381f26	-0.04495158
65	0x3d9b3455	0.07578341
66	0x3c9fbfaa	0.019500572
67	0xbd82d190	-0.06387627
68	0x3dbd875b	0.09254333
69	0xbd43d211	-0.047807757
70	0xbd42b59c	-0.047536477
71	0xbe34f3c9	-0.17671122
72	0x3e5383e0	0.20655775
73	0xbda236b3	-0.07920589
74	0xbe98079a	-0.296933
75	0xbe50d4bb	-0.2039365
76	0x3ef7088d	0.4824871
77	0x3f3b31f3	0.7312309
78	0x3f3cd6da	0.7376534
79	0xbd001b1b	-0.03127585
80	0xbdc1954a	-0.09452303
81	0xbcbeadef	-0.023276297
82	0x3e8fba83	0.28071985
83	0x3e5fcab1	0.21854664
84	0x3e387170	0.18012023
85	0x3d16dc71	0.036831323
86	0x3c6fe70f	0.014642491
87	0x3dc73d20	0.097284555
88	0x3d6dd771	0.05806679
89	0x3d854caa	0.06508763
90	0x3dc78e5e	0.09743951
91	0xbe068fad	-0.13140745
92	0x3d84a422	0.06476618
93	0x3e14ce87	0.14531909
94	0xbdcc202c	-0.09967074
95	0xbd7c494b	-0.061593335
96	0xbcafa2fe	-0.021440025
97	0x3d64cca9	0.05585924
98	0x3d0a762b	0.0338041
99	0xbe2a4900	-0.1662941
100	0xbcf0a0b5	-0.029373506
101	0xbe3937aa	-0.1808764
102	0x3da95b4d	0.08269367
103	0xbe4ae914	-0.19815475
104	0xbd5da2a1	-0.054110173
105	0x3c0a7224	0.008450065
106	0x3e3e19b9	0.185645
107	0x3d7498e9	0.05971614
108	0x3e03fa79	0.12888516
109	0x3d5e0fe6	0.05421438
110	0xbe607f22	-0.21923497
111	0xbe1c9d52	-0.15294388
112	0xbe62f795	-0.22164758
113	0xbda99df9	-0.08282084
114	0xbf0590bb	-0.52173966
115	0xbebd230e	-0.36940807
116	0x3f9779b1	1.1834012
117	0xbe16e580	-0.14735985
118	0xbd80e6cb	-0.0629402
119	0x3dc24f26	0.094877526
120	0x3e01d00e	0.12677023
121	0x3e4f344e	0.20234796
122	0x3e0e6029	0.1390387
123	0xbc0e5143	-0.0086863665
124	0x3d898bfc	0.06716153
125	0xbe66068e	-0.22463438
126	0xbd557b42	-0.0521195
127	0xbe5e361e	-0.21700332
128	0xbe44bc6a	-0.192125
129	0x3cc142a3	0.023591345
130	0xbe308da5	-0.17241533
131	0xbd740c93	-0.059582304
132	0x3da0f975	0.0786008
133	0x3e3452cc	0.1760971
134	0x3f1087d5	0.56457263
135	0x3f9ee0d3	1.2412361
136	0xbd730a07	-0.059335735
137	0xbe803e3e	-0.25047487
138	0x3e161bca	0.14659038
139	0xbdfd46d5	-0.12367026
140	0xbcb1d5e9	-0.021708446
141	0x3e200a76	0.1562899
142	0x3d315e08	0.043302566
143	0x3dcb62a8	0.099309266
144	0xbe3f701c	-0.1869511
145	0x3cb64507	0.022249712
146	0x3e465b18	0.19370687
147	0xbe915b96	-0.28390187
148	0x3e4f7878	0.20260799
149	0xbe2afd83	-0.1669827
150	0xbdfa6b0d	-0.122274496
151	0xbe2422b4	-0.16028863
152	0xbf04081b	-0.5157487
153	0xbeb9babf	-0.36275288
154	0x3f3e8b63	0.7443144
155	0xbe851eb7	-0.25999996
156	0xbe81bca9	-0.2533925
157	0xbe7bcf43	-0.24590783
158	0xbdc31c76	-0.09526913
159	0x3e5ce915	0.21573289
160	0xbd854858	-0.06507939
161	0x3d9d34a0	0.07676053
162	0x3df2f577	0.11863225
163	0x3d20e85a	0.039284088
164	0xbe3f84e4	-0.18703038
165	0xbe6b6f91	-0.22991778
166	0xbe314760	-0.17312384
167	0x3e668542	0.22511771
168	0xbe0003b8	-0.12501419
169	0xbe710743	-0.23537926
170	0xbe631efe	-0.22179791
171	0x3e4c37a5	0.19943102
172	0xbee9dcac	-0.45676172
173	0x3f80916d	1.004438
174	0xbe340597	-0.17580257
175	0x3e097231	0.13422467
176	0x3c1a8822	0.009431871
177	0xbcbaa37f	-0.02278304
178	0xbdabfdd9	-0.08398027
179	0xbe093bcb	-0.13401715
180	0x3e3c005e	0.18359515
181	0xbe6e4030	-0.23266673
182	0xbe85e540	-0.26151466
183	0xbe3f4fe4	-0.1868282
184	0xbe2b7eaa	-0.16747537
185	0xbc957742	-0.018245343
186	0xbdd747b4	-0.10511723
187	0xbd808a7c	-0.06276414
188	0xbe825562	-0.25455767
189	0xbe71866c	-0.23586434
190	0xbea04b45	-0.31307426
191	0xbe855427	-0.26040766
192	0xbf9f27e2	-1.2434046
193	0xbcb68e27	-0.02228458
194	0xbea0328c	-0.31288564
195	0x3dd68958	0.10475415
196	0xbe489c65	-0.1959091
197	0xbd7435c3	-0.059621584
198	0x3ded0b10	0.11574376
199	0x3d94358d	0.072367765
200	0xbbf5ffe1	-0.00750731
201	0xbe22c022	-0.15893605
202	0xbe0af211	-0.13568904
203	0xbe95299b	-0.29133305
204	0xbda9e0ac	-0.08294806
205	0xbd43afa9	-0.047774944
206	0x3e16d813	0.14730863
207	0xbe9cae46	-0.3060171
208	0x3da5afe3	0.08090188
209	0xbeaef103	-0.34168252
210	0xbc72a2fd	-0.014809367
211	0x3fa6fd3b	1.304603
212	0x3e355dab	0.17711513
213	0xbe410611	-0.1884997
214	0x3dd066a7	0.101758294
215	0xbd836732	-0.06416167
216	0x3e03d41b	0.1287388
217	0xbdeec714	-0.11659065
218	0xbe7f888c	-0.24954432
219	0xbd11ae78	-0.035566777
220	0xbd35a0d2	-0.044342823
221	0xbe817656	-0.25285596
222	0xbdecd416	-0.1156389
223	0x3ce66263	0.028123086
224	0x3e31c968	0.17361987
225	0x3e67680d	0.22598286
226	0xbddb18af	-0.106980674
227	0xbe4c1766	-0.19930801
228	0xbe20c5ef	-0.15700506
229	0x3efe951d	0.4972314
230	0xbd09b84b	-0.03362302
231	0xbda8b120	-0.08236909
232	0x3e53e885	0.20694168
233	0xbc4eb242	-0.012615742
234	0x3e1b99b8	0.15195358
235	0x3cbbfeb4	0.0229486
236	0x3e1d6fb0	0.15374637
237	0xbe3a9834	-0.18222123
238	0xbe7e4dd8	-0.24834383
239	0xbe567e69	-0.20946659
240	0xbe07d99d	-0.13266607
241	0xbdd9ca95	-0.106343426
242	0xbe0094e6	-0.125568
243	0xbe016f66	-0.12640151
244	0x3e1ca77d	0.15298267
245	0x3e1d9310	0.15388131
246	0xbdf352e9	-0.11881048
247	0xbf133598	-0.5750365
248	0xbe8a5ea9	-0.27025345
249	0xbdf37ad2	-0.118886605
250	0x3e49b53f	0.19698046
251	0xbe1f8cf4	-0.15581113
252	0x3e20864e	0.15676233
253	0x3e9782c9	0.2959197
254	0xbddea26c	-0.10870823
255	0x3cb0836d	0.021547044

kp2.mlp.0.bias f4 [32]
0	0xbe6a7461	-0.22895958
1	0x3da63a8c	0.08116636
2	0x3d8208e0	0.06349349
3	0x3ed420c2	0.41431242
4	0x3ddf394f	0.108996026
5	0xbdd33eab	-0.10314687
6	0x3e5d37d3	0.21603326
7	0xbc6ec130	-0.014572427
8	0x3ea04b16	0.31307286
9	0x3d568034	0.052368358
10	0xbd95138d	-0.0727912
11	0x3de6a165	0.11261252
12	0x3e71d81f	0.236176
13	0xbddf2245	-0.10895208
14	0x3e83fd9e	0.25779432
15	0x3e97f2c2	0.29677397
16	0x3e4c11a7	0.19928609
17	0x3d8eeec6	0.06979136
18	0x3e98435b	0.29738888
19	0xbe2fde38	-0.17174613
20	0x3dacc3d8	0.08435792
21	0x3e4f97fd	0.20272823
22	0x3bc5aa55	0.006032268
23	0x3d97a56f	0.07404601
24	0xbe8f8fb4	-0.28039324
25	0x3e29ca74	0.16581136
26	0x3e473d37	0.19456945
27	0xbd819f0e	-0.063291654
28	0x3e310746	0.17287931
29	0xbe42c024	-0.19018608
30	0xbe1817e2	-0.1485286
31	0x3d840e2d	0.06448016

kp2.mlp.2.weight f4 [32, 32]
0	0x3e18d3dd	0.1492457
1	0x3c779321	0.015110762
2	0x3ebf44d6	0.37357205
3	0x3d7d2361	0.061801318
4	0x3e8ed99a	0.27900392
5	0x3e068303	0.13135915
6	0x3c083191	0.008312599
7	0x3e5ee8f5	0.21768554
8	0xbce7c9a6	-0.028294396
9	0xbe7c7f4e	-0.24657938
10	0x3d139b4f	0.036036786
11	0x3e1c96f3	0.15291958
12	0xbb995586	-0.0046793846
13	0x3dcb623f	0.09930848
14	0x3e5051b4	0.20343667
15	0xbd6fdba1	-0.058559064
16	0xbeb8849f	-0.36038682
17	0xbc9128fa	-0.017719734
18	0xbdacda4c	-0.08440074
19	0x3d994016	0.074829265
20	0xbdff279b	-0.12458726
21	0xbd8a00c5	-0.06738428
22	0x3c29f01e	0.01037219
23	0x3ef3f0af	0.47644565
24	0x3d84c37f	0.064826004
25	0x3e0c78f1	0.1371801
26	0x3b414dce	0.0029495838
27	0x3c99d946	0.018780362
28	0xbe1a55ad	-0.15071745
29	0xbdf38a11	-0.118915685
30	0xbdb2a658	-0.08723134
31	0xbd91bc42	-0.071159855
32	0xbe1b2734	-0.15151674
33	0xbeb8cf08	-0.36095452
34	0xbe8bee7d	-0.2733039
35	0xbdd2f38d	-0.1030036
36	0xbead8a39	-0.33894518
37	0xbdcde8d7	-0.10054176
38	0x3da07048	0.07833916
39	0x3d034914	0.032052115
40	0x3daebd17	0.0853216
41	0x3c7d9f98	0.015479945
42	0x3dc65848	0.09684807
43	0x3e385162	0.17999795
44	0x3e45d7c6	0.19320592
45	0x3e4bd0ac	0.19903821
46	0xbe50c41e	-0.20387313
47	0xbe9f2f90	-0.31090975
48	0xbdd5b32f	-0.10434567
49	0xbe5aac11	-0.213547
50	0xbe851b33	-0.25997314
51	0x3d88c6db	0.06678554
52	0x3dfb456a	0.12269099
53	0xbbb71086	-0.0055866865
54	0x3e798df0	0.24370551
55	0x3e94e845	0.29083458
56	0xbe0a0bac	-0.13481015
57	0x3daf3f6c	0.08557019
58	0xbe345c50	-0.1761334
59	0x3e233598	0.15938413
60	0x3d9c0b56	0.0761935
61	0xbd310398	-0.043216318
62	0x3e0116bc	0.12606329
63	0xbb808ce7	-0.003923047
64	0x3d9e859c	0.07740328
65	0x3d15a206	0.03653147
66	0xbe020d27	-0.1270033
67	0xbac88b66	-0.0015300333
68	0xbe81843a	-0.25296193
69	0x3db87749	0.09007127
70	0xbd3fbc4b	-0.04681043
71	0x3debb061	0.11508251
72	0xbe085e21	-0.13317157
73	0xbe52eb6b	-0.20597617
74	0x3e39601c	0.18103069
75	0xbe3c1693	-0.18367986
76	0x3db54fa9	0.088530846
77	0xbd49a845	-0.04923274
78	0xbe4a3e66	-0.19750366
79	0xbed8feb1	-0.42381814
80	0xbe972513	-0.29520473
81	0xbe99bb2b	-0.3002561
82	0xbdb663c3	-0.08905747
83	0x3e86a51f	0.26297852
84	0xbe667b15	-0.2250789
85	0xbeb36d55	-0.3504435
86	0x3dab629f	0.0836842
87	0xbef24dc6	-0.4732496
88	0x3e061f31	0.13097836
89	0xbe716022	-0.23571828
90	0xbe29e103	-0.16589741
91	0xbe3c56f3	-0.18392543
92	0xbd5cb851	-0.053886715
93	0x3f0c5ca2	0.54828846
94	0x3da35c9c	0.07976648
95	0xbd378e0e	-0.04481321
96	0xbdfc1001	-0.1230774
97	0xbcdf9f1a	-0.027297545
98	0x3e4a8451	0.19777037
99	0xbda42d23	-0.08016422
100	0x3dc63d33	0.096796416
101	0xbd51b61d	-0.051199067
102	0x3d2a21be	0.041536085
103	0x3d6e529f	0.058184262
104	0xbdaf1e30	-0.0855068
105	0xbbb22d5b	-0.0054375357
106	0xbe83e944	-0.25763905
107	0xbe05c346	-0.13062772
108	0xbdc5f5ec	-0.096660465
109	0xbe12db2f	-0.14341424
110	0x3e6aaf59	0.22918452
111	0x3e087780	0.13326836
112	0xbe865ebe	-0.26244158
113	0xbc6aa937	-0.0143225705
114	0xbd36a585	-0.044591445
115	0x3e2c0a48	0.16800797
116	0x3d26f45c	0.040760383
117	0xbcef45d1	-0.029208096
118	0xbe081200	-0.13288116
119	0x3d7e7b5e	0.06212937
120	0x3c830924	0.01599557
121	0x3cfdfe56	0.031005066
122	0x3e8bedf4	0.2732998
123	0x3e83b357	0.25722763
124	0xbd698b70	-0.057017744
125	0x3d739dcd	0.059476662
126	0x3dc1a182	0.09454633
127	0xbe350f3a	-0.1768159
128	0x3e20a0d1	0.15686347
129	0xbe22601e	-0.15856978
130	0xbf00125f	-0.5002803
131	0xbe8f7d99	-0.2802551
132	0xbe83fa36	-0.25776833
133	0xbe0baafc	-0.13639444
134	0xbdb0b3bd	-0.08628032
135	0xbe7ae1f4	-0.24500257
136	0xbd57f192	-0.052720614
137	0x3bce8b2d	0.006303212
138	0x3e38d010	0.1804812
139	0xbe30ab6b	-0.17252891
140	0xbe2fbe6e	-0.17162487
141	0x3db1307e	0.08651827
142	0xbd006def	-0.03135484
143	0xbe93a590	-0.28837252
144	0xbd9bff94	-0.07617107
145	0xbec90656	-0.39262646
146	0xbdcc4990	-0.099749684
147	0x3df1932b	0.11795648
148	0xbc81190f	-0.01575902
149	0xbdf28db4	-0.11843434
150	0x3d5a7869	0.05333749
151	0xbe8d22d8	-0.27565646
152	0x3e8eb9ed	0.27876225
153	0xbec2403c	-0.37939632
154	0xbe5b3dca	-0.2141029
155	0x3e8dbc0f	0.2768254
156	0x3da6b49b	0.081399165
157	0xbe998e81	-0.29991534
158	0x3e4d11e0	0.2002635
159	0x3e89abf0	0.2688899
160	0x3b822085	0.003971162
161	0xbdf98b7d	-0.121848084
162	0x3ced0d2a	0.028936941
163	0xbe984ed9	-0.29747656
164	0x3e9fed28	0.31235623
165	0xbcf72ddf	-0.03017324
166	0x3cc6f3ec	0.024286233
167	0x3dceecb4	0.10103741
168	0xbde2c293	-0.11072268
169	0xbd69f8a5	-0.05712189
170	0xbdb382b8	-0.08765167
171	0xbcf60b8a	-0.0300348
172	0x3d399157	0.045304623
173	0x3daa4c17	0.08315294
174	0xbda555ba	-0.08072992
175	0x3e64dca5	0.22349794
176	0xbe853828	-0.26019406
177	0x3c47f1d3	0.0122036515
178	0x3e558c19	0.20854224
179	0x3d39e8b6	0.045387946
180	0xbd02de35	-0.031950194
181	0xbd61fc1b	-0.055172067
182	0x3dd8a450	0.10578215
183	0x3e841036	0.25793618
184	0x3e43a6ed	0.19106646
185	0x3d33ff69	0.04394475
186	0x3e77c5a2	0.24196485
187	0xbcc1486f	-0.02359411
188	0xbe4d185a	-0.2002882
189	0x3e0c53ce	0.13703844
190	0x3e5746bc	0.21023077
191	0xbe564047	-0.20922957
192	0xbd712387	-0.058871772
193	0x3e238251	0.1596768
194	0xbe6e95eb	-0.23299377
195	0xbed555e8	-0.41667104
196	0xbcc7c845	-0.024387488
197	0x3b0c0c66	0.0021369695
198	0xbe5b081a	-0.21389809
199	0xbe5f1cd7	-0.21788345
200	0xbcdc2275	-0.0268719
201	0xbdeb5957	-0.114916496
202	0x3e252401	0.16127016
203	0xbd0860f5	-0.03329559
204	0xbdc7c779	-0.09754843
205	0xbe09816a	-0.13428274
206	0xbe14c9ae	-0.1453006
207	0x3e4579fe	0.19284818
208	0xbdfca55c	-0.12336227
209	0x3db2a610	0.0872308
210	0x3e764565	0.2404991
211	0x3e7e59d3	0.24838953
212	0x3d9600c8	0.07324368
213	0xbc13a287	-0.0090109175
214	0xbdae879d	-0.0852196
215	0xbe638883	-0.22220044
216	0x3e8710ab	0.26379904
217	0xbd76f2c5	-0.060290117
218	0xbd33bc98	-0.04388103
219	0x3e8f641b	0.28006062
220	0xbe74a208	-0.23889935
221	0xbec0fdfb	-0.37693772
222	0x3e3a1882	0.18173411
223	0xbc1fbf94	-0.009750266
224	0x3dc111ff	0.094272606
225	0xbe871acf	-0.2638764
226	0xbc3b1c30	-0.011420295
227	0xbc584e3e	-0.013202248
228	0xbeba7650	-0.3641839
229	0xbcf1de60	-0.029524982
230	0x3e6659b5	0.22495158
231	0xba31e560	-0.00067861937
232	0x3e59a278	0.21253383
233	0xbe266f18	-0.16253316
234	0xbe289240	-0.1646204
235	0x3c0149ce	0.007891132
236	0xbd71a09a	-0.058991052
237	0x3d7a60e4	0.06112756
238	0xbd9d4ea8	-0.07681018
239	0xbe95730d	-0.2918934
240	0x3de66527	0.11249762
241	0x3dc8ebdd	0.09810612
242	0xbe915911	-0.28388265
243	0xbd870d3b	-0.065943204
244	0x3e060e93	0.13091497
245	0x3ddc02e4	0.10742739
246	0x3e634a0d	0.22196217
247	0xbd43ae01	-0.047773365
248	0x3dcf9e3c	0.10137603
249	0x3ded584a	0.115891054
250	0x3dbebe12	0.09313597
251	0x3e33291e	0.17496154
252	0x3e513036	0.20428547
253	0x3cc61720	0.024180949
254	0xbdf0e50b	-0.117624365
255	0xbdf759a6	-0.12077646

kp2.mlp.2.bias f4 [32]
0	0xbd639858	-0.05556521
1	0xbd60b363	-0.054858577
2	0xbda0c8c1	-0.07850791
3	0x3cfda4c5	0.030962357
4	0xbe07adaa	-0.13249841
5	0x3e1092e8	0.1411854
6	0xbe41f517	-0.1894115
7	0xbd2ecee5	-0.04267778
8	0x3d9e863f	0.07740449
9	0xbd10a4bf	-0.035313364
10	0xbe13e63a	-0.14443293
11	0xbd9440e0	-0.072389364
12	0xbdcaac9a	-0.098962024
13	0xbe370ec9	-0.17876734
14	0x3b901fa3	0.0043983026
15	0xbd17ed35	-0.037091453
16	0xbe87abee	-0.2649836
17	0xbdeaa205	-0.11456684
18	0xbd9a5669	-0.07536013
19	0xbe8d74af	-0.27628085
20	0xbe540b18	-0.20707357
21	0xbd6078bd	-0.054802645
22	0x3d94acc0	0.07259512
23	0xbe1ccf44	-0.1531344
24	0x3da676d8	0.081281364
25	0x3dd89388	0.10575014
26	0xbe3862fe	-0.18006513
27	0xbcf4a8b4	-0.0298656
28	0xbe71c875	-0.23611625
29	0xbdcf6d31	-0.101282485
30	0x3d6d5b46	0.057948373
31	0x3dbcd3a1	0.092200525

head.0.weight f4 [32, 32]
0	0x3e287ab5	0.16453059
1	0x3dc16cf0	0.09444606
2	0xbca3d14b	-0.01999726
3	0x3cb40e01	0.021979334
4	0x3d84ba7e	0.06480883
5	0x3d6b690a	0.05747322
6	0xbd4766c6	-0.048681997
7	0x3e56ce1e	0.20977065
8	0x3e692e5e	0.22771594
9	0x3cbac399	0.022798346
10	0xbd897a21	-0.06712747
11	0xbe426c12	-0.18986538
12	0xbe255eb9	-0.16149415
13	0x3e847657	0.25871536
14	0xbe882a9c	-0.26595008
15	0x3da75413	0.08170333
16	0xbd7512dc	-0.05983244
17	0xbca2bdaf	-0.019865839
18	0x3e49496e	0.19656917
19	0x3e3d8b4a	0.18510166
20	0x3d8f60da	0.07000895
21	0x3d35a987	0.044351127
22	0xbe0e1526	-0.13875255
23	0x3ea7e812	0.32794243
24	0xbddd6f86	-0.10812287
25	0x3e9ef9f0	0.31050062
26	0x3d6ac3ce	0.05731564
27	0xbdf0bdc2	-0.117549434
28	0xbbeabace	-0.007163382
29	0xbcacdb7b	-0.02110075
30	0x3ed387fc	0.41314685
31	0x3d52b657	0.051443424
32	0x3cdaf529	0.02672823
33	0x3cebd472	0.028787825
34	0x3d36eb0c	0.044657752
35	0x3df185bd	0.11793087
36	0x3e07c17c	0.13257402
37	0xbda4b5ba	-0.08042474
38	0x3e2e6273	0.17029743
39	0xbe483f69	-0.19555439
40	0x3d76e4e8	0.060276896
41	0x3e1c7ab8	0.15281188
42	0x3e3a0bc7	0.18168555
43	0xbdc57764	-0.096419126
44	0x3cbf90f1	0.023384543
45	0xbd0e7de0	-0.034788013
46	0xbe0ca0dd	-0.1373324
47	0x3d60417b	0.054749947
48	0x3c42113a	0.011844927
49	0x3e014cb8	0.12626922
50	0xbd94a62c	-0.07258257
51	0xbe14b037	-0.14520346
52	0xbacbf9ab	-0.0015562078
53	0x3df90692	0.12159456
54	0xbd7e87c1	-0.062141184
55	0xbdbe5b69	-0.09294779
56	0xbe01fa1a	-0.12693062
57	0x3dca9348	0.09891373
58	0xbd4b953e	-0.049702875
59	0xbae58bb1	-0.0017512945
60	0x3e3997b5	0.18124278
61	0x3dbb51fc	0.09146497
62	0xbe3e14ab	-0.18562572
63	0xbe47748e	-0.19478056
64	0x3d8b6927	0.068071656
65	0xbe528050	-0.2055676
66	0xbd9d2255	-0.07672564
67	0x3de5fb57	0.1122958
68	0xbe811e9d	-0.2521867
69	0xbe171d38	-0.1475724
70	0xbedd7fdd	-0.43261614
71	0x3d9e4df7	0.07729714
72	0x3e243e8e	0.16039488
73	0x3e8512a2	0.25990778
74	0xbe7f0962	-0.24905923
75	0xbe6342aa	-0.22193399
76	0xbe60bda6	-0.21947345
77	0x3b51ae82	0.0031994884
78	0xbea33736	-0.3187806
79	0x3dfaa690	0.122388005
80	0xbe8e9536	-0.27848214
81	0xbe0c07fc	-0.13674921
82	0x3ca2a468	0.019853786
83	0xbe56e368	-0.20985186
84	0xbd51d8cb	-0.05123214
85	0xbefb7ee4	-0.49120247
86	0x3e341c11	0.17588831
87	0xbd19c025	-0.03753676
88	0x3e99b0f0	0.30017805
89	0xbe0b9c9f	-0.13633965
90	0xbe4c982d	-0.19979925
91	0x3e5f8a74	0.2183016
92	0xbe9ba87a	-0.30401975
93	0xbe2c1548	-0.16804993
94	0xbebc1c0b	-0.36740145
95	0xbd8f8939	-0.07008595
96	0xbb16a7b5	-0.0022988145
97	0xbdd5eba7	-0.10445338
98	0xbe9b47be	-0.30328172
99	0x3e4b4ce5	0.19853552
100	0xbe8a357a	-0.26993924
101	0x3dd02f47	0.101652674
102	0xbed8f976	-0.42377824
103	0x3ca937fe	0.020656582
104	0x3e43eef3	0.1913412
105	0x3e039d04	0.12852865
106	0xbe5b6e9d	-0.21428914
107	0xbe8847e3	-0.26617345
108	0xbd863470	-0.065529704
109	0x3d5a6a98	0.053324312
110	0xbec7b0f3	-0.3900219
111	0xbd45095d	-0.048104633
112	0xbe51c3e7	-0.20484887
113	0xbe41130d	-0.18854924
114	0xbe9173ad	-0.28408566
115	0xbe0a425b	-0.13501875
116	0xbde61aa5	-0.11235551
117	0xbf0b558d	-0.54427415
118	0x3d0ca3de	0.034335963
119	0xbe2f2e9c	-0.17107624
120	0x3e7d55f2	0.24739817
121	0xbd00f4d3	-0.031483483
122	0x3c4080b5	0.011749436
123	0x3e7b8faf	0.2456653
124	0xbeaf54bc	-0.34244335
125	0xbea269b4	-0.3172127
126	0xbe4e34ad	-0.20137282
127	0x3d32d6e0	0.043661952
128	0x3cfe6632	0.03105459
129	0xbc89e3e5	-0.016832301
130	0x3f2362d2	0.6382266
131	0xbd12572d	-0.03572767
132	0x3e452abc	0.19254583
133	0x3e610c95	0.21977456
134	0xbce8bad2	-0.028409395
135	0xbca4af3c	-0.02010309
136	0x3e3e0983	0.18558316
137	0x3d49d427	0.04927459
138	0x3e3c136c	0.18366784
139	0x3e0f9b33	0.14024048
140	0xbda0ecb2	-0.07857646
141	0xbc1a2198	-0.009407423
142	0x3f188de2	0.59591496
143	0x3c4d6487	0.012536175
144	0xbcfc7436	-0.030817132
145	0xbd42318c	-0.047410533
146	0x3e53b01a	0.20672646
147	0x3d2453cb	0.040118974
148	0xbe01a82c	-0.12661809
149	0x3e07f668	0.1327759
150	0x3c042565	0.008065556
151	0x3dc15e8a	0.0944186
152	0x3db2c4ba	0.08728929
153	0xbe9d8b5c	-0.30770385
154	0x3e661853	0.22470216
155	0x3e776910	0.24161172
156	0x3ea8ce8a	0.32970077
157	0x3ec8f4b6	0.392492
158	0x3d9aa4bb	0.07550951
159	0xbe7d469d	-0.24733968
160	0xbcc9a3d1	-0.024614247
161	0xbdacd5dd	-0.08439229
162	0x3e79298b	0.24332254
163	0x3d117f8b	0.035522025
164	0xbafdda3f	-0.001936741
165	0x3dfcd17e	0.12344645
166	0xbd53fd97	-0.051755514
167	0xbc8672c2	-0.016412143
168	0x3e2c2e11	0.16814448
169	0x3c224fb9	0.009906703
170	0x3d9ea575	0.07746402
171	0x3e3e0f14	0.1856044
172	0xbda7c4c0	-0.08191824
173	0x3e3d6ec0	0.18499279
174	0x3e0383e0	0.12843275
175	0xbdf7f72a	-0.1210769
176	0x3df07b2f	0.117422454
177	0xbd0fd24f	-0.035112675
178	0xbd9b158f	-0.07572471
179	0x3d31565a	0.043295242
180	0xbe3867f6	-0.18008408
181	0x3e7c77bf	0.24655055
182	0xbd14b339	-0.036303733
183	0x3c07ecde	0.00829622
184	0x3dfa9bce	0.12236749
185	0xbcb0703c	-0.021537893
186	0xbd6b11b4	-0.05738993
187	0x3d67f325	0.056628365
188	0x3e873c1d	0.2641305
189	0xbd743176	-0.059617482
190	0xbbab38b0	-0.0052252635
191	0x3df9bf9e	0.12194751
192	0xbccb24dd	-0.024797851
193	0x3dadf0eb	0.08493217
194	0xbe35d2be	-0.17756173
195	0x3e080b19	0.13285483
196	0xbeabe423	-0.33572492
197	0x3e4e6057	0.20153938
198	0xbe2f5748	-0.17123139
199	0x3e60596f	0.21909116
200	0xbd75b764	-0.059989348
201	0x3e88c2ab	0.2671102
202	0xbdb22f0b	-0.08700379
203	0xbe838953	-0.25690708
204	0xbe456cbb	-0.19279759
205	0x3d55caee	0.052195482
206	0xbe1ca56a	-0.15297475
207	0x3e144c5d	0.14482255
208	0xbe035ce3	-0.12828402
209	0xbd8498d8	-0.06474465
210	0xbe039629	-0.1285025
211	0xbb3fbb98	-0.0029256102
212	0xbdadb050	-0.084808946
213	0xbf01a475	-0.50641567
214	0x3e2c9599	0.16853942
215	0xbdb7b53d	-0.08970115
216	0x3e05cb78	0.13065898
217	0x3e5ac37f	0.21363638
218	0xbcfeff6f	-0.03112766
219	0x3e1a3d75	0.15062506
220	0xbddc642b	-0.10761293
221	0xbe15b485	-0.14619644
222	0x3de064d5	0.10956732
223	0xbbaaf11c	-0.0052167308
224	0xbe629608	-0.22127545
225	0xbd919d9a	-0.07110138
226	0xbd144bde	-0.036205165
227	0xbe3734ec	-0.17891282
228	0x3c189ad7	0.00931426
229	0xbe336f05	-0.1752282
230	0xbe367413	-0.17817716
231	0xbdc7cbe0	-0.09755683
232	0xbd6705e9	-0.05640212
233	0xbe0be948	-0.13663208
234	0x3d5e3c7a	0.054256894
235	0xbdc4a49a	-0.09601708
236	0x3ceed1e6	0.029152822
237	0xbd618e3f	-0.055067297
238	0xbcbcad49	-0.023031848
239	0x3dab0bcd	0.0835186
240	0x3d9cc537	0.07654803
241	0xbd5c514b	-0.053788465
242	0xbd039e57	-0.032133427
243	0x3df82dc1	0.12118102
244	0x3e07ebf0	0.13273597
245	0x3b5305e0	0.0032199547
246	0xbdf726f7	-0.12067979
247	0xbceb6194	-0.028733052
248	0xbe06d486	-0.13167009
249	0x3e10f5f8	0.1415633
250	0xbe0c206f	-0.13684247
251	0xbdd894f4	-0.105752856
252	0xbe11d4cf	-0.14241336
253	0xbdee708e	-0.11642562
254	0xbd8fa3c2	-0.07013656
255	0x3cea54c0	0.028604865

head.0.bias f4 [32]
0	0x3bb86a98	0.0056279413
1	0xbe1342ab	-0.143809
2	0x3e851816	0.2599494
3	0x3eb26280	0.34840775
4	0xbe482d6b	-0.19548576
5	0xbe3fe7aa	-0.18740717
6	0x3d05c454	0.032657936
7	0x3dca0db1	0.09865893
8	0x3df502a5	0.11963395
9	0x3d7d5dd6	0.061857067
10	0x3e526e32	0.20549849
11	0xbda2585d	-0.0792701
12	0xbc85e29f	-0.016343413
13	0x3eb4a536	0.35282296
14	0xbd8eb84b	-0.06968745
15	0xbb48d3e6	-0.003064388
16	0x3b4c29eb	0.0031152915
17	0x3e1d171c	0.15340847
18	0xbe42e0d3	-0.19031076
19	0xbc329469	-0.010899642
20	0x3dd832ab	0.10556539
21	0xbd87586f	-0.06608664
22	0x3d4666e7	0.04843798
23	0xbe3b3643	-0.18282418
24	0xbd7f7ae5	-0.06237306
25	0x3d21bcb7	0.039486613
26	0xbc7125c3	-0.014718476
27	0x3cfe3518	0.031031176
28	0xbd5baafa	-0.053629853
29	0xbd55a712	-0.052161284
30	0x3e932b2d	0.28743878
31	0x3ddbb3bf	0.10727643

head.2.weight f4 [3, 32]
0	0x3d8c93bb	0.06864115
1	0x3c38e1a2	0.011284264
2	0x3bc1d175	0.005914862
3	0xbddaafec	-0.10678086
4	0x3f0a66b1	0.54062945
5	0x3e315e16	0.17321047
6	0x3c879142	0.016548757
7	0xbe1e41be	-0.15454766
8	0x3d3a98f5	0.045556027
9	0xbe2f5f9c	-0.17126316
10	0xbe137e57	-0.14403664
11	0x3de5d694	0.11222568
12	0xbd61b7ee	-0.05510705
13	0xbed9407c	-0.4243201
14	0xbd9fc0e2	-0.07800461
15	0xbc6d7c7e	-0.014495013
16	0xbc719e25	-0.014747177
17	0xbc445e6c	-0.011985403
18	0x3c7acf5f	0.01530823
19	0x3e7ef39b	0.24897616
20	0x3ec76300	0.38942719
21	0x3f558580	0.8340683
22	0xbe80cfcc	-0.25158536
23	0x3e9d289a	0.3069504
24	0x3e9b7396	0.30361623
25	0x3cfe6bbc	0.031057231
26	0xbe16807b	-0.14697449
27	0x3e367b5b	0.17820494
28	0x3de456f3	0.11149397
29	0x3e83066a	0.2559083
30	0xbebf302e	-0.37341446
31	0xbe23e881	-0.16006662
32	0xbd69acb7	-0.05704948
33	0x3aeb291a	0.0017941326
34	0xbeb967c1	-0.3621197
35	0xbf052639	-0.5201145
36	0xbee11dfe	-0.43968195
37	0xbea2ab2d	-0.31771222
38	0xbe8d24f5	-0.27567258
39	0x3cb5f3a7	0.022210909
40	0xbe6a8f74	-0.22906286
41	0xbe82cd93	-0.25547466
42	0xbe8bd8f2	-0.27313954
43	0x3e08d85b	0.13363783
44	0x3e2e43e9	0.17018093
45	0x3ef339ee	0.47505134
46	0x3dfd97bd	0.123824574
47	0x3da1f639	0.07908291
48	0x3e230844	0.15921122
49	0x3e5c8674	0.21535665
50	0x3e6663ad	0.22498961
51	0xbd916baa	-0.071006134
52	0xbe70d4a9	-0.23518623
53	0xbf3dcb84	-0.74138665
54	0xbe693016	-0.2277225
55	0x3e4d588a	0.20053306
56	0x3e3dd58f	0.18538497
57	0xbe93bb2b	-0.28853735
58	0x3e19c2c1	0.15015699
59	0xbe028f04	-0.12749869
60	0xbe2172bd	-0.15766425
61	0x3d489e4c	0.04897909
62	0x3ea4d619	0.32194594
63	0x3e57e3cf	0.21082996
64	0xbe6ab3fb	-0.2292022
65	0x3dd19f37	0.10235446
66	0x3e755734	0.23959047
67	0x3db1153b	0.086466275
68	0x3d1df887	0.038567092
69	0xbb582923	-0.0032983504
70	0xbcb4c410	-0.022066146
71	0xbcfd05ab	-0.030886492
72	0xbd7cb5e5	-0.061696906
73	0x3eb4d0b7	0.35315487
74	0x3ea0de03	0.31419381
75	0x3e27b701	0.16378404
76	0xbdd604b6	-0.10450117
77	0x3e92123b	0.28529534
78	0xba908ad7	-0.0011027706
79	0x3e1da57a	0.15395156
80	0xbe81bbd0	-0.25338602
81	0xbee9d4f3	-0.4567028
82	0xbec26603	-0.37968454
83	0xbdd2c900	-0.10292244
84	0x3d0b0389	0.03393892
85	0xba852e84	-0.0010160957
86	0x3ed1501e	0.40881437
87	0xbeaa64d8	-0.33280063
88	0xbea1221c	-0.31471336
89	0xbdc2b37f	-0.095068924
90	0x3ba239ac	0.0049507227
91	0x3dcdfa4d	0.10057507
92	0xbea628ac	-0.32452905
93	0xbea04d91	-0.31309178
94	0x3ef6040f	0.4804997
95	0x3e9cdb7f	0.30636212

head.2.bias f4 [3]
0	0xbd8564be	-0.06513356
1	0x3e116d6c	0.14201897
2	0x3b8f35cf	0.004370428
