checkpoints_kpconv_24nov/checkpoint_epoch_15_24nov.pth (torch, 19297 bytes, 14 tensors)

fc0.weight f4 [8, 3]
0.15841739 -0.3153196 -0.43203866 -0.44770598 0.25253898 0.23939572 -0.052223805 -0.045261964
-0.37285993 0.42247736 -0.31383222 -0.09328962 -0.0028466433 0.27170885 0.31777787 -0.06503108
0.32291397 0.31856653 -0.36634517 -0.07893188 0.24949889 0.24774611 0.058824748 -0.3702989
00000000: 2b38 223e 9271 a1be 2c34 ddbe b839 e5be
00000010: ca4c 813e 2724 753e a1e8 55bd 9c64 39bd
00000020: 7fe7 bebe f44e d83e 9eae a0be a10e bfbd
00000030: c08e 3abb 6c1d 8b3e c8b3 a23e 042f 85bd
00000040: fb54 a53e 271b a33e 9891 bbbe 0aa7 a1bd
00000050: a37c 7f3e 28b1 7d3e 38f2 703d d197 bdbe

fc0.bias f4 [8]
0.39422092 0.45555055 0.330914 -0.2698988 0.605402 -0.48041615 0.042112794 -0.048800033
00000000: 53d7 c93e ec3d e93e 8f6d a93e 2d30 8abe
00000010: a0fb 1a3f 1bf9 f5be 777e 2c3d 8be2 47bd

kp1.mlp.0.weight f4 [16, 11]
0.7237681 -0.2306283 -0.117020704 -0.08689761 0.31846198 0.06960095 0.25218385 -0.10963419
-0.0980469 -0.16044563 0.262084 0.36577538 0.17196774 0.0900674 -0.032542594 -0.08441193
0.2428038 -0.0052536186 -0.023949806 -0.15337998 -0.09695396 0.16795728 0.7526546 -0.77305675
0.22819206 0.052221134 -0.16727391 0.17026877 0.1258111 0.18904267 -0.14455302 0.28066564
-0.17536679 0.52176267 -0.019889586 0.011102624 -0.12340826 -0.19668856 -0.053629145 0.18060973
0.07203728 -0.19870782 -0.16023889 -0.16937552 0.04880839 -0.5963358 0.05611334 0.22212271
0.16044432 -0.18317153 -0.06962963 0.13559577 -0.012490417 0.028798973 0.1256433 -0.13698517
0.08541705 -0.1304974 0.15288112 -0.03147422 -0.21022871 -0.2945433 -0.23142508 -0.23058191
0.21870656 -0.28213394 -0.917109 -0.87665546 -0.003749182 -0.02394144 -0.16258243 0.19110385
0.12201285 0.34969786 -0.029532371 0.20874591 -0.10070526 -0.17939422 -0.5355731 0.23535958
-0.09591794 0.042544324 -0.009700512 0.19653998 -0.20853102 0.21174558 0.06300139 0.2513417
0.31849948 -0.337777 -0.550806 -0.055085875 -0.104997225 0.21386316 -0.04886243 -0.11766
0.13773972 -0.044374727 0.021518156 -0.7663104 -0.2439982 -0.047365263 0.23516814 0.17598233
0.007031884 -0.18013866 -0.1826185 0.18095152 0.19663085 0.14586566 0.34037957 -0.5274562
-0.071740754 0.05223957 -0.25789595 -0.106534384 -0.13876903 0.18283482 -0.05878654 0.05964725
0.18332617 0.7329986 -0.89855564 0.2590577 0.07162049 0.24079311 0.3234514 0.2791111
-0.22806814 0.2651547 -0.15553252 0.060813647 0.81853557 -0.83874196 -0.07445957 0.09000419
0.022631906 0.29103783 -0.09198725 0.087801516 0.12215983 -0.078657225 0.13436279 -0.5371428
0.5935242 0.08566777 0.28676897 0.172144 -0.12827808 0.20880008 0.25499022 -0.08365324
0.26966545 -0.22916223 0.46167535 0.66419154 0.19474322 -0.010047951 -0.14208184 0.15868942
0.19490302 0.19881742 0.048225835 0.118068054 0.28933588 0.12275949 0.4334601 0.12789966
-0.24536625 -0.58800143 -0.15516305 0.19567604 0.056226015 -0.2958814 0.19638789 -0.05072948
00000000: de48 393f d329 6cbe 8da8 efbd 60f7 b1bd
00000010: 730d a33e f18a 8e3d 3e1e 813e e487 e0bd
00000020: d0cc c8bd dc4b 24be e02f 863e e946 bb3e
00000030: 5018 303e 4275 b83d 624b 05bd 29e0 acbd
00000040: 8fa1 783e 8c26 acbb 6232 c4bc a40f 1dbe
00000050: cc8f c6bd fefc 2b3e f9ad 403f 0ce7 45bf
00000060: 2eab 693e d4e5 553d da49 2bbe f05a 2e3e
00000070: a0d4 003e 6794 413e b505 14be 68b3 8f3e
00000080: 5a93 33be 3d92 053f 7cef a2bc c8e7 353c
00000090: 78bd fcbd ba68 49be 3caa 5bbd c2f1 383e
000000a0: 4888 933d 107a 4bbe aa15 24be c770 2dbe
000000b0: 4eeb 473d 77a9 18bf 1ad7 653d 2374 633e
000000c0: 844b 243e 5191 3bbe fb99 8ebd 9ed9 0a3e
000000d0: 9ba4 4cbc d3eb eb3c a3a8 003e d745 0cbe
000000e0: 22ef ae3d 1ca1 05be de8c 1c3e 1deb 00bd
000000f0: 3246 57be 61ce 96be b2fa 6cbe aa1d 6cbe
00000100: 9df4 5f3e dc73 90be a8c7 6abf 7e6c 60bf
00000110: d6b4 75bb d720 c4bc 027c 26be bab0 433e
00000120: e0e1 f93d 990b b33e dfed f1bc 7dc1 553e
00000130: 8f3e cebd 1eb3 37be 521b 09bf 1a02 713e
00000140: a070 c4bd f542 2e3d e5ee 1ebc c741 493e
00000150: 2889 55be d5d3 583e df06 813d dcaf 803e
00000160: 5d12 a33e 1bf1 acbe 9f01 0dbf baa1 61bd
00000170: c908 d7bd f2fe 5a3e f923 48bd baf7 f0bd
00000180: a40b 0d3e 46c2 35bd d846 b03c eb2c 44bf
00000190: aada 79be 1402 42bd ebcf 703e b634 343e
000001a0: b86b e63b 4576 38be 5800 3bbe 5b4b 393e
000001b0: 9959 493e cf5d 153e 3b46 ae3e 5f07 07bf
000001c0: d1ec 92bd 29f9 553d f00a 84be b32e dabd
000001d0: 7819 0ebe 0d39 3b3e 28ca 70bd ad50 743d
000001e0: dbb9 3b3e cca5 3b3f be07 66bf 36a3 843e
000001f0: c3ad 923d 7892 763e 6c9b a53e a6e7 8e3e
00000200: b28a 69be 5bc2 873e eb43 1fbe bb17 793d
00000210: 8c8b 513f cbb7 56bf 427e 98bd 1e54 b83d
00000220: 8c66 b93c e902 953e d063 bcbd 48d1 b33d
00000230: ef2e fa3d 0a17 a1bd 6696 093e 3182 09bf
00000240: 34f1 173f 9572 af3d 62d3 923e 8446 303e
00000250: 545b 03be b0cf 553e 148e 823e 6452 abbd
00000260: 9711 8a3e 81a9 6abe b660 ec3e 7508 2a3f
00000270: c46a 473e 29a0 24bc e77d 11be 7b7f 223e
00000280: a894 473e cb96 4b3e 7488 453d aacd f13d
00000290: d523 943e 5469 fb3d 7bee dd3e 21f8 023e
000002a0: 4a41 7bbe 4387 16bf 10e3 1ebe 4d5f 483e
000002b0: 404d 663d c47d 97be e819 493e b7c9 4fbd

kp1.mlp.0.bias f4 [16]
-0.007591867 -0.03994698 0.2867195 -0.3475188 -0.38673162 -0.016484674 -0.020945214 -0.0057805427
-0.04643368 -0.16298287 0.14127374 -0.10438608 0.2661052 0.0923425 0.37441006 0.17916863
00000000: 32c5 f8bb 729f 23bd e6cc 923e fced b1be
00000010: b001 c6be de0a 87bc 4c95 abbc b56a bdbb
00000020: 3e31 3ebd fbe4 26be 10aa 103e 5ec8 d5bd
00000030: f13e 883e 111e bd3d adb2 bf3e fb77 373e

kp1.mlp.2.weight f4 [16, 16]
0.12934953 -0.16350368 0.10499899 0.023813233 0.2640911 -0.07619596 0.2646824 0.016493304
-0.4704814 0.112778075 0.01675966 0.26923612 0.20425284 -0.24454823 -0.005778108 -0.07177349
-0.043764766 0.035599668 -0.02382 0.005301886 0.17751905 0.12546071 0.21069133 0.16175394
0.008827013 -0.022283936 -0.22849798 0.11187251 -0.22783221 -0.20235361 -0.025137901 0.1365079
-0.22716351 -0.18744303 -0.13733745 0.0461002 -0.07545627 -0.017610414 0.074095935 0.20240931
0.2616468 0.20648408 0.242106 0.05072279 0.058113232 -0.033361286 0.07934889 -0.12047296
-0.19363283 -0.07996231 0.08484351 0.12629259 -0.01270956 -0.07429707 0.4399971 -0.0916876
-0.36103562 0.15626292 0.08998513 -0.051940914 0.23927897 0.07653785 -0.19701749 0.111337565
0.2776074 0.20795046 0.24394886 -0.06994521 -0.13308613 0.07976349 -0.16613509 0.10617715
-0.30787835 -0.23624215 0.06378387 -0.10306464 0.35508054 -0.14898641 -0.06813141 0.25265208
0.14453775 0.024601355 -0.058560368 -0.009565208 -0.32130882 -0.1487423 -0.037466533 0.008209223
0.18470241 0.16337615 0.25781435 0.002628701 0.25554016 0.109914966 0.16466539 -0.080011345
-0.11835318 -0.032505907 0.12465455 -0.25771868 -0.25271553 -0.13587451 0.3478169 0.16874355
-0.23454718 0.2313507 0.18667422 -0.17161807 0.010598435 0.056164317 0.13675745 -0.10122606
0.02604604 0.04173124 0.17021954 0.2271231 -0.13116084 0.059978243 0.21211983 0.21268196
-0.22332971 0.18702254 -0.09332782 0.095223024 0.16357666 0.048187688 -0.23770167 0.04999612
0.0070575275 -0.097374834 -0.25933024 0.08821341 -0.07740036 0.11955419 -0.107976064 -0.23201865
-0.040253207 0.042049702 0.06803377 -0.063881636 -0.31803688 -0.061655775 -0.16729157 0.20300715
-0.010996261 -0.032857608 -0.09272989 0.03582675 -0.12020542 -0.06287248 0.265876 0.24139968
0.28002477 -0.08263509 -0.038385235 -0.06507656 -0.069591075 0.084329456 -0.23669751 0.11121582
-0.13311172 -0.046222813 0.216153 0.16665268 0.24874035 0.12025814 0.053106572 0.089778095
-0.32293904 -0.23440847 0.17304316 0.15349098 0.029119879 -0.107736535 -0.21593708 -0.099108
-0.15230705 -0.22707598 0.11470194 0.19446565 0.008446453 -0.25155404 -0.25487176 -0.24395469
-0.24103858 0.07711173 0.1599763 -0.24114046 -0.3254354 0.0414894 0.2447768 -0.09019144
-0.14303876 -0.08153439 0.18980682 0.14617158 0.24201904 0.01340346 -0.28669065 -0.23156208
-0.56956774 -0.11236623 0.1312102 -0.16948107 0.09791823 -0.017394189 -0.13297108 -0.059911296
0.25069246 0.1561446 0.21905611 0.08335137 0.045635097 -0.18839587 -0.2379546 0.022340063
-0.4923015 0.16441993 0.03519143 0.28955925 0.29729944 -0.096658036 0.014419932 -0.21552274
-0.14437792 0.1500816 -0.06307046 -0.13783702 0.17671435 0.11641153 0.3097308 0.07318224
-0.13579752 -0.08146345 -0.14949077 -0.08738913 -0.28443506 -0.029503172 -0.06310607 -0.17606714
0.20140776 -0.09467835 -0.30624452 -0.025310464 0.047438096 0.16704442 -0.124527045 -0.03118625
0.08685539 -0.15533201 -0.12052947 -0.22064213 -0.23453277 -0.08010895 -0.21075074 -0.009604559
00000000: 3474 043e 826d 27be b609 d73d f813 c33c
00000010: f336 873e a10c 9cbd 7484 873e f71c 873c
00000020: f0e2 f0be 31f8 e63d 8e4b 893c 51d9 893e
00000030: a827 513e da6a 7abe 4856 bdbb fbfd 92bd
00000040: af42 33bd f5d0 113d 2922 c3bc 71bb ad3b
00000050: 8ec7 353e c678 003e 78bf 573e d3a2 253e
00000060: 2d9f 103c cd8c b6bc 60fb 69be 6a1d e53d
00000070: d94c 69be c935 4fbe 00ee cdbc bac8 0b3e
00000080: 8d9d 68be 11f1 3fbe 30a2 0cbe 90d3 3c3d
00000090: d188 9abd b743 90bc 9cbf 973d 6344 4f3e
000000a0: 92f6 853e 9070 533e a3ea 773e b3c2 4f3d
000000b0: 2408 6e3d d8a5 08bd ac81 a23d 87ba f6bd
000000c0: af47 46be 48c3 a3bd 6fc2 ad3d d852 013e
000000d0: c23b 50bc 1029 98bd 4d47 e13e b5c6 bbbd
000000e0: a9d9 b8be 6303 203e 204a b83d ffbf 54bd
000000f0: 8c05 753e e0bf 9c3d f4be 49be f304 e43d
00000100: 8f22 8e3e f7f0 543e bbcd 793e 6f3f 8fbd
00000110: bb47 08be 0a5b a33d 511f 2abe 6873 d93d
00000120: 3ba2 9dbe 76e9 71be 1ea1 823d 8e13 d3bd
00000130: 1ecd b53e e58f 18be 7b88 8bbd 9d5b 813e
00000140: b401 143e c888 c93c ffdc 6fbd 64b7 1cbc
00000150: 9782 a4be e74f 18be 8276 19bd fa7f 063c
00000160: a122 3d3e 144c 273e 3e00 843e 4946 2c3b
00000170: 29d6 823e 191b e13d 0b9e 283e fddc a3bd
00000180: 2763 f2bd ea24 05bd e24a ff3d b4f3 83be
00000190: ee63 81be b022 0bbe 0f15 b23e 1ccb 2c3e
000001a0: 232d 70be 33e7 6c3e 8727 3f3e a6bc 2fbe
000001b0: 0fa5 2d3c 8e0c 663d 250a 0c3e 9c4f cfbd
000001c0: 815e d53c 60ee 2a3d 084e 2e3e f592 683e
000001d0: 074f 06be bfab 753d f135 593e 4dc9 593e
000001e0: 8bb0 64be d682 3f3e a822 bfbd 4a04 c33d
000001f0: a480 273e 7460 453d 1168 73be bbc8 4c3d
00000200: d542 e73b 756c c7bd efc6 84be 3ba9 b43d
00000210: 1484 9ebd d4d8 f43d 8e22 ddbd 4c96 6dbe
00000220: 8ce0 24bd 4f3c 2c3d 4a55 8b3d 60d4 82bd
00000230: bbd5 a2be c48a 7cbd 7b4e 2bbe 1be1 4f3e
00000240: a929 34bc b395 06bd 2be9 bdbd 12bf 123d
00000250: 422e f6bd 49c3 80bd e620 883e 7a31 773e
00000260: 685f 8f3e 963c a9bd d639 1dbd dc46 85bd
00000270: c485 8ebd ecb4 ac3d d560 72be 1fc5 e33d
00000280: 704e 08be 2254 3dbd 3657 5d3e 00a7 2a3e
00000290: cab5 7e3e e649 f63d 4786 593d 94dd b73d
000002a0: 4458 a5be c608 70be 3a32 313e bd2c 1d3e
000002b0: d08c ee3c f9a4 dcbd 9c1e 5dbe 23f9 cabd
000002c0: 61f6 1bbe 9b86 68be dae8 ea3d 0122 473e
000002d0: fe62 0a3c b1cb 80be 8d7e 82be 42cf 79be
000002e0: d1d2 76be c1ec 9d3d d4d0 233e 86ed 76be
000002f0: 789f a6be caf0 293d c5a6 7a3e 4ab6 b8bd
00000300: c178 12be 81fb a6bd b85c 423e 01ae 153e
00000310: d7d3 773e 309a 5b3c 1ec9 92be 9c1e 6dbe
00000320: 31cf 11bf 4420 e6bd f75b 063e 728c 2dbe
00000330: 5a89 c83d 427e 8ebc 9229 08be 8c65 75bd
00000340: c35a 803e 5fe4 1f3e 3f50 603e 20b4 aa3d
00000350: deeb 3a3d d9ea 40be 5faa 73be 8202 b73c
00000360: f10e fcbe b35d 283e e424 103d 1c41 943e
00000370: a237 983e a6f4 c5bd 9441 6c3c feb1 5cbe
00000380: ced7 13be feae 193e 162b 81bd 2625 0dbe
00000390: 9bf4 343e 2b69 ee3d 0995 9e3e 92e0 953d
000003a0: 810e 0bbe 4fd6 a6bd 1c14 19be 12f9 b2bd
000003b0: 79a1 91be a3b0 f1bc c13d 81bd f24a 34be
000003c0: d63d 4e3e b9e6 c1bd 15cc 9cbe e457 cfbc
000003d0: 734e 423d b10d 2b3e 0908 ffbd 4e7a ffbc
000003e0: 3de1 b13d 5b0f 1fbe 28d8 f6bd 03f0 61be
000003f0: 5c29 70be 2910 a4bd 0bcf 57be 715c 1dbc

kp1.mlp.2.bias f4 [16]
-0.07236332 -0.24622726 -0.23513725 0.07328605 0.024476869 0.20954014 0.18451793 -0.13602093
-0.14644477 0.055192705 -0.23593357 -0.3068779 0.07876504 0.17182961 -0.2929633 -0.049178127
00000000: 3833 94bd 0023 7cbe d2c7 70be ff16 963d
00000010: b783 c83c b191 563e 45f2 3c3e 1249 0bbe
00000020: 9ef5 15be bf11 623d 9298 71be 1a1f 9dbe
00000030: 914f a13d 1af4 2f3e 49ff 95be 016f 49bd

kp2.mlp.0.weight f4 [32, 19]
0.08467869 -0.09646227 -0.0066306116 -0.090269245 -0.16418588 0.13172983 -0.084280185 -0.1925826
-0.18200888 -0.11762929 -0.22219238 -0.02536572 -0.050005946 -0.152838 -0.16947298 0.20765972
0.055602726 -0.100791804 0.093770534 0.84763616 -0.003512312 -0.4041196 -0.077733934 -0.2338971
-0.07489391 -0.08706735 -0.18770258 -0.083306886 0.07015154 0.076101124 -0.11820027 0.016692994
-0.2643282 -0.35372922 0.15131146 -0.12716769 -0.18304686 -0.18138707 0.36812437 0.588683
1.7450365 0.1775082 -0.032822937 0.06813197 0.07971368 0.051156856 -0.020805608 0.0572381
0.10409812 -0.06992643 0.19055751 -0.0042512226 0.053958107 0.12658255 0.14419806 -0.12934107
-0.029362096 -0.51069325 0.23701186 1.2953063 -0.21317165 0.07322727 -0.10460049 -0.18437737
-0.050355136 0.076038204 0.022309514 -0.06749184 0.09112813 -0.042614743 -0.053202372 -0.17889108
0.20320626 -0.08091585 -0.2973725 -0.20509282 0.50354356 0.73308945 0.69795924 -0.028722174
-0.092807315 -0.007593301 0.28541216 0.23004322 0.1832204 0.03937573 0.01563735 0.0987484
0.051706422 0.06868281 0.1086753 -0.12629509 0.068580985 0.1476295 -0.09956602 -0.061645634
-0.021430772 0.055822793 0.033828698 -0.16628851 -0.029369546 -0.18087587 0.08269405 -0.19815604
-0.05407052 0.0084944265 0.18564317 0.05974229 0.12888822 0.054213893 -0.21923622 -0.1529339
-0.22164169 -0.08282397 -0.54078776 -0.37950495 1.1298476 -0.16001351 -0.0630781 0.0865992
0.12339921 0.18728605 0.13116099 -0.012522791 0.055228896 -0.22108048 -0.054699477 -0.22053914
-0.19275795 0.026570646 -0.18536843 -0.055782095 0.08155798 0.18450817 0.5556854 1.1763954
-0.060006026 -0.24015838 0.1536617 -0.1312646 -0.020792043 0.15752588 0.049260758 0.095192105
-0.18512188 0.032831036 0.19242321 -0.27390927 0.1952152 -0.16379404 -0.112947494 -0.16020195
-0.52087575 -0.353166 0.7078833 -0.26303315 -0.25352874 -0.25561687 -0.09244963 0.21221383
-0.0666907 0.07979914 0.1178623 0.038610876 -0.1782224 -0.23084456 -0.17436191 0.22449021
-0.12771165 -0.23273523 -0.22288142 0.13966146 -0.4511968 0.9489072 -0.1816798 0.13773808
0.0052324813 -0.029407742 -0.089822516 -0.13912357 0.17650342 -0.23858386 -0.2599722 -0.19152385
-0.16714069 -0.017735358 -0.10442473 -0.06694033 -0.2515525 -0.2344117 -0.30856085 -0.2624732
-1.1756431 -0.015378747 -0.2974716 0.11370189 -0.19459112 -0.06610861 0.114416994 0.068568565
0.000921088 -0.16418532 -0.12183785 -0.28910187 -0.095905446 -0.05522169 0.14803374 -0.3017724
0.077932276 -0.3578508 -0.043969244 1.2834975 0.17923655 -0.17557642 0.11492619 -0.06099671
0.11926978 -0.119263515 -0.24408203 -0.034779765 -0.041843664 -0.24453242 -0.10587298 0.027519438
0.1689101 0.2244539 -0.09748709 -0.19907007 -0.12618004 0.46487042 -0.015859045 -0.08990388
0.20443852 -0.019527597 0.14772677 0.011536774 0.15288182 -0.1827215 -0.2518199 -0.20977934
-0.12839562 -0.11826718 -0.12390367 -0.12963358 0.1483126 0.15492511 -0.11883503 -0.55556536
-0.32569703 -0.094498165 0.19196883 -0.15798979 0.15848027 0.29050362 -0.11792209 0.02087667
00000000: 056c ad3d 038e c5bd 9a45 d9bb 15df b8bd
00000010: 5820 28be 2fe4 063e 179b acbd 6034 45be
00000020: 8960 3abe a0e7 f0bd 6686 63be c5cb cfbc
00000030: 09d3 4cbd 9181 1cbe 538a 2dbe c0a4 543e
00000040: afbf 633d ef6b cebd c40a c03d affe 583f
00000050: d12e 66bb c4e8 cebe f832 9fbd b982 6fbe
00000060: fa61 99bd 5e50 b2bd 1b35 40be cd9c aabd
00000070: 9cab 8f3d e8da 9b3d fc12 f2bd bfbf 883c
00000080: 0756 87be ff1b b5be 64f1 1a3e 3f38 02be
00000090: a370 3bbe 88bd 39be cc7a bc3e eeb3 163f
000000a0: 5b5d df3f b6c4 353e 5871 06bd c688 8b3d
000000b0: ed40 a33d da89 513d 8670 aabc 7f72 6a3d
000000c0: 6531 d53d 9735 8fbd 8221 433e d74d 8bbb
000000d0: 2d03 5d3d db9e 013e a8a8 133e fc71 04be
000000e0: c788 f0bc cbbc 02bf 3db3 723e 99cc a53f
000000f0: ab49 5abe 2ef8 953d c838 d6bd 6ccd 3cbe
00000100: 3041 4ebd ebb9 9b3d 71c2 b63c 2939 8abd
00000110: 63a1 ba3d cc8c 2ebd bbea 59bd 392f 37be
00000120: 4d15 503e 36b7 a5bd 3541 98be da03 52be
00000130: 3be8 003f c0ab 3b3f 75ad 323f c44a ebbc
00000140: c311 bebd 3ad1 f8bb 8b21 923e 7390 6b3e
00000150: 219e 3b3e 7248 213d e619 803c 9a3c ca3d
00000160: 1dca 533d 93a9 8c3d 2891 de3d 8053 01be
00000170: 3074 8c3d 302c 173e 45e9 cbbd 2280 7cbd
00000180: 968f afbc 71a6 643d f68f 0a3d 8947 2abe
00000190: 6798 f0bc 8637 39be 805b a93d 6be9 4abe
000001a0: 0d79 5dbd 352c 0b3c 3e19 3e3e 55b4 743d
000001b0: 46fb 033e 630f 5e3d 767f 60be b49a 1cbe
000001c0: 0af6 62be 9d9f a9bd 1171 0abf 794e c2be
000001d0: d99e 903f 95da 23be 172f 81bd ec5a b13d
000001e0: bab8 fc3d eac7 3f3e 114f 063e 642c 4dbc
000001f0: b237 623d ec62 62be 8f0c 60bd 03d5 61be
00000200: 5762 45be afaa d93c 39d1 3dbe c47b 64bd
00000210: df07 a73d b6ef 3c3e 6641 0e3f 2094 963f
00000220: e1c8 75bd 14ec 75be 7e59 1d3e 3a6a 06be
00000230: 1354 aabc 774e 213e a6c5 493d 14f4 c23d
00000240: 9790 3dbe d679 063d 970a 453e d63d 8cbe
00000250: 7ee6 473e a0b9 27be 0451 e7bd fb0b 24be
00000260: 1d58 05bf 2dd2 b4be d737 353f 48ac 86be
00000270: 85ce 81be 37e0 82be 3b56 bdbd 954e 593e
00000280: 2295 88bd bb6d a33d ca61 f13d 7026 1e3d
00000290: ef7f 36be 8462 6cbe ee8b 32be c3e0 653e
000002a0: d8c6 02be 2552 6ebe 073b 64be 6a03 0f3e
000002b0: 4403 e7be 95eb 723f 450a 3abe 360b 0d3e
000002c0: 3c75 ab3b 81e8 f0bc def4 b7bd 6976 0ebe
000002d0: 50bd 343e 544f 74be 141b 85be d41e 44be
000002e0: ee26 2bbe be49 91bc a2dc d5bd 0318 89bd
000002f0: 7dcb 80be 9f09 70be b0fb 9dbe e362 86be
00000300: 797b 96bf 24f7 7bbc 334e 98be 89dc e83d
00000310: e542 47be f363 87bd 7553 ea3d ad6d 8c3d
00000320: 2b75 713a 3220 28be 1f86 f9bd 2905 94be
00000330: 136a c4bd 2430 62bd 2896 173e e981 9abe
00000340: f59a 9f3d 3838 b7be 1819 34bd a549 a43f
00000350: c989 373e 4eca 33be 6c5e eb3d b0d7 79bd
00000360: b743 f43d 6e40 f4bd a4f0 79be 3a75 0ebd
00000370: 4364 2bbd b566 7abe efd3 d8bd 7270 e13c
00000380: c5f6 2c3e 3ed7 653e 50a7 c7bd 06d9 4bbe
00000390: 5735 01be 7f03 ee3e d4ea 81bc 871f b8bd
000003a0: 5558 513e 57f8 9fbc b045 173e bd04 3d3c
000003b0: 0d8d 1c3e 581b 3bbe 8aee 80be 65d0 56be
000003c0: 247a 03be 1036 f2bd 35c1 fdbd aabe 04be
000003d0: 42df 173e b0a4 1e3e c85f f3bd 8839 0ebf
000003e0: c3c1 a6be 4188 c1bd 7a93 443e 13c8 21be
000003f0: a748 223e e4bc 943e 2381 f1bd 8d05 ab3c

kp2.mlp.0.bias f4 [32]
-0.22895958 0.07774957 0.049847953 0.41957524 0.10358062 -0.10314423 0.21206146 -0.021131674
0.31675616 0.045504015 -0.07374243 0.10400442 0.23946391 -0.11112094 0.26038438 0.27455148
0.19128454 0.052118886 0.29629532 -0.170115 0.07325213 0.19459422 0.0059238174 0.066387855
-0.27248317 0.16505578 0.19400324 -0.06257027 0.16991231 -0.1935176 -0.14778054 0.05518155
00000000: 6174 6abe 2b3b 9f3d 5e2d 4c3d 91d2 d63e
00000010: 1322 d43d 483d d3bd a426 593e 551c adbc
00000020: dd2d a23e 6b62 3a3d 4506 97bd 4500 d53d
00000030: 0736 753e 6093 e3bd 1a51 853e 0392 8c3e
00000040: 18e0 433e 9d7a 553d 05b4 973e a032 2ebe
00000050: 3605 963d b543 473e 951c c23b 5bf6 873d
00000060: ea82 8bbe 6204 293e c9a8 463e d724 80bd
00000070: 7efd 2d3e 7a29 46be c853 17be 0d06 623d

kp2.mlp.2.weight f4 [32, 32]
0.1492457 0.01800378 0.37066045 0.059601434 0.28215513 0.13135915 0.01190946 0.20788424
-0.026482837 -0.24175818 0.045611154 0.15058163 -0.007845312 0.10623168 0.20001212 -0.053839333
-0.35278055 -0.015853647 -0.083022065 0.08168203 -0.11606943 -0.062103204 0.013899193 0.4753769
0.07080149 0.13489595 0.01195023 0.036290407 -0.15017423 -0.08829887 -0.08291313 -0.06036853
-0.15151674 -0.35925344 -0.27466193 -0.10577682 -0.3491923 -0.10053925 0.08543109 0.02929293
0.084993884 0.024064586 0.09475698 0.18010014 0.1860584 0.20207103 -0.20504235 -0.28795245
-0.09369512 -0.19353944 -0.2576864 0.06568897 0.13562447 0.0074350606 0.247183 0.27281103
-0.12985761 0.090014525 -0.16852792 0.1662395 0.076771475 -0.014071851 0.117309324 -0.006992227
0.07740328 0.039698783 -0.12585633 0.0152112255 -0.270942 0.09007127 -0.039675638 0.11390957
-0.1424295 -0.20944428 0.16660525 -0.19354324 0.072464556 -0.06665235 -0.18598999 -0.35950556
-0.2805857 -0.26751578 -0.08760282 0.24161002 -0.21632633 -0.3290661 0.078857884 -0.5210975
0.12243355 -0.21672744 -0.16330779 -0.17123958 -0.06071985 0.504662 0.047500283 -0.065294676
-0.1230774 -0.027633214 0.19908483 -0.07778709 0.10608132 -0.051199067 0.044238836 0.052358087
-0.082781866 -0.010942972 -0.24437936 -0.129336 -0.09707108 -0.13947514 0.22488528 0.12872702
-0.26350278 -0.021412123 -0.043290786 0.1812988 0.0414026 -0.032959457 -0.13092999 0.06947887
0.025533106 0.026834587 0.28388053 0.2673163 -0.05442142 0.07369725 0.10849345 -0.16104804
0.15686347 -0.18925765 -0.50706214 -0.27725184 -0.2793704 -0.13637444 -0.068024084 -0.25485435
-0.039115608 -0.0025170096 0.18026347 -0.1601399 -0.17095704 0.08982447 -0.03265037 -0.30392018
-0.06607048 -0.38893557 -0.11939352 0.101964176 -0.02259486 -0.11268411 0.05972249 -0.25106135
0.25310674 -0.35588345 -0.23177713 0.26585764 0.09111 -0.33855122 0.1858629 0.27835065
0.003971162 -0.12105162 0.032934185 -0.29565644 0.32152465 -0.03017324 0.025338605 0.10036755
-0.11018712 -0.05888173 -0.08237909 -0.02815361 0.04466445 0.081934676 -0.080243215 0.22383893
-0.2601884 0.011772218 0.20832878 0.05255859 -0.026313882 -0.051011305 0.105939634 0.27018186
0.19394948 0.043744426 0.25202373 -0.021242695 -0.19979665 0.14581655 0.21763463 -0.20193838
-0.058871772 0.15420297 -0.22183986 -0.41940776 -0.023920603 0.0021369695 -0.20967394 -0.20941652
-0.030496517 -0.114284776 0.15317056 -0.023421802 -0.09808135 -0.13339691 -0.14491175 0.19959873
-0.1244071 0.103063285 0.23422459 0.24485877 0.084159575 0.009100145 -0.07792219 -0.18585585
0.25707376 -0.03761659 -0.041684452 0.2698624 -0.24002609 -0.37804148 0.17925502 -0.014191698
0.094272606 -0.25136113 -0.0026297083 -0.0074430816 -0.35208607 -0.029537695 0.23003025 0.007481374
0.21689875 -0.15719444 -0.1632917 0.007675189 -0.058585573 0.0657563 -0.07177237 -0.27600378
0.119311556 0.10867369 -0.27370661 -0.059805226 0.1388321 0.115354314 0.22542524 -0.03267799
0.10218237 0.12336297 0.106126234 0.1819476 0.204648 0.034386553 -0.113307126 -0.11919785
00000000: ddd3 183e aa7c 933c 35c7 bd3e a220 743d
00000010: a376 903e 0383 063e e51f 433c 9bdf 543e
00000020: 89f2 d8bc 758f 77be c3d2 3a3d 1232 1a3e
00000030: a089 00bc ff8f d93d facf 4c3e a286 5cbd
00000040: a79f b4be 82df 81bc 7907 aabd e848 a73d
00000050: cfb5 edbd ee5f 7ebd 71b9 633c 9a64 f33e
00000060: 5f00 913d 2a22 0a3e e6ca 433c 40a5 143d
00000070: 46c7 19be 0ad6 b4bd 5cce a9bd fe44 77bd
00000080: 3427 1bbe 11f0 b7be 7da0 8cbe 84a1 d8bd
00000090: 55c9 b2be 86e7 cdbd 7ff6 ae3d baf7 ef3c
000000a0: 4611 ae3d 1823 c53c f30f c23d 2c6c 383e
000000b0: 1886 3e3e b5eb 4e3e 9ff6 51be 816e 93be
000000c0: 3ae3 bfbd 342f 46be 79ef 83be f087 863d
000000d0: 24e1 0a3e cfa1 f33b 8a1d 7d3e e3ad 8b3e
000000e0: 65f9 04be 8959 b83d 9592 2cbe b03a 2a3e
000000f0: 5d3a 9d3d 9f8d 66bc df3f f03d 0d1f e5bb
00000100: 9c85 9e3d 319b 223d 7be0 00be 8138 793c
00000110: e9b8 8abe 4977 b83d ec82 22bd 6c49 e93d
00000120: 0ad9 11be 9078 56be 919a 2a3e 3330 46be
00000130: 4c68 943d 0781 88bd 2974 3ebe 1d11 b8be
00000140: eea8 8fbe d4f7 88be 1b69 b3bd 9e68 773e
00000150: a684 5dbe 5a7b a8be 3e80 a13d a566 05bf
00000160: 71be fa3d cced 5dbe 283a 27be 6e59 2fbe
00000170: 61b5 78bd 8731 013f a88f 423d 37b9 85bd
00000180: 0110 fcbd 0d5f e2bc e5dc 4b3e d64e 9fbd
00000190: 2a41 d93d 1db6 51bd c833 353d 6f75 563d
000001a0: 8a89 a9bd 274a 33bc 953e 7abe a870 04be
000001b0: 34cd c6bd 92d2 0ebe 5448 663e 04d1 033e
000001c0: d6e9 86be 7a68 afbc ae51 31bd 65a6 393e
000001d0: c695 293d 7f00 07bd 8312 06be f04a 8e3d
000001e0: ce2a d13c 35d4 db3c ca58 913e afdd 883e
000001f0: ffe8 5ebd 95ee 963d d031 de3d c7e9 24be
00000200: d1a0 203e c2cc 41be d3ce 01bf f4f3 8dbe
00000210: a309 8fbe bea5 0bbe 3650 8bbd 457c 82be
00000220: b037 20bd 6af4 24bb fd96 383e b7fb 23be
00000230: 5d0f 2fbe e4f5 b73d 65bc 05bd 6d9b 9bbe
00000240: f64f 87bd 9022 c7be 9784 f4bd 98d2 d03d
00000250: db18 b9bc edc6 e6bd 929f 743d 1d8b 80be
00000260: 3597 813e 5b36 b6be fc56 6dbe 7e1e 883e
00000270: e197 ba3d 9656 adbe d852 3e3e fa83 8e3e
00000280: 8520 823b e9e9 f7bd ffe5 063d 4860 97be
00000290: e19e a43e df2d f7bc e892 cf3c 818d cd3d
000002a0: c9a9 e1bd f82d 71bd 5eb6 a8bd 66a2 e6bc
000002b0: 12f2 363d 5ecd a73d 8e56 a4bd 0836 653e
000002c0: 6a37 85be 43e0 403c 2454 553e ad47 573d
000002d0: 3690 d7bc 3bf1 50bd e1f6 d83d 4755 8a3e
000002e0: b19a 463e 5b2d 333d 4109 813e 2905 aebc
000002f0: 7e97 4cbe ef50 153e 9ddb 5e3e efc8 4ebe
00000300: 8723 71bd 62e7 1d3e fd29 63be 9dbc d6be
00000310: 24f5 c3bc 660c 0c3b c4b4 56be 4971 56be
00000320: d5d3 f9bc 230e eabd bed8 1c3e 14df bfbc
00000330: e0de c8bd 3399 08be bf63 14be 9c63 4c3e
00000340: 26c9 febd d812 d33d 92d8 6f3e 42bc 7a3e
00000350: db5b ac3d c618 153c ab95 9fbd ff50 3ebe
00000360: 2c9f 833e da13 1abd 51bd 2abd 682b 8a3e
00000370: 66c9 75be a78e c1be a18e 373e 4c84 68bc
00000380: ff11 c13d 68b2 80be 2f57 2cbb 18e5 f3bb
00000390: a044 b4be 09f9 f1bc 0d8d 6b3e 5026 f53b
000003a0: b51a 5e3e 94f7 20be f035 27be 2780 fb3b
000003b0: 6df7 6fbd 3dab 863d 64fd 92bd 5e50 8dbe
000003c0: 9e59 f43d 5090 de3d 4623 8cbe 53f6 74bd
000003d0: 012a 0e3e e23e ec3d e0d5 663e 5bd9 05bd
000003e0: fe44 d13d baa5 fc3d b658 d93d 7950 3a3e
000003f0: 3f8f 513e ead8 0c3d 910d e8bd 011e f4bd

kp2.mlp.2.bias f4 [32]
-0.0505224 -0.057406407 -0.05256993 0.03656059 -0.13521151 0.14526138 -0.19202317 -0.034633584
0.08241227 -0.024019958 -0.14315067 -0.077066176 -0.10169542 -0.18169741 0.021543464 -0.038529076
-0.26773697 -0.11434721 -0.080585614 -0.2740656 -0.21109684 -0.06447041 0.0763025 -0.15231416
0.093011886 0.10335658 -0.15427442 -0.012914779 -0.22417438 -0.09480051 0.057705324 0.0896582
00000000: 93f0 4ebd fb22 6bbd 9153 57bd 8fc0 153d
00000010: e374 0abe 66bf 143e b9a1 44be f2db 0dbd
00000020: c4c7 a83d 81c5 c4bc 1796 12be dfd4 9dbd
00000030: b045 d0bd e30e 3abe eb7b b03c aad0 1dbd
00000040: d214 89be df2e eabd 120a a5bd 5452 8cbe
00000050: c529 58be 1009 84bd 7c44 9c3d 3ef8 1bbe
00000060: 047d be3d 9dac d33d 1dfa 1dbe 8298 53bc
00000070: f88d 65be c526 c2bd 6b5c 6c3d b89e b73d

head.0.weight f4 [32, 32]
0.16805428 0.09114921 -0.01470801 0.038178433 0.069348164 0.06853608 -0.043430686 0.21003869
0.22885017 0.03289032 -0.06878291 -0.18140289 -0.16196392 0.2519458 -0.25708959 0.08076141
-0.061732035 -0.021784691 0.19458935 0.18665111 0.07100853 0.055988 -0.13478036 0.31977734
-0.101359926 0.3006103 0.06046111 -0.11247964 -0.005271895 -0.019593125 0.4242057 0.04606901
0.026732301 0.028788058 0.044661477 0.11793544 0.13258234 -0.08042017 0.17031476 -0.19555038
0.06028331 0.15282764 0.18168493 -0.09641471 0.02338328 -0.034787666 -0.13731337 0.054751612
0.01184383 0.12627012 -0.07258088 -0.14520374 -0.0015569781 0.12159622 -0.062139023 -0.09294941
-0.1268823 0.09891185 -0.049695235 -0.001744055 0.18125182 0.09146965 -0.18561897 -0.19478008
0.05409531 -0.20295729 -0.07985262 0.087150924 -0.25102422 -0.16219537 -0.4279231 0.07509694
0.1610751 0.26641285 -0.25295907 -0.22140256 -0.21279946 0.004425521 -0.33073783 0.119357914
-0.27624387 -0.13454051 0.019697515 -0.21408062 -0.055919413 -0.50101227 0.16880251 -0.025003528
0.29406688 -0.13862893 -0.20069438 0.22083223 -0.3056183 -0.1668699 -0.38485265 -0.06729587
-0.013187353 -0.09806867 -0.30578253 0.18425582 -0.26791576 0.09048258 -0.41332704 0.02275642
0.19370084 0.14182134 -0.21567465 -0.26736894 -0.05868334 0.054299437 -0.40624145 -0.050152306
-0.19875027 -0.18078725 -0.28715724 -0.13689935 -0.11589647 -0.5687861 0.028050296 -0.14996795
0.24423279 -0.039038774 0.012249499 0.25689217 -0.34398052 -0.31734505 -0.21385786 0.04801401
0.004066187 -0.028461833 0.5882012 -0.046183452 0.24297652 0.21654467 -0.005809765 -0.042699024
0.1698805 0.016331235 0.1916987 0.14683497 -0.0531289 -0.017231027 0.5267815 0.0042194608
0.002123641 -0.037764166 0.21169935 0.07349261 -0.0721886 0.13424668 -0.0003402975 0.08943685
0.04302403 -0.26972058 0.21418038 0.18678777 0.29067922 0.3569141 0.076990254 -0.21834227
-0.04870189 -0.09372052 0.22148232 0.020228215 0.02636992 0.112571605 -0.034402356 -0.016788337
0.16827768 -0.0033158332 0.07440287 0.17798875 -0.05901996 0.17819944 0.087093875 -0.12993787
0.12438284 -0.031078449 -0.07454913 0.056041133 -0.168406 0.2214611 -0.047991708 0.004107279
0.077594474 0.008900824 -0.06302248 0.051235493 0.24391338 -0.06898249 -0.0129075255 0.14041607
-0.030432139 0.087718524 -0.18500055 0.12781462 -0.32179016 0.20687105 -0.14831272 0.2133051
-0.055909738 0.2824412 -0.098995164 -0.23133582 -0.18961905 0.04819445 -0.16445504 0.14615701
-0.12827325 -0.057873398 -0.12058164 -0.0045682583 -0.08623549 -0.48755223 0.17233467 -0.08104835
0.12754984 0.2037318 -0.040300153 0.14262185 -0.117506094 -0.14763977 0.11303779 -0.0031509455
-0.19797601 -0.047256738 -0.042652942 -0.15628414 0.009022487 -0.15743114 -0.13668318 -0.06072289
-0.03523868 -0.105241925 0.0662048 -0.10928317 0.021703731 -0.002317621 -0.03504498 0.120479144
0.08993046 -0.026094168 -0.008033682 0.12476642 0.12816253 -0.021982862 -0.11068638 0.027201762
-0.11672504 0.14946438 -0.13360979 -0.09152482 -0.14963695 -0.12193304 -0.047849514 0.033952724
00000000: 6c16 2c3e 70ac ba3d ddf9 70bc fd60 1c3d
00000010: 6906 8e3d a55c 8c3d 60e4 31bd 6214 573e
00000020: b357 6a3e 00b8 063d 0ede 8cbd aec1 39be
00000030: dfd9 25be 0aff 803e 3fa1 83be 3d66 a53d
00000040: bbda 7cbd cf75 b2bc 6e42 473e 7821 3f3e
00000050: ec6c 913d ac53 653d dd03 0abe dbb9 a33e
00000060: cb95 cfbd 98e9 993e 12a6 773d ba5b e6bd
00000070: dcbf acbb c381 a0bc 7d31 d93e dcb2 3c3d
00000080: b3fd da3c efd4 eb3c f4ee 363d 2388 f13d
00000090: aac3 073e 55b3 a4bd fe66 2e3e 5c3e 48be
000000a0: a2eb 763d d97e 1c3e 9d0b 3a3e 1375 c5bd
000000b0: 4b8e bf3c 837d 0ebd e09b 0cbe 3a43 603d
000000c0: a00c 423c f44c 013e 49a5 94bd 4ab0 14be
000000d0: 8413 ccba 7007 f93d 7d85 7ebd 435c bebd
000000e0: 6fed 01be 4c92 ca3d 3b8d 4bbd c698 e4ba
000000f0: 149a 393e 7154 bb3d e612 3ebe 6e74 47be
00000100: 0b93 5d3d 09d4 4fbe c589 a3bd 2f7c b23d
00000110: 3f86 80be 8b16 26be bd18 dbbe 6dcc 993d
00000120: dff0 243e 4467 883e da83 81be 5ab7 62be
00000130: 1ae8 59be f603 913b 7856 a9be ec71 f43d
00000140: d66f 8dbe fdc4 09be af5c a13c f337 5bbe
00000150: c10b 65bd 5742 00bf 91da 2c3e 33d4 ccbc
00000160: ef8f 963e bef4 0dbe d482 4dbe d821 623e
00000170: 007a 9cbe f1df 2abe 680b c5be 6bd2 89bd
00000180: c40f 58bc 3ad8 c8bd 878f 9cbe 8fad 3c3e
00000190: 412c 89be ee4e b93d 9a9f d3be ac6b ba3c
000001a0: 8359 463e 9d39 113e d1d9 5cbe 95e4 88be
000001b0: f15d 70bd 1669 5e3d e1fe cfbe 816c 4dbd
000001c0: 3185 4bbe 4b20 39be 4606 93be 582f 0cbe
000001d0: 215b edbd f79b 11bf bcc9 e53c 3391 19be
000001e0: 2918 7a3e 1fe7 1fbd 1fb2 483c 5f87 833e
000001f0: 371e b0be 0d7b a2be 8efd 5abe 57aa 443d
00000200: a63d 853b ca28 e9bc 5b94 163f dc2a 3dbd
00000210: d6ce 783e e3bd 5d3e d75f bebb 2ce5 2ebd
00000220: 27f5 2d3e 15c9 853c aa4c 443e e85b 163e
00000230: b09d 59bd 1528 8dbc 27db 063f 6743 8a3b
00000240: c92c 0b3b 99ae 1abd b7c7 583e 4b83 963d
00000250: 9ed7 93bd f677 093e f569 b2b9 ab2a b73d
00000260: f739 303d d118 8abe 1a52 5b3e 4b45 3f3e
00000270: e8d3 943e 72bd b63e 11ad 9d3d 1e95 5fbe
00000280: a27b 47bd 8bf0 bfbd 43cc 623e a4b5 a53c
00000290: bb05 d83c f18b e63d 7ce9 0cbd b287 89bc
000002a0: fc50 2c3e 734e 59bb 8860 983d af42 363e
000002b0: eabe 71bd ea79 363e 465e b23d 6f0e 05be
000002c0: 6ebc fe3d 3b98 febc 37ad 98bd 638b 653d
000002d0: 9f72 2cbe b3c6 623e f492 44bd 5a96 863b
000002e0: dae9 9e3d c3d4 113c ee11 81bd 4fdc 513d
000002f0: 6ec4 793e b146 8dbd 167a 53bc 3bc9 0f3e
00000300: d24c f9bc c5a5 b33d c970 3dbe d6e1 023e
00000310: aec1 a4be 01d6 533e 4adf 17be a76c 5a3e
00000320: 9c01 65bd 229c 903e fabd cabd 4ce3 6cbe
00000330: 7f2b 42be 8b67 453d e766 28be 2faa 153e
00000340: 105a 03be a80c 6dbd 82f3 f6bd 54b1 95bb
00000350: 3c9c b0bd 72a0 f9be 8078 303e adfc a5bd
00000360: 6d9c 023e 129f 503e c611 25bd 760b 123e
00000370: 09a7 f0bd e12e 17be 5b80 e73d 1880 4ebb
00000380: 39ba 4abe 4890 41bd dab4 2ebd f308 20be
00000390: 0ed3 133c a135 21be adf6 0bbe 91b8 78bd
000003a0: 6f56 10bd 1489 d7bd 6296 873d dbcf dfbd
000003b0: 06cc b13c 3ae3 17bb 538b 0fbd c5bd f63d
000003c0: 762d b83d 70c3 d5bc b49f 03bc 8985 ff3d
000003d0: 0a3d 033e 6715 b4bc 8aaf e2bd 3bd6 de3c
000003e0: 8a0d efbd 310d 193e 01d1 08be 5d71 bbbd
000003f0: 6e3a 19be 08b8 f9bd dafd 43bd 0312 0b3d

head.0.bias f4 [32]
0.008681998 -0.14380826 0.25858194 0.34142172 -0.16996868 -0.17499243 0.04859078 0.09942044
0.13207527 0.06287574 0.20663424 -0.0792701 -0.031703036 0.34466785 -0.06968745 -0.0016951505
0.0018693333 0.15158083 -0.19727874 -0.005129979 0.11539337 -0.040496293 0.06373546 -0.18644461
-0.06391227 0.051359575 -0.014460928 0.042485975 -0.049146935 -0.05113659 0.2801905 0.10556658
00000000: f03e 0e3c 7942 13be da64 843e d4ce ae3e
00000010: 450c 2ebe 3731 33be 2007 473d f29c cb3d
00000020: bd3e 073e ffc4 803d ed97 533e 5d58 a2bd
00000030: 0bdb 01bd 4e78 b03e 4bb8 8ebd d02f deba
00000040: 6b04 f53a 0138 1b3e 7003 4abe 6219 a8bb
00000050: 5c53 ec3d 71df 25bd bd87 823d 56eb 3ebe
00000060: 70e4 82bd 6b5e 523d 87ed 6cbc c605 2e3d
00000070: 4c4e 49bd 9a74 51bd 2175 8f3e 4b33 d83d

head.2.weight f4 [3, 32]
0.067250654 0.011283931 0.005411538 -0.107924685 0.5010664 0.14566743 0.015031923 -0.14562024
0.04440007 -0.16951258 -0.14319865 0.11222568 -0.05253952 -0.40721554 -0.07800461 -0.016317548
-0.008533851 -0.012918382 0.014015086 0.24856791 0.38589555 0.80962485 -0.24197878 0.3069084
0.303056 0.029515723 -0.1470744 0.1769978 0.109261826 0.25458574 -0.36715218 -0.14776768
-0.05691544 0.0017941326 -0.3651413 -0.5208558 -0.35756263 -0.23683406 -0.27299544 0.018432217
-0.22650632 -0.25840163 -0.27964154 0.13363783 0.16193251 0.45720902 0.123824574 0.079173595
0.14546189 0.20971453 0.22391824 -0.070867255 -0.23046993 -0.6986365 -0.21269521 0.19949257
0.1862017 -0.28659436 0.15018278 -0.12119569 -0.1558663 0.048362963 0.31039786 0.1973307
-0.22737372 0.102355115 0.24066192 0.08773941 0.022115024 -0.0032717376 -0.021544555 -0.04457529
-0.062196802 0.35172948 0.31433302 0.16378404 -0.095562615 0.29445258 -0.0011027706 0.15681103
-0.2445291 -0.4403253 -0.3750286 -0.10247544 0.034222834 -0.0061098505 0.38460654 -0.33127168
-0.31512973 -0.094297685 0.005129192 0.098864526 -0.32324126 -0.3100577 0.49754664 0.29530233
00000000: b6ba 893d 3de0 383c 4553 b13b 9e07 ddbd
00000010: e345 003f d829 153e 7448 763c 791d 15be
00000020: d9dc 353d b594 2dbe aba2 12be 94d6 e53d
00000030: ae33 57bd 8e7e d0be e2c0 9fbd 61ac 85bc
00000040: 91d1 0bbc 9fa7 53bc 889f 653c 9688 7e3e
00000050: 1a94 c53e 9343 4f3f 49c9 77be 1923 9d3e
00000060: 282a 9b3e f5ca f13c ac9a 16be e93e 353e
00000070: aac4 df3d 1059 823e 5ffb bbbe 6950 17be
00000080: 2a20 69bd 1a29 eb3a cdf3 babe ce56 05bf
00000090: 7312 b7be a184 72be 0fc6 8bbe 29ff 963c
000000a0: 46f1 67be 384d 84be 2d2d 8fbe 5bd8 083e
000000b0: a3d1 253e 4d17 ea3e bd97 fd3d c425 a23d
000000c0: f6f3 143e 68bf 563e d34a 653e da22 91bd
000000d0: 4f00 6cbe d7d9 32bf c6cc 59be c847 4c3e
000000e0: a9ab 3e3e 7fbc 92be 84c9 193e 7235 f8bd
000000f0: 6a9b 1fbe 3e18 463d 78ec 9e3e 0f11 4a3e
00000100: a8d4 68be 8f9f d13d 1470 763e b8b0 b33d
00000110: 912a b53c a66a 56bb 357e b0bc 9494 36bd
00000120: 13c2 7ebd e315 b43e 42f0 a03e 01b7 273e
00000130: 55b6 c3bd 7dc2 963e d78a 90ba 1293 203e
00000140: d665 7abe 5172 e1be c003 c0be a5de d1bd
00000150: 3e2d 0c3d 2435 c8bb 26eb c43e 719c a9be
00000160: af58 a1be 251f c1bd c812 a83b 7c79 ca3d
00000170: e17f a5be e2bf 9ebe 6fbe fe3e de31 973e

head.2.bias f4 [3]
-0.06279199 0.13414465 0.006847973
00000000: 1699 80bd 375d 093e f664 e03b
