GPU/checkpoints_kpconv/kpconv_best_miou_0.0110.pth (torch, 144101 bytes, 32 tensors)

fc_in.weight f4 [8, 3]
0	0xbebc76b9	-0.36809328
1	0xbd5f0228	-0.054445416
2	0x3f109d60	0.56490135
3	0x3f1214f2	0.5706321
4	0xbf06051b	-0.5235154
5	0x3eb68377	0.35647175
6	0x3ebdb8ae	0.37054962
7	0x3f0a7f94	0.5410092
8	0x3e4cb00f	0.19989036
9	0x3ef9cb22	0.4878779
10	0x3eb83b07	0.35982534
11	0xbe1e88bf	-0.15481852
12	0x3e3a0573	0.18166141
13	0xbe5c22cc	-0.21497649
14	0x3ed400b4	0.41406786
15	0x3ebed98f	0.3727536
16	0x3dc90e66	0.098171994
17	0xbe112de2	-0.14177659
18	0xbf041a7d	-0.5160292
19	0x3eeead28	0.46616483
20	0x3eeff227	0.46864435
21	0x3d95ef19	0.07320995
22	0xbed4e228	-0.41578794
23	0x3e1fb287	0.15595447

fc_in.bias f4 [8]
0	0x3e07caf5	0.13261016
1	0xbda71706	-0.08158688
2	0xbeae3039	-0.34021166
3	0x3ed8fc47	0.42379972
4	0x3f0c37e4	0.5477278
5	0x3ef1cd1d	0.47226802
6	0x3db63ad0	0.08897936
7	0x3e5946b1	0.21218373

kpconv1.kernel_weights f4 [15, 8, 16]
0	0xbcd08dfa	-0.025458325
1	0x3e249949	0.16074099
2	0x3f892581	1.071457
3	0x3ed897b2	0.42303234
4	0xbe9be093	-0.30444774
5	0xbeded868	-0.4352448
6	0xbe9aefba	-0.30261022
7	0x3e671db3	0.22569923
8	0xbe727968	-0.23679125
9	0xbedd3a6e	-0.4320864
10	0xbf0887b1	-0.5333205
11	0x3f2f4b77	0.68474525
12	0xbe83e30b	-0.25759158
13	0xbf246abb	-0.6422536
14	0xbf1a90a8	-0.6037698
15	0xbd8c240d	-0.06842814
16	0xbd6c8ddf	-0.057752486
17	0x3f7aa7a7	0.9791207
18	0xbe5e84d7	-0.21730362
19	0x3ebdc2bc	0.37062633
20	0x3ec557f7	0.38543674
21	0xbe919dd2	-0.2844072
22	0xbf3134b4	-0.69221044
23	0x3f390e43	0.72287387
24	0xbd829831	-0.063766845
25	0x3e4e0ccd	0.2012207
26	0x3e635c64	0.22203213
27	0x3f776dd5	0.96651965
28	0x3f39d74b	0.72594136
29	0x3eb9dcdb	0.36301312
30	0x3e9ab7a0	0.3021822
31	0x3f4ce062	0.8002988
32	0x3c68e296	0.014214179
33	0xbee9f6ef	-0.45696208
34	0x3e81fec2	0.25389677
35	0x3fa9cfc5	1.3266531
36	0xbcc436c9	-0.023951905
37	0x3f3225cc	0.69588923
38	0xbf24dff6	-0.6440424
39	0xbf3f6a46	-0.74771535
40	0x3f5069c4	0.81411386
41	0xbf2ab522	-0.66682637
42	0x3e10e2d4	0.14149028
43	0x3f18bff8	0.5966792
44	0xbed5eaff	-0.4178085
45	0x3e8828eb	0.26593718
46	0x3ef96ab1	0.48714212
47	0x3e891c89	0.26779583
48	0x3e0aecdf	0.13566922
49	0xbf753771	-0.9578772
50	0xbf09c55c	-0.5381677
51	0x3e95cc16	0.29257268
52	0x3ebb42aa	0.36574298
53	0xbe4d9ad5	-0.20078595
54	0x3e9c0d37	0.30478832
55	0xbef0bc1b	-0.47018513
56	0xbced68a5	-0.028980562
57	0xbe20fd23	-0.15721564
58	0x3f65b2f3	0.8972618
59	0xbea96c7c	-0.3309058
60	0x3f28201f	0.6567401
61	0xbf16b9dc	-0.5887735
62	0xbf102109	-0.5630041
63	0xbd5043f4	-0.050846055
64	0x3ecbf816	0.39837712
65	0x3df3f271	0.119114764
66	0xbfa1769f	-1.2614325
67	0xbe8ceaba	-0.27522832
68	0xbf5393cb	-0.8264739
69	0xbf0cd8e1	-0.5501843
70	0x3fa8cee6	1.318814
71	0x3f3629f3	0.7115776
72	0xbeaff3ad	-0.34365597
73	0xbd18f568	-0.037343413
74	0x3ef62eb7	0.48082516
75	0xbded31b8	-0.11581749
76	0xbe9ebd49	-0.31003788
77	0x3f7ead35	0.9948304
78	0xba95fc23	-0.001144294
79	0x3f45b935	0.7723573
80	0xbf1b7d34	-0.6073792
81	0x3f147516	0.5799116
82	0xbd7cc081	-0.061707024
83	0xbf19ca17	-0.6007399
84	0x3f3002f8	0.6875453
85	0xbe61a3f1	-0.22035195
86	0x3ed7f825	0.42181507
87	0xbea48910	-0.3213582
88	0x3dea1e7f	0.11431598
89	0x3e74ce48	0.23906815
90	0x3e02e167	0.12781297
91	0xbbc79ab9	-0.0060914424
92	0xbf7483e4	-0.9551375
93	0xbf9c44c1	-1.2208482
94	0x3ea6cfaf	0.32580325
95	0x3f8820f2	1.0635054
96	0xbd40675a	-0.046973564
97	0xbf1ca07f	-0.611824
98	0xbf943278	-1.1577902
99	0x3e1ff256	0.15619788
100	0xbf1cd1f2	-0.6125785
101	0x3e817274	0.25282633
102	0x3e09fa8a	0.1347448
103	0xbe8f4efe	-0.27989954
104	0x3de4a557	0.111643486
105	0x3e65e277	0.2244967
106	0x3cf7ff33	0.030273056
107	0x3e4d8fe9	0.20074429
108	0xbee4fbe7	-0.44723436
109	0x3f0ee63b	0.55820054
110	0x3f9c5827	1.2214402
111	0x3e711bb6	0.23545727
112	0xbf73dd49	-0.9525953
113	0xbdf8e7c9	-0.121535845
114	0x3e81cbaf	0.2535071
115	0xbe4cf70c	-0.20016116
116	0xbea45eda	-0.32103616
117	0xbecdeb5f	-0.40218636
118	0xbd56900f	-0.05238348
119	0x3eeccaca	0.46248466
120	0xbda0c45a	-0.07849951
121	0x3eb2f457	0.34952042
122	0xbf053f51	-0.5204974
123	0xbf64fd20	-0.8944874
124	0x3cfe200d	0.031021142
125	0xbf4e53b3	-0.80596465
126	0xbc8e6cc5	-0.01738585
127	0xbe6680ff	-0.22510146
128	0x3f6a047b	0.91413087
129	0x3f2319a8	0.63711023
130	0xbe005987	-0.12534152
131	0xbd36e39a	-0.04465065
132	0xbf842117	-1.0322598
133	0xbec16e2b	-0.37779364
134	0xbf3a3db7	-0.7275042
135	0x3f3dad6c	0.74092746
136	0xbd7ac946	-0.061227106
137	0xbf208218	-0.6269851
138	0x3f2473da	0.64239275
139	0x3db27ea1	0.08715559
140	0x3e39ab4b	0.1813175
141	0x3c14e696	0.009088179
142	0xbfc13652	-1.5094702
143	0x3e6b9846	0.23007306
144	0x3e1e7339	0.15473641
145	0xbe5fc606	-0.21852884
146	0xbd9c3ec2	-0.076291576
147	0xbed4d568	-0.41569066
148	0xbe27c5ab	-0.16383998
149	0xbdd738aa	-0.10508855
150	0x3d5fa1bd	0.054597605
151	0x3f45076f	0.7696447
152	0x3ef8b4ac	0.48575342
153	0x3f6284cf	0.884839
154	0xbf846bcd	-1.0345398
155	0xbf25d8cd	-0.64783937
156	0x3f41f80d	0.7576912
157	0x3dceb2e0	0.100927114
158	0x3e909f97	0.28246757
159	0x3e74d057	0.239076
160	0x3ecfa4ea	0.40555507
161	0xbf25a7c0	-0.6470909
162	0x3e94b694	0.29045546
163	0xbf0c1346	-0.5471691
164	0x3f842b47	1.0325707
165	0x3fab6068	1.3388796
166	0x3c302cc7	0.010752863
167	0xbed53106	-0.41638964
168	0x3e405777	0.18783365
169	0xbeb3f476	-0.35147446
170	0x3be5603d	0.006999998
171	0xbe89e9de	-0.2693624
172	0x3ea0c07f	0.31396863
173	0x3e9c26a0	0.3049822
174	0x3eeca5d6	0.46220273
175	0xbdfbefb0	-0.12301576
176	0xbf141c3d	-0.5785559
177	0x3ec4ae9b	0.38414463
178	0x3da4e6cb	0.08051833
179	0x3f727d0a	0.94722044
180	0x3f3511f2	0.7073051
181	0x3e9f0483	0.3105813
182	0xbf2542c8	-0.64555025
183	0xbe475b2c	-0.19468373
184	0x3e9477af	0.2899756
185	0x3f04e195	0.5190671
186	0x3edbc8a4	0.42926514
187	0xbdf50633	-0.11964073
188	0x3cb9318d	0.022606635
189	0xbf11571d	-0.5677355
190	0x3ef4f79e	0.47845167
191	0xbe4c3117	-0.19940601
192	0xbee2face	-0.44331974
193	0xbebaca8a	-0.3648265
194	0xbdcc6d67	-0.09981804
195	0xbf3fcaaf	-0.74918646
196	0xbe4135ec	-0.18868226
197	0xbf0e7055	-0.55640155
198	0xbf467acf	-0.7753114
199	0x3f6a4a4a	0.91519606
200	0x3fbe686e	1.487562
201	0xbe09d30d	-0.13459416
202	0xbecd9398	-0.40151668
203	0xbe8f3dfd	-0.2797698
204	0x3f5a9231	0.8537932
205	0x3fa28132	1.2695677
206	0x3e1e8a18	0.15482366
207	0x3f60b01d	0.8776873
208	0xbd62e2c6	-0.05539205
209	0xbdbdd168	-0.09268457
210	0x3f5c0426	0.8594383
211	0x3f0b77ae	0.5447949
212	0xbf23143a	-0.6370274
213	0xbe0aa8c0	-0.13540936
214	0x3e21a8fe	0.15787122
215	0xbf21f72f	-0.632678
216	0x3f84f070	1.0385876
217	0xbd8adeb2	-0.06780757
218	0xbfa5afa5	-1.2944227
219	0x3e05dd0a	0.13072601
220	0x3c37ee6d	0.011226279
221	0x3e5c0a7e	0.21488377
222	0x3f150e65	0.5822509
223	0x3e2bdc48	0.1678325
224	0x3df13f39	0.11779637
225	0x3ecf80b8	0.40527892
226	0xbaf56d6f	-0.001872463
227	0xbf03f5c2	-0.5154687
228	0xbee17083	-0.44031152
229	0x3e7525f6	0.23940262
230	0x3e780e14	0.2422412
231	0x3f4942b6	0.7861742
232	0x3c97af94	0.01851634
233	0x3f041ffe	0.51611316
234	0xbf014f20	-0.5051136
235	0xbe3b25a1	-0.18276073
236	0x3ee634ad	0.44962063
237	0xbea80390	-0.32815218
238	0x3f084d50	0.5324297
239	0x3f6f69e2	0.9352094
240	0x3f28f359	0.6599632
241	0x3f76244e	0.96149147
242	0x3f023980	0.5086899
243	0x3f6435f7	0.89144844
244	0xbf3c6931	-0.7359801
245	0xbe200178	-0.1562556
246	0xbed20bb7	-0.41024563
247	0x3e900a89	0.28133038
248	0x3e970beb	0.2950128
249	0xbecfcba7	-0.40585062
250	0x3f16878a	0.58800566
251	0x3f7ba37b	0.98296326
252	0xbf831f71	-1.024397
253	0xbeaae3f2	-0.33377033
254	0x3f1bcf3f	0.6086311
255	0x3da5a903	0.08088877

kpconv1.bias f4 [16]
0	0xbacb02c9	-0.0015488501
1	0x3ba32be4	0.0049795974
2	0x3b621b16	0.0034501008
3	0xbbbe2726	-0.0058030067
4	0x3b15b535	0.0022843604
5	0xbb96dd14	-0.0046039913
6	0xba2b8f5e	-0.00065444957
7	0xbbbbc743	-0.005730541
8	0x3b9321da	0.0044901194
9	0xbb7460c4	-0.0037289122
10	0x3a9343eb	0.0011235451
11	0x3aad1dfc	0.0013207789
12	0x3ae02228	0.0017100023
13	0xbb9b08e2	-0.0047312835
14	0x3bbc47ff	0.0057458873
15	0x3ae929b2	0.0017788915

kpconv1.kernel_points f4 [15, 3]
0	0x3e02e24b	0.12781636
1	0x3dd6c5ff	0.104869835
2	0xbdcdf2c6	-0.10056071
3	0xb7b00001	-2.0980837e-05
4	0x363c1ce6	2.8031004e-06
5	0xb818dcd3	-3.6445283e-05
6	0x3d20bcb0	0.039242446
7	0xbdb55410	-0.08853924
8	0x3df3d450	0.1190573
9	0xbd8a1482	-0.06742193
10	0xbdac55d8	-0.08414811
11	0xbd43b508	-0.047780067
12	0x3e38d7c9	0.18051066
13	0x3dbe5fe6	0.09295635
14	0x3e00de1a	0.12584725
15	0x3c8373f6	0.016046505
16	0x3c05d2ca	0.008167932
17	0xbca0d627	-0.019633366
18	0xbd245782	-0.040122516
19	0x3e915e75	0.28392377
20	0x3c47331d	0.012158182
21	0x3cef7db7	0.02923475
22	0x3e2eabfb	0.17057793
23	0x3d7b5c3b	0.061367255
24	0xbcbef933	-0.023312187
25	0x3d2b41a6	0.041810654
26	0x3c79dcc0	0.015250385
27	0x3dbea890	0.093094945
28	0xbdbbf0f3	-0.09176817
29	0x3c609a82	0.0137087125
30	0xbd8e1c29	-0.06938965
31	0x3cde011e	0.027100142
32	0x3d25db6e	0.040492468
33	0x3ae86f0f	0.0017733293
34	0x3a99e72c	0.0011741868
35	0x3b3253a8	0.0027210508
36	0x3ce0cfb7	0.027442796
37	0xbcaad01e	-0.020851191
38	0x3ddf5ce8	0.10906392
39	0xbd207ff5	-0.03918453
40	0x3e0da215	0.1383136
41	0x3de0bef5	0.10973922
42	0x3ca58708	0.02020599
43	0xbe1b516b	-0.15167777
44	0xbe316478	-0.17323482

kpconv2.kernel_weights f4 [15, 16, 32]
0	0x3e84f815	0.25970522
1	0xbe896a1e	-0.26838773
2	0x3dc0aa70	0.094075084
3	0xbee81bf7	-0.45333835
4	0x3f253e97	0.6454863
5	0xbf01b3bc	-0.5066488
6	0xbf3d7475	-0.74005824
7	0xbe425075	-0.18976004
8	0x3e5c505e	0.21515033
9	0x3f18c894	0.5968106
10	0xbe2347fa	-0.15945426
11	0xbe897f47	-0.26854917
12	0x3e31a509	0.17348112
13	0x3c14fa59	0.009092891
14	0xbf120c54	-0.5705006
15	0x3ee5537b	0.44790253
16	0xbe5242fa	-0.20533362
17	0x3e2b1fb4	0.16711313
18	0xbbf2355d	-0.0073916153
19	0xbebb71ae	-0.36610168
20	0x3ec69460	0.38785076
21	0x3eb3335c	0.35000122
22	0xbe9fa400	-0.3117981
23	0x3d500e5c	0.050794944
24	0xbecbbe29	-0.39793518
25	0xbec78558	-0.3896892
26	0xbcb917b6	-0.022594314
27	0xbef597cc	-0.47967374
28	0x3db5fa14	0.08885589
29	0x3ce546f6	0.027987938
30	0x3e72acba	0.23698702
31	0x3e05ed06	0.13078699
32	0xbe192c8f	-0.14958404
33	0x3dbe3d57	0.092890434
34	0xbf10daf9	-0.56584126
35	0x3e9a463a	0.30131704
36	0xbeb76e7b	-0.35826477
37	0xbd4ec2a6	-0.0504786
38	0x3c64d128	0.013965882
39	0x3e93b47e	0.28848642
40	0xbeca0a68	-0.39461064
41	0x3f2a7535	0.66585094
42	0x3f14660a	0.579682
43	0x3eb07f82	0.3447228
44	0xbad68fba	-0.0016369738
45	0x3ec9fbc7	0.39449903
46	0x3e503149	0.20331301
47	0xbf6c95c7	-0.9241604
48	0x3f07de27	0.5307335
49	0x3ef1908e	0.471806
50	0xbf40a56c	-0.75252414
51	0xbed8085a	-0.42193872
52	0xbe75b46e	-0.2399461
53	0xbe7bbe63	-0.24584346
54	0xbd68a277	-0.056795564
55	0xbed6024a	-0.4179862
56	0x3e1982ca	0.14991298
57	0xbef3c995	-0.47614732
58	0x3dde5c21	0.10857416
59	0xbdf438c9	-0.119248934
60	0x3e79e2da	0.24402943
61	0xba42643c	-0.0007415449
62	0xbed99445	-0.42495933
63	0x3e23b321	0.15986301
64	0x3d407b8c	0.046992823
65	0xbea09062	-0.31360155
66	0xbf766437	-0.96246666
67	0x3f2307da	0.63683856
68	0x3e792f8e	0.24334547
69	0x3e0c56e6	0.13705024
70	0x3ea62226	0.32447928
71	0x3dd5b63e	0.104351506
72	0x3ede441a	0.43411332
73	0x3b4544fb	0.003010093
74	0xbe9831f2	-0.29725605
75	0x3e4f95f4	0.20272046
76	0xbeb4559c	-0.35221565
77	0x3d7ab535	0.06120797
78	0x3e363edb	0.17797415
79	0xbf3f4f86	-0.7473072
80	0xbe09bfe6	-0.1345211
81	0xbef296de	-0.47380728
82	0x3e287bb0	0.16453433
83	0x3ea475b8	0.32121062
84	0xbd6c0be4	-0.057628527
85	0x3f0464da	0.5171639
86	0x3e8a61cd	0.2702774
87	0x3ec39ecf	0.382071
88	0xbe9baf60	-0.30407238
89	0x3e285455	0.1643842
90	0x3e91e63e	0.28495973
91	0xbd5fc498	-0.054630846
92	0xbcb036a3	-0.021510428
93	0xbd990902	-0.07472421
94	0xbed5322d	-0.41639844
95	0xbec26f61	-0.379756
96	0xbee1752d	-0.4403471
97	0x3ec2a1b4	0.38013995
98	0x3ea78b1c	0.3272332
99	0xba85b8df	-0.0010202191
100	0xbe7efc50	-0.24900937
101	0xbf2ce499	-0.6753631
102	0x3e90ecef	0.28305766
103	0x3e6adb95	0.22935326
104	0x3e39ace3	0.18132357
105	0xbe60415e	-0.21899936
106	0xbe012819	-0.12612952
107	0x3e2b705e	0.16742083
108	0x3e850ba0	0.25985432
109	0x3d7ecd38	0.06220743
110	0xbe50c3a3	-0.2038713
111	0x3f1b6637	0.6070284
112	0x3ee83da9	0.45359543
113	0xbeafaec0	-0.3431301
114	0x3ebe61f8	0.3718412
115	0xbd4e35bb	-0.05034421
116	0x3f20ee11	0.6286326
117	0xbeb47267	-0.35243532
118	0xbc999280	-0.018746614
119	0x3eeea216	0.46608037
120	0x3e2e44cb	0.1701843
121	0x3e29aad2	0.16569069
122	0x3c86f27c	0.016473047
123	0xbe0a8c3e	-0.1353006
124	0x3c2bdd1f	0.010489731
125	0x3d875bde	0.06609319
126	0xbe3e1037	-0.18560873
127	0x3e707216	0.2348102
128	0xbe9f7a03	-0.31147775
129	0xbe06a06f	-0.13147138
130	0x3c81072c	0.01575049
131	0x3d6dfef6	0.058104478
132	0x3efa55b5	0.48893514
133	0x3c5232f1	0.012829528
134	0x3e8fa1ad	0.28053036
135	0xbd0021fe	-0.031282417
136	0xbdc1d4c9	-0.09464414
137	0x3eee3d45	0.4653112
138	0xbea0d6ef	-0.3141398
139	0x3d399978	0.045312375
140	0x3f038599	0.5137573
141	0x3e8083c4	0.2510053
142	0xbf0ca42d	-0.5493801
143	0x3e48bb24	0.19602638
144	0xbed35b2a	-0.4128049
145	0x3f12d8b9	0.5736194
146	0xbed7ff59	-0.42187002
147	0x3ecc3ffa	0.3989256
148	0x3d6f48b1	0.058418933
149	0x3edbe1f7	0.42945835
150	0xbc92b28a	-0.0179074
151	0xbf542b27	-0.82878345
152	0x3ec9c5f9	0.39408854
153	0x3b83aaa1	0.0040181433
154	0xbeba6b6d	-0.36410084
155	0xbf59590e	-0.8490151
156	0xbeb42619	-0.35185316
157	0xbe0ff805	-0.14059456
158	0xbd78dd6a	-0.060758032
159	0xbefa3926	-0.48871726
160	0xbd851c65	-0.064995565
161	0x3e8c4aad	0.27400723
162	0xbc1427cc	-0.009042691
163	0x3ec9c5ef	0.39408824
164	0xbd78ff9c	-0.060790643
165	0xbdd2717f	-0.10275554
166	0x3d6e4a32	0.058176227
167	0xbec387df	-0.381896
168	0xbec826b8	-0.3909204
169	0x3e79d1a2	0.24396375
170	0x3e833ec1	0.25633815
171	0x3dcd30d0	0.10019076
172	0x3b88100f	0.004152305
173	0xbc96dbeb	-0.018415412
174	0xbf01e070	-0.5073309
175	0x3eed83fa	0.46389753
176	0xbdf02f74	-0.11727801
177	0xbe07888f	-0.13235687
178	0xbce71696	-0.028209012
179	0x3e3ad1fc	0.18244165
180	0xbd023da5	-0.03179707
181	0x3e7c41ca	0.24634472
182	0x3e9d6ccf	0.30747077
183	0x3e9f6f80	0.31139755
184	0xbe145cdb	-0.14488547
185	0xbe8c98f8	-0.27460456
186	0xbdbfacca	-0.09359129
187	0xbf142287	-0.57865185
188	0x3c918367	0.017762853
189	0x3c0aba39	0.0084672505
190	0xbeb92868	-0.3616364
191	0xbba1cd62	-0.0049378136
192	0xbe9858e1	-0.2975531
193	0xbe7cd18d	-0.24689312
194	0x3d000b4a	0.031260766
195	0xbe4ece8c	-0.20195979
196	0xbd9030e4	-0.07040575
197	0xbdde5abe	-0.108571514
198	0x3e136db4	0.14397317
199	0x3e35e46b	0.17762916
200	0xbe4b4a21	-0.19852497
201	0x3ec9a976	0.393871
202	0xbf118674	-0.56845784
203	0x3ea142c3	0.31496248
204	0x3ef43cda	0.47702676
205	0xbf5139ea	-0.81728995
206	0xbe214977	-0.15750681
207	0x3e9bbe4c	0.30418622
208	0xbe8332b5	-0.25624624
209	0xbdceb1db	-0.10092517
210	0x3dc173f5	0.09445945
211	0xbea3fb86	-0.32027835
212	0xbe576f4c	-0.2103855
213	0x3c4794ab	0.012181441
214	0xbdbb9877	-0.0915994
215	0xbc972f5f	-0.018455205
216	0xbe87c3d7	-0.265166
217	0x3f0dcee9	0.55393845
218	0x3ed212b6	0.410299
219	0x3f316568	0.6929536
220	0x3eb58c18	0.35458446
221	0xbf745b92	-0.95452225
222	0x3d26d627	0.040731575
223	0xbe93a093	-0.28833446
224	0xbee57dd3	-0.4482256
225	0x3e31a3a3	0.17347579
226	0x3d6a0019	0.057129
227	0x3eafd5fc	0.34342945
228	0x3e814188	0.2524531
229	0xbeea5e71	-0.45775178
230	0xbd629ae1	-0.055323485
231	0xbe4ab706	-0.1979638
232	0xbedf3792	-0.43597084
233	0x3e271852	0.16317871
234	0xbdbf509d	-0.09341548
235	0xbdec9d1d	-0.115534045
236	0x3dbc8578	0.09205145
237	0xbe1364bd	-0.14393897
238	0x3e48e51e	0.19618651
239	0x3e8ce37c	0.27517307
240	0x3e5f50e6	0.21808204
241	0x3e0ab1b9	0.13544358
242	0x3e645512	0.22298077
243	0xbe1270ed	-0.1430089
244	0x3f5666c7	0.83750576
245	0xbe480a64	-0.19535214
246	0x3e40d8cb	0.188327
247	0x3da6d322	0.08145739
248	0xbf1fac33	-0.6237213
249	0xbda99360	-0.08280063
250	0x3ee41bfb	0.44552597
251	0x3e069c07	0.13145457
252	0xbdc4cbcb	-0.09609183
253	0x3cd1005b	0.025512865
254	0xbe6eac53	-0.23307924
255	0xbd3dd889	-0.046349082

kpconv2.bias f4 [32]
0	0x00000000	0.0
1	0xbb4b8ee5	-0.0031060514
2	0x3bb0eac9	0.0053990823
3	0x3b337c23	0.0027387224
4	0xbbc0df2d	-0.0058859796
5	0x3bc4f036	0.0060100807
6	0x3ba91b6c	0.0051607396
7	0xbbb9eb77	-0.0056738215
8	0xbb4ecf83	-0.0031556792
9	0x3b4cc7ea	0.0031247088
10	0x3ba7fdaa	0.0051266747
11	0xbae56c00	-0.00175035
12	0x00000000	0.0
13	0x00000000	0.0
14	0xbba7042d	-0.0050969333
15	0xbb90426a	-0.0044024484
16	0x00000000	0.0
17	0xbba990d6	-0.0051747365
18	0xbb8c7902	-0.004286886
19	0x3b9e2249	0.0048258645
20	0xbaca1da7	-0.0015420214
21	0xbb142982	-0.0022607748
22	0x3b8f42a8	0.0043719597
23	0x00000000	0.0
24	0x00000000	0.0
25	0xbaa86ee5	-0.0012850432
26	0x00000000	0.0
27	0xbbb3e1a0	-0.005489543
28	0x3b9576cb	0.0045612804
29	0xbbc08264	-0.005874919
30	0xbb8ef46f	-0.004362635
31	0xbb8a2282	-0.0042155394

kpconv2.kernel_points f4 [15, 3]
0	0x3e0e1296	0.13874277
1	0xbe3a50f1	-0.18194939
2	0x3e84c851	0.2593408
3	0xba04a327	-0.0005059712
4	0x3db742cc	0.08948287
5	0xbd2dbf78	-0.042418927
6	0xbd7e418a	-0.06207422
7	0x3d87ea0c	0.06636438
8	0x3dd794f6	0.10526459
9	0x3e0104ee	0.12599537
10	0xbe25dd6d	-0.16197748
11	0xbe1a5c38	-0.15074241
12	0xbd97f09d	-0.0741894
13	0xbd8ce340	-0.06879282
14	0x3e984eb3	0.29747543
15	0xbe233351	-0.15937544
16	0x3e22beee	0.15893146
17	0xbe6ce551	-0.23134352
18	0xbd23ce1e	-0.03999149
19	0x3e1c608c	0.15271205
20	0xbcb2e792	-0.021838937
21	0xbea4842f	-0.32132098
22	0xbcff9ca8	-0.03120263
23	0xbd062059	-0.032745693
24	0xbd1267bf	-0.03574347
25	0x3e1842af	0.14869188
26	0xbe55e00c	-0.20886248
27	0x3d93f952	0.072252885
28	0x3e14fa83	0.14548688
29	0x3e5876ee	0.21139118
30	0x3cca1390	0.024667531
31	0xbd44996d	-0.04799788
32	0xbd18325a	-0.037157394
33	0xbe3fb579	-0.1872157
34	0x3e04edcb	0.12981336
35	0xbe35f9fa	-0.1777114
36	0x3e5dd84d	0.21664543
37	0x3e5ea258	0.21741617
38	0x3e5d61b0	0.21619296
39	0xbda2d0c3	-0.079499744
40	0xbdc91e63	-0.09820249
41	0xbc5e58bc	-0.013570961
42	0xbe8d8f7d	-0.27648535
43	0x3e16feb2	0.14745596
44	0x3e209630	0.15682292

fc_mid.weight f4 [32, 32]
0	0xbdd83e84	-0.10558799
1	0x3e0f3a1e	0.13987014
2	0xbd216a24	-0.039407864
3	0x3db5a53e	0.08869408
4	0xbd846392	-0.06464304
5	0xbe2e754d	-0.17036934
6	0x3df8032d	0.12109981
7	0xbe26d030	-0.16290355
8	0x3c9bca5a	0.019017387
9	0xbe2a5811	-0.16635157
10	0x3c8fc881	0.017551662
11	0xbcb16d7e	-0.021658655
12	0xbc53efdc	-0.012935605
13	0x3e134de8	0.14385188
14	0x3d9be844	0.076126605
15	0xbe05f17a	-0.13080397
16	0xbd8a881f	-0.06764244
17	0xbdf1ae85	-0.11800865
18	0xbdf7e45a	-0.121041015
19	0x3e23d189	0.159979
20	0xbddea95c	-0.108721465
21	0xba84f3e0	-0.0010143481
22	0xbe24903f	-0.1607065
23	0xbdc148ab	-0.094376884
24	0x3d038f74	0.03211923
25	0xbd4cae70	-0.049971044
26	0x3cfc9c7e	0.03083634
27	0xba1f3d58	-0.00060745096
28	0xbdd7e60b	-0.10541924
29	0x3e05c5e9	0.13063778
30	0xbdb2d75f	-0.08732485
31	0xbc3484a0	-0.011017948
32	0xbe032422	-0.12806752
33	0x3d4467ba	0.047950484
34	0xbe2220dc	-0.15832847
35	0x3e22e7aa	0.15908685
36	0xbe0d8d9c	-0.13823551
37	0x3cbeecf6	0.023306351
38	0xbde07c71	-0.10961235
39	0xbcb0abdc	-0.021566324
40	0x3dedcdba	0.11611505
41	0xbe0f9495	-0.14021523
42	0xbd625975	-0.055261094
43	0x3d51ca8a	0.051218547
44	0x3d9d0d24	0.07668522
45	0xbdb38144	-0.0876489
46	0xbd3781af	-0.04480141
47	0x3e2ad82f	0.1668403
48	0x3d90c5e5	0.070689954
49	0x3d7bd860	0.06148565
50	0x3d9c1f1f	0.076231234
51	0xbdcd57f8	-0.10026544
52	0x3e28a521	0.16469242
53	0x3e0a8eb6	0.13531002
54	0x3d67cc48	0.056591302
55	0x3dc33208	0.09531027
56	0x3e171a44	0.14756113
57	0x3df7558a	0.12076862
58	0x3d8a3fbe	0.06750439
59	0xbd9b06f1	-0.07569683
60	0xbdf8ac2c	-0.12142214
61	0xbbcee66d	-0.00631409
62	0x3caac55f	0.020846067
63	0x3cd18a18	0.025578544
64	0xbc012018	-0.007881187
65	0xbd95ebc7	-0.073203616
66	0x3e040451	0.12892272
67	0xbc8d59d6	-0.017254751
68	0xbdd517d4	-0.104049355
69	0xbd62a66b	-0.05533449
70	0xbcaf3ada	-0.021390367
71	0x3dd35bd2	0.10320248
72	0xbd9124fb	-0.070871316
73	0xbe324a19	-0.17411079
74	0x3d3c3c2d	0.045955826
75	0x3db49a93	0.08818545
76	0xbdd37215	-0.10324494
77	0x3e283944	0.16428095
78	0xbd569a65	-0.052393336
79	0x3e20804c	0.15673941
80	0x3ddbf894	0.10740772
81	0xbdaa428c	-0.08313474
82	0x3d3a7fc3	0.045532
83	0xbd947e75	-0.07250682
84	0x3c8b4749	0.017001765
85	0x3e0b98b9	0.13632478
86	0xbe1615a0	-0.14656687
87	0xbde0a170	-0.10968292
88	0x3e157bf6	0.14598069
89	0xbd04beb6	-0.03240844
90	0xbe1c8654	-0.15285617
91	0x3dd154bd	0.10221241
92	0xbde96272	-0.1139573
93	0xbd32af8e	-0.043624453
94	0xbd100075	-0.035156686
95	0x3d58ca78	0.052927464
96	0x3cac24f9	0.021013724
97	0x3c9ce7d4	0.019153513
98	0xbdf9173d	-0.121626355
99	0xbc608f05	-0.0137059735
100	0xbd31f434	-0.04344578
101	0x3d2a9354	0.04164441
102	0xbd31688f	-0.043312605
103	0x3d9f9100	0.077913284
104	0xbd0869f1	-0.03330416
105	0xbdad6bf1	-0.08467854
106	0x3cfcb4d7	0.03084795
107	0x3c47e487	0.012200481
108	0x3e2acb23	0.16679053
109	0xbdf4a818	-0.11946124
110	0x3daa2a16	0.083088085
111	0xbe0cc735	-0.13747866
112	0xbd79aaac	-0.06095378
113	0x3da3e6f4	0.08003035
114	0x3d9944ec	0.07483849
115	0x3d7969e6	0.06089201
116	0xbe16d346	-0.14729032
117	0x3d880057	0.0664069
118	0xbcf89d2e	-0.030348387
119	0xbcb72402	-0.022356037
120	0xbde3defe	-0.11126517
121	0xbc4ff326	-0.012692248
122	0xbda21320	-0.07913804
123	0x3d8528b0	0.06501901
124	0xbd399060	-0.045303702
125	0xbe0fed5e	-0.14055392
126	0x3e0db8a0	0.1383996
127	0xbdc03598	-0.09385222
128	0x3e27bbc5	0.16380222
129	0xbe049e40	-0.12950993
130	0x3e086c43	0.13322549
131	0xbdb8da59	-0.090260215
132	0xbdb8c18e	-0.090212926
133	0x3d9de98f	0.077105634
134	0xbdb6860f	-0.089122884
135	0x3d19f7fd	0.037590016
136	0xbdadbf9a	-0.08483811
137	0x3d7e8679	0.062139962
138	0xbe0fa350	-0.14027143
139	0x3dd38505	0.10328106
140	0x3e061d41	0.13097097
141	0x3d7f52df	0.06233489
142	0x3dba2398	0.0908882
143	0xbdfcf57b	-0.12351509
144	0xbe32c060	-0.17456198
145	0xbe053e87	-0.13012134
146	0xbd3f7329	-0.046740685
147	0x3d3eac2d	0.04655092
148	0x3e25f306	0.16205987
149	0x3da7e653	0.08198228
150	0x3e32851d	0.17433591
151	0xbc1e8563	-0.009675357
152	0x3deb1c58	0.114800155
153	0xbe00a7e4	-0.12564045
154	0xba8d4007	-0.0010776528
155	0xbd54b8ca	-0.05193404
156	0x3d87ee86	0.066372916
157	0x3e0cc17d	0.13745685
158	0xbd6b6bc5	-0.057475824
159	0xbe11ee79	-0.14251126
160	0x3d6aee4e	0.05735617
161	0x3d80ac12	0.0628282
162	0xbdb40456	-0.087898895
163	0xbd38fc93	-0.04516275
164	0x3e116b63	0.14201121
165	0xbe3983f5	-0.18116744
166	0xbd52cd8f	-0.051465567
167	0xbd79bf50	-0.060973465
168	0xbdb0f2a5	-0.08640031
169	0xbdc17dcc	-0.09447822
170	0xbe384880	-0.17996407
171	0x3c9fbe6c	0.01949998
172	0xbd873fa3	-0.066039346
173	0xbe03f2a9	-0.12885536
174	0x3e183936	0.14865574
175	0x3db19317	0.08670633
176	0xbe234374	-0.159437
177	0x3d49e326	0.04928889
178	0xbd9efa64	-0.07762602
179	0xbd282e65	-0.04105987
180	0xbdb55c2e	-0.088554725
181	0xbc06d145	-0.008228605
182	0xbe033882	-0.12814525
183	0xbdd75f0c	-0.10516176
184	0x3c825df0	0.015913934
185	0x3e13428d	0.14380856
186	0x3d838ae1	0.064229734
187	0xbb680195	-0.0035401334
188	0xbe2e71e7	-0.17035638
189	0xbd6feb22	-0.05857385
190	0x3e2d548a	0.1692678
191	0xbe28cceb	-0.1648442
192	0xbe0903d1	-0.13380362
193	0xbdad3a2e	-0.084583625
194	0xbdd1e35c	-0.102484435
195	0xbe0e7cc8	-0.13914788
196	0x3d8e74db	0.06955882
197	0x3dd73ed0	0.105100274
198	0xbe2a5603	-0.16634373
199	0x3d61c0cd	0.05511551
200	0xbbdfcf0e	-0.0068301028
201	0xbbdde067	-0.0067711356
202	0xbddeedc9	-0.10885198
203	0xbdb11547	-0.086466365
204	0xbd7432f5	-0.05961891
205	0x3e2f6978	0.17130077
206	0xbd16fd45	-0.03686263
207	0xbe0dfbee	-0.13865635
208	0xbccf98e8	-0.025341466
209	0xbd0473ad	-0.03233688
210	0x3d77b36f	0.060473856
211	0x3abb641b	0.0014296802
212	0x3cc44a7c	0.023961298
213	0x3d5fe9f5	0.05466648
214	0x3d863f5a	0.06555052
215	0x3ca5e957	0.020252867
216	0xbdc71a7d	-0.09721849
217	0xbdd7f11d	-0.105440356
218	0xbe01ed35	-0.12688144
219	0x3dff8ca1	0.12477995
220	0x3c4c5076	0.012470355
221	0x3dcff727	0.101545624
222	0xbd815601	-0.06315232
223	0xbdc99f0a	-0.098447874
224	0x3e11c5c6	0.14235601
225	0x3e2aa711	0.16665293
226	0x3dc71268	0.097203076
227	0xbdd31eff	-0.103086464
228	0xbdc0405e	-0.09387277
229	0x3e2e8e21	0.17046405
230	0x3d526786	0.05136826
231	0x3ca4668d	0.020068431
232	0x3cdf9475	0.02729247
233	0x3deeb693	0.11655917
234	0x3d7f9922	0.0624019
235	0x3de2036e	0.110358104
236	0x3df746f0	0.12074077
237	0xbdbc6408	-0.09198767
238	0xbd3cbad1	-0.0460766
239	0xbd8a5199	-0.06753845
240	0x3dedbf85	0.11608795
241	0xbe036316	-0.12830767
242	0xbe287d25	-0.16453989
243	0x3b87ec75	0.004148061
244	0xbe281d4a	-0.16417423
245	0x3e21709d	0.15765615
246	0x3def7e83	0.11694052
247	0x3e01ead8	0.12687242
248	0x3e0cffd1	0.13769461
249	0x3db9a6f3	0.09065046
250	0x3d5cf1e4	0.053941622
251	0x3dbb27f5	0.091384806
252	0x3e101ff3	0.14074688
253	0xbd881ec3	-0.06646492
254	0xbe0fd45d	-0.14045854
255	0x3dd404c4	0.103524715

fc_mid.bias f4 [32]
0	0x3e30ed8a	0.17278114
1	0x3e04f64d	0.12984581
2	0xbd984b51	-0.074362405
3	0x3e00dd5e	0.12584445
4	0xbde85f09	-0.113462515
5	0x3dc0b955	0.09410349
6	0x3de0b0b9	0.10971207
7	0x3d6da20b	0.058015864
8	0xbcd1608d	-0.025558734
9	0x3dd2e989	0.102984495
10	0xbdee982e	-0.1165012
11	0xbb16ce9e	-0.0023011337
12	0xbd88fb20	-0.06688523
13	0x3d9ce841	0.076614864
14	0xbe0516ca	-0.12996975
15	0xbd3a5a0a	-0.045496024
16	0xbe0f8568	-0.14015734
17	0x3e17b13b	0.14813702
18	0xbcc563c0	-0.024095416
19	0xbde39e0d	-0.1111413
20	0xbe128241	-0.143075
21	0xbc47f6a4	-0.0122048
22	0xbe22c3d2	-0.15895012
23	0x3dfcdbcd	0.12346611
24	0x3d8e1076	0.069367334
25	0x3d9fcb79	0.07802481
26	0x3df86f66	0.121306226
27	0x3d318353	0.04333813
28	0x3dbdb2c1	0.0926261
29	0xbc4c3752	-0.012464361
30	0x3c569570	0.013097152
31	0xbdbf10be	-0.09329365

fc_out.weight f4 [3, 32]
0	0x3b7c4114	0.0038490938
1	0xbdb1b1b8	-0.08676475
2	0xbe2d0f5f	-0.16900395
3	0x3d1c9dbc	0.038236365
4	0x3b286579	0.0025695248
5	0xbdf4c270	-0.119511485
6	0xbe0cc0a0	-0.13745356
7	0xbdd1317d	-0.10214517
8	0x3d216aca	0.039408483
9	0xbcb68d5f	-0.022284208
10	0x3de2221a	0.110416606
11	0xbc8115d7	-0.015757484
12	0xbd9494e0	-0.07254958
13	0xbddb312b	-0.107027374
14	0xbcd809b1	-0.026371809
15	0x3e195b31	0.14976193
16	0xbdc45c68	-0.095879376
17	0x3cbbb696	0.022914212
18	0x3d1ab830	0.03777331
19	0xbcc43193	-0.02394942
20	0xbde9ca1a	-0.11415501
21	0x3e27fc35	0.16404803
22	0xbd72f993	-0.059320044
23	0xbdb5a87a	-0.08870025
24	0x3daf4e97	0.08559912
25	0x3e217441	0.15767004
26	0xbd9c8a59	-0.07643575
27	0x3e11eb16	0.14249834
28	0xbe24f92b	-0.16110675
29	0xbcc87bcc	-0.024473093
30	0xbc501790	-0.01270093
31	0xbd9f8fbf	-0.07791089
32	0x3c1da942	0.009622874
33	0x3dcb5f1f	0.09930252
34	0xbdb0ed81	-0.0863905
35	0xbd6af2c2	-0.05736042
36	0x3de972c6	0.113988444
37	0x3c9e7052	0.019340668
38	0x3dea309e	0.11435054
39	0xbd6736b0	-0.05644864
40	0xbd8c792a	-0.06859048
41	0xbd999037	-0.0749821
42	0xbe1ee16d	-0.1551568
43	0x3d3e31ea	0.04643432
44	0x3dc2580e	0.09489451
45	0x3d0c4137	0.03424188
46	0x3be9ddab	0.0071370206
47	0xbd2f6728	-0.042822987
48	0xbd84cbc3	-0.06484177
49	0x3e0da627	0.13832913
50	0xbdf24560	-0.118296385
51	0x3ccb1aee	0.024793115
52	0xbdb0c508	-0.08631331
53	0x3d94a030	0.07257116
54	0x3d1a700a	0.037704505
55	0xbe0b70cc	-0.13617247
56	0xbd9d5dd5	-0.07683913
57	0x3dda4f24	0.10659626
58	0x3d12e42a	0.035862125
59	0xbd4cba51	-0.049982373
60	0x3d4b243a	0.049595095
61	0xbde11df1	-0.10992039
62	0x3dc3842b	0.095466934
63	0xbc461109	-0.012089022
64	0xbdce41ee	-0.10071169
65	0x3dd9cb85	0.106345214
66	0x3db48305	0.088140525
67	0xbc2257fe	-0.009908674
68	0x3dee7ce4	0.11644915
69	0x3db3c065	0.08776931
70	0x3e2525e6	0.16127738
71	0x3d933fec	0.071899265
72	0x3d516c70	0.051128805
73	0x3e23d2eb	0.15998428
74	0xbdf4fcb4	-0.11962262
75	0xbda458b3	-0.080247305
76	0xbab498c3	-0.0013778437
77	0xbdb481b3	-0.08813801
78	0x3d90db36	0.07073061
79	0x3c7d3612	0.015454786
80	0xbe28d94e	-0.16489145
81	0x3d1ab1d3	0.037767243
82	0x3b9b6b21	0.0047429954
83	0xbb969cc4	-0.0045963246
84	0xbb5c1fd0	-0.0033588298
85	0xbde5d55f	-0.11222338
86	0xbe0886d6	-0.13332686
87	0xb98aa01a	-0.00026440696
88	0x3d35338e	0.04423862
89	0x3ded7359	0.115942664
90	0x3de56172	0.11200227
91	0x3db380ff	0.087648384
92	0x3e269916	0.16269335
93	0x3d9e5934	0.07731858
94	0x3c16b2ca	0.0091979
95	0x3db9d874	0.09074488

fc_out.bias f4 [3]
0	0xbe0ffaaf	-0.14060472
1	0x3dfd6e09	0.12374503
2	0xbe312fb5	-0.17303355

exp_avg f4 [8, 3]
0	0xb917598b	-0.0001443384
1	0xb91d18a0	-0.0001498186
2	0xb4488865	-1.8676072e-07
3	0xb798db8b	-1.8222045e-05
4	0xb7e0b4e4	-2.6787115e-05
5	0x348d8023	2.6356528e-07
6	0x00000000	0.0
7	0x00000000	0.0
8	0x00000000	0.0
9	0xb91aff0f	-0.00014781601
10	0x389e7185	7.555172e-05
11	0xb39447a3	-6.904818e-08
12	0x37ec4d45	2.8169374e-05
13	0xb989c121	-0.00026274569
14	0x341d9aa9	1.467803e-07
15	0x39c21937	0.0003702135
16	0x39df401b	0.00042581637
17	0x349535d0	2.7792566e-07
18	0xb96338fc	-0.00021669635
19	0xb8594123	-5.1797495e-05
20	0xb2fc1a67	-2.9348667e-08
21	0xb7cd47aa	-2.4471276e-05
22	0xb906fb37	-0.0001287282
23	0x339587ff	6.963091e-08

exp_avg_sq f4 [8, 3]
0	0x30250af3	6.004221e-10
1	0x309cdd17	1.1413331e-09
2	0x273b1963	2.5965225e-15
3	0x2f38d7a5	1.6811315e-10
4	0x2f736b9c	2.2138952e-10
5	0x27a0830b	4.4551e-15
6	0x00000000	0.0
7	0x00000000	0.0
8	0x00000000	0.0
9	0x31439830	2.8462743e-09
10	0x3086ddb9	9.812801e-10
11	0x279e7275	4.3977904e-15
12	0x31e19837	6.5656667e-09
13	0x31817953	3.768187e-09
14	0x2885f599	1.4872477e-14
15	0x3218fa2c	8.904447e-09
16	0x31e786c1	6.7383046e-09
17	0x280bf923	7.770073e-15
18	0x31352cc9	2.6364424e-09
19	0x2efd475c	1.1517784e-10
20	0x254c10cb	1.7699869e-16
21	0x30f401ee	1.7753885e-09
22	0x3081f76d	9.456308e-10
23	0x273b5102	2.5995378e-15

exp_avg f4 [8]
0	0x397ab3be	0.00023908817
1	0x37da8176	2.604791e-05
2	0x00000000	0.0
3	0xb949b6c1	-0.00019236935
4	0x3a121a92	0.00055734173
5	0xba5d5edd	-0.00084446167
6	0x39701f93	0.00022899946
7	0x398c6c98	0.0002678379

exp_avg_sq f4 [8]
0	0x30f3b76b	1.7732708e-09
1	0x2fd8d73c	3.9443104e-10
2	0x00000000	0.0
3	0x3186dbe5	3.9249124e-09
4	0x3234e7ff	1.0530129e-08
5	0x328854c4	1.587103e-08
6	0x31405328	2.7986946e-09
7	0x313f8ca0	2.7874094e-09

exp_avg f4 [15, 8, 16]
0	0x00000000	0.0
1	0x00000000	0.0
2	0x00000000	0.0
3	0x00000000	0.0
4	0x00000000	0.0
5	0x00000000	0.0
6	0x00000000	0.0
7	0x00000000	0.0
8	0x00000000	0.0
9	0x00000000	0.0
10	0x00000000	0.0
11	0x00000000	0.0
12	0x00000000	0.0
13	0x00000000	0.0
14	0x00000000	0.0
15	0x00000000	0.0
16	0x00000000	0.0
17	0x00000000	0.0
18	0x00000000	0.0
19	0x00000000	0.0
20	0x00000000	0.0
21	0x00000000	0.0
22	0x00000000	0.0
23	0x00000000	0.0
24	0x00000000	0.0
25	0x00000000	0.0
26	0x00000000	0.0
27	0x00000000	0.0
28	0x00000000	0.0
29	0x00000000	0.0
30	0x00000000	0.0
31	0x00000000	0.0
32	0x00000000	0.0
33	0x00000000	0.0
34	0x00000000	0.0
35	0x00000000	0.0
36	0x00000000	0.0
37	0x00000000	0.0
38	0x00000000	0.0
39	0x00000000	0.0
40	0x00000000	0.0
41	0x00000000	0.0
42	0x00000000	0.0
43	0x00000000	0.0
44	0x00000000	0.0
45	0x00000000	0.0
46	0x00000000	0.0
47	0x00000000	0.0
48	0x00000000	0.0
49	0x00000000	0.0
50	0x00000000	0.0
51	0x00000000	0.0
52	0x00000000	0.0
53	0x00000000	0.0
54	0x00000000	0.0
55	0x00000000	0.0
56	0x00000000	0.0
57	0x00000000	0.0
58	0x00000000	0.0
59	0x00000000	0.0
60	0x00000000	0.0
61	0x00000000	0.0
62	0x00000000	0.0
63	0x00000000	0.0
64	0x00000000	0.0
65	0x00000000	0.0
66	0x00000000	0.0
67	0x00000000	0.0
68	0x00000000	0.0
69	0x00000000	0.0
70	0x00000000	0.0
71	0x00000000	0.0
72	0x00000000	0.0
73	0x00000000	0.0
74	0x00000000	0.0
75	0x00000000	0.0
76	0x00000000	0.0
77	0x00000000	0.0
78	0x00000000	0.0
79	0x00000000	0.0
80	0x00000000	0.0
81	0x00000000	0.0
82	0x00000000	0.0
83	0x00000000	0.0
84	0x00000000	0.0
85	0x00000000	0.0
86	0x00000000	0.0
87	0x00000000	0.0
88	0x00000000	0.0
89	0x00000000	0.0
90	0x00000000	0.0
91	0x00000000	0.0
92	0x00000000	0.0
93	0x00000000	0.0
94	0x00000000	0.0
95	0x00000000	0.0
96	0x00000000	0.0
97	0x00000000	0.0
98	0x00000000	0.0
99	0x00000000	0.0
100	0x00000000	0.0
101	0x00000000	0.0
102	0x00000000	0.0
103	0x00000000	0.0
104	0x00000000	0.0
105	0x00000000	0.0
106	0x00000000	0.0
107	0x00000000	0.0
108	0x00000000	0.0
109	0x00000000	0.0
110	0x00000000	0.0
111	0x00000000	0.0
112	0x00000000	0.0
113	0x00000000	0.0
114	0x00000000	0.0
115	0x00000000	0.0
116	0x00000000	0.0
117	0x00000000	0.0
118	0x00000000	0.0
119	0x00000000	0.0
120	0x00000000	0.0
121	0x00000000	0.0
122	0x00000000	0.0
123	0x00000000	0.0
124	0x00000000	0.0
125	0x00000000	0.0
126	0x00000000	0.0
127	0x00000000	0.0
128	0xb79563ea	-1.780871e-05
129	0xb799044f	-1.8241028e-05
130	0xb5e1b9d5	-1.6817891e-06
131	0x38457bfb	4.7083926e-05
132	0xb329305a	-3.9392354e-08
133	0x3559d611	8.1150307e-07
134	0x371de519	9.41127e-06
135	0x38a6d48c	7.955087e-05
136	0xb7acb8ac	-2.0589992e-05
137	0x37a12738	1.9210958e-05
138	0xb6c865d5	-5.9723193e-06
139	0x00000000	0.0
140	0xb88d93c1	-6.750925e-05
141	0x388cf874	6.721998e-05
142	0xb80fe013	-3.4302542e-05
143	0xb79d0a34	-1.872061e-05
144	0x371f35f7	9.489703e-06
145	0xb799b45d	-1.832301e-05
146	0xb7a4f286	-1.9663257e-05
147	0x3829f2b7	4.0518786e-05
148	0xb62e5a16	-2.5980457e-06
149	0x37b1c445	2.119144e-05
150	0x00000000	0.0
151	0x38cdfc8b	9.8222015e-05
152	0xb8185dad	-3.6326866e-05
153	0x36c5df5b	5.8970595e-06
154	0x00000000	0.0
155	0x35b7a5fc	1.368287e-06
156	0xb6e0bcb8	-6.69769e-06
157	0x37ab81b7	2.0445192e-05
158	0xb815f511	-3.5752604e-05
159	0xb6407ce2	-2.868292e-06
160	0x00000000	0.0
161	0x00000000	0.0
162	0x00000000	0.0
163	0x00000000	0.0
164	0x00000000	0.0
165	0x00000000	0.0
166	0x00000000	0.0
167	0x00000000	0.0
168	0x00000000	0.0
169	0x00000000	0.0
170	0x00000000	0.0
171	0x00000000	0.0
172	0x00000000	0.0
173	0x00000000	0.0
174	0x00000000	0.0
175	0x00000000	0.0
176	0x374f2c84	1.2348526e-05
177	0xb7cce097	-2.4423278e-05
178	0xb7bb83a9	-2.2353446e-05
179	0x382824d7	4.008863e-05
180	0xb65ae1e5	-3.261602e-06
181	0x37e18182	2.6882397e-05
182	0x00000000	0.0
183	0x38d6814e	0.000102284
184	0xb83e547f	-4.5378223e-05
185	0x37091cc3	8.172533e-06
186	0x00000000	0.0
187	0x35e9d6af	1.7422334e-06
188	0x374a8350	1.2070712e-05
189	0x36d0e7cd	6.225868e-06
190	0xb7f74502	-2.9476829e-05
191	0x349adb28	2.8844192e-07
192	0xb686fb0a	-4.022736e-06
193	0xb833b38f	-4.2844153e-05
194	0xb7e76c6d	-2.7587836e-05
195	0x38d46380	0.00010127481
196	0xb666b312	-3.4376903e-06
197	0x37f259b4	2.889042e-05
198	0x36f16385	7.1939453e-06
199	0x395a5447	0.00020821496
200	0xb88f50af	-6.8338e-05
201	0x37c11b02	2.301997e-05
202	0xb6b1258c	-5.279382e-06
203	0x35ea3094	1.7448497e-06
204	0xb8a05554	-7.645288e-05
205	0x38c62237	9.447749e-05
206	0xb8b1e434	-8.482524e-05
207	0xb7baed73	-2.2283499e-05
208	0x371dddf7	9.409609e-06
209	0xb7ee9adb	-2.8443921e-05
210	0xb7d0375e	-2.4821315e-05
211	0x38759faa	5.856125e-05
212	0xb662e949	-3.3812414e-06
213	0x37eba9d0	2.8093258e-05
214	0x35efa2c7	1.7854262e-06
215	0x390efac5	0.00013635594
216	0xb859d407	-5.1934298e-05
217	0x37440666	1.1684e-05
218	0xb589d1fd	-1.026841e-06
219	0x35edbe2a	1.7713221e-06
220	0xb76b41bf	-1.4022399e-05
221	0x3807cf03	3.2379303e-05
222	0xb848216a	-4.7714835e-05
223	0xb6d00e0c	-6.2005183e-06
224	0xb774110b	-1.4547501e-05
225	0xb746eaca	-1.1856386e-05
226	0x00000000	0.0
227	0x37f33be5	2.8995748e-05
228	0x00000000	0.0
229	0x00000000	0.0
230	0x3732e26e	1.06623465e-05
231	0x3856b2c8	5.118808e-05
232	0xb76b1b61	-1.4013466e-05
233	0x37ad531d	2.066191e-05
234	0xb6ae0cbe	-5.1870875e-06
235	0x00000000	0.0
236	0xb835ae93	-4.3316348e-05
237	0x3832dc71	4.264381e-05
238	0xb76ea083	-1.42232775e-05
239	0xb7572338	-1.2823199e-05
240	0xb68ec108	-4.2544016e-06
241	0xb7d36468	-2.5199915e-05
242	0xb78431c7	-1.5758806e-05
243	0x38878f3b	6.4639804e-05
244	0xb5f283bb	-1.8068744e-06
245	0x377fc439	1.5244871e-05
246	0x3654eb4c	3.1727423e-06
247	0x39061b1c	0.00012789335
248	0xb8235776	-3.8943683e-05
249	0x373b18b0	1.1151817e-05
250	0xb65ab2fa	-3.258871e-06
251	0x3570bd22	8.968219e-07
252	0xb8724ab6	-5.7766876e-05
253	0x388c6ee4	6.696375e-05
254	0xb8745a3f	-5.825818e-05
255	0xb7829aaa	-1.5569229e-05

exp_avg_sq f4 [15, 8, 16]
0	0x00000000	0.0
1	0x00000000	0.0
2	0x00000000	0.0
3	0x00000000	0.0
4	0x00000000	0.0
5	0x00000000	0.0
6	0x00000000	0.0
7	0x00000000	0.0
8	0x00000000	0.0
9	0x00000000	0.0
10	0x00000000	0.0
11	0x00000000	0.0
12	0x00000000	0.0
13	0x00000000	0.0
14	0x00000000	0.0
15	0x00000000	0.0
16	0x00000000	0.0
17	0x00000000	0.0
18	0x00000000	0.0
19	0x00000000	0.0
20	0x00000000	0.0
21	0x00000000	0.0
22	0x00000000	0.0
23	0x00000000	0.0
24	0x00000000	0.0
25	0x00000000	0.0
26	0x00000000	0.0
27	0x00000000	0.0
28	0x00000000	0.0
29	0x00000000	0.0
30	0x00000000	0.0
31	0x00000000	0.0
32	0x00000000	0.0
33	0x00000000	0.0
34	0x00000000	0.0
35	0x00000000	0.0
36	0x00000000	0.0
37	0x00000000	0.0
38	0x00000000	0.0
39	0x00000000	0.0
40	0x00000000	0.0
41	0x00000000	0.0
42	0x00000000	0.0
43	0x00000000	0.0
44	0x00000000	0.0
45	0x00000000	0.0
46	0x00000000	0.0
47	0x00000000	0.0
48	0x00000000	0.0
49	0x00000000	0.0
50	0x00000000	0.0
51	0x00000000	0.0
52	0x00000000	0.0
53	0x00000000	0.0
54	0x00000000	0.0
55	0x00000000	0.0
56	0x00000000	0.0
57	0x00000000	0.0
58	0x00000000	0.0
59	0x00000000	0.0
60	0x00000000	0.0
61	0x00000000	0.0
62	0x00000000	0.0
63	0x00000000	0.0
64	0x00000000	0.0
65	0x00000000	0.0
66	0x00000000	0.0
67	0x00000000	0.0
68	0x00000000	0.0
69	0x00000000	0.0
70	0x00000000	0.0
71	0x00000000	0.0
72	0x00000000	0.0
73	0x00000000	0.0
74	0x00000000	0.0
75	0x00000000	0.0
76	0x00000000	0.0
77	0x00000000	0.0
78	0x00000000	0.0
79	0x00000000	0.0
80	0x00000000	0.0
81	0x00000000	0.0
82	0x00000000	0.0
83	0x00000000	0.0
84	0x00000000	0.0
85	0x00000000	0.0
86	0x00000000	0.0
87	0x00000000	0.0
88	0x00000000	0.0
89	0x00000000	0.0
90	0x00000000	0.0
91	0x00000000	0.0
92	0x00000000	0.0
93	0x00000000	0.0
94	0x00000000	0.0
95	0x00000000	0.0
96	0x00000000	0.0
97	0x00000000	0.0
98	0x00000000	0.0
99	0x00000000	0.0
100	0x00000000	0.0
101	0x00000000	0.0
102	0x00000000	0.0
103	0x00000000	0.0
104	0x00000000	0.0
105	0x00000000	0.0
106	0x00000000	0.0
107	0x00000000	0.0
108	0x00000000	0.0
109	0x00000000	0.0
110	0x00000000	0.0
111	0x00000000	0.0
112	0x00000000	0.0
113	0x00000000	0.0
114	0x00000000	0.0
115	0x00000000	0.0
116	0x00000000	0.0
117	0x00000000	0.0
118	0x00000000	0.0
119	0x00000000	0.0
120	0x00000000	0.0
121	0x00000000	0.0
122	0x00000000	0.0
123	0x00000000	0.0
124	0x00000000	0.0
125	0x00000000	0.0
126	0x00000000	0.0
127	0x00000000	0.0
128	0x2d8fcbb7	1.6347685e-11
129	0x2e002869	2.9139722e-11
130	0x2afe699c	4.5192745e-13
131	0x2e8dbd67	6.445582e-11
132	0x266f722b	8.307451e-16
133	0x2ac4c46f	3.4952897e-13
134	0x2d6d0409	1.3472786e-11
135	0x2f60cac3	2.0444717e-10
136	0x2d8c5415	1.5953497e-11
137	0x2e1b3d41	3.5297324e-11
138	0x2c522388	2.9862519e-12
139	0x00000000	0.0
140	0x2f135d53	1.3402728e-10
141	0x2f158cad	1.3601449e-10
142	0x2e2dd272	3.952256e-11
143	0x2d83c1bd	1.4979013e-11
144	0x2d84127c	1.5014871e-11
145	0x2e0d8438	3.2177122e-11
146	0x2ec42d23	8.921066e-11
147	0x2eca33ee	9.195121e-11
148	0x2cf940ad	7.084186e-12
149	0x2e2e630d	3.9650994e-11
150	0x00000000	0.0
151	0x302bb6ea	6.2469374e-10
152	0x2ee50391	1.0414348e-10
153	0x2d2d3850	9.846415e-12
154	0x00000000	0.0
155	0x2c2e77ad	2.479332e-12
156	0x2e38fe47	4.20626e-11
157	0x2e19decf	3.4986066e-11
158	0x2e9054b7	6.56341e-11
159	0x2c7c643e	3.5867e-12
160	0x00000000	0.0
161	0x00000000	0.0
162	0x00000000	0.0
163	0x00000000	0.0
164	0x00000000	0.0
165	0x00000000	0.0
166	0x00000000	0.0
167	0x00000000	0.0
168	0x00000000	0.0
169	0x00000000	0.0
170	0x00000000	0.0
171	0x00000000	0.0
172	0x00000000	0.0
173	0x00000000	0.0
174	0x00000000	0.0
175	0x00000000	0.0
176	0x2df870fd	2.8244513e-11
177	0x2e7608e2	5.5941814e-11
178	0x2f0fbdbd	1.3073183e-10
179	0x2f26605d	1.5131847e-10
180	0x2d643466	1.2971934e-11
181	0x2ea54a92	7.5165776e-11
182	0x00000000	0.0
183	0x308cddeb	1.0249414e-09
184	0x2f548f97	1.9332301e-10
185	0x2da5854b	1.8817522e-11
186	0x00000000	0.0
187	0x2c9d77d7	4.4755133e-12
188	0x2de13725	2.5604028e-11
189	0x2d3fd475	1.0904268e-11
190	0x2ead97b6	7.8940784e-11
191	0x2948985e	4.454108e-14
192	0x2e3b2d85	4.2559307e-11
193	0x2edc1bbd	1.0009369e-10
194	0x2f24661d	1.4951991e-10
195	0x2f96c8cd	2.7427519e-10
196	0x2d58196e	1.2283825e-11
197	0x2ea13a6c	7.33181e-11
198	0x2d0a7d29	7.872183e-12
199	0x30c48d31	1.4301006e-09
200	0x2f5d8a02	2.0148863e-10
201	0x2e288936	3.8320645e-11
202	0x2c22834c	2.309447e-12
203	0x2c94cfa7	4.229467e-12
204	0x2f9dfa7d	2.8736116e-10
205	0x2f9df4a8	2.8731972e-10
206	0x2f7905de	2.2648503e-10
207	0x2e0f247e	3.2546847e-11
208	0x2dfde944	2.886636e-11
209	0x2e831820	5.961476e-11
210	0x2f1a3b7e	1.4027354e-10
211	0x2f362ff6	1.6569843e-10
212	0x2d64cf87	1.300638e-11
213	0x2ea48ab3	7.4824945e-11
214	0x2b087c22	4.8489175e-13
215	0x30964e57	1.0936202e-09
216	0x2f556e1b	1.9411354e-10
217	0x2dae1d80	1.979461e-11
218	0x29c6f45e	8.835357e-14
219	0x2c9dfe1c	4.49042e-12
220	0x2e7f55e3	5.805657e-11
221	0x2e4478fc	4.4672696e-11
222	0x2ee01cbf	1.0191447e-10
223	0x2c95cdab	4.2576684e-12
224	0x2d3167c5	1.0084327e-11
225	0x2d5f813e	1.270478e-11
226	0x00000000	0.0
227	0x2e283e52	3.825413e-11
228	0x00000000	0.0
229	0x00000000	0.0
230	0x2d981c0a	1.7292851e-11
231	0x2f32ce57	1.6262312e-10
232	0x2d227128	9.23376e-12
233	0x2e43252c	4.4370882e-11
234	0x2c21bca3	2.298419e-12
235	0x00000000	0.0
236	0x2ecbb057	9.2626955e-11
237	0x2ec21bd1	8.82704e-11
238	0x2d449040	1.117334e-11
239	0x2d403f70	1.0928022e-11
240	0x2d784f1c	1.4114734e-11
241	0x2e34fbb1	4.115081e-11
242	0x2e4173bd	4.3985916e-11
243	0x2eff636b	1.16137176e-10
244	0x2c553f15	3.0304138e-12
245	0x2dae1233	1.9789592e-11
246	0x2bd77f20	1.5311953e-12
247	0x300deb66	5.163002e-10
248	0x2e756275	5.5793998e-11
249	0x2d154a70	8.486198e-12
250	0x2b74083a	8.669763e-13
251	0x2b939787	1.0487036e-12
252	0x2f32d913	1.6266126e-10
253	0x2f3a83d9	1.6963443e-10
254	0x2f03875f	1.1962474e-10
255	0x2dae57cc	1.98205e-11

exp_avg f4 [16]
0	0xb99da293	-0.000300665
1	0xba86fda3	-0.0010298978
2	0xba0bb93e	-0.00053300324
3	0x3b20f242	0.002455846
4	0xb889fadc	-6.579395e-05
5	0x3a125d21	0.00055833353
6	0x39936110	0.00028110342
7	0x3b9fa146	0.00487152
8	0xbacb4cea	-0.0015510593
9	0x3a3e1051	0.0007250356
10	0xb93bc01c	-0.00017905276
11	0x380b540b	3.3218454e-05
12	0xbb10e689	-0.0022110066
13	0x3b2708ac	0.0025487347
14	0xbafe0e89	-0.0019382994
15	0xba28eceb	-0.0006443995

exp_avg_sq f4 [16]
0	0x32db677f	2.554202e-08
1	0x3364e26e	5.3291323e-08
2	0x3364b37f	5.3248637e-08
3	0x3415bded	1.3945801e-07
4	0x319c408b	4.5475352e-09
5	0x32ecc117	2.7561823e-08
6	0x324e7f26	1.2019688e-08
7	0x352f15c4	6.5224253e-07
8	0x33b52abf	8.436245e-08
9	0x3322e04a	3.7922554e-08
10	0x31383e14	2.6810811e-09
11	0x30d66446	1.5599049e-09
12	0x34478d4b	1.8584721e-07
13	0x3447ca30	1.8606875e-07
14	0x33e171fc	1.04981126e-07
15	0x32b4901d	2.1020293e-08

exp_avg f4 [15, 16, 32]
0	0x00000000	0.0
1	0x00000000	0.0
2	0x00000000	0.0
3	0x00000000	0.0
4	0x00000000	0.0
5	0x00000000	0.0
6	0x00000000	0.0
7	0x00000000	0.0
8	0x00000000	0.0
9	0x00000000	0.0
10	0x00000000	0.0
11	0x00000000	0.0
12	0x00000000	0.0
13	0x00000000	0.0
14	0x00000000	0.0
15	0x00000000	0.0
16	0x00000000	0.0
17	0x00000000	0.0
18	0x00000000	0.0
19	0x00000000	0.0
20	0x00000000	0.0
21	0x00000000	0.0
22	0x00000000	0.0
23	0x00000000	0.0
24	0x00000000	0.0
25	0x00000000	0.0
26	0x00000000	0.0
27	0x00000000	0.0
28	0x00000000	0.0
29	0x00000000	0.0
30	0x00000000	0.0
31	0x00000000	0.0
32	0x00000000	0.0
33	0x00000000	0.0
34	0x00000000	0.0
35	0x00000000	0.0
36	0x00000000	0.0
37	0x00000000	0.0
38	0x00000000	0.0
39	0x00000000	0.0
40	0x00000000	0.0
41	0x00000000	0.0
42	0x00000000	0.0
43	0x00000000	0.0
44	0x00000000	0.0
45	0x00000000	0.0
46	0x00000000	0.0
47	0x00000000	0.0
48	0x00000000	0.0
49	0x00000000	0.0
50	0x00000000	0.0
51	0x00000000	0.0
52	0x00000000	0.0
53	0x00000000	0.0
54	0x00000000	0.0
55	0x00000000	0.0
56	0x00000000	0.0
57	0x00000000	0.0
58	0x00000000	0.0
59	0x00000000	0.0
60	0x00000000	0.0
61	0x00000000	0.0
62	0x00000000	0.0
63	0x00000000	0.0
64	0x00000000	0.0
65	0x00000000	0.0
66	0x00000000	0.0
67	0x00000000	0.0
68	0x00000000	0.0
69	0x00000000	0.0
70	0x00000000	0.0
71	0x00000000	0.0
72	0x00000000	0.0
73	0x00000000	0.0
74	0x00000000	0.0
75	0x00000000	0.0
76	0x00000000	0.0
77	0x00000000	0.0
78	0x00000000	0.0
79	0x00000000	0.0
80	0x00000000	0.0
81	0x00000000	0.0
82	0x00000000	0.0
83	0x00000000	0.0
84	0x00000000	0.0
85	0x00000000	0.0
86	0x00000000	0.0
87	0x00000000	0.0
88	0x00000000	0.0
89	0x00000000	0.0
90	0x00000000	0.0
91	0x00000000	0.0
92	0x00000000	0.0
93	0x00000000	0.0
94	0x00000000	0.0
95	0x00000000	0.0
96	0x00000000	0.0
97	0x00000000	0.0
98	0x00000000	0.0
99	0x00000000	0.0
100	0x00000000	0.0
101	0x00000000	0.0
102	0x00000000	0.0
103	0x00000000	0.0
104	0x00000000	0.0
105	0x00000000	0.0
106	0x00000000	0.0
107	0x00000000	0.0
108	0x00000000	0.0
109	0x00000000	0.0
110	0x00000000	0.0
111	0x00000000	0.0
112	0x00000000	0.0
113	0x00000000	0.0
114	0x00000000	0.0
115	0x00000000	0.0
116	0x00000000	0.0
117	0x00000000	0.0
118	0x00000000	0.0
119	0x00000000	0.0
120	0x00000000	0.0
121	0x00000000	0.0
122	0x00000000	0.0
123	0x00000000	0.0
124	0x00000000	0.0
125	0x00000000	0.0
126	0x00000000	0.0
127	0x00000000	0.0
128	0x00000000	0.0
129	0x00000000	0.0
130	0x00000000	0.0
131	0x00000000	0.0
132	0x00000000	0.0
133	0x00000000	0.0
134	0x00000000	0.0
135	0x00000000	0.0
136	0x00000000	0.0
137	0x00000000	0.0
138	0x00000000	0.0
139	0x00000000	0.0
140	0x00000000	0.0
141	0x00000000	0.0
142	0x00000000	0.0
143	0x00000000	0.0
144	0x00000000	0.0
145	0x00000000	0.0
146	0x00000000	0.0
147	0x00000000	0.0
148	0x00000000	0.0
149	0x00000000	0.0
150	0x00000000	0.0
151	0x00000000	0.0
152	0x00000000	0.0
153	0x00000000	0.0
154	0x00000000	0.0
155	0x00000000	0.0
156	0x00000000	0.0
157	0x00000000	0.0
158	0x00000000	0.0
159	0x00000000	0.0
160	0x00000000	0.0
161	0x00000000	0.0
162	0x00000000	0.0
163	0x00000000	0.0
164	0x00000000	0.0
165	0x00000000	0.0
166	0x00000000	0.0
167	0x00000000	0.0
168	0x00000000	0.0
169	0x00000000	0.0
170	0x00000000	0.0
171	0x00000000	0.0
172	0x00000000	0.0
173	0x00000000	0.0
174	0x00000000	0.0
175	0x00000000	0.0
176	0x00000000	0.0
177	0x00000000	0.0
178	0x00000000	0.0
179	0x00000000	0.0
180	0x00000000	0.0
181	0x00000000	0.0
182	0x00000000	0.0
183	0x00000000	0.0
184	0x00000000	0.0
185	0x00000000	0.0
186	0x00000000	0.0
187	0x00000000	0.0
188	0x00000000	0.0
189	0x00000000	0.0
190	0x00000000	0.0
191	0x00000000	0.0
192	0x00000000	0.0
193	0x00000000	0.0
194	0x00000000	0.0
195	0x00000000	0.0
196	0x00000000	0.0
197	0x00000000	0.0
198	0x00000000	0.0
199	0x00000000	0.0
200	0x00000000	0.0
201	0x00000000	0.0
202	0x00000000	0.0
203	0x00000000	0.0
204	0x00000000	0.0
205	0x00000000	0.0
206	0x00000000	0.0
207	0x00000000	0.0
208	0x00000000	0.0
209	0x00000000	0.0
210	0x00000000	0.0
211	0x00000000	0.0
212	0x00000000	0.0
213	0x00000000	0.0
214	0x00000000	0.0
215	0x00000000	0.0
216	0x00000000	0.0
217	0x00000000	0.0
218	0x00000000	0.0
219	0x00000000	0.0
220	0x00000000	0.0
221	0x00000000	0.0
222	0x00000000	0.0
223	0x00000000	0.0
224	0x00000000	0.0
225	0x00000000	0.0
226	0x00000000	0.0
227	0x00000000	0.0
228	0x00000000	0.0
229	0x00000000	0.0
230	0x00000000	0.0
231	0x00000000	0.0
232	0x00000000	0.0
233	0x00000000	0.0
234	0x00000000	0.0
235	0x00000000	0.0
236	0x00000000	0.0
237	0x00000000	0.0
238	0x00000000	0.0
239	0x00000000	0.0
240	0x00000000	0.0
241	0x00000000	0.0
242	0x00000000	0.0
243	0x00000000	0.0
244	0x00000000	0.0
245	0x00000000	0.0
246	0x00000000	0.0
247	0x00000000	0.0
248	0x00000000	0.0
249	0x00000000	0.0
250	0x00000000	0.0
251	0x00000000	0.0
252	0x00000000	0.0
253	0x00000000	0.0
254	0x00000000	0.0
255	0x00000000	0.0
