GPU/checkpoints_kpconv/kpconv_best_miou_0.1844.pth (torch, 529253 bytes, 32 tensors)

fc_in.weight f4 [16, 3]
-0.37742212 -0.030516973 -0.09429408 -0.047308616 0.447588 -0.53702 0.27568272 -0.101059325
-0.41288447 -0.21931815 0.23663388 0.23940341 0.15463448 0.4834699 0.12898849 -0.051248442
-0.1735829 0.39533204 -0.34306243 -0.50714266 0.45865774 -0.54203826 -0.15314414 0.4559768
0.51655054 0.45286524 0.33633354 -0.00609318 -0.19083469 -0.39279932 -0.45610884 -0.21027048
-0.0948368 -0.25316194 0.26187846 0.48332033 0.4892665 -0.36903784 -0.27009463 0.33062044
-0.4493951 0.2315759 -0.5619079 -0.2652811 -0.33824295 -0.15772362 0.4493865 -0.4651096
00000000: 793d c1be bbfe f9bc 411d c1bd aec6 41bd
00000010: 412a e53e 257a 09bf 4926 8d3e 31f8 cebd
00000020: 9865 d3be f094 60be 2750 723e 2b26 753e
00000030: 8058 1e3e 5e89 f73e 8f15 043e e3e9 51bd
00000040: b7bf 31be f668 ca3e e1a5 afbe 1ad4 01bf
00000050: 30d5 ea3e 05c3 0abf d1d1 1cbe cb75 e93e
00000060: a83c 043f f4dd e73e e933 ac3e 4ca9 c7bb
00000070: 2b6a 43be fe1c c9be 1987 e9be 2551 57be
00000080: cc39 c2bd 719e 81be ef14 863e c375 f73e
00000090: 2481 fa3e 87f2 bcbe d849 8abe 1547 a93e
000000a0: 1d17 e6be 3c22 6d3e 32d9 0fbf edd2 87be
000000b0: 2e2e adbe 4d82 21be fd15 e63e d822 eebe

fc_in.bias f4 [16]
-0.14343022 0.33067754 -0.4321113 0.36179513 0.3405595 -0.36376357 -0.17660251 0.4509873
0.48717278 0.40305093 0.2529553 0.0054428787 0.128153 0.39680085 0.5186879 -0.15487918
00000000: 5fdf 12be 914e a93e b13d ddbe 363d b93e
00000010: d15d ae3e 383f babe 4ad7 34be cfe7 e63e
00000020: b66e f93e b15c ce3e 5b83 813e 2d5a b23b
00000030: 8a3a 033e 7b29 cb3e bbc8 043f a698 1ebe

kpconv1.kernel_weights f4 [15, 16, 32]
-0.31171185 -0.621261 0.73440915 0.3485811 -0.27829334 -0.3090417 0.49834898 -0.07131288
-0.24019144 0.7198369 -0.2849151 -0.030074803 -0.86421096 0.033273198 0.018176425 -0.12075458
0.22781216 -0.13350327 -0.48322457 -0.77944976 -0.03129793 0.534932 -0.6983431 -0.066183314
0.6305569 -0.28551373 -0.6935122 -0.16426271 0.24232206 -0.3400795 0.24114156 -0.4256046
0.7895335 0.038180906 0.32688764 -0.06541876 0.1510198 -0.45823327 0.4639214 0.4335897
0.084582284 0.2107079 0.985486 0.58019924 0.5753766 0.5377684 -0.21116206 -0.01959524
0.13401468 -0.5558345 0.32130837 -0.47338164 -0.02587057 0.27670822 -0.4624449 -0.5853663
-0.041369606 -0.13913552 0.2245824 0.23130137 0.4599806 0.037891857 -0.16384661 0.21498983
-0.28241923 -0.49348623 0.40568057 0.326289 -0.121489145 0.030804865 -0.28808945 0.8699986
0.3399665 -0.030211007 -0.287621 0.40119576 0.24189873 -0.4379873 0.108691946 -0.092900164
0.22766718 -0.04630119 0.85278434 -0.26377553 0.21351086 0.27761173 0.01626251 -0.2461847
0.024677366 -0.7500374 -0.107447386 0.057394143 -0.19469447 0.0991008 0.062596716 0.8596851
-0.17729282 -0.4502134 0.11430437 -0.31332314 0.17944354 -0.38945785 -0.111349285 0.23636346
0.15873691 0.14175324 0.28749952 -0.23956384 -0.073917925 0.054118372 0.18289639 0.13187432
-0.2017763 0.023879277 -0.08094641 0.13975468 0.23111613 0.38266778 0.40835977 -0.44618562
0.31647936 0.12653844 0.14582998 -0.45359764 0.53396523 -0.20447147 0.03907418 -0.61950415
0.44207016 0.3671259 0.20198077 -0.7788167 0.6751062 -0.08926376 0.7694744 0.21494958
0.0380776 -0.153339 -0.024780648 -0.36537042 -0.08353371 0.47296435 0.026985588 -0.05833829
0.30193433 0.060323022 0.0018332996 -0.061825313 -0.72179157 -0.052477196 0.3417287 -0.45601633
0.58062035 0.012594806 0.11582471 0.1743687 -0.65649104 0.015625564 -0.33910063 0.017196694
0.023384506 0.25541607 -0.20417683 -0.42405295 0.3549321 -0.5888541 -0.047848225 0.15532155
0.20565072 0.13570866 0.34659228 -0.7900919 0.14146745 -0.16048592 0.008162397 -0.62149334
-0.18200535 0.24019901 -1.1601158 0.51158726 0.21699305 0.44995573 0.19075331 0.5945635
0.35939074 0.31030187 0.6288032 -0.575279 -0.505939 0.5256088 -0.22207575 0.06564554
-0.1576571 -0.254154 -0.34874845 -0.17701656 -0.07334445 0.9114771 0.23410237 0.60733527
0.82420564 -0.20180231 -0.4472173 0.2667895 -0.22047244 -0.14418846 -0.2107434 -0.22247885
-0.15683518 -0.33647853 0.048463404 -0.38668233 0.29365417 -0.09400866 0.31595385 0.14643423
-0.4025582 0.20121814 0.11848806 -0.32345572 -0.042509954 -0.18235768 -0.41546106 -0.5159752
-0.20949864 -0.16211073 -0.39835307 0.19354308 -0.089515105 0.095742285 -0.39658126 -0.035829123
-0.17415342 0.06878568 0.505301 0.0017761333 -0.037930936 0.28794017 0.47661087 1.472174
-0.27303278 -0.3981513 -0.07357824 0.118811525 -0.39170665 0.28491136 -0.9101819 -0.030638725
-0.45524076 0.39418203 -0.15415092 -0.2221072 0.17215171 -0.22285865 0.35445726 -0.07016148
00000000: b298 9fbe f60a 1fbf 3d02 3c3f 3979 b23e
00000010: 777c 8ebe b73a 9ebe 9927 ff3e 7d0c 92bd
00000020: bff4 75be 3b47 383f 64e0 91be 6f5f f6bc
00000030: ee3c 5dbf 7a49 083d bae6 943c 2d4e f7bd
00000040: 9747 693e 15b5 08be 3669 f7be 058a 47bf
00000050: 4232 00bd 4ef1 083f 9dc6 32bf 1e8b 87bd
00000060: 2d6c 213f db2e 92be 048a 31bf 7c34 28be
00000070: 4623 783e e61e aebe d0ed 763e d9e8 d9be
00000080: de1e 4a3f 9563 1c3d d15d a73e 45fa 85bd
00000090: efa4 1a3e 8d9d eabe 1b87 ed3e 78ff dd3e
000000a0: 7a39 ad3d d0c3 573e cf48 7c3f f087 143f
000000b0: e14b 133f 31ab 093f de3a 58be 3286 a0bc
000000c0: 253b 093e 2b4b 0ebf 8882 a43e 145f f2be
000000d0: 85ee d3bc b3ac 8d3e 94c5 ecbe 91da 15bf
000000e0: 2d73 29bd 8b79 0ebe eef8 653e 44da 6c3e
000000f0: 9482 eb3e 7e34 1b3d 68c7 27be 4b26 5c3e
00000100: 4199 90be 3aaa fcbe 5db5 cf3e 5a0f a73e
00000110: 4dcf f8bd 7c5a fc3c 7680 93be 3ab8 5e3f
00000120: 1710 ae3e 137d f7bc 0f43 93be 8869 cd3e
00000130: 4db4 773e df3f e0be e299 de3d 7142 bebd
00000140: 9621 693e 51a6 3dbd 1350 5a3f 960d 87be
00000150: 97a2 5a3e 2023 8e3e f538 853c d817 7cbe
00000160: 3028 ca3c 7302 40bf 600d dcbd 1f16 6b3d
00000170: fd5d 47be 5cf5 ca3d b532 803d 5314 5c3f
00000180: 408c 35be 5f82 e6be 6918 ea3d e46b a0be
00000190: 0cc0 373e 0567 c7be 180b e4bd 4309 723e
000001a0: ee8b 223e c327 113e 2333 933e 3950 75be
000001b0: 4862 97bd 3aab 5d3d 3149 3b3e 100a 073e
000001c0: 729e 4ebe 799e c33c 3bc7 a5bd da1b 0f3e
000001d0: b5a9 6c3e 08ed c33e 8814 d13e 7172 e4be
000001e0: 9509 a23e 4b93 013e 7454 153e f33d e8be
000001f0: f2b1 083f f860 51be 3f0c 203d d397 1ebf
00000200: 0557 e23e edf7 bb3e 0cd4 4e3e 8860 47bf
00000210: c3d3 2c3f ebcf b6bd 46fc 443f be1b 5c3e
00000220: 42f7 1b3d e604 1dbe c900 cbbc d511 bbbe
00000230: b913 abbd 6228 f23e e110 dd3c 21f4 6ebd
00000240: 2397 9a3e 4615 773d 544b f03a 8a3c 7dbd
00000250: 55c7 38bf 54f2 56bd 10f7 ae3e f97a e9be
00000260: 89a3 143f 725a 4e3c 8135 ed3d b58d 323e
00000270: cc0f 28bf 2f01 803c 999e adbe 15e0 8c3c
00000280: dd90 bf3c e5c5 823e bb13 51be 781d d9be
00000290: a9b9 b53e 24bf 16bf 80fc 43bd 9d0c 1f3e
000002a0: 1a96 523e 36f7 0a3e 8b74 b13e 7643 4abf
000002b0: d8dc 103e 6c56 24be 93bb 053c 301a 1fbf
000002c0: 9c5f 3abe bbf6 753e ad7e 94bf 62f7 023f
000002d0: 6d33 5e3e 9960 e63e d654 433e 5035 183f
000002e0: 1002 b83e e3df 9e3e 3ff9 203f 7c45 13bf
000002f0: 3885 01bf 4c8e 063f d367 63be 2b71 863d
00000300: dd70 21be 7920 82be 288f b2be d443 35be
00000310: 9d35 96bd 9056 693f 88b8 6f3e 537a 1b3f
00000320: 24ff 523f 44a5 4ebe aaf9 e4be a298 883e
00000330: 87c3 61be 24a6 13be 1ecd 57be 7fd1 63be
00000340: 6799 20be ea46 acbe 9081 463d 3afb c5be
00000350: d759 963e 9d87 c0bd b4c4 a13e dbf2 153e
00000360: 1c1c cebe 210c 4e3e dea9 f23d fd9b a5be
00000370: eb1e 2ebd f9bb 3abe 50b7 d4be f316 04bf
00000380: d086 56be 5b00 26be eff4 cbbe 2830 463e
00000390: b253 b7bd 8814 c43d b30c cbbe 8fc1 12bd
000003a0: 4655 32be 82df 8c3d 685b 013f 25cd e83a
000003b0: 785d 1bbd e56c 933e 5706 f43e 3370 bc3f
000003c0: f4ca 8bbe 7dda cbbe 30b0 96bd 7553 f33d
000003d0: c68d c8be e7df 913e ae01 69bf 10fe fabc
000003e0: 5115 e9be 3ad2 c93e bdd9 1dbe 1270 63be
000003f0: 8a48 303e 0f35 64be 6c7b b53e d2b0 8fbd

kpconv1.bias f4 [32]
0.003849348 -0.003317601 -0.006716978 0.0034896727 0.0006925595 -0.005073547 -0.0016983354 -0.0019471336
-0.004408328 -0.002425788 -0.006306662 0.0 -0.0009952981 0.0033325504 -0.004479965 0.0
0.0010688109 -0.0015131874 -0.00412058 0.0001119091 0.00037192408 0.00033414067 -0.005119154 0.0039470876
-0.0003504631 0.0024441117 0.00033795176 -0.00612182 0.003143624 0.004772202 -0.0089092655 0.0
00000000: 5845 7c3b 1c6c 59bb 181a dcbb feb2 643b
00000010: e28c 353a ff3f a6bb ae9a deba f636 ffba
00000020: bc73 90bb f8f9 1ebb 1ea8 cebb 0000 0000
00000030: aa74 82ba eb66 5a3b accc 92bb 0000 0000
00000040: 5817 8c3a 2556 c6ba ee05 87bb beb0 ea38
00000050: cefe c239 9a2f af39 94be a7bb 9256 813b
00000060: 5cbe b7b9 642d 203b 1e2f b139 8c99 c8bb
00000070: 4205 4e3b 2260 9c3b 2bf8 11bc 0000 0000

kpconv1.kernel_points f4 [15, 3]
0.113275275 -0.09716889 -0.08349987 0.16414046 0.20136341 0.35841468 0.00062236097 -0.0026577357
0.008839992 0.17048669 0.11145935 -0.3867257 -0.0063917334 -0.00010942219 -0.003876759 0.0012225547
-0.0030529452 -0.0024147513 -0.03169749 -0.09662971 0.10754786 0.24966027 0.29184434 0.22011964
0.12149976 -0.11387112 0.11376592 -0.019709086 0.08720083 0.09334128 0.2639366 -0.14400914
-0.09038301 0.02001045 0.023516145 0.07849667 0.27911714 -0.08858616 0.081098944 -0.0052713556
-0.003185994 -0.0020980372 -0.19885138 -0.07286354 0.12424089
00000000: defc e73d 7c00 c7bd fb01 abbd 7014 283e
00000010: 3632 4e3e 2182 b73e f025 233a 682d 2ebb
00000020: 9dd5 103c 1094 2e3e cd44 e43d e900 c6be
00000030: bf71 d1bb 9779 e5b8 3911 7ebb 213e a03a
00000040: ec13 48bb ce40 1ebb 3ad5 01bd cce5 c5bd
00000050: 0d42 dc3d f1a6 7f3e 9f6c 953e 0b67 613e
00000060: ded4 f83d 4335 e9bd 1bfe e83d f374 a1bc
00000070: 5996 b23d b729 bf3d b322 873e 2277 13be
00000080: ba1a b9bd f5ec a33c eea4 c03c ddc2 a03d
00000090: 71e8 8e3e a96c b5bd 3417 a63d 56bb acbb
000000a0: 1ccc 50bb 397f 09bb b29f 4bbe 7b39 95bd
000000b0: 0272 fe3d

kpconv2.kernel_weights f4 [15, 32, 64]
0.1757039 0.26464906 0.41390702 -0.019440306 0.24855731 0.000754242 0.047182444 0.75757784
0.14894247 0.13046771 0.20046197 0.14937979 -0.17486666 0.23717746 -0.3204933 -0.01865217
-0.22181404 0.30460283 0.1684858 -0.23281564 0.27731466 -0.12478714 0.038915742 -0.29772592
-0.33831063 -0.30492052 -0.40396866 0.50193936 0.1630878 -0.2358627 0.11892759 0.027910013
-0.3000925 -0.11865477 -0.044176906 -0.27471697 -0.21736073 -0.24134538 0.05873665 -0.3014786
0.56668055 -0.06602466 0.3376464 -0.050101873 0.19639795 -0.32191467 0.04700539 0.13329396
0.11180176 -0.18186213 -0.0483621 0.37764582 0.24828629 -0.011515801 0.33349144 0.2290917
-0.13528617 -0.028300842 0.33007738 0.36505437 0.4898414 0.107124716 -0.32019928 -0.10171411
-0.25825673 -0.08999272 0.26870134 -0.09009197 -0.0032342577 8.113552e-05 -0.27555946 -0.42080078
-0.00947216 0.32934424 -0.10338704 -0.31982487 0.30503008 0.2710289 0.635089 -0.2897305
-0.09942798 -0.027336666 0.18616512 -0.14283676 0.4544569 -0.30535972 -0.33185744 0.34982288
-0.29562032 0.30286932 0.28946018 -0.33330312 -0.010219015 0.09922736 -0.16701214 0.15684442
0.30278304 -0.26590315 0.08626869 0.2305372 0.012297016 0.05924461 0.065533824 -0.29246962
0.08836111 -0.009921189 0.06389216 0.008092509 -0.07232747 -0.15612538 -0.24569336 -0.05368826
-0.46874025 0.27001894 -0.0810175 0.24698523 -0.08094686 0.00105522 -0.1173932 0.107574366
-0.1948414 0.47083524 -0.28834525 -0.33867937 -0.038555067 -0.13254039 -0.45103577 -0.2882027
-0.22544749 -0.4101216 -0.020097522 0.047551814 -0.38683793 -0.11860526 0.2200131 0.50495255
0.33587885 -0.6140281 -0.34410292 -0.061861474 0.016469097 0.07216061 0.42808467 0.07697853
0.30006778 -0.11017709 0.099031724 -0.17329657 0.07216925 -0.33203423 0.34141618 -0.4784506
0.19654481 0.020881066 0.13844843 -0.0029035287 -0.032938603 -0.019975115 0.041322872 0.35563806
-0.0027952793 0.23794988 -0.053381007 0.45074338 0.0460201 0.05671983 -0.18887159 -0.02755369
-0.2870878 0.07814668 0.01266172 0.059966672 -0.08764196 -0.55430263 -0.37813458 -0.24908032
-0.035483427 0.45607382 -0.08776466 0.1424047 -0.28942844 0.28109938 -0.31495956 -0.3737275
0.20574564 0.056160025 0.18476969 -0.036454737 -0.17588821 0.03614901 0.083130576 -0.38960338
-0.010347946 0.07295105 -0.2745267 0.096999094 -0.056016453 -0.02430648 -0.016983883 -0.38312298
0.00017535075 -0.2916407 0.21890809 0.29498273 -0.25813258 -0.32912403 -0.009743114 0.36739042
-0.21277252 0.40950614 0.30071858 0.13363811 -0.26172855 0.22082329 -0.1524853 -0.13705581
-0.25520965 0.10322933 0.2880466 0.22836795 -0.08886858 0.092450425 0.08616326 -0.024049455
-0.09496481 -0.38652176 0.3462531 -0.20151936 -0.25312173 -0.44557226 -0.2918106 -0.2144813
0.01884441 0.24911594 0.1648054 -0.030818895 -0.028015867 -0.24545093 -0.10656396 0.1355302
0.0051177405 -0.47021648 -0.3290089 -0.2591816 0.21527483 0.15664436 -0.09515044 0.19613175
0.40878955 0.32666382 0.13657162 -0.3232123 0.03315015 -0.0894608 -0.1908187 0.09783045
00000000: b9eb 333e 1580 873e 9feb d33e 4741 9fbc
00000010: cf85 7e3e 53b8 453a 6142 413d 9ff0 413f
00000020: 6084 183e 5499 053e e745 4d3e 04f7 183e
00000030: 3f10 33be a6de 723e b317 a4be 70cc 98bc
00000040: 3823 63be e7f4 9b3e 8b87 2c3e 3967 6ebe
00000050: 30fc 8d3e 6690 ffbd 1d66 1f3d 886f 98be
00000060: 0d37 adbe 8b1e 9cbe fbd4 cebe 197f 003f
00000070: 7d00 273e fe85 71be 4f90 f33d 8aa3 e43c
00000080: b9a5 99be 4601 f3bd d8f2 34bd b4a7 8cbe
00000090: d093 5ebe 3e23 77be d795 703d 675b 9abe
000000a0: fa11 113f f037 87bd fddf ac3e 9f37 4dbd
000000b0: 8b1c 493e 00d2 a4be b988 403d 367e 083e
000000c0: 52f8 e43d 113a 3abe 5617 46bd cb5a c13e
000000d0: c33e 7e3e c5ac 3cbc 64bf aa3e 0497 6a3e
000000e0: 7588 0abe 2bd7 e7bc e7ff a83e 68e8 ba3e
000000f0: 7ecc fa3e 3464 db3d 29f1 a3be 7d4f d0bd
00000100: 3a3a 84be 1a4e b8bd 3993 893e 2482 b8bd
00000110: d7f5 53bb 4d27 aa38 2116 8dbe 3373 d7be
00000120: 1e31 1bbc cf9f a83e 96bc d3bd 16c0 a3be
00000130: e72c 9c3e 4dc4 8a3e 3195 223f 8e57 94be
00000140: e6a0 cbbd 25f1 dfbc 12a2 3e3e cd43 12be
00000150: 93ae e83e 1c58 9cbe 38e9 a9be fc1b b33e
00000160: 8c5b 97be b011 9b3e 2034 943e b5a6 aabe
00000170: a86d 27bc b737 cb3d 3b05 2bbe d39b 203e
00000180: 6106 9b3e 7524 88be a4ad b03d f211 6c3e
00000190: 6c79 493c 7aaa 723d 9936 863d 94be 95be
000001a0: abf6 b43d 7c8c 22bc e5d9 823d 7196 043c
000001b0: 6d20 94bd 55df 1fbe 0a97 7bbe 39e8 5bbd
000001c0: b9fe efbe ec3f 8a3e 81ec a5bd b2e9 7c3e
000001d0: 78c7 a5bd 4f4f 8a3a d96b f0bd f34f dc3d
000001e0: 8184 47be 5111 f13e fda1 93be 6267 adbe
000001f0: ebeb 1dbd abb8 07be 29ee e6be 4e8f 93be
00000200: b5db 66be 75fb d1be 8fa3 a4bc b1c5 423d
00000210: 9f0f c6be 51e7 f2bd 1d4b 613e 9244 013f
00000220: 50f8 ab3e f230 1dbf 422e b0be 7562 7dbd
00000230: 33ea 863c f1c8 933d ea2d db3e eba6 9d3d
00000240: 7ca2 993e 87a4 e1bd 25d1 ca3d a874 31be
00000250: 79cd 933d 6400 aabe 1ace ae3e 7af7 f4be
00000260: 0b43 493e c50e ab3c 6dc5 0d3e 2149 3ebb
00000270: a1ea 06bd daa2 a3bc 2c42 293d 3116 b63e
00000280: 0131 37bb 22a9 733e 0ba6 5abd d6c7 e63e
00000290: 937f 3c3d 0d53 683d 8e67 41be 47b8 e1bc
000002a0: 2cfd 92be 5e0b a03d 1a73 4f3c 9d9f 753d
000002b0: a17d b3bd c7e6 0dbf db9a c1be e90e 7fbe
000002c0: 1257 11bd 8282 e93e f5bd b3bd 8ad2 113e
000002d0: f72f 94be 42ec 8f3e 6142 a1be 3659 bfbe
000002e0: fcae 523e 0e08 663d 4434 3d3e 9051 15bd
000002f0: 0a1c 34be fc10 143d 5d40 aa3d 187a c7be
00000300: 6e8a 29bc 5c67 953d c38e 8cbe 76a7 c63d
00000310: 8271 65bd 621e c7bc c921 8bbc b228 c4be
00000320: 5cde 3739 ee51 95be 7129 603e fa07 973e
00000330: f429 84be f282 a8be 95a1 1fbc 991a bc3e
00000340: 0ae1 59be caaa d13e c9f7 993e 6ed8 083e
00000350: 4901 86be 801f 623e 1b25 1cbe 5c58 0cbe
00000360: d7aa 82be e669 d33d d87a 933e 4ad9 693e
00000370: bb00 b6bd a656 bd3d 5d76 b03d 5d03 c5bc
00000380: e97c c2bd 2ee6 c5be 1648 b13e 175b 4ebe
00000390: 2c99 81be 0c22 e4be 3368 95be fca0 5bbe
000003a0: 985f 9a3c 4018 7f3e bfc2 283e e877 fcbc
000003b0: 8881 e5bc 7d57 7bbe 353e dabd 6ec8 0a3e
000003c0: b8b2 a73b 37c0 f0be db73 a8be 73b3 84be
000003d0: 0171 5c3e 6167 203e 3cde c2bd c3d6 483e
000003e0: dd4c d13e 7b40 a73e 6ed9 0b3e 157c a5be
000003f0: 74c8 073d 3937 b7bd fa65 43be 555b c83d

kpconv2.bias f4 [64]
-0.007012407 -0.00052785303 -0.0064492836 0.0058630565 0.0 -0.0054214466 0.002039348 -0.0023589588
0.00032384534 0.0 -0.0023514 0.0 0.008136871 -0.0053957016 -0.0033828253 0.0018552326
-0.003091561 -0.007196638 -0.0017790459 -0.0049492843 -0.0075202566 0.00605014 -0.004974926 0.0040796036
-0.0024399671 0.0 0.0020199646 0.00090993487 -0.0028250217 0.0036612672 0.0 -0.0087362705
0.006449433 -0.0033364997 0.006776911 0.006302358 0.0038815816 -0.006256588 -0.0050764764 -0.00938428
-0.0014604034 -0.006319858 0.007953909 0.007967793 0.009267865 0.002540091 0.0 0.00019131896
0.0 0.0053019524 0.005757709 0.0014687491 -0.0062071225 0.0037239755 -0.0018721467 0.001066549
0.0027503986 0.0036402945 -0.0011565604 -0.0033322144 -0.0050757676 0.0 -0.006976197 0.0071132653
00000000: 55c8 e5bb 9e5f 0aba 8354 d3bb e21e c03b
00000010: 0000 0000 64a6 b1bb 95a6 053b c398 1abb
00000020: c9c9 a939 0000 0000 f219 1abb 0000 0000
00000030: 8350 053c 6dce b0bb 64b2 5dbb 472b f33a
00000040: c99b 4abb c6d1 ebbb e02e e9ba 9b2d a2bb
00000050: 7c6c f6bb 4140 c63b b404 a3bb 32ae 853b
00000060: dbe7 1fbb 0000 0000 6261 043b b288 6e3a
00000070: 0024 39bb dff1 6f3b 0000 0000 9322 0fbc
00000080: c455 d33b 2da9 5abb da10 de3b 0384 ce3b
00000090: 2262 7e3b 1004 cdbb 9258 a6bb 86c0 19bc
000000a0: 026b bfba d016 cfbb 1d51 023c 598b 023c
000000b0: 3ed8 173c a877 263b 0000 0000 cb9c 4839
000000c0: 0000 0000 00bc ad3b 2aab bc3b 0b83 c03a
000000d0: 1e65 cbbb f10d 743b d262 f5ba 72cb 8b3a
000000e0: 0840 343b 0292 6e3b ba97 97ba 4861 5abb
000000f0: a052 a6bb 0000 0000 9598 e4bb 6516 e93b

kpconv2.kernel_points f4 [15, 3]
0.0021408522 -0.04998998 -0.09961544 -0.06723584 0.13239308 0.16870277 -0.17621416 -0.11955037
-0.0048918645 -0.7122064 0.21254562 0.00162409 -0.12616007 0.12211016 -0.11442119 -0.16523357
-0.1724593 -0.04269221 0.09043481 0.075265065 0.20029417 0.10917317 -0.52286917 0.17114998
0.10950262 0.50088537 0.61165386 0.36001286 0.54201484 0.17961815 -0.07938618 -0.0816569
-0.058021795 0.504113 0.48898715 0.3040654 -0.5458329 0.41577527 -0.049778733 -0.6811496
0.1907598 -0.17570181 -0.097017944 0.18411736 -0.01793073
00000000: 8a4d 0c3b 4bc2 4cbd 2e03 ccbd f2b2 89bd
00000010: 0d92 073e 6bc0 2c3e 7c71 34be d3d6 f4bd
00000020: ef4b a0bb 2953 36bf 8fa5 593e 6bdf d43a
00000030: 1b30 01be e414 fa3d a855 eabd fd32 29be
00000040: 2c99 30be 07de 2ebd e335 b93d 9224 9a3d
00000050: ea19 4d3e 2f96 df3d c1da 05bf f141 2f3e
00000060: e942 e03d 063a 003f 5995 1c3f 9b53 b83e
00000070: 7cc1 0a3f d2ed 373e 3995 a2bd bc3b a7bd
00000080: 43a8 6dbd 8d0d 013f 865c fa3e 76ae 9b3e
00000090: b4bb 0bbf 7fe0 d43e c9e4 4bbd d25f 2ebf
000000a0: 8956 433e 2deb 33be 58b1 c6bd 4389 3c3e
000000b0: 77e3 92bc

fc_mid.weight f4 [64, 64]
0.119139984 0.038782224 -0.119222045 -0.008038178 -0.011378825 -0.0781751 -0.0829221 0.06852606
0.032476902 -0.028454497 -0.037718654 -0.007193342 0.009751976 0.1093889 -0.071401775 -0.003243044
0.023747534 -0.07975832 -0.047525167 0.097516954 -0.11653073 -0.027416319 0.08857666 0.07772781
0.11786692 -0.0924328 -0.110834226 0.07437879 0.09049229 0.019302845 -0.0044285953 -0.04496132
0.01579927 0.030407786 -0.011055201 -0.08350679 0.10055345 -0.05869502 -0.03894669 0.085122675
-0.05609308 0.047305465 -0.035113603 0.020385414 -0.0051283985 0.12301847 -0.00435929 0.015681297
0.009067252 -0.093138695 0.0024770498 -0.110016465 -0.038719714 0.068667024 0.08790767 -0.10751733
-0.038727805 0.030468762 0.055320725 0.0070609003 -0.0031048208 0.11104001 0.08008118 -0.10327493
-0.020260736 -0.00038187206 0.09019464 0.014619663 0.038778767 -0.0104825795 -0.048771977 0.07332495
-0.05585836 0.113640785 -0.08023924 0.10540451 0.111305594 -0.081969544 0.119761676 0.10770433
-0.08378933 0.045740977 -0.013139337 -0.073520154 0.018146291 0.050163552 -0.08583799 -0.057636335
-0.024231657 -0.029098108 0.02949752 0.09068143 -0.024820715 0.04697202 0.102004394 0.08012624
0.070328385 -0.0071451366 -0.097224906 0.015708461 0.09551492 -0.04145111 -0.07919517 0.08947499
0.043118596 0.027025715 0.10846563 0.05753608 -0.06592806 0.035659835 -0.014655113 -0.08358061
-0.11010137 -0.11492577 -0.01988405 -0.032994106 -0.07106273 0.087147325 -0.054770008 0.120985866
-0.10886648 0.03415616 0.08542095 -0.03140849 0.09451477 -0.05325228 -0.056411028 -0.069587424
-0.017408326 -0.12193866 -0.040370643 0.07257424 0.11517581 -0.05153781 0.1245693 -0.07509801
-0.05199568 0.02793637 0.090329096 -0.09072654 -0.072821856 0.08491452 0.013246015 -0.037778825
0.054182634 0.10318035 -0.06031786 -0.018461898 0.07531759 -0.0182378 0.07005264 -0.013742849
0.029820979 0.10228221 -0.005447775 0.07521182 0.09891452 -0.062415063 0.03141138 -0.032645673
0.011627346 0.122838944 -0.10321611 0.048870414 0.080868274 -0.008104533 -0.10524079 -0.030468404
-0.08625202 -0.0968004 0.123408765 0.027522385 -0.10405028 -0.044616863 -0.042344257 0.04861191
0.07720715 0.054108053 -0.0617864 0.029712379 0.08015397 -0.09869188 -0.029681861 0.00911063
0.115048334 0.072723344 -0.06396796 0.0711007 0.06827079 -0.057760864 0.07644799 -0.03062576
-0.07533084 -0.020482406 0.013826013 0.04727529 -0.03406492 -0.031104207 -0.08257815 -0.016635418
-0.06920251 0.0867122 0.09857835 0.015832573 -0.085906476 -0.08737652 -0.016847745 -0.09994386
-0.101980254 -0.046171665 0.027301043 -0.07322277 -0.02201949 -0.0880318 -0.09300649 0.11281599
-0.035012215 0.02182129 0.124903604 -0.04024376 -0.04766743 -0.04991147 -0.000748381 0.098393366
0.052526385 0.068516865 -0.06903915 -0.07115497 -0.063378036 0.09755474 0.036401406 -0.051549837
0.044270456 0.1114845 0.07517488 -0.08178575 -0.019610658 -0.050178632 -0.013324559 -0.07199776
0.031131566 -0.10334097 0.050298646 -0.02671653 -0.055428803 0.099130526 0.0029866546 -0.017981216
-0.030183017 -0.09733896 0.023397356 -0.01741743 -0.09988248 -0.108175844 0.09693687 0.08733502
00000000: aaff f33d 1cda 1e3d b02a f4bd 90b2 03bc
00000010: 406e 3abc 441a a0bd 10d3 a9bd 6457 8c3d
00000020: 8006 053d 6819 e9bc e07e 1abd 20b6 ebbb
00000030: c0c6 1f3c 4a07 e03d 183b 92bd 4089 54bb
00000040: 308a c23c 5458 a3bd c0a9 42bd f8b6 c73d
00000050: aaa7 eebd 3098 e0bc ae67 b53d c22f 9f3d
00000060: 3664 f13d 684d bdbd 0efd e2bd e853 983d
00000070: 0654 b93d 0021 9e3c c01d 91bb 5c29 38bd
00000080: 786d 813c c019 f93c e020 35bc 9c05 abbd
00000090: f8ee cd3d 306a 70bd 9086 1fbd cc54 ae3d
000000a0: dcc1 65bd 60c3 413d 48d3 0fbd 50ff a63c
000000b0: 200c a8bb 1cf1 fb3d 60d8 8ebb 1076 803c
000000c0: d08e 143c 80bf bebd 0056 223b 5050 e1bd
000000d0: 9098 1ebd 4ca1 8c3d f008 b43d 0c32 dcbd
000000e0: 0ca1 1ebd a099 f93c fc97 623d 205f e73b
000000f0: 407a 4bbb f268 e33d 9a01 a43d ce81 d3bd
00000100: d8f9 a5bc 0036 c8b9 f8b7 b83d 5087 6f3c
00000110: 7cd6 1e3d 20bf 2bbc 20c5 47bd 642b 963d
00000120: bccb 64bd 80bc e83d 7854 a4bd 52de d73d
00000130: 30f4 e33d a6df a7bd 9c45 f53d 1694 dc3d
00000140: be99 abbd e45a 3b3d 6046 57bc bc91 96bd
00000150: 88a7 943c 4c78 4d3d d4cb afbd 1414 6cbd
00000160: 7881 c6bc 285f eebc c8a4 f13c 30b7 b93d
00000170: d054 cbbc bc65 403d aee7 d03d 3a19 a43d
00000180: 5408 903d c021 eabb da1d c7bd 08af 803c
00000190: 549d c33d a4c8 29bd 1431 a2bd aa3e b73d
000001a0: 209d 303d 0865 dd3c 3a23 de3d f4aa 6b3d
000001b0: 4a05 87bd 0c10 123d 001c 70bc 502c abbd
000001c0: d47c e1bd 345e ebbd e0e3 a2bc d424 07bd
000001d0: 5689 91bd 4c7a b23d 8456 60bd 70c7 f73d
000001e0: 64f5 debd 54e7 0b3d 2ef1 ae3d 30a6 00bd
000001f0: f690 c13d 101f 5abd 400f 67bd da83 8ebd
00000200: e89b 8ebc faba f9bd b05b 25bd cea1 943d
00000210: 4ce1 eb3d 5019 53bd 301e ff3d fccc 99bd
00000220: 6cf9 54bd d0da e43c 76fe b83d d6ce b9bd
00000230: a023 95bd aae7 ad3d d005 593c f8bd 1abd
00000240: 9cee 5d3d 3850 d33d dc0f 77bd 683d 97bc
00000250: 1c40 9a3d 7067 95bc c277 8f3d b029 61bc
00000260: 204b f43c 5679 d13d 4083 b2bb a808 9a3d
00000270: b293 ca3d f0a6 7fbd 38a9 003d 78b7 05bd
00000280: a080 3e3c fc92 fb3d f862 d3bd 582c 483d
00000290: 449e a53d e0c8 04bc 7c88 d7bd e098 f9bc
000002a0: e6a4 b0bd 4a3f c6bd bcbd fc3d a076 e13c
000002b0: 5018 d5bd 2cc0 36bd 2c71 2dbd 481d 473d
000002c0: c81e 9e3d 68a0 5d3d bc13 7dbd 6067 f33c
000002d0: c427 a43d f81e cabd 6027 f3bc c044 153c
000002e0: 769e eb3d faef 943d a201 83bd 3e9d 913d
000002f0: 8ed1 8b3d a896 6cbd c490 9c3d e0e2 fabc
00000300: 0e47 9abd b8ca a7bc 8086 623c bca3 413d
00000310: a887 0bbd 40ce febc bc1e a9bd 0047 88bc
00000320: 0cba 8dbd 2a96 b13d 72e3 c93d 50b3 813c
00000330: bcef afbd 76f2 b2bd 4804 8abc 5eaf ccbd
00000340: 06db d0bd 801e 3dbd 70a6 df3c d2f5 95bd
00000350: 3862 b4bc 044a b4bd 307a bebd 120c e73d
00000360: f868 0fbd 90c2 b23c 76cd ff3d a4d6 24bd
00000370: ec3e 43bd f86f 4cbd 002f 44ba 7682 c93d
00000380: e825 573d 9252 8c3d 6664 8dbd b2b9 91bd
00000390: 58cc 81bd c8ca c73d a419 153d ec25 53bd
000003a0: f054 353d fc51 e43d 4af5 993d 4a7f a7bd
000003b0: 88a6 a0bc 1c88 4dbd 404f 5abc 9073 93bd
000003c0: a007 ff3c 6ea4 d3bd f405 4e3d a0dc dabc
000003d0: 5009 63bd f204 cb3d c0bb 433b 584d 93bc
000003e0: 6042 f7bc a659 c7bd d0ab bf3c 00af 8ebc
000003f0: 308f ccbd 4c8b ddbd d686 c63d b4dc b23d

fc_mid.bias f4 [64]
-0.043876022 -0.093294576 -0.08630887 0.0037436187 -0.082334146 0.039529126 -0.10996106 0.048010547
0.057604592 -0.0890989 -0.1071907 -0.07437104 0.12086642 0.10651242 -0.05260068 0.039347224
0.013874611 0.0034204314 0.034044717 0.0986848 -0.09764324 -0.098861694 0.12987481 0.07110548
-0.008908257 0.040732384 0.100923434 -0.06956999 0.059369564 -0.057595998 -0.029084325 0.09833738
0.010407204 -0.005030766 -0.11306159 0.060100738 0.03601518 0.0137967495 -0.00044535537 0.04512991
-0.074027255 0.062803335 0.043488506 -0.09866847 0.037922427 0.03278213 0.11069518 0.07243085
0.053726282 0.11635819 0.011046301 -0.08401951 0.017390765 -0.020070314 -0.06350541 -0.1228991
-0.0008629217 -0.026251093 -0.04300198 0.11020418 -0.10946903 -0.03237264 0.06959499 0.019148674
00000000: 58b7 33bd 3a11 bfbd b4c2 b0bd 8057 753b
00000010: ce9e a8bd 4be9 213d 4433 e1bd b5a6 443d
00000020: cbf2 6b3d 7c79 b6bd cc86 dbbd d84f 98bd
00000030: d088 f73d 2f23 da3d d073 57bd 8e2a 213d
00000040: 5652 633c 5129 603b 7972 0b3d 421b ca3d
00000050: 2ef9 c7bd 0078 cabd e7fd 043e c09f 913d
00000060: f0f3 11bc 00d7 263d f2b0 ce3d b67a 8ebd
00000070: 802d 733d c8e9 6bbd 4042 eebc 1c65 c93d
00000080: fa82 2a3c 20d9 a4bb d68c e7bd 312c 763d
00000090: a784 133d c30b 623c 967e e9b9 24da 383d
000000a0: 9a9b 97bd 099f 803d 0121 323d b212 cabd
000000b0: 8c54 1b3d 8e46 063d 28b4 e23d a056 943d
000000c0: 1710 5c3d 344d ee3d 8bfb 343c 6c12 acbd
000000d0: 1477 8e3c 806a a4bc 200f 82bd 86b2 fbbd
000000e0: b235 62ba 880c d7bc d822 30bd bbb2 e13d
000000f0: 4c31 e0bd 2c99 04bd d187 8e3d aedd 9c3c

fc_out.weight f4 [3, 64]
-0.04896897 0.008975238 -0.032171607 0.07904753 0.10007729 -0.063249566 0.09519872 0.07164508
0.0021471472 -0.12424132 0.05756846 -0.076391086 -0.107673146 -0.07933941 0.049595326 -0.11528521
-0.11862904 -0.11537658 0.06626556 -0.036690727 0.10404459 0.09691867 -0.11389266 0.09380613
0.00087314844 0.031082802 0.11283617 -0.11263551 -0.026804784 0.05647503 -0.11850001 -0.052635442
0.03738116 -0.1134893 0.0223725 0.08119193 -0.1172133 0.105664626 0.101510875 0.06565713
-0.03964269 -0.011338021 0.09374272 -0.07515755 -0.101712905 0.00039464366 0.036780715 -0.11362504
-0.0031324273 -0.06897944 -0.056289896 -0.12085347 -0.10752212 0.06651454 0.025851712 0.11747119
0.08901361 0.010681391 0.021830007 0.027278455 0.10909094 0.065656245 0.050401192 -0.09329766
-0.027043238 0.05451183 0.021942422 0.07478787 0.030767605 0.035450343 0.12394859 -0.03078619
0.022045178 -0.09000069 0.06146443 0.060836464 -0.10479746 0.12543732 -0.011112377 -0.07118693
0.041339472 -0.04743184 0.07202966 0.050993886 0.0444676 -0.035418555 0.116734624 0.12881373
-0.030877873 0.03430546 0.025582584 -0.10588452 -0.016545666 0.09373097 0.0069954097 -0.05204374
-0.075385585 -0.06186126 0.1023092 -0.0599818 0.123658426 -0.07774373 -0.0035025054 -0.009598763
-0.10571067 0.019574184 0.04724158 0.028324887 -0.074794926 0.039701607 0.08390816 -0.087715305
0.00048221048 -0.09068955 0.12569162 -0.094123036 0.043807123 -0.07909763 -0.07897861 -0.017281264
0.06800778 -0.049208596 0.09501891 -0.057317253 0.09308736 -0.026454315 -0.059374172 0.12071438
0.083530426 0.08145897 -0.0859023 0.052398473 0.09188518 -0.096233726 0.117817685 0.0668764
-0.111669786 0.12467721 0.009426624 -0.10862963 0.0802775 -0.057925936 0.09272918 -0.043977443
0.10382444 0.11735039 0.048758376 0.06559272 -0.09479511 -0.08788726 -0.045332853 0.060188908
-0.119139 0.09784124 -0.049154513 0.06855652 0.009320919 0.11896044 0.05289492 -0.0014146512
-0.055752832 -0.024651274 0.025851637 0.115435794 -0.12532058 0.08796298 0.08650478 -0.054501142
-0.10821478 0.03371851 0.03422839 -0.11673558 -0.09224881 -0.0510764 0.027097842 0.08888346
-0.0950781 -0.020671304 -0.07474338 -0.033866435 0.017638292 -0.049249187 0.05885999 -0.09929842
-0.06848224 0.12194589 -0.116794825 -0.019646265 0.107486546 0.005073473 0.055004396 -0.03889154
00000000: b093 48bd e00c 133c 60c6 03bd ace3 a13d
00000010: 52f5 cc3d fd88 81bd 8cf7 c23d a8ba 923d
00000020: 27b7 0c3b 3c72 febd e8cc 6b3d ee72 9cbd
00000030: bd83 dcbd b37c a2bd 7824 4b3d a71a ecbd
00000040: c8f3 f2bd 8e4a ecbd 3db6 873d 0449 16bd
00000050: 5415 d53d 4c7d c63d 8e40 e9bd 6e1d c03d
00000060: 00e4 643a 5ca1 fe3c a616 e73d 72ad e6bd
00000070: b595 dbbc 5c52 673d 22b0 f2bd 4398 57bd
00000080: fd1c 193d 146d e8bd 8846 b73c f447 a63d
00000090: 870d f0bd b266 d83d efe4 cf3d 3f77 863d
000000a0: 6060 22bd 1bc3 39bc 2ffc bf3d 34ec 99bd
000000b0: db4e d0bd 2de8 ce39 60a7 163d 3fb4 e8bd
000000c0: 6949 4dbb 1845 8dbd 3c90 66bd 0682 f7bd
000000d0: 8f34 dcbd c638 883d f8c6 d33c bc94 f03d
000000e0: c44c b63d 0001 2f3c d8d4 b23c 1177 df3c
000000f0: 126b df3d c876 863d 7b71 4e3d d812 bfbd
00000100: c889 ddbc cc47 5f3d 98c0 b33c 622a 993d
00000110: 580c fc3c 6134 113d c2d8 fd3d 5233 fcbc
00000120: 1798 b43c 4852 b8bd 20c2 7b3d a82f 793d
00000130: 0da0 d6bd a472 003e b010 36bc 74ca 91bd
00000140: 9453 293d e447 42bd 4984 933d f7de 503d
00000150: a823 363d 0c13 11bd 9012 ef3d bfe7 033e
00000160: 98f3 fcbc e283 0c3d 9192 d13c fcd9 d8bd
00000170: c78a 87bc 06f6 bf3d c039 e53b d12b 55bd
00000180: c263 9abd 3c62 7dbd 7c87 d13d 7aaf 75bd
00000190: a140 fd3d 1b38 9fbd 4a8a 65bb 2144 1dbc
000001a0: d67e d8bd 0a5a a03c 6380 413d 9809 e83c
000001b0: 152e 99bd 279e 223d 0bd8 ab3d 15a4 b3bd
000001c0: 32d1 fc39 71bb b9bd 4eb5 003e 94c3 c0bd
000001d0: 196f 333d f0fd a1bd 8abf a1bd 7091 8dbc
000001e0: aa47 8b3d f48e 49bd 4699 c23d 7fc5 6abd
000001f0: 96a4 be3d b8b6 d8bc 5532 73bd 1a39 f73d
00000200: 0012 ab3d f6d3 a63d 8ced afbd c89f 563d
00000210: 4c2e bc3d 3016 c5bd 664a f13d 7ef6 883d
00000220: 21b3 e4bd c456 ff3d 2072 1a3c 3679 debd
00000230: 8868 a43d bf43 6dbd cce8 bd3d b121 34bd
00000240: e8a1 d43d 6755 f03d ddb6 473d 7a55 863d
00000250: f023 c2bd 3cfe b3bd f1ae 39bd a588 763d
00000260: 26ff f3bd fd60 c83d 3e56 49bd 5c67 8c3d
00000270: c5b6 183c 88a1 f33d 58a8 583d d16b b9ba
00000280: 155d 64bd 78f1 c9bc d0c6 d33c 9a69 ec3d
00000290: 0a54 00be ef25 b43d 6b29 b13d 973c 5fbd
000002a0: b69f ddbd 6c1c 0a3d 1133 0c3d 1013 efbd
000002b0: f2ec bcbd 7d35 51bd 4bfc dd3c 8808 b63d
000002c0: 4fb8 c2bd de56 a9bc 0f13 99bd 88b7 0abd
000002d0: 2e7e 903c 84b9 49bd 2c17 713d f85c cbbd
000002e0: 6b40 8cbd c4be f93d 2032 efbd 34f1 a0bc
000002f0: e821 dc3d 603f a63b 4a4c 613d bc4c 1fbd

fc_out.bias f4 [3]
0.094477564 0.035031002 0.049200892
00000000: 747d c13d ab7c 0f3d e086 493d

exp_avg f4 [16, 3]
-2.4368928e-06 -5.18797e-07 1.0615632e-08 5.4511497e-06 -8.28339e-06 7.09946e-08 0.0 0.0
0.0 6.453318e-06 -2.922529e-07 -4.0318394e-08 -1.2807369e-06 3.096803e-06 1.1218358e-07 0.0
0.0 0.0 2.6074376e-06 4.429209e-06 5.641284e-08 1.5431142e-06 -7.082334e-07 -3.6191558e-08
-6.4499915e-07 1.1961608e-06 -1.0649443e-08 -8.710752e-07 1.6816011e-06 4.402847e-08 -1.1917418e-06 4.8085085e-06
8.380952e-08 -5.048369e-06 -2.122518e-06 -1.3631381e-08 3.154702e-06 -2.3299035e-06 -6.705461e-10 -6.392926e-07
3.411664e-06 6.922052e-08 -1.8040571e-06 5.89923e-06 -8.642113e-08 -2.7037336e-06 8.3793935e-07 -1.7269098e-08
00000000: 8089 23b6 7543 0bb5 0b60 3632 05e9 b636
00000010: e4f8 0ab7 b275 9833 0000 0000 0000 0000
00000020: 0000 0000 9489 d836 efe6 9cb4 8b2a 2db3
00000030: c9e5 abb5 acd2 4f36 93e9 f033 0000 0000
00000040: 0000 0000 0000 0000 70fb 2e36 9e9e 9436
00000050: 934a 7233 001d cf35 6e1d 3eb5 0a71 1bb3
00000060: 0124 2db5 c68b a035 bff4 36b2 d5d3 69b5
00000070: 60b3 e135 d119 3d33 f0f3 9fb5 c658 a136
00000080: c5fa b333 2965 a9b6 9570 0eb6 732f 6ab2
00000090: 5eb5 5336 705b 1cb6 7d51 38b0 da9b 2bb5
000000a0: f1f3 6436 62a6 9433 ee22 f2b5 00f2 c536
000000b0: 8596 b9b3 ca71 35b6 c1ee 6035 2657 94b2

exp_avg_sq f4 [16, 3]
3.4990062e-12 1.1577091e-12 3.371214e-16 1.7476272e-11 1.259895e-11 4.632955e-15 0.0 0.0
0.0 1.4819384e-11 1.4119958e-11 1.523021e-14 5.87367e-12 5.64327e-12 6.1480633e-15 0.0
0.0 0.0 5.669429e-12 9.674411e-12 4.1178155e-15 5.3881283e-12 1.27912255e-11 8.075359e-15
3.9933794e-12 4.2434576e-12 1.1297645e-15 6.8618266e-12 7.2067985e-12 2.3293044e-15 2.9544373e-12 1.041071e-11
6.89143e-15 3.2321786e-12 2.4328504e-12 4.659926e-15 2.29504e-12 3.6703357e-12 3.2098773e-15 3.1964893e-12
5.55134e-12 7.880542e-15 4.3220197e-12 1.12651425e-11 3.9830793e-15 2.2875213e-12 1.6115585e-12 4.4704404e-15
00000000: 7e38 762c deee a22b 5656 c225 11b9 992d
00000010: a0a4 5d2d 78eb a627 0000 0000 0000 0000
00000020: 0000 0000 495a 822d a366 782d 792e 8928
00000030: 51a9 ce2c 0f8e c62c e081 dd27 0000 0000
00000040: 0000 0000 0000 0000 ad79 c72c ac31 2a2d
00000050: 255c 9427 f293 bd2c 8f06 612d 0579 1128
00000060: 2a81 8c2c ab4d 952c f4d0 a226 d76d f12c
00000070: 1291 fd2c 15d8 2727 69e6 4f2c ab25 372d
00000080: 394a f827 c171 632c 5632 2b2c 3be4 a727
00000090: c47f 212c 7223 812c c94b 6727 d5ee 602c
000000a0: 0752 c32c 96f6 0d28 4b11 982c b12d 462d
000000b0: 6c81 8f27 52f8 202c 84ce e22b 8910 a127

exp_avg f4 [16]
2.3684363e-06 5.3537324e-06 0.0 3.515107e-06 3.6827846e-06 0.0 -5.619948e-06 -3.9306306e-07
-2.544388e-06 -3.4319219e-06 -5.3582435e-06 4.071848e-06 2.5110537e-06 -5.3952276e-06 -2.2644597e-06 2.8617533e-06
00000000: 6df1 1e36 36a4 b336 0000 0000 14e5 6b36
00000010: c225 7736 0000 0000 fc92 bcb6 2d06 d3b4
00000020: 41c0 2ab6 f84f 66b6 f6ca b3b6 e8a0 8836
00000030: 9383 2836 a708 b5b6 1ff7 17b6 8c0c 4036

exp_avg_sq f4 [16]
4.658561e-12 3.0763003e-11 0.0 2.9040433e-11 1.1865359e-11 0.0 1.2249886e-11 2.0171205e-11
8.332207e-12 1.4512591e-11 1.4615061e-11 5.545109e-12 6.4096987e-12 8.616806e-12 1.5373418e-11 3.8765584e-12
00000000: 96e8 a32c 104c 072e 0000 0000 3e71 ff2d
00000010: d4bc 502d 0000 0000 9580 572d 846d b12d
00000020: ed94 122d e64e 7f2d 318e 802d e719 c32c
00000030: 6f85 e12c a596 172d dc39 872d ef64 882c

exp_avg f4 [15, 16, 32]
-2.8738725e-08 -3.9591274e-08 -7.0759896e-08 0.0 0.0 5.864705e-08 2.7427076e-08 2.6761698e-10
-4.013208e-07 0.0 -3.361131e-08 0.0 1.1744886e-08 1.2485336e-08 1.1597911e-08 0.0
5.3664703e-08 2.0301903e-07 1.3338798e-10 -3.7975024e-08 2.9833043e-07 3.378581e-07 0.0 -2.5823288e-08
1.2811244e-08 -2.6886391e-07 0.0 -1.1822029e-08 0.0 2.7338388e-07 -1.5873488e-07 0.0
-2.5627289e-08 1.414617e-08 -9.863453e-08 3.3621057e-11 -1.732643e-08 1.3651206e-06 4.5756488e-07 7.478944e-08
3.4233187e-07 0.0 -1.9171918e-07 0.0 3.790627e-08 -3.3444684e-07 5.288182e-07 0.0
-6.872453e-07 2.1124771e-07 2.4526466e-07 -5.0081775e-07 -6.116917e-08 -2.995645e-07 -6.924951e-08 -3.709594e-07
-1.5037806e-08 -7.242144e-08 -4.5594902e-07 -1.0689972e-07 -5.359477e-11 -3.4871084e-07 -3.4128618e-07 0.0
0.0 0.0 0.0 0.0 0.0 0.0 0.0 0.0
0.0 0.0 0.0 0.0 0.0 0.0 0.0 0.0
0.0 0.0 0.0 0.0 0.0 0.0 0.0 0.0
0.0 0.0 0.0 0.0 0.0 0.0 0.0 0.0
-5.0291693e-08 3.1892176e-07 -6.303308e-07 4.4739695e-11 -1.7922245e-08 1.2339204e-06 4.5063933e-07 8.6603364e-08
-9.90287e-07 0.0 -1.7787839e-07 0.0 4.4768715e-08 8.9072586e-08 2.5954267e-07 0.0
-4.9291987e-07 3.4373593e-07 1.7087281e-07 -4.0791565e-07 7.755821e-07 1.1487563e-06 -4.4727916e-08 -3.5828828e-07
4.046056e-09 -1.1218352e-06 -2.5900886e-07 -3.9509104e-07 -5.177873e-11 5.2383206e-07 -4.6478672e-07 0.0
1.017106e-08 7.1369534e-08 -1.2472323e-07 1.3920032e-10 -4.0024734e-08 1.2785562e-06 3.8725423e-07 7.558829e-09
5.850836e-07 0.0 -1.8740312e-07 0.0 2.5874114e-08 -1.196525e-07 4.4476934e-07 0.0
-6.3678766e-07 5.280789e-08 2.8197968e-07 -3.9319883e-07 -3.134797e-07 -2.736541e-07 -7.981633e-08 -3.2215053e-07
-2.483391e-09 -5.3462113e-08 -5.142835e-07 -2.2969834e-07 -2.7690317e-10 -4.170231e-07 -2.881436e-07 0.0
0.0 0.0 0.0 0.0 0.0 0.0 0.0 0.0
0.0 0.0 0.0 0.0 0.0 0.0 0.0 0.0
0.0 0.0 0.0 0.0 0.0 0.0 0.0 0.0
0.0 0.0 0.0 0.0 0.0 0.0 0.0 0.0
0.0 6.5209184e-07 -9.279083e-07 0.0 0.0 0.0 -3.5992938e-11 0.0
-1.9030066e-06 0.0 0.0 0.0 -3.6943653e-09 7.267763e-07 -4.2661722e-07 0.0
1.1556298e-07 3.6785835e-08 4.3709825e-10 6.707635e-08 1.0579448e-06 2.176339e-06 0.0 1.2242771e-09
3.5757584e-08 -1.662591e-06 8.35948e-08 -5.752019e-07 0.0 1.1489198e-06 -1.0321531e-07 0.0
-1.0824155e-07 1.128266e-06 -2.1439764e-06 9.415043e-11 -1.6691173e-08 1.0239331e-06 4.426994e-07 9.6580955e-08
-4.2927186e-06 0.0 -1.6379899e-07 0.0 6.146903e-08 1.3768781e-06 -2.9347498e-07 0.0
-1.2381524e-07 6.425061e-07 4.371731e-08 -1.3224532e-07 2.760181e-06 4.90412e-06 -5.417458e-09 -3.5205392e-07
3.845498e-08 -3.8845224e-06 1.6472907e-07 -1.3041732e-06 4.2798376e-11 2.6770972e-06 -6.658579e-07 0.0
00000000: 20dd f6b2 110b 2ab3 aaf4 97b3 0000 0000
00000010: 0000 0000 1de3 7b33 c798 eb32 be1f 932f
00000020: 1c75 d7b4 0000 0000 075c 10b3 0000 0000
00000030: 8ec6 4932 177f 5632 2740 4732 0000 0000
00000040: f77c 6633 72fd 5934 61a9 122f fb19 23b3
00000050: 392a a034 dd62 b534 0000 0000 03d2 ddb2
00000060: 7218 5c32 6058 90b4 0000 0000 d519 4bb2
00000070: 0000 0000 98c5 9234 b670 2ab4 0000 0000
00000080: 0123 dcb2 8307 7332 e8d0 d3b3 f2dd 132e
00000090: 39d5 94b2 3039 b735 3da7 f534 ee9b a033
000000a0: bcc9 b734 0000 0000 5edb 4db4 0000 0000
000000b0: 62ce 2233 068e b3b4 1cf4 0d35 0000 0000
000000c0: 237b 38b5 54d3 6234 ebac 8334 ef6f 06b5
000000d0: 1b5c 83b3 d5d3 a0b4 52b6 94b3 4628 c7b4
000000e0: 7c2c 81b2 1c86 9bb3 28c9 f4b4 be90 e5b3
000000f0: 59b6 6bae 7436 bbb4 043a b7b4 0000 0000
00000100: 0000 0000 0000 0000 0000 0000 0000 0000
00000110: 0000 0000 0000 0000 0000 0000 0000 0000
00000120: 0000 0000 0000 0000 0000 0000 0000 0000
00000130: 0000 0000 0000 0000 0000 0000 0000 0000
00000140: 0000 0000 0000 0000 0000 0000 0000 0000
00000150: 0000 0000 0000 0000 0000 0000 0000 0000
00000160: 0000 0000 0000 0000 0000 0000 0000 0000
00000170: 0000 0000 0000 0000 0000 0000 0000 0000
00000180: 4d00 58b3 4638 ab34 0134 29b5 6bc4 442e
00000190: 6ff3 99b2 2f9d a535 66ef f134 b4fa b933
000001a0: 01ea 84b5 0000 0000 d7fe 3eb4 0000 0000
000001b0: b947 4033 2c48 bf33 4657 8b34 0000 0000
000001c0: 3251 04b5 b58a b834 2979 3734 80ff dab4
000001d0: 9931 5035 f72e 9a35 dd1a 40b3 c45a c0b4
000001e0: 7c05 8b31 f791 96b5 e80d 8bb4 e61c d4b4
000001f0: abb9 63ae 779d 0c35 cd87 f9b4 0000 0000
00000200: ccbc 2e32 d143 9933 a9eb 05b4 680d 192f
00000210: a9e7 2bb3 db9a ab35 d1e7 cf34 15dc 0132
00000220: a40e 1d35 0000 0000 fa38 49b4 0000 0000
00000230: c741 de32 d479 00b4 a2c8 ee34 0000 0000
00000240: b7ef 2ab5 e4ce 6233 fe62 9734 d618 d3b4
00000250: 524c a8b4 bcea 92b4 7e67 abb3 08f4 acb4
00000260: 47a8 2ab1 379e 65b3 4b0d 0ab5 00a3 76b4
00000270: a83a 98af 38e3 dfb4 28b2 9ab4 0000 0000
00000280: 0000 0000 0000 0000 0000 0000 0000 0000
00000290: 0000 0000 0000 0000 0000 0000 0000 0000
000002a0: 0000 0000 0000 0000 0000 0000 0000 0000
000002b0: 0000 0000 0000 0000 0000 0000 0000 0000
000002c0: 0000 0000 0000 0000 0000 0000 0000 0000
000002d0: 0000 0000 0000 0000 0000 0000 0000 0000
000002e0: 0000 0000 0000 0000 0000 0000 0000 0000
000002f0: 0000 0000 0000 0000 0000 0000 0000 0000
00000300: 0000 0000 690b 2f35 5f15 79b5 0000 0000
00000310: 0000 0000 0000 0000 724c 1eae 0000 0000
00000320: cf6a ffb5 0000 0000 0000 0000 0000 0000
00000330: f6df 7db1 b017 4335 d309 e5b4 0000 0000
00000340: 6c2b f833 74fe 1d33 1c4c f02f 9d0b 9033
00000350: b5fe 8d35 380d 1236 0000 0000 6c43 a830
00000360: e193 1933 3126 dfb5 ba84 b333 9367 1ab5
00000370: 0000 0000 9534 9a35 37a7 ddb3 0000 0000
00000380: 6c72 e8b3 ed6e 9735 3ce1 0fb6 fb09 cf2e
00000390: 4760 8fb2 136e 8935 24ac ed34 f167 cf33
000003a0: 2c0a 90b6 0000 0000 b9e0 2fb4 0000 0000
000003b0: f500 8433 2ccd b835 e58e 9db4 0000 0000
000003c0: 13f2 04b4 af78 2c35 b1c3 3b33 51ff 0db4
000003d0: 8c3b 3936 128e a436 7724 bab1 ec01 bdb4
000003e0: b329 2533 cb57 82b6 62e0 3034 0d0b afb5
000003f0: b03a 3c2e 2ea8 3336 68bd 32b5 0000 0000

exp_avg_sq f4 [15, 16, 32]
8.2591436e-17 2.052678e-14 2.8535178e-15 0.0 0.0 7.9688897e-16 5.5660195e-15 1.3553113e-18
3.6626975e-14 0.0 4.6482153e-15 0.0 1.98459e-15 4.944195e-15 8.8359716e-15 0.0
4.4099364e-15 9.130192e-15 1.317596e-18 1.0848271e-16 1.563421e-14 4.0771385e-14 0.0 2.0842533e-16
6.165366e-16 7.884368e-15 0.0 1.6564333e-15 0.0 1.5084036e-14 6.702106e-15 0.0
7.041728e-14 6.8693315e-14 5.5727304e-14 7.9819254e-22 1.4653501e-15 3.2830046e-13 1.1536043e-13 2.3714761e-14
4.361515e-13 0.0 1.5416309e-13 0.0 6.126322e-15 2.692528e-13 7.664069e-14 0.0
7.759884e-14 1.03633194e-13 5.027619e-14 5.8207006e-14 1.4303067e-13 4.038225e-13 1.7998352e-14 5.967558e-14
7.952933e-16 2.0797703e-13 2.1414367e-13 7.359743e-14 1.0229973e-21 2.2120127e-13 4.6489112e-14 0.0
0.0 0.0 0.0 0.0 0.0 0.0 0.0 0.0
0.0 0.0 0.0 0.0 0.0 0.0 0.0 0.0
0.0 0.0 0.0 0.0 0.0 0.0 0.0 0.0
0.0 0.0 0.0 0.0 0.0 0.0 0.0 0.0
5.0734106e-14 1.5511685e-13 8.13649e-14 2.1001179e-21 9.283247e-16 2.1532316e-13 1.0621992e-13 1.2431114e-14
7.137263e-13 0.0 1.2824388e-13 0.0 1.3169197e-14 1.9896389e-13 9.668009e-14 0.0
1.154014e-13 1.1084546e-13 2.4797643e-14 3.221214e-14 2.2330962e-13 8.0776146e-13 8.9583805e-15 4.3181587e-14
3.1466446e-15 2.8680845e-13 1.03871264e-13 7.168995e-14 4.8219436e-21 2.6049573e-13 6.5877134e-14 0.0
6.559345e-14 2.5327398e-14 7.913272e-14 2.3990592e-20 1.4272356e-14 3.6445033e-13 1.078894e-13 3.2682173e-14
3.1649997e-13 0.0 1.4179691e-13 0.0 2.030072e-15 3.5700362e-13 6.733337e-14 0.0
5.83207e-14 7.5038845e-14 6.7038436e-14 7.9843806e-14 9.3588596e-14 3.5489103e-13 2.3645733e-14 5.675125e-14
1.3303366e-16 2.3111257e-13 2.764853e-13 1.3132664e-13 4.7046947e-20 2.1226288e-13 5.396709e-14 0.0
0.0 0.0 0.0 0.0 0.0 0.0 0.0 0.0
0.0 0.0 0.0 0.0 0.0 0.0 0.0 0.0
0.0 0.0 0.0 0.0 0.0 0.0 0.0 0.0
0.0 0.0 0.0 0.0 0.0 0.0 0.0 0.0
0.0 9.947398e-14 1.3982873e-13 0.0 0.0 0.0 6.675444e-21 0.0
7.360045e-13 0.0 0.0 0.0 1.0378345e-15 1.3260734e-13 5.2596402e-14 0.0
9.7035817e-14 4.291965e-16 1.3706653e-17 4.762542e-15 1.3231458e-13 1.096272e-12 0.0 4.7561624e-19
2.9798414e-15 3.578411e-13 5.6485718e-15 1.2654794e-13 0.0 1.7833215e-13 5.803437e-14 0.0
3.0542304e-14 7.253625e-13 6.840439e-13 1.8453824e-20 4.5815665e-15 1.189263e-13 1.3910566e-13 3.3924565e-15
4.000264e-12 0.0 1.3484857e-13 0.0 3.6756226e-14 6.934757e-13 3.3715505e-13 0.0
5.6459573e-13 1.7695714e-13 1.812114e-15 3.600416e-14 8.7517585e-13 5.6121436e-12 7.13228e-16 2.9222704e-14
1.798305e-14 1.7058317e-12 3.745218e-14 5.803386e-13 6.3818264e-20 1.0683401e-12 3.3856297e-13 0.0
00000000: 6171 be24 88e3 b828 1d9e 4d27 0000 0000
00000010: 0000 0000 07b0 6526 7889 c827 3702 c821
00000020: 07f4 2429 0000 0000 3878 a727 0000 0000
00000030: 3901 0f27 2622 b227 ba2c 1f28 0000 0000
00000040: 7ce2 9e27 9479 2428 5f71 c221 e424 fa24
00000050: 09d2 8c28 359e 3729 0000 0000 4d4c 7025
00000060: 5fb4 3126 3b08 0e28 0000 0000 9ab7 ee26
00000070: 0000 0000 6bdd 8728 0478 f127 0000 0000
00000080: cc90 9e29 00af 9a29 35f9 7a29 283d 711c
00000090: e02d d326 15d1 b82a 61e2 012a 849a d528
000000a0: 0e88 f52a 0000 0000 7c92 2d2a 0000 0000
000000b0: 59b9 dc27 6b93 972a 5a94 ac29 0000 0000
000000c0: b0bc ae29 785c e929 806c 6229 0e12 8329
000000d0: c909 212a f554 e32a 601d a228 a160 8629
000000e0: 4a3a 6526 4c29 6a2a b61a 712a 08ba a529
000000f0: 4b97 9a1c ed0c 792a 4c5e 5129 0000 0000
00000100: 0000 0000 0000 0000 0000 0000 0000 0000
00000110: 0000 0000 0000 0000 0000 0000 0000 0000
00000120: 0000 0000 0000 0000 0000 0000 0000 0000
00000130: 0000 0000 0000 0000 0000 0000 0000 0000
00000140: 0000 0000 0000 0000 0000 0000 0000 0000
00000150: 0000 0000 0000 0000 0000 0000 0000 0000
00000160: 0000 0000 0000 0000 0000 0000 0000 0000
00000170: 0000 0000 0000 0000 0000 0000 0000 0000
00000180: 717c 6429 63a5 2e2a ac37 b729 30ae 1e1d
00000190: 23c9 8526 ad6e 722a 9d2f ef29 65f0 5f28
000001a0: 66e5 482b 0000 0000 c863 102a 0000 0000
000001b0: 343c 6d28 7003 602a 47b4 d929 0000 0000
000001c0: 30ee 012a 0f9a f929 795b df28 1212 1129
000001d0: 9e6c 7b2a 595d 632b 3d61 2128 fb78 4229
000001e0: 59bd 6227 7475 a12a b5e5 e929 716e a129
000001f0: fa2a b61d 64a5 922a 9557 9429 0000 0000
00000200: 0db4 9329 0121 e428 e830 b229 b195 e21e
00000210: d08d 8028 d42a cd2a 01f2 f229 fb2f 1329
00000220: 742c b22a 0000 0000 2da6 1f2a 0000 0000
00000230: 3848 1227 a5f9 c82a 0c9f 9729 0000 0000
00000240: 9853 8329 f3f8 a829 07f5 9629 d2ca b329
00000250: 27be d229 30c9 c72a 59fb d428 bd95 7f29
00000260: 9b60 1925 d51a 822a bba5 9b2a 54dc 132a
00000270: 452c 5e1f 9cfc 6e2a d20b 7329 0000 0000
00000280: 0000 0000 0000 0000 0000 0000 0000 0000
00000290: 0000 0000 0000 0000 0000 0000 0000 0000
000002a0: 0000 0000 0000 0000 0000 0000 0000 0000
000002b0: 0000 0000 0000 0000 0000 0000 0000 0000
000002c0: 0000 0000 0000 0000 0000 0000 0000 0000
000002d0: 0000 0000 0000 0000 0000 0000 0000 0000
000002e0: 0000 0000 0000 0000 0000 0000 0000 0000
000002f0: 0000 0000 0000 0000 0000 0000 0000 0000
00000300: 0000 0000 d8fe df29 e36e 1d2a 0000 0000
00000310: 0000 0000 0000 0000 ef30 fc1d 0000 0000
00000320: b72a 4f2b 0000 0000 0000 0000 0000 0000
00000330: 5691 9526 774d 152a 86df 6c29 0000 0000
00000340: 5781 da29 396a f725 d7d7 7c23 b296 ab27
00000350: 15f9 142a 5d49 9a2b 0000 0000 8c60 0c21
00000360: 5fb8 5627 5672 c92a e182 cb27 f67a 0e2a
00000370: 0000 0000 bec8 482a 89ae 8229 0000 0000
00000380: e18c 0929 e02b 4c2b 8f8a 402b 9c4a ae1e
00000390: 7e11 a527 2ce6 052a 7a9e 1c2a c773 7427
000003a0: 2dbf 8c2c 0000 0000 74d3 172a 0000 0000
000003b0: 0b89 2529 3132 432b 2acd bd2a 0000 0000
000003c0: 69eb 1e2b 6c3c 472a 9a93 0227 f825 2229
000003d0: 1157 762b b275 c52c f092 4d26 7c9b 0329
000003e0: 17fa a128 1013 f02b 6cab 2829 ce59 232b
000003f0: c6af 961f 025b 962b 1198 be2a 0000 0000

exp_avg f4 [32]
-9.724228e-07 1.5318094e-05 8.835248e-06 -2.2234626e-05 -7.908541e-06 7.1194013e-06 7.283592e-06 1.0897994e-06
-7.1386676e-06 6.1516694e-08 5.771175e-06 0.0 1.3369522e-06 6.5890317e-06 -3.3154881e-06 0.0
7.049906e-06 6.898236e-06 -4.6581504e-06 1.0620722e-05 -2.985419e-05 -1.6773321e-05 7.286833e-08 1.0139047e-05
3.2330064e-07 -3.617448e-05 7.6409415e-06 -1.3502547e-06 -2.1589789e-05 6.9639523e-06 1.4928792e-05 0.0
00000000: 3184 82b5 5b7f 8037 1a3b 1437 7f84 bab7
00000010: edae 04b7 31e3 ee36 9465 f436 3945 9235
00000020: b088 efb6 291b 8433 04a6 c136 0000 0000
00000030: 5471 b335 5a17 dd36 a77f 5eb6 0000 0000
00000040: 3b8e ec36 6577 e736 354d 9cb6 a72f 3237
00000050: 636f fab7 6fb4 8cb7 ca7b 9c33 e01a 2a37
00000060: 1a92 ad34 0dba 17b8 9831 0037 663a b5b5
00000070: b81b b5b7 e5ab e936 ac76 7a37 0000 0000

exp_avg_sq f4 [32]
2.7706733e-11 1.8961811e-10 3.0473588e-10 2.101087e-10 3.6137943e-11 6.7293546e-11 9.686018e-11 1.7454314e-11
1.0940258e-10 2.0436205e-13 7.263288e-11 0.0 8.81763e-12 2.3401486e-10 1.0436264e-10 0.0
1.6856583e-10 1.0100427e-10 7.9819505e-11 8.082516e-11 2.716747e-10 1.01617034e-10 1.1800708e-11 2.2521067e-10
4.418078e-12 3.2051667e-10 8.08038e-11 1.4612686e-10 2.063684e-10 2.533393e-10 3.5437855e-10 0.0
00000000: 04b6 f32d c17c 502f c387 a72f 5704 672f
00000010: b5ef 1e2e e6fa 932e 6fff d42e 9f87 992d
00000020: 2d94 f02e 5a17 662a adb8 9f2e 0000 0000
00000030: 131f 1b2d aaa6 802f f17e e52e 0000 0000
00000040: 1057 392f 591c de2e 6386 af2e 85bc b12e
00000050: d15a 952f 4e75 df2e aa99 4f2d 2b9f 772f
00000060: 8272 9b2c b634 b02f 7fb0 b12e 0eab 202f
00000070: 8ae7 622f 5646 8b2f 59d2 c22f 0000 0000
