GPU/checkpoints_kpconv/kpconv_best_miou_0.2040.pth (torch, 482597 bytes, 32 tensors)

fc_in.weight f4 [8, 3]
00000000: e30d 013f ea34 6d3e 2569 9c3e aa27 a3be
00000010: 3f5d 053f 0180 dd3e 8be3 65bc c297 c43d
00000020: 7e06 84bd f157 d2be b103 f3be d550 043f
00000030: bba7 d93e cbee 113f 491b 853e 1c45 853d
00000040: db12 67bd 4c7d 8c3d cc19 94bd 9ab8 8fbe
00000050: 11b3 963e 7a09 5f3d 3856 4fbd a682 dbbe
0.50411814 0.23164716 0.3054897 -0.318662 0.5209541 0.43261722 -0.014031301 0.09599258
-0.06446551 -0.4108272 -0.47463754 0.5168584 0.4251078 0.57004994 0.2599738 0.06507322
-0.056414466 0.06859836 -0.07231483 -0.28070527 0.29433492 0.054452397 -0.050619334 -0.42873114

fc_in.bias f4 [8]
00000000: f5fe eb3e 3b47 0a3f 4c6b 8fbd 65c3 933e
00000010: d01c bd3e 24cf 393d dbf0 bdbe b136 9c3e
0.46092954 0.5401494 -0.07002887 0.28860012 0.36936045 0.04536356 -0.3709782 0.30510476

kpconv1.kernel_weights f4 [15, 8, 32]
00000000: 544e dc3e a3aa 6bbe 6131 5a3f e925 9ebf
00000010: 9fdd bb3e c1af babe fd59 17be 90d6 ab3f
00000020: d9d5 9c3d 3393 8a3d b447 cebe a8f0 e4be
00000030: 0a0a a339 f3e9 48be 2f18 753e 7b06 d3be
00000040: 0a4e a7be 0677 d2be 983d 31bf d566 63be
00000050: 30ec 5c3e e7c7 41bf 0275 a8bd 6b73 83bf
00000060: 1bd7 23bf a296 febe d7ea 3fbf 619d f83e
00000070: 2fbd 6bbe 3290 ec3e 1d8b 223e e0e5 b13e
00000080: 827a 2c3f a253 8a3d a7c6 84be 2c87 7dbf
00000090: 3ab6 c13e 3303 ecbe 7ccf df3d 5b47 5fbe
000000a0: 8c59 fbbe ac3a 9abe 22ed 7fbe 9378 9d3e
000000b0: 7c2e eabe 3bbb 1e3e 4b42 d9be 9b03 1f3f
000000c0: 8f2c 27bf 5c48 053d ad67 fa3e e866 debe
000000d0: 748f 4abf 4e4f c5be b4a6 a73e 44ce 6bbd
000000e0: 5bff 4abf bf5f ea3c 1e29 c83e c515 f7be
000000f0: d3fc dd3e 3559 023e 1a7e 09bf 6fab 94be
00000100: b3b4 3fbf a783 0dbf 098f 40bf b6ca 413e
00000110: 87b8 0c3e 5754 fd3e 4004 88be dc9d 873f
00000120: d571 d43e 0fad e43e f2b2 27bf b5ec 0abf
00000130: f90d 833e aa58 d5be d8e1 2f3f 2046 6f3d
00000140: e83b f5be 05cf 283f 4efd 193f 3f50 90be
00000150: f9b2 9ebe 5e18 c8bd 84b4 0f3f d6d2 103f
00000160: 8a45 383e 8ce7 0f3e ccc6 06bf 88ed 933d
00000170: 7e3a 1f3e c98d 50bd e2eb 113e 80bd 85b9
00000180: a762 153f 3ea4 58be c665 953d 9d5a 1dbf
00000190: 12fd a53c 68ea 9c3e 48ab 6bbd bb4f 06bf
000001a0: df42 813e b5d1 febd db88 8ebf 257e 3bbe
000001b0: f7ad 653e 91bd 14bf ff89 8b3d aa9b 313d
000001c0: 0bf2 a9be 4d2d d33e ec4e d4be c927 23be
000001d0: d750 153e c632 b53f 40d7 0fbf 1d6d f93e
000001e0: e0fd 133f 7684 70be b65b b53e be00 b8bd
000001f0: b068 8bbf 95f5 5d3f 5038 cf3e 036d acbe
00000200: e4fe 1e3d 46ea 353e 0e60 8d3e ecc3 5c3e
00000210: 6827 a63e fb99 d73e a7c2 613f f1cb c7be
00000220: 4b53 9ebe bed1 053e c079 323f 794a 143f
00000230: 0dda bcbe a6e8 e13d a658 4c3e 9210 953e
00000240: 68c6 b9be a00e 193f 3185 fabe b8b6 9cbe
00000250: 37d9 8a3e 5680 74be 9905 0a3e c315 8e3f
00000260: 1d0d b5bd f549 40bf 64de 4d3f 85d3 a13e
00000270: 1a0c b33c b3fe 5b3f e498 263e 5803 ba3e
00000280: 40e2 b13e 18d7 523e eee3 963e abe2 00be
00000290: 6f31 1e3e 4b31 953e a916 f9bc 81b9 173d
000002a0: 6ce5 e2be 86d9 61bf 66c2 40bf d715 143e
000002b0: b2a2 2b3f 8d19 d5be 5985 1fbf c6f4 ce3e
000002c0: 8b95 823e 38df 4b3d ad3b a33d 5d02 e63e
000002d0: 4db4 8cbd 378a 2abf e269 f3be 824e 3d3f
000002e0: c82a 9ebe 0fbd d3bd 7d7c 733e c943 cd3e
000002f0: 4e1d 793f 9409 d23d 4a53 ee3e b464 8b3d
00000300: 6b2d bcbe 17ef 47be 1f96 67be 796d 82bc
00000310: c125 523f 3863 97be a485 ed3d fd16 f53e
00000320: de5e 6dbd e11f 3d3f d810 a3bd 20b2 c5bd
00000330: 175f b63e 70b7 9c3f d65f 223f 3500 1bbe
00000340: 7cad 333e 45c6 47bf 163f 003e e795 b6bc
00000350: a659 4b3f 9384 abbe fe93 3d3f d4b2 e43e
00000360: 8936 2ebf 60a8 943f 9ec2 e8bd dc05 2c3f
00000370: f878 31be 1248 ef3e df81 093f a21b 083e
00000380: 7553 f93e 79b3 d93e 847f 4c3e 6b4c 87bd
00000390: 4b51 373e b7b8 f23e 2bb8 4a3f b9fb ee3d
000003a0: 655a 06bf 336b ae3f 296d 8dbe 711c d2be
000003b0: 1e03 183c 2db1 7c3e 9a92 41be ad33 0cbf
000003c0: b9f8 a0bf 1ded 35bf e821 913e 61d6 ebbe
000003d0: 9cbc dbbe d531 683f eccf ed3c ec70 0f3f
000003e0: 9626 67bf 2b41 203e 8b51 8fbe df8f 09bf
000003f0: 629e 843e 4daf 9ebd be6d 583e 42cf 483f
0.4302851 -0.23014311 0.85231596 -1.2355319 0.3669252 -0.36462215 -0.14780422 1.3424854
0.07657976 0.06766357 -0.4028908 -0.44714856 0.00031097262 -0.19620495 0.23935007 -0.41215882
-0.32676727 -0.41106433 -0.6923461 -0.22207196 0.21574473 -0.7569565 -0.082254425 -1.0269598
-0.640001 -0.497243 -0.7496771 0.4855757 -0.23021387 0.46203762 0.1587338 0.34745693
0.6737443 0.06754233 -0.2593281 -0.9903438 0.3783434 -0.4609619 0.109282464 -0.21804564
-0.49091756 -0.30122888 -0.24992803 0.30756053 -0.4573859 0.1550111 -0.4243339 0.62114877
-0.65302366 0.03253971 0.48907223 -0.43437886 -0.7912514 -0.38537067 0.32744372 -0.057569757
-0.7929589 0.028610108 0.3909387 -0.48258796 0.43356952 0.12729342 -0.5370804 -0.29037043
-0.748851 -0.5527901 -0.75218254 0.18924984 0.13742267 0.4947841 -0.26565742 1.059505
0.41493097 0.44663283 -0.65507424 -0.54267436 0.25596598 -0.41669208 0.68703985 0.058416486
-0.47897267 0.65940887 0.6015214 -0.28186223 -0.3099592 -0.09770273 0.5613482 0.5657171
0.17995277 0.14053172 -0.5264709 0.0722304 0.15549657 -0.050916467 0.14250138 -0.00025508925
0.58353657 -0.21156403 0.07294802 -0.6146639 0.020262275 0.30647588 -0.057536393 -0.5246541
0.2524633 -0.12442342 -1.1135515 -0.18309839 0.22429644 -0.58101755 0.0681343 0.043361343
-0.33192477 0.412455 -0.41466463 -0.15933146 0.14581619 1.415612 -0.5618782 0.4871606
0.5780926 -0.2348803 0.35421532 -0.089845166 -1.0891323 0.86702853 0.4047265 -0.3367692
0.0388173 0.1776515 0.27612346 0.21559113 0.3245194 0.42109665 0.8818764 -0.39022782
-0.30922922 0.13068292 0.69717026 0.57926136 -0.3688511 0.11030702 0.19955692 0.29114205
-0.36284184 0.5978794 -0.48929742 -0.30608153 0.27118847 -0.23877081 0.13478698 1.1100391
-0.08840392 -0.7511285 0.80417466 0.3160669 0.021856356 0.85935515 0.1626926 0.36330676
0.34742928 0.20589864 0.29470772 -0.12586467 0.15448545 0.2913917 -0.030406313 0.037042145
-0.4431566 -0.8822254 -0.7529663 0.14461456 0.6704513 -0.41621056 -0.6231285 0.40421122
0.25504717 0.049773425 0.079703666 0.44923678 -0.06870327 -0.6661715 -0.4754172 0.7394792
-0.30892015 -0.103387944 0.23777957 0.40090778 0.9731034 0.10255733 0.4654792 0.06806317
-0.367534 -0.195248 -0.2261586 -0.015921341 0.8208886 -0.29567885 0.115977556 0.478691
-0.0579518 0.7387677 -0.07962197 -0.09653115 0.35619423 1.2243481 0.63427484 -0.15136798
0.17546648 -0.7803691 0.12524065 -0.022288276 0.7943367 -0.33499584 0.74053943 0.44667685
-0.68051964 1.1613884 -0.11365245 0.6719644 -0.17331302 0.46734673 0.5371379 0.13291791
0.48696485 0.4251974 0.19970518 -0.066063724 0.17902105 0.4740655 0.7918727 0.11669106
-0.5248168 1.3626465 -0.27622345 -0.41037324 0.009278087 0.24676962 -0.1890358 -0.5476635
-1.2575904 -0.7106493 0.2834618 -0.46061996 -0.42917335 0.9070104 0.029029809 0.5603168
-0.9029325 0.1564986 -0.279919 -0.53735155 0.25902086 -0.0774828 0.21135613 0.7844125

kpconv1.bias f4 [32]
00000000: e5ba 193c 0000 0000 52ef c0bb 7c0b 723c
00000010: 75f6 96ba 7a73 c43b b4dd bd3a 1a7d 34bb
00000020: 8eec f23b 7a0c 93bc 0000 0000 8f33 38bc
00000030: ccf4 e0bb 8793 9b3b 185b 32ba 24b8 40bc
00000040: cf23 c63a 22d9 32bb 0000 0000 b5e4 5bbb
00000050: 3635 b9ba f431 e33b 6c03 61bb 0e26 d83b
00000060: fc11 a0bb a5d3 243c 0000 0000 6ae9 1b3c
00000070: 7663 c4bb 0000 0000 da68 033c f0a5 55bc
0.009382938 0.0 -0.005887904 0.014773246 -0.0011517542 0.005995211 0.0014485628 -0.0027540387
0.0074134534 -0.017950285 0.0 -0.011242761 -0.0068651196 0.0047478112 -0.0006803735 -0.011762653
0.0015116873 -0.0027290066 0.0 -0.0033553068 -0.0014130238 0.006933445 -0.0034334315 0.0065963333
-0.0048849564 0.010060226 0.0 0.0095160995 -0.005993302 0.0 0.008020604 -0.013040051

kpconv1.kernel_points f4 [15, 3]
00000000: bfc3 f43c cd12 6ebe 418c 4e3e adde 56ba
00000010: 95f6 613c 4c25 783c 6fba 113e 4b09 5f3e
00000020: badc 963e 3a76 a33e cc4a a1bd db64 c03e
00000030: 95f2 91be c0f8 9cbe 6876 733e ac14 413d
00000040: 5543 613d aeac 10bd f97d 8cbe a33e c3bd
00000050: 0f63 14be 9882 923d 132f 81bc 0dbd 13be
00000060: 7908 a03c f980 56be 749c c73e 86b9 503e
00000070: 1f4a 4e3e 2281 55bd b656 4dbd f7bd 0dbd
00000080: c755 3f3e 0db2 583e 452a 043d c4c7 cdbe
00000090: 9af8 0f3c feb6 9b3e 262d e43d 0f9b 73bb
000000a0: 1a74 c4bb c6ec 5d3c 6dac 99be beef ebbd
000000b0: 859a 04be
0.029878495 -0.2324936 0.2017069 -0.00081966334 0.0137917 0.015145611 0.14231275 0.21780889
0.29465276 0.31926137 -0.078755945 0.37576947 -0.28505388 -0.3065853 0.23775637 0.047138855
0.054995853 -0.03532093 -0.2743986 -0.095334314 -0.14490913 0.07153815 -0.015769517 -0.14427586
0.01953529 -0.20947637 0.38986552 0.20383272 0.20145462 -0.052125104 -0.050131522 -0.034604993
0.18685065 0.21161671 0.032266874 -0.40191472 0.008787299 0.3041305 0.11141424 -0.003717128
-0.0059952857 0.013545221 -0.30014363 -0.115203366 -0.1294957

kpconv2.kernel_weights f4 [15, 32, 64]
00000000: 7a48 9e3d a091 49be ead3 a03d 67e3 9f3c
00000010: 8e60 05bd 890a 613e db66 48be 7257 3c3d
00000020: 96b9 8f3e b426 94be d353 e43e 1e2f 913e
00000030: 8817 94bc 2cf7 66be 2ca5 42be 2ed2 123e
00000040: 52da 43be d1a8 323d b648 80bb ead0 b2be
00000050: c722 f7bb ac39 7d3c 018a 4a3e b8ce 853e
00000060: a1f3 8e3e 32df 313c 44b2 ad3e 72f7 5f3e
00000070: 0b02 043e 403a 5ebe ec4c 05be ff1b 57be
00000080: c518 1bbd 92fa 69bd 6059 d3be 8d67 9c3d
00000090: 7eac 453e 409d 8d3e c158 65be 7ae4 e1bc
000000a0: 89ad babe d717 943e 1932 8cbe 53d1 b4be
000000b0: 3565 c63e 1915 8b3e 2d72 553e 79a2 9abd
000000c0: dd85 73be 692d 52be 05aa 773d 07b0 8a3b
000000d0: 5cad 303e fdd2 8dbe b68d 9e3d 9017 72bd
000000e0: d277 fa3e 989a a93e bc8e 173e c108 803e
000000f0: 1585 1a3d ce4d 12be a754 8bbe 3a05 9c3e
00000100: 2445 80bd f7de 49be 37a7 38be b986 083f
00000110: 2588 ea3c a7b1 b03d 1961 6f3e 172c b03d
00000120: c135 c33e b50e 15be 950b 45be 80d9 d63d
00000130: 2452 653e f69b 1f3e 4505 5dbc 5142 e8bd
00000140: 6290 33bd 6c4b 08bd ff2a f2bd 24ff ca3d
00000150: 2025 7dbe 4d1c 843d f39e 613e 3093 adbe
00000160: 34ae 72bd 8f46 1f3f 476e 873d 5e46 1bbe
00000170: 9a13 313e 67a3 023e 3dc3 74be afe3 9d3d
00000180: bb11 953d 0467 a53e 323a 5cbe a32a 5c3d
00000190: c164 933e 96ee 11bf 2c63 b5be 73c5 213d
000001a0: 4d12 383d fb54 953e d16a ad3e ded5 65be
000001b0: ba05 b83d be14 5bbe 2eef 50bd 9d5b 933e
000001c0: 8c0a 18bf 83b8 0bbd 5db8 6fbe 29f9 343d
000001d0: 628e 01be c96e 743d 3cbf 4a3c 62f3 5bbe
000001e0: 1eb6 143e ad84 69be 249a e33e 37cd 1dbe
000001f0: 3d9f 22be 7784 61be 2c43 98be 6350 b3be
00000200: 4820 aabd 9770 7d3e 46d7 d1be bfb9 ab3d
00000210: 8656 063e 1877 d7bd 00f5 f93c a0a1 f9be
00000220: f760 e2be 83ea 333d bc3d a63e ecd4 c0bb
00000230: 9bc9 cdbe c82e 0fbe f7be 903e 156d 9dbe
00000240: 003d d1be 9f3b 173d 0884 9dbd 0adc 533d
00000250: 2138 4dbe 7443 f23e 3991 01bc a0f5 c73d
00000260: f0fa b13c 65de 17be 6997 9b3e 37fa ad3e
00000270: 3aab f6be 1c37 6cbe d6a9 96be 215f 1a3d
00000280: c6a8 b6be f449 333e 6a6c 9d3d 4fd4 c5be
00000290: 7756 163e 67bb 04be 9d34 c43c fa80 0e3e
000002a0: f171 48bd dec2 7c3d ab52 6abe 4cfc df3e
000002b0: c32a f03e dca5 e5bd aafb 083e 2b33 743e
000002c0: 3c55 413e 748e e3be 46ac 54be bbe8 353d
000002d0: dfad af3d 3f39 cabe b6ca b7be fbe8 7bbe
000002e0: eeaa b53d 468e b0bb 0718 24bd fc36 c33c
000002f0: 2d01 433f 1e1e 52be 19ce 6c3e 95f2 b4bd
00000300: 7c51 77be c2f1 87bc 2033 913e 90b6 bbbe
00000310: a572 81be dd39 9bbe 918b 8c3e 3101 98be
00000320: f840 09be a7d3 61be f95f 3d3e 4698 c23e
00000330: f28f d13e 0c88 a9be 7265 093e 9a0d 8e3e
00000340: 0ca1 12be c96c 1cbf 474b a2bd 087f 913e
00000350: b4d8 16bd 5b7b fd3d 99d9 22be f9d7 d03e
00000360: 378a 223e 4822 c4bd 8739 a3bd f8e8 b4be
00000370: 4197 94bd 1cdc 0bbe 1e0d f43e cee8 3cbe
00000380: b9df debe 15cd ad3d 4e06 8ebb 1f35 cdbd
00000390: 0034 37bf 0461 26be e00c 10be 2ed9 683c
000003a0: 3019 3a3e 443e 27be 0a56 96bd 1de0 d0bc
000003b0: 9db8 aabd 19ba 39be cfa0 193e aeb0 08be
000003c0: b523 a7bd 2839 ecbe df96 69be 00d1 ac3e
000003d0: 185e 073f 3a47 4a3d 1600 c5be 8f3b 58be
000003e0: aa1c c93e 5061 93bd 7434 a3be 2dcf 603e
000003f0: ebc3 43be e705 76bd 8ddd 0d3e ddd2 093c
0.077286676 -0.19684458 0.078529194 0.019517614 -0.032562785 0.21976675 -0.19570486 0.04598183
0.28071278 -0.28935778 0.44595203 0.2835626 -0.018077627 -0.22555226 -0.1900832 0.1433799
-0.19126251 0.043618027 -0.003914918 -0.34925014 -0.0075419876 0.015455645 0.19779207 0.26134276
0.2792025 0.010856437 0.33925068 0.21871737 0.12891404 -0.21701908 -0.13017625 -0.21006773
-0.03786542 -0.057123728 -0.41279125 0.07636938 0.19304082 0.27659035 -0.22397138 -0.027574766
-0.36460522 0.28924438 -0.2738197 -0.35315952 0.3874909 0.27164534 0.20844336 -0.075505204
-0.23781534 -0.20525135 0.060464878 0.00423241 0.17253631 -0.27700034 0.07741873 -0.059104502
0.4891954 0.33125758 0.14800543 0.2500668 0.037724573 -0.14287493 -0.27213022 0.30472738
-0.062631875 -0.1971396 -0.18032537 0.5333057 0.028629372 0.086276345 0.23376884 0.086021595
0.38126948 -0.14556392 -0.192427 0.104907036 0.22394615 0.15586838 -0.013490026 -0.11340774
-0.043838866 -0.033275053 -0.11824607 0.099119455 -0.24721193 0.064507104 0.2203329 -0.33901358
-0.059248164 0.6221704 0.066128306 -0.15163562 0.17292634 0.12757646 -0.23902602 0.07709443
0.072787724 0.32305157 -0.21506575 0.0537516 0.28787807 -0.5700468 -0.35427225 0.039494943
0.044939328 0.29166397 0.33870557 -0.22444865 0.08985467 -0.21394631 -0.05100935 0.28780833
-0.59391093 -0.03411151 -0.23410173 0.04418293 -0.12651971 0.059675965 0.012374695 -0.21479562
0.14522597 -0.22804518 0.44453537 -0.15410315 -0.15881057 -0.22023188 -0.29738748 -0.35022268
-0.083069384 0.24749981 -0.40984553 0.08385038 0.13118944 -0.10520762 0.030512333 -0.48756123
-0.44214603 0.04392482 0.32468975 -0.0058847573 -0.40192875 -0.1398269 0.28270695 -0.30747285
-0.40866852 0.036922093 -0.076911986 0.051723517 -0.20040943 0.47317088 -0.007908159 0.09763646
0.021726102 -0.1483093 0.30388954 0.3397996 -0.4817751 -0.23067898 -0.2942645 0.03768838
-0.3567564 0.1750868 0.07686694 -0.3863854 0.14681421 -0.12962113 0.02395087 0.13916388
-0.048936788 0.061709277 -0.22883098 0.43747175 0.46907625 -0.11213276 0.13377252 0.23847644
0.1888017 -0.4444462 -0.20768842 0.044411402 0.08578085 -0.394968 -0.35896844 -0.24600594
0.08870493 -0.005388054 -0.040061977 0.02382993 0.7617367 -0.20519301 0.23125495 -0.08835331
-0.24152178 -0.016594771 0.28359318 -0.36662722 -0.2528278 -0.30317584 0.2745023 -0.2968841
-0.1340369 -0.22053395 0.18493642 0.380068 0.40930134 -0.33111608 0.13417605 0.27744752
-0.14319247 -0.6110349 -0.07924514 0.2841723 -0.036827758 0.12377044 -0.1590332 0.40789774
0.15873037 -0.09576851 -0.07969957 -0.3533399 -0.07255412 -0.13658184 0.47666258 -0.18448183
-0.43530062 0.08486382 -0.0043342477 -0.10019898 -0.7156372 -0.16247946 -0.14067411 0.014211936
0.18173671 -0.16332346 -0.073406294 -0.02549749 -0.083359934 -0.18137397 0.1500275 -0.13348648
-0.081611075 -0.46137357 -0.22811459 0.33753204 0.5287795 0.049384333 -0.38476628 -0.2111647
0.3927968 -0.07196295 -0.31875956 0.21954031 -0.19117706 -0.060064223 0.13854046 0.00841209

kpconv2.bias f4 [64]
00000000: 5f43 55bb 1ca2 45bb 655a 003c 579a 083a
00000010: ff1f 44bb e631 17bb 55ca ae3b dbdb dbb8
00000020: e09f d0bb 0d94 3a3c 0000 0000 c41a 063b
00000030: 0000 0000 e859 4abc 1ee7 133c 57d3 ae3a
00000040: 4c0d 993b 6db6 32bb 3f05 e6bb b487 83ba
00000050: e93e 82ba 7bb1 03bc 745b 8e3b b239 13bc
00000060: 3bda eebb a6ec d93b 9256 88bb 7dd4 15bb
00000070: c829 f8b9 d126 d0bb 0d2f 2fbb 66ef 2a3c
00000080: de1e 7c3b 0000 0000 0000 0000 3c19 94bb
00000090: 1f2e 69bc 773f 82bb e8ce 163b 0000 0000
000000a0: 34ee c3bb e7fd 55ba 7913 0c3b 04f6 d7bb
000000b0: 77af 8dbc 69e6 ff3a dfc7 e83b f929 e2ba
000000c0: 0000 0000 946c 273c e6e1 703b 96da 2a3b
000000d0: 0000 0000 9a6a 303b a5c8 21bb bd4e ddbb
000000e0: 4320 683a 17e8 33bb c88e d8bb 0c8f 8ebb
000000f0: f7c5 5cbc 8e62 ca3a 0000 0000 b175 cd3b
-0.0032541377 -0.003015644 0.007834052 0.0005210987 -0.0029926298 -0.0023070513 0.0053341785 -0.00010483685
-0.006366715 0.011387837 0.0 0.002046273 0.0 -0.012350537 0.009027271 0.0013338131
0.0046707746 -0.0027269379 -0.0070196684 -0.001003495 -0.0009936962 -0.00803792 0.004344398 -0.008985924
-0.0072891987 0.006650525 -0.0041607106 -0.0022862249 -0.00047333376 -0.0063522835 -0.0026730925 0.010433054
0.0038470547 0.0 0.0 -0.0045196097 -0.0142321875 -0.0039748508 0.002301151 0.0
-0.0059793238 -0.00081631396 0.0021373911 -0.0065906066 -0.017295582 0.0019523624 0.0071039046 -0.001725494
0.0 0.010218758 0.003675574 0.0026070229 0.0 0.0026919008 -0.0024686244 -0.006753771
0.0008854905 -0.0027451569 -0.0066088177 -0.0043505486 -0.013474933 0.0015440749 0.0 0.0062701334

kpconv2.kernel_points f4 [15, 3]
00000000: 56ae 42be e41a a23e ce15 14be 6427 a9bd
00000010: 9b75 22be ccbc 0ebd 1fc8 6abd 5048 03be
00000020: f0bd 29bd ea19 053e 028e 59bd e7e6 a6be
00000030: fe8c f9be bc73 debc 38e9 e83d a05f 87bd
00000040: 2802 e53e da91 bf3d 1247 4c3d 9c56 13bd
00000050: ccaa ff3c 9798 88be 83ae f23d 52f0 bb3e
00000060: b169 1a3e 7526 fa3c 35fc 5e3e d4b7 1f3e
00000070: c335 3e3e 57bd 8a3d b597 913d bb15 2e3e
00000080: 2a08 c23e cd7d 173f d34c 9fbe bc67 81be
00000090: 6b32 bf3e 8ba7 f1be 7908 b13e d3e5 803e
000000a0: b994 5c3e 89ba dcbd 7b82 96bd 3aaa 5a3d
000000b0: 0d72 d7be
-0.19011816 0.3166114 -0.14461443 -0.08259466 -0.15865175 -0.03484802 -0.057319757 -0.12820554
-0.041440904 0.12998167 -0.053113945 -0.3259804 -0.4874038 -0.027154796 0.11372608 -0.06610036
0.44728208 0.09353991 0.049872465 -0.03597127 0.031209372 -0.26678917 0.11849692 0.36706787
0.1507938 0.030535916 0.21775897 0.15597469 0.18575196 0.06774395 0.07109014 0.17000477
0.37896854 0.5917633 -0.311133 -0.25274456 0.37343153 -0.47198138 0.34576777 0.25175342
0.21541108 -0.10777766 -0.07349106 0.053384997 -0.420792

fc_mid.weight f4 [64, 64]
00000000: 007a aabd 52ed f43d f0f1 89bc 64d1 95bd
00000010: 3037 753d 2c81 083d 58d8 3fbd 30e9 2fbd
00000020: 9c09 41bd f4bb 3ebd be30 afbd 7086 17bd
00000030: 3855 88bd 44bd f13d f6a5 873d f0f1 b33c
00000040: 300b c43d 5028 34bc e026 7fbc 809d 953b
00000050: 0ae1 b73d 8040 ccbd 7ca8 073d c0d6 5a3c
00000060: 68f0 a73d 00a6 15bb 14c0 03bd a4c5 c6bd
00000070: 30ad 0f3c 20c2 9bbc c096 bd3c c08d e33b
00000080: 14ba 71bd 0012 ebb9 8ab7 e33d c80f dabc
00000090: 24b8 b83d 10e8 293d 40e1 a53c 4cc1 643d
000000a0: c86f 90bc 5057 9f3c a8c4 2a3d 38f0 87bc
000000b0: 201c 81bd 6a54 ed3d 309c ccbd cad8 883d
000000c0: 0c97 e3bd 4c7d 5a3d 88f8 d53d d44a ecbd
000000d0: 9c99 e8bd c0dc b8bd 081b 97bd 7e29 82bd
000000e0: b898 9c3c 08ac 9cbd 9c97 9cbd 66ff c03d
000000f0: 60a5 dcbd bcbf 66bd 3aac a23d 1c7d 83bd
00000100: 24ae 65bd 5a2d c2bd b45b 49bd c0a0 383c
00000110: 180c 153d 00d2 893c 54e3 98bd 74c4 83bd
00000120: fcd1 9cbd c85d 013d 20dd 663d 80f2 343d
00000130: ec93 d23d 6c0a 4ebd 5029 0c3c 7abe d8bd
00000140: fcc0 b6bd 7661 96bd 60bc 3fbd a856 473d
00000150: 2eb4 a33d 48eb 6abd c4c3 d73d 4443 7d3d
00000160: 60df a73d 0451 91bd 6c2e 683d d052 fa3d
00000170: b832 823c 9ceb 053d 1415 3e3d 7e30 b9bd
00000180: 4ced 41bd 6080 1cbc e8f7 95bc 2467 e43d
00000190: 5c7c 3d3d 48f1 cdbc 3a7c e0bd 5ce4 0bbd
000001a0: 24d9 91bd 8069 bbba 0020 623a b4b8 9c3d
000001b0: 74ed c4bd 3a66 b1bd f056 cf3d 1c89 efbd
000001c0: 165f d03d 30d8 febc 72b0 cebd fcee 05bd
000001d0: 4040 dabb 1068 7ebd 0ee8 ffbd b0a5 8f3d
000001e0: 5283 a7bd d406 94bd 7074 343c 988a babc
000001f0: b6da d4bd 2438 603d 4a6d e43d f830 8f3d
00000200: 96f6 84bc 3dd4 d83d 90f5 b4bc 8006 e33c
00000210: 6291 8bbd 791f 4f3d 40cc 19bc 01ff efbd
00000220: 513b 1abd 87c3 5f3d 4003 41bd 08b7 57bd
00000230: 8a5a a3bd ee67 db3d a5e2 c63d dd7b f6bb
00000240: 808b 6dbd 80e1 7dbd 1c20 4d3d a585 3d3d
00000250: a8d9 02be 334b d6bd 1ca0 a9bc 972e cfbd
00000260: 3bc6 493d 696f 78bc 4b30 9ebd 3f5d 753d
00000270: 35b8 ab3d 94a5 763d 336c d0bb ab5c 90bc
00000280: 3681 773d a037 1ebd 8403 c33d 93ce a8bd
00000290: 3fff 623c 1780 233d a12a 3f3d f635 9c3d
000002a0: 7f94 d83d dc88 8f3b ae74 e83c 2cd0 c4bd
000002b0: ec3d d43c 591c 973d fb15 2b3d 2ae0 2dbd
000002c0: 90fb 45bd bc3c 6e3d f23f 1d3d aec1 c73c
000002d0: 4c84 793d 0149 f23d 827f 4dbd 9b77 903d
000002e0: 7d4a a23d 31cb c8bd 1812 b03d 16d9 6bbd
000002f0: d360 e13d bc34 c83d e0f8 753d c898 c13c
00000300: d05e 703c 56a5 43b9 ab22 b7bd 396d 2bbd
00000310: f648 b6bd 8e26 cfbd 48bc a33d 7abf 813d
00000320: 75e4 f9bc f512 df3c 84d3 763d 2dd5 9e3d
00000330: fe33 c3bd 1320 473d 8137 3e3d da98 fcbd
00000340: f539 0b3e 7806 c7bd f29e 703c f84f b63d
00000350: feaa d8bc 0558 d73c 1844 a33d 50c4 913c
00000360: a2e6 d2ba 90fd ab3d 9445 cf3d 29ff d73c
00000370: 4191 d03d c27e a2bd 4dd8 7bbd 67d8 bbbd
00000380: 7613 5cbd 2877 c03c 10ae f73c 549d c93c
00000390: b1a0 18bd 7601 d9bd d750 71bc 1cc7 7bbd
000003a0: 43db 21bd 8579 c53d 120f b43c 49ae 543d
000003b0: 9a66 b63d b854 023e 288e 9b3d a4b0 3e3d
000003c0: 6600 f33d e4fe 1ebd 5b48 78bc e191 093e
000003d0: a6a9 ca3d b2b8 093e 9772 bbbd 4110 b03d
000003e0: 957f 453c ac11 5ebd 0774 edbd 6753 8d3b
000003f0: 089f d8bd 1a1c cd3d 6c8b 573d 454a 243d
-0.08324051 0.11959328 -0.016838998 -0.07315329 0.059867084 0.033326313 -0.04683718 -0.042946994
-0.047128305 -0.046565965 -0.08554219 -0.036993444 -0.06656879 0.11803678 0.066234514 0.02196595
0.09572446 -0.010995939 -0.015573233 0.0045658946 0.0897847 -0.0997324 0.033119664 0.013356864
0.08200151 -0.002283454 -0.0321656 -0.09705666 0.008769318 -0.019013464 0.023143172 0.006944388
-0.05901535 -0.00044836104 0.11118992 -0.026618853 0.09019497 0.041481078 0.02024901 0.055848405
-0.017631426 0.019450814 0.041691452 -0.016594037 -0.063041925 0.11588366 -0.09990728 0.06681974
-0.11112794 0.05334215 0.10447794 -0.1153771 -0.11357424 -0.0902648 -0.07378203 -0.0635557
0.01911579 -0.0765 -0.07646105 0.094237134 -0.1077373 -0.056335196 0.07943006 -0.06420347
-0.056074277 -0.094813064 -0.04915972 0.011268795 0.036388487 0.016823769 -0.074652344 -0.06433955
-0.07657239 0.031583577 0.056363225 0.04417658 0.1028212 -0.050302908 0.008554772 -0.105832055
-0.089235276 -0.07342808 -0.046810508 0.048666626 0.07993351 -0.057353288 0.10535386 0.061831728
0.08196902 -0.07095531 0.056684896 0.122228265 0.015893325 0.032695398 0.04640682 -0.09042452
-0.047345445 -0.009552091 -0.018306687 0.11152485 0.046261176 -0.025139466 -0.10961194 -0.034153327
-0.071214944 -0.0014298409 0.0008625984 0.07652417 -0.09615603 -0.08662076 0.10124004 -0.116960734
0.10174386 -0.031108946 -0.10092248 -0.032698616 -0.006660491 -0.06211096 -0.12495433 0.07014024
-0.08179344 -0.07227865 0.011014089 -0.022771165 -0.10393278 0.05474104 0.11153658 0.06991762
-0.016230863 0.10587356 -0.02208975 0.02771306 -0.06814839 0.050567124 -0.009387076 -0.1171856
-0.037654225 0.05462983 -0.04712224 -0.052664787 -0.07976253 0.107131824 0.09711198 -0.00752209
-0.057994366 -0.06198263 0.05007945 0.04627003 -0.12778342 -0.10463562 -0.020706229 -0.10116308
0.049261313 -0.015163281 -0.07724055 0.05990338 0.08384744 0.0602165 -0.0063605546 -0.017622313
0.06042596 -0.038627267 0.09522155 -0.08242526 0.013854801 0.039917078 0.046671513 0.0762748
0.105751984 0.0043803286 0.02837595 -0.09610018 0.025908433 0.07378454 0.04176901 -0.042450108
-0.04833561 0.05816339 0.03839106 0.024384346 0.060917184 0.11830331 -0.05017043 0.07054063
0.07924364 -0.09804381 0.08597201 -0.057580076 0.11004796 0.09775683 0.0600518 0.023632422
0.014671043 -0.00018658242 -0.08942159 -0.04185221 -0.08900635 -0.101147756 0.07994896 0.063353494
-0.030504445 0.02723072 0.06026031 0.07755504 -0.09531401 0.048614573 0.04643965 -0.123338416
0.13596328 -0.09718031 0.014686333 0.089019716 -0.026448723 0.026287088 0.07971972 0.017793804
-0.0016090462 0.083979726 0.10120693 0.026366787 0.10183955 -0.079343334 -0.061485577 -0.09172135
-0.053729497 0.023494318 0.030234367 0.024611153 -0.037262622 -0.10595982 -0.014728746 -0.061469182
-0.039515745 0.09642319 0.021979842 0.051924024 0.089062884 0.1272763 0.075954735 0.046555176
0.1186531 -0.0388173 -0.01515397 0.13434555 0.09895639 0.13449362 -0.09152716 0.0859685
0.012054344 -0.054216072 -0.11594396 0.004312921 -0.10577208 0.100151256 0.052623197 0.04010989

fc_mid.bias f4 [64]
00000000: bc11 15bd 30c2 88bd b45f bb3d c285 b93d
00000010: e6e9 febd 6c75 323d 7880 973c 104c 7cbd
00000020: 34e6 cdbd ea43 ad3d 42dc edbd a8fb 7cbd
00000030: c0cc ddbb 56a9 c33c 9c98 b13c e038 033c
00000040: f107 6f3d 97f7 813d 1432 873d e969 9b3d
00000050: 1acf 85bd 402d b0bd 80e6 253d 8a3b 90bd
00000060: f42c 38bd e889 fdbd 9424 b6bd 602a c9bb
00000070: 5645 fcbd c6a9 a6bd 1c99 d6bd 2d09 583d
00000080: 07d0 3e3d 10ab 14bd 183e 7cbd b081 b53d
00000090: d66d 92bd 9123 1c3d abb9 bb3d c24c b9bd
000000a0: 4849 9ebd 7cc3 97bd 5c23 5dbd ecaf 5bbd
000000b0: 54bd a6bd fc9a ca3b 0265 f3bd 4036 f0bc
000000c0: 2805 ebbd e001 bb3d 8ee5 0f3d 5034 a4bd
000000d0: f863 593d 88d9 1bbd 1c7a b0bd 8ebe c93c
000000e0: 20a3 6abc b444 2cbd 8692 003e d280 b5bd
000000f0: 98e6 803d 23ba 953d ee7e a9bd 6d4e e03c
-0.036393866 -0.06677663 0.09149113 0.090587154 -0.12446956 0.043569013 0.018493876 -0.061595976
-0.100536734 0.08460219 -0.116142765 -0.061763436 -0.006768793 0.023884457 0.021679215 0.0080091655
0.058357183 0.06346052 0.066013485 0.0758856 -0.06533642 -0.08602381 0.040503025 -0.07042606
-0.044964746 -0.12379819 -0.088936955 -0.0061390847 -0.12317912 -0.081378505 -0.10478422 0.052743126
0.04658511 -0.03629595 -0.061582655 0.088626266 -0.07149856 0.038119856 0.09166273 -0.090478435
-0.07728821 -0.074103326 -0.0539888 -0.05363457 -0.0814158 0.0061830264 -0.118845 -0.029322743
-0.11475593 0.09131217 0.03513103 -0.0801779 0.053073853 -0.03804925 -0.086170405 0.024626996
-0.014321119 -0.042057708 0.12555894 -0.08862461 0.06293982 0.073108934 -0.08276163 0.027381146

fc_out.weight f4 [3, 64]
00000000: f29f b5bd bc40 3b3d 281a 79bd 0422 653d
00000010: 7012 333c e093 343d 8a1f bbbd 9c33 48bd
00000020: be56 9cbd f561 ac3d 886a 43bd 5a92 e53d
00000030: d8e8 f7bd 18c7 0c3d a476 60bd 8dca 95bd
00000040: fa73 f4bd cdf6 c53c d098 af3d 2a00 c53d
00000050: 8c16 63bd d4b3 b2bd 1b22 edbd e899 f7bd
00000060: e0d0 ec3c 204e c53d 4ebd 8d3d a045 d23c
00000070: ecea 1cbd 6843 7a3d 9a7b a6bd 0632 a1bd
00000080: 2677 97ba 6cd6 23bd 5c99 a3bd c136 173d
00000090: a896 9cbc 3d6b 393d 236d e03c bc9b 05bd
000000a0: e8ae 83bd bc94 20bd e893 41bd def9 883d
000000b0: 10fd 69bc 0a56 7dbd 44a6 22bd 448b c4bd
000000c0: cc79 d93d 41fd e33d b72d 88bd 606d 60bc
000000d0: e4b7 8abd 4e5d 903d b038 fdbd 103e 903d
000000e0: 4064 98bd 4005 d3bb 7881 733d c2fc f23d
000000f0: f49c d7bd 369a 1ebd 04fc 253d d896 f13c
00000100: 9213 bcbd 0808 ff3c 962e e33d f81b de3c
00000110: a0d1 dc3d 0cd6 813d 2c6a f63d 5c77 7e3d
00000120: 687b fc3c 7730 873d f0ea e73d f0d5 d8bd
00000130: f85f 7f3d e91c 393b eeae 04bd 2532 2bbd
00000140: 0e00 afbd e81a 2fbc b2d6 c6bd 350a 3bbd
00000150: e245 9ebd 3484 01bd 942a 50bd 7078 8b3d
00000160: 96e8 9c3d 28bd e13c 4864 3e3d aa3a ad3d
00000170: 88b3 08bd 78d9 883c 7091 51bd 3aae 9abd
00000180: 79f2 a63d d670 f63d f077 5ebc 5999 a03d
00000190: b454 9f3d c45b b33d ce95 7abd 10d3 a53d
000001a0: ae65 b43d 70bf 033c 3000 0fbc 129e b8bd
000001b0: 40e3 763c 3e81 2b3d 2214 e9bd aebb bdbd
000001c0: 1cb1 7abd 9812 ddbd 269f b23d 000f acbc
000001d0: b43c 333d d2e2 ef3d 5ce4 c33d 7974 21bd
000001e0: 6068 863d bc61 eb3d b0d4 d63d a8a5 8d3c
000001f0: 4ada f5bb 92d6 3bbd d0ad ab3c accb ef3d
00000200: 3e92 bf3d 1cfb b23d bf0e 723b 4f2f c53d
00000210: 80ea 9d3d 137b 773d 6a6c 9dbb 6890 50bd
00000220: ca53 873d 57ce ebbd 648b 703d c0a0 0dbd
00000230: 20f6 fbbb afec 9ebd dc25 bfbd 530a ae3d
00000240: 5a8c db3c 2fd2 edbd 1569 433d 279b 8c3c
00000250: d4b6 32bd 70f8 7a3d c471 5b3d 805c bebb
00000260: c233 ef3d f6ea eabd a0ad 0c3d 5e28 a33d
00000270: 34db f4bd 3817 c3bc e0a1 f3bd 00e3 303d
00000280: 3ef6 a9bd 2c45 983d 8004 09bb 4fb8 e83c
00000290: 5055 d73c 73e9 84bd 1595 ebbd b8b2 d43d
000002a0: 6add a03d f064 adbc 9af3 83bd f6c6 ebbd
000002b0: 2458 d23d 58ad d7bd 40d6 b7bd 28e1 c03c
000002c0: fedf eb3d 8376 d8bd b48c e6bd 7aee b23d
000002d0: 93c8 06be a8ae e43c 8c8a a5bd 737b 61bd
000002e0: 7c52 a8bd 4caa ccbd 0df9 593d d64a e0bd
000002f0: 7fb8 b43c d8b8 c7bd 2a37 ca3d 9943 4c3d
-0.08868398 0.045716032 -0.06081596 0.055940643 0.010929689 0.044086337 -0.09136875 -0.048877344
-0.07633732 0.08417121 -0.047709018 0.11209555 -0.12104958 0.034369558 -0.054800645 -0.07314024
-0.11936183 0.024165535 0.085740685 0.09619172 -0.055441424 -0.08725706 -0.11578771 -0.12089902
0.028908193 0.09634042 0.06920873 0.025667965 -0.038309976 0.06109944 -0.08129044 -0.07870869
-0.0011555895 -0.03999941 -0.07988235 0.03691745 -0.019114807 0.045268286 0.02739579 -0.032619223
-0.06429845 -0.039204344 -0.047260195 0.066882834 -0.014281526 -0.06184963 -0.039709345 -0.09596875
0.10618934 0.11132289 -0.066493444 -0.013697952 -0.067733556 0.070490465 -0.12364328 0.070430875
-0.07440996 -0.006439835 0.059449643 0.11864616 -0.10527983 -0.038721286 0.040523544 0.029490873
-0.0918342 0.03113176 0.1109287 0.027112946 0.1078217 0.06339654 0.120319694 0.06212555
0.030820563 0.06601041 0.11324108 -0.1058768 0.062347382 0.0028245992 -0.03239339 -0.04179587
-0.08544932 -0.010687567 -0.09708919 -0.04566403 -0.07728173 -0.03162022 -0.050821856 0.06810081
0.0766155 0.027556017 0.046482354 0.08458455 -0.03337434 0.01670526 -0.05116409 -0.07552762
0.08151717 0.120332405 -0.0135784 0.07841749 0.07779828 0.08757737 -0.06117802 0.080968976
0.08808456 0.008041248 -0.008728072 -0.090145245 0.015068829 0.0418713 -0.11380793 -0.09264313
-0.06120406 -0.10794562 0.087217614 -0.021003246 0.043759063 0.117131844 0.095650405 -0.039417718
0.06562877 0.11493251 0.10489786 0.017290905 -0.0075028287 -0.045858927 0.020956904 0.11708769
0.09354065 0.087393016 0.003693506 0.09628164 0.07710743 0.060420107 -0.0048041837 -0.050918967
0.06607778 -0.115139656 0.058726683 -0.03457713 -0.0076892525 -0.077599876 -0.09333393 0.08498063
0.026800323 -0.11612355 0.047707636 0.017163826 -0.04363139 0.061272085 0.053575292 -0.0058093667
0.11679794 -0.114705965 0.03434527 0.07966684 -0.11955872 -0.023814783 -0.118961096 0.043185234
-0.0829892 0.074350685 -0.0020907223 0.028408198 0.026285797 -0.064898394 -0.115030445 0.103856504
0.078547314 -0.021166295 -0.06442948 -0.11512558 0.10270718 -0.105311096 -0.08976412 0.023544863
0.115173325 -0.10569479 -0.11257306 0.08736892 -0.1316245 0.027915314 -0.08083066 -0.05504937
-0.08218858 -0.09993419 0.05321603 -0.10951774 0.02206063 -0.09752053 0.09873803 0.049869154

fc_out.bias f4 [3]
00000000: de81 0cbd 2016 2abd 9a78 d9bb
-0.03430354 -0.041525006 -0.0066366913

exp_avg f4 [8, 3]
00000000: 92cd 7ab6 fe24 80b5 1466 f133 e63c a835
00000010: 560a 4f35 b3cd 9db1 6978 1833 f75d 60b4
00000020: 0611 eb32 b419 86b5 4834 6935 5396 85b3
00000030: 35a8 0cb4 94b8 09b6 86fd a2b4 8cd3 2cb5
00000040: ff50 36b5 e9a7 b433 0000 0000 0000 0000
00000050: 0000 0000 9d4e de34 20b7 0836 996a f4b2
-3.737256e-06 -9.547509e-07 1.1241005e-07 1.2534699e-06 7.712855e-07 -4.5926867e-09 3.549977e-08 -2.089581e-07
2.7365342e-08 -9.991259e-07 8.6875343e-07 -6.220639e-08 -1.309971e-07 -2.052203e-06 -3.0359314e-07 -6.4382834e-07
-6.791815e-07 8.412446e-08 0.0 0.0 0.0 4.140792e-07 2.0372172e-06 -2.8453814e-08

exp_avg_sq f4 [8, 3]
00000000: fe25 3b2d dcd7 332d 25bc de29 273e 5c2d
00000010: 8fac 0e2d 59d2 5829 a963 9d2b bdb0 b72b
00000020: e3e3 cb27 7c7d 2e2d 8f39 202d 05e2 ca29
00000030: fd14 752c 2699 252c d159 0d29 1fe2 462c
00000040: 4fd3 092d f47e ac28 0000 0000 0000 0000
00000050: 0000 0000 3976 062d 927f da2c 4380 3229
1.0638155e-11 1.0222902e-11 9.891418e-14 1.2519353e-11 8.110081e-12 4.8144082e-14 1.1183182e-12 1.3051987e-12
5.6590894e-15 9.918618e-12 9.107728e-12 9.00981e-14 3.4828245e-12 2.3532925e-12 3.1386193e-14 2.8263015e-12
7.834468e-12 1.9150893e-14 0.0 0.0 0.0 7.643269e-12 6.210096e-12 3.963519e-14

exp_avg f4 [8]
00000000: a526 b2b5 9476 8135 dc6c 39b4 54d7 a7b4
00000010: 9e2c ecb5 0be1 d734 0000 0000 042a 13b6
-1.327328e-06 9.64576e-07 -1.726907e-07 -3.1262846e-07 -1.7596356e-06 4.021061e-07 0.0 -2.1929163e-06

exp_avg_sq f4 [8]
00000000: 8d70 4a2d 880d 852d c715 182c a375 432d
00000010: c491 862c a195 392d 0000 0000 f5d1 4e2d
1.1507362e-11 1.5126358e-11 2.1612588e-12 1.1110587e-11 3.8246923e-12 1.0549257e-11 0.0 1.1756364e-11

exp_avg f4 [15, 8, 32]
00000000: 0000 0000 0000 0000 0000 0000 0000 0000
00000010: 0000 0000 0000 0000 0000 0000 0000 0000
00000020: 0000 0000 0000 0000 0000 0000 0000 0000
00000030: 0000 0000 0000 0000 0000 0000 0000 0000
00000040: 0000 0000 0000 0000 0000 0000 0000 0000
00000050: 0000 0000 0000 0000 0000 0000 0000 0000
00000060: 0000 0000 0000 0000 0000 0000 0000 0000
00000070: 0000 0000 0000 0000 0000 0000 0000 0000
00000080: 0000 0000 0000 0000 0000 0000 0000 0000
00000090: 0000 0000 0000 0000 0000 0000 0000 0000
000000a0: 0000 0000 0000 0000 0000 0000 0000 0000
000000b0: 0000 0000 0000 0000 0000 0000 0000 0000
000000c0: 0000 0000 0000 0000 0000 0000 0000 0000
000000d0: 0000 0000 0000 0000 0000 0000 0000 0000
000000e0: 0000 0000 0000 0000 0000 0000 0000 0000
000000f0: 0000 0000 0000 0000 0000 0000 0000 0000
00000100: 0000 0000 0000 0000 0000 0000 0000 0000
00000110: 0000 0000 0000 0000 0000 0000 0000 0000
00000120: 0000 0000 0000 0000 0000 0000 0000 0000
00000130: 0000 0000 0000 0000 0000 0000 0000 0000
00000140: 0000 0000 0000 0000 0000 0000 0000 0000
00000150: 0000 0000 0000 0000 0000 0000 0000 0000
00000160: 0000 0000 0000 0000 0000 0000 0000 0000
00000170: 0000 0000 0000 0000 0000 0000 0000 0000
00000180: 0000 0000 0000 0000 0000 0000 0000 0000
00000190: 0000 0000 0000 0000 0000 0000 0000 0000
000001a0: 0000 0000 0000 0000 0000 0000 0000 0000
000001b0: 0000 0000 0000 0000 0000 0000 0000 0000
000001c0: 0000 0000 0000 0000 0000 0000 0000 0000
000001d0: 0000 0000 0000 0000 0000 0000 0000 0000
000001e0: 0000 0000 0000 0000 0000 0000 0000 0000
000001f0: 0000 0000 0000 0000 0000 0000 0000 0000
00000200: 0000 0000 0000 0000 0000 0000 0000 0000
00000210: 0000 0000 0000 0000 0000 0000 0000 0000
00000220: 0000 0000 0000 0000 0000 0000 0000 0000
00000230: 0000 0000 0000 0000 0000 0000 0000 0000
00000240: 0000 0000 0000 0000 0000 0000 0000 0000
00000250: 0000 0000 0000 0000 0000 0000 0000 0000
00000260: 0000 0000 0000 0000 0000 0000 0000 0000
00000270: 0000 0000 0000 0000 0000 0000 0000 0000
00000280: 0000 0000 0000 0000 0000 0000 0000 0000
00000290: 0000 0000 0000 0000 0000 0000 0000 0000
000002a0: 0000 0000 0000 0000 0000 0000 0000 0000
000002b0: 0000 0000 0000 0000 0000 0000 0000 0000
000002c0: 0000 0000 0000 0000 0000 0000 0000 0000
000002d0: 0000 0000 0000 0000 0000 0000 0000 0000
000002e0: 0000 0000 0000 0000 0000 0000 0000 0000
000002f0: 0000 0000 0000 0000 0000 0000 0000 0000
00000300: 0000 0000 0000 0000 0000 0000 0000 0000
00000310: 0000 0000 0000 0000 0000 0000 0000 0000
00000320: 0000 0000 0000 0000 0000 0000 0000 0000
00000330: 0000 0000 0000 0000 0000 0000 0000 0000
00000340: 0000 0000 0000 0000 0000 0000 0000 0000
00000350: 0000 0000 0000 0000 0000 0000 0000 0000
00000360: 0000 0000 0000 0000 0000 0000 0000 0000
00000370: 0000 0000 0000 0000 0000 0000 0000 0000
00000380: 0000 0000 0000 0000 0000 0000 0000 0000
00000390: 0000 0000 0000 0000 0000 0000 0000 0000
000003a0: 0000 0000 0000 0000 0000 0000 0000 0000
000003b0: 0000 0000 0000 0000 0000 0000 0000 0000
000003c0: 0000 0000 0000 0000 0000 0000 0000 0000
000003d0: 0000 0000 0000 0000 0000 0000 0000 0000
000003e0: 0000 0000 0000 0000 0000 0000 0000 0000
000003f0: 0000 0000 0000 0000 0000 0000 0000 0000
0.0 0.0 0.0 0.0 0.0 0.0 0.0 0.0
0.0 0.0 0.0 0.0 0.0 0.0 0.0 0.0
0.0 0.0 0.0 0.0 0.0 0.0 0.0 0.0
0.0 0.0 0.0 0.0 0.0 0.0 0.0 0.0
0.0 0.0 0.0 0.0 0.0 0.0 0.0 0.0
0.0 0.0 0.0 0.0 0.0 0.0 0.0 0.0
0.0 0.0 0.0 0.0 0.0 0.0 0.0 0.0
0.0 0.0 0.0 0.0 0.0 0.0 0.0 0.0
0.0 0.0 0.0 0.0 0.0 0.0 0.0 0.0
0.0 0.0 0.0 0.0 0.0 0.0 0.0 0.0
0.0 0.0 0.0 0.0 0.0 0.0 0.0 0.0
0.0 0.0 0.0 0.0 0.0 0.0 0.0 0.0
0.0 0.0 0.0 0.0 0.0 0.0 0.0 0.0
0.0 0.0 0.0 0.0 0.0 0.0 0.0 0.0
0.0 0.0 0.0 0.0 0.0 0.0 0.0 0.0
0.0 0.0 0.0 0.0 0.0 0.0 0.0 0.0
0.0 0.0 0.0 0.0 0.0 0.0 0.0 0.0
0.0 0.0 0.0 0.0 0.0 0.0 0.0 0.0
0.0 0.0 0.0 0.0 0.0 0.0 0.0 0.0
0.0 0.0 0.0 0.0 0.0 0.0 0.0 0.0
0.0 0.0 0.0 0.0 0.0 0.0 0.0 0.0
0.0 0.0 0.0 0.0 0.0 0.0 0.0 0.0
0.0 0.0 0.0 0.0 0.0 0.0 0.0 0.0
0.0 0.0 0.0 0.0 0.0 0.0 0.0 0.0
0.0 0.0 0.0 0.0 0.0 0.0 0.0 0.0
0.0 0.0 0.0 0.0 0.0 0.0 0.0 0.0
0.0 0.0 0.0 0.0 0.0 0.0 0.0 0.0
0.0 0.0 0.0 0.0 0.0 0.0 0.0 0.0
0.0 0.0 0.0 0.0 0.0 0.0 0.0 0.0
0.0 0.0 0.0 0.0 0.0 0.0 0.0 0.0
0.0 0.0 0.0 0.0 0.0 0.0 0.0 0.0
0.0 0.0 0.0 0.0 0.0 0.0 0.0 0.0

exp_avg_sq f4 [15, 8, 32]
00000000: 0000 0000 0000 0000 0000 0000 0000 0000
00000010: 0000 0000 0000 0000 0000 0000 0000 0000
00000020: 0000 0000 0000 0000 0000 0000 0000 0000
00000030: 0000 0000 0000 0000 0000 0000 0000 0000
00000040: 0000 0000 0000 0000 0000 0000 0000 0000
00000050: 0000 0000 0000 0000 0000 0000 0000 0000
00000060: 0000 0000 0000 0000 0000 0000 0000 0000
00000070: 0000 0000 0000 0000 0000 0000 0000 0000
00000080: 0000 0000 0000 0000 0000 0000 0000 0000
00000090: 0000 0000 0000 0000 0000 0000 0000 0000
000000a0: 0000 0000 0000 0000 0000 0000 0000 0000
000000b0: 0000 0000 0000 0000 0000 0000 0000 0000
000000c0: 0000 0000 0000 0000 0000 0000 0000 0000
000000d0: 0000 0000 0000 0000 0000 0000 0000 0000
000000e0: 0000 0000 0000 0000 0000 0000 0000 0000
000000f0: 0000 0000 0000 0000 0000 0000 0000 0000
00000100: 0000 0000 0000 0000 0000 0000 0000 0000
00000110: 0000 0000 0000 0000 0000 0000 0000 0000
00000120: 0000 0000 0000 0000 0000 0000 0000 0000
00000130: 0000 0000 0000 0000 0000 0000 0000 0000
00000140: 0000 0000 0000 0000 0000 0000 0000 0000
00000150: 0000 0000 0000 0000 0000 0000 0000 0000
00000160: 0000 0000 0000 0000 0000 0000 0000 0000
00000170: 0000 0000 0000 0000 0000 0000 0000 0000
00000180: 0000 0000 0000 0000 0000 0000 0000 0000
00000190: 0000 0000 0000 0000 0000 0000 0000 0000
000001a0: 0000 0000 0000 0000 0000 0000 0000 0000
000001b0: 0000 0000 0000 0000 0000 0000 0000 0000
000001c0: 0000 0000 0000 0000 0000 0000 0000 0000
000001d0: 0000 0000 0000 0000 0000 0000 0000 0000
000001e0: 0000 0000 0000 0000 0000 0000 0000 0000
000001f0: 0000 0000 0000 0000 0000 0000 0000 0000
00000200: 0000 0000 0000 0000 0000 0000 0000 0000
00000210: 0000 0000 0000 0000 0000 0000 0000 0000
00000220: 0000 0000 0000 0000 0000 0000 0000 0000
00000230: 0000 0000 0000 0000 0000 0000 0000 0000
00000240: 0000 0000 0000 0000 0000 0000 0000 0000
00000250: 0000 0000 0000 0000 0000 0000 0000 0000
00000260: 0000 0000 0000 0000 0000 0000 0000 0000
00000270: 0000 0000 0000 0000 0000 0000 0000 0000
00000280: 0000 0000 0000 0000 0000 0000 0000 0000
00000290: 0000 0000 0000 0000 0000 0000 0000 0000
000002a0: 0000 0000 0000 0000 0000 0000 0000 0000
000002b0: 0000 0000 0000 0000 0000 0000 0000 0000
000002c0: 0000 0000 0000 0000 0000 0000 0000 0000
000002d0: 0000 0000 0000 0000 0000 0000 0000 0000
000002e0: 0000 0000 0000 0000 0000 0000 0000 0000
000002f0: 0000 0000 0000 0000 0000 0000 0000 0000
00000300: 0000 0000 0000 0000 0000 0000 0000 0000
00000310: 0000 0000 0000 0000 0000 0000 0000 0000
00000320: 0000 0000 0000 0000 0000 0000 0000 0000
00000330: 0000 0000 0000 0000 0000 0000 0000 0000
00000340: 0000 0000 0000 0000 0000 0000 0000 0000
00000350: 0000 0000 0000 0000 0000 0000 0000 0000
00000360: 0000 0000 0000 0000 0000 0000 0000 0000
00000370: 0000 0000 0000 0000 0000 0000 0000 0000
00000380: 0000 0000 0000 0000 0000 0000 0000 0000
00000390: 0000 0000 0000 0000 0000 0000 0000 0000
000003a0: 0000 0000 0000 0000 0000 0000 0000 0000
000003b0: 0000 0000 0000 0000 0000 0000 0000 0000
000003c0: 0000 0000 0000 0000 0000 0000 0000 0000
000003d0: 0000 0000 0000 0000 0000 0000 0000 0000
000003e0: 0000 0000 0000 0000 0000 0000 0000 0000
000003f0: 0000 0000 0000 0000 0000 0000 0000 0000
0.0 0.0 0.0 0.0 0.0 0.0 0.0 0.0
0.0 0.0 0.0 0.0 0.0 0.0 0.0 0.0
0.0 0.0 0.0 0.0 0.0 0.0 0.0 0.0
0.0 0.0 0.0 0.0 0.0 0.0 0.0 0.0
0.0 0.0 0.0 0.0 0.0 0.0 0.0 0.0
0.0 0.0 0.0 0.0 0.0 0.0 0.0 0.0
0.0 0.0 0.0 0.0 0.0 0.0 0.0 0.0
0.0 0.0 0.0 0.0 0.0 0.0 0.0 0.0
0.0 0.0 0.0 0.0 0.0 0.0 0.0 0.0
0.0 0.0 0.0 0.0 0.0 0.0 0.0 0.0
0.0 0.0 0.0 0.0 0.0 0.0 0.0 0.0
0.0 0.0 0.0 0.0 0.0 0.0 0.0 0.0
0.0 0.0 0.0 0.0 0.0 0.0 0.0 0.0
0.0 0.0 0.0 0.0 0.0 0.0 0.0 0.0
0.0 0.0 0.0 0.0 0.0 0.0 0.0 0.0
0.0 0.0 0.0 0.0 0.0 0.0 0.0 0.0
0.0 0.0 0.0 0.0 0.0 0.0 0.0 0.0
0.0 0.0 0.0 0.0 0.0 0.0 0.0 0.0
0.0 0.0 0.0 0.0 0.0 0.0 0.0 0.0
0.0 0.0 0.0 0.0 0.0 0.0 0.0 0.0
0.0 0.0 0.0 0.0 0.0 0.0 0.0 0.0
0.0 0.0 0.0 0.0 0.0 0.0 0.0 0.0
0.0 0.0 0.0 0.0 0.0 0.0 0.0 0.0
0.0 0.0 0.0 0.0 0.0 0.0 0.0 0.0
0.0 0.0 0.0 0.0 0.0 0.0 0.0 0.0
0.0 0.0 0.0 0.0 0.0 0.0 0.0 0.0
0.0 0.0 0.0 0.0 0.0 0.0 0.0 0.0
0.0 0.0 0.0 0.0 0.0 0.0 0.0 0.0
0.0 0.0 0.0 0.0 0.0 0.0 0.0 0.0
0.0 0.0 0.0 0.0 0.0 0.0 0.0 0.0
0.0 0.0 0.0 0.0 0.0 0.0 0.0 0.0
0.0 0.0 0.0 0.0 0.0 0.0 0.0 0.0

exp_avg f4 [32]
00000000: 0ea8 55b6 0000 0000 b008 83b6 3d55 8bb7
00000010: 3206 a635 18aa 2c36 2c59 0737 bc03 08b6
00000020: 19aa e3b5 8994 4835 0000 0000 2e8d a235
00000030: 8ebd ad31 46b9 a535 f482 2fb6 20ae 862a
00000040: 6cca 61b5 4064 14b6 0000 0000 ba46 1f37
00000050: b8fb bbb1 6a83 a2b5 26cb f628 c672 e2b4
00000060: 82c5 2034 227c d734 0000 0000 353c 78b6
00000070: 34f1 b329 0000 0000 0454 b1b6 2d0a e6b5
-3.1837294e-06 0.0 -3.9051156e-06 -1.6609783e-05 1.2369767e-06 2.5729005e-06 8.067389e-06 -2.0267753e-06
-1.6962323e-06 7.4721953e-07 0.0 1.2111029e-06 5.0565125e-09 1.234738e-06 -2.6153257e-06 2.3924005e-13
-8.4113594e-07 -2.2112072e-06 0.0 9.493606e-06 -5.4710334e-09 -1.2108187e-06 2.7399588e-14 -4.217929e-07
1.4973014e-07 4.013719e-07 0.0 -3.6989925e-06 7.991039e-14 0.0 -5.2847918e-06 -1.7139297e-06

exp_avg_sq f4 [32]
00000000: 55a8 f62e 0000 0000 23c3 c62e 9bef aa2f
00000010: 9ec3 3630 4ab2 132f 479f e02e b3a4 ec2e
00000020: 1697 f92d 929f 3d2e 0000 0000 d2cf 512d
00000030: 8fca c82c bf1d f52e 7b69 6a2e abf5 0e2d
00000040: 2918 e92e 0743 832e 0000 0000 1788 d42e
00000050: 1dfa 602d 9d67 642e 11e5 d42b 1a6c 582d
00000060: 2fd5 002f dfcb e12d 0000 0000 d96f 842e
00000070: 90e3 a92b 0000 0000 c378 db2e 60ba 752e
1.12166866e-10 0.0 9.038661e-11 3.109307e-10 6.6489203e-10 1.3432913e-10 1.0214634e-10 1.0761294e-10
2.8375118e-11 4.311535e-11 0.0 1.192642e-11 5.7068304e-12 1.1146594e-10 5.3299126e-11 8.126315e-12
1.0599905e-10 5.969097e-11 0.0 9.664818e-11 1.2788462e-11 5.1933225e-11 1.5127085e-12 1.2302182e-11
1.171727e-10 2.5670075e-11 0.0 6.022533e-11 1.2071334e-12 0.0 9.9804186e-11 5.5872085e-11

exp_avg f4 [15, 32, 64]
00000000: 0000 0000 0000 0000 0000 0000 0000 0000
00000010: 0000 0000 0000 0000 0000 0000 0000 0000
00000020: 0000 0000 0000 0000 0000 0000 0000 0000
00000030: 0000 0000 0000 0000 0000 0000 0000 0000
00000040: 0000 0000 0000 0000 0000 0000 0000 0000
00000050: 0000 0000 0000 0000 0000 0000 0000 0000
00000060: 0000 0000 0000 0000 0000 0000 0000 0000
00000070: 0000 0000 0000 0000 0000 0000 0000 0000
00000080: 0000 0000 0000 0000 0000 0000 0000 0000
00000090: 0000 0000 0000 0000 0000 0000 0000 0000
000000a0: 0000 0000 0000 0000 0000 0000 0000 0000
000000b0: 0000 0000 0000 0000 0000 0000 0000 0000
000000c0: 0000 0000 0000 0000 0000 0000 0000 0000
000000d0: 0000 0000 0000 0000 0000 0000 0000 0000
000000e0: 0000 0000 0000 0000 0000 0000 0000 0000
000000f0: 0000 0000 0000 0000 0000 0000 0000 0000
00000100: 0000 0000 0000 0000 0000 0000 0000 0000
00000110: 0000 0000 0000 0000 0000 0000 0000 0000
00000120: 0000 0000 0000 0000 0000 0000 0000 0000
00000130: 0000 0000 0000 0000 0000 0000 0000 0000
00000140: 0000 0000 0000 0000 0000 0000 0000 0000
00000150: 0000 0000 0000 0000 0000 0000 0000 0000
00000160: 0000 0000 0000 0000 0000 0000 0000 0000
00000170: 0000 0000 0000 0000 0000 0000 0000 0000
00000180: 0000 0000 0000 0000 0000 0000 0000 0000
00000190: 0000 0000 0000 0000 0000 0000 0000 0000
000001a0: 0000 0000 0000 0000 0000 0000 0000 0000
000001b0: 0000 0000 0000 0000 0000 0000 0000 0000
000001c0: 0000 0000 0000 0000 0000 0000 0000 0000
000001d0: 0000 0000 0000 0000 0000 0000 0000 0000
000001e0: 0000 0000 0000 0000 0000 0000 0000 0000
000001f0: 0000 0000 0000 0000 0000 0000 0000 0000
00000200: 0000 0000 0000 0000 0000 0000 0000 0000
00000210: 0000 0000 0000 0000 0000 0000 0000 0000
00000220: 0000 0000 0000 0000 0000 0000 0000 0000
00000230: 0000 0000 0000 0000 0000 0000 0000 0000
00000240: 0000 0000 0000 0000 0000 0000 0000 0000
00000250: 0000 0000 0000 0000 0000 0000 0000 0000
00000260: 0000 0000 0000 0000 0000 0000 0000 0000
00000270: 0000 0000 0000 0000 0000 0000 0000 0000
00000280: 0000 0000 0000 0000 0000 0000 0000 0000
00000290: 0000 0000 0000 0000 0000 0000 0000 0000
000002a0: 0000 0000 0000 0000 0000 0000 0000 0000
000002b0: 0000 0000 0000 0000 0000 0000 0000 0000
000002c0: 0000 0000 0000 0000 0000 0000 0000 0000
000002d0: 0000 0000 0000 0000 0000 0000 0000 0000
000002e0: 0000 0000 0000 0000 0000 0000 0000 0000
000002f0: 0000 0000 0000 0000 0000 0000 0000 0000
00000300: 0000 0000 0000 0000 0000 0000 0000 0000
00000310: 0000 0000 0000 0000 0000 0000 0000 0000
00000320: 0000 0000 0000 0000 0000 0000 0000 0000
00000330: 0000 0000 0000 0000 0000 0000 0000 0000
00000340: 0000 0000 0000 0000 0000 0000 0000 0000
00000350: 0000 0000 0000 0000 0000 0000 0000 0000
00000360: 0000 0000 0000 0000 0000 0000 0000 0000
00000370: 0000 0000 0000 0000 0000 0000 0000 0000
00000380: 0000 0000 0000 0000 0000 0000 0000 0000
00000390: 0000 0000 0000 0000 0000 0000 0000 0000
000003a0: 0000 0000 0000 0000 0000 0000 0000 0000
000003b0: 0000 0000 0000 0000 0000 0000 0000 0000
000003c0: 0000 0000 0000 0000 0000 0000 0000 0000
000003d0: 0000 0000 0000 0000 0000 0000 0000 0000
000003e0: 0000 0000 0000 0000 0000 0000 0000 0000
000003f0: 0000 0000 0000 0000 0000 0000 0000 0000
0.0 0.0 0.0 0.0 0.0 0.0 0.0 0.0
0.0 0.0 0.0 0.0 0.0 0.0 0.0 0.0
0.0 0.0 0.0 0.0 0.0 0.0 0.0 0.0
0.0 0.0 0.0 0.0 0.0 0.0 0.0 0.0
0.0 0.0 0.0 0.0 0.0 0.0 0.0 0.0
0.0 0.0 0.0 0.0 0.0 0.0 0.0 0.0
0.0 0.0 0.0 0.0 0.0 0.0 0.0 0.0
0.0 0.0 0.0 0.0 0.0 0.0 0.0 0.0
0.0 0.0 0.0 0.0 0.0 0.0 0.0 0.0
0.0 0.0 0.0 0.0 0.0 0.0 0.0 0.0
0.0 0.0 0.0 0.0 0.0 0.0 0.0 0.0
0.0 0.0 0.0 0.0 0.0 0.0 0.0 0.0
0.0 0.0 0.0 0.0 0.0 0.0 0.0 0.0
0.0 0.0 0.0 0.0 0.0 0.0 0.0 0.0
0.0 0.0 0.0 0.0 0.0 0.0 0.0 0.0
0.0 0.0 0.0 0.0 0.0 0.0 0.0 0.0
0.0 0.0 0.0 0.0 0.0 0.0 0.0 0.0
0.0 0.0 0.0 0.0 0.0 0.0 0.0 0.0
0.0 0.0 0.0 0.0 0.0 0.0 0.0 0.0
0.0 0.0 0.0 0.0 0.0 0.0 0.0 0.0
0.0 0.0 0.0 0.0 0.0 0.0 0.0 0.0
0.0 0.0 0.0 0.0 0.0 0.0 0.0 0.0
0.0 0.0 0.0 0.0 0.0 0.0 0.0 0.0
0.0 0.0 0.0 0.0 0.0 0.0 0.0 0.0
0.0 0.0 0.0 0.0 0.0 0.0 0.0 0.0
0.0 0.0 0.0 0.0 0.0 0.0 0.0 0.0
0.0 0.0 0.0 0.0 0.0 0.0 0.0 0.0
0.0 0.0 0.0 0.0 0.0 0.0 0.0 0.0
0.0 0.0 0.0 0.0 0.0 0.0 0.0 0.0
0.0 0.0 0.0 0.0 0.0 0.0 0.0 0.0
0.0 0.0 0.0 0.0 0.0 0.0 0.0 0.0
0.0 0.0 0.0 0.0 0.0 0.0 0.0 0.0
