GPU/checkpoints_kpconv/kpconv_best_miou_0.1848.pth (torch, 482597 bytes, 32 tensors)

fc_in.weight f4 [8, 3]
0.47791833 0.223869 0.31312823 -0.3091576 0.5295986 0.43178332 -0.017634481 0.098639235
-0.055367738 -0.41121578 -0.4447433 0.5246152 0.42646912 0.5548735 0.27828228 0.07146655
-0.05900252 0.08602646 -0.07231483 -0.28070527 0.29433492 0.05820775 -0.035051063 -0.42153442
00000000: b6b1 f43e ea3d 653e 5852 a03e e849 9ebe
00000010: c693 073f b412 dd3e 3076 90bc 5e03 ca3d
00000020: 48c9 62bd e08a d2be 65b5 e3be 2f4d 063f
00000030: 295a da3e 310c 0e3f 047b 8e3e 0e5d 923d
00000040: a0ac 71bd a42e b03d cc19 94bd 9ab8 8fbe
00000050: 11b3 963e 406b 6e3d b491 0fbd 5cd3 d7be

fc_in.bias f4 [8]
0.46068463 0.53917027 -0.06952408 0.29513097 0.35910478 0.040482204 -0.3709782 0.3033179
00000000: dbde eb3e 1007 0a3f a462 8ebd 681b 973e
00000010: 95dc b73e abd0 253d dbf0 bdbe 7c4c 9b3e

kpconv1.kernel_weights f4 [15, 8, 32]
0.4302851 -0.23014311 0.85231596 -1.2355319 0.3669252 -0.36462215 -0.14780422 1.3424854
0.07657976 0.06766357 -0.4028908 -0.44714856 0.00031097262 -0.19620495 0.23935007 -0.41215882
-0.32676727 -0.41106433 -0.6923461 -0.22207196 0.21574473 -0.7569565 -0.082254425 -1.0269598
-0.640001 -0.497243 -0.7496771 0.4855757 -0.23021387 0.46203762 0.1587338 0.34745693
0.6737443 0.06754233 -0.2593281 -0.9903438 0.3783434 -0.4609619 0.109282464 -0.21804564
-0.49091756 -0.30122888 -0.24992803 0.30756053 -0.4573859 0.1550111 -0.4243339 0.62114877
-0.65302366 0.03253971 0.48907223 -0.43437886 -0.7912514 -0.38537067 0.32744372 -0.057569757
-0.7929589 0.028610108 0.3909387 -0.48258796 0.43356952 0.12729342 -0.5370804 -0.29037043
-0.748851 -0.5527901 -0.75218254 0.18924984 0.13742267 0.4947841 -0.26565742 1.059505
0.41493097 0.44663283 -0.65507424 -0.54267436 0.25596598 -0.41669208 0.68703985 0.058416486
-0.47897267 0.65940887 0.6015214 -0.28186223 -0.3099592 -0.09770273 0.5613482 0.5657171
0.17995277 0.14053172 -0.5264709 0.0722304 0.15549657 -0.050916467 0.14250138 -0.00025508925
0.58353657 -0.21156403 0.07294802 -0.6146639 0.020262275 0.30647588 -0.057536393 -0.5246541
0.2524633 -0.12442342 -1.1135515 -0.18309839 0.22429644 -0.58101755 0.0681343 0.043361343
-0.33192477 0.412455 -0.41466463 -0.15933146 0.14581619 1.415612 -0.5618782 0.4871606
0.5780926 -0.2348803 0.35421532 -0.089845166 -1.0891323 0.86702853 0.4047265 -0.3367692
0.0388173 0.1776515 0.27612346 0.21559113 0.3245194 0.42109665 0.8818764 -0.39022782
-0.30922922 0.13068292 0.69717026 0.57926136 -0.3688511 0.11030702 0.19955692 0.29114205
-0.36284184 0.5978794 -0.48929742 -0.30608153 0.27118847 -0.23877081 0.13478698 1.1100391
-0.08840392 -0.7511285 0.80417466 0.3160669 0.021856356 0.85935515 0.1626926 0.36330676
0.34742928 0.20589864 0.29470772 -0.12586467 0.15448545 0.2913917 -0.030406313 0.037042145
-0.4431566 -0.8822254 -0.7529663 0.14461456 0.6704513 -0.41621056 -0.6231285 0.40421122
0.25504717 0.049773425 0.079703666 0.44923678 -0.06870327 -0.6661715 -0.4754172 0.7394792
-0.30892015 -0.103387944 0.23777957 0.40090778 0.9731034 0.10255733 0.4654792 0.06806317
-0.367534 -0.195248 -0.2261586 -0.015921341 0.8208886 -0.29567885 0.115977556 0.478691
-0.0579518 0.7387677 -0.07962197 -0.09653115 0.35619423 1.2243481 0.63427484 -0.15136798
0.17546648 -0.7803691 0.12524065 -0.022288276 0.7943367 -0.33499584 0.74053943 0.44667685
-0.68051964 1.1613884 -0.11365245 0.6719644 -0.17331302 0.46734673 0.5371379 0.13291791
0.48696485 0.4251974 0.19970518 -0.066063724 0.17902105 0.4740655 0.7918727 0.11669106
-0.5248168 1.3626465 -0.27622345 -0.41037324 0.009278087 0.24676962 -0.1890358 -0.5476635
-1.2575904 -0.7106493 0.2834618 -0.46061996 -0.42917335 0.9070104 0.029029809 0.5603168
-0.9029325 0.1564986 -0.279919 -0.53735155 0.25902086 -0.0774828 0.21135613 0.7844125
00000000: 544e dc3e a3aa 6bbe 6131 5a3f e925 9ebf
00000010: 9fdd bb3e c1af babe fd59 17be 90d6 ab3f
00000020: d9d5 9c3d 3393 8a3d b447 cebe a8f0 e4be
00000030: 0a0a a339 f3e9 48be 2f18 753e 7b06 d3be
00000040: 0a4e a7be 0677 d2be 983d 31bf d566 63be
00000050: 30ec 5c3e e7c7 41bf 0275 a8bd 6b73 83bf
00000060: 1bd7 23bf a296 febe d7ea 3fbf 619d f83e
00000070: 2fbd 6bbe 3290 ec3e 1d8b 223e e0e5 b13e
00000080: 827a 2c3f a253 8a3d a7c6 84be 2c87 7dbf
00000090: 3ab6 c13e 3303 ecbe 7ccf df3d 5b47 5fbe
000000a0: 8c59 fbbe ac3a 9abe 22ed 7fbe 9378 9d3e
000000b0: 7c2e eabe 3bbb 1e3e 4b42 d9be 9b03 1f3f
000000c0: 8f2c 27bf 5c48 053d ad67 fa3e e866 debe
000000d0: 748f 4abf 4e4f c5be b4a6 a73e 44ce 6bbd
000000e0: 5bff 4abf bf5f ea3c 1e29 c83e c515 f7be
000000f0: d3fc dd3e 3559 023e 1a7e 09bf 6fab 94be
00000100: b3b4 3fbf a783 0dbf 098f 40bf b6ca 413e
00000110: 87b8 0c3e 5754 fd3e 4004 88be dc9d 873f
00000120: d571 d43e 0fad e43e f2b2 27bf b5ec 0abf
00000130: f90d 833e aa58 d5be d8e1 2f3f 2046 6f3d
00000140: e83b f5be 05cf 283f 4efd 193f 3f50 90be
00000150: f9b2 9ebe 5e18 c8bd 84b4 0f3f d6d2 103f
00000160: 8a45 383e 8ce7 0f3e ccc6 06bf 88ed 933d
00000170: 7e3a 1f3e c98d 50bd e2eb 113e 80bd 85b9
00000180: a762 153f 3ea4 58be c665 953d 9d5a 1dbf
00000190: 12fd a53c 68ea 9c3e 48ab 6bbd bb4f 06bf
000001a0: df42 813e b5d1 febd db88 8ebf 257e 3bbe
000001b0: f7ad 653e 91bd 14bf ff89 8b3d aa9b 313d
000001c0: 0bf2 a9be 4d2d d33e ec4e d4be c927 23be
000001d0: d750 153e c632 b53f 40d7 0fbf 1d6d f93e
000001e0: e0fd 133f 7684 70be b65b b53e be00 b8bd
000001f0: b068 8bbf 95f5 5d3f 5038 cf3e 036d acbe
00000200: e4fe 1e3d 46ea 353e 0e60 8d3e ecc3 5c3e
00000210: 6827 a63e fb99 d73e a7c2 613f f1cb c7be
00000220: 4b53 9ebe bed1 053e c079 323f 794a 143f
00000230: 0dda bcbe a6e8 e13d a658 4c3e 9210 953e
00000240: 68c6 b9be a00e 193f 3185 fabe b8b6 9cbe
00000250: 37d9 8a3e 5680 74be 9905 0a3e c315 8e3f
00000260: 1d0d b5bd f549 40bf 64de 4d3f 85d3 a13e
00000270: 1a0c b33c b3fe 5b3f e498 263e 5803 ba3e
00000280: 40e2 b13e 18d7 523e eee3 963e abe2 00be
00000290: 6f31 1e3e 4b31 953e a916 f9bc 81b9 173d
000002a0: 6ce5 e2be 86d9 61bf 66c2 40bf d715 143e
000002b0: b2a2 2b3f 8d19 d5be 5985 1fbf c6f4 ce3e
000002c0: 8b95 823e 38df 4b3d ad3b a33d 5d02 e63e
000002d0: 4db4 8cbd 378a 2abf e269 f3be 824e 3d3f
000002e0: c82a 9ebe 0fbd d3bd 7d7c 733e c943 cd3e
000002f0: 4e1d 793f 9409 d23d 4a53 ee3e b464 8b3d
00000300: 6b2d bcbe 17ef 47be 1f96 67be 796d 82bc
00000310: c125 523f 3863 97be a485 ed3d fd16 f53e
00000320: de5e 6dbd e11f 3d3f d810 a3bd 20b2 c5bd
00000330: 175f b63e 70b7 9c3f d65f 223f 3500 1bbe
00000340: 7cad 333e 45c6 47bf 163f 003e e795 b6bc
00000350: a659 4b3f 9384 abbe fe93 3d3f d4b2 e43e
00000360: 8936 2ebf 60a8 943f 9ec2 e8bd dc05 2c3f
00000370: f878 31be 1248 ef3e df81 093f a21b 083e
00000380: 7553 f93e 79b3 d93e 847f 4c3e 6b4c 87bd
00000390: 4b51 373e b7b8 f23e 2bb8 4a3f b9fb ee3d
000003a0: 655a 06bf 336b ae3f 296d 8dbe 711c d2be
000003b0: 1e03 183c 2db1 7c3e 9a92 41be ad33 0cbf
000003c0: b9f8 a0bf 1ded 35bf e821 913e 61d6 ebbe
000003d0: 9cbc dbbe d531 683f eccf ed3c ec70 0f3f
000003e0: 9626 67bf 2b41 203e 8b51 8fbe df8f 09bf
000003f0: 629e 843e 4daf 9ebd be6d 583e 42cf 483f

kpconv1.bias f4 [32]
0.0008761283 0.0 -0.002053828 0.0058521507 -0.0025978757 0.0061093047 -0.002328871 0.002581731
-0.0023767292 -0.010940056 0.0 -0.0059661726 -0.005567371 -0.002800593 -0.0059733787 -0.008358341
-0.00060422724 -0.0012531965 0.0 -0.0037453328 0.0011105483 0.005521959 -0.00046878093 0.0022073537
0.0003556507 0.0038535693 0.0 0.0009800093 -0.0026860305 0.0 0.0039479537 -0.0018189634
00000000: faab 653a 0000 0000 8499 06bb 66c3 bf3b
00000010: 1f41 2abb 9030 c83b f99f 18bb 4232 293b
00000020: e6c2 1bbb ec3d 33bc 0000 0000 e27f c3bb
00000030: 7e6e b6bb 278a 37bb 55bc c3bb 6cf1 08bc
00000040: 0165 1eba 4c42 a4ba 0000 0000 4274 75bb
00000050: d18f 913a 8df1 b43b b6c6 f5b9 40a9 103b
00000060: a176 ba39 2a8c 7c3b 0000 0000 a873 803a
00000070: 1d08 30bb 0000 0000 d65d 813b 496a eeba

kpconv1.kernel_points f4 [15, 3]
0.029878495 -0.2324936 0.2017069 -0.00081966334 0.0137917 0.015145611 0.14231275 0.21780889
0.29465276 0.31926137 -0.078755945 0.37576947 -0.28505388 -0.3065853 0.23775637 0.047138855
0.054995853 -0.03532093 -0.2743986 -0.095334314 -0.14490913 0.07153815 -0.015769517 -0.14427586
0.01953529 -0.20947637 0.38986552 0.20383272 0.20145462 -0.052125104 -0.050131522 -0.034604993
0.18685065 0.21161671 0.032266874 -0.40191472 0.008787299 0.3041305 0.11141424 -0.003717128
-0.0059952857 0.013545221 -0.30014363 -0.115203366 -0.1294957
00000000: bfc3 f43c cd12 6ebe 418c 4e3e adde 56ba
00000010: 95f6 613c 4c25 783c 6fba 113e 4b09 5f3e
00000020: badc 963e 3a76 a33e cc4a a1bd db64 c03e
00000030: 95f2 91be c0f8 9cbe 6876 733e ac14 413d
00000040: 5543 613d aeac 10bd f97d 8cbe a33e c3bd
00000050: 0f63 14be 9882 923d 132f 81bc 0dbd 13be
00000060: 7908 a03c f980 56be 749c c73e 86b9 503e
00000070: 1f4a 4e3e 2281 55bd b656 4dbd f7bd 0dbd
00000080: c755 3f3e 0db2 583e 452a 043d c4c7 cdbe
00000090: 9af8 0f3c feb6 9b3e 262d e43d 0f9b 73bb
000000a0: 1a74 c4bb c6ec 5d3c 6dac 99be beef ebbd
000000b0: 859a 04be

kpconv2.kernel_weights f4 [15, 32, 64]
0.077286676 -0.19684458 0.078529194 0.019517614 -0.032562785 0.21976675 -0.19570486 0.04598183
0.28071278 -0.28935778 0.44595203 0.2835626 -0.018077627 -0.22555226 -0.1900832 0.1433799
-0.19126251 0.043618027 -0.003914918 -0.34925014 -0.0075419876 0.015455645 0.19779207 0.26134276
0.2792025 0.010856437 0.33925068 0.21871737 0.12891404 -0.21701908 -0.13017625 -0.21006773
-0.03786542 -0.057123728 -0.41279125 0.07636938 0.19304082 0.27659035 -0.22397138 -0.027574766
-0.36460522 0.28924438 -0.2738197 -0.35315952 0.3874909 0.27164534 0.20844336 -0.075505204
-0.23781534 -0.20525135 0.060464878 0.00423241 0.17253631 -0.27700034 0.07741873 -0.059104502
0.4891954 0.33125758 0.14800543 0.2500668 0.037724573 -0.14287493 -0.27213022 0.30472738
-0.062631875 -0.1971396 -0.18032537 0.5333057 0.028629372 0.086276345 0.23376884 0.086021595
0.38126948 -0.14556392 -0.192427 0.104907036 0.22394615 0.15586838 -0.013490026 -0.11340774
-0.043838866 -0.033275053 -0.11824607 0.099119455 -0.24721193 0.064507104 0.2203329 -0.33901358
-0.059248164 0.6221704 0.066128306 -0.15163562 0.17292634 0.12757646 -0.23902602 0.07709443
0.072787724 0.32305157 -0.21506575 0.0537516 0.28787807 -0.5700468 -0.35427225 0.039494943
0.044939328 0.29166397 0.33870557 -0.22444865 0.08985467 -0.21394631 -0.05100935 0.28780833
-0.59391093 -0.03411151 -0.23410173 0.04418293 -0.12651971 0.059675965 0.012374695 -0.21479562
0.14522597 -0.22804518 0.44453537 -0.15410315 -0.15881057 -0.22023188 -0.29738748 -0.35022268
-0.083069384 0.24749981 -0.40984553 0.08385038 0.13118944 -0.10520762 0.030512333 -0.48756123
-0.44214603 0.04392482 0.32468975 -0.0058847573 -0.40192875 -0.1398269 0.28270695 -0.30747285
-0.40866852 0.036922093 -0.076911986 0.051723517 -0.20040943 0.47317088 -0.007908159 0.09763646
0.021726102 -0.1483093 0.30388954 0.3397996 -0.4817751 -0.23067898 -0.2942645 0.03768838
-0.3567564 0.1750868 0.07686694 -0.3863854 0.14681421 -0.12962113 0.02395087 0.13916388
-0.048936788 0.061709277 -0.22883098 0.43747175 0.46907625 -0.11213276 0.13377252 0.23847644
0.1888017 -0.4444462 -0.20768842 0.044411402 0.08578085 -0.394968 -0.35896844 -0.24600594
0.08870493 -0.005388054 -0.040061977 0.02382993 0.7617367 -0.20519301 0.23125495 -0.08835331
-0.24152178 -0.016594771 0.28359318 -0.36662722 -0.2528278 -0.30317584 0.2745023 -0.2968841
-0.1340369 -0.22053395 0.18493642 0.380068 0.40930134 -0.33111608 0.13417605 0.27744752
-0.14319247 -0.6110349 -0.07924514 0.2841723 -0.036827758 0.12377044 -0.1590332 0.40789774
0.15873037 -0.09576851 -0.07969957 -0.3533399 -0.07255412 -0.13658184 0.47666258 -0.18448183
-0.43530062 0.08486382 -0.0043342477 -0.10019898 -0.7156372 -0.16247946 -0.14067411 0.014211936
0.18173671 -0.16332346 -0.073406294 -0.02549749 -0.083359934 -0.18137397 0.1500275 -0.13348648
-0.081611075 -0.46137357 -0.22811459 0.33753204 0.5287795 0.049384333 -0.38476628 -0.2111647
0.3927968 -0.07196295 -0.31875956 0.21954031 -0.19117706 -0.060064223 0.13854046 0.00841209
00000000: 7a48 9e3d a091 49be ead3 a03d 67e3 9f3c
00000010: 8e60 05bd 890a 613e db66 48be 7257 3c3d
00000020: 96b9 8f3e b426 94be d353 e43e 1e2f 913e
00000030: 8817 94bc 2cf7 66be 2ca5 42be 2ed2 123e
00000040: 52da 43be d1a8 323d b648 80bb ead0 b2be
00000050: c722 f7bb ac39 7d3c 018a 4a3e b8ce 853e
00000060: a1f3 8e3e 32df 313c 44b2 ad3e 72f7 5f3e
00000070: 0b02 043e 403a 5ebe ec4c 05be ff1b 57be
00000080: c518 1bbd 92fa 69bd 6059 d3be 8d67 9c3d
00000090: 7eac 453e 409d 8d3e c158 65be 7ae4 e1bc
000000a0: 89ad babe d717 943e 1932 8cbe 53d1 b4be
000000b0: 3565 c63e 1915 8b3e 2d72 553e 79a2 9abd
000000c0: dd85 73be 692d 52be 05aa 773d 07b0 8a3b
000000d0: 5cad 303e fdd2 8dbe b68d 9e3d 9017 72bd
000000e0: d277 fa3e 989a a93e bc8e 173e c108 803e
000000f0: 1585 1a3d ce4d 12be a754 8bbe 3a05 9c3e
00000100: 2445 80bd f7de 49be 37a7 38be b986 083f
00000110: 2588 ea3c a7b1 b03d 1961 6f3e 172c b03d
00000120: c135 c33e b50e 15be 950b 45be 80d9 d63d
00000130: 2452 653e f69b 1f3e 4505 5dbc 5142 e8bd
00000140: 6290 33bd 6c4b 08bd ff2a f2bd 24ff ca3d
00000150: 2025 7dbe 4d1c 843d f39e 613e 3093 adbe
00000160: 34ae 72bd 8f46 1f3f 476e 873d 5e46 1bbe
00000170: 9a13 313e 67a3 023e 3dc3 74be afe3 9d3d
00000180: bb11 953d 0467 a53e 323a 5cbe a32a 5c3d
00000190: c164 933e 96ee 11bf 2c63 b5be 73c5 213d
000001a0: 4d12 383d fb54 953e d16a ad3e ded5 65be
000001b0: ba05 b83d be14 5bbe 2eef 50bd 9d5b 933e
000001c0: 8c0a 18bf 83b8 0bbd 5db8 6fbe 29f9 343d
000001d0: 628e 01be c96e 743d 3cbf 4a3c 62f3 5bbe
000001e0: 1eb6 143e ad84 69be 249a e33e 37cd 1dbe
000001f0: 3d9f 22be 7784 61be 2c43 98be 6350 b3be
00000200: 4820 aabd 9770 7d3e 46d7 d1be bfb9 ab3d
00000210: 8656 063e 1877 d7bd 00f5 f93c a0a1 f9be
00000220: f760 e2be 83ea 333d bc3d a63e ecd4 c0bb
00000230: 9bc9 cdbe c82e 0fbe f7be 903e 156d 9dbe
00000240: 003d d1be 9f3b 173d 0884 9dbd 0adc 533d
00000250: 2138 4dbe 7443 f23e 3991 01bc a0f5 c73d
00000260: f0fa b13c 65de 17be 6997 9b3e 37fa ad3e
00000270: 3aab f6be 1c37 6cbe d6a9 96be 215f 1a3d
00000280: c6a8 b6be f449 333e 6a6c 9d3d 4fd4 c5be
00000290: 7756 163e 67bb 04be 9d34 c43c fa80 0e3e
000002a0: f171 48bd dec2 7c3d ab52 6abe 4cfc df3e
000002b0: c32a f03e dca5 e5bd aafb 083e 2b33 743e
000002c0: 3c55 413e 748e e3be 46ac 54be bbe8 353d
000002d0: dfad af3d 3f39 cabe b6ca b7be fbe8 7bbe
000002e0: eeaa b53d 468e b0bb 0718 24bd fc36 c33c
000002f0: 2d01 433f 1e1e 52be 19ce 6c3e 95f2 b4bd
00000300: 7c51 77be c2f1 87bc 2033 913e 90b6 bbbe
00000310: a572 81be dd39 9bbe 918b 8c3e 3101 98be
00000320: f840 09be a7d3 61be f95f 3d3e 4698 c23e
00000330: f28f d13e 0c88 a9be 7265 093e 9a0d 8e3e
00000340: 0ca1 12be c96c 1cbf 474b a2bd 087f 913e
00000350: b4d8 16bd 5b7b fd3d 99d9 22be f9d7 d03e
00000360: 378a 223e 4822 c4bd 8739 a3bd f8e8 b4be
00000370: 4197 94bd 1cdc 0bbe 1e0d f43e cee8 3cbe
00000380: b9df debe 15cd ad3d 4e06 8ebb 1f35 cdbd
00000390: 0034 37bf 0461 26be e00c 10be 2ed9 683c
000003a0: 3019 3a3e 443e 27be 0a56 96bd 1de0 d0bc
000003b0: 9db8 aabd 19ba 39be cfa0 193e aeb0 08be
000003c0: b523 a7bd 2839 ecbe df96 69be 00d1 ac3e
000003d0: 185e 073f 3a47 4a3d 1600 c5be 8f3b 58be
000003e0: aa1c c93e 5061 93bd 7434 a3be 2dcf 603e
000003f0: ebc3 43be e705 76bd 8ddd 0d3e ddd2 093c

kpconv2.bias f4 [64]
-0.0032504178 0.00041776558 -0.002547591 -0.0038302038 -0.0062729036 0.00122684 0.004929776 -0.0053788703
-0.0011859847 0.007646926 0.0 0.0025226867 0.0 -0.0051019937 0.0046332157 0.0028368311
-0.0006691388 -0.0015788954 -0.0031598469 -0.0045742122 -0.001514259 -0.0047093686 0.0015601147 -0.008661512
0.0006540036 -0.003987902 -0.0041606147 -0.0022762325 -5.0688657e-05 -0.0017650296 -0.002673014 -0.0032572437
0.0031021794 0.0 0.0 -0.0021125567 -0.0038421026 0.00047635174 0.002437429 0.0
0.0013195835 0.0018143574 0.003147312 -0.004904174 -0.007042508 -0.0010376589 0.001613801 -0.005551481
0.0 -0.0016378709 -0.0009340658 0.0034288594 0.0 0.0030697777 -0.0009625979 -0.0024369408
0.0034923742 0.0010014002 -0.0066077327 -0.0042829155 -0.006295811 -0.0014385848 0.0 -0.005132215
00000000: f604 55bb 8c07 db39 7cf5 26bb 2804 7bbb
00000010: ee8c cdbb ebcd a03a f589 a13b 3c41 b0bb
00000020: 0b73 9bba 1193 fa3b 0000 0000 a953 253b
00000030: 0000 0000 a02e a7bb 3bd2 973b 21ea 393b
00000040: 2569 2fba f0f2 ceba 6f15 4fbb 46e3 95bb
00000050: 1a7a c6ba 0c51 9abb c37c cc3a 04e9 0dbc
00000060: 7071 2b3a f2ac 82bb c455 88bb d82c 15bb
00000070: 889a 54b8 9158 e7ba bc2d 2fbb 7b77 55bb
00000080: ef4d 4b3b 0000 0000 0000 0000 d272 0abb
00000090: c9cb 7bbb d9be f939 46bd 1f3b 0000 0000
000000a0: e0f5 ac3a bbcf ed3a 2243 4e3b 31b3 a0bb
000000b0: d7c4 e6bb 0e02 88ba 2d86 d33a 33e9 b5bb
000000c0: 0000 0000 d4ad d6ba 18dc 74ba b7b6 603b
000000d0: 0000 0000 532e 493b da56 7cba 15b5 1fbb
000000e0: 51e0 643b 6a41 833a ae85 d8bb b357 8cbb
000000f0: 174d cebb e58e bcba 0000 0000 242c a8bb

kpconv2.kernel_points f4 [15, 3]
-0.19011816 0.3166114 -0.14461443 -0.08259466 -0.15865175 -0.03484802 -0.057319757 -0.12820554
-0.041440904 0.12998167 -0.053113945 -0.3259804 -0.4874038 -0.027154796 0.11372608 -0.06610036
0.44728208 0.09353991 0.049872465 -0.03597127 0.031209372 -0.26678917 0.11849692 0.36706787
0.1507938 0.030535916 0.21775897 0.15597469 0.18575196 0.06774395 0.07109014 0.17000477
0.37896854 0.5917633 -0.311133 -0.25274456 0.37343153 -0.47198138 0.34576777 0.25175342
0.21541108 -0.10777766 -0.07349106 0.053384997 -0.420792
00000000: 56ae 42be e41a a23e ce15 14be 6427 a9bd
00000010: 9b75 22be ccbc 0ebd 1fc8 6abd 5048 03be
00000020: f0bd 29bd ea19 053e 028e 59bd e7e6 a6be
00000030: fe8c f9be bc73 debc 38e9 e83d a05f 87bd
00000040: 2802 e53e da91 bf3d 1247 4c3d 9c56 13bd
00000050: ccaa ff3c 9798 88be 83ae f23d 52f0 bb3e
00000060: b169 1a3e 7526 fa3c 35fc 5e3e d4b7 1f3e
00000070: c335 3e3e 57bd 8a3d b597 913d bb15 2e3e
00000080: 2a08 c23e cd7d 173f d34c 9fbe bc67 81be
00000090: 6b32 bf3e 8ba7 f1be 7908 b13e d3e5 803e
000000a0: b994 5c3e 89ba dcbd 7b82 96bd 3aaa 5a3d
000000b0: 0d72 d7be

fc_mid.weight f4 [64, 64]
-0.08324051 0.11959328 -0.016838998 -0.07315329 0.059867084 0.033326313 -0.04683718 -0.042946994
-0.047128305 -0.046565965 -0.08554219 -0.036993444 -0.06656879 0.11803678 0.066234514 0.02196595
0.09572446 -0.010995939 -0.015573233 0.0045658946 0.0897847 -0.0997324 0.033119664 0.013356864
0.08200151 -0.002283454 -0.0321656 -0.09705666 0.008769318 -0.019013464 0.023143172 0.006944388
-0.05901535 -0.00044836104 0.11118992 -0.026618853 0.09019497 0.041481078 0.02024901 0.055848405
-0.017631426 0.019450814 0.041691452 -0.016594037 -0.063041925 0.11588366 -0.09990728 0.06681974
-0.11112794 0.05334215 0.10447794 -0.1153771 -0.11357424 -0.0902648 -0.07378203 -0.0635557
0.01911579 -0.0765 -0.07646105 0.094237134 -0.1077373 -0.056335196 0.07943006 -0.06420347
-0.056074277 -0.094813064 -0.04915972 0.011268795 0.036388487 0.016823769 -0.074652344 -0.06433955
-0.07657239 0.031583577 0.056363225 0.04417658 0.1028212 -0.050302908 0.008554772 -0.105832055
-0.089235276 -0.07342808 -0.046810508 0.048666626 0.07993351 -0.057353288 0.10535386 0.061831728
0.08196902 -0.07095531 0.056684896 0.122228265 0.015893325 0.032695398 0.04640682 -0.09042452
-0.047345445 -0.009552091 -0.018306687 0.11152485 0.046261176 -0.025139466 -0.10961194 -0.034153327
-0.071214944 -0.0014298409 0.0008625984 0.07652417 -0.09615603 -0.08662076 0.10124004 -0.116960734
0.10174386 -0.031108946 -0.10092248 -0.032698616 -0.006660491 -0.06211096 -0.12495433 0.07014024
-0.08179344 -0.07227865 0.011014089 -0.022771165 -0.10393278 0.05474104 0.11153658 0.06991762
-0.016229546 0.11111054 -0.011954048 0.029500004 -0.066774994 0.051128004 -0.007459651 -0.11098772
-0.03788061 0.056422774 -0.04712224 -0.04817685 -0.07976253 0.10719164 0.10442022 -0.008743836
-0.04575264 -0.05734471 0.054211546 0.046196904 -0.1216503 -0.10346811 -0.014160039 -0.101230994
0.053284988 -0.011535575 -0.077240616 0.059899062 0.08397673 0.060871486 -0.006360571 -0.014779143
0.061713044 -0.038627267 0.09522155 -0.08010811 0.016738322 0.040564705 0.047021113 0.0762748
0.10900218 0.005587109 0.029382756 -0.09606618 0.025921226 0.074238196 0.04166307 -0.044679135
-0.04833561 0.052525677 0.04338324 0.022798883 0.060917184 0.11989569 -0.046323992 0.06973351
0.08202382 -0.09568259 0.08597193 -0.0575114 0.110386215 0.1008245 0.0600518 0.025175497
0.014671351 -0.007422324 -0.11152705 -0.055603463 -0.09932103 -0.11573677 0.064827435 0.051097415
-0.039675776 0.018615061 0.06026031 0.06853716 -0.09531401 0.04852422 0.03753361 -0.120842665
0.11786525 -0.12036043 0.0018962283 0.08186705 -0.030477883 0.021639327 0.058264636 0.0178745
-0.014884495 0.06347264 0.10120699 0.026369384 0.10159102 -0.08486173 -0.061485555 -0.1120699
-0.04905103 0.023494318 0.030234367 0.015863372 -0.043517537 -0.112057805 -0.018224321 -0.061469182
-0.050099235 0.08464394 0.016737431 0.050942436 0.08787301 0.11716006 0.07587411 0.029375331
0.1186531 -0.034095194 -0.0306455 0.12963673 0.09895639 0.124598175 -0.10607971 0.08034243
-0.0024086954 -0.073921606 -0.11594359 0.0042712484 -0.10703174 0.096645534 0.052623197 0.03334364
00000000: 007a aabd 52ed f43d f0f1 89bc 64d1 95bd
00000010: 3037 753d 2c81 083d 58d8 3fbd 30e9 2fbd
00000020: 9c09 41bd f4bb 3ebd be30 afbd 7086 17bd
00000030: 3855 88bd 44bd f13d f6a5 873d f0f1 b33c
00000040: 300b c43d 5028 34bc e026 7fbc 809d 953b
00000050: 0ae1 b73d 8040 ccbd 7ca8 073d c0d6 5a3c
00000060: 68f0 a73d 00a6 15bb 14c0 03bd a4c5 c6bd
00000070: 30ad 0f3c 20c2 9bbc c096 bd3c c08d e33b
00000080: 14ba 71bd 0012 ebb9 8ab7 e33d c80f dabc
00000090: 24b8 b83d 10e8 293d 40e1 a53c 4cc1 643d
000000a0: c86f 90bc 5057 9f3c a8c4 2a3d 38f0 87bc
000000b0: 201c 81bd 6a54 ed3d 309c ccbd cad8 883d
000000c0: 0c97 e3bd 4c7d 5a3d 88f8 d53d d44a ecbd
000000d0: 9c99 e8bd c0dc b8bd 081b 97bd 7e29 82bd
000000e0: b898 9c3c 08ac 9cbd 9c97 9cbd 66ff c03d
000000f0: 60a5 dcbd bcbf 66bd 3aac a23d 1c7d 83bd
00000100: 24ae 65bd 5a2d c2bd b45b 49bd c0a0 383c
00000110: 180c 153d 00d2 893c 54e3 98bd 74c4 83bd
00000120: fcd1 9cbd c85d 013d 20dd 663d 80f2 343d
00000130: ec93 d23d 6c0a 4ebd 5029 0c3c 7abe d8bd
00000140: fcc0 b6bd 7661 96bd 60bc 3fbd a856 473d
00000150: 2eb4 a33d 48eb 6abd c4c3 d73d 4443 7d3d
00000160: 60df a73d 0451 91bd 6c2e 683d d052 fa3d
00000170: b832 823c 9ceb 053d 1415 3e3d 7e30 b9bd
00000180: 4ced 41bd 6080 1cbc e8f7 95bc 2467 e43d
00000190: 5c7c 3d3d 48f1 cdbc 3a7c e0bd 5ce4 0bbd
000001a0: 24d9 91bd 8069 bbba 0020 623a b4b8 9c3d
000001b0: 74ed c4bd 3a66 b1bd f056 cf3d 1c89 efbd
000001c0: 165f d03d 30d8 febc 72b0 cebd fcee 05bd
000001d0: 4040 dabb 1068 7ebd 0ee8 ffbd b0a5 8f3d
000001e0: 5283 a7bd d406 94bd 7074 343c 988a babc
000001f0: b6da d4bd 2438 603d 4a6d e43d f830 8f3d
00000200: d3f3 84bc ec8d e33d e9da 43bc fea9 f13c
00000210: 54c1 88bd 996b 513d 1770 f4bb 884d e3bd
00000220: b328 1bbd 911b 673d 4003 41bd 1755 45bd
00000230: 8a5a a3bd 4a87 db3d 45da d53d 4e42 0fbc
00000240: 1f67 3bbd 49e2 6abd ed0c 5e3d f738 3d3d
00000250: cb23 f9bd 17e7 d3bd 82ff 67bc 3252 cfbd
00000260: 5c41 5a3d b5ff 3cbc 5430 9ebd b858 753d
00000270: fefb ab3d 6154 793d 566c d0bb 3824 72bc
00000280: d1c6 7c3d a037 1ebd 8403 c33d b90f a4bd
00000290: ce1e 893c 2d27 263d 3699 403d f635 9c3d
000002a0: 893c df3d 1114 b73b 1bb4 f03c 58be c4bd
000002b0: c058 d43c 320a 983d e5a6 2a3d 7801 37bd
000002c0: 90fb 45bd 2a25 573d a0b2 313d b9c4 ba3c
000002d0: 4c84 793d df8b f53d 3abe 3dbd 71d0 8e3d
000002e0: 1bfc a73d 3cf5 c3bd 0d12 b03d 1391 6bbd
000002f0: 2b12 e23d 137d ce3d e0f8 753d d83c ce3c
00000300: 1b60 703c f736 f3bb 4b68 e4bd 75c0 63bd
00000310: d368 cbbd 6607 edbd 3fc4 843d 864b 513d
00000320: 1183 22bd 9d7e 983c 84d3 763d 365d 8c3d
00000330: fe33 c3bd 55c1 463d d8bc 193d 5c7c f7bd
00000340: 5663 f13d 877f f6bd dd8a f83a e9a9 a73d
00000350: c1ac f9bc f544 b13c e6a6 6e3d 8b6d 923c
00000360: 19de 73bc f2fd 813d 9c45 cf3d 9b04 d83c
00000370: f40e d03d fdcb adbd 47d8 7bbd e784 e5bd
00000380: bce9 48bd 2877 c03c 10ae f73c e7f3 813c
00000390: 723f 32bd 907e e5bd 2c4b 95bc 1cc7 7bbd
000003a0: db34 4dbd cd59 ad3d f01c 893c 04a9 503d
000003b0: c4f6 b33d 9df1 ef3d e363 9b3d 89a4 f03c
000003c0: 6600 f33d 67a7 0bbd 460c fbbc 7ebf 043e
000003d0: a6a9 ca3d 542d ff3d 5240 d9bd 928a a43d
000003e0: 34db 1dbb 3664 97bd d573 edbd d4f5 8b3b
000003f0: 7533 dbbd 18ee c53d 6c8b 573d 5793 083d

fc_mid.bias f4 [64]
-0.036393866 -0.06677663 0.09130906 0.09268573 -0.12446956 0.044824198 0.018340293 -0.061595976
-0.100536734 0.08192675 -0.116142765 -0.061763436 -0.006768793 0.021707065 0.020028329 0.0109807765
0.06120916 0.061102778 0.066616476 0.07603177 -0.06533642 -0.08602381 0.04291348 -0.07042606
-0.044964746 -0.12379819 -0.088936955 -0.0061390847 -0.12317912 -0.081378505 -0.10478422 0.05571379
0.045047957 -0.03629595 -0.061582655 0.08790473 -0.07149856 0.035970815 0.09043848 -0.090478435
-0.07728821 -0.074103326 -0.0539888 -0.05363457 -0.0814158 0.0051132655 -0.118845 -0.029322743
-0.11475593 0.090770766 0.034086134 -0.0801779 0.05180815 -0.03804925 -0.086170405 0.023957329
-0.014321119 -0.042057708 0.124925576 -0.08862461 0.06421831 0.070787214 -0.08276163 0.027091457
00000000: bc11 15bd 30c2 88bd 3f00 bb3d 04d2 bd3d
00000010: e6e9 febd 9499 373d 623e 963c 104c 7cbd
00000020: 34e6 cdbd 36c9 a73d 42dc edbd a8fb 7cbd
00000030: c0cc ddbb 04d3 b13c 7312 a43c b7e8 333c
00000040: 75b6 7a3d e846 7a3d 386e 883d 8bb6 9b3d
00000050: 1acf 85bd 402d b0bd 0cc6 2f3d 8a3b 90bd
00000060: f42c 38bd e889 fdbd 9424 b6bd 602a c9bb
00000070: 5645 fcbd c6a9 a6bd 1c99 d6bd 2534 643d
00000080: 3584 383d 10ab 14bd 183e 7cbd 6507 b43d
00000090: d66d 92bd 2256 133d cf37 b93d c24c b9bd
000000a0: 4849 9ebd 7cc3 97bd 5c23 5dbd ecaf 5bbd
000000b0: 54bd a6bd 2e8d a73b 0265 f3bd 4036 f0bc
000000c0: 2805 ebbd 06e6 b93d e79d 0b3d 5034 a4bd
000000d0: c834 543d 88d9 1bbd 1c7a b0bd 2942 c43c
000000e0: 20a3 6abc b444 2cbd fbd8 ff3d d280 b5bd
000000f0: e484 833d e3f8 903d ee7e a9bd e7ee dd3c

fc_out.weight f4 [3, 64]
-0.08868398 0.045716032 -0.061474662 0.05501076 0.010929689 0.044671163 -0.09276316 -0.048877344
-0.07633732 0.08245502 -0.047709018 0.11209555 -0.12104958 0.030370876 -0.055939678 -0.06858742
-0.11951981 0.022616679 0.08537072 0.09556647 -0.055441424 -0.08725706 -0.114470795 -0.12089902
0.028908193 0.09634042 0.06920873 0.025667965 -0.038309976 0.06109944 -0.08129044 -0.07831685
-0.003414725 -0.03999941 -0.07988235 0.036544103 -0.019114807 0.04308677 0.026706565 -0.032619223
-0.06429845 -0.039204344 -0.047260195 0.066882834 -0.014281526 -0.06099119 -0.039709345 -0.09596875
0.10618934 0.11016665 -0.067690775 -0.013697952 -0.06952326 0.070490465 -0.12364328 0.069755346
-0.07440996 -0.006439835 0.058725804 0.11864616 -0.10555814 -0.04087987 0.040523544 0.029212866
-0.0918342 0.03113176 0.110385895 0.026055962 0.1078217 0.06393643 0.12061384 0.06212555
0.030820563 0.06428806 0.11324108 -0.1058768 0.062347382 -0.0017125956 -0.033601463 -0.040001035
-0.085682854 -0.012576172 -0.097777404 -0.04665943 -0.07728173 -0.03162022 -0.049791016 0.06810081
0.0766155 0.027556017 0.046482354 0.08458455 -0.03337434 0.01670526 -0.05116409 -0.07517626
0.08013379 0.120332405 -0.0135784 0.078228235 0.07779828 0.08548531 -0.062216233 0.080968976
0.08808456 0.008041248 -0.008728072 -0.090145245 0.015068829 0.04193892 -0.11380793 -0.09264313
-0.06120406 -0.10937374 0.0863879 -0.021003246 0.04142975 0.117131844 0.095650405 -0.040721063
0.06562877 0.11493251 0.10410363 0.017290905 -0.0076797684 -0.047728933 0.020956904 0.116672635
0.09354065 0.087393016 0.005863448 0.10004774 0.07710743 0.05839206 -0.0029326202 -0.050918967
0.06607778 -0.10889909 0.058726683 -0.03457713 -0.0076892525 -0.06086525 -0.08940889 0.07585755
0.027643843 -0.10940532 0.049768366 0.020242233 -0.04363139 0.061272085 0.049467284 -0.0058093667
0.11679794 -0.114705965 0.03434527 0.07966684 -0.11955872 -0.023814783 -0.118961096 0.04193941
-0.076817945 0.074350685 -0.0020907223 0.029488286 0.026285797 -0.05738803 -0.11174452 0.103856504
0.078547314 -0.021166295 -0.06442948 -0.11512558 0.10270718 -0.1075562 -0.08976412 0.023544863
0.115173325 -0.10084281 -0.10878477 0.08736892 -0.12448866 0.027915314 -0.08083066 -0.051041827
-0.08218858 -0.09993419 0.05605742 -0.10951774 0.022921637 -0.089820184 0.09873803 0.051080436
00000000: f29f b5bd bc40 3b3d dbcc 7bbd f652 613d
00000010: 7012 333c 1cf9 363d 9dfa bdbd 9c33 48bd
00000020: be56 9cbd 2dde a83d 886a 43bd 5a92 e53d
00000030: d8e8 f7bd 58cc f83c 0121 65bd 9077 8cbd
00000040: cdc6 f4bd 9d46 b93c d8d6 ae3d 5ab8 c33d
00000050: 8c16 63bd d4b3 b2bd aa6f eabd e899 f7bd
00000060: e0d0 ec3c 204e c53d 4ebd 8d3d a045 d23c
00000070: ecea 1cbd 6843 7a3d 9a7b a6bd 9664 a0bd
00000080: 94c9 5fbb 6cd6 23bd 5c99 a3bd 45af 153d
00000090: a896 9cbc c17b 303d bac7 da3c bc9b 05bd
000000a0: e8ae 83bd bc94 20bd e893 41bd def9 883d
000000b0: 10fd 69bc e6d1 79bd 44a6 22bd 448b c4bd
000000c0: cc79 d93d 0d9f e13d 76a1 8abd 606d 60bc
000000d0: 3662 8ebd 4e5d 903d b038 fdbd e4db 8e3d
000000e0: 4064 98bd 4005 d3bb 788a 703d c2fc f23d
000000f0: de2e d8bd a771 27bd 04fc 253d d24f ef3c
00000100: 9213 bcbd 0808 ff3c 0012 e23d 5073 d53c
00000110: a0d1 dc3d 1af1 823d 6404 f73d 5c77 7e3d
00000120: 687b fc3c 75a9 833d f0ea e73d f0d5 d8bd
00000130: f85f 7f3d 2c79 e0ba b0a1 09bd 20d8 23bd
00000140: 7e7a afbd 4a0c 4ebc 853f c8bd f51d 3fbd
00000150: e245 9ebd 3484 01bd aaf1 4bbd 7078 8b3d
00000160: 96e8 9c3d 28bd e13c 4864 3e3d aa3a ad3d
00000170: 88b3 08bd 78d9 883c 7091 51bd 03f6 99bd
00000180: 2f1d a43d d670 f63d f077 5ebc 2036 a03d
00000190: b454 9f3d ec12 af3d 73d6 7ebd 10d3 a53d
000001a0: ae65 b43d 70bf 033c 3000 0fbc 129e b8bd
000001b0: 40e3 763c 25c8 2b3d 2214 e9bd aebb bdbd
000001c0: 1cb1 7abd 57ff dfbd 24ec b03d 000f acbc
000001d0: 3eb2 293d d2e2 ef3d 5ce4 c33d 21cb 26bd
000001e0: 6068 863d bc61 eb3d 4934 d53d a8a5 8d3c
000001f0: 91a6 fbbb 6a7f 43bd d0ad ab3c 10f2 ee3d
00000200: 3e92 bf3d 1cfb b23d 2b22 c03b d4e5 cc3d
00000210: 80ea 9d3d 832c 6f3d 3431 40bb 6890 50bd
00000220: ca53 873d 7c06 dfbd 648b 703d c0a0 0dbd
00000230: 20f6 fbbb d74d 79bd 021c b7bd 345b 9b3d
00000240: 5775 e23c e50f e0bd ead9 4b3d 0ad3 a53c
00000250: d4b6 32bd 70f8 7a3d 359e 4a3d 805c bebb
00000260: c233 ef3d f6ea eabd a0ad 0c3d 5e28 a33d
00000270: 34db f4bd 3817 c3bc e0a1 f3bd a9c8 2b3d
00000280: ba52 9dbd 2c45 983d 8004 09bb 6b91 f13c
00000290: 5055 d73c b60f 6bbd 50da e4bd b8b2 d43d
000002a0: 6add a03d f064 adbc 9af3 83bd f6c6 ebbd
000002b0: 2458 d23d 6d46 dcbd 40d6 b7bd 28e1 c03c
000002c0: fedf eb3d ad86 cebd 8dca debd 7aee b23d
000002d0: e9f3 febd a8ae e43c 8c8a a5bd 3c11 51bd
000002e0: 7c52 a8bd 4caa ccbd 779c 653d d64a e0bd
000002f0: 28c6 bb3c a5f3 b7bd 2a37 ca3d b839 513d

fc_out.bias f4 [3]
-0.034963187 -0.04231984 -0.0038802477
00000000: 8f35 0fbd 9257 2dbd c14b 7ebb

exp_avg f4 [8, 3]
4.421713e-07 -8.099969e-07 -4.551562e-08 -8.028238e-07 -3.9976942e-07 -2.9619962e-08 -4.1479996e-07 2.0854274e-07
6.420881e-09 -3.886999e-07 1.062861e-06 -9.0453256e-08 -1.1414256e-06 4.783005e-07 4.888158e-08 -8.1590593e-07
7.260573e-07 2.5566338e-08 0.0 0.0 0.0 1.5220555e-06 -1.5856242e-06 -3.9361037e-08
00000000: 9063 ed34 906e 59b5 f47c 43b3 a281 57b5
00000010: e49f d6b4 fc6e feb2 acb1 deb4 cbeb 5f34
00000020: ab9e dc31 82ae d0b4 a0a7 8e35 343f c2b3
00000030: 1633 99b5 8f64 0035 def1 5133 a104 5bb5
00000040: 47e6 4235 f99c db32 0000 0000 0000 0000
00000050: 0000 0000 6e49 cc35 a2d1 d4b5 eb0d 29b3

exp_avg_sq f4 [8, 3]
1.1040046e-12 1.2798573e-12 1.9957584e-14 2.5819672e-12 2.3967785e-12 8.166925e-15 2.713251e-13 2.5696806e-13
1.3933096e-15 6.0231784e-13 7.177014e-13 8.39074e-15 1.8690177e-12 2.6026883e-13 1.2059367e-15 6.747211e-13
6.1625065e-13 8.294454e-15 0.0 0.0 0.0 1.2231493e-12 1.1220467e-12 9.850622e-15
00000000: f55f 9b2b b81f b42b 0ec3 b328 96b0 352c
00000010: 86a8 282c 4b1f 1328 11be 982a 00a9 902a
00000020: 0dcc c826 9389 292b d603 4a2b 7527 1728
00000030: 3b85 032c b184 922a 36cb ad26 c7ea 3d2b
00000040: 8a75 2d2b 6b6b 1528 0000 0000 0000 0000
00000050: 0000 0000 9924 ac2b fee9 9d2b fa73 3128

exp_avg f4 [8]
3.2643007e-07 5.730748e-07 4.2996524e-07 -4.3826472e-07 -1.1299747e-06 -8.57419e-07 0.0 1.2823033e-06
00000000: 3540 af34 66d5 1935 f9d5 e634 a54a ebb4
00000010: a3a9 97b5 6329 66b5 0000 0000 9b1b ac35

exp_avg_sq f4 [8]
2.2377122e-12 4.418147e-12 5.2012127e-13 5.419665e-13 2.2073925e-12 1.0222853e-12 0.0 1.8517481e-12
00000000: 0a77 1d2c 2173 9b2c b066 122b cd8c 182b
00000010: d954 1b2c b6df 8f2b 0000 0000 214e 022c

exp_avg f4 [15, 8, 32]
0.0 0.0 0.0 0.0 0.0 0.0 0.0 0.0
0.0 0.0 0.0 0.0 0.0 0.0 0.0 0.0
0.0 0.0 0.0 0.0 0.0 0.0 0.0 0.0
0.0 0.0 0.0 0.0 0.0 0.0 0.0 0.0
0.0 0.0 0.0 0.0 0.0 0.0 0.0 0.0
0.0 0.0 0.0 0.0 0.0 0.0 0.0 0.0
0.0 0.0 0.0 0.0 0.0 0.0 0.0 0.0
0.0 0.0 0.0 0.0 0.0 0.0 0.0 0.0
0.0 0.0 0.0 0.0 0.0 0.0 0.0 0.0
0.0 0.0 0.0 0.0 0.0 0.0 0.0 0.0
0.0 0.0 0.0 0.0 0.0 0.0 0.0 0.0
0.0 0.0 0.0 0.0 0.0 0.0 0.0 0.0
0.0 0.0 0.0 0.0 0.0 0.0 0.0 0.0
0.0 0.0 0.0 0.0 0.0 0.0 0.0 0.0
0.0 0.0 0.0 0.0 0.0 0.0 0.0 0.0
0.0 0.0 0.0 0.0 0.0 0.0 0.0 0.0
0.0 0.0 0.0 0.0 0.0 0.0 0.0 0.0
0.0 0.0 0.0 0.0 0.0 0.0 0.0 0.0
0.0 0.0 0.0 0.0 0.0 0.0 0.0 0.0
0.0 0.0 0.0 0.0 0.0 0.0 0.0 0.0
0.0 0.0 0.0 0.0 0.0 0.0 0.0 0.0
0.0 0.0 0.0 0.0 0.0 0.0 0.0 0.0
0.0 0.0 0.0 0.0 0.0 0.0 0.0 0.0
0.0 0.0 0.0 0.0 0.0 0.0 0.0 0.0
0.0 0.0 0.0 0.0 0.0 0.0 0.0 0.0
0.0 0.0 0.0 0.0 0.0 0.0 0.0 0.0
0.0 0.0 0.0 0.0 0.0 0.0 0.0 0.0
0.0 0.0 0.0 0.0 0.0 0.0 0.0 0.0
0.0 0.0 0.0 0.0 0.0 0.0 0.0 0.0
0.0 0.0 0.0 0.0 0.0 0.0 0.0 0.0
0.0 0.0 0.0 0.0 0.0 0.0 0.0 0.0
0.0 0.0 0.0 0.0 0.0 0.0 0.0 0.0
00000000: 0000 0000 0000 0000 0000 0000 0000 0000
00000010: 0000 0000 0000 0000 0000 0000 0000 0000
00000020: 0000 0000 0000 0000 0000 0000 0000 0000
00000030: 0000 0000 0000 0000 0000 0000 0000 0000
00000040: 0000 0000 0000 0000 0000 0000 0000 0000
00000050: 0000 0000 0000 0000 0000 0000 0000 0000
00000060: 0000 0000 0000 0000 0000 0000 0000 0000
00000070: 0000 0000 0000 0000 0000 0000 0000 0000
00000080: 0000 0000 0000 0000 0000 0000 0000 0000
00000090: 0000 0000 0000 0000 0000 0000 0000 0000
000000a0: 0000 0000 0000 0000 0000 0000 0000 0000
000000b0: 0000 0000 0000 0000 0000 0000 0000 0000
000000c0: 0000 0000 0000 0000 0000 0000 0000 0000
000000d0: 0000 0000 0000 0000 0000 0000 0000 0000
000000e0: 0000 0000 0000 0000 0000 0000 0000 0000
000000f0: 0000 0000 0000 0000 0000 0000 0000 0000
00000100: 0000 0000 0000 0000 0000 0000 0000 0000
00000110: 0000 0000 0000 0000 0000 0000 0000 0000
00000120: 0000 0000 0000 0000 0000 0000 0000 0000
00000130: 0000 0000 0000 0000 0000 0000 0000 0000
00000140: 0000 0000 0000 0000 0000 0000 0000 0000
00000150: 0000 0000 0000 0000 0000 0000 0000 0000
00000160: 0000 0000 0000 0000 0000 0000 0000 0000
00000170: 0000 0000 0000 0000 0000 0000 0000 0000
00000180: 0000 0000 0000 0000 0000 0000 0000 0000
00000190: 0000 0000 0000 0000 0000 0000 0000 0000
000001a0: 0000 0000 0000 0000 0000 0000 0000 0000
000001b0: 0000 0000 0000 0000 0000 0000 0000 0000
000001c0: 0000 0000 0000 0000 0000 0000 0000 0000
000001d0: 0000 0000 0000 0000 0000 0000 0000 0000
000001e0: 0000 0000 0000 0000 0000 0000 0000 0000
000001f0: 0000 0000 0000 0000 0000 0000 0000 0000
00000200: 0000 0000 0000 0000 0000 0000 0000 0000
00000210: 0000 0000 0000 0000 0000 0000 0000 0000
00000220: 0000 0000 0000 0000 0000 0000 0000 0000
00000230: 0000 0000 0000 0000 0000 0000 0000 0000
00000240: 0000 0000 0000 0000 0000 0000 0000 0000
00000250: 0000 0000 0000 0000 0000 0000 0000 0000
00000260: 0000 0000 0000 0000 0000 0000 0000 0000
00000270: 0000 0000 0000 0000 0000 0000 0000 0000
00000280: 0000 0000 0000 0000 0000 0000 0000 0000
00000290: 0000 0000 0000 0000 0000 0000 0000 0000
000002a0: 0000 0000 0000 0000 0000 0000 0000 0000
000002b0: 0000 0000 0000 0000 0000 0000 0000 0000
000002c0: 0000 0000 0000 0000 0000 0000 0000 0000
000002d0: 0000 0000 0000 0000 0000 0000 0000 0000
000002e0: 0000 0000 0000 0000 0000 0000 0000 0000
000002f0: 0000 0000 0000 0000 0000 0000 0000 0000
00000300: 0000 0000 0000 0000 0000 0000 0000 0000
00000310: 0000 0000 0000 0000 0000 0000 0000 0000
00000320: 0000 0000 0000 0000 0000 0000 0000 0000
00000330: 0000 0000 0000 0000 0000 0000 0000 0000
00000340: 0000 0000 0000 0000 0000 0000 0000 0000
00000350: 0000 0000 0000 0000 0000 0000 0000 0000
00000360: 0000 0000 0000 0000 0000 0000 0000 0000
00000370: 0000 0000 0000 0000 0000 0000 0000 0000
00000380: 0000 0000 0000 0000 0000 0000 0000 0000
00000390: 0000 0000 0000 0000 0000 0000 0000 0000
000003a0: 0000 0000 0000 0000 0000 0000 0000 0000
000003b0: 0000 0000 0000 0000 0000 0000 0000 0000
000003c0: 0000 0000 0000 0000 0000 0000 0000 0000
000003d0: 0000 0000 0000 0000 0000 0000 0000 0000
000003e0: 0000 0000 0000 0000 0000 0000 0000 0000
000003f0: 0000 0000 0000 0000 0000 0000 0000 0000

exp_avg_sq f4 [15, 8, 32]
0.0 0.0 0.0 0.0 0.0 0.0 0.0 0.0
0.0 0.0 0.0 0.0 0.0 0.0 0.0 0.0
0.0 0.0 0.0 0.0 0.0 0.0 0.0 0.0
0.0 0.0 0.0 0.0 0.0 0.0 0.0 0.0
0.0 0.0 0.0 0.0 0.0 0.0 0.0 0.0
0.0 0.0 0.0 0.0 0.0 0.0 0.0 0.0
0.0 0.0 0.0 0.0 0.0 0.0 0.0 0.0
0.0 0.0 0.0 0.0 0.0 0.0 0.0 0.0
0.0 0.0 0.0 0.0 0.0 0.0 0.0 0.0
0.0 0.0 0.0 0.0 0.0 0.0 0.0 0.0
0.0 0.0 0.0 0.0 0.0 0.0 0.0 0.0
0.0 0.0 0.0 0.0 0.0 0.0 0.0 0.0
0.0 0.0 0.0 0.0 0.0 0.0 0.0 0.0
0.0 0.0 0.0 0.0 0.0 0.0 0.0 0.0
0.0 0.0 0.0 0.0 0.0 0.0 0.0 0.0
0.0 0.0 0.0 0.0 0.0 0.0 0.0 0.0
0.0 0.0 0.0 0.0 0.0 0.0 0.0 0.0
0.0 0.0 0.0 0.0 0.0 0.0 0.0 0.0
0.0 0.0 0.0 0.0 0.0 0.0 0.0 0.0
0.0 0.0 0.0 0.0 0.0 0.0 0.0 0.0
0.0 0.0 0.0 0.0 0.0 0.0 0.0 0.0
0.0 0.0 0.0 0.0 0.0 0.0 0.0 0.0
0.0 0.0 0.0 0.0 0.0 0.0 0.0 0.0
0.0 0.0 0.0 0.0 0.0 0.0 0.0 0.0
0.0 0.0 0.0 0.0 0.0 0.0 0.0 0.0
0.0 0.0 0.0 0.0 0.0 0.0 0.0 0.0
0.0 0.0 0.0 0.0 0.0 0.0 0.0 0.0
0.0 0.0 0.0 0.0 0.0 0.0 0.0 0.0
0.0 0.0 0.0 0.0 0.0 0.0 0.0 0.0
0.0 0.0 0.0 0.0 0.0 0.0 0.0 0.0
0.0 0.0 0.0 0.0 0.0 0.0 0.0 0.0
0.0 0.0 0.0 0.0 0.0 0.0 0.0 0.0
00000000: 0000 0000 0000 0000 0000 0000 0000 0000
00000010: 0000 0000 0000 0000 0000 0000 0000 0000
00000020: 0000 0000 0000 0000 0000 0000 0000 0000
00000030: 0000 0000 0000 0000 0000 0000 0000 0000
00000040: 0000 0000 0000 0000 0000 0000 0000 0000
00000050: 0000 0000 0000 0000 0000 0000 0000 0000
00000060: 0000 0000 0000 0000 0000 0000 0000 0000
00000070: 0000 0000 0000 0000 0000 0000 0000 0000
00000080: 0000 0000 0000 0000 0000 0000 0000 0000
00000090: 0000 0000 0000 0000 0000 0000 0000 0000
000000a0: 0000 0000 0000 0000 0000 0000 0000 0000
000000b0: 0000 0000 0000 0000 0000 0000 0000 0000
000000c0: 0000 0000 0000 0000 0000 0000 0000 0000
000000d0: 0000 0000 0000 0000 0000 0000 0000 0000
000000e0: 0000 0000 0000 0000 0000 0000 0000 0000
000000f0: 0000 0000 0000 0000 0000 0000 0000 0000
00000100: 0000 0000 0000 0000 0000 0000 0000 0000
00000110: 0000 0000 0000 0000 0000 0000 0000 0000
00000120: 0000 0000 0000 0000 0000 0000 0000 0000
00000130: 0000 0000 0000 0000 0000 0000 0000 0000
00000140: 0000 0000 0000 0000 0000 0000 0000 0000
00000150: 0000 0000 0000 0000 0000 0000 0000 0000
00000160: 0000 0000 0000 0000 0000 0000 0000 0000
00000170: 0000 0000 0000 0000 0000 0000 0000 0000
00000180: 0000 0000 0000 0000 0000 0000 0000 0000
00000190: 0000 0000 0000 0000 0000 0000 0000 0000
000001a0: 0000 0000 0000 0000 0000 0000 0000 0000
000001b0: 0000 0000 0000 0000 0000 0000 0000 0000
000001c0: 0000 0000 0000 0000 0000 0000 0000 0000
000001d0: 0000 0000 0000 0000 0000 0000 0000 0000
000001e0: 0000 0000 0000 0000 0000 0000 0000 0000
000001f0: 0000 0000 0000 0000 0000 0000 0000 0000
00000200: 0000 0000 0000 0000 0000 0000 0000 0000
00000210: 0000 0000 0000 0000 0000 0000 0000 0000
00000220: 0000 0000 0000 0000 0000 0000 0000 0000
00000230: 0000 0000 0000 0000 0000 0000 0000 0000
00000240: 0000 0000 0000 0000 0000 0000 0000 0000
00000250: 0000 0000 0000 0000 0000 0000 0000 0000
00000260: 0000 0000 0000 0000 0000 0000 0000 0000
00000270: 0000 0000 0000 0000 0000 0000 0000 0000
00000280: 0000 0000 0000 0000 0000 0000 0000 0000
00000290: 0000 0000 0000 0000 0000 0000 0000 0000
000002a0: 0000 0000 0000 0000 0000 0000 0000 0000
000002b0: 0000 0000 0000 0000 0000 0000 0000 0000
000002c0: 0000 0000 0000 0000 0000 0000 0000 0000
000002d0: 0000 0000 0000 0000 0000 0000 0000 0000
000002e0: 0000 0000 0000 0000 0000 0000 0000 0000
000002f0: 0000 0000 0000 0000 0000 0000 0000 0000
00000300: 0000 0000 0000 0000 0000 0000 0000 0000
00000310: 0000 0000 0000 0000 0000 0000 0000 0000
00000320: 0000 0000 0000 0000 0000 0000 0000 0000
00000330: 0000 0000 0000 0000 0000 0000 0000 0000
00000340: 0000 0000 0000 0000 0000 0000 0000 0000
00000350: 0000 0000 0000 0000 0000 0000 0000 0000
00000360: 0000 0000 0000 0000 0000 0000 0000 0000
00000370: 0000 0000 0000 0000 0000 0000 0000 0000
00000380: 0000 0000 0000 0000 0000 0000 0000 0000
00000390: 0000 0000 0000 0000 0000 0000 0000 0000
000003a0: 0000 0000 0000 0000 0000 0000 0000 0000
000003b0: 0000 0000 0000 0000 0000 0000 0000 0000
000003c0: 0000 0000 0000 0000 0000 0000 0000 0000
000003d0: 0000 0000 0000 0000 0000 0000 0000 0000
000003e0: 0000 0000 0000 0000 0000 0000 0000 0000
000003f0: 0000 0000 0000 0000 0000 0000 0000 0000

exp_avg f4 [32]
3.526244e-07 0.0 -2.9563016e-06 2.0526551e-08 -5.6348156e-08 2.7056751e-06 -1.6240473e-06 -1.6300276e-06
-6.339737e-07 -3.3349568e-09 0.0 9.361495e-07 8.152447e-07 1.7861062e-06 -2.1917635e-06 8.086508e-08
2.1004332e-06 2.143457e-06 0.0 1.4349026e-05 -2.786023e-07 1.8833035e-06 2.17023e-07 6.2506797e-07
3.97356e-07 -1.6121313e-06 0.0 -6.736543e-07 1.17167026e-07 0.0 3.5638237e-07 -1.4985194e-06
00000000: 5450 bd34 0000 0000 e064 46b6 5d52 b032
00000010: 7403 72b3 2593 3536 d7f9 d9b5 52c7 dab5
00000020: 572e 2ab5 2e2d 65b1 0000 0000 b44b 7b35
00000030: 30d7 5a35 24ba ef35 3616 13b6 0ca8 ad33
00000040: 2bf5 0c36 50d8 0f36 0000 0000 99bc 7037
00000050: cf92 95b4 d1c5 fc35 d406 6934 58ca 2735
00000060: 3154 d534 6960 d8b5 0000 0000 2cd5 34b5
00000070: 419d fb33 0000 0000 d254 bf34 bc20 c9b5

exp_avg_sq f4 [32]
1.4651735e-11 0.0 3.1965902e-11 2.870316e-11 2.1727767e-12 7.265356e-11 9.509429e-12 4.678643e-12
2.9320478e-12 1.9483155e-11 0.0 4.5792974e-12 2.5166655e-12 1.3526988e-11 2.61734e-11 4.9588233e-12
9.8057604e-11 2.7973786e-11 0.0 5.0795614e-11 1.13259e-11 2.2733336e-11 7.24419e-13 5.266779e-12
1.8886441e-11 6.182054e-12 0.0 1.525977e-11 2.120712e-13 0.0 9.9237415e-12 2.7899093e-11
00000000: c6e0 802d 0000 0000 6896 0c2e c579 fc2d
00000010: 44e5 182c 51c4 9f2e a94a 272d 789d a42c
00000020: 1453 4e2c 2a60 ab2d 0000 0000 a51e a12c
00000030: 3718 312c 23f8 6d2d 4239 e62d 1c79 ae2c
00000040: 86a1 d72e 5e0f f62d 0000 0000 c766 5f2e
00000050: 523f 472d ecf6 c72d e4e7 4b2b ee4e b92c
00000060: 7c20 a62d fe82 d92c 0000 0000 f239 862d
00000070: 5dc5 6e2a 0000 0000 8f94 2e2d 2c67 f52d

exp_avg f4 [15, 32, 64]
0.0 0.0 0.0 0.0 0.0 0.0 0.0 0.0
0.0 0.0 0.0 0.0 0.0 0.0 0.0 0.0
0.0 0.0 0.0 0.0 0.0 0.0 0.0 0.0
0.0 0.0 0.0 0.0 0.0 0.0 0.0 0.0
0.0 0.0 0.0 0.0 0.0 0.0 0.0 0.0
0.0 0.0 0.0 0.0 0.0 0.0 0.0 0.0
0.0 0.0 0.0 0.0 0.0 0.0 0.0 0.0
0.0 0.0 0.0 0.0 0.0 0.0 0.0 0.0
0.0 0.0 0.0 0.0 0.0 0.0 0.0 0.0
0.0 0.0 0.0 0.0 0.0 0.0 0.0 0.0
0.0 0.0 0.0 0.0 0.0 0.0 0.0 0.0
0.0 0.0 0.0 0.0 0.0 0.0 0.0 0.0
0.0 0.0 0.0 0.0 0.0 0.0 0.0 0.0
0.0 0.0 0.0 0.0 0.0 0.0 0.0 0.0
0.0 0.0 0.0 0.0 0.0 0.0 0.0 0.0
0.0 0.0 0.0 0.0 0.0 0.0 0.0 0.0
0.0 0.0 0.0 0.0 0.0 0.0 0.0 0.0
0.0 0.0 0.0 0.0 0.0 0.0 0.0 0.0
0.0 0.0 0.0 0.0 0.0 0.0 0.0 0.0
0.0 0.0 0.0 0.0 0.0 0.0 0.0 0.0
0.0 0.0 0.0 0.0 0.0 0.0 0.0 0.0
0.0 0.0 0.0 0.0 0.0 0.0 0.0 0.0
0.0 0.0 0.0 0.0 0.0 0.0 0.0 0.0
0.0 0.0 0.0 0.0 0.0 0.0 0.0 0.0
0.0 0.0 0.0 0.0 0.0 0.0 0.0 0.0
0.0 0.0 0.0 0.0 0.0 0.0 0.0 0.0
0.0 0.0 0.0 0.0 0.0 0.0 0.0 0.0
0.0 0.0 0.0 0.0 0.0 0.0 0.0 0.0
0.0 0.0 0.0 0.0 0.0 0.0 0.0 0.0
0.0 0.0 0.0 0.0 0.0 0.0 0.0 0.0
0.0 0.0 0.0 0.0 0.0 0.0 0.0 0.0
0.0 0.0 0.0 0.0 0.0 0.0 0.0 0.0
00000000: 0000 0000 0000 0000 0000 0000 0000 0000
00000010: 0000 0000 0000 0000 0000 0000 0000 0000
00000020: 0000 0000 0000 0000 0000 0000 0000 0000
00000030: 0000 0000 0000 0000 0000 0000 0000 0000
00000040: 0000 0000 0000 0000 0000 0000 0000 0000
00000050: 0000 0000 0000 0000 0000 0000 0000 0000
00000060: 0000 0000 0000 0000 0000 0000 0000 0000
00000070: 0000 0000 0000 0000 0000 0000 0000 0000
00000080: 0000 0000 0000 0000 0000 0000 0000 0000
00000090: 0000 0000 0000 0000 0000 0000 0000 0000
000000a0: 0000 0000 0000 0000 0000 0000 0000 0000
000000b0: 0000 0000 0000 0000 0000 0000 0000 0000
000000c0: 0000 0000 0000 0000 0000 0000 0000 0000
000000d0: 0000 0000 0000 0000 0000 0000 0000 0000
000000e0: 0000 0000 0000 0000 0000 0000 0000 0000
000000f0: 0000 0000 0000 0000 0000 0000 0000 0000
00000100: 0000 0000 0000 0000 0000 0000 0000 0000
00000110: 0000 0000 0000 0000 0000 0000 0000 0000
00000120: 0000 0000 0000 0000 0000 0000 0000 0000
00000130: 0000 0000 0000 0000 0000 0000 0000 0000
00000140: 0000 0000 0000 0000 0000 0000 0000 0000
00000150: 0000 0000 0000 0000 0000 0000 0000 0000
00000160: 0000 0000 0000 0000 0000 0000 0000 0000
00000170: 0000 0000 0000 0000 0000 0000 0000 0000
00000180: 0000 0000 0000 0000 0000 0000 0000 0000
00000190: 0000 0000 0000 0000 0000 0000 0000 0000
000001a0: 0000 0000 0000 0000 0000 0000 0000 0000
000001b0: 0000 0000 0000 0000 0000 0000 0000 0000
000001c0: 0000 0000 0000 0000 0000 0000 0000 0000
000001d0: 0000 0000 0000 0000 0000 0000 0000 0000
000001e0: 0000 0000 0000 0000 0000 0000 0000 0000
000001f0: 0000 0000 0000 0000 0000 0000 0000 0000
00000200: 0000 0000 0000 0000 0000 0000 0000 0000
00000210: 0000 0000 0000 0000 0000 0000 0000 0000
00000220: 0000 0000 0000 0000 0000 0000 0000 0000
00000230: 0000 0000 0000 0000 0000 0000 0000 0000
00000240: 0000 0000 0000 0000 0000 0000 0000 0000
00000250: 0000 0000 0000 0000 0000 0000 0000 0000
00000260: 0000 0000 0000 0000 0000 0000 0000 0000
00000270: 0000 0000 0000 0000 0000 0000 0000 0000
00000280: 0000 0000 0000 0000 0000 0000 0000 0000
00000290: 0000 0000 0000 0000 0000 0000 0000 0000
000002a0: 0000 0000 0000 0000 0000 0000 0000 0000
000002b0: 0000 0000 0000 0000 0000 0000 0000 0000
000002c0: 0000 0000 0000 0000 0000 0000 0000 0000
000002d0: 0000 0000 0000 0000 0000 0000 0000 0000
000002e0: 0000 0000 0000 0000 0000 0000 0000 0000
000002f0: 0000 0000 0000 0000 0000 0000 0000 0000
00000300: 0000 0000 0000 0000 0000 0000 0000 0000
00000310: 0000 0000 0000 0000 0000 0000 0000 0000
00000320: 0000 0000 0000 0000 0000 0000 0000 0000
00000330: 0000 0000 0000 0000 0000 0000 0000 0000
00000340: 0000 0000 0000 0000 0000 0000 0000 0000
00000350: 0000 0000 0000 0000 0000 0000 0000 0000
00000360: 0000 0000 0000 0000 0000 0000 0000 0000
00000370: 0000 0000 0000 0000 0000 0000 0000 0000
00000380: 0000 0000 0000 0000 0000 0000 0000 0000
00000390: 0000 0000 0000 0000 0000 0000 0000 0000
000003a0: 0000 0000 0000 0000 0000 0000 0000 0000
000003b0: 0000 0000 0000 0000 0000 0000 0000 0000
000003c0: 0000 0000 0000 0000 0000 0000 0000 0000
000003d0: 0000 0000 0000 0000 0000 0000 0000 0000
000003e0: 0000 0000 0000 0000 0000 0000 0000 0000
000003f0: 0000 0000 0000 0000 0000 0000 0000 0000
