GPU/checkpoints_kpconv/kpconv_best_miou_0.0332.pth (torch, 482597 bytes, 32 tensors)

fc_in.weight f4 [8, 3]
000000 d6 ad f3 3e 6a 72 5c 3e 3e 1d a3 3e c3 7e 9b be
       0.47593564 0.2152802 0.31858248 -0.3037015
000010 c1 3b 09 3f 32 2c dc 3e e8 5e be bc 6e de d6 3d
       0.536068 0.43002468 -0.023238614 0.10491644
000020 03 91 5a bd d6 a6 d3 be 5e dd dc be d0 9e 04 3f
       -0.05336095 -0.41338223 -0.4313764 0.5180483
000030 d8 48 d9 3e c2 50 0e 3f 53 cd 8f 3e 79 7d 97 3d
       0.42438388 0.55591977 0.28086337 0.07396979
000040 2e da 82 bd 3e 9f c1 3d cc 19 94 bd 9a b8 8f be
       -0.06389271 0.09454201 -0.07231483 -0.28070527
000050 11 b3 96 3e 10 8a 73 3d 73 b6 07 bd 6a ee d4 be
       0.29433492 0.05945784 -0.03313298 -0.41588145

fc_in.bias f4 [8]
000000 f4 33 ee 3e af a3 0a 3f da 9b 79 bd b5 42 9a 3e
       0.46524012 0.5415601 -0.060939647 0.30129018
000010 b0 c3 b7 3e 4f 61 30 3d db f0 bd be 61 69 9b 3e
       0.35891485 0.04306155 -0.3709782 0.30353835

kpconv1.kernel_weights f4 [15, 8, 32]
000000 54 4e dc 3e a3 aa 6b be 61 31 5a 3f e9 25 9e bf
       0.4302851 -0.23014311 0.85231596 -1.2355319
000010 9f dd bb 3e c1 af ba be fd 59 17 be 90 d6 ab 3f
       0.3669252 -0.36462215 -0.14780422 1.3424854
000020 d9 d5 9c 3d 33 93 8a 3d b4 47 ce be a8 f0 e4 be
       0.07657976 0.06766357 -0.4028908 -0.44714856
000030 0a 0a a3 39 f3 e9 48 be 2f 18 75 3e 7b 06 d3 be
       0.00031097262 -0.19620495 0.23935007 -0.41215882
000040 0a 4e a7 be 06 77 d2 be 98 3d 31 bf d5 66 63 be
       -0.32676727 -0.41106433 -0.6923461 -0.22207196
000050 30 ec 5c 3e e7 c7 41 bf 02 75 a8 bd 6b 73 83 bf
       0.21574473 -0.7569565 -0.082254425 -1.0269598
000060 1b d7 23 bf a2 96 fe be d7 ea 3f bf 61 9d f8 3e
       -0.640001 -0.497243 -0.7496771 0.4855757
000070 2f bd 6b be 32 90 ec 3e 1d 8b 22 3e e0 e5 b1 3e
       -0.23021387 0.46203762 0.1587338 0.34745693
000080 82 7a 2c 3f a2 53 8a 3d a7 c6 84 be 2c 87 7d bf
       0.6737443 0.06754233 -0.2593281 -0.9903438
000090 3a b6 c1 3e 33 03 ec be 7c cf df 3d 5b 47 5f be
       0.3783434 -0.4609619 0.109282464 -0.21804564
0000a0 8c 59 fb be ac 3a 9a be 22 ed 7f be 93 78 9d 3e
       -0.49091756 -0.30122888 -0.24992803 0.30756053
0000b0 7c 2e ea be 3b bb 1e 3e 4b 42 d9 be 9b 03 1f 3f
       -0.4573859 0.1550111 -0.4243339 0.62114877
0000c0 8f 2c 27 bf 5c 48 05 3d ad 67 fa 3e e8 66 de be
       -0.65302366 0.03253971 0.48907223 -0.43437886
0000d0 74 8f 4a bf 4e 4f c5 be b4 a6 a7 3e 44 ce 6b bd
       -0.7912514 -0.38537067 0.32744372 -0.057569757
0000e0 5b ff 4a bf bf 5f ea 3c 1e 29 c8 3e c5 15 f7 be
       -0.7929589 0.028610108 0.3909387 -0.48258796
0000f0 d3 fc dd 3e 35 59 02 3e 1a 7e 09 bf 6f ab 94 be
       0.43356952 0.12729342 -0.5370804 -0.29037043
000100 b3 b4 3f bf a7 83 0d bf 09 8f 40 bf b6 ca 41 3e
       -0.748851 -0.5527901 -0.75218254 0.18924984
000110 87 b8 0c 3e 57 54 fd 3e 40 04 88 be dc 9d 87 3f
       0.13742267 0.4947841 -0.26565742 1.059505
000120 d5 71 d4 3e 0f ad e4 3e f2 b2 27 bf b5 ec 0a bf
       0.41493097 0.44663283 -0.65507424 -0.54267436
000130 f9 0d 83 3e aa 58 d5 be d8 e1 2f 3f 20 46 6f 3d
       0.25596598 -0.41669208 0.68703985 0.058416486
000140 e8 3b f5 be 05 cf 28 3f 4e fd 19 3f 3f 50 90 be
       -0.47897267 0.65940887 0.6015214 -0.28186223
000150 f9 b2 9e be 5e 18 c8 bd 84 b4 0f 3f d6 d2 10 3f
       -0.3099592 -0.09770273 0.5613482 0.5657171
000160 8a 45 38 3e 8c e7 0f 3e cc c6 06 bf 88 ed 93 3d
       0.17995277 0.14053172 -0.5264709 0.0722304
000170 7e 3a 1f 3e c9 8d 50 bd e2 eb 11 3e 80 bd 85 b9
       0.15549657 -0.050916467 0.14250138 -0.00025508925
000180 a7 62 15 3f 3e a4 58 be c6 65 95 3d 9d 5a 1d bf
       0.58353657 -0.21156403 0.07294802 -0.6146639
000190 12 fd a5 3c 68 ea 9c 3e 48 ab 6b bd bb 4f 06 bf
       0.020262275 0.30647588 -0.057536393 -0.5246541
0001a0 df 42 81 3e b5 d1 fe bd db 88 8e bf 25 7e 3b be
       0.2524633 -0.12442342 -1.1135515 -0.18309839
0001b0 f7 ad 65 3e 91 bd 14 bf ff 89 8b 3d aa 9b 31 3d
       0.22429644 -0.58101755 0.0681343 0.043361343
0001c0 0b f2 a9 be 4d 2d d3 3e ec 4e d4 be c9 27 23 be
       -0.33192477 0.412455 -0.41466463 -0.15933146
0001d0 d7 50 15 3e c6 32 b5 3f 40 d7 0f bf 1d 6d f9 3e
       0.14581619 1.415612 -0.5618782 0.4871606
0001e0 e0 fd 13 3f 76 84 70 be b6 5b b5 3e be 00 b8 bd
       0.5780926 -0.2348803 0.35421532 -0.089845166
0001f0 b0 68 8b bf 95 f5 5d 3f 50 38 cf 3e 03 6d ac be
       -1.0891323 0.86702853 0.4047265 -0.3367692
000200 e4 fe 1e 3d 46 ea 35 3e 0e 60 8d 3e ec c3 5c 3e
       0.0388173 0.1776515 0.27612346 0.21559113
000210 68 27 a6 3e fb 99 d7 3e a7 c2 61 3f f1 cb c7 be
       0.3245194 0.42109665 0.8818764 -0.39022782
000220 4b 53 9e be be d1 05 3e c0 79 32 3f 79 4a 14 3f
       -0.30922922 0.13068292 0.69717026 0.57926136
000230 0d da bc be a6 e8 e1 3d a6 58 4c 3e 92 10 95 3e
       -0.3688511 0.11030702 0.19955692 0.29114205
000240 68 c6 b9 be a0 0e 19 3f 31 85 fa be b8 b6 9c be
       -0.36284184 0.5978794 -0.48929742 -0.30608153
000250 37 d9 8a 3e 56 80 74 be 99 05 0a 3e c3 15 8e 3f
       0.27118847 -0.23877081 0.13478698 1.1100391
000260 1d 0d b5 bd f5 49 40 bf 64 de 4d 3f 85 d3 a1 3e
       -0.08840392 -0.7511285 0.80417466 0.3160669
000270 1a 0c b3 3c b3 fe 5b 3f e4 98 26 3e 58 03 ba 3e
       0.021856356 0.85935515 0.1626926 0.36330676
000280 40 e2 b1 3e 18 d7 52 3e ee e3 96 3e ab e2 00 be
       0.34742928 0.20589864 0.29470772 -0.12586467
000290 6f 31 1e 3e 4b 31 95 3e a9 16 f9 bc 81 b9 17 3d
       0.15448545 0.2913917 -0.030406313 0.037042145
0002a0 6c e5 e2 be 86 d9 61 bf 66 c2 40 bf d7 15 14 3e
       -0.4431566 -0.8822254 -0.7529663 0.14461456
0002b0 b2 a2 2b 3f 8d 19 d5 be 59 85 1f bf c6 f4 ce 3e
       0.6704513 -0.41621056 -0.6231285 0.40421122
0002c0 8b 95 82 3e 38 df 4b 3d ad 3b a3 3d 5d 02 e6 3e
       0.25504717 0.049773425 0.079703666 0.44923678
0002d0 4d b4 8c bd 37 8a 2a bf e2 69 f3 be 82 4e 3d 3f
       -0.06870327 -0.6661715 -0.4754172 0.7394792
0002e0 c8 2a 9e be 0f bd d3 bd 7d 7c 73 3e c9 43 cd 3e
       -0.30892015 -0.103387944 0.23777957 0.40090778
0002f0 4e 1d 79 3f 94 09 d2 3d 4a 53 ee 3e b4 64 8b 3d
       0.9731034 0.10255733 0.4654792 0.06806317
000300 6b 2d bc be 17 ef 47 be 1f 96 67 be 79 6d 82 bc
       -0.367534 -0.195248 -0.2261586 -0.015921341
000310 c1 25 52 3f 38 63 97 be a4 85 ed 3d fd 16 f5 3e
       0.8208886 -0.29567885 0.115977556 0.478691
000320 de 5e 6d bd e1 1f 3d 3f d8 10 a3 bd 20 b2 c5 bd
       -0.0579518 0.7387677 -0.07962197 -0.09653115
000330 17 5f b6 3e 70 b7 9c 3f d6 5f 22 3f 35 00 1b be
       0.35619423 1.2243481 0.63427484 -0.15136798
000340 7c ad 33 3e 45 c6 47 bf 16 3f 00 3e e7 95 b6 bc
       0.17546648 -0.7803691 0.12524065 -0.022288276
000350 a6 59 4b 3f 93 84 ab be fe 93 3d 3f d4 b2 e4 3e
       0.7943367 -0.33499584 0.74053943 0.44667685
000360 89 36 2e bf 60 a8 94 3f 9e c2 e8 bd dc 05 2c 3f
       -0.68051964 1.1613884 -0.11365245 0.6719644
000370 f8 78 31 be 12 48 ef 3e df 81 09 3f a2 1b 08 3e
       -0.17331302 0.46734673 0.5371379 0.13291791
000380 75 53 f9 3e 79 b3 d9 3e 84 7f 4c 3e 6b 4c 87 bd
       0.48696485 0.4251974 0.19970518 -0.066063724
000390 4b 51 37 3e b7 b8 f2 3e 2b b8 4a 3f b9 fb ee 3d
       0.17902105 0.4740655 0.7918727 0.11669106
0003a0 65 5a 06 bf 33 6b ae 3f 29 6d 8d be 71 1c d2 be
       -0.5248168 1.3626465 -0.27622345 -0.41037324
0003b0 1e 03 18 3c 2d b1 7c 3e 9a 92 41 be ad 33 0c bf
       0.009278087 0.24676962 -0.1890358 -0.5476635
0003c0 b9 f8 a0 bf 1d ed 35 bf e8 21 91 3e 61 d6 eb be
       -1.2575904 -0.7106493 0.2834618 -0.46061996
0003d0 9c bc db be d5 31 68 3f ec cf ed 3c ec 70 0f 3f
       -0.42917335 0.9070104 0.029029809 0.5603168
0003e0 96 26 67 bf 2b 41 20 3e 8b 51 8f be df 8f 09 bf
       -0.9029325 0.1564986 -0.279919 -0.53735155
0003f0 62 9e 84 3e 4d af 9e bd be 6d 58 3e 42 cf 48 3f
       0.25902086 -0.0774828 0.21135613 0.7844125

kpconv1.bias f4 [32]
000000 dd 78 8b 3b 00 00 00 00 bd a1 80 bb 59 1e 96 3b
       0.0042563514 0.0 -0.0039255307 0.0045812544
000010 00 00 00 00 78 f9 8a 3b 5b 07 3e bb 26 7a 67 ba
       0.0 0.004241165 -0.0028996083 -0.0008830152
000020 3c 1f 36 3b 71 51 8a bb 00 00 00 00 fe 4c a0 3a
       0.0027789613 -0.0042211344 0.0 0.0012229977
000030 eb a1 29 ba a2 60 2c bb 70 f8 50 bb 3a ba 1d bb
       -0.0006470966 -0.0026302715 -0.0031886362 -0.0024067299
000040 29 c5 79 3a 4f 21 97 3b 00 00 00 00 9e a0 a7 ba
       0.00095279753 0.004612125 0.0 -0.0012788957
000050 18 71 5a 3a 1f d2 6f 3b 96 22 ba 3a 05 02 18 3b
       0.00083328923 0.0036593748 0.0014200981 0.0023194563
000060 d9 6c 88 3b bf 81 6e bb 00 00 00 00 31 f9 41 3b
       0.0041633663 -0.0036393253 0.0 0.0029597993
000070 e4 fb bb ba 00 00 00 00 ac 2b 8f 3b cd 50 89 bb
       -0.0014342037 0.0 0.0043692198 -0.0041905404

kpconv1.kernel_points f4 [15, 3]
000000 bf c3 f4 3c cd 12 6e be 41 8c 4e 3e ad de 56 ba
       0.029878495 -0.2324936 0.2017069 -0.00081966334
000010 95 f6 61 3c 4c 25 78 3c 6f ba 11 3e 4b 09 5f 3e
       0.0137917 0.015145611 0.14231275 0.21780889
000020 ba dc 96 3e 3a 76 a3 3e cc 4a a1 bd db 64 c0 3e
       0.29465276 0.31926137 -0.078755945 0.37576947
000030 95 f2 91 be c0 f8 9c be 68 76 73 3e ac 14 41 3d
       -0.28505388 -0.3065853 0.23775637 0.047138855
000040 55 43 61 3d ae ac 10 bd f9 7d 8c be a3 3e c3 bd
       0.054995853 -0.03532093 -0.2743986 -0.095334314
000050 0f 63 14 be 98 82 92 3d 13 2f 81 bc 0d bd 13 be
       -0.14490913 0.07153815 -0.015769517 -0.14427586
000060 79 08 a0 3c f9 80 56 be 74 9c c7 3e 86 b9 50 3e
       0.01953529 -0.20947637 0.38986552 0.20383272
000070 1f 4a 4e 3e 22 81 55 bd b6 56 4d bd f7 bd 0d bd
       0.20145462 -0.052125104 -0.050131522 -0.034604993
000080 c7 55 3f 3e 0d b2 58 3e 45 2a 04 3d c4 c7 cd be
       0.18685065 0.21161671 0.032266874 -0.40191472
000090 9a f8 0f 3c fe b6 9b 3e 26 2d e4 3d 0f 9b 73 bb
       0.008787299 0.3041305 0.11141424 -0.003717128
0000a0 1a 74 c4 bb c6 ec 5d 3c 6d ac 99 be be ef eb bd
       -0.0059952857 0.013545221 -0.30014363 -0.115203366
0000b0 85 9a 04 be
       -0.1294957

kpconv2.kernel_weights f4 [15, 32, 64]
000000 7a 48 9e 3d a0 91 49 be ea d3 a0 3d 67 e3 9f 3c
       0.077286676 -0.19684458 0.078529194 0.019517614
000010 8e 60 05 bd 89 0a 61 3e db 66 48 be 72 57 3c 3d
       -0.032562785 0.21976675 -0.19570486 0.04598183
000020 96 b9 8f 3e b4 26 94 be d3 53 e4 3e 1e 2f 91 3e
       0.28071278 -0.28935778 0.44595203 0.2835626
000030 88 17 94 bc 2c f7 66 be 2c a5 42 be 2e d2 12 3e
       -0.018077627 -0.22555226 -0.1900832 0.1433799
000040 52 da 43 be d1 a8 32 3d b6 48 80 bb ea d0 b2 be
       -0.19126251 0.043618027 -0.003914918 -0.34925014
000050 c7 22 f7 bb ac 39 7d 3c 01 8a 4a 3e b8 ce 85 3e
       -0.0075419876 0.015455645 0.19779207 0.26134276
000060 a1 f3 8e 3e 32 df 31 3c 44 b2 ad 3e 72 f7 5f 3e
       0.2792025 0.010856437 0.33925068 0.21871737
000070 0b 02 04 3e 40 3a 5e be ec 4c 05 be ff 1b 57 be
       0.12891404 -0.21701908 -0.13017625 -0.21006773
000080 c5 18 1b bd 92 fa 69 bd 60 59 d3 be 8d 67 9c 3d
       -0.03786542 -0.057123728 -0.41279125 0.07636938
000090 7e ac 45 3e 40 9d 8d 3e c1 58 65 be 7a e4 e1 bc
       0.19304082 0.27659035 -0.22397138 -0.027574766
0000a0 89 ad ba be d7 17 94 3e 19 32 8c be 53 d1 b4 be
       -0.36460522 0.28924438 -0.2738197 -0.35315952
0000b0 35 65 c6 3e 19 15 8b 3e 2d 72 55 3e 79 a2 9a bd
       0.3874909 0.27164534 0.20844336 -0.075505204
0000c0 dd 85 73 be 69 2d 52 be 05 aa 77 3d 07 b0 8a 3b
       -0.23781534 -0.20525135 0.060464878 0.00423241
0000d0 5c ad 30 3e fd d2 8d be b6 8d 9e 3d 90 17 72 bd
       0.17253631 -0.27700034 0.07741873 -0.059104502
0000e0 d2 77 fa 3e 98 9a a9 3e bc 8e 17 3e c1 08 80 3e
       0.4891954 0.33125758 0.14800543 0.2500668
0000f0 15 85 1a 3d ce 4d 12 be a7 54 8b be 3a 05 9c 3e
       0.037724573 -0.14287493 -0.27213022 0.30472738
000100 24 45 80 bd f7 de 49 be 37 a7 38 be b9 86 08 3f
       -0.062631875 -0.1971396 -0.18032537 0.5333057
000110 25 88 ea 3c a7 b1 b0 3d 19 61 6f 3e 17 2c b0 3d
       0.028629372 0.086276345 0.23376884 0.086021595
000120 c1 35 c3 3e b5 0e 15 be 95 0b 45 be 80 d9 d6 3d
       0.38126948 -0.14556392 -0.192427 0.104907036
000130 24 52 65 3e f6 9b 1f 3e 45 05 5d bc 51 42 e8 bd
       0.22394615 0.15586838 -0.013490026 -0.11340774
000140 62 90 33 bd 6c 4b 08 bd ff 2a f2 bd 24 ff ca 3d
       -0.043838866 -0.033275053 -0.11824607 0.099119455
000150 20 25 7d be 4d 1c 84 3d f3 9e 61 3e 30 93 ad be
       -0.24721193 0.064507104 0.2203329 -0.33901358
000160 34 ae 72 bd 8f 46 1f 3f 47 6e 87 3d 5e 46 1b be
       -0.059248164 0.6221704 0.066128306 -0.15163562
000170 9a 13 31 3e 67 a3 02 3e 3d c3 74 be af e3 9d 3d
       0.17292634 0.12757646 -0.23902602 0.07709443
000180 bb 11 95 3d 04 67 a5 3e 32 3a 5c be a3 2a 5c 3d
       0.072787724 0.32305157 -0.21506575 0.0537516
000190 c1 64 93 3e 96 ee 11 bf 2c 63 b5 be 73 c5 21 3d
       0.28787807 -0.5700468 -0.35427225 0.039494943
0001a0 4d 12 38 3d fb 54 95 3e d1 6a ad 3e de d5 65 be
       0.044939328 0.29166397 0.33870557 -0.22444865
0001b0 ba 05 b8 3d be 14 5b be 2e ef 50 bd 9d 5b 93 3e
       0.08985467 -0.21394631 -0.05100935 0.28780833
0001c0 8c 0a 18 bf 83 b8 0b bd 5d b8 6f be 29 f9 34 3d
       -0.59391093 -0.03411151 -0.23410173 0.04418293
0001d0 62 8e 01 be c9 6e 74 3d 3c bf 4a 3c 62 f3 5b be
       -0.12651971 0.059675965 0.012374695 -0.21479562
0001e0 1e b6 14 3e ad 84 69 be 24 9a e3 3e 37 cd 1d be
       0.14522597 -0.22804518 0.44453537 -0.15410315
0001f0 3d 9f 22 be 77 84 61 be 2c 43 98 be 63 50 b3 be
       -0.15881057 -0.22023188 -0.29738748 -0.35022268
000200 48 20 aa bd 97 70 7d 3e 46 d7 d1 be bf b9 ab 3d
       -0.083069384 0.24749981 -0.40984553 0.08385038
000210 86 56 06 3e 18 77 d7 bd 00 f5 f9 3c a0 a1 f9 be
       0.13118944 -0.10520762 0.030512333 -0.48756123
000220 f7 60 e2 be 83 ea 33 3d bc 3d a6 3e ec d4 c0 bb
       -0.44214603 0.04392482 0.32468975 -0.0058847573
000230 9b c9 cd be c8 2e 0f be f7 be 90 3e 15 6d 9d be
       -0.40192875 -0.1398269 0.28270695 -0.30747285
000240 00 3d d1 be 9f 3b 17 3d 08 84 9d bd 0a dc 53 3d
       -0.40866852 0.036922093 -0.076911986 0.051723517
000250 21 38 4d be 74 43 f2 3e 39 91 01 bc a0 f5 c7 3d
       -0.20040943 0.47317088 -0.007908159 0.09763646
000260 f0 fa b1 3c 65 de 17 be 69 97 9b 3e 37 fa ad 3e
       0.021726102 -0.1483093 0.30388954 0.3397996
000270 3a ab f6 be 1c 37 6c be d6 a9 96 be 21 5f 1a 3d
       -0.4817751 -0.23067898 -0.2942645 0.03768838
000280 c6 a8 b6 be f4 49 33 3e 6a 6c 9d 3d 4f d4 c5 be
       -0.3567564 0.1750868 0.07686694 -0.3863854
000290 77 56 16 3e 67 bb 04 be 9d 34 c4 3c fa 80 0e 3e
       0.14681421 -0.12962113 0.02395087 0.13916388
0002a0 f1 71 48 bd de c2 7c 3d ab 52 6a be 4c fc df 3e
       -0.048936788 0.061709277 -0.22883098 0.43747175
0002b0 c3 2a f0 3e dc a5 e5 bd aa fb 08 3e 2b 33 74 3e
       0.46907625 -0.11213276 0.13377252 0.23847644
0002c0 3c 55 41 3e 74 8e e3 be 46 ac 54 be bb e8 35 3d
       0.1888017 -0.4444462 -0.20768842 0.044411402
0002d0 df ad af 3d 3f 39 ca be b6 ca b7 be fb e8 7b be
       0.08578085 -0.394968 -0.35896844 -0.24600594
0002e0 ee aa b5 3d 46 8e b0 bb 07 18 24 bd fc 36 c3 3c
       0.08870493 -0.005388054 -0.040061977 0.02382993
0002f0 2d 01 43 3f 1e 1e 52 be 19 ce 6c 3e 95 f2 b4 bd
       0.7617367 -0.20519301 0.23125495 -0.08835331
000300 7c 51 77 be c2 f1 87 bc 20 33 91 3e 90 b6 bb be
       -0.24152178 -0.016594771 0.28359318 -0.36662722
000310 a5 72 81 be dd 39 9b be 91 8b 8c 3e 31 01 98 be
       -0.2528278 -0.30317584 0.2745023 -0.2968841
000320 f8 40 09 be a7 d3 61 be f9 5f 3d 3e 46 98 c2 3e
       -0.1340369 -0.22053395 0.18493642 0.380068
000330 f2 8f d1 3e 0c 88 a9 be 72 65 09 3e 9a 0d 8e 3e
       0.40930134 -0.33111608 0.13417605 0.27744752
000340 0c a1 12 be c9 6c 1c bf 47 4b a2 bd 08 7f 91 3e
       -0.14319247 -0.6110349 -0.07924514 0.2841723
000350 b4 d8 16 bd 5b 7b fd 3d 99 d9 22 be f9 d7 d0 3e
       -0.036827758 0.12377044 -0.1590332 0.40789774
000360 37 8a 22 3e 48 22 c4 bd 87 39 a3 bd f8 e8 b4 be
       0.15873037 -0.09576851 -0.07969957 -0.3533399
000370 41 97 94 bd 1c dc 0b be 1e 0d f4 3e ce e8 3c be
       -0.07255412 -0.13658184 0.47666258 -0.18448183
000380 b9 df de be 15 cd ad 3d 4e 06 8e bb 1f 35 cd bd
       -0.43530062 0.08486382 -0.0043342477 -0.10019898
000390 00 34 37 bf 04 61 26 be e0 0c 10 be 2e d9 68 3c
       -0.7156372 -0.16247946 -0.14067411 0.014211936
0003a0 30 19 3a 3e 44 3e 27 be 0a 56 96 bd 1d e0 d0 bc
       0.18173671 -0.16332346 -0.073406294 -0.02549749
0003b0 9d b8 aa bd 19 ba 39 be cf a0 19 3e ae b0 08 be
       -0.083359934 -0.18137397 0.1500275 -0.13348648
0003c0 b5 23 a7 bd 28 39 ec be df 96 69 be 00 d1 ac 3e
       -0.081611075 -0.46137357 -0.22811459 0.33753204
0003d0 18 5e 07 3f 3a 47 4a 3d 16 00 c5 be 8f 3b 58 be
       0.5287795 0.049384333 -0.38476628 -0.2111647
0003e0 aa 1c c9 3e 50 61 93 bd 74 34 a3 be 2d cf 60 3e
       0.3927968 -0.07196295 -0.31875956 0.21954031
0003f0 eb c3 43 be e7 05 76 bd 8d dd 0d 3e dd d2 09 3c
       -0.19117706 -0.060064223 0.13854046 0.00841209

kpconv2.bias f4 [64]
000000 ff 0b 3f b9 93 c0 99 3b a2 44 6b bb e1 8a 85 bb
       -0.00018219648 0.004692146 -0.0035899063 -0.0040753935
000010 3f 2a 9a bb 8a f8 b0 3b a5 41 09 3b 21 ed 95 bb
       -0.004704743 0.005400722 0.0020943668 -0.004575387
000020 b3 92 15 3b ae 17 7b 3b 00 00 00 00 0c 27 94 3b
       0.0022823035 0.0038313675 0.0 0.0045212563
000030 00 00 00 00 57 f5 68 bb 1a f0 8e 3b 06 4c af b8
       0.0 -0.0035546625 0.0043621184 -8.358811e-05
000040 0d 49 84 bb 01 97 62 bb 71 73 69 bb a5 61 e5 ba
       -0.0040370286 -0.0034574869 -0.0035621787 -0.0017500414
000050 1a 59 1f 3b eb ea 8c bb 67 aa 48 3b ff 2c ad 3a
       0.0024314583 -0.0043004653 0.0030619146 0.0013212262
000060 1b 48 4d 3b 8e 90 94 bb 54 6b 45 bb 00 00 00 00
       0.0031323496 -0.004533834 -0.0030123787 0.0
000070 00 00 00 00 e1 d2 8d 3b fd 64 e5 ba 0b 1f 98 bb
       0.0 0.0043281172 -0.001750141 -0.0046423725
000080 de 77 93 3b 00 00 00 00 00 00 00 00 32 4d 73 3b
       0.0045003733 0.0 0.0 0.003712487
000090 29 89 89 bb 00 00 00 00 f6 f6 95 3b 00 00 00 00
       -0.004197259 0.0 0.004576559 0.0
0000a0 09 40 30 3b 62 d9 9d 3b c3 c1 9f 3b 5f 16 1e bb
       0.0026893637 0.004817174 0.004875393 -0.002412222
0000b0 82 41 a0 bb 47 65 42 ba b3 68 97 3b 1e f2 8a bb
       -0.0048906216 -0.0007415604 0.0046206354 -0.0042402884
0000c0 00 00 00 00 dc f4 7c ba f0 79 39 3b d5 bb 86 39
       0.0 -0.0009649524 0.002830144 0.00025698417
0000d0 00 00 00 00 9d 48 98 3b 07 35 2b 3b 4a 75 14 bb
       0.0 0.004647328 0.0026124136 -0.0022652918
0000e0 a0 0c b2 3b a4 6a 9e 3b e5 9b a8 ba 9f 86 bd b8
       0.005433634 0.00483449 -0.0012863843 -9.0372974e-05
0000f0 b2 55 a2 bb 3b 12 cf 3a 00 00 00 00 4b d0 7f bb
       -0.0049540633 0.001579828 0.0 -0.0039034064

kpconv2.kernel_points f4 [15, 3]
000000 56 ae 42 be e4 1a a2 3e ce 15 14 be 64 27 a9 bd
       -0.19011816 0.3166114 -0.14461443 -0.08259466
000010 9b 75 22 be cc bc 0e bd 1f c8 6a bd 50 48 03 be
       -0.15865175 -0.03484802 -0.057319757 -0.12820554
000020 f0 bd 29 bd ea 19 05 3e 02 8e 59 bd e7 e6 a6 be
       -0.041440904 0.12998167 -0.053113945 -0.3259804
000030 fe 8c f9 be bc 73 de bc 38 e9 e8 3d a0 5f 87 bd
       -0.4874038 -0.027154796 0.11372608 -0.06610036
000040 28 02 e5 3e da 91 bf 3d 12 47 4c 3d 9c 56 13 bd
       0.44728208 0.09353991 0.049872465 -0.03597127
000050 cc aa ff 3c 97 98 88 be 83 ae f2 3d 52 f0 bb 3e
       0.031209372 -0.26678917 0.11849692 0.36706787
000060 b1 69 1a 3e 75 26 fa 3c 35 fc 5e 3e d4 b7 1f 3e
       0.1507938 0.030535916 0.21775897 0.15597469
000070 c3 35 3e 3e 57 bd 8a 3d b5 97 91 3d bb 15 2e 3e
       0.18575196 0.06774395 0.07109014 0.17000477
000080 2a 08 c2 3e cd 7d 17 3f d3 4c 9f be bc 67 81 be
       0.37896854 0.5917633 -0.311133 -0.25274456
000090 6b 32 bf 3e 8b a7 f1 be 79 08 b1 3e d3 e5 80 3e
       0.37343153 -0.47198138 0.34576777 0.25175342
0000a0 b9 94 5c 3e 89 ba dc bd 7b 82 96 bd 3a aa 5a 3d
       0.21541108 -0.10777766 -0.07349106 0.053384997
0000b0 0d 72 d7 be
       -0.420792

fc_mid.weight f4 [64, 64]
000000 00 7a aa bd 52 ed f4 3d f0 f1 89 bc 64 d1 95 bd
       -0.08324051 0.11959328 -0.016838998 -0.07315329
000010 30 37 75 3d 2c 81 08 3d 58 d8 3f bd 30 e9 2f bd
       0.059867084 0.033326313 -0.04683718 -0.042946994
000020 9c 09 41 bd f4 bb 3e bd be 30 af bd 70 86 17 bd
       -0.047128305 -0.046565965 -0.08554219 -0.036993444
000030 38 55 88 bd 44 bd f1 3d f6 a5 87 3d f0 f1 b3 3c
       -0.06656879 0.11803678 0.066234514 0.02196595
000040 30 0b c4 3d 50 28 34 bc e0 26 7f bc 80 9d 95 3b
       0.09572446 -0.010995939 -0.015573233 0.0045658946
000050 0a e1 b7 3d 80 40 cc bd 7c a8 07 3d c0 d6 5a 3c
       0.0897847 -0.0997324 0.033119664 0.013356864
000060 68 f0 a7 3d 00 a6 15 bb 14 c0 03 bd a4 c5 c6 bd
       0.08200151 -0.002283454 -0.0321656 -0.09705666
000070 30 ad 0f 3c 20 c2 9b bc c0 96 bd 3c c0 8d e3 3b
       0.008769318 -0.019013464 0.023143172 0.006944388
000080 14 ba 71 bd 00 12 eb b9 8a b7 e3 3d c8 0f da bc
       -0.05901535 -0.00044836104 0.11118992 -0.026618853
000090 24 b8 b8 3d 10 e8 29 3d 40 e1 a5 3c 4c c1 64 3d
       0.09019497 0.041481078 0.02024901 0.055848405
0000a0 c8 6f 90 bc 50 57 9f 3c a8 c4 2a 3d 38 f0 87 bc
       -0.017631426 0.019450814 0.041691452 -0.016594037
0000b0 20 1c 81 bd 6a 54 ed 3d 30 9c cc bd ca d8 88 3d
       -0.063041925 0.11588366 -0.09990728 0.06681974
0000c0 0c 97 e3 bd 4c 7d 5a 3d 88 f8 d5 3d d4 4a ec bd
       -0.11112794 0.05334215 0.10447794 -0.1153771
0000d0 9c 99 e8 bd c0 dc b8 bd 08 1b 97 bd 7e 29 82 bd
       -0.11357424 -0.0902648 -0.07378203 -0.0635557
0000e0 b8 98 9c 3c 08 ac 9c bd 9c 97 9c bd 66 ff c0 3d
       0.01911579 -0.0765 -0.07646105 0.094237134
0000f0 60 a5 dc bd bc bf 66 bd 3a ac a2 3d 1c 7d 83 bd
       -0.1077373 -0.056335196 0.07943006 -0.06420347
000100 24 ae 65 bd 5a 2d c2 bd b4 5b 49 bd c0 a0 38 3c
       -0.056074277 -0.094813064 -0.04915972 0.011268795
000110 18 0c 15 3d 00 d2 89 3c 54 e3 98 bd 74 c4 83 bd
       0.036388487 0.016823769 -0.074652344 -0.06433955
000120 fc d1 9c bd c8 5d 01 3d 20 dd 66 3d 80 f2 34 3d
       -0.07657239 0.031583577 0.056363225 0.04417658
000130 ec 93 d2 3d 6c 0a 4e bd 50 29 0c 3c 7a be d8 bd
       0.1028212 -0.050302908 0.008554772 -0.105832055
000140 fc c0 b6 bd 76 61 96 bd 60 bc 3f bd a8 56 47 3d
       -0.089235276 -0.07342808 -0.046810508 0.048666626
000150 2e b4 a3 3d 48 eb 6a bd c4 c3 d7 3d 44 43 7d 3d
       0.07993351 -0.057353288 0.10535386 0.061831728
000160 60 df a7 3d 04 51 91 bd 6c 2e 68 3d d0 52 fa 3d
       0.08196902 -0.07095531 0.056684896 0.122228265
000170 b8 32 82 3c 9c eb 05 3d 14 15 3e 3d 7e 30 b9 bd
       0.015893325 0.032695398 0.04640682 -0.09042452
000180 4c ed 41 bd 60 80 1c bc e8 f7 95 bc 24 67 e4 3d
       -0.047345445 -0.009552091 -0.018306687 0.11152485
000190 5c 7c 3d 3d 48 f1 cd bc 3a 7c e0 bd 5c e4 0b bd
       0.046261176 -0.025139466 -0.10961194 -0.034153327
0001a0 24 d9 91 bd 80 69 bb ba 00 20 62 3a b4 b8 9c 3d
       -0.071214944 -0.0014298409 0.0008625984 0.07652417
0001b0 74 ed c4 bd 3a 66 b1 bd f0 56 cf 3d 1c 89 ef bd
       -0.09615603 -0.08662076 0.10124004 -0.116960734
0001c0 16 5f d0 3d 30 d8 fe bc 72 b0 ce bd fc ee 05 bd
       0.10174386 -0.031108946 -0.10092248 -0.032698616
0001d0 40 40 da bb 10 68 7e bd 0e e8 ff bd b0 a5 8f 3d
       -0.006660491 -0.06211096 -0.12495433 0.07014024
0001e0 52 83 a7 bd d4 06 94 bd 70 74 34 3c 98 8a ba bc
       -0.08179344 -0.07227865 0.011014089 -0.022771165
0001f0 b6 da d4 bd 24 38 60 3d 4a 6d e4 3d f8 30 8f 3d
       -0.10393278 0.05474104 0.11153658 0.06991762
000200 b2 ec 48 bc 56 37 ea 3d 9f 4b 40 bc 42 bf 01 3d
       -0.012263464 0.11436336 -0.0117367795 0.03167654
000210 25 bf 89 bd da 3e 5e 3d 04 97 7a bb ef 8e e5 bd
       -0.06725911 0.05425916 -0.0038236985 -0.11208903
000220 54 63 0d bd d0 87 7a 3d 40 03 41 bd 7b 19 31 bd
       -0.034518555 0.061164677 -0.04712224 -0.04323719
000230 8a 5a a3 bd 1b 7e d8 3d be fb d6 3d a6 b5 17 bc
       -0.07976253 0.10570928 0.10497235 -0.009259617
000240 e7 fc 3b bd 94 19 6f bd ff da 5f 3d ab de 3e 3d
       -0.045895483 -0.058374003 0.05465221 0.04659907
000250 25 11 f6 bd 8c 93 d8 bd a2 10 dc bb 80 d8 ca bd
       -0.12014989 -0.10575017 -0.00671585 -0.09904575
000260 cb 4a 70 3d 71 f8 1f bc 4c 72 a0 bd 90 ef 6d 3d
       0.058665078 -0.009763823 -0.078343004 0.058089793
000270 76 1a ad 3d 58 8f 85 3d fd 0d dd bb 12 c2 76 bc
       0.08452313 0.06521481 -0.0067460523 -0.015060918
000280 50 56 86 3d a0 37 1e bd 84 03 c3 3d 29 99 9e bd
       0.065594316 -0.038627267 0.09522155 -0.07744057
000290 3c 03 7f 3c 70 4f 14 3d 69 fd 54 3d f6 35 9c 3d
       0.015564736 0.03620857 0.051999483 0.0762748
0002a0 fe 4e e6 3d 37 9d 01 3c 7f 87 04 3d 82 c0 c7 bd
       0.11245535 0.007911018 0.03235578 -0.09753515
0002b0 f6 79 cb 3c d4 a1 90 3d 52 a4 37 3d e3 2c 2d bd
       0.024838429 0.07062116 0.044834442 -0.042279135
0002c0 90 fb 45 bd b8 71 4c 3d e6 85 56 3d 7b 40 f3 3c
       -0.04833561 0.04991314 0.05237379 0.029693833
0002d0 4c 84 79 3d 1e 94 fc 3d f2 97 2f bd ec 61 8c 3d
       0.060917184 0.123329386 -0.042869516 0.068546146
0002e0 96 42 ae 3d c1 04 bd bd c2 70 b2 3d 43 43 61 bd
       0.08508794 -0.09229422 0.08712913 -0.054995786
0002f0 70 6d e1 3d b6 6e cc 3d e0 f8 75 3d e7 9e c8 3c
       0.11007202 0.09982054 0.0600518 0.024489833
000300 92 74 47 3c ed 91 e8 bb e7 6b e7 bd 84 77 6e bd
       0.012173789 -0.007097474 -0.112998776 -0.058219448
000310 87 07 ca bd 42 3c f6 bd 18 1e 63 3d 73 52 44 3d
       -0.09864717 -0.12023212 0.05544862 0.047930192
000320 95 20 21 bd 02 1d 20 3c 84 d3 76 3d 48 c7 7d 3d
       -0.039337713 0.009772541 0.06026031 0.061957628
000330 fe 33 c3 bd f6 9a 4b 3d 30 d1 24 3d 39 f4 f2 bd
       -0.09531401 0.04970833 0.04023856 -0.11862988
000340 de 6b f7 3d d5 1a f9 bd b0 22 71 3a 57 71 a4 3d
       0.12081121 -0.12163321 0.0009198589 0.0802943
000350 51 33 d7 bc 1b 12 c9 3c bc e3 4e 3d b0 15 84 3c
       -0.026269587 0.024544766 0.050510153 0.016123623
000360 40 4b d2 bc e7 7e 73 3d d7 76 d1 3d f0 65 e4 3c
       -0.025670648 0.059447195 0.10227745 0.027880639
000370 78 76 c5 3d 34 a1 b2 bd 51 6d 79 bd 50 34 e8 bd
       0.09641737 -0.08722153 -0.060895268 -0.11338103
000380 d1 7c 4b bd 28 77 c0 3c 10 ae f7 3c 6f de 3d 3c
       -0.04967958 0.023494318 0.030234367 0.011588677
000390 87 4c 2c bd e8 82 d6 bd a9 95 b3 bc 1c c7 7b bd
       -0.04206517 -0.10474187 -0.02192195 -0.061469182
0003a0 37 e9 6c bd 3e 97 a1 3d 2f 50 7e 3c 20 94 6c 3d
       -0.0578396 0.07890175 0.015522047 0.05775845
0003b0 de 1d b7 3d c6 f4 f3 3d 7c 86 98 3d f2 fb 91 3c
       0.089412436 0.11911921 0.07447526 0.017820332
0003c0 66 00 f3 3d 93 79 08 bd da 14 32 bd 28 04 f7 3d
       0.1186531 -0.033319067 -0.043476917 0.120613396
0003d0 a6 a9 ca 3d 88 15 f3 3d 1e 94 e1 bd f9 8b a9 3d
       0.09895639 0.11869341 -0.11014579 0.08278651
0003e0 64 85 e5 bb 8b dd a8 bd 20 be ee bd c2 55 22 3a
       -0.007004427 -0.08245381 -0.11657357 0.00061925885
0003f0 71 c3 d5 bd 80 ad c0 3d 6c 8b 57 3d b4 5c 0d 3d
       -0.10437668 0.094080925 0.052623197 0.034512237

fc_mid.bias f4 [64]
000000 bc 11 15 bd 30 c2 88 bd 2d 76 bd 3d 25 de bd 3d
       -0.036393866 -0.06677663 0.09251056 0.09270886
000010 e6 e9 fe bd 4b b2 43 3d c8 ed 9f 3c 10 4c 7c bd
       -0.12446956 0.047777455 0.019522563 -0.061595976
000020 34 e6 cd bd ac 62 a7 3d 42 dc ed bd a8 fb 7c bd
       -0.100536734 0.08173117 -0.116142765 -0.061763436
000030 c0 cc dd bb c1 d5 ac 3c 81 1a b2 3c 8f 7c 57 3c
       -0.006768793 0.02109802 0.021741154 0.013152256
000040 5d 0c 82 3d c1 a4 77 3d ce be 86 3d 94 f6 99 3d
       0.06350014 0.060459856 0.06579362 0.07517734
000050 1a cf 85 bd 40 2d b0 bd 6f 1a 38 3d 8a 3b 90 bd
       -0.06533642 -0.08602381 0.044947084 -0.07042606
000060 f4 2c 38 bd e8 89 fd bd 94 24 b6 bd 60 2a c9 bb
       -0.044964746 -0.12379819 -0.088936955 -0.0061390847
000070 56 45 fc bd c6 a9 a6 bd 1c 99 d6 bd fd df 68 3d
       -0.12317912 -0.081378505 -0.10478422 0.056854237
000080 23 c3 3c 3d 10 ab 14 bd 18 3e 7c bd 8e 42 b7 3d
       0.046084534 -0.03629595 -0.061582655 0.08948241
000090 d6 6d 92 bd 14 51 17 3d ac 45 b7 3d c2 4c b9 bd
       -0.07149856 0.036942557 0.08948836 -0.090478435
0000a0 48 49 9e bd 7c c3 97 bd 5c 23 5d bd ec af 5b bd
       -0.07728821 -0.074103326 -0.0539888 -0.05363457
0000b0 54 bd a6 bd 0f 75 ca 3b 02 65 f3 bd 40 36 f0 bc
       -0.0814158 0.0061785053 -0.118845 -0.029322743
0000c0 28 05 eb bd 59 ca b7 3d 1c de 0f 3d 50 34 a4 bd
       -0.11475593 0.08974142 0.03512393 -0.0801779
0000d0 ba 83 58 3d 88 d9 1b bd 1c 7a b0 bd 52 9a bc 3c
       0.05286 -0.03804925 -0.086170405 0.023022804
0000e0 20 a3 6a bc b4 44 2c bd 55 85 01 3e d2 80 b5 bd
       -0.014321119 -0.042057708 0.12648518 -0.08862461
0000f0 0c d7 86 3d f4 e4 93 3d ee 7e a9 bd 9d e8 e8 3c
       0.06583986 0.07221404 -0.08276163 0.028431231

fc_out.weight f4 [3, 64]
000000 f2 9f b5 bd bc 40 3b 3d c3 e2 80 bd 99 28 5d 3d
       -0.08868398 0.045716032 -0.06293251 0.053993795
000010 70 12 33 3c 17 ba 30 3d 7e bd c3 bd 9c 33 48 bd
       0.010929689 0.04314622 -0.09557627 -0.048877344
000020 be 56 9c bd ec b6 a6 3d 88 6a 43 bd 5a 92 e5 3d
       -0.07633732 0.08140358 -0.047709018 0.11209555
000030 d8 e8 f7 bd 40 e9 f6 3c 84 c4 6b bd 5b 07 8e bd
       -0.12104958 0.03014052 -0.05756046 -0.06934997
000040 36 e3 f7 bd 7e e8 b1 3c 9a 18 ad 3d 5f a3 c1 3d
       -0.12103884 0.021717306 0.08451958 0.09454989
000050 8c 16 63 bd d4 b3 b2 bd 8a 8c ed bd e8 99 f7 bd
       -0.055441424 -0.08725706 -0.11599071 -0.12089902
000060 e0 d0 ec 3c 20 4e c5 3d 4e bd 8d 3d a0 45 d2 3c
       0.028908193 0.09634042 0.06920873 0.025667965
000070 ec ea 1c bd 68 43 7a 3d 9a 7b a6 bd 6d b9 a2 bd
       -0.038309976 0.06109944 -0.08129044 -0.079455234
000080 06 c0 ae bb 6c d6 23 bd 5c 99 a3 bd c6 c1 0f 3d
       -0.0053329496 -0.03999941 -0.07988235 0.035096906
000090 a8 96 9c bc c4 f6 28 3d bc 71 d3 3c bc 9b 05 bd
       -0.019114807 0.04125096 0.025811069 -0.032619223
0000a0 e8 ae 83 bd bc 94 20 bd e8 93 41 bd de f9 88 3d
       -0.06429845 -0.039204344 -0.047260195 0.066882834
0000b0 10 fd 69 bc 56 c0 83 bd 44 a6 22 bd 44 8b c4 bd
       -0.014281526 -0.064331695 -0.039709345 -0.09596875
0000c0 cc 79 d9 3d 45 9a df 3d 34 76 8e bd 60 6d 60 bc
       0.10618934 0.109180965 -0.06956139 -0.013697952
0000d0 58 d1 91 bd 4e 5d 90 3d b0 38 fd bd b0 54 8e 3d
       -0.07120007 0.070490465 -0.12364328 0.069497466
0000e0 40 64 98 bd 40 05 d3 bb 42 b3 6b 3d c2 fc f2 3d
       -0.07440996 -0.006439835 0.057544 0.11864616
0000f0 25 56 db bd c9 da 2b bd 04 fc 25 3d 13 55 de 3c
       -0.1070979 -0.041956697 0.040523544 0.027140176
000100 92 13 bc bd 08 08 ff 3c f0 ae e4 3d b7 b2 db 3c
       -0.0918342 0.03113176 0.11166179 0.026818616
000110 a0 d1 dc 3d e7 bd 85 3d 2f 4b fc 3d 5c 77 7e 3d
       0.1078217 0.065303616 0.12319028 0.06212555
000120 68 7b fc 3c 2c d1 84 3d f0 ea e7 3d f0 d5 d8 bd
       0.030820563 0.06485209 0.11324108 -0.1058768
000130 f8 5f 7f 3d f9 b6 21 bb aa 14 03 bd 47 16 1e bd
       0.062347382 -0.002467571 -0.03200213 -0.038595464
000140 c0 ce ac bd c5 d1 3f bc e2 0a c7 bd 2f e0 3b bd
       -0.08437872 -0.011707728 -0.097188726 -0.045868095
000150 e2 45 9e bd 34 84 01 bd fa 8b 43 bd 70 78 8b 3d
       -0.07728173 -0.03162022 -0.047740914 0.06810081
000160 96 e8 9c 3d 28 bd e1 3c 48 64 3e 3d aa 3a ad 3d
       0.0766155 0.027556017 0.046482354 0.08458455
000170 88 b3 08 bd 78 d9 88 3c 70 91 51 bd 6e 15 98 bd
       -0.03337434 0.01670526 -0.05116409 -0.074259624
000180 5f 83 a7 3d d6 70 f6 3d f0 77 5e bc 40 ab a2 3d
       0.08179354 0.120332405 -0.0135784 0.079428196
000190 b4 54 9f 3d 9c 89 b1 3d fc 0a 7c bd 10 d3 a5 3d
       0.07779828 0.08668825 -0.061533913 0.080968976
0001a0 ae 65 b4 3d 70 bf 03 3c 30 00 0f bc 12 9e b8 bd
       0.08808456 0.008041248 -0.008728072 -0.090145245
0001b0 40 e3 76 3c 68 30 47 3d 22 14 e9 bd ae bb bd bd
       0.015068829 0.04863015 -0.11380793 -0.09264313
0001c0 1c b1 7a bd d7 16 df bd 3b d7 b4 3d 00 0f ac bc
       -0.06120406 -0.10893028 0.088301145 -0.021003246
0001d0 c5 4d 2f 3d d2 e2 ef 3d 5c e4 c3 3d 6b 2d 27 bd
       0.042798776 0.117131844 0.095650405 -0.0408148
0001e0 60 68 86 3d bc 61 eb 3d 02 84 d7 3d a8 a5 8d 3c
       0.06562877 0.11493251 0.10523225 0.017290905
0001f0 0d 10 da bb 3d 5a 41 bd d0 ad ab 3c 8d 6e f3 3d
       -0.0066547454 -0.0472052 0.020956904 0.1188632
000200 3e 92 bf 3d 1c fb b2 3d 69 e7 bc 3b ec a4 cd 3d
       0.09354065 0.087393016 0.005764891 0.10041222
000210 80 ea 9d 3d f8 61 6e 3d 64 9d 70 bb 68 90 50 bd
       0.07710743 0.0581989 -0.0036714906 -0.050918967
000220 ca 53 87 3d 2a b2 dc bd 64 8b 70 3d c0 a0 0d bd
       0.06607778 -0.107761696 0.058726683 -0.03457713
000230 20 f6 fb bb 7b 37 6b bd 6f 0d b8 bd 87 5c 98 3d
       -0.0076892525 -0.057425957 -0.08986937 0.07439523
000240 ab 33 e2 3c 4b db e0 bd d7 ca 4d 3d 1a 0d a8 3c
       0.027612528 -0.10979327 0.05024227 0.02051406
000250 d4 b6 32 bd 70 f8 7a 3d e0 3e 41 3d 80 5c be bb
       -0.04363139 0.061272085 0.047179103 -0.0058093667
000260 c2 33 ef 3d f6 ea ea bd a0 ad 0c 3d 5e 28 a3 3d
       0.11679794 -0.114705965 0.03434527 0.07966684
000270 34 db f4 bd 38 17 c3 bc e0 a1 f3 bd 86 19 2c 3d
       -0.11955872 -0.023814783 -0.118961096 0.04201653
000280 98 8f 9d bd 2c 45 98 3d 80 04 09 bb de 75 f2 3c
       -0.07693404 0.074350685 -0.0020907223 0.02959722
000290 50 55 d7 3c e4 58 66 bd f2 30 e4 bd b8 b2 d4 3d
       0.026285797 -0.056237116 -0.11142148 0.103856504
0002a0 6a dd a0 3d f0 64 ad bc 9a f3 83 bd f6 c6 eb bd
       0.078547314 -0.021166295 -0.06442948 -0.11512558
0002b0 24 58 d2 3d b8 86 eb bd 40 d6 b7 bd 28 e1 c0 3c
       0.10270718 -0.11500305 -0.08976412 0.023544863
0002c0 fe df eb 3d 34 c8 cb bd c4 ae e0 bd 7a ee b2 3d
       0.115173325 -0.09950295 -0.10970834 0.08736892
0002d0 16 58 fe bd a8 ae e4 3c 8c 8a a5 bd c8 ac 4c bd
       -0.12419145 0.027915314 -0.08083066 -0.049969465
0002e0 7c 52 a8 bd 4c aa cc bd c7 f0 63 3d d6 4a e0 bd
       -0.08218858 -0.09993419 0.055649545 -0.10951774
0002f0 44 ec c2 3c df 36 b5 bd 2a 37 ca 3d 96 1a 4c 3d
       0.0237943 -0.088483565 0.09873803 0.04983004

fc_out.bias f4 [3]
000000 b4 0e 14 bd db 8d 29 bd 71 09 6c bb
       -0.036146834 -0.04139505 -0.003601637

exp_avg f4 [8, 3]
000000 61 4c 85 b5 42 46 be b4 c4 d8 4f 33 b7 40 bc 35
       -9.931501e-07 -3.5441377e-07 4.839309e-08 1.4025926e-06
000010 c8 83 fd b3 a5 53 4e 31 b6 d8 f3 33 b3 a3 6b 34
       -1.18052014e-07 3.0024492e-09 1.1354989e-07 2.1945634e-07
000020 4c 04 91 31 10 e4 a8 b4 03 a6 92 35 4e 2a 0d b3
       4.220544e-09 -3.1458376e-07 1.0926163e-06 -3.2867597e-08
000030 d4 24 bf 34 ab 7c eb 34 38 c0 9d b2 12 d6 49 b5
       3.5603318e-07 4.386287e-07 -1.8364616e-08 -7.518985e-07
000040 14 2c ad 34 66 c3 9d b3 00 00 00 00 00 00 00 00
       3.2255832e-07 -7.346425e-08 0.0 0.0
000050 00 00 00 00 b9 fa 0d 35 bd 8b c0 b3 58 0b fa 33
       0.0 5.289144e-07 -8.966115e-08 1.16435956e-07

exp_avg_sq f4 [8, 3]
000000 20 b8 32 2a 87 dc 20 2a ad c2 a3 26 4c a8 a8 2b
       1.5873457e-13 1.4287366e-13 1.1363164e-15 1.198383e-12
000010 35 0d 4a 2b 57 02 11 26 42 70 95 27 8d ad 35 28
       7.1783145e-13 5.031015e-16 4.1477518e-15 1.0085151e-14
000020 38 05 79 25 a2 8d ad 29 76 08 13 2a 48 d1 a8 25
       2.1599075e-16 7.707313e-14 1.3059158e-13 2.928517e-16
000030 b1 25 1f 2a f6 2a 4f 29 9e 7a 95 24 0a 76 01 2a
       1.4135114e-13 4.6000496e-14 6.482617e-17 1.1498455e-13
000040 de 2b 40 2a ef 77 23 26 00 00 00 00 00 00 00 00
       1.7068245e-13 5.6714526e-16 0.0 0.0
000050 00 00 00 00 fd c7 a9 2a 45 a8 33 2a 70 61 56 26
       0.0 3.01592e-13 1.5956774e-13 7.4378217e-16

exp_avg f4 [8]
000000 2b 5a b5 34 fa 9e da 33 38 c6 b8 34 37 b0 3f b5
       3.3779483e-07 1.0180334e-07 3.4416894e-07 -7.140947e-07
000010 65 de d2 34 7d 1c 28 35 00 00 00 00 55 4e a9 33
       3.9277361e-07 6.2626333e-07 0.0 7.883924e-08

exp_avg_sq f4 [8]
000000 c0 7b a0 2a 12 19 02 2c 22 e8 8e 28 de 98 3b 2a
       2.8507578e-13 1.8488028e-12 1.5865839e-14 1.6661973e-13
000010 7d a4 50 2a 8c f0 97 2a 00 00 00 00 6d ae ea 2a
       1.853118e-13 2.69899e-13 0.0 4.1687782e-13

exp_avg f4 [15, 8, 32]
000000 00 00 00 00 00 00 00 00 00 00 00 00 00 00 00 00
       0.0 0.0 0.0 0.0
000010 00 00 00 00 00 00 00 00 00 00 00 00 00 00 00 00
       0.0 0.0 0.0 0.0
000020 00 00 00 00 00 00 00 00 00 00 00 00 00 00 00 00
       0.0 0.0 0.0 0.0
000030 00 00 00 00 00 00 00 00 00 00 00 00 00 00 00 00
       0.0 0.0 0.0 0.0
000040 00 00 00 00 00 00 00 00 00 00 00 00 00 00 00 00
       0.0 0.0 0.0 0.0
000050 00 00 00 00 00 00 00 00 00 00 00 00 00 00 00 00
       0.0 0.0 0.0 0.0
000060 00 00 00 00 00 00 00 00 00 00 00 00 00 00 00 00
       0.0 0.0 0.0 0.0
000070 00 00 00 00 00 00 00 00 00 00 00 00 00 00 00 00
       0.0 0.0 0.0 0.0
000080 00 00 00 00 00 00 00 00 00 00 00 00 00 00 00 00
       0.0 0.0 0.0 0.0
000090 00 00 00 00 00 00 00 00 00 00 00 00 00 00 00 00
       0.0 0.0 0.0 0.0
0000a0 00 00 00 00 00 00 00 00 00 00 00 00 00 00 00 00
       0.0 0.0 0.0 0.0
0000b0 00 00 00 00 00 00 00 00 00 00 00 00 00 00 00 00
       0.0 0.0 0.0 0.0
0000c0 00 00 00 00 00 00 00 00 00 00 00 00 00 00 00 00
       0.0 0.0 0.0 0.0
0000d0 00 00 00 00 00 00 00 00 00 00 00 00 00 00 00 00
       0.0 0.0 0.0 0.0
0000e0 00 00 00 00 00 00 00 00 00 00 00 00 00 00 00 00
       0.0 0.0 0.0 0.0
0000f0 00 00 00 00 00 00 00 00 00 00 00 00 00 00 00 00
       0.0 0.0 0.0 0.0
000100 00 00 00 00 00 00 00 00 00 00 00 00 00 00 00 00
       0.0 0.0 0.0 0.0
000110 00 00 00 00 00 00 00 00 00 00 00 00 00 00 00 00
       0.0 0.0 0.0 0.0
000120 00 00 00 00 00 00 00 00 00 00 00 00 00 00 00 00
       0.0 0.0 0.0 0.0
000130 00 00 00 00 00 00 00 00 00 00 00 00 00 00 00 00
       0.0 0.0 0.0 0.0
000140 00 00 00 00 00 00 00 00 00 00 00 00 00 00 00 00
       0.0 0.0 0.0 0.0
000150 00 00 00 00 00 00 00 00 00 00 00 00 00 00 00 00
       0.0 0.0 0.0 0.0
000160 00 00 00 00 00 00 00 00 00 00 00 00 00 00 00 00
       0.0 0.0 0.0 0.0
000170 00 00 00 00 00 00 00 00 00 00 00 00 00 00 00 00
       0.0 0.0 0.0 0.0
000180 00 00 00 00 00 00 00 00 00 00 00 00 00 00 00 00
       0.0 0.0 0.0 0.0
000190 00 00 00 00 00 00 00 00 00 00 00 00 00 00 00 00
       0.0 0.0 0.0 0.0
0001a0 00 00 00 00 00 00 00 00 00 00 00 00 00 00 00 00
       0.0 0.0 0.0 0.0
0001b0 00 00 00 00 00 00 00 00 00 00 00 00 00 00 00 00
       0.0 0.0 0.0 0.0
0001c0 00 00 00 00 00 00 00 00 00 00 00 00 00 00 00 00
       0.0 0.0 0.0 0.0
0001d0 00 00 00 00 00 00 00 00 00 00 00 00 00 00 00 00
       0.0 0.0 0.0 0.0
0001e0 00 00 00 00 00 00 00 00 00 00 00 00 00 00 00 00
       0.0 0.0 0.0 0.0
0001f0 00 00 00 00 00 00 00 00 00 00 00 00 00 00 00 00
       0.0 0.0 0.0 0.0
000200 00 00 00 00 00 00 00 00 00 00 00 00 00 00 00 00
       0.0 0.0 0.0 0.0
000210 00 00 00 00 00 00 00 00 00 00 00 00 00 00 00 00
       0.0 0.0 0.0 0.0
000220 00 00 00 00 00 00 00 00 00 00 00 00 00 00 00 00
       0.0 0.0 0.0 0.0
000230 00 00 00 00 00 00 00 00 00 00 00 00 00 00 00 00
       0.0 0.0 0.0 0.0
000240 00 00 00 00 00 00 00 00 00 00 00 00 00 00 00 00
       0.0 0.0 0.0 0.0
000250 00 00 00 00 00 00 00 00 00 00 00 00 00 00 00 00
       0.0 0.0 0.0 0.0
000260 00 00 00 00 00 00 00 00 00 00 00 00 00 00 00 00
       0.0 0.0 0.0 0.0
000270 00 00 00 00 00 00 00 00 00 00 00 00 00 00 00 00
       0.0 0.0 0.0 0.0
000280 00 00 00 00 00 00 00 00 00 00 00 00 00 00 00 00
       0.0 0.0 0.0 0.0
000290 00 00 00 00 00 00 00 00 00 00 00 00 00 00 00 00
       0.0 0.0 0.0 0.0
0002a0 00 00 00 00 00 00 00 00 00 00 00 00 00 00 00 00
       0.0 0.0 0.0 0.0
0002b0 00 00 00 00 00 00 00 00 00 00 00 00 00 00 00 00
       0.0 0.0 0.0 0.0
0002c0 00 00 00 00 00 00 00 00 00 00 00 00 00 00 00 00
       0.0 0.0 0.0 0.0
0002d0 00 00 00 00 00 00 00 00 00 00 00 00 00 00 00 00
       0.0 0.0 0.0 0.0
0002e0 00 00 00 00 00 00 00 00 00 00 00 00 00 00 00 00
       0.0 0.0 0.0 0.0
0002f0 00 00 00 00 00 00 00 00 00 00 00 00 00 00 00 00
       0.0 0.0 0.0 0.0
000300 00 00 00 00 00 00 00 00 00 00 00 00 00 00 00 00
       0.0 0.0 0.0 0.0
000310 00 00 00 00 00 00 00 00 00 00 00 00 00 00 00 00
       0.0 0.0 0.0 0.0
000320 00 00 00 00 00 00 00 00 00 00 00 00 00 00 00 00
       0.0 0.0 0.0 0.0
000330 00 00 00 00 00 00 00 00 00 00 00 00 00 00 00 00
       0.0 0.0 0.0 0.0
000340 00 00 00 00 00 00 00 00 00 00 00 00 00 00 00 00
       0.0 0.0 0.0 0.0
000350 00 00 00 00 00 00 00 00 00 00 00 00 00 00 00 00
       0.0 0.0 0.0 0.0
000360 00 00 00 00 00 00 00 00 00 00 00 00 00 00 00 00
       0.0 0.0 0.0 0.0
000370 00 00 00 00 00 00 00 00 00 00 00 00 00 00 00 00
       0.0 0.0 0.0 0.0
000380 00 00 00 00 00 00 00 00 00 00 00 00 00 00 00 00
       0.0 0.0 0.0 0.0
000390 00 00 00 00 00 00 00 00 00 00 00 00 00 00 00 00
       0.0 0.0 0.0 0.0
0003a0 00 00 00 00 00 00 00 00 00 00 00 00 00 00 00 00
       0.0 0.0 0.0 0.0
0003b0 00 00 00 00 00 00 00 00 00 00 00 00 00 00 00 00
       0.0 0.0 0.0 0.0
0003c0 00 00 00 00 00 00 00 00 00 00 00 00 00 00 00 00
       0.0 0.0 0.0 0.0
0003d0 00 00 00 00 00 00 00 00 00 00 00 00 00 00 00 00
       0.0 0.0 0.0 0.0
0003e0 00 00 00 00 00 00 00 00 00 00 00 00 00 00 00 00
       0.0 0.0 0.0 0.0
0003f0 00 00 00 00 00 00 00 00 00 00 00 00 00 00 00 00
       0.0 0.0 0.0 0.0

exp_avg_sq f4 [15, 8, 32]
000000 00 00 00 00 00 00 00 00 00 00 00 00 00 00 00 00
       0.0 0.0 0.0 0.0
000010 00 00 00 00 00 00 00 00 00 00 00 00 00 00 00 00
       0.0 0.0 0.0 0.0
000020 00 00 00 00 00 00 00 00 00 00 00 00 00 00 00 00
       0.0 0.0 0.0 0.0
000030 00 00 00 00 00 00 00 00 00 00 00 00 00 00 00 00
       0.0 0.0 0.0 0.0
000040 00 00 00 00 00 00 00 00 00 00 00 00 00 00 00 00
       0.0 0.0 0.0 0.0
000050 00 00 00 00 00 00 00 00 00 00 00 00 00 00 00 00
       0.0 0.0 0.0 0.0
000060 00 00 00 00 00 00 00 00 00 00 00 00 00 00 00 00
       0.0 0.0 0.0 0.0
000070 00 00 00 00 00 00 00 00 00 00 00 00 00 00 00 00
       0.0 0.0 0.0 0.0
000080 00 00 00 00 00 00 00 00 00 00 00 00 00 00 00 00
       0.0 0.0 0.0 0.0
000090 00 00 00 00 00 00 00 00 00 00 00 00 00 00 00 00
       0.0 0.0 0.0 0.0
0000a0 00 00 00 00 00 00 00 00 00 00 00 00 00 00 00 00
       0.0 0.0 0.0 0.0
0000b0 00 00 00 00 00 00 00 00 00 00 00 00 00 00 00 00
       0.0 0.0 0.0 0.0
0000c0 00 00 00 00 00 00 00 00 00 00 00 00 00 00 00 00
       0.0 0.0 0.0 0.0
0000d0 00 00 00 00 00 00 00 00 00 00 00 00 00 00 00 00
       0.0 0.0 0.0 0.0
0000e0 00 00 00 00 00 00 00 00 00 00 00 00 00 00 00 00
       0.0 0.0 0.0 0.0
0000f0 00 00 00 00 00 00 00 00 00 00 00 00 00 00 00 00
       0.0 0.0 0.0 0.0
000100 00 00 00 00 00 00 00 00 00 00 00 00 00 00 00 00
       0.0 0.0 0.0 0.0
000110 00 00 00 00 00 00 00 00 00 00 00 00 00 00 00 00
       0.0 0.0 0.0 0.0
000120 00 00 00 00 00 00 00 00 00 00 00 00 00 00 00 00
       0.0 0.0 0.0 0.0
000130 00 00 00 00 00 00 00 00 00 00 00 00 00 00 00 00
       0.0 0.0 0.0 0.0
000140 00 00 00 00 00 00 00 00 00 00 00 00 00 00 00 00
       0.0 0.0 0.0 0.0
000150 00 00 00 00 00 00 00 00 00 00 00 00 00 00 00 00
       0.0 0.0 0.0 0.0
000160 00 00 00 00 00 00 00 00 00 00 00 00 00 00 00 00
       0.0 0.0 0.0 0.0
000170 00 00 00 00 00 00 00 00 00 00 00 00 00 00 00 00
       0.0 0.0 0.0 0.0
000180 00 00 00 00 00 00 00 00 00 00 00 00 00 00 00 00
       0.0 0.0 0.0 0.0
000190 00 00 00 00 00 00 00 00 00 00 00 00 00 00 00 00
       0.0 0.0 0.0 0.0
0001a0 00 00 00 00 00 00 00 00 00 00 00 00 00 00 00 00
       0.0 0.0 0.0 0.0
0001b0 00 00 00 00 00 00 00 00 00 00 00 00 00 00 00 00
       0.0 0.0 0.0 0.0
0001c0 00 00 00 00 00 00 00 00 00 00 00 00 00 00 00 00
       0.0 0.0 0.0 0.0
0001d0 00 00 00 00 00 00 00 00 00 00 00 00 00 00 00 00
       0.0 0.0 0.0 0.0
0001e0 00 00 00 00 00 00 00 00 00 00 00 00 00 00 00 00
       0.0 0.0 0.0 0.0
0001f0 00 00 00 00 00 00 00 00 00 00 00 00 00 00 00 00
       0.0 0.0 0.0 0.0
000200 00 00 00 00 00 00 00 00 00 00 00 00 00 00 00 00
       0.0 0.0 0.0 0.0
000210 00 00 00 00 00 00 00 00 00 00 00 00 00 00 00 00
       0.0 0.0 0.0 0.0
000220 00 00 00 00 00 00 00 00 00 00 00 00 00 00 00 00
       0.0 0.0 0.0 0.0
000230 00 00 00 00 00 00 00 00 00 00 00 00 00 00 00 00
       0.0 0.0 0.0 0.0
000240 00 00 00 00 00 00 00 00 00 00 00 00 00 00 00 00
       0.0 0.0 0.0 0.0
000250 00 00 00 00 00 00 00 00 00 00 00 00 00 00 00 00
       0.0 0.0 0.0 0.0
000260 00 00 00 00 00 00 00 00 00 00 00 00 00 00 00 00
       0.0 0.0 0.0 0.0
000270 00 00 00 00 00 00 00 00 00 00 00 00 00 00 00 00
       0.0 0.0 0.0 0.0
000280 00 00 00 00 00 00 00 00 00 00 00 00 00 00 00 00
       0.0 0.0 0.0 0.0
000290 00 00 00 00 00 00 00 00 00 00 00 00 00 00 00 00
       0.0 0.0 0.0 0.0
0002a0 00 00 00 00 00 00 00 00 00 00 00 00 00 00 00 00
       0.0 0.0 0.0 0.0
0002b0 00 00 00 00 00 00 00 00 00 00 00 00 00 00 00 00
       0.0 0.0 0.0 0.0
0002c0 00 00 00 00 00 00 00 00 00 00 00 00 00 00 00 00
       0.0 0.0 0.0 0.0
0002d0 00 00 00 00 00 00 00 00 00 00 00 00 00 00 00 00
       0.0 0.0 0.0 0.0
0002e0 00 00 00 00 00 00 00 00 00 00 00 00 00 00 00 00
       0.0 0.0 0.0 0.0
0002f0 00 00 00 00 00 00 00 00 00 00 00 00 00 00 00 00
       0.0 0.0 0.0 0.0
000300 00 00 00 00 00 00 00 00 00 00 00 00 00 00 00 00
       0.0 0.0 0.0 0.0
000310 00 00 00 00 00 00 00 00 00 00 00 00 00 00 00 00
       0.0 0.0 0.0 0.0
000320 00 00 00 00 00 00 00 00 00 00 00 00 00 00 00 00
       0.0 0.0 0.0 0.0
000330 00 00 00 00 00 00 00 00 00 00 00 00 00 00 00 00
       0.0 0.0 0.0 0.0
000340 00 00 00 00 00 00 00 00 00 00 00 00 00 00 00 00
       0.0 0.0 0.0 0.0
000350 00 00 00 00 00 00 00 00 00 00 00 00 00 00 00 00
       0.0 0.0 0.0 0.0
000360 00 00 00 00 00 00 00 00 00 00 00 00 00 00 00 00
       0.0 0.0 0.0 0.0
000370 00 00 00 00 00 00 00 00 00 00 00 00 00 00 00 00
       0.0 0.0 0.0 0.0
000380 00 00 00 00 00 00 00 00 00 00 00 00 00 00 00 00
       0.0 0.0 0.0 0.0
000390 00 00 00 00 00 00 00 00 00 00 00 00 00 00 00 00
       0.0 0.0 0.0 0.0
0003a0 00 00 00 00 00 00 00 00 00 00 00 00 00 00 00 00
       0.0 0.0 0.0 0.0
0003b0 00 00 00 00 00 00 00 00 00 00 00 00 00 00 00 00
       0.0 0.0 0.0 0.0
0003c0 00 00 00 00 00 00 00 00 00 00 00 00 00 00 00 00
       0.0 0.0 0.0 0.0
0003d0 00 00 00 00 00 00 00 00 00 00 00 00 00 00 00 00
       0.0 0.0 0.0 0.0
0003e0 00 00 00 00 00 00 00 00 00 00 00 00 00 00 00 00
       0.0 0.0 0.0 0.0
0003f0 00 00 00 00 00 00 00 00 00 00 00 00 00 00 00 00
       0.0 0.0 0.0 0.0

exp_avg f4 [32]
000000 f2 12 94 b6 00 00 00 00 23 c7 89 36 a4 7b e0 b6
       -4.4129492e-06 0.0 4.1061007e-06 -6.690114e-06
000010 00 00 00 00 f6 fb 1c b7 5d 4e 3e 33 f5 84 38 b3
       0.0 -9.356989e-06 4.4309093e-08 -4.2961762e-08
000020 e9 8f 75 b5 25 fe 70 36 00 00 00 00 b4 d7 92 b3
       -9.147903e-07 3.5910718e-06 0.0 -6.837891e-08
000030 87 20 7c 34 6f ae 03 36 ab 3d 44 36 18 93 a5 35
       2.3481162e-07 1.9622055e-06 2.9242171e-06 1.2336268e-06
000040 db 4b a2 37 ba 8b d9 b6 00 00 00 00 e2 58 10 36
       1.9347228e-05 -6.4833703e-06 0.0 2.1509409e-06
000050 c9 99 a6 b6 89 67 40 b5 71 78 b7 b3 30 56 e0 b5
       -4.9650885e-06 -7.167624e-07 -8.54351e-08 -1.6714384e-06
000060 ee e3 4d b6 a2 6b 32 36 00 00 00 00 98 1b 74 b6
       -3.0680053e-06 2.6586717e-06 0.0 -3.6374895e-06
000070 f1 8f 80 34 00 00 00 00 a3 75 a5 b5 df 09 04 37
       2.394659e-07 0.0 -1.2327695e-06 7.870111e-06

exp_avg_sq f4 [32]
000000 63 3a f8 2b 00 00 00 00 86 03 98 2d 06 b8 16 2d
       1.7637665e-12 0.0 1.7281964e-11 8.567374e-12
000010 00 00 00 00 fb 66 18 2e 91 52 74 2c e5 75 99 2a
       0.0 3.4652264e-11 3.472032e-12 2.7260065e-13
000020 8d f0 14 2a 07 e8 e3 2b 00 00 00 00 a0 a3 ba 29
       1.3228498e-13 1.6193721e-12 0.0 8.288444e-14
000030 a2 15 17 28 66 f8 1a 2c 1c c9 7a 2c 6a 23 e7 2a
       8.386875e-15 2.2022605e-12 3.5638775e-12 4.1058416e-13
000040 0a 94 bd 2e ee 6f 18 2d 00 00 00 00 4d 10 7e 2d
       8.621022e-11 8.665053e-12 0.0 1.4441848e-11
000050 bd b8 a2 2c e2 a8 9e 2b 22 4e 64 27 02 58 6a 2b
       4.624827e-12 1.127345e-12 3.1683712e-15 8.3255635e-13
000060 c3 92 ce 2c 11 63 b7 2b 00 00 00 00 d7 6a 0a 2d
       5.871166e-12 1.3030429e-12 0.0 7.868115e-12
000070 d9 33 e0 28 00 00 00 00 f7 40 eb 2b d9 38 81 2d
       2.4891481e-14 0.0 1.6715786e-12 1.4690847e-11
