GPU/checkpoints_kpconv/kpconv_best_miou_0.2066.pth (torch, 529253 bytes, 32 tensors)

fc_in.weight f4 [16, 3]
-0.37641177 -0.03067333 -0.09541339 -0.048488773 0.44938356 -0.5377155 0.27568272 -0.101059325
-0.41288447 -0.22057009 0.23713836 0.24109238 0.15465578 0.4824971 0.12658352 -0.051248442
-0.1735829 0.39533204 -0.34406024 -0.5080667 0.4585359 -0.54320186 -0.15294598 0.45647314
0.5174826 0.45219585 0.3369652 -0.005678774 -0.19163182 -0.3943398 -0.4558605 -0.21132384
-0.0957397 -0.2510045 0.26199195 0.48224634 0.487986 -0.3684253 -0.2695605 0.32995683
-0.45015946 0.23166506 -0.56142384 -0.26672503 -0.33746865 -0.15712093 0.44818458 -0.46560743
00000000: 0bb9 c0be a346 fbbc 1868 c3bd 2a9c 46bd
00000010: 9a15 e63e b9a7 09bf 4926 8d3e 31f8 cebd
00000020: 9865 d3be 20dd 61be 66d4 723e ece0 763e
00000030: 165e 1e3e dc09 f73e 1c9f 013e e3e9 51bd
00000040: b7bf 31be f668 ca3e aa28 b0be a910 02bf
00000050: 38c5 ea3e 470f 0bbf df9d 1cbe d9b6 e93e
00000060: bd79 043f 3786 e73e b486 ac3e 0215 babb
00000070: 223b 44be e8e6 c9be 8c66 e9be 4765 58be
00000080: 2d13 c4bd a983 80be cf23 863e fee8 f63e
00000090: 4dd9 f93e 3ea2 bcbe d503 8abe 1af0 a83e
000000a0: 4d7b e6be 9b39 6d3e 79b9 0fbf 2f90 88be
000000b0: b1c8 acbe 4fe4 20be 7378 e53e 1964 eebe

fc_in.bias f4 [16]
-0.14441435 0.33031946 -0.4321113 0.36161405 0.33989254 -0.36376357 -0.17541096 0.45162496
0.4877002 0.40385118 0.25421605 0.003936444 0.12759303 0.3983542 0.5188325 -0.15574385
00000000: 5be1 13be a21f a93e b13d ddbe 7a25 b93e
00000010: 6506 ae3e 383f babe ee9e 33be 633b e73e
00000020: d7b3 f93e 95c5 ce3e 9b28 823e 49fd 803b
00000030: bfa7 023e 15f5 cb3e 35d2 043f 517b 1fbe

kpconv1.kernel_weights f4 [15, 16, 32]
-0.3104368 -0.62136173 0.7357046 0.3485811 -0.27829334 -0.3106786 0.49805176 -0.0713684
-0.23845127 0.7198369 -0.28526616 -0.030074803 -0.8639046 0.03302088 0.018468928 -0.12075458
0.22695817 -0.13495049 -0.48310155 -0.77710646 -0.03398524 0.53327143 -0.6983431 -0.06492978
0.63041854 -0.2822171 -0.6935122 -0.16408017 0.24232206 -0.34199968 0.24288045 -0.4256046
0.78995115 0.03781046 0.32732582 -0.06536403 0.1521412 -0.4600349 0.46302292 0.43366393
0.08470233 0.2107079 0.98595387 0.58019924 0.5762398 0.5382401 -0.21186835 -0.01959524
0.13503242 -0.5564759 0.3205942 -0.47170302 -0.027109403 0.276462 -0.46210945 -0.5841119
-0.040944915 -0.13794394 0.22508417 0.23155387 0.4599979 0.038054578 -0.16217488 0.21498983
-0.28241923 -0.49348623 0.40568057 0.326289 -0.121489145 0.030804865 -0.28808945 0.8699986
0.3399665 -0.030211007 -0.287621 0.40119576 0.24189873 -0.4379873 0.108691946 -0.092900164
0.22766718 -0.04630119 0.85278434 -0.26377553 0.21351086 0.27761173 0.01626251 -0.2461847
0.024677366 -0.7500374 -0.107447386 0.057394143 -0.19469447 0.0991008 0.062596716 0.8596851
-0.17682035 -0.45110548 0.11607297 -0.31330362 0.18022272 -0.39150232 -0.11230407 0.23631446
0.15996608 0.14175324 0.2878416 -0.23956384 -0.073270775 0.053914357 0.18290035 0.13187432
-0.20131104 0.023038903 -0.08164297 0.14166099 0.22874662 0.381311 0.408665 -0.44476527
0.31663907 0.12909254 0.14625521 -0.45260018 0.53398156 -0.20561007 0.040946577 -0.61950415
0.44246882 0.36652622 0.20222436 -0.7787459 0.67575544 -0.09087463 0.768708 0.21530989
0.03782168 -0.153339 -0.02416226 -0.36537042 -0.08250612 0.47315466 0.026285684 -0.05833829
0.30306268 0.0599836 0.0011204719 -0.06067054 -0.72231674 -0.052620523 0.34206668 -0.4548611
0.58074135 0.013369588 0.116253525 0.17477867 -0.65640926 0.016053742 -0.33781072 0.017196694
0.023384506 0.25541607 -0.20417683 -0.42405295 0.3549321 -0.5888541 -0.047848225 0.15532155
0.20565072 0.13570866 0.34659228 -0.7900919 0.14146745 -0.16048592 0.008162397 -0.62149334
-0.18200535 0.24019901 -1.1601158 0.51158726 0.21699305 0.44995573 0.19075331 0.5945635
0.35939074 0.31030187 0.6288032 -0.575279 -0.505939 0.5256088 -0.22207575 0.06564554
-0.1576571 -0.2557496 -0.34682631 -0.17701656 -0.07334445 0.9114771 0.23409018 0.60733527
0.8258841 -0.20180231 -0.4472173 0.2667895 -0.22091863 -0.14582627 -0.20928204 -0.22247885
-0.15709732 -0.3375412 0.048634253 -0.3873053 0.291388 -0.09556864 0.31595385 0.14585783
-0.40275466 0.20347814 0.11777387 -0.32227778 -0.042509954 -0.18449049 -0.41487727 -0.5159752
-0.20891744 -0.16332078 -0.39624688 0.1935142 -0.08935716 0.09340098 -0.39745 -0.03635704
-0.17238969 0.06878568 0.5053067 0.0017761333 -0.03743338 0.28662515 0.47739872 1.472174
-0.27316323 -0.3992814 -0.07412963 0.11964832 -0.3946871 0.28318363 -0.9100576 -0.028995603
-0.45520893 0.39705855 -0.15470634 -0.22088222 0.17213926 -0.22505717 0.3557709 -0.07016148
00000000: 92f1 9ebe 9011 1fbf 2357 3c3f 3979 b23e
00000010: 777c 8ebe 4411 9fbe a400 ff3e 9829 92bd
00000020: 922c 74be 3b47 383f 680e 92be 6f5f f6bc
00000030: da28 5dbf e740 073d 264c 973c 2d4e f7bd
00000040: b967 683e 7630 0abe 1659 f7be 73f0 46bf
00000050: 1b34 0bbd 7a84 083f 9dc6 32bf e8f9 84bd
00000060: 1c63 213f c27e 90be 048a 31bf a204 28be
00000070: 4623 783e 951a afbe a7b5 783e d9e8 d9be
00000080: 3d3a 4a3f 24df 1a3d 4097 a73e 94dd 85bd
00000090: e7ca 1b3e b289 ebbe 5711 ed3e 3309 de3e
000000a0: 6a78 ad3d d0c3 573e 7967 7c3f f087 143f
000000b0: 7484 133f 1aca 093f 04f4 58be 3286 a0bc
000000c0: f045 0a3e 3475 0ebf ec24 a43e 0f83 f1be
000000d0: 8a14 debc 6d8c 8d3e 9c99 ecbe 5c88 15bf
000000e0: dbb5 27bd 2d41 0dbe 777c 663e 751c 6d3e
000000f0: d884 eb3e 1edf 1b3d 2c11 26be 4b26 5c3e
00000100: 4199 90be 3aaa fcbe 5db5 cf3e 5a0f a73e
00000110: 4dcf f8bd 7c5a fc3c 7680 93be 3ab8 5e3f
00000120: 1710 ae3e 137d f7bc 0f43 93be 8869 cd3e
00000130: 4db4 773e df3f e0be e299 de3d 7142 bebd
00000140: 9621 693e 51a6 3dbd 1350 5a3f 960d 87be
00000150: 97a2 5a3e 2023 8e3e f538 853c d817 7cbe
00000160: 3028 ca3c 7302 40bf 600d dcbd 1f16 6b3d
00000170: fd5d 47be 5cf5 ca3d b532 803d 5314 5c3f
00000180: 6510 35be 4cf7 e6be aab7 ed3d 5569 a0be
00000190: 4e8c 383e fe72 c8be adff e5bd 6bfc 713e
000001a0: 26ce 233e c327 113e f95f 933e 3950 75be
000001b0: fd0e 96bd 4dd5 5c3d 3b4a 3b3e 100a 073e
000001c0: 7b24 4ebe 15bc bc3c 6e34 a7bd 940f 113e
000001d0: 8e3c 6a3e 323b c33e 8a3c d13e 46b8 e3be
000001e0: 841e a23e d630 043e edc3 153e 36bb e7be
000001f0: 04b3 083f 728b 52be 99b7 273d d397 1ebf
00000200: 468b e23e 53a9 bb3e e713 4f3e e45b 47bf
00000210: 4ffe 2c3f 7a1c babd 0cca 443f 327a 5c3e
00000220: e8ea 1a3d e604 1dbe efef c5bc d511 bbbe
00000230: f8f8 a8bd 5441 f23e 1355 d73c 21f4 6ebd
00000240: 082b 9b3e 5db1 753d ccdc 923a ac81 78bd
00000250: c0e9 38bf 9e88 57bd 5d23 af3e 8ee3 e8be
00000260: 77ab 143f 1e0c 5b3c 5416 ee3d 2ef9 323e
00000270: 700a 28bf 2383 833c 87f5 acbe 15e0 8c3c
00000280: dd90 bf3c e5c5 823e bb13 51be 781d d9be
00000290: a9b9 b53e 24bf 16bf 80fc 43bd 9d0c 1f3e
000002a0: 1a96 523e 36f7 0a3e 8b74 b13e 7643 4abf
000002b0: d8dc 103e 6c56 24be 93bb 053c 301a 1fbf
000002c0: 9c5f 3abe bbf6 753e ad7e 94bf 62f7 023f
000002d0: 6d33 5e3e 9960 e63e d654 433e 5035 183f
000002e0: 1002 b83e e3df 9e3e 3ff9 203f 7c45 13bf
000002f0: 3885 01bf 4c8e 063f d367 63be 2b71 863d
00000300: dd70 21be 9df1 82be 3893 b1be d443 35be
00000310: 9d35 96bd 9056 693f 56b5 6f3e 537a 1b3f
00000320: 246d 533f 44a5 4ebe aaf9 e4be a298 883e
00000330: 7e38 62be 7b53 15be 084e 56be 7fd1 63be
00000340: 1fde 20be 33d2 acbe b634 473d e14c c6be
00000350: cf30 953e 7eb9 c3bd b4c4 a13e c15b 153e
00000360: dc35 cebe 935c 503e 6d33 f13d 9801 a5be
00000370: eb1e 2ebd 13eb 3cbe cb6a d4be f316 04bf
00000380: 74ee 55be 903d 27be dfe0 cabe 9628 463e
00000390: e300 b7bd 0349 bf3d 917e cbbe 1feb 14bd
000003a0: ec86 30be 82df 8c3d c85b 013f 25cd e83a
000003b0: be53 19bd 88c0 923e 9b6d f43e 3370 bc3f
000003c0: 0ddc 8bbe 9d6e ccbe 47d1 97bd 2e0a f53d
000003d0: 6d14 cabe 72fd 903e 89f9 68bf 3088 edbc
000003e0: 2511 e9be 424b cb3e 576b 1ebe f32e 62be
000003f0: 4645 303e 6375 66be 9a27 b63e d2b0 8fbd

kpconv1.bias f4 [32]
0.0043455125 -0.0041152122 -0.006748588 0.004580487 0.0018184572 -0.0062445737 -0.0019918848 -0.0014342195
-0.004386515 -0.0025151512 -0.0066544 0.0 -0.002126264 0.0030347747 -0.0043378063 0.0
0.00097179145 -0.0020855172 -0.0034883474 -0.00013420983 0.0014032915 0.0022366736 -0.005133137 0.0039151637
-0.00022769156 0.004367899 0.0003445568 -0.006147404 0.004134836 0.0042919675 -0.0094783055 0.0
00000000: cd64 8e3b e7d8 86bb 4223 ddbb e917 963b
00000010: 4c59 ee3a 489f ccbb 488a 02bb 6cfc bbba
00000020: c1bc 8fbb 3cd5 24bb 270d dabb 0000 0000
00000030: ca58 0bbb 12e3 463b 2824 8ebb 0000 0000
00000040: d2bf 7e3a 2cad 08bb c29c 64bb adba 0cb9
00000050: a6ee b73a 2895 123b e033 a8bb c64a 803b
00000060: 7dc0 6eb9 9820 8f3b a2a5 b439 2a70 c9bb
00000070: 857d 873b a2a3 8c3b e54a 1bbc 0000 0000

kpconv1.kernel_points f4 [15, 3]
0.113275275 -0.09716889 -0.08349987 0.16414046 0.20136341 0.35841468 0.00062236097 -0.0026577357
0.008839992 0.17048669 0.11145935 -0.3867257 -0.0063917334 -0.00010942219 -0.003876759 0.0012225547
-0.0030529452 -0.0024147513 -0.03169749 -0.09662971 0.10754786 0.24966027 0.29184434 0.22011964
0.12149976 -0.11387112 0.11376592 -0.019709086 0.08720083 0.09334128 0.2639366 -0.14400914
-0.09038301 0.02001045 0.023516145 0.07849667 0.27911714 -0.08858616 0.081098944 -0.0052713556
-0.003185994 -0.0020980372 -0.19885138 -0.07286354 0.12424089
00000000: defc e73d 7c00 c7bd fb01 abbd 7014 283e
00000010: 3632 4e3e 2182 b73e f025 233a 682d 2ebb
00000020: 9dd5 103c 1094 2e3e cd44 e43d e900 c6be
00000030: bf71 d1bb 9779 e5b8 3911 7ebb 213e a03a
00000040: ec13 48bb ce40 1ebb 3ad5 01bd cce5 c5bd
00000050: 0d42 dc3d f1a6 7f3e 9f6c 953e 0b67 613e
00000060: ded4 f83d 4335 e9bd 1bfe e83d f374 a1bc
00000070: 5996 b23d b729 bf3d b322 873e 2277 13be
00000080: ba1a b9bd f5ec a33c eea4 c03c ddc2 a03d
00000090: 71e8 8e3e a96c b5bd 3417 a63d 56bb acbb
000000a0: 1ccc 50bb 397f 09bb b29f 4bbe 7b39 95bd
000000b0: 0272 fe3d

kpconv2.kernel_weights f4 [15, 32, 64]
0.1752351 0.26494357 0.41390702 -0.018893076 0.24855731 0.00017681014 0.047321822 0.75757784
0.14851525 0.13046771 0.20046197 0.14937979 -0.17434995 0.23717746 -0.32049078 -0.018277904
-0.22215469 0.30457672 0.1684858 -0.23281564 0.27654564 -0.12422467 0.038346883 -0.2973802
-0.33851776 -0.30492052 -0.4035663 0.5018547 0.1630878 -0.23597175 0.11892759 0.027407281
-0.30008477 -0.11905089 -0.043605104 -0.27418908 -0.21721892 -0.24134538 0.05873665 -0.3010578
0.5666418 -0.066445366 0.33633742 -0.049018703 0.19696662 -0.32248688 0.04700539 0.13329396
0.11180176 -0.1814233 -0.04902045 0.37806505 0.24828629 -0.011184654 0.33349144 0.2290917
-0.13528617 -0.027964568 0.32998917 0.36505437 0.48926952 0.107124716 -0.32019928 -0.1014876
-0.25878897 -0.08928598 0.26878613 -0.089837424 -0.0032342577 0.0010480547 -0.27459863 -0.42080078
-0.009772374 0.32934424 -0.10265965 -0.31982487 0.30529115 0.27071136 0.63647467 -0.2917643
-0.099566236 -0.02671698 0.18595263 -0.14226423 0.45508835 -0.30475903 -0.3321591 0.35119703
-0.2930139 0.30286932 0.29113817 -0.33190075 -0.010607692 0.0979873 -0.16701214 0.15604407
0.3034957 -0.2673 0.0871762 0.23075034 0.010854784 0.05822531 0.06537397 -0.2932114
0.089371614 -0.010069986 0.063701 0.009104277 -0.07170811 -0.1557616 -0.24569336 -0.054373
-0.46874025 0.268809 -0.08005831 0.2443966 -0.08092509 -3.845629e-05 -0.11778233 0.10773932
-0.19548687 0.47224256 -0.28645036 -0.33933294 -0.03929643 -0.13254039 -0.45003447 -0.28669378
-0.22580932 -0.40961182 -0.020105656 0.04803752 -0.38683793 -0.11883383 0.22020999 0.5048578
0.335686 -0.6140281 -0.3437071 -0.061861474 0.01717255 0.0718573 0.42831036 0.076412655
0.29995522 -0.11009062 0.09896595 -0.17424402 0.071859695 -0.33139607 0.34069714 -0.47843888
0.1968348 0.020881066 0.13932769 -0.0014287491 -0.03330354 -0.019511053 0.041322872 0.35494146
-0.002703454 0.23625152 -0.051177755 0.4509756 0.045253593 0.055588804 -0.18906952 -0.027094817
-0.28608087 0.07790452 0.00968762 0.061587103 -0.08659661 -0.5549361 -0.37813458 -0.24981304
-0.035483427 0.45634207 -0.088236056 0.1418821 -0.28962794 0.28086987 -0.3153109 -0.37358922
0.20502637 0.05664799 0.1853942 -0.03632773 -0.17694488 0.03614901 0.083507545 -0.38884583
-0.010347946 0.07352572 -0.27413884 0.09741092 -0.056016453 -0.023311451 -0.016000966 -0.38313144
0.00017535075 -0.2916407 0.21849056 0.29498273 -0.25776657 -0.3297212 -0.009582168 0.3662953
-0.21325114 0.41051573 0.30071858 0.13370429 -0.26090375 0.22204784 -0.15234222 -0.13588294
-0.25520965 0.10322933 0.2870817 0.22739968 -0.08886858 0.09163565 0.08616326 -0.024049455
-0.093653865 -0.38652176 0.3472718 -0.20098233 -0.25312173 -0.44557226 -0.2918106 -0.21454683
0.019818421 0.24922937 0.1650584 -0.029382128 -0.027172584 -0.24545093 -0.10656396 0.13471942
0.0051177405 -0.47120228 -0.3297405 -0.26023886 0.21612974 0.15594253 -0.09515044 0.19613175
0.40878955 0.32769063 0.1373499 -0.32283846 0.03315015 -0.0894608 -0.19073837 0.09901179
00000000: d470 333e afa6 873e 9feb d33e a7c5 9abc
00000010: cf85 7e3e 1c66 3939 87d4 413d 9ff0 413f
00000020: 6214 183e 5499 053e e745 4d3e 04f7 183e
00000030: cb88 32be a6de 723e 5e17 a4be 8bbb 95bc
00000040: 857c 63be 7bf1 9b3e 8b87 2c3e 3967 6ebe
00000050: 6497 8d3e 8169 febd 9f11 1d3d 3842 98be
00000060: 3352 adbe 8b1e 9cbe 3ea0 cebe 8d79 003f
00000070: 7d00 273e 94a2 71be 4f90 f33d 3c85 e03c
00000080: b6a4 99be f4d0 f3bd 449b 32bd 8362 8cbe
00000090: a36e 5ebe 3e23 77be d795 703d 3f24 9abe
000000a0: 700f 113f 8214 88bd 6b34 ac3e d6c7 48bd
000000b0: 9eb1 493e 001d a5be b988 403d 367e 083e
000000c0: 52f8 e43d 08c7 39be abc9 48bd be91 c13e
000000d0: c33e 7e3e d73f 37bc 64bf aa3e 0497 6a3e
000000e0: 7588 0abe f315 e5bc 57f4 a83e 68e8 ba3e
000000f0: 8981 fa3e 3464 db3d 29f1 a3be bbd8 cfbd
00000100: fd7f 84be 91db b6bd 569e 893e affc b7bd
00000110: d7f5 53bb e15e 893a 3198 8cbe 3373 d7be
00000120: 4f1c 20bc cf9f a83e 393f d2bd 16c0 a3be
00000130: 1f4f 9c3e ae9a 8a3e 01f0 223f 2162 95be
00000140: 62e9 cbbd 91dd dabc 5e6a 3e3e b7ad 11be
00000150: 5701 e93e 6009 9cbe c210 aabe 19d0 b33e
00000160: eb05 96be b011 9b3e 1010 953e e5ee a9be
00000170: e3cb 2dbc 91ad c83d 3b05 2bbe 04ca 1f3e
00000180: ca63 9b3e 8cdb 88be 6f89 b23d d149 6c3e
00000190: 44d8 313c aa7d 6e3d cae2 853d ce1f 96be
000001a0: 7708 b73d 95fc 24bc ab75 823d 1b2a 153c
000001b0: b4db 92bd f87f 1fbe 0a97 7bbe 39b6 5ebd
000001c0: b9fe efbe 55a1 893e 9cf5 a3bd 1a43 7a3e
000001d0: 0ebc a5bd 214c 21b8 dd37 f1bd 6fa6 dc3d
000001e0: b62d 48be c7c9 f13e 9fa9 92be 0cbd adbe
000001f0: 4bf5 20bd abb8 07be eb6a e6be 87c9 92be
00000200: 8f3a 67be a4b8 d1be 9eb4 a4bc fec2 443d
00000210: 9f0f c6be 275f f3bd ba7e 613e 5c3e 013f
00000220: 09df ab3e f230 1dbf 61fa afbe 7562 7dbd
00000230: 73ad 8c3c ec29 933d 7f4b db3e 3d7e 9c3d
00000240: bb93 993e 3177 e1bd a9ae ca3d 066d 32be
00000250: 2d2b 933d bfac a9be db6f ae3e f1f5 f4be
00000260: 108f 493e c50e ab3c ebab 0e3e dd44 bbba
00000270: 4b69 08bd a5d5 9fbc 2c42 293d e3ba b53e
00000280: 6f2c 31bb ebeb 713e c49f 51bd 46e6 e63e
00000290: d55b 393d 16b1 633d 719b 41be f3f5 ddbc
000002a0: 3179 92be 688c 9f3d d3b8 1e3c c242 7c3d
000002b0: 9059 b1bd 4b10 0ebf db9a c1be fdce 7fbe
000002c0: 1257 11bd aba5 e93e 1bb5 b4bd 8b49 113e
000002d0: 1d4a 94be 2dce 8f3e 6e70 a1be 1647 bfbe
000002e0: 6ff2 513e b907 683d fad7 3d3e 63cc 14bd
000002f0: 0a31 35be fc10 143d 0106 ab3d cd16 c7be
00000300: 6e8a 29bc a794 963d ed5b 8cbe 607f c73d
00000310: 8271 65bd a8f7 bebc 7514 83bc ce29 c4be
00000320: 5cde 3739 ee51 95be fdbb 5f3e fa07 973e
00000330: fbf9 83be 38d1 a8be 87fe 1cbc 0f8b bb3e
00000340: 825e 5abe 1e2f d23e c9f7 993e c7e9 083e
00000350: 2d95 85be 8260 633e 99ff 1bbe e624 0bbe
00000360: d7aa 82be e669 d33d 5ffc 923e 76db 683e
00000370: bb00 b6bd 79ab bb3d 5d76 b03d 5d03 c5bc
00000380: 99cd bfbd 2ee6 c5be 9ccd b13e 50ce 4dbe
00000390: 2c99 81be 0c22 e4be 3368 95be 2ab2 5bbe
000003a0: 3e5a a23c fc35 7f3e 1205 293e cab2 f0bc
000003b0: 0a99 debc 7d57 7bbe 353e dabd e3f3 093e
000003c0: b8b2 a73b 6d41 f1be bfd3 a8be 073e 85be
000003d0: 1d51 5d3e 66af 1f3e 3cde c2bd c3d6 483e
000003e0: dd4c d13e 11c7 a73e 74a5 0c3e 154b a5be
000003f0: 74c8 073d 3937 b7bd eb50 43be b1c6 ca3d

kpconv2.bias f4 [64]
-0.0073783207 -0.00030977448 -0.0062831766 0.005722654 0.0 -0.0050952747 0.0014283228 -0.0025457523
-0.00011183598 0.0 -0.0013441958 0.0 0.008449266 -0.006375358 -0.0027613787 0.00019287404
-0.002563382 -0.0064513804 -0.0019509644 -0.0048181713 -0.0071351067 0.00605241 -0.005423922 0.0038465778
-0.001300858 0.0 0.0037124061 0.0022265029 -0.0032191626 0.0039451267 0.0 -0.00966127
0.0063569015 -0.0050805006 0.0077165496 0.0059535326 0.0025509985 -0.0072830617 -0.00526478 -0.009482067
-0.000157664 -0.0060912366 0.0069771875 0.009493128 0.010033432 0.0020204517 0.0 -0.00083236705
0.0 0.0051219077 0.0063268505 0.00013245248 -0.0063587986 0.0029518022 -0.0022371984 0.0011853024
0.0031392484 0.0032334165 -0.0005196799 -0.0037853548 -0.0059723537 0.0 -0.0067677335 0.007600869
00000000: d7c5 f1bb 3a69 a2b9 1be3 cdbb 1a85 bb3b
00000010: 0000 0000 43f6 a6bb 8f36 bb3a a3d6 26bb
00000020: 7c89 eab8 0000 0000 ba2f b0ba 0000 0000
00000030: ca6e 0a3c 61e8 d0bb 3ff8 34bb 3b3e 4a39
00000040: 6afe 27bb 1a66 d3bb 81b7 ffba c0e1 9dbb
00000050: 9dcd e9bb 4c53 c63b 28bb b1bb de16 7c3b
00000060: 8d81 aaba 0000 0000 d74b 733b 85ea 113b
00000070: 96f8 52bb 1f46 813b 0000 0000 4e4a 1ebc
00000080: 8e4d d03b 547a a6bb 1cdb fc3b da15 c33b
00000090: a72e 273b c0a6 eebb 2d84 acbb ac5a 1bbc
000000a0: 9c52 25b9 ff98 c7bb e4a0 e43b 1189 1b3c
000000b0: 4463 243c 8e69 043b 0000 0000 3533 5aba
000000c0: 0000 0000 add5 a73b 7851 cf3b f1e2 0a39
000000d0: 785d d0bb 0673 413b f69d 12bb 265c 9b3a
000000e0: d9bb 4d3b bae7 533b 213b 08ba b713 78bb
000000f0: bcb3 c3bb 0000 0000 ddc3 ddbb b610 f93b

kpconv2.kernel_points f4 [15, 3]
0.0021408522 -0.04998998 -0.09961544 -0.06723584 0.13239308 0.16870277 -0.17621416 -0.11955037
-0.0048918645 -0.7122064 0.21254562 0.00162409 -0.12616007 0.12211016 -0.11442119 -0.16523357
-0.1724593 -0.04269221 0.09043481 0.075265065 0.20029417 0.10917317 -0.52286917 0.17114998
0.10950262 0.50088537 0.61165386 0.36001286 0.54201484 0.17961815 -0.07938618 -0.0816569
-0.058021795 0.504113 0.48898715 0.3040654 -0.5458329 0.41577527 -0.049778733 -0.6811496
0.1907598 -0.17570181 -0.097017944 0.18411736 -0.01793073
00000000: 8a4d 0c3b 4bc2 4cbd 2e03 ccbd f2b2 89bd
00000010: 0d92 073e 6bc0 2c3e 7c71 34be d3d6 f4bd
00000020: ef4b a0bb 2953 36bf 8fa5 593e 6bdf d43a
00000030: 1b30 01be e414 fa3d a855 eabd fd32 29be
00000040: 2c99 30be 07de 2ebd e335 b93d 9224 9a3d
00000050: ea19 4d3e 2f96 df3d c1da 05bf f141 2f3e
00000060: e942 e03d 063a 003f 5995 1c3f 9b53 b83e
00000070: 7cc1 0a3f d2ed 373e 3995 a2bd bc3b a7bd
00000080: 43a8 6dbd 8d0d 013f 865c fa3e 76ae 9b3e
00000090: b4bb 0bbf 7fe0 d43e c9e4 4bbd d25f 2ebf
000000a0: 8956 433e 2deb 33be 58b1 c6bd 4389 3c3e
000000b0: 77e3 92bc

fc_mid.weight f4 [64, 64]
0.119139984 0.038782224 -0.119222045 -0.008038178 -0.011378825 -0.0781751 -0.0829221 0.06852606
0.032476902 -0.028454497 -0.037718654 -0.007193342 0.009751976 0.1093889 -0.071401775 -0.003243044
0.023747534 -0.07975832 -0.047525167 0.097516954 -0.11653073 -0.027416319 0.08857666 0.07772781
0.11786692 -0.0924328 -0.110834226 0.07437879 0.09049229 0.019302845 -0.0044285953 -0.04496132
0.01579927 0.030407786 -0.011055201 -0.08350679 0.10055345 -0.05869502 -0.03894669 0.085122675
-0.05609308 0.047305465 -0.035113603 0.020385414 -0.0051283985 0.12301847 -0.00435929 0.015681297
0.009067252 -0.093138695 0.0024770498 -0.110016465 -0.038719714 0.068667024 0.08790767 -0.10751733
-0.038727805 0.030468762 0.055320725 0.0070609003 -0.0031048208 0.11104001 0.08008118 -0.10327493
-0.020260736 -0.00038187206 0.09019464 0.014619663 0.038778767 -0.0104825795 -0.048771977 0.07332495
-0.05585836 0.113640785 -0.08023924 0.10540451 0.111305594 -0.081969544 0.119761676 0.10770433
-0.08378933 0.045740977 -0.013139337 -0.073520154 0.018146291 0.050163552 -0.08583799 -0.057636335
-0.024231657 -0.029098108 0.02949752 0.09068143 -0.024820715 0.04697202 0.102004394 0.08012624
0.070328385 -0.0071451366 -0.097224906 0.015708461 0.09551492 -0.04145111 -0.07919517 0.08947499
0.043118596 0.027025715 0.10846563 0.05753608 -0.06592806 0.035659835 -0.014655113 -0.08358061
-0.11010137 -0.11492577 -0.01988405 -0.032994106 -0.07106273 0.087147325 -0.054770008 0.120985866
-0.10886648 0.03415616 0.08542095 -0.03140849 0.09451477 -0.05325228 -0.056411028 -0.069587424
-0.017408326 -0.12193866 -0.040370643 0.07257424 0.11517581 -0.05153781 0.1245693 -0.07509801
-0.05199568 0.02793637 0.090329096 -0.09072654 -0.072821856 0.08491452 0.013246015 -0.037778825
0.054182634 0.10318035 -0.06031786 -0.018461898 0.07531759 -0.0182378 0.07005264 -0.013742849
0.029820979 0.10228221 -0.005447775 0.07521182 0.09891452 -0.062415063 0.03141138 -0.032645673
0.011627346 0.122838944 -0.10321611 0.048870414 0.080868274 -0.008104533 -0.10524079 -0.030468404
-0.08625202 -0.0968004 0.123408765 0.027522385 -0.10405028 -0.044616863 -0.042344257 0.04861191
0.07720715 0.054108053 -0.0617864 0.029712379 0.08015397 -0.09869188 -0.029681861 0.00911063
0.115048334 0.072723344 -0.06396796 0.0711007 0.06827079 -0.057760864 0.07644799 -0.03062576
-0.07533084 -0.020482406 0.013826013 0.04727529 -0.03406492 -0.031104207 -0.08257815 -0.016635418
-0.06920251 0.0867122 0.09857835 0.015832573 -0.085906476 -0.08737652 -0.016847745 -0.09994386
-0.101980254 -0.046171665 0.027301043 -0.07322277 -0.02201949 -0.0880318 -0.09300649 0.11281599
-0.035012215 0.02182129 0.124903604 -0.04024376 -0.04766743 -0.04991147 -0.000748381 0.098393366
0.052526385 0.068516865 -0.06903915 -0.07115497 -0.063378036 0.09755474 0.036401406 -0.051549837
0.044270456 0.1114845 0.07517488 -0.08178575 -0.019610658 -0.050178632 -0.013324559 -0.07199776
0.031131566 -0.10334097 0.050298646 -0.02671653 -0.055428803 0.099130526 0.0029866546 -0.017981216
-0.030183017 -0.09733896 0.023397356 -0.01741743 -0.09988248 -0.108175844 0.09693687 0.08733502
00000000: aaff f33d 1cda 1e3d b02a f4bd 90b2 03bc
00000010: 406e 3abc 441a a0bd 10d3 a9bd 6457 8c3d
00000020: 8006 053d 6819 e9bc e07e 1abd 20b6 ebbb
00000030: c0c6 1f3c 4a07 e03d 183b 92bd 4089 54bb
00000040: 308a c23c 5458 a3bd c0a9 42bd f8b6 c73d
00000050: aaa7 eebd 3098 e0bc ae67 b53d c22f 9f3d
00000060: 3664 f13d 684d bdbd 0efd e2bd e853 983d
00000070: 0654 b93d 0021 9e3c c01d 91bb 5c29 38bd
00000080: 786d 813c c019 f93c e020 35bc 9c05 abbd
00000090: f8ee cd3d 306a 70bd 9086 1fbd cc54 ae3d
000000a0: dcc1 65bd 60c3 413d 48d3 0fbd 50ff a63c
000000b0: 200c a8bb 1cf1 fb3d 60d8 8ebb 1076 803c
000000c0: d08e 143c 80bf bebd 0056 223b 5050 e1bd
000000d0: 9098 1ebd 4ca1 8c3d f008 b43d 0c32 dcbd
000000e0: 0ca1 1ebd a099 f93c fc97 623d 205f e73b
000000f0: 407a 4bbb f268 e33d 9a01 a43d ce81 d3bd
00000100: d8f9 a5bc 0036 c8b9 f8b7 b83d 5087 6f3c
00000110: 7cd6 1e3d 20bf 2bbc 20c5 47bd 642b 963d
00000120: bccb 64bd 80bc e83d 7854 a4bd 52de d73d
00000130: 30f4 e33d a6df a7bd 9c45 f53d 1694 dc3d
00000140: be99 abbd e45a 3b3d 6046 57bc bc91 96bd
00000150: 88a7 943c 4c78 4d3d d4cb afbd 1414 6cbd
00000160: 7881 c6bc 285f eebc c8a4 f13c 30b7 b93d
00000170: d054 cbbc bc65 403d aee7 d03d 3a19 a43d
00000180: 5408 903d c021 eabb da1d c7bd 08af 803c
00000190: 549d c33d a4c8 29bd 1431 a2bd aa3e b73d
000001a0: 209d 303d 0865 dd3c 3a23 de3d f4aa 6b3d
000001b0: 4a05 87bd 0c10 123d 001c 70bc 502c abbd
000001c0: d47c e1bd 345e ebbd e0e3 a2bc d424 07bd
000001d0: 5689 91bd 4c7a b23d 8456 60bd 70c7 f73d
000001e0: 64f5 debd 54e7 0b3d 2ef1 ae3d 30a6 00bd
000001f0: f690 c13d 101f 5abd 400f 67bd da83 8ebd
00000200: e89b 8ebc faba f9bd b05b 25bd cea1 943d
00000210: 4ce1 eb3d 5019 53bd 301e ff3d fccc 99bd
00000220: 6cf9 54bd d0da e43c 76fe b83d d6ce b9bd
00000230: a023 95bd aae7 ad3d d005 593c f8bd 1abd
00000240: 9cee 5d3d 3850 d33d dc0f 77bd 683d 97bc
00000250: 1c40 9a3d 7067 95bc c277 8f3d b029 61bc
00000260: 204b f43c 5679 d13d 4083 b2bb a808 9a3d
00000270: b293 ca3d f0a6 7fbd 38a9 003d 78b7 05bd
00000280: a080 3e3c fc92 fb3d f862 d3bd 582c 483d
00000290: 449e a53d e0c8 04bc 7c88 d7bd e098 f9bc
000002a0: e6a4 b0bd 4a3f c6bd bcbd fc3d a076 e13c
000002b0: 5018 d5bd 2cc0 36bd 2c71 2dbd 481d 473d
000002c0: c81e 9e3d 68a0 5d3d bc13 7dbd 6067 f33c
000002d0: c427 a43d f81e cabd 6027 f3bc c044 153c
000002e0: 769e eb3d faef 943d a201 83bd 3e9d 913d
000002f0: 8ed1 8b3d a896 6cbd c490 9c3d e0e2 fabc
00000300: 0e47 9abd b8ca a7bc 8086 623c bca3 413d
00000310: a887 0bbd 40ce febc bc1e a9bd 0047 88bc
00000320: 0cba 8dbd 2a96 b13d 72e3 c93d 50b3 813c
00000330: bcef afbd 76f2 b2bd 4804 8abc 5eaf ccbd
00000340: 06db d0bd 801e 3dbd 70a6 df3c d2f5 95bd
00000350: 3862 b4bc 044a b4bd 307a bebd 120c e73d
00000360: f868 0fbd 90c2 b23c 76cd ff3d a4d6 24bd
00000370: ec3e 43bd f86f 4cbd 002f 44ba 7682 c93d
00000380: e825 573d 9252 8c3d 6664 8dbd b2b9 91bd
00000390: 58cc 81bd c8ca c73d a419 153d ec25 53bd
000003a0: f054 353d fc51 e43d 4af5 993d 4a7f a7bd
000003b0: 88a6 a0bc 1c88 4dbd 404f 5abc 9073 93bd
000003c0: a007 ff3c 6ea4 d3bd f405 4e3d a0dc dabc
000003d0: 5009 63bd f204 cb3d c0bb 433b 584d 93bc
000003e0: 6042 f7bc a659 c7bd d0ab bf3c 00af 8ebc
000003f0: 308f ccbd 4c8b ddbd d686 c63d b4dc b23d

fc_mid.bias f4 [64]
-0.043876022 -0.093294576 -0.08630887 0.0037436187 -0.082334146 0.039150447 -0.10996106 0.048219588
0.056743883 -0.0890989 -0.1071907 -0.07437104 0.121143766 0.106216945 -0.05260068 0.039047476
0.01366977 0.0032420803 0.03259717 0.09842991 -0.09764324 -0.098861694 0.12959856 0.070511065
-0.008908257 0.040723424 0.10099503 -0.06956999 0.058814045 -0.057595998 -0.029084325 0.098274805
0.0101218475 -0.005030766 -0.11306159 0.060345165 0.035713766 0.013536977 -0.0006173163 0.04521735
-0.074027255 0.062400796 0.043565173 -0.09866847 0.037335165 0.032201998 0.11023345 0.07249447
0.053047746 0.11651841 0.010726804 -0.08401951 0.017139075 -0.020070314 -0.06350541 -0.1228991
-0.001641156 -0.026251093 -0.04300198 0.11036311 -0.10946903 -0.03237264 0.06980973 0.018863153
00000000: 58b7 33bd 3a11 bfbd b4c2 b0bd 8057 753b
00000010: ce9e a8bd 385c 203d 4433 e1bd e781 453d
00000020: 466c 683d 7c79 b6bd cc86 dbbd d84f 98bd
00000030: 391a f83d 4588 d93d d073 57bd 3ff0 1f3d
00000040: 2cf7 5f3c 1579 543b 9c84 053d 9f95 c93d
00000050: 2ef9 c7bd 0078 cabd 7cb5 043e 1b68 903d
00000060: f0f3 11bc 9bcd 263d 7bd6 ce3d b67a 8ebd
00000070: ffe6 703d c8e9 6bbd 4042 eebc 4d44 c93d
00000080: 1bd6 253c 20d9 a4bb d68c e7bd 7e2c 773d
00000090: 9948 123d 32ca 5d3c 65d3 21ba d435 393d
000000a0: 9a9b 97bd fa97 7f3d 6571 323d b212 cabd
000000b0: c2ec 183d 3ee6 033d 13c2 e13d fb77 943d
000000c0: 9848 593d 34a1 ee3d 7abf 2f3c 6c12 acbd
000000d0: 3f67 8c3c 806a a4bc 200f 82bd 86b2 fbbd
000000e0: 0f1c d7ba 880c d7bc d822 30bd 0e06 e23d
000000f0: 4c31 e0bd 2c99 04bd 67f8 8e3d e686 9a3c

fc_out.weight f4 [3, 64]
-0.04896897 0.008975238 -0.032171607 0.07904753 0.10007729 -0.063106745 0.09519872 0.0719929
0.0024777292 -0.12424132 0.05756846 -0.076391086 -0.10747528 -0.07908441 0.049595326 -0.11485362
-0.11938557 -0.11643216 0.066835076 -0.036367424 0.10404459 0.09691867 -0.11365102 0.094309844
0.00087314844 0.03137943 0.113071375 -0.11263551 -0.026251955 0.05647503 -0.11850001 -0.05254042
0.03698255 -0.1134893 0.0223725 0.081304714 -0.116303034 0.1054868 0.101357885 0.06551241
-0.03964269 -0.011290468 0.09376996 -0.07515755 -0.10153287 0.0009404879 0.037000097 -0.113194324
-0.003072983 -0.06880937 -0.055406895 -0.12085347 -0.107631996 0.06651454 0.025851712 0.11747119
0.089143194 0.010681391 0.021830007 0.027541323 0.10909094 0.065656245 0.05036969 -0.09297413
-0.027043238 0.05451183 0.021942422 0.07478787 0.030767605 0.034928635 0.12394859 -0.03070008
0.021922614 -0.09000069 0.06146443 0.060836464 -0.105048895 0.12520471 -0.011112377 -0.07158458
0.03918695 -0.049657714 0.071599275 0.05064641 0.0444676 -0.035418555 0.11638554 0.12877737
-0.030877873 0.03418734 0.025396997 -0.10588452 -0.016645558 0.09373097 0.0069954097 -0.05245696
-0.07478991 -0.06186126 0.1023092 -0.06002095 0.12349477 -0.07768437 -0.0034216542 -0.009846173
-0.10571067 0.018906891 0.04727025 0.028324887 -0.075302646 0.0393547 0.083559446 -0.088031806
0.00011781324 -0.09099627 0.12546423 -0.094123036 0.04216391 -0.07909763 -0.07897861 -0.017281264
0.06769611 -0.049208596 0.09501891 -0.057435393 0.09308736 -0.026454315 -0.059717897 0.12016911
0.083530426 0.08145897 -0.0859023 0.052398473 0.09188518 -0.094649665 0.117817685 0.065689296
-0.112500004 0.12467721 0.009426624 -0.10862963 0.08056962 -0.05802692 0.09272918 -0.044163033
0.10686042 0.1199186 0.04847305 0.0656829 -0.09479511 -0.08788726 -0.044787444 0.058784965
-0.119139 0.09702418 -0.049372453 0.06855652 0.008142593 0.11896044 0.05289492 0.00053968705
-0.056164213 -0.024651274 0.025851637 0.115130305 -0.1269017 0.088273935 0.08660738 -0.05297602
-0.10821478 0.03658559 0.03403634 -0.11673558 -0.09088242 -0.051554184 0.027787248 0.08854759
-0.09340037 -0.019769872 -0.07565187 -0.033866435 0.02048516 -0.049249187 0.05885999 -0.09929842
-0.068284586 0.12194589 -0.116794825 -0.0203101 0.107486546 0.005073473 0.05742702 -0.038270775
00000000: b093 48bd e00c 133c 60c6 03bd ace3 a13d
00000010: 52f5 cc3d 1c3e 81bd 8cf7 c23d 0371 933d
00000020: 6661 223b 3c72 febd e8cc 6b3d ee72 9cbd
00000030: 001c dcbd 02f7 a1bd 7824 4b3d 6038 ebbd
00000040: 6c80 f4bd fc73 eebd d4e0 883d 02f6 14bd
00000050: 5415 d53d 4c7d c63d dec1 e8bd 8525 c13d
00000060: 00e4 643a b887 003d f791 e73d 72ad e6bd
00000070: 570e d7bc 5c52 673d 22b0 f2bd a034 57bd
00000080: 047b 173d 146d e8bd 8846 b73c 1683 a63d
00000090: 4930 eebd 7709 d83d b994 cf3d 5f2b 863d
000000a0: 6060 22bd a8fb 38bc 770a c03d 34ec 99bd
000000b0: 77f0 cfbd 138b 763a 6a8d 173d 6dd2 e7bd
000000c0: 1964 49bb edeb 8cbd 57f2 62bd 0682 f7bd
000000d0: 2a6e dcbd c638 883d f8c6 d33c bc94 f03d
000000e0: b590 b63d 0001 2f3c d8d4 b23c 579e e13c
000000f0: 126b df3d c876 863d 7350 4e3d 3869 bebd
00000100: c889 ddbc cc47 5f3d 98c0 b33c 622a 993d
00000110: 580c fc3c 5411 0f3d c2d8 fd3d bc7e fbbc
00000120: 0e97 b33c 4852 b8bd 20c2 7b3d a82f 793d
00000130: e023 d7bd aa35 003e b010 36bc f09a 92bd
00000140: 7f82 203d e365 4bbd a4a2 923d 9c72 4f3d
00000150: a823 363d 0c13 11bd 8b5b ee3d 37de 033e
00000160: 98f3 fcbc 0608 0c3d 5d0d d03c fcd9 d8bd
00000170: 445c 88bc 06f6 bf3d c039 e53b 1cdd 56bd
00000180: 742b 99bd 3c62 7dbd 7c87 d13d 87d8 75bd
00000190: d3ea fc3d fc18 9fbd d53d 60bb d851 21bc
000001a0: d67e d8bd a0e2 9a3c 739e 413d 9809 e83c
000001b0: 4638 9abd 6532 213d 3721 ab3d 054a b4bd
000001c0: 8012 f738 415c babd b279 003e 94c3 c0bd
000001d0: 10b4 2c3d f0fd a1bd 8abf a1bd 7091 8dbc
000001e0: 42a4 8a3d f48e 49bd 4699 c23d 6041 6bbd
000001f0: 96a4 be3d b8b6 d8bc c19a 74bd 391b f63d
00000200: 0012 ab3d f6d3 a63d 8ced afbd c89f 563d
00000210: 4c2e bc3d afd7 c1bd 664a f13d 1c88 863d
00000220: 6766 e6bd c456 ff3d 2072 1a3c 3679 debd
00000230: af01 a53d a3ad 6dbd cce8 bd3d 4ce4 34bd
00000240: a3d9 da3d e297 f53d ad8b 463d c284 863d
00000250: f023 c2bd 3cfe b3bd 0a73 37bd 81c8 703d
00000260: 26ff f3bd 9db4 c63d c53a 4abd 5c67 8c3d
00000270: 8368 053c 88a1 f33d 58a8 583d c979 0d3a
00000280: 720c 66bd 78f1 c9bc d0c6 d33c 70c9 eb3d
00000290: 85f2 01be f7c8 b43d 365f b13d 62fd 58bd
000002a0: b69f ddbd c6da 153d b069 0b3d 1013 efbd
000002b0: 9020 babd 7b2a 53bd 15a2 e33c 7058 b53d
000002c0: b148 bfbd 6df4 a1bc 5eef 9abd 88b7 0abd
000002d0: 7fd0 a73c 84b9 49bd 2c17 713d f85c cbbd
000002e0: cad8 8bbd c4be f93d 2032 efbd 5e61 a6bc
000002f0: e821 dc3d 603f a63b 9838 6b3d d1c1 1cbd

fc_out.bias f4 [3]
0.094668366 0.03476207 0.049648058
00000000: 7de1 c13d ac62 0e3d c35b 4b3d

exp_avg f4 [16, 3]
-3.8360226e-06 -2.4164326e-06 1.8129988e-08 6.703929e-06 -4.014583e-07 -1.8632326e-07 0.0 0.0
0.0 -3.5467274e-06 -6.423863e-06 -2.7326556e-07 1.115743e-06 1.6716783e-06 1.8965689e-07 0.0
0.0 0.0 3.6437447e-07 1.5145679e-06 7.6468005e-08 7.847778e-06 4.510786e-06 -3.437884e-08
-1.9441559e-06 9.031595e-07 7.424381e-09 3.5857977e-06 4.5540123e-06 6.9657204e-08 3.907979e-06 4.0848518e-06
-1.7121492e-08 3.4629952e-06 4.683632e-06 3.3968863e-08 -7.7522907e-07 -2.645223e-06 -1.5451111e-07 2.4325939e-06
2.2473819e-06 8.670941e-08 3.323803e-06 6.235173e-06 7.3257155e-08 -1.923396e-06 2.0373693e-06 7.805411e-08
00000000: 2fb7 80b6 ff29 22b6 44bc 9b32 50f2 e036
00000010: 0288 d7b4 2610 48b4 0000 0000 0000 0000
00000020: 0000 0000 5004 6eb6 908c d7b6 55b5 92b4
00000030: a3c0 9535 6e5e e035 7da4 4b34 0000 0000
00000040: 0000 0000 0000 0000 3f9f c334 2848 cb35
00000050: bb36 a433 f3a9 0337 5b5b 9736 efa7 13b3
00000060: 5878 02b6 a670 7235 8c19 ff31 89a3 7036
00000070: abce 9836 7496 9533 4921 8336 9c10 8936
00000080: 8f12 93b2 ce65 6836 1828 9d36 29e5 1133
00000090: 5619 50b5 9684 31b6 b1e7 25b4 a53f 2336
000000a0: bad1 1636 0135 ba33 800e 5f36 ba37 d136
000000b0: 8c51 9d33 b113 01b6 bdb9 0836 b39e a733

exp_avg_sq f4 [16, 3]
4.4934195e-12 2.0796932e-12 6.431427e-16 1.950688e-11 1.3610378e-11 1.0494324e-14 0.0 0.0
0.0 1.9042767e-11 1.7542998e-11 2.0677695e-14 6.3216684e-12 5.962299e-12 8.319922e-15 0.0
0.0 0.0 5.990076e-12 9.573385e-12 5.4167837e-15 9.297352e-12 1.678671e-11 9.45905e-15
4.1545044e-12 4.253885e-12 2.339782e-15 8.889244e-12 8.756535e-12 3.062069e-15 4.324693e-12 1.1218283e-11
7.288139e-15 6.062563e-12 5.032073e-12 5.4344562e-15 2.5536424e-12 4.3731342e-12 4.248576e-15 3.704288e-12
6.2027328e-12 1.0482945e-14 5.7839675e-12 1.3037524e-11 5.536055e-15 3.4466837e-12 2.044067e-12 6.772022e-15
00000000: 2019 9e2c 6c58 122c 8e5f 3926 9795 ab2d
00000010: b16f 6f2d 870c 3d28 0000 0000 0000 0000
00000020: 0000 0000 8080 a72d 524f 9a2d 853f ba28
00000030: 876c de2c 9dc7 d12c dee0 1528 0000 0000
00000040: 0000 0000 0000 0000 cfc1 d22c b16a 282d
00000050: 0329 c327 8d8f 232d 4fa8 932d 2b66 2a28
00000060: 732c 922c 97ab 952c 5c99 2827 9961 1c2d
00000070: ee0b 1a2d 34a5 5c27 5f29 982c a85a 452d
00000080: 9c4a 0328 b74e d52c e20c b12c 03cc c327
00000090: 55b2 332c b1dd 992c 3212 9927 4355 822c
000000a0: 403d da2c 0dd8 3c28 5981 cb2c ca5b 652d
000000b0: 1875 c727 ef89 722c a3d6 0f2c e1fc f327

exp_avg f4 [16]
4.9871055e-06 -5.224995e-06 0.0 9.317419e-06 9.96399e-07 0.0 -2.385595e-07 -1.02325175e-05
-4.7721e-07 -8.1019625e-06 -8.471721e-06 -5.8445244e-06 2.3105838e-06 -2.7134154e-06 -4.066499e-06 2.8351133e-06
00000000: e956 a736 5e52 afb6 0000 0000 0352 1c37
00000010: 02bc 8535 0000 0000 5e13 80b4 54ac 2bb7
00000020: 9f19 00b5 aaed 07b7 c421 0eb7 151c c4b6
00000030: 870f 1b36 1f18 36b6 f672 88b6 e042 3e36

exp_avg_sq f4 [16]
6.359362e-12 3.5404582e-11 0.0 3.803977e-11 1.2627577e-11 0.0 1.2690652e-11 2.7618633e-11
8.4927915e-12 1.89129e-11 1.7501525e-11 1.13481195e-11 6.794707e-12 9.171554e-12 1.82725e-11 5.3853705e-12
00000000: 0ac0 df2c 04b6 1b2e 0000 0000 f94c 272e
00000010: 8d25 5e2d 0000 0000 9e41 5f2d a2ef f22d
00000020: 2268 152d 115c a62d eef1 992d 63a3 472d
00000030: 4811 ef2c 0259 212d 03ba a02d 1b7b bd2c

exp_avg f4 [15, 16, 32]
-3.5885954e-09 9.8110135e-08 -6.6087597e-07 0.0 0.0 2.7697325e-08 1.2216179e-08 7.5582936e-11
-5.503191e-07 0.0 5.58483e-08 0.0 -3.012307e-08 3.044106e-07 -2.1910072e-08 0.0
-1.2863639e-07 1.1693562e-07 -6.04112e-09 -1.5222954e-08 8.411879e-07 8.640671e-07 0.0 -9.893795e-09
-4.690721e-08 -1.226781e-06 0.0 -3.3388898e-09 0.0 7.709747e-07 -3.9189896e-07 0.0
-1.8213317e-08 1.1801554e-07 -5.665973e-07 -6.760914e-10 -8.946376e-08 7.2333245e-07 2.0982448e-07 -1.735726e-08
-2.3954811e-07 0.0 -4.387785e-08 0.0 -1.3971395e-07 6.0277024e-08 2.404297e-07 0.0
-3.6644386e-07 2.1970476e-07 6.735311e-08 -2.2549699e-07 9.183763e-07 6.0414317e-07 -1.9558108e-08 -1.8126353e-07
-3.2389057e-08 -1.2227107e-06 1.1423299e-08 -4.08664e-08 -1.5136744e-11 4.057299e-07 -4.8863865e-07 0.0
0.0 0.0 0.0 0.0 0.0 0.0 0.0 0.0
0.0 0.0 0.0 0.0 0.0 0.0 0.0 0.0
0.0 0.0 0.0 0.0 0.0 0.0 0.0 0.0
0.0 0.0 0.0 0.0 0.0 0.0 0.0 0.0
-1.7844169e-08 4.455097e-07 -1.9519644e-06 -3.2385683e-10 -2.7421033e-08 6.5885314e-07 2.0524836e-07 -1.3922613e-08
-1.5210035e-06 0.0 2.1913806e-08 0.0 -1.5418725e-07 7.897342e-07 3.034447e-08 0.0
-5.4812296e-07 2.9460318e-07 3.3505394e-08 -2.1006457e-07 2.4780302e-06 2.458875e-06 -1.2632484e-08 -1.71312e-07
-1.3595252e-07 -3.6560282e-06 -6.076277e-09 -1.0606699e-07 -1.4623842e-11 1.9906672e-06 -1.1545088e-06 0.0
-2.4665415e-08 2.6285525e-08 -2.3488498e-07 -1.2567217e-09 -1.1573788e-07 6.8898254e-07 1.8102943e-07 -5.7296038e-08
1.5836501e-07 0.0 -1.11455435e-07 0.0 -1.03058056e-07 3.6435463e-08 2.4994597e-07 0.0
-2.433481e-07 1.2037619e-07 7.963939e-08 -1.5468812e-07 2.4079364e-07 1.9002454e-07 -2.2542487e-08 -1.6975794e-07
-7.013829e-10 -5.2299777e-07 1.0962778e-07 -6.951255e-08 -7.820563e-11 -3.3523452e-08 -2.8019312e-07 0.0
0.0 0.0 0.0 0.0 0.0 0.0 0.0 0.0
0.0 0.0 0.0 0.0 0.0 0.0 0.0 0.0
0.0 0.0 0.0 0.0 0.0 0.0 0.0 0.0
0.0 0.0 0.0 0.0 0.0 0.0 0.0 0.0
0.0 5.079872e-07 -1.8181177e-06 0.0 0.0 0.0 1.9061298e-11 0.0
-1.7244892e-06 0.0 0.0 0.0 1.398328e-08 1.0707952e-06 -3.4583522e-07 0.0
-2.1478644e-07 9.968241e-09 -1.80808e-08 1.8944343e-08 1.8538042e-06 2.5336526e-06 0.0 7.5236384e-10
-1.3489215e-07 -3.1609418e-06 2.3599199e-08 -1.6885878e-07 0.0 2.0396246e-06 -8.82046e-07 0.0
-1.090658e-08 1.1763777e-06 -4.7815197e-06 2.6590861e-11 -4.714079e-09 5.4472594e-07 2.0019205e-07 7.2424458e-09
-4.301829e-06 0.0 1.6258589e-07 0.0 -1.9920998e-07 2.4116648e-06 -4.2161753e-07 0.0
-8.85144e-07 4.6842976e-07 -2.7684704e-08 -1.2854355e-07 5.692954e-06 6.489595e-06 -1.53005e-09 -1.5307094e-07
-3.3609305e-07 -8.717305e-06 4.650454e-08 -3.8099762e-07 1.2087526e-11 5.296811e-06 -2.520219e-06 0.0
00000000: 3d9b 76b1 9eb0 d233 0d67 31b5 0000 0000
00000010: 0000 0000 10eb ed32 53df 5132 6935 a62e
00000020: a4b9 13b5 0000 0000 dbdd 6f33 0000 0000
00000030: aa60 01b3 e06d a334 c234 bcb2 0000 0000
00000040: 4d1f 0ab4 091e fb33 4192 cfb1 a1c3 82b2
00000050: fecd 6135 3df2 6735 0000 0000 5ff9 29b2
00000060: 0677 49b3 e0a7 a4b5 0000 0000 5f72 65b1
00000070: 0000 0000 faf4 4e35 2f66 d2b4 0000 0000
00000080: 8273 9cb2 bb6f fd33 4518 18b5 b4d7 39b0
00000090: 391f c0b3 072b 4235 1d4c 6134 0519 95b2
000000a0: 3e9b 80b4 0000 0000 3574 3cb3 0000 0000
000000b0: 4704 16b4 a571 8133 6814 8134 0000 0000
000000c0: a9bb c4b4 fce7 6b34 c4a3 9033 2420 72b4
000000d0: 5786 7635 672c 2235 bc00 a8b2 57a1 42b4
000000e0: 251c 0bb3 051c a4b5 3340 4432 1585 2fb3
000000f0: eb24 85ad 18d3 d934 fe2a 03b5 0000 0000
00000100: 0000 0000 0000 0000 0000 0000 0000 0000
00000110: 0000 0000 0000 0000 0000 0000 0000 0000
00000120: 0000 0000 0000 0000 0000 0000 0000 0000
00000130: 0000 0000 0000 0000 0000 0000 0000 0000
00000140: 0000 0000 0000 0000 0000 0000 0000 0000
00000150: 0000 0000 0000 0000 0000 0000 0000 0000
00000160: 0000 0000 0000 0000 0000 0000 0000 0000
00000170: 0000 0000 0000 0000 0000 0000 0000 0000
00000180: be47 99b2 632e ef34 7efe 02b6 cc0a b2af
00000190: 7d8b ebb2 0bdc 3035 3d62 5c34 4d30 6fb2
000001a0: 4825 ccb5 0000 0000 f83c bc32 0000 0000
000001b0: ab8e 25b4 1ffe 5335 1954 0233 0000 0000
000001c0: b922 13b5 f429 9e34 92e7 0f33 1c8e 61b4
000001d0: 3c4c 2636 2703 2536 4106 59b2 e2f1 37b4
000001e0: 58fa 11b4 165a 75b6 7fc7 d0b1 f2c6 e3b3
000001f0: f7a1 80ad 6797 0536 9ff4 9ab5 0000 0000
00000200: d2df d3b2 7bca e132 b134 7cb4 f7b8 acb0
00000210: 938b f8b3 85f2 3835 fe60 4234 a915 76b3
00000220: 0b0b 2a34 0000 0000 4659 efb3 0000 0000
00000230: c450 ddb3 377d 1c33 5030 8634 0000 0000
00000240: 82a5 82b4 c140 0134 3806 ab33 5918 26b4
00000250: 6d46 8134 8c09 4c34 74a3 c1b2 b546 36b4
00000260: 6fcb 40b0 2264 0cb5 826c eb33 ee46 95b3
00000270: dbf9 abae 6dfb 0fb3 736d 96b4 0000 0000
00000280: 0000 0000 0000 0000 0000 0000 0000 0000
00000290: 0000 0000 0000 0000 0000 0000 0000 0000
000002a0: 0000 0000 0000 0000 0000 0000 0000 0000
000002b0: 0000 0000 0000 0000 0000 0000 0000 0000
000002c0: 0000 0000 0000 0000 0000 0000 0000 0000
000002d0: 0000 0000 0000 0000 0000 0000 0000 0000
000002e0: 0000 0000 0000 0000 0000 0000 0000 0000
000002f0: 0000 0000 0000 0000 0000 0000 0000 0000
00000300: 0000 0000 9d5c 0835 0c06 f4b5 0000 0000
00000310: 0000 0000 0000 0000 3aaa a72d 0000 0000
00000320: ff74 e7b5 0000 0000 0000 0000 0000 0000
00000330: 1e3b 7032 3eb8 8f35 3bab b9b4 0000 0000
00000340: 0ca0 66b4 ca40 2b32 1a50 9bb2 0dbb a232
00000350: 3ad0 f835 d207 2a36 0000 0000 e6ce 4e30
00000360: dfd6 10b4 9120 54b6 30b7 ca32 8c4f 35b4
00000370: 0000 0000 7ce0 0836 bdc5 6cb5 0000 0000
00000380: a55f 3bb2 08e4 9d35 f170 a0b6 4ce5 e92d
00000390: 7af9 a1b1 4839 1235 5ff4 5634 3ad9 f831
000003a0: 6e58 90b6 0000 0000 4593 2e34 0000 0000
000003b0: 6ce6 55b4 16d8 2136 ac5a e2b4 0000 0000
000003c0: a29a 6db5 7f7c fb34 4fcf edb2 c805 0ab4
000003d0: 1a06 bf36 32c1 d936 d949 d2b0 d25b 24b4
000003e0: 4770 b4b4 8a40 12b7 48bc 4733 ea8b ccb4
000003f0: 61a5 542d 43bb b136 0821 29b6 0000 0000

exp_avg_sq f4 [15, 16, 32]
8.8821986e-17 2.2160098e-14 3.5772007e-14 0.0 0.0 8.3100613e-16 5.506619e-15 1.3391372e-18
5.4505398e-14 0.0 5.3328843e-15 0.0 2.2684868e-15 1.4170355e-14 1.21165005e-14 0.0
7.892812e-15 1.0260093e-14 4.997044e-18 1.148317e-16 5.2515074e-14 8.88404e-14 0.0 2.1122089e-16
8.6446123e-16 1.0286046e-13 0.0 1.6366653e-15 0.0 5.4596098e-14 1.5814419e-14 0.0
8.0792123e-14 7.1053616e-14 8.5972184e-14 5.8758975e-20 2.079319e-15 3.646825e-13 1.2073743e-13 2.4276926e-14
5.008111e-13 0.0 1.6779055e-13 0.0 9.299381e-15 2.8531916e-13 1.0690837e-13 0.0
1.07416476e-13 1.2681642e-13 4.9676558e-14 6.0443566e-14 2.519847e-13 4.720144e-13 1.7783558e-14 5.980118e-14
8.6499915e-16 3.552463e-13 2.1337177e-13 7.2766995e-14 1.0107889e-21 2.8027304e-13 5.4358173e-14 0.0
0.0 0.0 0.0 0.0 0.0 0.0 0.0 0.0
0.0 0.0 0.0 0.0 0.0 0.0 0.0 0.0
0.0 0.0 0.0 0.0 0.0 0.0 0.0 0.0
0.0 0.0 0.0 0.0 0.0 0.0 0.0 0.0
5.8070824e-14 1.6899877e-13 3.3304235e-13 1.6039754e-20 9.85171e-16 2.4177573e-13 1.09778065e-13 1.287405e-14
8.9041806e-13 0.0 1.4315379e-13 0.0 1.7576484e-14 2.731051e-13 1.42235e-13 0.0
1.6316127e-13 1.3691587e-13 2.4523474e-14 3.4041248e-14 5.8283646e-13 1.2058455e-12 8.8514714e-15 4.3345183e-14
4.988603e-15 1.0809939e-12 1.03046444e-13 7.088767e-14 4.764398e-21 5.7813595e-13 1.343767e-13 0.0
7.599663e-14 2.5895493e-14 9.345621e-14 2.3086846e-19 1.5169862e-14 3.9899217e-13 1.1295928e-13 3.3192728e-14
3.6944606e-13 0.0 1.5276327e-13 0.0 3.7179533e-15 3.713391e-13 8.578564e-14 0.0
7.628725e-14 9.219834e-14 6.6238397e-14 8.2088504e-14 1.5735368e-13 3.9805285e-13 2.3363542e-14 5.692629e-14
1.3144603e-16 3.1302662e-13 2.788337e-13 1.29779e-13 4.6485482e-20 2.4669096e-13 5.6555082e-14 0.0
0.0 0.0 0.0 0.0 0.0 0.0 0.0 0.0
0.0 0.0 0.0 0.0 0.0 0.0 0.0 0.0
0.0 0.0 0.0 0.0 0.0 0.0 0.0 0.0
0.0 0.0 0.0 0.0 0.0 0.0 0.0 0.0
0.0 1.0807009e-13 3.9428915e-13 0.0 0.0 0.0 6.903661e-21 0.0
8.644414e-13 0.0 0.0 0.0 1.128591e-15 2.0556713e-13 5.6872584e-14 0.0
1.0373154e-13 4.247407e-16 4.6682553e-17 4.7057055e-15 3.7527295e-13 1.4607134e-12 0.0 5.857296e-19
5.0465215e-15 1.056478e-12 5.5811615e-15 1.2548807e-13 0.0 4.739773e-13 1.2922687e-13 0.0
3.4112073e-14 7.94194e-13 2.1893097e-12 1.8233594e-20 4.5268897e-15 1.3289567e-13 1.4012096e-13 3.6186e-15
4.845758e-12 0.0 1.5440451e-13 0.0 4.477984e-14 1.1138572e-12 4.3291336e-13 0.0
6.7335823e-13 2.1375568e-13 1.950742e-15 3.712143e-14 2.58373e-12 7.86473e-12 7.0471627e-16 2.9323156e-14
2.9806137e-14 6.1025794e-12 3.700521e-14 5.7483245e-13 6.305665e-20 2.861978e-12 7.5440354e-13 0.0
00000000: 3fcf cc24 b599 c728 511a 2129 0000 0000
00000010: 0000 0000 6e85 6f26 9865 c627 2c9f c521
00000020: 7278 7529 0000 0000 2d23 c027 0000 0000
00000030: 3276 2327 3a45 7f28 7f45 5a28 0000 0000
00000040: 2c2f 0e28 54d4 3828 bf5b b822 5664 0425
00000050: c281 6c29 010d c829 0000 0000 6785 7325
00000060: fb29 7926 059f e729 0000 0000 4bde eb26
00000070: 0000 0000 04e1 7529 9171 8e28 0000 0000
00000080: 7ded b529 9fff 9f29 9797 c129 9fbd 8a1f
00000090: aad4 1527 494c cd2a 32f0 072a c8aa da28
000000a0: 3ef7 0c2b 0000 0000 55ea 3c2a 0000 0000
000000b0: d385 2728 d39e a02a 7bbc f029 0000 0000
000000c0: 62e1 f129 58c8 0e2a 2cb9 5f29 581b 8829
000000d0: d3da 8d2a 39dc 042b 182e a028 09a9 8629
000000e0: ac51 7926 63fc c72a 3a3c 702a 51db a329
000000f0: 00bf 981c 9ac7 9d2a b5ce 7429 0000 0000
00000100: 0000 0000 0000 0000 0000 0000 0000 0000
00000110: 0000 0000 0000 0000 0000 0000 0000 0000
00000120: 0000 0000 0000 0000 0000 0000 0000 0000
00000130: 0000 0000 0000 0000 0000 0000 0000 0000
00000140: 0000 0000 0000 0000 0000 0000 0000 0000
00000150: 0000 0000 0000 0000 0000 0000 0000 0000
00000160: 0000 0000 0000 0000 0000 0000 0000 0000
00000170: 0000 0000 0000 0000 0000 0000 0000 0000
00000180: 8dc3 8229 9446 3e2a 767c bb2a bf7d 971e
00000190: 65fa 8d26 8e1b 882a bf32 f729 14eb 6728
000001a0: 62a1 7a2b 0000 0000 452d 212a 0000 0000
000001b0: 9d50 9e28 98be 992a 7324 202a 0000 0000
000001c0: 09b4 372a 5027 1a2a 48e3 dc28 e34e 1929
000001d0: cb0d 242b 2ab5 a92b 3574 1f28 9835 4329
000001e0: bebb b327 e922 982b 3b0a e829 f69f 9f29
000001f0: 6efe b31d 16bb 222b 724b 172a 0000 0000
00000200: 1321 ab29 f13e e928 d671 d229 db47 8820
00000210: 52a3 8828 d59c e02a 975c fe29 9c7c 1529
00000220: cafa cf2a 0000 0000 04ff 2b2a 0000 0000
00000230: 11f4 8527 9b0b d12a 0e2c c129 0000 0000
00000240: 9bc8 ab29 b99c cf29 d627 9529 cdd8 b829
00000250: 1c2a 312a 7615 e02a a970 d228 c62f 8029
00000260: 058c 1725 e437 b02a 2cf8 9c2a 401e 122a
00000270: 8085 5b1f eadf 8a2a 92b3 7e29 0000 0000
00000280: 0000 0000 0000 0000 0000 0000 0000 0000
00000290: 0000 0000 0000 0000 0000 0000 0000 0000
000002a0: 0000 0000 0000 0000 0000 0000 0000 0000
000002b0: 0000 0000 0000 0000 0000 0000 0000 0000
000002c0: 0000 0000 0000 0000 0000 0000 0000 0000
000002d0: 0000 0000 0000 0000 0000 0000 0000 0000
000002e0: 0000 0000 0000 0000 0000 0000 0000 0000
000002f0: 0000 0000 0000 0000 0000 0000 0000 0000
00000300: 0000 0000 2a5a f329 0ef7 dd2a 0000 0000
00000310: 0000 0000 0000 0000 0e68 021e 0000 0000
00000320: 9151 732b 0000 0000 0000 0000 0000 0000
00000330: a9a5 a226 b172 672a d010 8029 0000 0000
00000340: 2995 e929 aad8 f425 0849 5724 798a a927
00000350: 8842 d32a bf93 cd2b 0000 0000 7ae0 2c21
00000360: f2d1 b527 a2af 942b 2115 c927 7949 0d2a
00000370: 0000 0000 aa69 052b 1c7f 112a 0000 0000
00000380: 8ba0 1929 b58b 5f2b 190f 1a2c 2036 ac1e
00000390: 3019 a327 92a0 152a 1ec3 1d2a b25f 8227
000003a0: b57e aa2c 0000 0000 12d8 2d2a 0000 0000
000003b0: a4ab 4929 efc2 9c2b 64b5 f32a 0000 0000
000003c0: 9388 3d2b e1aa 702a d790 0c27 182e 2729
000003d0: 58d0 352c 985b 0a2d e21e 4b26 4c0f 0429
000003e0: 233c 0629 26b7 d62c 1aa8 2629 0bcd 212b
000003f0: 68e3 941f d064 492c 8158 542b 0000 0000

exp_avg f4 [32]
-5.990202e-07 -4.6997166e-06 -3.8421033e-05 -1.1348264e-05 -4.1296985e-06 7.343329e-06 5.904522e-07 -4.159234e-06
-5.4510288e-06 1.7374132e-08 2.9194673e-06 0.0 -4.6453093e-07 3.09287e-05 1.2517448e-06 0.0
5.0770127e-06 5.352007e-06 -4.864205e-05 -5.4709997e-09 -2.0439084e-05 9.717638e-06 2.0580167e-08 3.2304188e-06
-5.5254445e-06 -5.237219e-05 1.7309172e-06 3.7781624e-06 -6.097594e-06 4.2828964e-05 -2.010479e-05 0.0
00000000: 5bcc 20b5 42b2 9db6 4526 21b8 6c64 3eb7
00000010: d791 8ab6 b766 f636 917f 1e35 8c8f 8bb6
00000020: fbe7 b6b6 1f3e 9532 11ec 4336 0000 0000
00000030: a564 f9b4 70b9 0138 a001 a835 0000 0000
00000040: 355b aa36 6495 b336 0105 4cb8 6cfb bbb1
00000050: 9974 abb7 f008 2337 44c8 b032 2cca 5836
00000060: 3567 b9b6 36aa 5bb8 dd51 e835 568c 7d36
00000070: ef99 ccb6 40a3 3338 b5a6 a8b7 0000 0000

exp_avg_sq f4 [32]
3.186511e-11 1.9993995e-10 4.5481954e-10 2.1076971e-10 3.6733186e-11 6.964359e-11 1.01026125e-10 1.8764275e-11
1.1918609e-10 2.0192317e-13 8.11675e-11 0.0 1.3894948e-11 3.3778877e-10 1.0817536e-10 0.0
1.7402887e-10 1.04282694e-10 3.0284622e-10 8.2522336e-11 3.019459e-10 1.6828122e-10 1.1659877e-11 2.5589908e-10
7.520145e-12 4.341419e-10 8.545827e-11 1.4598324e-10 2.039056e-10 4.6934634e-10 4.415205e-10 0.0
00000000: ed24 0c2e 18d6 5b2f 290a fa2f 66be 672f
00000010: e48d 212e db25 992e a728 de2e 640d a52d
00000020: e70b 032f 6458 632a 3e7d b22e 0000 0000
00000030: 4871 742d 8bb3 b92f 50e1 ed2e 0000 0000
00000040: c658 3f2f f051 e52e d17d a62f f277 b52e
00000050: 1cff a52f f406 392f 6b1f 4d2d 98ae 8c2f
00000060: b94b 042d 0aac ee2f bbec bb2e a182 202f
00000070: 5332 602f 5003 0130 7cba f22f 0000 0000
