GPU/checkpoints_kpconv/kpconv_best_miou_0.2752.pth (torch, 144101 bytes, 32 tensors)

fc_in.weight f4 [8, 3]
-0.17180839 0.42338118 0.10047868 0.5356869 -0.04838119 -0.20369697 -0.2563351 -0.0782341
-0.28534287 0.31670943 0.22939259 -0.051836632 0.4685554 0.30255404 0.067760915 -0.44978833
-0.07126333 0.38985538 0.3957812 -0.4409766 -0.06762432 0.10857596 -0.5868345 0.42875677
00000000: 8aee 2fbe 6bc5 d83e c4c7 cd3d c722 093f
00000010: 5b2b 46bd f095 50be 5b3e 83be 3339 a0bd
00000020: 7618 92be bd27 a23e e4e5 6a3e a652 54bd
00000030: 7ee6 ef3e 5de8 9a3e 3cc6 8a3d a84a e6be
00000040: 82f2 91bd 209b c73e d5a3 ca3e afc7 e1be
00000050: 9f7e 8abd 135d de3d c93a 16bf 0286 db3e

fc_in.bias f4 [8]
-0.3302638 0.22201166 -0.38698164 0.051925905 0.33838773 0.20236357 0.4019401 -0.082947664
00000000: 5618 a9be 0657 633e 7522 c6be 42b0 543d
00000010: 2841 ad3e 6538 4f3e 18cb cd3e 77e0 a9bd

kpconv1.kernel_weights f4 [15, 8, 16]
-0.24294186 0.5256684 0.6329752 0.366448 0.17287819 -0.55656683 -0.392288 0.3831712
-0.38877404 1.036681 -0.013712038 1.0675789 -0.075763054 0.15060444 -0.6590733 0.26667142
-0.43864268 -1.1771421 0.27099174 -0.64392096 -0.6483648 -0.11365894 0.17486723 -0.27350214
0.5737115 -0.80972135 0.2660479 0.65030706 0.110630415 -0.8371878 -0.4880451 1.2577392
-0.6400708 0.69458926 0.51426876 -0.3475301 -0.13470098 0.15316679 0.12259089 -0.6741425
-0.40966913 0.063505664 0.58051956 0.35402325 0.0073537976 0.37845063 -0.11355182 -0.019544283
-0.25558856 -0.17430136 -0.5438593 0.059978433 0.8021255 -0.24869236 0.35308242 -0.49424705
0.19682817 -0.24273363 0.18880345 -0.31010038 0.8000717 0.52651155 -0.6678893 0.20458157
-0.18457006 0.76303333 0.3969836 0.39704978 -0.4133631 0.08671787 0.6039543 -0.11525267
-0.12408914 0.18948877 0.26134533 -0.63827914 -0.6477379 0.27432254 0.13163215 0.07371672
0.8557764 -0.14914736 -0.15217128 0.11088849 0.5080294 0.01752563 -0.6132335 0.70761836
0.075830765 -0.33693397 -0.12624587 0.09933784 -0.21748671 0.5229977 -0.5476386 0.43549037
-0.6228725 -0.41414404 0.31843328 -0.6094604 0.06269092 -0.26741466 -0.29628116 1.4315553
-0.20422234 0.0814081 -0.59571695 -0.49811575 0.06388648 0.25765222 -1.0068707 0.06597579
0.2707881 -0.13829546 0.26907834 -0.15481913 0.041008 0.10147977 -0.6020933 0.07056155
0.9238208 0.6616313 -0.72536 -0.538047 0.37331623 0.28132707 -0.10745741 -0.4207994
0.14273863 0.32711115 0.5410064 0.2456133 0.04435096 0.5340504 0.053263772 0.5383054
0.1449238 0.33575365 0.39162236 -0.5067053 -0.5772546 -0.33719376 0.95264065 0.0061528725
0.13411576 0.47540376 0.4299892 0.367372 0.8525766 0.07180429 -0.25141403 -0.112249546
0.034061484 0.02289162 -0.39334115 -0.22546457 -0.10982403 -0.45679194 -0.17399858 0.24813502
-0.86856115 0.13341321 0.89760244 0.38946602 -0.44186673 0.39937288 -0.49796987 0.5606506
0.60659343 0.48780203 0.23660271 -0.5175058 0.14942159 0.9910004 0.2790997 0.02053876
0.71047366 0.30147505 0.36815205 0.11025418 0.086612165 0.53634864 0.28295892 -0.6104716
0.1257699 -0.2051972 0.35029837 -0.16167887 0.91801316 0.0971072 -0.035786152 -0.09133036
0.13258511 -0.22253339 -1.6927214 -0.62020534 -0.45579624 -0.066708095 -0.32207894 0.6563614
-0.68236446 -0.1363864 -0.5117177 -0.0003333498 0.55707866 -0.35678312 0.46615368 0.3725561
0.108733445 0.34567592 -0.20791449 0.9538425 0.16438983 0.27626845 -0.529632 -0.8161443
-0.5684305 -0.54355824 0.14484218 -0.48279282 0.43207353 -0.95863247 -0.78368336 -0.47907495
0.20778377 0.647754 -0.3319039 0.065581426 -0.39323595 0.5757556 0.27614188 -0.045113247
0.691335 0.12953691 -0.56523603 -0.23624197 -0.78803116 0.7758398 -0.06647155 0.447043
0.108508855 -0.87957686 0.26076677 0.12607402 0.49284235 -0.10916799 -0.25081027 0.03709746
0.10296025 -0.08205678 0.075805634 -0.16614197 -0.05888889 -0.038751394 0.007843165 0.28429422
00000000: c0c5 78be 3492 063f aa0a 223f 129f bb3e
00000010: fb06 313e 2a7b 0ebf f9d9 c8be 042f c43e
00000020: 640d c7be f7b1 843f 75a8 60bc 6da6 883f
00000030: a929 9bbd 0d38 1a3e 07b9 28bf 2889 883e
00000040: c695 e0be 98ac 96bf 6ebf 8a3e 01d8 24bf
00000050: 3cfb 25bf 05c6 e8bd 6510 333e 7908 8cbe
00000060: c2de 123f e649 4fbf 6e37 883e 867a 263f
00000070: 3392 e23d f151 56bf 0ce1 f9be 99fd a03f
00000080: aedb 23bf 9ad0 313f 1ea7 033f 77ef b1be
00000090: 0eef 09be c1d7 1c3e ef10 fb3d 9a94 2cbf
000000a0: 27c0 d1be 420f 823d ee9c 143f 8942 b53e
000000b0: 20f8 f03b 48c4 c13e db8d e8bd 551b a0bc
000000c0: 81dc 82be 0e7c 32be 5d3a 0bbf f2ab 753d
000000d0: 1958 4d3f 36a9 7ebe 38c7 b43e f30d fdbe
000000e0: 538d 493e 2a8f 78be b155 413e 7ac5 9ebe
000000f0: 80d1 4c3f 76c9 063f cbfa 2abf d57d 513e
00000100: efff 3cbe 2756 433f 6f41 cb3e 1c4a cb3e
00000110: 54a4 d3be 2399 b13d c09c 1a3f 9809 ecbd
00000120: 7222 febd 5809 423e 0ecf 853e 4366 23bf
00000130: 27d2 25bf 0174 8c3e 94ca 063e cbf8 963d
00000140: 2a14 5b3f 16ba 18be cad2 1bbe 8119 e33d
00000150: 370e 023f e991 8f3c dffc 1cbf 7a26 353f
00000160: 294d 9b3d 9c82 acbe 9946 01be a371 cb3d
00000170: d6b4 5ebe 2de3 053f 0b32 0cbf 98f8 de3e
00000180: 9274 1fbf b00a d4be b009 a33e 9905 1cbf
00000190: 1964 803d 93ea 88be 2ab2 97be 343d b73f
000001a0: a91f 51be 4ab9 a63d e880 18bf 0709 ffbe
000001b0: ead6 823d feea 833e 24e1 80bf 511e 873d
000001c0: bda4 8a3e 539d 0dbe a3c4 893e e888 1ebe
000001d0: 01f8 273d a0d4 cf3d c922 1abf 9382 903d
000001e0: 857f 6c3f ab60 293f 31b1 39bf 73bd 09bf
000001f0: 4e23 bf3e 1a0a 903e a112 dcbd 0573 d7be
00000200: 132a 123e 1d7b a73e 657f 0a3f 0e82 7b3e
00000210: 5aa9 353d 87b7 083f 1d2b 5a3d 62ce 093f
00000220: e866 143e e7e7 ab3e ba82 c83e 70b7 01bf
00000230: f5c6 13bf a9a4 acbe 42e0 733f 099e c93b
00000240: a455 093e 1f68 f33e 8b27 dc3e 2f18 bc3e
00000250: 7642 5a3f 210e 933d 57b9 80be 17e3 e5bd
00000260: 0e84 0b3d 3587 bb3c 0364 c9be 2fe0 66be
00000270: 6ceb e0bd a2e0 e9be af2c 32be 1b17 7e3e
00000280: 065a 5ebf 799d 083e 46c9 653f 1768 c73e
00000290: 5b3c e2be 9a7a cc3e e8f5 febe cc86 0f3f
000002a0: b549 1b3f 30c1 f93e fb47 723e 437b 04bf
000002b0: f901 193e 34b2 7d3f 28e6 8e3e e740 a83c
000002c0: 9ae1 353f f05a 9a3e 6d7e bc3e f2cc e13d
000002d0: b861 b13d 254e 093f fedf 903e de47 1cbf
000002e0: d3c9 003e 371f 52be 4f5a b33e 258f 25be
000002f0: e902 6b3f 24e0 c63d 8094 12bd 690b bbbd
00000300: 64c4 073e cbdf 63be 18ab d8bf c7c5 1ebf
00000310: 205e e9be 419e 88bd 88e7 a4be 4d07 283f
00000320: 70af 2ebf e0a8 0bbe eeff 02bf 74c5 aeb9
00000330: b59c 0e3f 47ac b6be b2ab ee3e acbf be3e
00000340: a4af de3d 6ffc b03e 89e7 54be 062f 743f
00000350: cf55 283e 0f73 8d3e f695 07bf d5ee 50bf
00000360: a984 11bf a226 0bbf 8251 143e 9f30 f7be
00000370: be38 dd3e f068 75bf 799f 48bf 5049 f5be
00000380: 45c5 543e 35d3 253f 4fef a9be 8e4f 863d
00000390: 3956 c9be b864 133f 7862 8d3e abc8 38bd
000003a0: 55fb 303f 53a5 043e 4fb3 10bf 6ae9 71be
000003b0: 69bc 49bf 709d 463f 3c22 88bd d2e2 e43e
000003c0: e439 de3d f32b 61bf 3983 853e 8c19 013e
000003d0: d555 fc3e 7893 dfbd 346a 80be 82f3 173d
000003e0: d3dc d23d 630d a8bd fc3f 9b3d 1f21 2abe
000003f0: 7a35 71bd c8b9 1ebd 9e80 003c 038f 913e

kpconv1.bias f4 [16]
-0.002533949 0.01106274 0.019913336 0.013249695 0.0030703384 0.0 0.02071505 0.021829838
0.017766755 0.005794706 0.006731346 0.014244141 0.0011578064 -0.021028508 0.012438598 0.007263758
00000000: 9c10 26bb 7f40 353c 4b21 a33c 4015 593c
00000010: bb37 493b 0000 0000 9cb2 a93c 7dd4 b23c
00000020: 968b 913c 84e1 bd3b 9f92 dc3b 4260 693c
00000030: 89c1 973a fa43 acbc 43cb 4b3c d204 ee3b

kpconv1.kernel_points f4 [15, 3]
-0.07000577 -0.0064798757 0.09122956 0.17191373 -0.020663284 0.00096335425 -0.056722227 0.04735976
-0.015877243 -0.09994913 -0.10368211 -0.05619691 -0.07350119 -0.02500241 -0.011415186 0.023561355
0.054440934 -0.045281813 -0.11540429 0.09912844 -0.21306923 -0.012890216 0.11681563 -0.07892135
0.031616725 -0.14620364 -0.19174388 -0.0069910735 -0.0073836423 -0.010912259 0.06087486 -0.0033519925
0.009722243 0.08752967 0.033222705 -0.15984438 0.09569718 0.06280607 0.07318126 0.0013372954
0.00067998504 -0.0004578988 0.016262386 0.0764153 -0.06884884
00000000: 2f5f 8fbd 2355 d4bb 90d6 ba3d 270a 303e
00000010: 0c46 a9bc 9c89 7c3a 9155 68bd 4ffc 413d
00000020: fe10 82bc 21b2 ccbd 4957 d4bd bb2e 66bd
00000030: cb87 96bd dbd1 ccbc c306 3bbc be03 c13c
00000040: 75fd 5e3d 6c79 39bd 1659 ecbd da03 cb3d
00000050: d22e 5abe 7c31 53bc 083d ef3d 84a1 a1bd
00000060: 8a80 013d 68b6 15be 8258 44be 6015 e5bb
00000070: 7bf2 f1bb 55c9 32bc eb57 793d 1aad 5bbb
00000080: 0b4a 1f3c c142 b33d 8814 083d 3fae 23be
00000090: e2fc c33d 78a0 803d 0ee0 953d 3048 af3a
000000a0: 0641 323a 2312 f0b9 b238 853c a07f 9c3d
000000b0: 9f00 8dbd

kpconv2.kernel_weights f4 [15, 16, 32]
-0.16129865 -0.6593094 0.20309158 -0.27533725 0.25582132 -0.4540768 -0.25988096 0.15904987
-0.096395254 0.16735432 -0.35291576 -0.42570633 -0.08208885 -0.093970135 0.10574971 -0.26035348
-0.3974062 0.2471195 0.39574102 -0.35718915 -0.22515799 0.6623673 -0.14034128 -0.050442487
0.36709416 0.025576696 -1.028912 0.28685948 -0.3316669 0.45642298 0.048852917 0.5128397
0.048940476 0.03474421 -0.16286851 0.23366995 0.1807836 -0.037962187 -0.6751429 -0.122357115
0.26873788 -0.39638242 -0.09966946 0.3907914 0.63882107 -0.17117989 -0.008560895 -0.20560202
0.46845374 1.0496689 -0.16223894 -0.061146278 0.09034069 -0.34949598 0.25747883 0.1718318
0.27991694 0.5726039 -0.07775314 -0.4058285 -0.13944776 0.028142827 -0.37724465 0.23687898
-0.36088383 0.37570372 -0.3021629 -0.44347104 -0.2505743 -0.63313144 -0.5978931 0.140598
0.54810476 0.39386654 0.1500729 -0.0852133 -0.17964035 -0.5109211 -0.53683186 -0.1220675
-1.0317099 -0.32333532 -0.6318226 -0.4986976 0.11232593 0.42059928 -0.08427633 -0.35840157
-0.06741914 0.06320415 -0.14554945 0.21579528 -0.16694607 -0.35565662 -0.1965157 0.102152646
0.24910694 0.10062274 0.30677798 -0.016354997 0.4697273 0.155224 0.3587481 0.23996218
-0.16503184 0.7767731 -0.043177877 0.276359 0.032609805 0.14788629 -0.33389598 0.05164432
-0.072246894 -0.32035092 -0.29937765 0.16061677 -0.46675804 -0.37018853 -0.09218863 -0.16735761
-0.26904804 0.06489887 -0.2625484 0.13445807 0.32998973 0.47792697 -0.036188263 0.15423577
0.16058728 -0.42230764 -0.027279563 -0.28073457 0.6887773 -0.08760174 -0.105385676 -0.3456747
0.011860885 0.54067373 -0.49878475 0.08764007 -0.26585013 0.030748725 0.06433116 -0.09578379
0.13067532 -0.34888244 0.41458678 -0.22906889 -0.068907775 0.40855935 0.22496584 -0.11927208
0.6189387 0.25688082 -0.06303734 0.77901924 0.21130943 -0.33665577 -0.22626384 -0.2560967
-0.19080873 -0.29554027 0.29504156 0.25387087 0.15084538 -0.052503444 0.8428545 0.0037481475
-0.20263797 -0.534571 0.00980895 0.32588986 -0.24649264 0.20305938 0.13351238 0.705398
-0.0974759 -0.2571996 0.39310753 0.1686673 0.43881842 0.14349702 -0.1857808 0.26501897
0.18217528 0.0814478 0.43468207 -0.123295896 -0.23607649 -0.32676506 -0.207578 -0.18067369
0.21667476 -0.11130545 0.41819552 -0.3644598 0.148943 -0.043739647 0.48529065 -0.53275746
-0.24710917 -0.5156719 0.16678229 -0.51360697 0.564164 -0.1659143 0.6421304 -0.5800245
0.4238563 -0.064574 -0.0019848521 1.0156331 0.7743774 0.20451093 -0.3104052 -0.096393526
-0.025786689 -0.3229548 -0.27447274 0.009450522 0.5032705 0.37890473 0.43633762 0.53591526
0.24538434 0.8410721 -0.054439824 -0.19596392 -0.39425305 0.3714163 -0.06486522 -0.34102473
-0.17832671 -0.034723554 -0.019297833 0.012620362 0.44784334 0.47348383 -0.1267229 0.058352523
0.017425155 0.10687812 -0.6715643 0.15388055 0.029642811 -0.16567363 0.14155841 -0.08015442
-0.46402314 0.62563616 0.2983429 0.35722476 0.36659196 0.54706275 0.028093783 0.86878717
00000000: 792b 25be 80c8 28bf 3df7 4f3e 01f9 8cbe
00000010: 03fb 823e c17c e8be 1e0f 85be f8dd 223e
00000020: e06a c5bd ee5e 2b3e 60b1 b4be 2ef6 d9be
00000030: 331e a8bd 6a73 c0bd 4e93 d83d 0d4d 85be
00000040: d378 cbbe e50c 7d3e 919e ca3e 7fe1 b6be
00000050: d18f 66be e790 293f a0b5 0fbe c89c 4ebd
00000060: c4f3 bb3e 3886 d13c 63b3 83bf 3fdf 923e
00000070: 3ed0 a9be 46b0 e93e ff19 483d 7649 033f
00000080: cf75 483d f24f 0e3d 01c7 26be 2d47 6f3e
00000090: 561f 393e 3d7e 1bbd 2ad6 2cbf 5e96 fabd
000000a0: 0398 893e a3f2 cabe 801f ccbd cf15 c83e
000000b0: c789 233f c849 2fbe ff42 0cbc 5689 52be
000000c0: 2bd9 ef3e 8d5b 863f f721 26be 8574 7abd
000000d0: 8a04 b93d 23f1 b2be 44d4 833e adf4 2f3e
000000e0: 4651 8f3e 2b96 123f 0a3d 9fbd c1c8 cfbe
000000f0: 65cb 0ebe c98b e63c 3626 c1be 6790 723e
00000100: c4c5 b8be 3d5c c03e 18b5 9abe a30e e3be
00000110: 464b 80be e714 22bf 860f 19bf ecf8 0f3e
00000120: 9850 0c3f e0a8 c93e b6ac 193e 5084 aebd
00000130: a4f3 37be bacb 02bf d06d 09bf 87fe f9bd
00000140: 120f 84bf 358c a5be 20bf 21bf 4b55 ffbe
00000150: 230b e63d ca58 d73e 1299 acbd 6980 b7be
00000160: 0c13 8abd 2d71 813d ea0a 15be 70f9 5c3e
00000170: e9f3 2abe a018 b6be 693b 49be 6835 d13d
00000180: e415 7f3e 4c13 ce3d 0112 9d3e eafa 85bc
00000190: 1980 f03e 0af3 1e3e d5ad b73e a5b8 753e
000001a0: 1bfe 28be 9ada 463f 49db 30bd ed7e 8d3e
000001b0: dc91 053d 816f 173e 6af4 aabe ff88 533d
000001c0: 2ef6 93bd 0905 a4be 0748 99be b978 243e
000001d0: e9fa eebe 5a89 bdbe 64cd bcbd cb5f 2bbe
000001e0: aac0 89be b3e9 843d be6c 86be 60af 093e
000001f0: 6af4 a83e d8b2 f43e 253a 14bd fbef 1d3e
00000200: fe70 243e b538 d8be 6479 dfbc 71bc 8fbe
00000210: b653 303f 8b68 b3bd 72d4 d7bd 46fc b0be
00000220: 2854 423c 9869 0a3f b760 ffbe a37c b33d
00000230: 821d 88be c0e4 fb3c 0ec0 833d 4b2a c4bd
00000240: c0cf 053e b8a0 b2be b844 d43e 0991 6abe
00000250: 851f 8dbd b12e d13e 725d 663e ec44 f4bd
00000260: c472 1e3f e285 833e b919 81bd ce6d 473f
00000270: 8061 583e 255e acbe b5b1 67be 1b1f 83be
00000280: 5d63 43be 0e51 97be b00f 973e 5dfb 813e
00000290: 3677 1a3e da0d 57bd 50c5 573f 7ba3 753b
000002a0: 5480 4fbe a5d9 08bf b8b5 203c 09db a63e
000002b0: 9168 7cbe ccee 4f3e 78b7 083e f794 343f
000002c0: 72a1 c7bd aaaf 83be 6445 c93e 1fb7 2c3e
000002d0: cfac e03e e2f0 123e 523d 3ebe 91b0 873e
000002e0: 288c 3a3e 1bce a63d a68e de3e 8f82 fcbd
000002f0: 09be 71be c04d a7be 548f 54be 8602 39be
00000300: fddf 5d3e 1df4 e3bd b91d d63e 7a9a babe
00000310: 8484 183e 5828 33bd 0478 f83e cb62 08bf
00000320: 300a 7dbe 1303 04bf fac8 2a3e bf7b 03bf
00000330: 0d6d 103f 70e5 29be a862 243f 7c7c 14bf
00000340: b103 d93e 603f 84bd 4b14 02bb 4400 823f
00000350: 993d 463f 506b 513e 6eed 9ebe f869 c5bd
00000360: 9b3e d3bc 555a a5be b187 8cbe 5dd6 1a3c
00000370: 56d6 003f cdff c13e a567 df3e be31 093f
00000380: 0846 7b3e 8050 573f 4bfc 5ebd c4aa 48be
00000390: 89db c9be 472a be3e 0ed8 84bd cb9a aebe
000003a0: 479b 36be 493a 0ebd 7d16 9ebc a3c5 4e3c
000003b0: b94b e53e 796c f23e a6c3 01be 0e03 6f3d
000003c0: 33bf 8e3c eae2 da3d a3eb 2bbf dd92 1d3e
000003d0: 7bd5 f23c 59a6 29be b0f4 103e 0028 a4bd
000003e0: 7194 edbe b129 203f 67c0 983e 2ae6 b63e
000003f0: f1b1 bb3e 4e0c 0c3f ef24 e63c d668 5e3f

kpconv2.bias f4 [32]
0.0 0.0076548117 0.02465406 -0.012121404 -0.0029781687 0.009939386 0.016738936 0.0045283586
0.02169706 0.018294072 -0.0026256263 0.025517628 0.022591673 0.024412131 0.021493059 -0.004127425
0.01505441 0.0 0.0 0.0 0.014840762 0.025574911 -0.008159744 0.0
-0.011091454 0.018669069 0.020849107 0.02588458 -0.0069631883 0.018331833 0.020121023 0.022587929
00000000: 0000 0000 37d5 fa3b 50f7 c93c da98 46bc
00000010: 612d 43bb ced8 223c 1820 893c a062 943b
00000020: 08be b13c 73dd 953c b312 2cbb 580a d13c
00000030: 2c12 b93c f3fb c73c 3612 b03c 5a3f 87bb
00000040: c6a6 763c 0000 0000 0000 0000 0000 0000
00000050: ab26 733c 7a82 d13c 72b0 05bc 0000 0000
00000060: eeb8 35bc e0ef 983c bfcb aa3c e60b d43c
00000070: 752b e4bb a42c 963c d8d4 a43c 520a b93c

kpconv2.kernel_points f4 [15, 3]
-0.013224608 0.034958005 0.026659323 -0.26861784 0.16038285 -0.0019951668 0.23159389 -0.30868268
-0.031764705 0.2572967 0.10179762 0.21325898 -0.09003045 -0.14161995 0.08912317 -0.0030902019
-0.0138871465 -0.03977301 0.009127407 -0.14319885 0.13040711 0.24660093 -0.18094715 -0.10749945
-0.0042529716 -0.070955224 0.042534467 -0.10970623 -0.21984033 0.05867603 -0.020210708 0.030324522
-0.18632533 -0.044331998 -0.34276217 0.061829627 0.032228757 0.0014174456 0.019193973 0.1557398
0.162099 0.22223695 0.19455172 -0.10415254 -0.20452008
00000000: 07ac 58bc 2030 0f3d a764 da3c 4788 89be
00000010: 673b 243e 58c1 02bb f326 6d3e a80b 9ebe
00000020: b51b 02bd 65bc 833e 457b d03d 9060 5a3e
00000030: e261 b8bd d204 11be 3586 b63d fc84 4abb
00000040: ea86 63bc 06e9 22bd 1f8b 153c b8a2 12be
00000050: 7189 053e f484 7c3e 364a 39be ac28 dcbd
00000060: 835c 8bbb f950 91bd 9f38 2e3d a9ad e0bd
00000070: d31d 61be 4756 703d ed90 a5bc 226b f83c
00000080: 11cc 3ebe 7895 35bd 867e afbe 1041 7d3d
00000090: 4d02 043d 95c9 b93a ae3c 9d3c 417a 1f3e
000000a0: 48fd 253e 1592 633e 9138 473e ed4d d5bd
000000b0: b66d 51be

fc_mid.weight f4 [32, 32]
-0.008799798 0.17672929 -0.1425465 -0.16290781 -0.13047996 0.11353275 0.16461687 -0.018401377
-0.16057648 0.0077295424 0.10006924 0.039551698 -0.023508037 0.028070306 -0.113132216 0.006010309
-0.11669388 0.09016319 -0.14015837 0.042224545 -0.14340255 0.14668639 -0.16112247 0.079046644
-0.046044335 0.050883953 0.044188168 -0.064611286 -0.096359245 0.07346666 0.061121527 0.12142492
-0.1561414 0.04113077 0.012332758 -0.0615886 -0.036282115 -0.12810853 0.08445653 0.16689882
0.13638622 0.116065025 -0.09496979 0.021140268 -0.07082491 0.092624 0.006051845 0.17584543
-0.10440436 0.12538639 -0.008809851 0.15582195 -0.010022141 0.053402416 0.016836358 0.11731834
-0.04315131 -0.10972668 0.0041052504 0.06925846 -0.050565995 0.07847187 0.025985366 -0.010997356
0.10018211 -0.056070857 -0.1205929 -0.110100135 -0.044662796 0.14368878 -0.11928472 0.113841996
-0.13369049 0.055440526 -0.10643212 0.066224396 -0.14861079 -0.012361368 0.1281433 0.119980514
-0.12404607 -0.054848727 0.051879376 0.1596518 -0.04241665 -0.1413771 0.016755607 0.10665932
-0.063905746 0.14161985 0.03573834 0.09624749 0.10388549 -0.15277594 0.06610822 0.04652527
-0.06644261 -0.045756646 0.011815242 0.14737706 0.040522862 0.013009237 0.052610718 0.12806775
0.14944266 0.12890707 -0.0009364932 0.19420423 0.09271803 0.110453874 -0.009976754 0.15214786
0.1604316 0.044068765 -0.07492668 -0.02142082 0.15720938 0.09990229 0.065558024 0.038349226
0.05834301 0.17633936 -0.09046256 0.15191054 0.15666914 0.064223655 0.11146231 0.15321709
-0.13104957 -0.12902996 -0.113357954 -0.036085796 0.1544439 -0.10574568 0.02213209 0.14812921
0.16217496 0.009535029 -0.07655505 0.09755741 0.1439925 0.13330473 -0.09802156 0.062376577
0.16350503 -0.12661721 -0.12531105 0.109767586 0.14776184 0.047005896 0.09420478 -0.097194485
-0.052495077 -0.13661008 -0.11210172 0.13879353 -0.042625215 0.0307201 -0.03916363 -0.032015946
-0.008886115 0.107324354 0.14832357 -0.15972939 -0.14546569 0.03027189 -0.060745426 -0.10797749
-0.11426605 -0.03468949 -0.013387693 -0.11365485 0.006922455 0.11380254 0.11951488 -0.090914436
-0.033433028 0.1547576 0.13381925 -0.14339057 -0.12843655 -0.14392723 -0.13313508 -0.06989513
-0.17690814 0.008788873 0.15045099 0.0342834 -0.11091615 0.028403802 0.08262287 0.13204896
-0.12500533 -0.022524072 -0.05474018 0.12209976 -0.09522662 -0.020919036 -0.11556563 -0.0070910584
-0.14639285 -0.15419206 -0.1565094 0.08271436 0.123509385 0.053764384 -0.091818966 -0.17970294
-0.08274129 0.17138793 -0.1500995 0.13814612 -0.18626347 0.11364731 0.15877043 0.04578117
0.14828154 -0.055884734 0.037501197 -0.14562717 -0.06791261 -0.11985478 -0.02639894 0.1330806
-0.11412481 -0.15824592 -0.060973536 0.12325474 -0.12076219 0.009565416 0.16030721 -0.100979105
0.11235452 0.17982432 0.07730412 0.12160019 -0.10264519 0.16777231 -0.14534359 -0.015587138
0.10747066 0.096270815 -0.04295004 0.07573557 0.0819549 -0.033465132 -0.10125766 -0.10727462
0.04661465 0.16495794 0.016558545 0.16567966 0.14058769 0.06380422 0.09169486 0.057228398
00000000: 072d 10bc 86f8 343e b6f7 11be 4ed1 26be
00000010: 8a9c 05be dc83 e83d 5391 283e 7cbe 96bc
00000020: 296e 24be 1a48 fd3b 1af1 cc3d f600 223d
00000030: ed93 c0bc b3f3 e53c ddb1 e7bd 20f2 c43b
00000040: 33fd eebd 7ba7 b83d ad85 0fbe a5f3 2c3d
00000050: 1ed8 12be f534 163e 4afd 24be 35e3 a13d
00000060: fc98 3cbd b16b 503d a7fe 343d ec52 84bd
00000070: ff57 c5bd b075 963d 915a 7a3d a1ad f83d
00000080: 88e3 1fbe bd78 283d 560f 4a3c 5444 7cbd
00000090: 8e9c 14bd e22e 03be 8cf7 ac3d 86e7 2a3e
000000a0: d4a8 0b3e 80b3 ed3d 857f c2bd 5b2e ad3c
000000b0: a70c 91bd a7b1 bd3d 8e4e c63b d310 343e
000000c0: f4d1 d5bd 4a65 003e 3157 10bc ca8f 1f3e
000000d0: e833 24bc 7ebc 5a3d 67ec 893c 9944 f03d
000000e0: 6ebf 30bd 62b8 e0bd 5685 863b 61d7 8d3d
000000f0: 4a1e 4fbd dcb5 a03d 43df d43c 412e 34bc
00000100: 472c cd3d 8eaa 65bd 69f9 f6bd 2e7c e1bd
00000110: 56f0 36bd 2723 133e 8c4b f4bd fe25 e93d
00000120: 29e6 08be 9b15 633d 15f9 d9bd a8a0 873d
00000130: 6d2d 18be 5687 4abc ff37 033e 58b8 f53d
00000140: de0b febd 0fa9 60bd 787f 543d c37b 233e
00000150: 15bd 2dbd 29c5 10be 0e43 893c 3470 da3d
00000160: 04e1 82bd cb04 113e 5e62 123d 671d c53d
00000170: eac1 d43d 4c71 1cbe bf63 873d 4891 3e3d
00000180: 1013 88bd 526b 3bbd b794 413c 03ea 163e
00000190: 4dfb 253d b224 553c 567e 573d 3124 033e
000001a0: 7f07 193e 3700 043e ff7e 75ba 79dd 463e
000001b0: f3e2 bd3d a435 e23d 8a75 23bc a6cc 1b3e
000001c0: 2e48 243e 7381 343d 2973 99bd b77a afbc
000001d0: 7ffb 203e 9299 cc3d 4943 863d 1414 1d3d
000001e0: 14f9 6e3d 4e92 343e 6f44 b9bd 708e 1b3e
000001f0: e06d 203e b187 833d 5a46 e43d f1e4 1c3e
00000200: dc31 06be 6e20 04be 3728 e8bd b3ce 13bd
00000210: 8b26 1e3e 3191 d8bd 5b4e b53c 2faf 173e
00000220: 3111 263e cf38 1c3c e5c8 9cbd 2ecc c73d
00000230: c572 133e 0981 083e 87bf c8bd 957e 7f3d
00000240: dd6d 273e f1a7 01be 8a51 00be d4cd e03d
00000250: e14e 173e 4189 403d 70ee c03d e70d c7bd
00000260: 1405 57bd 83e3 0bbe 9695 e5bd e41f 0e3e
00000270: c797 2ebd b8a8 fb3c 0b6a 20bd 2723 03bd
00000280: 1197 11bc dfcc db3d 22e2 173e 1a90 23be
00000290: f5f4 14be c1fc f73c 32d0 78bd 4d23 ddbd
000002a0: 5204 eabd 9116 0ebd 0e58 5bbc e0c3 e8bd
000002b0: c3d5 e23b 4e11 e93d 38c4 f43d 5931 babd
000002c0: 12f1 08bd c778 1e3e ea07 093e fad4 12be
000002d0: df84 03be a961 13be 9054 08be 2e25 8fbd
000002e0: 6827 35be 35ff 0f3c d30f 1a3e c06c 0c3d
000002f0: 0228 e3bd 17af e83c 2e36 a93d d837 073e
00000300: 6601 00be 6784 b8bc 3d37 60bd 700f fa3d
00000310: 2d06 c3bd 665e abbc acad ecbd 1c5c e8bb
00000320: 02e8 15be 86e4 1dbe 0044 20be 2566 a93d
00000330: 7df2 fc3d 0b38 5c3d 950b bcbd 0c04 38be
00000340: 4474 a9bd 5180 2f3e afb3 19be 2d76 0d3e
00000350: dabb 3ebe ecbf e83d b794 223e 0985 3b3d
00000360: 1ed7 173e 64e7 64bd db9a 193d 4a1f 15be
00000370: c415 8bbd 6c76 f5bd 9742 d8bc 4846 083e
00000380: 45ba e9bd 380b 22be 63bf 79bd fb6c fc3d
00000390: 2b52 f7bd 43b8 1c3c 9327 243e 22ce cebd
000003a0: 201a e63d de23 383e 9f51 9e3d 8509 f93d
000003b0: a437 d2bd 81cc 2b3e f3d4 14be 3261 7fbc
000003c0: 9419 dc3d a229 c53d 62ec 2fbd 401b 9b3d
000003d0: f8d7 a73d bc12 09bd 2d60 cfbd ccb2 dbbd
000003e0: 01ef 3e3d bcea 283e c9a5 873c eea7 293e
000003f0: 38f6 0f3e c9ab 823d 84ca bb3d 5368 6a3d

fc_mid.bias f4 [32]
-0.13297999 -0.15973103 0.04290646 0.18200728 -0.09738636 -0.012055384 0.041432455 0.13541207
-0.043586206 -0.030298315 0.121312186 0.14438559 -0.06864295 0.067921005 -0.015455354 -0.077166155
0.17153974 -0.005816307 0.14668918 0.062833875 -0.05440703 -0.13305046 0.025233602 0.025033653
-0.0127823595 -0.04565239 0.16564146 -0.0032972381 -0.065017685 -0.07218956 -0.13416825 0.11514459
00000000: e82b 08be 8890 23be afbe 2f3d 1e60 3a3e
00000010: 8072 c7bd f283 45bc 14b5 293d 76a9 0a3e
00000020: 7387 32bd 2c34 f8bc 8672 f83d d1d9 133e
00000030: ad94 8cbd 2b1a 8b3d 7438 7dbc 4a09 9ebd
00000040: 1da8 2f3e b896 bebb b035 163e 0caf 803d
00000050: e8d9 5ebd 613e 08be b3b6 ce3c 6013 cd3c
00000060: 1a6d 51bc 00fe 3abd ea9d 293e 7a16 58bb
00000070: fe27 85bd 1fd8 93bd 6763 09be edd0 eb3d

fc_out.weight f4 [3, 32]
0.080315076 -0.07511057 -0.12975895 0.028082982 0.1657631 -0.045970026 -0.061012372 0.16179374
0.10471416 0.072619736 0.012561375 0.013565432 0.0842664 0.18313941 -0.03321317 0.1489902
0.15089221 -0.038289968 0.12091648 0.07534537 0.006901757 0.11521355 0.16832069 -0.015220374
0.108149104 0.024416722 0.18163128 -0.059313655 0.12482792 0.12496208 -0.09529394 0.114528775
-0.06739801 -0.11881065 -0.09506265 -0.026559409 0.007353782 0.120199576 -0.031231876 0.07691204
-0.11454647 0.11542443 -0.13249826 -0.08403353 0.07309281 -0.111580536 -0.16240785 -0.033280205
-0.16407923 0.030757295 -0.11444295 0.12032418 -0.17115353 -0.11242134 -0.074693866 0.083782025
0.06341581 0.060531512 -0.013634252 0.09355098 0.115457915 -0.06821385 0.046073437 0.080519915
-0.10271604 -0.15294592 -0.16663845 -0.121925205 0.099756464 0.11634894 0.08882107 0.045808315
-0.16068979 0.07362829 -0.16574372 -0.0737453 -0.05560484 0.00034535766 0.16087745 0.0046443087
-0.10731804 0.10389514 0.09477179 -0.1930058 0.1588273 -0.17383368 -0.09574243 0.124881126
-0.1402122 0.024622567 0.10215832 0.11441225 -0.040838 -0.044593513 0.048234243 -0.017188517
00000000: 3b7c a43d 92d3 99bd 88df 04be 480e e63c
00000010: cdbd 293e 114b 3cbd 1ce8 79bd 42ad 253e
00000020: 6174 d63d a8b9 943d 3ace 4d3c 8c41 5e3c
00000030: dd93 ac3d e688 3b3e 880a 08bd e390 183e
00000040: 7d83 1a3e f1d5 1cbd 0fa3 f73d ac4e 9a3d
00000050: 2228 e23b 15f5 eb3d 425c 2c3e e05e 79bc
00000060: 477d dd3d 9405 c83c 8dfd 393e e0f2 72bd
00000070: c8a5 ff3d 1eec ff3d 7829 c3bd 108e ea3d
00000080: f807 8abd 0053 f3bd 35b0 c2bd 1e93 d9bc
00000090: fff7 f03b 322b f63d fed9 ffbc 0f84 9d3d
000000a0: 5797 eabd a563 ec3d a0ad 07be c519 acbd
000000b0: afb1 953d 5684 e4bd 3e4e 26be d350 08bd
000000c0: 6304 28be b9f6 fb3c 1161 eabd 866c f63d
000000d0: df42 2fbe 293d e6bd 19f9 98bd e995 ab3d
000000e0: 26e0 813d e4ef 773d 3362 5fbc a897 bf3d
000000f0: 3375 ec3d b4b3 8bbd 80b7 3c3d a0e7 a43d
00000100: ca5c d2bd db9d 1cbe 45a3 2abe ecb3 f9bd
00000110: 1e4d cc3d 5a48 ee3d d2e7 b53d 80a1 3b3d
00000120: dd8b 24be 6eca 963d b9b8 29be c707 97bd
00000130: e7c1 63bd 1f11 b539 0fbd 243e 492f 983b
00000140: 90c9 dbbd fac6 d43d b617 c23d 50a3 45be
00000150: a0a3 223e 7501 32be 9b14 c4bd adc1 ff3d
00000160: c993 0fbe 44b5 c93c 6238 d13d f850 ea3d
00000170: bf45 27bd b0a7 36bd 4591 453d efce 8cbc

fc_out.bias f4 [3]
-0.026338369 -0.13760583 -0.10015481
00000000: 90c3 d7bc 8be8 0cbe f71d cdbd

exp_avg f4 [8, 3]
5.4140673e-05 0.0003120471 3.7449726e-07 0.0002794689 0.0006229356 6.834151e-07 0.0 0.0
0.0 0.00019276924 0.00089350436 1.3823137e-07 -0.0008164132 -0.0010162832 9.3002916e-07 0.00034219978
-0.00027612582 -5.1608424e-07 -0.00020362226 0.00016328176 7.1536965e-07 -4.078742e-05 0.0003311459 3.9083633e-07
00000000: 1b15 6338 419a a339 830e c934 ae85 9239
00000010: 804c 233a ee73 3735 0000 0000 0000 0000
00000020: 0000 0000 1922 4a39 103a 6a3a c06c 1434
00000030: 9004 56ba ce34 85ba 1ea7 7935 4769 b339
00000040: fbc4 90b9 0a89 0ab5 6f83 55b9 9d36 2b39
00000050: d407 4035 2913 2bb8 a69d ad39 23d4 d134

exp_avg_sq f4 [8, 3]
1.3588367e-09 1.6585359e-08 3.602975e-14 6.2402683e-09 5.053054e-08 3.7292147e-14 0.0 0.0
0.0 7.849399e-09 6.4413136e-08 3.2010622e-14 2.7872769e-08 5.374723e-08 8.42834e-14 8.703541e-08
1.3221475e-07 1.1470686e-13 7.449476e-09 1.2280745e-08 3.9901527e-14 1.4531565e-08 1.9635882e-08 3.4630058e-14
00000000: d1c1 ba30 9777 8e32 7943 2229 fb69 d631
00000010: eb06 5933 ebf2 2729 0000 0000 0000 0000
00000020: 0000 0000 06da 0632 7f53 8a33 bc29 1029
00000030: de6c ef32 b4d7 6633 12ca bd29 39e8 ba33
00000040: eaf6 0d34 0026 012a 49f6 ff31 4afb 5232
00000050: 54b3 3329 80a6 7932 c3ab a832 bdf5 1b29

exp_avg f4 [8]
0.00032170027 0.0010392511 0.0 0.00096767186 -0.0016140478 -0.0015530932 2.5074447e-05 -0.00043001995
00000000: e1a9 a839 7b37 883a 0000 0000 5cab 7d3a
00000010: 758e d3ba 2991 cbba f756 d237 4d74 e1b9

exp_avg_sq f4 [8]
1.8395797e-08 5.7428945e-08 0.0 7.3517505e-08 8.297072e-08 2.2195887e-07 2.0062341e-08 3.4925797e-08
00000000: c904 9e32 cba7 7633 0000 0000 ade0 9d33
00000010: a32d b233 9753 6e34 8e55 ac32 5201 1633

exp_avg f4 [15, 8, 16]
2.9592018e-09 -1.7080459e-09 -1.7380377e-09 -1.5209424e-09 -1.35575925e-11 0.0 -2.0962312e-09 -2.1786426e-09
-1.8899986e-09 0.0 -1.2373055e-09 -4.974522e-09 9.291403e-11 3.8629246e-09 0.0 0.0
-6.1850223e-09 -3.7955736e-09 -1.2597462e-07 -3.81359e-09 -5.9862533e-09 0.0 -1.3054559e-07 -2.2997786e-07
-8.256679e-08 -2.1870203e-10 -5.9083822e-09 -1.4762321e-07 4.7767563e-09 2.0588693e-07 0.0 -2.8130762e-08
0.0 0.0 0.0 0.0 0.0 0.0 0.0 0.0
0.0 0.0 0.0 0.0 0.0 0.0 0.0 0.0
5.288563e-09 -5.678939e-09 -8.147645e-08 -5.429123e-09 -5.9721794e-10 0.0 -8.306774e-08 -1.3432273e-07
-4.8988344e-08 0.0 -7.1518853e-09 -1.1796081e-07 1.2596159e-09 1.2990647e-07 0.0 -3.7480286e-09
9.556525e-09 -1.2518408e-08 -1.7173267e-07 -1.1629892e-08 -3.853135e-09 0.0 -1.7629706e-07 -2.9103262e-07
-1.0748249e-07 -8.84616e-11 -1.4734706e-08 -2.3832018e-07 3.8322603e-09 2.7755485e-07 0.0 -1.870377e-08
1.8363757e-08 -1.5875782e-09 2.1878803e-09 -2.8354268e-09 6.9848696e-09 0.0 -1.8197646e-09 -2.8335287e-09
-8.249176e-09 -4.9812305e-09 -1.1160727e-09 -8.3759115e-09 2.644913e-09 4.3144603e-09 0.0 -1.6313104e-10
-5.604568e-09 9.568155e-09 -9.896892e-08 1.7153599e-09 -7.422031e-11 0.0 -1.1254302e-07 -2.1100293e-07
-7.990193e-08 -4.45386e-09 -1.0045768e-09 -8.639559e-08 1.1310599e-08 1.7496532e-07 0.0 -4.600536e-08
1.5994065e-09 6.5495707e-09 -8.011381e-09 1.3065563e-09 1.8125755e-09 0.0 -1.5611755e-08 -3.251384e-08
-1.532974e-08 -2.3800426e-09 0.0 5.509092e-09 5.3721436e-09 2.379081e-08 0.0 -2.0102334e-08
0.0 0.0 0.0 0.0 0.0 0.0 0.0 0.0
0.0 0.0 0.0 0.0 0.0 0.0 0.0 0.0
0.0 0.0 0.0 0.0 0.0 0.0 0.0 0.0
0.0 0.0 0.0 0.0 0.0 0.0 0.0 0.0
0.0 0.0 0.0 0.0 0.0 0.0 0.0 0.0
0.0 0.0 0.0 0.0 0.0 0.0 0.0 0.0
0.0 0.0 0.0 0.0 0.0 0.0 0.0 0.0
0.0 0.0 0.0 0.0 0.0 0.0 0.0 0.0
0.0 0.0 0.0 0.0 0.0 0.0 0.0 0.0
0.0 0.0 0.0 0.0 0.0 0.0 0.0 0.0
0.0 0.0 0.0 0.0 0.0 0.0 0.0 0.0
0.0 0.0 0.0 0.0 0.0 0.0 0.0 0.0
0.0 0.0 0.0 0.0 0.0 0.0 0.0 0.0
0.0 0.0 0.0 0.0 0.0 0.0 0.0 0.0
0.0 0.0 0.0 0.0 0.0 0.0 0.0 0.0
0.0 0.0 0.0 0.0 0.0 0.0 0.0 0.0
00000000: d45a 4b31 86c0 eab0 c4df eeb0 6709 d1b0
00000010: f881 6ead 0000 0000 4a0d 10b1 16b7 15b1
00000020: 35e1 01b1 0000 0000 d10d aab0 5cec aab1
00000030: f351 cc2e a5ba 8431 0000 0000 0000 0000
00000040: 0884 d4b1 386a 82b1 a443 07b4 b108 83b1
00000050: a4af cdb1 0000 0000 192c 0cb4 d5ef 76b4
00000060: 934f b1b3 2677 70af ae02 cbb1 5c82 1eb4
00000070: cb20 a431 c511 5d34 0000 0000 33a4 f1b2
00000080: 0000 0000 0000 0000 0000 0000 0000 0000
00000090: 0000 0000 0000 0000 0000 0000 0000 0000
000000a0: 0000 0000 0000 0000 0000 0000 0000 0000
000000b0: 0000 0000 0000 0000 0000 0000 0000 0000
000000c0: b1b6 b531 7a20 c3b1 27f8 aeb3 128b bab1
000000d0: 7a29 24b0 0000 0000 f962 b2b3 5a3a 10b4
000000e0: 4167 52b3 0000 0000 a6bc f5b1 a451 fdb3
000000f0: cb1e ad30 6b7c 0b34 0000 0000 02c8 80b1
00000100: 0b2e 2432 8a10 57b2 8465 38b4 cecc 47b2
00000110: 8964 84b1 0000 0000 2b4c 3db4 383f 9cb4
00000120: 20d1 e6b3 7487 c2ae ec23 7db2 f4e4 7fb4
00000130: ebac 8331 d902 9534 0000 0000 06aa a0b2
00000140: 54be 9d32 f131 dab0 9959 1631 5bd9 42b1
00000150: 90ff ef31 0000 0000 461b fab0 f7b7 42b1
00000160: 42b8 0db2 5e27 abb1 5164 99b0 a6e5 0fb2
00000170: cdc1 3531 653e 9431 0000 0000 4e5d 33af
00000180: 4d92 c0b1 3161 2432 bd88 d4b3 dcc1 eb30
00000190: 5236 a3ae 0000 0000 2eaf f1b3 0b90 62b4
000001a0: 8d96 abb3 9108 99b1 6711 8ab0 7a88 b9b3
000001b0: 8a50 4232 1ade 3b34 0000 0000 6e97 45b3
000001c0: 1dd2 db30 a20a e131 6da2 09b2 5d92 b330
000001d0: 551e f930 0000 0000 9d1a 86b2 58a5 0bb3
000001e0: 74ae 83b2 278e 23b1 0000 0000 7c4a bd31
000001f0: e095 b831 8b5c cc32 0000 0000 80ad acb2
00000200: 0000 0000 0000 0000 0000 0000 0000 0000
00000210: 0000 0000 0000 0000 0000 0000 0000 0000
00000220: 0000 0000 0000 0000 0000 0000 0000 0000
00000230: 0000 0000 0000 0000 0000 0000 0000 0000
00000240: 0000 0000 0000 0000 0000 0000 0000 0000
00000250: 0000 0000 0000 0000 0000 0000 0000 0000
00000260: 0000 0000 0000 0000 0000 0000 0000 0000
00000270: 0000 0000 0000 0000 0000 0000 0000 0000
00000280: 0000 0000 0000 0000 0000 0000 0000 0000
00000290: 0000 0000 0000 0000 0000 0000 0000 0000
000002a0: 0000 0000 0000 0000 0000 0000 0000 0000
000002b0: 0000 0000 0000 0000 0000 0000 0000 0000
000002c0: 0000 0000 0000 0000 0000 0000 0000 0000
000002d0: 0000 0000 0000 0000 0000 0000 0000 0000
000002e0: 0000 0000 0000 0000 0000 0000 0000 0000
000002f0: 0000 0000 0000 0000 0000 0000 0000 0000
00000300: 0000 0000 0000 0000 0000 0000 0000 0000
00000310: 0000 0000 0000 0000 0000 0000 0000 0000
00000320: 0000 0000 0000 0000 0000 0000 0000 0000
00000330: 0000 0000 0000 0000 0000 0000 0000 0000
00000340: 0000 0000 0000 0000 0000 0000 0000 0000
00000350: 0000 0000 0000 0000 0000 0000 0000 0000
00000360: 0000 0000 0000 0000 0000 0000 0000 0000
00000370: 0000 0000 0000 0000 0000 0000 0000 0000
00000380: 0000 0000 0000 0000 0000 0000 0000 0000
00000390: 0000 0000 0000 0000 0000 0000 0000 0000
000003a0: 0000 0000 0000 0000 0000 0000 0000 0000
000003b0: 0000 0000 0000 0000 0000 0000 0000 0000
000003c0: 0000 0000 0000 0000 0000 0000 0000 0000
000003d0: 0000 0000 0000 0000 0000 0000 0000 0000
000003e0: 0000 0000 0000 0000 0000 0000 0000 0000
000003f0: 0000 0000 0000 0000 0000 0000 0000 0000

exp_avg_sq f4 [15, 8, 16]
4.381649e-18 1.5633023e-18 2.6374007e-18 1.5953472e-18 5.3140218e-20 0.0 1.9316144e-18 8.90933e-19
1.4790804e-18 0.0 1.1424628e-18 1.9452095e-17 1.1840783e-19 1.41181e-17 0.0 0.0
1.9093659e-16 6.8269106e-18 1.0019536e-15 8.836382e-18 2.6029427e-17 0.0 9.35732e-16 2.688721e-15
3.4844484e-16 3.6198706e-18 1.4214798e-17 2.474392e-15 1.5667294e-17 2.3550514e-15 0.0 2.6546886e-16
0.0 0.0 0.0 0.0 0.0 0.0 0.0 0.0
0.0 0.0 0.0 0.0 0.0 0.0 0.0 0.0
1.1295415e-16 1.2981218e-17 4.88778e-16 1.7697926e-17 1.2277899e-19 0.0 4.2936e-16 1.0063537e-15
1.2980691e-16 0.0 2.1964385e-17 1.4817973e-15 9.973128e-19 1.1343569e-15 0.0 7.798561e-18
4.6750994e-16 6.219119e-17 2.014387e-15 7.7602366e-17 7.879835e-18 0.0 1.783963e-15 4.296458e-15
5.671075e-16 7.471081e-19 9.265043e-17 6.0200165e-15 9.07419e-18 4.752875e-15 0.0 1.2101667e-16
2.636754e-16 2.7957638e-16 6.873673e-17 4.1347708e-17 7.553349e-17 0.0 2.6406298e-18 6.844234e-17
1.8086865e-16 2.6721312e-17 2.0909343e-18 4.7072977e-16 5.978798e-17 2.268224e-16 0.0 1.2685446e-20
2.727177e-16 5.8469454e-17 7.982965e-16 5.5118626e-18 1.4028975e-16 0.0 8.523172e-16 3.2450677e-15
5.4260984e-16 2.4641123e-17 6.097738e-19 1.2972069e-15 5.3100356e-17 2.3076678e-15 0.0 7.0948194e-16
4.7153067e-17 1.7631628e-17 6.915536e-17 1.6168109e-18 3.8201073e-17 0.0 9.1969944e-17 4.5002675e-16
9.518308e-17 6.804302e-18 0.0 2.512726e-17 1.0003577e-17 2.859112e-16 0.0 1.4029931e-16
0.0 0.0 0.0 0.0 0.0 0.0 0.0 0.0
0.0 0.0 0.0 0.0 0.0 0.0 0.0 0.0
0.0 0.0 0.0 0.0 0.0 0.0 0.0 0.0
0.0 0.0 0.0 0.0 0.0 0.0 0.0 0.0
0.0 0.0 0.0 0.0 0.0 0.0 0.0 0.0
0.0 0.0 0.0 0.0 0.0 0.0 0.0 0.0
0.0 0.0 0.0 0.0 0.0 0.0 0.0 0.0
0.0 0.0 0.0 0.0 0.0 0.0 0.0 0.0
0.0 0.0 0.0 0.0 0.0 0.0 0.0 0.0
0.0 0.0 0.0 0.0 0.0 0.0 0.0 0.0
0.0 0.0 0.0 0.0 0.0 0.0 0.0 0.0
0.0 0.0 0.0 0.0 0.0 0.0 0.0 0.0
0.0 0.0 0.0 0.0 0.0 0.0 0.0 0.0
0.0 0.0 0.0 0.0 0.0 0.0 0.0 0.0
0.0 0.0 0.0 0.0 0.0 0.0 0.0 0.0
0.0 0.0 0.0 0.0 0.0 0.0 0.0 0.0
00000000: 81a7 a122 e4b3 e621 179b 4222 836e eb21
00000010: 95f2 7a1f 0000 0000 2a87 0e22 7f7a 8321
00000020: 1446 da21 0000 0000 0699 a821 f669 b323
00000030: 92ca 0b20 6c37 8223 0000 0000 0000 0000
00000040: 8922 5c25 59de fb22 9065 9026 a200 2323
00000050: 3f14 f023 0000 0000 6bda 8626 26be 4127
00000060: 62dd c825 b68c 8522 be1b 8323 7a4c 3227
00000070: 5a81 9023 08b3 2927 0000 0000 4a08 9925
00000080: 0000 0000 0000 0000 0000 0000 0000 0000
00000090: 0000 0000 0000 0000 0000 0000 0000 0000
000000a0: 0000 0000 0000 0000 0000 0000 0000 0000
000000b0: 0000 0000 0000 0000 0000 0000 0000 0000
000000c0: 2e3a 0225 1276 6f23 73e1 0c26 0c3c a323
000000d0: acf3 1020 0000 0000 5a82 f725 e607 9126
000000e0: 3da8 1525 0000 0000 f095 ca23 ac8c d526
000000f0: 6a2d 9321 627a a326 0000 0000 aadb 0f23
00000100: 25c0 0626 3367 8f24 e226 1127 5af0 b224
00000110: 785b 1123 0000 0000 4f8c 0027 d5cb 9a27
00000120: 2675 2326 e481 5c21 29a3 d524 dae4 d827
00000130: a763 2723 893d ab27 0000 0000 d185 0b25
00000140: 9fff 9725 312a a125 017f 9e24 c2ae 3e24
00000150: 1a2b ae24 0000 0000 16d8 4222 3ad1 9d24
00000160: 0187 5025 ea75 f623 a248 1a22 baad 0726
00000170: 98dc 8924 14c1 8225 0000 0000 0e9f 6f1e
00000180: 0736 9d25 46d2 8624 e317 6626 125a cb22
00000190: 3abe 2125 0000 0000 e9a9 7526 efd4 6927
000001a0: 8a65 1c26 3546 e323 35f9 3321 7df2 ba26
000001b0: d6e1 7424 f548 2627 0000 0000 877e 4c26
000001c0: 8474 5924 819f a223 1f76 9f24 6499 ee21
000001d0: de2b 3024 0000 0000 7911 d424 1db6 0126
000001e0: 2c7a db24 d108 fb22 0000 0000 11c2 e723
000001f0: 8f88 3823 0cd1 a425 0000 0000 0cc1 2125
00000200: 0000 0000 0000 0000 0000 0000 0000 0000
00000210: 0000 0000 0000 0000 0000 0000 0000 0000
00000220: 0000 0000 0000 0000 0000 0000 0000 0000
00000230: 0000 0000 0000 0000 0000 0000 0000 0000
00000240: 0000 0000 0000 0000 0000 0000 0000 0000
00000250: 0000 0000 0000 0000 0000 0000 0000 0000
00000260: 0000 0000 0000 0000 0000 0000 0000 0000
00000270: 0000 0000 0000 0000 0000 0000 0000 0000
00000280: 0000 0000 0000 0000 0000 0000 0000 0000
00000290: 0000 0000 0000 0000 0000 0000 0000 0000
000002a0: 0000 0000 0000 0000 0000 0000 0000 0000
000002b0: 0000 0000 0000 0000 0000 0000 0000 0000
000002c0: 0000 0000 0000 0000 0000 0000 0000 0000
000002d0: 0000 0000 0000 0000 0000 0000 0000 0000
000002e0: 0000 0000 0000 0000 0000 0000 0000 0000
000002f0: 0000 0000 0000 0000 0000 0000 0000 0000
00000300: 0000 0000 0000 0000 0000 0000 0000 0000
00000310: 0000 0000 0000 0000 0000 0000 0000 0000
00000320: 0000 0000 0000 0000 0000 0000 0000 0000
00000330: 0000 0000 0000 0000 0000 0000 0000 0000
00000340: 0000 0000 0000 0000 0000 0000 0000 0000
00000350: 0000 0000 0000 0000 0000 0000 0000 0000
00000360: 0000 0000 0000 0000 0000 0000 0000 0000
00000370: 0000 0000 0000 0000 0000 0000 0000 0000
00000380: 0000 0000 0000 0000 0000 0000 0000 0000
00000390: 0000 0000 0000 0000 0000 0000 0000 0000
000003a0: 0000 0000 0000 0000 0000 0000 0000 0000
000003b0: 0000 0000 0000 0000 0000 0000 0000 0000
000003c0: 0000 0000 0000 0000 0000 0000 0000 0000
000003d0: 0000 0000 0000 0000 0000 0000 0000 0000
000003e0: 0000 0000 0000 0000 0000 0000 0000 0000
000003f0: 0000 0000 0000 0000 0000 0000 0000 0000

exp_avg f4 [16]
0.0014295144 -0.001910198 -0.003929946 -0.0012130322 -0.00059061014 0.0 -0.005122346 -0.009704897
-0.005089636 -0.00027902517 -0.00015073398 -0.010167012 0.00015924168 0.007773656 -0.0010878986 -4.6224715e-05
00000000: 8b5e bb3a 9c5f faba c7c6 80bb 9bfe 9eba
00000010: 2dd3 1aba 0000 0000 5ad9 a7bb 4a01 1fbc
00000020: f6c6 a6bb 204a 92b9 580e 1eb9 8a93 26bc
00000030: 1dfa 2639 27ba fe3b d297 8eba 69e1 41b8

exp_avg_sq f4 [16]
5.234863e-07 7.557833e-07 5.156493e-07 1.3663254e-07 2.2992693e-07 0.0 9.964514e-07 2.6590237e-06
8.904312e-07 3.2425223e-08 6.506768e-09 3.254518e-06 1.4157787e-07 2.3193334e-06 2.473083e-07 9.215376e-10
00000000: b485 0c35 08e1 4a35 266b 0a35 44b5 1234
00000010: d5e1 7634 0000 0000 cfbd 8535 ae71 3236
00000020: f705 6f35 e943 0b33 2392 df31 3268 5a36
00000030: a104 1834 d8a5 1b36 cbc5 8434 724f 7d30

exp_avg f4 [15, 16, 32]
0.0 -2.6841071e-05 -0.00011415248 1.6459813e-05 2.234649e-07 -4.7126057e-05 -0.0003248888 -1.086104e-07
-0.00048390744 -0.00017674388 1.3013985e-07 -0.00035152613 -0.0004428537 -0.00019394401 -0.0005203297 1.4472922e-08
-0.00021629236 0.0 0.0 0.0 -0.00011553889 -0.00034914655 1.4158019e-06 0.0
-4.5807858e-05 -0.0005185363 -0.00019966802 -0.0004780416 1.6091323e-07 -0.00025074687 -0.00037694786 -0.00028903867
0.0 -6.4236424e-06 -2.7281258e-06 7.0610065e-07 0.0 -5.529512e-07 -9.965062e-06 -3.3641978e-08
-9.938997e-06 -2.200805e-06 0.0 -6.363224e-06 -8.334864e-06 -3.6339193e-06 -7.2693383e-06 0.0
-1.7341295e-06 0.0 0.0 0.0 -6.907366e-06 -7.9140445e-06 3.8128525e-07 0.0
-3.084036e-08 -8.966506e-06 -5.6925023e-06 -9.257287e-06 2.026181e-07 -4.0262817e-06 -7.2448374e-06 -4.932296e-06
0.0 -5.701243e-05 -7.344725e-05 4.0759427e-05 7.001803e-08 -0.00010833559 -0.0002454311 -9.400335e-07
-0.0002991255 -9.963874e-05 1.634812e-08 -0.00021109168 -0.0002668114 -0.000118370575 -0.0002856488 2.6144571e-08
-0.00011441247 0.0 0.0 0.0 -0.00014740913 -0.00021951395 2.1805095e-06 0.0
-2.282597e-05 -0.00031782556 -0.00014554887 -0.0002899306 1.0627082e-06 -0.0001471268 -0.0002289671 -0.00017120245
0.0 -2.3068538e-05 -1.0860575e-05 9.644572e-06 0.0 -2.3173137e-05 -3.9072853e-05 -4.643941e-07
-3.9121103e-05 -8.683744e-06 0.0 -2.5076419e-05 -3.2620283e-05 -1.4619552e-05 -2.6240847e-05 8.732259e-09
-6.518107e-06 0.0 0.0 0.0 -2.9843595e-05 -3.124893e-05 1.1094309e-06 0.0
5.4097487e-08 -3.4988552e-05 -2.2607372e-05 -3.6348465e-05 5.612405e-07 -1.5700376e-05 -2.8177425e-05 -1.941129e-05
0.0 -2.1927886e-05 -1.1309283e-05 1.8070921e-06 0.0 -9.964705e-07 -3.88576e-05 -5.9122517e-08
-4.180024e-05 -9.90168e-06 3.9769326e-09 -2.743952e-05 -3.6095083e-05 -1.5521073e-05 -3.7546564e-05 0.0
-8.6949785e-06 0.0 0.0 0.0 -2.192648e-05 -3.3404973e-05 1.27059e-06 0.0
4.6066594e-07 -3.7607515e-05 -2.1333988e-05 -3.9872e-05 5.6976955e-07 -1.7708688e-05 -3.1027183e-05 -2.146026e-05
0.0 0.0 0.0 0.0 0.0 0.0 0.0 0.0
0.0 0.0 0.0 0.0 0.0 0.0 0.0 0.0
0.0 0.0 0.0 0.0 0.0 0.0 0.0 0.0
0.0 0.0 0.0 0.0 0.0 0.0 0.0 0.0
0.0 -3.2167254e-06 -2.1251028e-05 3.5931746e-06 7.18125e-09 -1.3275811e-05 -6.6196444e-05 0.0
-9.082031e-05 -3.3988614e-05 7.2888655e-09 -6.625592e-05 -8.328152e-05 -3.6628386e-05 -9.807736e-05 1.01783e-09
-4.2199772e-05 0.0 0.0 0.0 -2.5151789e-05 -6.436332e-05 2.0227185e-07 0.0
-9.159692e-06 -9.955585e-05 -3.641736e-05 -8.9671616e-05 0.0 -4.8004997e-05 -7.225044e-05 -5.479483e-05
0.0 -3.3345776e-05 -6.320437e-05 1.1364252e-05 6.396938e-08 -2.953172e-05 -0.00019001185 -1.2195717e-07
-0.00026155208 -9.156189e-05 4.879145e-08 -0.00018806862 -0.00023673326 -0.00010477543 -0.00027187646 1.3060931e-09
-0.0001083628 0.0 0.0 0.0 -7.858916e-05 -0.00019083553 1.174663e-06 0.0
-2.3982531e-05 -0.0002783008 -0.00011474875 -0.00025661034 2.6964406e-07 -0.00013225843 -0.00020314583 -0.00015316262
00000000: 0000 0000 c328 e1b7 2565 efb8 2e13 8a37
00000010: 90f1 6f34 38a9 45b8 d655 aab9 333d e9b3
00000020: f5b4 fdb9 5354 39b9 92bc 0b34 0a4d b8b9
00000030: d12e e8b9 735d 4bb9 bc66 08ba 96a4 7832
00000040: 8acc 62b9 0000 0000 0000 0000 0000 0000
00000050: 784d f2b8 a80d b7b9 9506 be35 0000 0000
00000060: d021 40b8 62ee 07ba fa5d 51b9 a8a1 fab9
00000070: 7ec7 2c34 ad76 83b9 16a1 c5b9 1d8a 97b9
00000080: 0000 0000 ab8a d7b6 d814 37b6 de8a 3d35
00000090: 0000 0000 846e 14b5 9e2f 27b7 bf7d 10b3
000000a0: abbf 26b7 8bb1 13b6 0000 0000 ae83 d5b6
000000b0: f8d5 0bb7 42de 73b6 24eb f3b6 0000 0000
000000c0: 3cc0 e8b5 0000 0000 0000 0000 0000 0000
000000d0: d2c5 e7b6 90c6 04b7 72b3 cc34 0000 0000
000000e0: 5675 04b3 da6e 16b7 3902 bfb6 bf4f 1bb7
000000f0: 3d8f 5934 7f19 87b6 ae18 f3b6 1a80 a5b6
00000100: 0000 0000 a120 6fb8 b107 9ab8 1af5 2a38
00000110: d25c 9633 3a32 e3b8 34ad 80b9 9c56 7cb5
00000120: f2d3 9cb9 24f5 d0b8 e56d 8c32 7e58 5db9
00000130: d2e2 8bb9 b83d f8b8 22c3 95b9 8594 e032
00000140: baf0 efb8 0000 0000 0000 0000 0000 0000
00000150: d691 1ab9 542d 66b9 de54 1236 0000 0000
00000160: 667a bfb7 d3a1 a6b9 7a9e 18b9 d401 98b9
00000170: 60a2 8e35 0d46 1ab9 e316 70b9 cf84 33b9
00000180: 0000 0000 4f83 c1b7 d035 36b7 1fcf 2137
00000190: 0000 0000 ef63 c2b7 28e2 23b8 d751 f9b4
000001a0: f715 24b8 66b0 11b7 0000 0000 335b d2b7
000001b0: c3d1 08b8 7f46 75b7 ca1f dcb7 e204 1632
000001c0: 1db6 dab6 0000 0000 0000 0000 0000 0000
000001d0: a258 fab7 4811 03b8 c1e7 9435 0000 0000
000001e0: d158 6833 acc0 12b8 f6a4 bdb7 de74 18b8
000001f0: 27a8 1635 4db4 83b7 8f5e ecb7 6ed5 a2b7
00000200: 0000 0000 c7f1 b7b7 00bd 3db7 368b f235
00000210: 0000 0000 77be 85b5 08fb 22b8 e5ed 7db3
00000220: aa52 2fb8 641f 26b7 78a5 8831 ec2d e6b7
00000230: cd64 17b8 4033 82b7 517b 1db8 0000 0000
00000240: a6e0 11b7 0000 0000 0000 0000 0000 0000
00000250: c2ee b7b7 511c 0cb8 2489 aa35 0000 0000
00000260: 7251 f734 c3bc 1db8 64f6 b2b7 3c3c 27b8
00000270: 44f2 1835 1e8d 94b7 2f23 02b8 8f05 b4b7
00000280: 0000 0000 0000 0000 0000 0000 0000 0000
00000290: 0000 0000 0000 0000 0000 0000 0000 0000
000002a0: 0000 0000 0000 0000 0000 0000 0000 0000
000002b0: 0000 0000 0000 0000 0000 0000 0000 0000
000002c0: 0000 0000 0000 0000 0000 0000 0000 0000
000002d0: 0000 0000 0000 0000 0000 0000 0000 0000
000002e0: 0000 0000 0000 0000 0000 0000 0000 0000
000002f0: 0000 0000 0000 0000 0000 0000 0000 0000
00000300: 0000 0000 ecde 57b6 3c44 b2b7 4522 7136
00000310: f1be f631 2dbb 5eb7 f2d2 8ab8 0000 0000
00000320: c876 beb8 ff8e 0eb8 8a71 fa31 e0f2 8ab8
00000330: 6da7 aeb8 6ea1 19b8 e2ae cdb8 b6e3 8b30
00000340: a9ff 30b8 0000 0000 0000 0000 0000 0000
00000350: 0efd d2b7 cbfa 86b8 1030 5934 0000 0000
00000360: 94ac 19b7 a4c8 d0b8 d8be 18b8 150e bcb8
00000370: 0000 0000 f958 49b8 2985 97b8 80d3 65b8
00000380: 0000 0000 c1dc 0bb8 968c 84b8 17a9 3e37
00000390: 8a5f 8933 e3ba f7b7 eb3d 47b9 55f3 02b4
000003a0: ed20 89b9 ea04 c0b8 c48e 5133 4934 45b9
000003b0: 9a3b 78b9 e1ba dbb8 a48a 8eb9 1182 b330
000003c0: d640 e3b8 0000 0000 0000 0000 0000 0000
000003d0: 3cd0 a4b8 061b 48b9 1da9 9d35 0000 0000
000003e0: 182e c9b7 e7e8 91b9 44a5 f0b8 a889 86b9
000003f0: 99c3 9034 daae 0ab9 8b03 55b9 479a 20b9
