GPU/checkpoints_kpconv/kpconv_best_miou_0.3481.pth (torch, 144101 bytes, 32 tensors)

fc_in.weight f4 [8, 3]
-0.21477479 0.56319857 0.55138373 0.0030217853 -0.003320897 -0.4789823 -0.16550544 -0.2265241
0.20745797 0.32603335 -0.008669626 -0.4275838 0.14792642 0.2619908 -0.19216856 0.16351189
-0.043623626 -0.5349691 0.49546236 -0.47846547 0.1177556 0.16799374 -0.428972 0.34789807
00000000: eced 5bbe c82d 103f 7c27 0d3f 2509 463b
00000010: 68a3 59bb 2b3d f5be 427a 29be eff5 67be
00000020: dd6f 543e d8ed a63e 0c0b 0ebc 44ec dabe
00000030: 067a 173e a823 863e d6c7 44be a96f 273e
00000040: b0ae 32bd bcf3 08bf 3ead fd3e 6df9 f4be
00000050: d929 f13d 8d06 2c3e 38a2 dbbe b21f b23e

fc_in.bias f4 [8]
0.20393457 -0.56320703 -0.009084636 -0.08414116 -0.07664763 0.0068548694 0.07089955 0.14032406
00000000: 39d4 503e 562e 10bf bad7 14bc 3352 acbd
00000010: 6ff9 9cbd d09e e03b c933 913d 1cb1 0f3e

kpconv1.kernel_weights f4 [15, 8, 16]
-0.0051624295 -0.03468624 -0.27239034 -0.5119755 -0.5573816 -0.30222046 -0.34272036 0.30465633
0.3302033 0.77659166 0.11740315 0.20333552 0.6398996 0.59735435 -1.2254661 -1.002526
0.8518628 -0.39449894 -0.32319477 0.8922407 -0.393121 0.042586155 -0.18007964 -0.60353726
-0.4061222 0.025428103 -0.82382476 -0.56677455 -0.10744622 0.116946824 -0.6624241 0.5299739
0.601359 0.06239989 1.1647409 -0.51585823 -0.23770514 -0.18175578 0.104988486 0.26998407
0.17934175 -0.14007917 -0.16869964 -0.2148828 -0.41827655 0.19044693 0.24092524 0.370333
-0.4563129 0.5229829 0.31132177 -0.078834325 0.56636345 -0.08870989 0.15035212 -0.16235256
0.012338479 0.6256249 0.35004506 0.3437665 -0.033278264 -0.39262506 -0.30230486 -0.23778781
0.5970201 -0.84848213 0.4805721 0.4053346 0.5883172 0.6588944 -0.12436233 0.28895938
0.11573424 0.6310707 0.12601613 -0.8036886 -0.29325777 -0.1820286 0.54914856 0.4896097
-0.22979692 0.09121471 0.5036185 0.8649823 -0.21158004 0.26621836 0.56570846 -0.1640213
-1.0226098 0.027519258 -0.30618796 -0.19840617 -0.21264823 0.20713799 0.21247411 -0.00033825706
0.23985125 0.66837 -0.5107413 -0.7334547 0.96595025 -0.98309994 -0.62519044 0.5239364
0.17004974 -0.21617839 0.30024433 -0.023929968 0.27409965 -0.049969938 0.053622458 0.5520923
-0.06639632 0.8142029 -0.39039263 0.56806487 -0.019880112 0.77172464 0.51844597 0.5307185
-0.44874054 -0.10058527 -0.2507695 -0.28170657 -0.22903174 0.20685041 0.19898409 0.17637758
-0.29614374 -1.4317873 -0.46279594 -0.8733394 -0.12264179 -0.416399 -0.04705009 0.3227327
0.21765764 -0.79519576 0.44018906 -0.32198492 -0.16711232 -0.06507657 -0.16114089 0.12366091
0.06411502 -0.7662801 -0.36649212 -0.18184285 0.15304966 -0.11943453 0.33640504 0.74194294
-0.043776125 0.2857607 -0.34782568 0.31228602 0.50501573 -0.39790136 0.6377909 0.18661569
-0.35451266 -0.39032558 -0.043355267 0.29094803 -0.07161907 -0.12979338 0.74867725 0.029694043
0.4460263 -0.0048201014 0.5220416 0.9044242 -0.7459557 0.011328356 -0.030242156 -0.45986444
-0.40509197 -0.3694731 0.40417978 0.27395135 -0.19355315 -0.73325217 -0.35292965 0.2331754
0.027049141 0.02788953 -0.30952883 -0.71697676 -0.15595472 0.46257263 1.2631288 -0.056456275
1.0009464 0.34348413 0.5198267 -0.122619376 0.20692493 0.90635276 0.119726256 0.3109606
-0.21559136 0.08039378 -0.19803642 0.33360273 -0.20832583 0.5733182 -0.5208925 0.08073245
-0.30899632 -0.889641 0.9917512 -0.030683158 0.429899 -0.13167234 -0.312601 -0.4778916
-0.9332443 0.010539524 0.07162287 -0.30580184 0.4267922 -0.065388545 -0.9721108 -0.34958383
-0.09538071 -0.16549559 0.19542989 0.31689385 0.45552704 0.012308149 0.09130417 -0.8776274
-0.7313861 -0.37705877 0.041457426 0.043582834 -0.17524783 0.1625475 -0.0981723 0.26900053
0.46966064 0.20791683 0.21146667 -0.66944635 0.7859165 0.338696 0.21931447 -0.56954527
-0.47703126 0.051048867 1.1773131 0.3960751 0.19202209 0.45301598 0.5614733 0.18232334
00000000: 9929 a9bb 2913 0ebd bf76 8bbe d410 03bf
00000010: 8fb0 0ebf a4bc 9abe 0b79 afbe eafb 9b3e
00000020: 6810 a93e b6ce 463f 1071 f03d 3037 503e
00000030: 76d0 233f 37ec 183f 13dc 9cbf c652 80bf
00000040: ae13 5a3f c4fb c9be c979 a5be e369 643f
00000050: 2847 c9be d26e 2e3d cc66 38be 6b81 1abf
00000060: 40ef cfbe 994e d03c 2ee6 52bf 2318 11bf
00000070: c40c dcbd d181 ef3d a094 29bf 5fac 073f
00000080: aaf2 193f 0797 7f3d 3b16 953f 490f 04bf
00000090: fa68 73be 301e 3abe 3404 d73d 5a3b 8a3e
000000a0: 5da5 373e ea70 0fbe 99bf 2cbe 3d0a 5cbe
000000b0: 5828 d6be 8504 433e 1bb5 763e 499c bd3e
000000c0: d8a1 e9be 35e2 053f 9165 9f3e e473 a1bd
000000d0: 32fd 103f 88ad b5bd e8f5 193e c03f 26be
000000e0: 5527 4a3c f428 203f 1b39 b33e 2a02 b03e
000000f0: ca4e 08bd 2706 c9be b4c7 9abe a67e 73be
00000100: 4fd6 183f 2036 59bf 8c0d f63e 0488 cf3e
00000110: f59b 163f 4ead 283f adb1 febd 7cf2 933e
00000120: 1306 ed3d d98d 213f 5f0a 013e 89be 4dbf
00000130: e225 96be b565 3abe 0095 0c3f 1fae fa3e
00000140: e24f 6bbe c7ce ba3d 24ed 003f 7b6f 5d3f
00000150: 70a8 58be c64d 883e 45d2 103f 33f5 27be
00000160: e1e4 82bf 1170 e13c abc4 9cbe fd2a 4bbe
00000170: 75c0 59be fb1b 543e d092 593e 1858 b1b9
00000180: 919b 753e 4c1a 2b3f f1bf 02bf b0c3 3bbf
00000190: 8448 773f 70ac 7bbf 7b0c 20bf b220 063f
000001a0: 8521 2e3e de5d 5dbe a0b9 993e c808 c4bc
000001b0: ca56 8c3e 47ad 4cbd 39a3 5b3d ec55 0d3f
000001c0: cbfa 87bd 9a6f 503f 8be1 c7be b36c 113f
000001d0: 9edb a2bc bf8f 453f e0b8 043f 2bdd 073f
000001e0: 52c1 e5be a6ff cdbd dc64 80be d83b 90be
000001f0: 4c87 6abe 98d0 533e 7cc2 4b3e 539c 343e
00000200: 27a0 97be ce44 b7bf 97f3 ecbe 2c93 5fbf
00000210: 9e2b fbbd 4032 d5be 98b7 40bd 383d a53e
00000220: a5e1 5e3e f391 4bbf 7660 e13e 35db a4be
00000230: 7e1f 2bbe dd46 85bd 1e02 25be ee41 fd3d
00000240: bc4e 833d ef2a 44bf dba4 bbbe 0335 3abe
00000250: 0db9 1c3e 179a f4bd 483d ac3e f9ef 3d3f
00000260: 984e 33bd 3a4f 923e 3516 b2be f4e3 9f3e
00000270: b648 013f bab9 cbbe 4446 233f 2f18 3f3e
00000280: af82 b5be c1d8 c7be 4b95 31bd 24f7 943e
00000290: 05ad 92bd 8ee8 04be 50a9 3f3f ec40 f33c
000002a0: 8f5d e43e f1f1 9dbb 85a4 053f 5888 673f
000002b0: f4f6 3ebf 929a 393c 66be f7bc 5a73 ebbe
000002c0: 3768 cfbe 942b bdbe a7f0 ce3e 5a43 8c3e
000002d0: cc32 46be 6ab6 3bbf 32b3 b4be 88c5 6e3e
000002e0: 2996 dd3c 9578 e43c 907a 9ebe ca8b 37bf
000002f0: 98b2 1fbe 52d6 ec3e 34ae a13f b23e 67bd
00000300: 031f 803f 27dd af3e 5d13 053f de1f fbbd
00000310: 21e4 533e bc06 683f 0a33 f53d 3a36 9f3e
00000320: fbc3 5cbe 7ea5 a43d 0fca 4abe facd aa3e
00000330: 5e53 55be fbc4 123f 3659 05bf 0e57 a53d
00000340: c434 9ebe 83bf 63bf 68e3 7d3f 3f5b fbbc
00000350: b91b dc3e 1dd5 06be 3d0d a0be 35ae f4be
00000360: 19e9 6ebf f8ad 2c3c 03af 923d 0f92 9cbe
00000370: 8284 da3e 6eea 85bd 41dc 78bf a7fc b2be
00000380: f656 c3bd ad77 29be c61e 483e e93f a23e
00000390: d73a e93e 1ea8 493c aefd ba3d 30ac 60bf
000003a0: 1f3c 3bbf d90d c1be 43cf 293d ea83 323d
000003b0: 2b74 33be da72 263e 8f0e c9bd 70ba 893e
000003c0: 5c77 f03e 26e8 543e b88a 583e d660 2bbf
000003d0: d331 493f 9069 ad3e f993 603e b8cd 11bf
000003e0: 713d f4be 9e18 513d 32b2 963f 5bca ca3e
000003f0: 70a1 443e b6f1 e73e b7bc 0f3f f8b2 3a3e

kpconv1.bias f4 [16]
-0.0063510304 -0.00674868 0.01177367 -0.0018802456 -0.0046832166 -0.0011441663 0.011924107 0.0018668242
-0.010971393 -0.0056832647 -0.015796296 -0.010616565 0.010440577 -0.009446737 -0.004456948 -2.8198265e-05
00000000: 4e1c d0bb 0824 ddbb 5ae6 403c 9372 f6ba
00000010: ab75 99bb daf7 95ba 545d 433c 3ab0 f43a
00000020: 5cc1 33bc ae3a babb 3c67 81bc 1af1 2dbc
00000030: f40e 2b3c 7dc6 1abc 970b 92bb 508b ecb7

kpconv1.kernel_points f4 [15, 3]
0.0025846476 0.07914927 -0.086747915 0.042414512 0.03509607 -0.059728213 -0.0039712205 0.0040856292
-0.006086851 0.012081656 -9.272399e-05 0.011422161 0.1363357 -0.20908551 -0.0892646 -0.10613881
0.15992606 0.19309948 0.06507359 0.05667578 -0.03635263 0.018098036 0.055490527 0.18787168
0.06597326 0.0324462 -0.0005455942 0.18182927 -0.08413223 0.14745243 0.004966621 0.008029962
-0.003042293 -0.2885582 0.06217506 0.016640637 -0.1520466 0.03503164 0.05743537 0.23111476
0.08236235 0.034816634 -0.22511272 -0.01386156 0.08460074
00000000: 3163 293b 0319 a23d e4a8 b1bd d7ba 2d3d
00000010: e6c0 0f3d 92a5 74bd 0321 82bb bee0 853b
00000020: 3574 c7bb 23f2 453c d074 c2b8 0424 3b3c
00000030: 969b 0b3e 831a 56be 5cd0 b6bd 4e5f d9bd
00000040: a8c3 233e dfbb 453e 4d45 853d dd24 683d
00000050: 7fe6 14bd 5542 943c 094a 633d 6f61 403e
00000060: fd1c 873d 4ee6 043d 3506 0fba 7431 3a3e
00000070: 854d acbd c5fd 163e 09bf a23b 1a90 033c
00000080: 3561 47bb e6bd 93be 47ab 7e3d f251 883c
00000090: 1bb2 1bbe 567d 0f3d 5a41 6b3d 59a9 6c3e
000000a0: 97ad a83d e39b 0e3d f383 66be 991b 63bc
000000b0: 2743 ad3d

kpconv2.kernel_weights f4 [15, 16, 32]
-0.016317127 -0.29809174 0.54526335 0.26407167 -0.33520612 -0.019267404 0.064481795 0.060384996
-0.10436785 0.11765082 -0.20743784 0.29533908 -0.32516697 -0.071472645 -0.04649553 -0.32122546
0.23233679 -0.06957047 -0.24359994 -0.6075751 -0.07687486 0.1914937 -0.7083848 -0.34901512
0.9220433 -0.008130579 -0.481667 0.29803947 -0.03303879 -0.23949413 -0.6117159 -0.5720765
-0.045657538 -0.31938875 -0.14228259 -0.3319181 0.08748977 0.4534185 -0.32780516 0.4081541
0.30731502 -0.19501749 0.036645673 0.52405214 -0.15921055 0.22014083 -0.02209964 -0.09778378
-0.24181625 0.18409237 0.029430259 0.057412915 -0.10286013 -0.034379818 0.5896124 0.051358197
0.1759316 -0.013406331 -0.23255898 0.32953304 0.086411215 0.6267826 -0.010523001 -0.22392063
0.10249315 -0.23891543 0.60072756 0.062140234 0.23438397 0.13842522 0.21296644 0.18887274
0.31472746 -0.32707122 0.15272997 -0.34634998 -0.61977524 -0.38976315 0.035778265 -0.53395426
0.24728158 -0.72738075 -0.29304126 0.11615227 0.10611327 -0.33905992 -0.5721102 0.10482188
0.1560034 0.2709537 0.2892676 0.30261996 0.17605262 -0.13379344 -0.28387153 -0.6626634
0.4398089 0.2365959 0.09765358 -0.32763672 0.00023163474 -0.1314907 0.19707777 0.3342159
0.8130505 -0.11561998 -0.14213583 0.087097146 -0.086548015 0.12337226 -0.37414724 0.24153492
-0.07278962 -0.23641652 0.035961255 0.30340236 -0.25599372 -0.1703742 -0.5534578 0.334476
0.49200785 -0.32344684 -0.21952124 -0.20930077 0.025105925 -0.10972497 0.11866266 -0.6312266
-0.23711155 -0.11426678 -0.640118 -0.04566034 0.8609412 0.36668766 -0.08906996 0.13232939
-0.10526459 -0.07904192 -0.70474905 -0.23178722 0.22561654 -0.36197403 -0.13067317 -0.26074755
-0.2806622 0.8142561 0.4464122 -0.50242466 0.33216184 -0.067695715 -0.37217766 0.5048589
-0.26214692 0.29713517 0.051810544 -0.42102754 0.339178 -0.778755 0.1088744 -0.23626328
-0.13070817 0.4005726 0.059165172 -0.07688402 0.056825344 -0.0943265 0.039622396 -0.49050272
-0.68266875 0.07436198 0.761344 0.06127323 0.09096706 0.024616066 -0.79275656 0.1481507
-0.03561063 -0.548544 -0.53817755 0.4085097 0.2861143 -0.30810708 0.15260856 0.16569734
-0.12000964 -0.46941236 -0.045192312 0.15399392 -0.28237674 0.014947982 -0.10099195 -0.22574756
0.24236813 0.09064274 0.2578886 -0.3907132 0.031378713 0.6381914 0.50622815 0.24906856
0.22372249 0.13961416 0.012155594 -0.10806624 1.071061 -0.11044746 -0.5855515 0.99539703
-0.25401706 0.2720141 0.09448558 0.1150504 0.3039479 0.022015085 0.17816374 0.36251536
0.10360547 0.067580365 0.29655817 0.016120581 0.1458229 0.068003066 -0.63649297 -0.19835795
-0.1566064 -0.6418861 -0.22035217 -0.26515037 -0.16019648 -0.38707358 0.18972284 0.01256055
0.18330882 -0.19295141 0.11963934 0.59744734 0.2279928 0.1270676 0.21828263 0.023065794
-0.074841134 0.09253753 -0.39438772 -0.09670386 0.40669495 -0.3889734 0.21876694 0.21514246
-0.04226667 -0.03521362 0.4446659 -0.027091075 -0.1776094 0.49728945 -0.5138396 0.16484013
00000000: 7fab 85bc 7b9f 98be 6196 0b3f 6734 873e
00000010: 23a0 abbe add6 9dbc 080f 843d 4256 773d
00000020: d0be d5bd eaf2 f03d 966a 54be af36 973e
00000030: 497c a6be 4060 92bd 1972 3ebd aa77 a4be
00000040: b2e9 6d3e f67a 8ebd 4372 79be 0b8a 1bbf
00000050: 9170 9dbd ed16 443e b558 35bf 1cb2 b2be
00000060: 080b 6c3f 1f36 05bc 0f9d f6be a198 983e
00000070: af53 07bd f33d 75be 6a99 1cbf 9b73 12bf
00000080: 6603 3bbd ec86 a3be 87b2 11be 2bf1 a9be
00000090: d62d b33d 7826 e83e 14d6 a7be 93f9 d03e
000000a0: 6558 9d3e aab2 47be c619 163d 4828 063f
000000b0: 1708 23be 996c 613e 4e0a b5bc dd42 c8bd
000000c0: ae9e 77be b682 3c3e ba17 f13c ce29 6b3d
000000d0: 55a8 d2bd dad1 0cbd d7f0 163f f95c 523d
000000e0: 6a27 343e 3aa6 5bbc f123 6ebe 8eb8 a83e
000000f0: 5df8 b03d d374 203f aa68 2cbc 734b 65be
00000100: eee7 d13d 3fa6 74be 48c9 193f c286 7e3d
00000110: 5a02 703e 57bf 0d3e e013 5a3e db67 413e
00000120: f523 a13e e175 a7be 3f65 1c3e c954 b1be
00000130: 97a9 1ebf 098f c7be 3b8c 123d 3ab1 08bf
00000140: 6237 7d3e a035 3abf 8109 96be 3ee1 ed3d
00000150: ea51 d93d 4399 adbe d075 12bf dbac d63d
00000160: 5bbf 1f3e 72ba 8a3e e21a 943e 01f1 9a3e
00000170: 2347 343e 2601 09be 9c57 91be 4fa4 29bf
00000180: a22e e13e 3246 723e 9afe c73d 00c0 a7be
00000190: fae2 7239 80a5 06be c1ce 493e 591e ab3e
000001a0: 1424 503f 2bca ecbd 0e8c 11be fd5f b23d
000001b0: 1640 b1bd 98aa fc3d 3a90 bfbe ee54 773e
000001c0: b912 95bd 2c17 72be 1c4c 133d 8e57 9b3e
000001d0: 9c11 83be 9376 2ebe 69af 0dbf 7040 ab3e
000001e0: 74e8 fb3e d39a a5be 2dca 60be f152 56be
000001f0: f1aa cd3c 7cb7 e0bd 6905 f33d 1198 21bf
00000200: 5fcd 72be b404 eabd c6de 23bf 5606 3bbd
00000210: a466 5c3f 7cbe bb3e 506a b6bd 5b81 073e
00000220: f694 d7bd bbe0 a1bd 6f6a 34bf a159 6dbe
00000230: 0608 673e a954 b9be 30cf 05be b480 85be
00000240: f5b2 8fbe 1673 503f 2490 e43e e79e 00bf
00000250: 1e11 aa3e 0da4 8abd 128e bebe 6f3e 013f
00000260: 1f38 86be 1a22 983e 4b37 543d ec90 d7be
00000270: bda8 ad3e 7d5c 47bf 8bf9 de3d 00ef 71be
00000280: 5dd8 05be da17 cd3e 2e57 723d 5e75 9dbd
00000290: b1c1 683d 412e c1bd 184b 223d 2c23 fbbe
000002a0: 61c3 2ebf 184b 983d 71e7 423f a3f9 7a3d
000002b0: f04c ba3d a2a7 c93c 18f2 4abf d1b4 173e
000002c0: 74dc 11bd 616d 0cbf 01c6 09bf 2f28 d13e
000002d0: 937d 923e 36c0 9dbe 6b45 1c3e 90ac 293e
000002e0: 9dc7 f5bd d156 f0be 931b 39bd 95b0 1d3e
000002f0: af93 90be 61e8 743c ded4 cebd 5e2a 67be
00000300: 5a2f 783e e7a2 b93d f909 843e 900b c8be
00000310: f786 003d 8360 233f 2b98 013f d40b 7f3e
00000320: 8217 653e 04f7 0e3e 4228 473c d551 ddbd
00000330: 8718 893f 4732 e2bd b4e6 15bf 57d2 7e3f
00000340: 860e 82be 6f45 8b3e a881 c13d 8b9f eb3d
00000350: 0f9f 9b3e fb58 b43c 8e70 363e 9d9b b93e
00000360: 1b2f d43d 9367 8a3d 79d6 973e 4f0f 843c
00000370: 9952 153e 3145 8b3d 34f1 22bf 591e 4bbe
00000380: 6e5d 20be a652 24bf 00a4 61be cac1 87be
00000390: 8c0a 24be 822e c6be b446 423e c4ca 4d3c
000003a0: 4fb5 3b3e 0e95 45be 7805 f53d 4ff2 183f
000003b0: f276 693e 021e 023e 7b85 5f3e 7af4 bc3c
000003c0: 4f46 99bd 5184 bd3d 30ed c9be ac0c c6bd
000003d0: 523a d03e 8627 c7be 7104 603e 4e4e 5c3e
000003e0: d11f 2dbd 283c 10bd 40ab e33e 1aee ddbc
000003f0: 3ddf 35be b99c fe3e fe8a 03bf dacb 283e

kpconv2.bias f4 [32]
0.023017308 -0.0085516535 -0.009938826 0.022806149 0.022494677 0.0232881 -0.0061473367 -0.004969683
-0.0037212605 -0.012334725 0.021687595 -0.0056290533 0.022897623 -0.002144258 -0.0041727507 -0.01198311
-0.011999824 -0.012761129 0.022464037 0.022866448 -0.0062643047 -0.009017598 -0.014227806 -0.009879567
-0.008082855 0.014197833 -0.0046055564 -0.0057502845 -0.0035624346 -0.004841934 -0.005409336 0.022840055
00000000: cb8e bc3c 3c1c 0cbc 75d6 22bc f6d3 ba3c
00000010: c246 b83c afc6 be3c 996f c9bb b9d8 a2bb
00000020: 64e0 73bb 9617 4abc 2faa b13c ec73 b8bb
00000030: cc93 bb3c ae86 0cbb 92bb 88bb ce54 44bc
00000040: e99a 44bc 0e14 51bc 8006 b83c 6b52 bb3c
00000050: cc44 cdbb 8cbe 13bc be1b 69bc e8dd 21bc
00000060: f36d 04bc 079e 683c 35ea 96bb e26c bcbb
00000070: bc77 69bb 16a9 9ebb cd40 b1bb 111b bb3c

kpconv2.kernel_points f4 [15, 3]
0.15106305 0.13749008 -0.11843139 0.16206782 0.13203315 -0.0048957206 0.12448392 -0.20233591
-0.17429717 -0.0474072 -0.12061485 0.085501336 -0.27654356 0.11785529 0.20838048 -0.17053048
-0.07633457 -0.027146308 -0.009497939 -0.05075075 0.019867288 0.28009763 0.045527793 0.21731701
0.09795995 0.23897384 0.070785575 -0.009130645 -0.04119299 0.060096484 0.040750936 -0.05666698
0.14871058 -0.08057932 -0.19850066 0.19579172 -0.09661027 -0.051141564 -0.117988594 0.14985238
-0.040099174 -0.16650707 0.0149751995 0.020273356 0.10469845
00000000: 46b0 1a3e 33ca 0c3e 288c f2bd 1bf5 253e
00000010: b333 073e 486c a0bb 6df1 fe3d 2531 4fbe
00000020: f57a 32be 0d2e 42bd eb04 f7bd 531b af3d
00000030: 1e97 8dbe 1d5e f13d b161 553e 8b9f 2ebe
00000040: 4d55 9cbd ef61 debc 3e9d 1bbc 05e0 4fbd
00000050: b9c0 a23c f568 8f3e 5a7b 3a3d 5a88 5e3e
00000060: 3a9f c83d 8fb5 743e 07f8 903d b398 15bc
00000070: fbb9 28bd bb27 763d 74ea 263d a31b 68bd
00000080: 9647 183e c506 a5bd c243 4bbe a07d 483e
00000090: 9bdb c5bd d179 51bd 01a4 f1bd e772 193e
000000a0: 083f 24bd d480 2abe 8a5a 753c 4f14 a63c
000000b0: 246c d63d

fc_mid.weight f4 [32, 32]
0.16496897 0.10074881 0.021206697 -0.11235644 0.018191196 -0.026012508 -0.13730413 0.08047014
0.091438614 0.16343467 -0.038452398 0.03850446 -0.05672802 0.123944715 -0.11361479 -0.11845152
0.07829226 -0.110821955 0.027190503 -0.1117362 0.02709765 0.13837704 0.040517017 0.14856757
0.044969454 -0.06182349 0.019961083 -0.010899233 -0.081533976 0.14085081 0.11184481 0.030500524
0.12120186 0.08505092 -0.10080005 0.06953817 0.080729365 -0.02929667 0.14358053 -0.10899963
-0.0706712 -0.13660088 -0.14716884 0.0089639565 -0.019753654 -0.059454016 0.13188624 -0.05385214
0.16088656 -0.13788158 -0.10833187 0.030372526 -0.14175263 0.091899395 0.03519562 0.022758622
-0.13988 -0.12965634 0.10953147 0.076698855 -0.13316761 0.14420003 0.04749639 -0.10459134
-0.16456977 0.06716308 -0.16709274 -0.08908862 0.1625173 0.03160996 -0.08806489 -0.06756392
-0.10908549 0.09990226 -0.094628 -0.018063668 0.12322453 -0.13973503 0.06387722 0.064158246
0.15747826 0.04723054 0.113673724 0.02403312 0.13324627 0.1377955 -0.022536585 0.05133465
0.057625856 -0.042682823 0.023209715 0.13357146 0.10061667 -0.027255243 -0.18479064 -0.11367287
0.083771475 -0.15002085 0.14363703 0.13485372 -0.0700043 -0.02351847 -0.032311123 0.022794142
-0.095663965 -0.15388803 0.17422475 -0.041501228 0.1502978 0.11799821 -0.054147784 0.07213867
0.14828974 -0.11101969 -0.119038954 -0.120156564 -0.08602196 0.00906281 0.042296447 0.022573639
-0.05876547 0.034445506 -0.08028872 0.11130787 0.081603564 -0.13975458 -0.14593835 0.090492085
-0.04816912 -0.0619798 -0.059149127 -0.16022216 -0.10085952 0.002031078 0.13219021 -0.11663006
0.083657786 -0.0053680325 0.11379293 0.019517148 -0.116687045 -0.10365339 0.06113261 -0.16502288
-0.08677016 -0.15505001 0.10633391 -0.11824174 0.0338517 -0.043941233 0.02108182 0.08057092
-0.0128431115 0.15097281 -0.014184198 0.04956088 -0.07054281 -0.011462642 0.0013868604 -0.15208562
-0.0317157 0.052485753 0.10164482 0.16196772 -0.032905135 0.05984688 0.081499405 0.096783265
0.113179885 -0.09838413 0.11787912 0.14965408 0.010874285 0.077619255 0.16132616 0.03479261
0.055021767 0.09056881 0.0708999 -0.1146515 0.015079818 -0.14262538 -0.078502595 -0.14302577
-0.05786067 0.17339775 0.01018589 -0.0078485245 0.049511787 0.10373993 -0.07988938 0.029951323
0.036394622 -0.1072515 0.07678244 -0.054372706 0.063845806 -0.15397857 -0.06036028 -0.010634026
-0.15462758 -0.03701358 0.044566013 0.05016752 -0.06439347 -0.034145705 0.15728514 0.08629664
-0.16725764 -0.114814356 0.10066817 -0.10233186 0.08537878 0.09248508 -0.038022902 -0.030833036
-0.023178823 0.10094883 -0.0025234486 0.029070044 -0.003751561 0.02879673 -0.17602849 -0.14652403
0.074334584 0.14822726 0.16276549 0.09881274 -0.014493148 0.16269398 -0.08728387 0.04017751
0.15166408 0.11715552 -0.1181686 0.09109822 -0.08699806 -0.16403894 -0.118301876 -0.0955528
0.08960417 0.0068186116 0.05634972 -0.13165629 0.08263665 -0.18654336 0.16021284 -0.13472232
0.012772 0.106310986 0.14780942 0.15899861 -0.10284267 0.114743076 -0.009636798 -0.026170498
00000000: a0ed 283e 6455 ce3d abb9 ad3c 221b e6bd
00000010: b405 953c 2f18 d5bc 7499 0cbe 87cd a43d
00000020: 2b44 bb3d 6b5b 273e 4380 1dbd dab6 1d3d
00000030: a45b 68bd bad6 fd3d dfae e8bd b696 f2bd
00000040: b157 a03d 9ff6 e2bd 9ebe de3c f3d5 e4bd
00000050: e4fb dd3c b6b2 0d3e 2cf5 253d 1922 183e
00000060: e431 383d a13a 7dbd 6d85 a33c b292 32bc
00000070: 49fb a6bd 323b 103e e40e e53d 3cdc f93c
00000080: ae38 f83d 2d2f ae3d 4270 cebd 076a 8e3d
00000090: 7055 a53d 92ff efbc c606 133e 333b dfbd
000000a0: 10bc 90bd 1ae1 0bbe 6eb3 16be 8fdd 123c
000000b0: 6ad2 a1bc 0e86 73bd 300d 073e 1094 5cbd
000000c0: 72bf 243e d430 0dbe 19dd ddbd cecf f83c
000000d0: 9a27 11be c035 bc3d 4829 103d 4a70 ba3c
000000e0: b43c 0fbe a2c4 04be 0952 e03d 4a14 9d3d
000000f0: 175d 08be 2ca9 133e 938b 423d fc33 d6bd
00000100: fa84 28be cc8c 893d 5c1a 2bbe 1874 b6bd
00000110: ef6a 263e 7279 013d 5d5b b4bd f45e 8abd
00000120: 3768 dfbd 8e99 cc3d 53cc c1bd 42fa 93bc
00000130: 245d fc3d b316 0fbe 0fd2 823d 6665 833d
00000140: fb41 213e d074 413d c5cd e83d 1be1 c43c
00000150: b671 083e 431a 0d3e a59e b8bc 4844 523d
00000160: 1709 6c3d 2fd4 2ebd 4d22 be3c f5c6 083e
00000170: 1d10 ce3d 6346 dfbc c239 3dbe 52cd e8bd
00000180: 6190 ab3d 119f 19be 9615 133e 1817 0a3e
00000190: 6a5e 8fbd cea9 c0bc ab58 04bd c8ba ba3c
000001a0: 78eb c3bd d394 1dbe f967 323e 31fd 29bd
000001b0: abe7 193e 0ca9 f13d 11ca 5dbd 70bd 933d
000001c0: 44d9 173e 4b5e e3bd b2ca f3bd a514 f6bd
000001d0: 482c b0bd 2e7c 143c 0a3f 2d3d 5aec b83c
000001e0: 10b4 70bd bb16 0d3d 6a6e a4bd 61f5 e33d
000001f0: c51f a73d d31b 0fbe dd70 15be ea53 b93d
00000200: fc4c 45bd 88de 7dbd 5b46 72bd 4711 24be
00000210: 708f cebd d61b 053b df5c 073e bedb eebd
00000220: c654 ab3d 52e6 afbb 450c e93d 6de2 9f3c
00000230: 9ef9 eebd 3b48 d4bd 3066 7a3d c2fb 28be
00000240: 8eb4 b1bd 6ec5 1ebe 98c5 d93d ba28 f2bd
00000250: 15a8 0a3d b9fb 33bd c8b3 ac3c 5e02 a53d
00000260: ea6b 52bc 9e98 1a3e d764 68bc 5900 4b3d
00000270: c078 90bd cecd 3bbc 50c7 b53a 55bc 1bbe
00000280: 52e8 01bd 4dfb 563d 292b d03d deda 253e
00000290: 89c7 06bd 0122 753d 29e9 a63d 4e36 c63d
000002a0: dbca e73d 9e7d c9bd 9c6a f13d eb3e 193e
000002b0: 0f2a 323c d8f6 9e3d af32 253e b282 0e3d
000002c0: 815e 613d 247c b93d f733 913d 68ce eabd
000002d0: 5711 773c 630c 12be f8c5 a0bd 5975 12be
000002e0: 4fff 6cbd 2e8f 313e b8e2 263c 1997 00bc
000002f0: dfcc 4a3d 9a75 d43d 0b9d a3bd 7a5c f53c
00000300: 8712 153d ada6 dbbd 1d40 9d3d eab5 5ebd
00000310: 97c1 823d 8fac 1dbe 573c 77bd 563a 2ebc
00000320: b156 1ebe 8d9b 17bd da8a 363d 757c 4d3d
00000330: b9e0 83bd 5edc 0bbd 5b0f 213e 4bbc b03d
00000340: 9645 2bbe ca23 ebbd 1d2b ce3d 5e93 d1bd
00000350: 12db ae3d d168 bd3d e7bd 1bbd 9095 fcbc
00000360: 84e1 bdbc 43be ce3d 7160 25bb 4d24 ee3c
00000370: c0dc 75bb 1fe7 eb3c d040 34be 650a 16be
00000380: bb3c 983d e3c8 173e ffab 263e 555e ca3d
00000390: ab74 6dbc 4099 263e e3c1 b2bd 2c91 243d
000003a0: d44d 1b3e 3cef ef3d 6102 f2bd b491 ba3d
000003b0: 0a2c b2bd d3f9 27be 4148 f2bd 30b1 c3bd
000003c0: 6482 b73d a96e df3b f7ce 663d e8d0 06be
000003d0: 673d a93d 3905 3fbe d60e 243e a6f4 09be
000003e0: a741 513c 93b9 d93d 5a5b 173e 88d0 223e
000003f0: 2e9f d2bd 6bfe ea3d a9e3 1dbc 8363 d6bc

fc_mid.bias f4 [32]
-0.1276781 0.1518014 0.07534637 -0.07730899 0.18917051 0.0039292127 0.014654382 0.06764242
-0.16778319 -0.07351261 0.09286055 -0.08092795 0.03765346 -0.059434906 -0.034865603 -0.038388
-0.12735 0.15283717 -0.14002247 0.11188439 0.057204314 0.047802676 0.14781065 -0.029527044
-0.1210114 -0.011017905 -0.12381442 0.041935485 0.13036011 -0.022897793 -0.14041598 -0.017225286
00000000: 0cbe 02be d471 1b3e 334f 9a3d 2d54 9ebd
00000010: eab5 413e a0c0 803b ef18 703c 1c88 8a3d
00000020: 5bcf 2bbe c78d 96bd ac2d be3d 8ebd a5bd
00000030: 843a 1a3d 0472 73bd 3ccf 0ebd bc3c 1dbd
00000040: 0a68 02be 5981 1c3e 0d62 0fbe a523 e53d
00000050: 124f 6a3d bdcc 433d ad5b 173e b3e2 f1bc
00000060: d3d4 f7bd 7184 34bc 6a92 fdbd 8bc4 2b3d
00000070: 1f7d 053e 2794 bbbc 35c9 0fbe 0b1c 8dbc

fc_out.weight f4 [3, 32]
-0.030698458 0.12143394 0.13394783 -0.021703767 -0.10188863 -0.13544053 -0.17919183 -0.021078506
0.079212755 0.05159998 0.010110061 -0.059281543 0.03531825 -0.054392274 0.0026725116 -0.07318622
-0.1620253 0.13512884 -0.09728341 -0.14505097 0.13689083 -0.06258564 -0.12445938 -0.0076411567
0.06983726 0.05088091 -0.068293616 0.10002285 0.07361584 -0.065355 0.08138655 0.1671652
0.068911485 0.1242705 0.059692882 0.003538559 -0.105042346 -0.1097514 -0.14058205 -0.008016774
0.079300135 0.05945409 -0.1274023 -0.060993068 0.15880309 0.14067961 -0.12378557 -0.06588172
0.0984551 -0.073571116 -0.16225003 0.086424515 0.11533272 -0.018418625 -0.17427999 0.15635134
-0.08972985 0.10071249 -0.15179782 -0.13108993 -0.140757 -0.0012762576 -0.15799268 0.106156774
0.08933451 -0.0193526 -0.114788525 -0.003845232 -0.164943 0.052538995 -0.04116538 -0.026473919
-0.03977706 0.043801237 -0.15830135 0.045792926 -0.028950699 0.18483612 -0.057461295 -0.09664951
0.116962925 0.0024206394 -0.09465702 0.15774933 -0.028004503 -0.0957994 -0.04364766 0.05397787
-0.09719936 0.1181074 -0.1654445 -0.117351085 -0.0061904113 0.08047252 0.12066437 0.046616275
00000000: 557b fbbc 5cb2 f83d 9f29 093e 19cc b1bc
00000010: fcaa d0bd ecb0 0abe 107e 37be d5ac acbc
00000020: 4c3a a23d 805a 533d aba4 253c 34d1 72bd
00000030: dfa9 103d 6fca 5ebd 4e25 2f3b a8e2 95bd
00000040: f6e9 25be 375f 0a3e 863c c7bd 3e88 14be
00000050: 1c2d 0c3e e62c 80bd 8fe4 febd ab62 fabb
00000060: d606 8f3d 8068 503d 86dd 8bbd c8d8 cc3d
00000070: e7c3 963d d8d8 85bd fead a63d 5b2d 2b3e
00000080: 7721 8d3d 8881 fe3d 8680 743d 2be7 673b
00000090: 7120 d7bd 58c5 e0bd bef4 0fbe ca58 03bc
000000a0: 1c68 a23d 2286 733d c075 02be ded3 79bd
000000b0: 479d 223e 510e 103e 4a83 fdbd ffec 86bd
000000c0: d4a2 c93d 74ac 96bd df24 26be 56ff b03d
000000d0: 9033 ec3d a8e2 96bc 7476 32be 911a 203e
000000e0: 49c4 b7bd 5a42 ce3d e370 1bbe 703c 06be
000000f0: 9a22 10be 1948 a7ba d5c8 21be b968 d93d
00000100: 03f5 b63d 5889 9ebc 3f16 ebbd 4a00 7cbb
00000110: d1e6 28be 2133 573d 089d 28bd d5df d8bc
00000120: 45ed 22bd ed68 333d c019 22be 5d91 3b3d
00000130: 042a edbc ae45 3d3e 895c 6bbd 2ef0 c5bd
00000140: 428a ef3d 97a3 1e3b 8adb c1bd 0a89 213e
00000150: b369 e5bc 7a32 c4bd e4c7 32bd e617 5d3d
00000160: 7510 c7bd 4be2 f13d 486a 29be c455 f0bd
00000170: efd8 cabb c7ce a43d e21e f73d b5f0 3e3d

fc_out.bias f4 [3]
0.095962204 0.083478265 0.1450279
00000000: d587 c43d a7f6 aa3d 3282 143e

exp_avg f4 [8, 3]
-325.2322 290.19226 0.0044518197 533.2371 896.6331 -0.30234784 -128.80594 128.05836
0.036599506 727.0266 -195.68732 -0.16122195 75.51507 861.19867 0.2988371 -158.31775
-878.8999 -0.17133248 535.69763 -240.53305 0.36075538 -424.2737 -1109.3984 0.16832903
00000000: b99d a2c3 9c18 9143 92e0 913b 2d4f 0544
00000010: 8528 6044 56cd 9abe 52ce 00c3 f10e 0043
00000020: 5de9 153d b4c1 3544 f4af 43c3 5e17 25be
00000030: b707 9742 b74c 5744 2d01 993e 5851 1ec3
00000040: 98b9 5bc4 c871 2fbe a6ec 0544 7688 70c3
00000050: eeb4 b83e 0923 d4c3 c0ac 8ac4 725e 2c3e

exp_avg_sq f4 [8, 3]
82360.234 84483.91 0.0071980986 1.071332e+06 313936.34 0.064263314 21897.03 79990.1
0.019029299 3.49983e+06 885206.44 0.102323316 112384.805 121787.73 0.009918905 552488.94
98521.22 0.017194886 167552.6 95327.83 0.02574344 792548.44 220729.39 0.03240703
00000000: 1edc a047 f401 a547 07de eb3b 20c7 8249
00000010: 0b4a 9948 7c9c 833d 0f12 ab46 0d3b 9c47
00000020: 55e3 9b3c d89c 554a 671d 5849 e38e d13d
00000030: 6780 db47 dddd ed47 e782 223c 8fe2 0649
00000040: 9c6c c047 4adc 8c3c 26a0 2348 ea2f ba47
00000050: e8e3 d23c 477e 4149 598e 5748 3cbd 043d

exp_avg f4 [8]
0.00044800516 -0.0011700848 0.00015646081 -0.0009017642 0.0016289304 -0.0011605772 0.0020731064 0.0012687015
00000000: 3ce2 ea39 885d 99ba a10f 2439 5f64 6cba
00000010: d681 d53a 821e 98ba f4dc 073b 8f4a a63a

exp_avg_sq f4 [8]
4.0088474e-07 3.382503e-06 4.161057e-07 9.5165415e-06 5.605706e-07 1.4361156e-06 8.0112085e-07 2.3017947e-06
00000000: 2e39 d734 f6fe 6236 2265 df34 3ca9 1f37
00000010: 1e7a 1635 8ec0 c035 9b0c 5735 8878 1a36

exp_avg f4 [15, 8, 16]
0.010682606 0.0 -0.29034883 -0.7095918 0.0 -4.5017614 0.10949076 -3.1174457
6.1563134 4.723666 0.4155671 -0.120135635 -0.32687852 3.4776223 0.0 0.0
0.43252578 0.27696347 -0.048514288 -0.04556223 -0.2903868 0.010004883 -0.001136581 0.13029154
0.0 0.0049342574 -0.03142129 -0.0018934818 -0.002838022 0.34938842 0.1644564 0.102521144
0.04456082 -0.001012961 -0.4122796 0.11260849 -0.52392435 -0.1786928 0.3264323 0.5619769
0.28200677 0.13856088 -0.045311786 -0.50329113 0.2269847 0.7385764 0.35331503 0.0011964357
21.670586 13.852474 -2.2322211 -2.0113318 -14.518351 0.44992995 -0.11711348 6.6396627
0.0 0.43765628 -1.5190058 -0.066004254 -0.17576645 17.54926 8.180332 5.1289487
7.836037 5.052909 -1.256092 -1.420501 -5.3061404 -0.09735071 0.0992615 1.7301948
0.5812038 0.27925497 -0.25394413 -0.108911864 -0.2747988 6.621402 3.0693138 1.8682683
11.303834 7.2108603 -1.0517751 -0.90420526 -7.5541487 0.2148804 -0.094585724 3.531414
0.0 0.32634833 -0.75382966 -0.020308664 -0.11213617 9.180659 4.230748 2.6706936
36.219723 22.981192 -2.6404476 -2.0121782 -24.11127 0.692024 -0.48660877 11.911656
0.0 1.5850936 -2.0066397 -0.05981509 -0.5255636 29.692638 13.307666 8.518373
14.6767025 9.224169 -1.0295963 -0.46913204 -10.042512 0.43161637 -0.049181163 5.477431
0.0 0.78187686 -0.3263194 -0.38742444 -0.32779488 12.560096 5.4786673 3.423827
5.598769 0.0 6.5024843 6.5945373 218.2777 153.95476 -0.8450269 -62.33657
11.96433 -15.612729 271.76703 0.0 -32.824688 -107.12926 0.0 96.10994
0.9604678 0.45114273 -0.15641934 -0.036534626 0.01863502 -0.07171776 -0.0047555696 0.596688
0.30926803 0.2792822 0.44602147 0.0 -0.0148152085 1.0399182 0.5005815 0.5549914
0.6024887 0.97253025 -29.491022 1.3491286 41.492744 0.8344845 -12.996275 -31.249847
-5.0120883 -9.545728 99.83293 32.83694 -25.9137 10.859457 -5.806852 -5.970042
36.551598 23.412945 10.44683 -5.6495123 33.562878 9.668788 -1.1136032 17.819069
33.575035 19.752941 44.081425 0.0 1.3993211 20.775505 63.55249 66.05177
8.42686 6.931555 13.500101 -1.2111895 120.21554 64.37512 -1.2703736 -20.844748
42.419598 5.0834517 100.95162 0.0 6.6181817 -50.837162 45.315308 99.28275
20.060106 12.705452 0.3093249 -3.2627065 9.369905 0.38682902 -0.43586767 11.601928
13.404559 8.853461 20.41265 0.0 -0.009018915 14.932094 27.840504 25.461756
73.727425 44.712513 -41.429993 -9.149744 47.11441 -0.61151844 -0.75180745 25.522125
19.136438 3.1895335 147.61278 1.1993327 1.6795114 27.810913 47.965557 69.34264
39.180916 20.878443 -48.225807 1.9760714 60.543545 0.0 -9.175273 -8.865755
0.0 -16.380009 143.75241 23.335659 -11.610488 13.654966 -8.997754 23.279299
00000000: 1906 2f3c 0000 0000 9aa8 94be cfa7 35bf
00000010: 0000 0000 6e0e 90c0 b13c e03d 3b84 47c0
00000020: 8500 c540 4628 9740 36c5 d43e ac09 f6bd
00000030: 9f5c a7be 5d91 5e40 0000 0000 0000 0000
00000040: 0574 dd3e 28ce 8d3e ebb6 46bd 769f 3abd
00000050: 94ad 94be 85eb 233c 54f9 94ba 256b 053e
00000060: 0000 0000 8daf a13b 9cb3 00bd b52e f8ba
00000070: 1cfe 39bb 0ae3 b23e 4267 283e 9bf6 d13d
00000080: 6885 363d 55c5 84ba 5016 d3be 489f e63d
00000090: e81f 06bf 3ffb 36be 2222 a73e b8dd 0f3f
000000a0: 3163 903e e7e2 0d3e da98 39bd b0d7 00bf
000000b0: ad6e 683e 5813 3d3f b5e5 b43e b8d1 9c3a
000000c0: 5c5d ad41 bca3 5d41 b6dc 0ec0 a9b9 00c0
000000d0: 2a4b 68c1 385d e63e 31d9 efbd 1e78 d440
000000e0: 0000 0000 7c14 e03e c86e c2bf 3d2d 87bd
000000f0: 1ffc 33be e264 8c41 a4e2 0241 5920 a440
00000100: d1c0 fa40 6eb1 a140 9fc7 a0bf fad2 b5bf
00000110: e7cb a9c0 cf5f c7bd 9d49 cb3d 0677 dd3f
00000120: c6c9 143f 82fa 8e3e f704 82be 2f0d dfbd
00000130: 6eb2 8cbe 86e2 d340 a36f 4440 6a23 ef3f
00000140: 81dc 3441 5ebf e640 91a0 86bf ff79 67bf
00000150: 96bb f1c0 9c09 5c3e 29b6 c1bd b002 6240
00000160: 0000 0000 2117 a73e fbfa 40bf 5b5e a6bc
00000170: a6a7 e5bd fbe3 1241 4a62 8740 a5ec 2a40
00000180: ffe0 1042 7bd9 b741 18fd 28c0 87c7 00c0
00000190: e2e3 c0c1 7c28 313f c924 f9be 2596 3e41
000001a0: 0000 0000 59e4 ca3f c96c 00c0 ab00 75bd
000001b0: 568b 06bf 868a ed41 33ec 5441 414b 0841
000001c0: c6d3 6a41 3296 1341 d0c9 83bf 1332 f0be
000001d0: 21ae 20c1 d2fc dc3e 3072 49bd 1d47 af40
000001e0: 0000 0000 1529 483f 5613 a7be 7f5c c6be
000001f0: bbd4 a7be 27f6 4841 3e51 af40 fb1f 5b40
00000200: 1e29 b340 0000 0000 5a14 d040 7306 d340
00000210: 1747 5a43 6bf4 1943 af53 58bf a658 79c2
00000220: e56d 3f41 bdcd 79c1 2ee2 8743 0000 0000
00000230: 7b4c 03c2 2e42 d6c2 0000 0000 4a38 c042
00000240: 38e1 753f 2efc e63e 642c 20be 55a5 15bd
00000250: 78a8 983c c3e0 92bd 9cd4 9bbb 8bc0 183f
00000260: 6158 9e3e 14fe 8e3e ed5c e43e 0000 0000
00000270: 7dbb 72bc 0a1c 853f 1c26 003f eb13 0e3f
00000280: b33c 1a3f bef7 783f 9ded ebc1 3fb0 ac3f
00000290: 92f8 2542 c7a0 553f bef0 4fc1 b0ff f9c1
000002a0: 0763 a0c0 4dbb 18c1 76aa c742 0759 0342
000002b0: 424f cfc1 56c0 2d41 bbd1 b9c0 960a bfc0
000002c0: d634 1242 b64d bb41 3726 2741 cec8 b4c0
000002d0: 6340 0642 5bb3 1a41 8d8a 8ebf 748d 8e41
000002e0: d64c 0642 0606 9e41 6153 3042 0000 0000
000002f0: f41c b33f 3c34 a641 c035 7e42 821a 8442
00000300: 6bd4 0641 4ccf dd40 6a00 5841 4208 9bbf
00000310: 5b6e f042 10c0 8042 9a9b a2bf 0bc2 a6c1
00000320: abad 2942 a3ab a240 3be7 c942 0000 0000
00000330: 25c8 d340 4159 4bc2 e042 3542 c590 c642
00000340: 197b a041 8849 4b41 d55f 9e3e 2fd0 50c0
00000350: 22eb 1541 740e c63e 0c2a dfbe 7fa1 3941
00000360: 1379 5641 c7a7 0d41 1b4d a341 0000 0000
00000370: 12c4 13bc dbe9 6e41 5ab9 de41 adb1 cb41
00000380: 7174 9342 9dd9 3242 50b8 25c2 5a65 12c1
00000390: 2875 3c42 798c 1cbf 7476 40bf 502d cc41
000003a0: 6d17 9941 5121 4c40 df9c 1343 bc83 993f
000003b0: 3bfa d63f c07c de41 bbdc 3f42 6faf 8a42
000003c0: 42b9 1c42 0d07 a741 3ae7 40c2 e8ef fc3f
000003d0: 972c 7242 0000 0000 ebcd 12c1 22da 0dc1
000003e0: 0000 0000 420a 83c1 9ec0 0f43 6eaf ba41
000003f0: 8fc4 39c1 be7a 5a41 cdf6 0fc1 013c ba41

exp_avg_sq f4 [15, 8, 16]
0.00093334954 0.0 0.6894935 4.118199 0.0 119.22278 0.0980494 117.6427
189.95471 232.00185 73.19017 0.11804125 42.97688 73.212265 0.0 0.0
0.80272883 0.33460012 0.013179558 0.008994308 0.36898017 0.00033269744 3.10286e-05 0.062854454
0.0 0.0013453 0.0077251266 2.9323268e-05 6.55898e-06 0.5136271 0.12347135 0.04574394
0.0016170044 8.355844e-07 0.9023185 0.010326359 0.80892664 0.014345949 0.3842938 0.42003962
0.018400982 0.003786446 0.18221664 0.72598255 0.017573634 0.82316524 0.47381848 1.1656908e-06
2008.3247 837.12573 32.873783 21.259962 923.13635 0.43406966 0.05518691 157.36494
0.0 2.366389 19.320362 0.035631485 0.025158044 1285.0625 308.92615 114.442535
267.0352 111.30934 4.864343 6.0180564 122.74563 3.1779294 0.08058455 22.998596
3.4074337 6.9069896 4.011139 0.09701535 0.76172864 172.16992 41.070625 15.216933
544.27936 226.869 8.919213 5.5712447 250.17876 0.05471824 0.013217731 42.692493
0.0 0.4779362 5.249507 0.003373283 0.01023991 348.28003 83.72812 31.015026
5530.5825 2305.2178 92.09448 56.431114 2542.0835 0.38998425 0.23420733 435.39694
0.0 4.123632 54.18024 0.010254372 0.2249341 3539.457 850.9884 315.1437
891.6621 371.62793 16.070435 9.528615 410.29276 0.15170532 0.31598204 71.1043
0.0 0.74426055 9.200712 0.43019116 0.08750021 571.3234 137.5607 50.80494
245.77365 0.0 12.384989 16.469791 2808.2937 2263.186 0.2392589 552.70306
2139.8342 2024.7203 15318.234 0.0 3278.5757 5323.365 0.0 2750.6238
3.2179964 0.6337691 0.107114695 0.026742633 0.9044398 0.033437245 6.7365204e-06 2.3074725
0.098246776 0.4186361 0.09459465 0.0 0.0151373865 4.511121 0.1196396 0.72275877
7.105175 0.7702131 206.04286 22.253447 333.7697 16.02898 169.10951 350.26123
5.812451 19.605896 1612.2137 1028.8387 401.53918 1206.1206 211.61926 12.217412
8028.332 1591.1157 317.30243 241.21376 3154.392 68.00743 0.39584917 5893.2275
559.6763 621.0117 431.87042 0.0 43.475132 10530.695 619.3372 1928.5905
1262.8159 209.46423 83.45304 150.45117 1995.4653 437.7199 0.5228832 967.3275
707.7404 1486.6302 1368.0402 0.0 113.60759 3943.482 221.37398 997.6604
2172.15 433.3553 95.34416 55.650475 776.6971 4.323174 0.060250245 1633.7559
90.810684 75.380806 158.96347 0.0 7.563035 2701.2688 162.69325 495.79883
22373.402 4479.2183 1630.0475 575.22064 8188.21 0.09971532 0.45235422 18703.314
197.3047 358.18448 6233.7993 4.1225605 43.911503 27067.695 1955.3745 4983.127
3781.6208 754.2683 734.26526 206.55197 2197.8745 0.0 83.47127 4305.514
0.0 150.0561 4314.1377 519.85547 169.94135 5246.904 709.71155 829.24945
00000000: 07ac 743a 0000 0000 a582 303f 49c8 8340
00000010: 0000 0000 1072 ee42 20ce c83d 1049 eb42
00000020: 68f4 3d43 7900 6843 5e61 9242 9cbf f13d
00000030: 53e8 2b42 ae6c 9242 0000 0000 0000 0000
00000040: a37f 4d3f b550 ab3e 13ef 573c dd5c 133c
00000050: f8ea bc3e e56d ae39 b524 0238 d6b9 803d
00000060: 0000 0000 c754 b03a 0f23 fd3b 3dfb f537
00000070: 3615 dc36 117d 033f 8cde fc3d ff5d 3b3d
00000080: aaf1 d33a ec4c 6035 58fe 663f e42f 293c
00000090: d115 4f3f 450b 6b3c 28c2 c43e 6f0f d73e
000000a0: a8bd 963c 0626 783b 0097 3a3e fed9 393f
000000b0: 95f6 8f3c f5ba 523f 5698 f23e d574 9c35
000000c0: 640a fb44 0c48 5144 c17e 0342 6714 aa41
000000d0: bac8 6644 613e de3e ab0b 623d 6d5d 1d43
000000e0: 0000 0000 eb72 1740 1a90 9a41 52f2 113d
000000f0: 3e18 ce3c 00a2 a044 8c76 9a43 94e2 e442
00000100: 8184 8543 629e de42 b3a8 9b40 eb93 c040
00000110: c37d f542 3263 4b40 8309 a53d 20fd b741
00000120: 6513 5a40 0f06 dd40 405b 8040 fcaf c63d
00000130: a600 433f 802b 2c43 5248 2442 8f78 7341
00000140: e111 0844 77de 6243 19b5 0e41 a347 b240
00000150: c32d 7a43 3c20 603d 2f8f 583c 1dc5 2a42
00000160: 0000 0000 0eb4 f43e f6fb a740 4c12 5d3b
00000170: 4cc5 273c d823 ae43 cc74 a742 c61e f841
00000180: a9d4 ac45 7c13 1045 6030 b842 76b9 6142
00000190: 56e1 1e45 04ac c73e 0cd4 6f3e cfb2 d943
000001a0: 0000 0000 cbf4 8340 91b8 5842 f401 283c
000001b0: 2055 663e 5037 5d45 42bf 5444 6592 9d43
000001c0: 60ea 5e44 60d0 b943 4090 8041 3575 1841
000001d0: 7925 cd43 a458 1b3e 66c8 a13e 6735 8e42
000001e0: 0000 0000 dc87 3e3f 1e36 1341 0442 dc3e
000001f0: 4f33 b33d b3d4 0e44 8a8f 0943 4238 4b42
00000200: 0ec6 7543 0000 0000 ea28 4641 22c2 8341
00000210: b384 2f45 fa72 0d45 4900 753e ff2c 0a44
00000220: 59bd 0545 0d17 fd44 f058 6f46 0000 0000
00000230: 36e9 4c45 ec5a a645 0000 0000 fbe9 2b45
00000240: a7f3 4d40 b13e 223f f35e db3d 5e13 db3c
00000250: 5e89 673f 7ef5 083d 450a e236 a1ad 1340
00000260: 9b35 c93d 7957 d63e d7ba c13d 0000 0000
00000270: cd02 783c 1a5b 9040 9b05 f53d b806 393f
00000280: 985d e340 b02c 453f f90a 4e43 0f07 b241
00000290: 86e2 a643 5a3b 8041 091c 2943 7021 af43
000002a0: 99ff b940 e0d8 9c41 d786 c944 d79a 8044
000002b0: 04c5 c843 dcc3 9644 889e 5343 857a 4341
000002c0: a8e2 fa45 b4e3 c644 b6a6 9e43 b936 7143
000002d0: 4626 4545 ce03 8842 beac ca3e d229 b845
000002e0: 48eb 0b44 c040 1b44 6aef d743 0000 0000
000002f0: 89e6 2d42 c88a 2446 95d5 1a44 e512 f144
00000300: 1cda 9d44 d876 5143 f5e7 a642 8073 1643
00000310: e46e f944 26dc da43 acdb 053f f6d4 7144
00000320: 63ef 3044 2bd4 b944 4901 ab44 0000 0000
00000330: 1637 e342 b677 7645 bd5f 5d43 446a 7944
00000340: 66c2 0745 7aad d843 36b0 be42 169a 5e42
00000350: 9d2c 4244 7157 8a40 f6c8 763d 3038 cc44
00000360: 129f b542 f9c2 9642 a6f6 1e43 0000 0000
00000370: 6204 f240 4dd4 2845 79b1 2243 40e6 f743
00000380: ceca ae46 bff9 8b45 85c1 cb44 1fce 0f44
00000390: aee1 ff45 8c37 cc3d f99a e73e a11e 9246
000003a0: 014e 4543 9d17 b343 65ce c245 04ec 8340
000003b0: 61a5 2f42 6477 d346 fc6b f444 04b9 9b45
000003c0: ef59 6c45 2c91 3c44 fa90 3744 4e8d 4e43
000003d0: fe5d 0945 0000 0000 4af1 a642 1d8c 8645
000003e0: 0000 0000 5d0e 1643 1ad1 8645 c0f6 0144
000003f0: fcf0 2943 3bf7 a345 8a6d 3144 f74f 4f44

exp_avg f4 [16]
0.0002123676 0.00017952977 -0.0004412424 -1.9100367e-05 0.0010797832 0.0005535751 -0.00032961133 -0.00046259735
0.0002021839 -1.5386082e-05 0.0015910026 0.0001839579 -9.85751e-05 -0.00022818973 0.00025615867 0.00064268423
00000000: feae 5e39 2840 3c39 8d56 e7b9 ba39 a0b7
00000010: 8387 8d3a cc1d 113a afcf acb9 c488 f2b9
00000020: 5401 5439 5c11 81b7 3089 d03a d3e4 4039
00000030: 1bba ceb8 3746 6fb9 094d 8639 cf79 283a

exp_avg_sq f4 [16]
2.2870445e-07 6.943566e-08 2.093178e-08 1.1190918e-08 1.2602658e-07 3.1074006e-08 9.1035774e-09 2.0547307e-07
4.3830187e-08 3.6493176e-08 2.4080225e-07 2.7901333e-08 4.1239606e-08 3.32527e-07 2.5679405e-08 1.00786956e-07
00000000: cd91 7534 a81c 9533 79cd b332 2e42 4032
00000010: ec51 0734 3b76 0533 f565 1c32 02a0 5c34
00000020: cd3f 3c33 acbc 1c33 9c47 8134 aeab ef32
00000030: 6d1f 3133 2a86 b234 9c95 dc32 3770 d833

exp_avg f4 [15, 16, 32]
-0.33789682 -0.011580076 -2.303608 0.0 2.1062667 0.30387962 -1.2767863 -1.0372443
-2.9622278 1.1956568 -1.718814 -1.0220994 0.18813865 -0.84585094 -0.9070159 -0.16375476
0.10598191 0.19129473 0.421233 0.4604288 1.4776062 1.2662802 -0.09009307 2.4987762
1.2468121 -0.76149184 -0.15383792 2.23116 0.36301905 0.21001436 0.0 0.050715055
0.53021854 0.0 -0.34929088 0.0 0.46914417 -0.17031845 -1.8740854 -1.53407
-1.2135922 0.22539592 -0.8608124 -0.1979045 0.21748507 -1.4058154 -0.26451328 -0.21929467
-1.2033515 0.16319554 2.265142 0.18940805 1.3680983 0.25765517 0.37663838 1.8403269
0.65514845 -1.3697326 -0.9959776 0.88470376 2.7847733 0.616611 0.0 0.075006865
-2.9131284 0.036924366 -8.943371 -1.14009346e-07 9.565251 1.2106258 -7.7680507 -2.4625258
-14.520575 3.5373988 -6.0931535 -3.183193 -0.13089873 -4.5746326 -3.1520977 -0.059190203
-1.4455025 2.3486083 3.903175 1.1600523 6.205319 3.4225929 1.0686996 10.596125
4.659561 -4.9617 -4.4008336 8.492576 4.6836677 1.3857611 6.1410086e-09 0.22591479
-0.92486775 0.16053993 -6.159094 0.0 12.104586 0.8490427 -7.393585 -1.8719349
-18.854372 4.382106 -8.287121 -3.1059515 5.1161127 -7.7395444 -2.121424 1.650451
1.129816 1.2635344 3.0201988 2.4757342 3.1598935 2.7244236 0.63360715 11.613152
2.419007 -4.106419 -3.124484 10.282981 2.906175 -1.4664425 1.0656991 -0.054195922
0.0051183524 -4.722816 -14.943174 0.0 24.139048 1.9855235 -19.553425 -6.698532
-41.558018 5.957703 -14.60077 -7.106507 7.4343557 -17.52984 -5.086908 1.9326848
-4.7479787 3.1566856 12.660358 6.85218 13.788359 7.099921 2.2859244 26.295439
6.160706 -14.375218 -9.240879 21.53101 13.873228 2.3908107 1.4948874 0.3632091
1.3441199 -5.945204 -2.833144 -8.906577e-09 4.003955 -0.44130024 -4.7393394 0.049738932
-13.201914 -0.22707061 1.8261149 -7.277286 1.8610464 -5.475278 -4.497869 -0.30900696
-0.87635833 0.51553595 2.980419 5.7362704 3.7952845 3.1454568 -0.49333307 4.241066
1.8451687 -2.4321795 -2.8694954 5.641872 2.9369187 -0.25007224 0.46163425 -0.09717919
0.7988578 -0.107209615 -1.0303085 -1.0238291e-07 -0.16311641 -0.63484836 -1.1495829 0.037839316
-0.04991361 0.921636 -0.6770542 -0.8693362 0.74674916 -0.8386804 0.0071584657 -0.945384
0.053073484 -0.07652955 3.1308193e-07 0.9469601 0.6159922 0.0 -0.018089488 1.3165736
0.8893612 -3.2723878e-07 -0.22090462 1.5153598 0.66393065 0.046355296 5.149245e-09 0.045487523
-0.72883683 -5.0111437 -10.856504 -1.627376e-08 13.4207945 1.3618139 -12.566725 -4.7258735
-25.625298 4.1448827 -6.8584213 -8.20316 0.92901605 -9.318253 -5.16754 -0.78456223
-3.7408512 1.9245099 8.762786 5.9790406 12.509098 6.108705 1.095727 18.3201
7.41171 -8.514993 -6.6869926 13.418572 8.564327 3.8566144 0.27109876 0.90687084
00000000: d000 adbe 5cba 3dbc 506e 13c0 0000 0000
00000010: 13cd 0640 1c96 9b3e bc6d a3bf 6cc4 84bf
00000020: 2495 3dc0 480b 993f 1902 dcbf 27d4 82bf
00000030: 6ba7 403e b089 58bf 3232 68bf 54af 27be
00000040: 0b0d d93d c4e2 433e daab d73e 53bd eb3e
00000050: 3322 bd3f 7815 a23f b782 b8bd f3eb 1f40
00000060: 8a97 9f3f 21f1 42bf b087 1dbe 53cb 0e40
00000070: a2dd b93e 010e 573e 0000 0000 97ba 4f3d
00000080: 67bc 073f 0000 0000 41d6 b2be 0000 0000
00000090: aa33 f03e f667 2ebe 08e2 efbf 685c c4bf
000000a0: fd56 9bbf 30ce 663e 345e 5cbf 7aa7 4abe
000000b0: 68b4 5e3e c2f1 b3bf 496e 87be c88e 60be
000000c0: 6c07 9abf bb1c 273e 16f8 1040 2ff4 413e
000000d0: d81d af3f 61eb 833e bfd6 c03e d58f eb3f
000000e0: cfb7 273f 6653 afbf 63f8 7ebf f27b 623f
000000f0: ba39 3240 38da 1d3f 0000 0000 339d 993d
00000100: b270 3ac0 013e 173d 0c18 0fc1 4dd5 f4b3
00000110: 450b 1941 c9f5 9a3f df93 f8c0 069a 1dc0
00000120: 4654 68c1 be64 6240 1dfb c2c0 6fb9 4bc0
00000130: 510a 06be 6463 92c0 f8bb 49c0 6d71 72bd
00000140: 3a06 b9bf 994f 1640 9fcd 7940 987c 943f
00000150: f991 c640 c30b 5b40 26cb 883f ba89 2941
00000160: 201b 9540 3fc6 9ec0 a1d3 8cc0 97e1 0741
00000170: 9be0 9540 9f60 b13f e200 d331 3556 673e
00000180: 22c4 6cbf 9464 243e 4c17 c5c0 0000 0000
00000190: 62ac 4141 dd5a 593f 4098 ecc0 909b efbf
000001a0: c1d5 96c1 363a 8c40 0c98 04c1 e9c7 46c0
000001b0: 32b7 a340 59aa f7c0 69c5 07c0 fa41 d33f
000001c0: d09d 903f 7fbb a13f f04a 4140 6e72 1e40
000001d0: b23b 4a40 f55c 2e40 1434 223f 78cf 3941
000001e0: 03d1 1a40 c967 83c0 8cf7 47c0 1787 2441
000001f0: c5fe 3940 63b4 bbbf d468 883f 8bfc 5dbd
00000200: dab7 a73b 4f21 97c0 3e17 6fc1 0000 0000
00000210: c51c c141 a225 fe3f 6a6d 9cc1 605a d6c0
00000220: 693b 26c2 81a5 be40 c19c 69c1 8168 e3c0
00000230: 3ee6 ed40 1d3d 8cc1 f3c7 a2c0 3762 f73f
00000240: 71ef 97c0 2307 4a40 d490 4a41 0f45 db40
00000250: 1e9d 5c41 8e32 e340 964c 1240 0f5d d241
00000260: 8124 c540 e500 66c1 a4da 13c1 823f ac41
00000270: bef8 5d41 0b03 1940 7858 bf3f 8bf6 b93e
00000280: 1f0c ac3f 1c3f bec0 3b52 35c0 8a03 19b2
00000290: 6620 8040 1bf2 e1be aba8 97c0 0dbb 4b3d
000002a0: 0a3b 53c1 3385 68be 22be e93f 87df e8c0
000002b0: c536 ee3f 7a35 afc0 8bee 8fc0 2936 9ebe
000002c0: 0559 60bf 2afa 033f 2fbf 3e40 878f b740
000002d0: f1e5 7240 2a4f 4940 2796 fcbe d0b6 8740
000002e0: 7d2e ec3f d4a8 1bc0 d0a5 37c0 378a b440
000002f0: 7af6 3b40 7809 80be 535b ec3e e205 c7bd
00000300: f281 4c3f b790 dbbd 26e1 83bf 9add dbb3
00000310: fd07 27be 6c85 22bf 8825 93bf 66fd 1a3d
00000320: 3772 4cbd 56f0 6b3f 6d53 2dbf d18c 5ebf
00000330: f42a 3f3f c2b3 56bf 9091 ea3b b004 72bf
00000340: 9563 593d 86bb 9cbd a715 a834 fa6b 723f
00000350: aab1 1d3f 0000 0000 6830 94bc 7c85 a83f
00000360: 2dad 633f 5baf afb4 d234 62be 4ff7 c13f
00000370: 5cf7 293f 0ddf 3d3d 3ded b031 2051 3a3d
00000380: 0d95 3abf 4a5b a0c0 3eb4 2dc1 60ca 8bb2
00000390: 93bb 5641 eb4f ae3f 4e11 49c1 5b3a 97c0
000003a0: 9c00 cdc1 e1a2 8440 3078 dbc0 2540 03c1
000003b0: ffd3 6d3f 9017 15c1 7d5c a5c0 12d9 48bf
000003c0: 1b6a 6fc0 5756 f63f 5f34 0c41 4d54 bf40
000003d0: 4425 4841 837a c340 c840 8c3f 918f 9241
000003e0: ba2c ed40 693d 08c1 d8fb d5c0 79b2 5641
000003f0: 7c07 0941 c5d2 7640 75cd 8a3e b028 683f
