checkpoints/epoch_002.pth (torch, 18849 bytes, 14 tensors)

fc0.weight f4 [8, 3]
0	0x3e8a5650	0.27018976
1	0x3e3d95b1	0.18514134
2	0x3b0c321b	0.002139217
3	0x3ed5d1ff	0.41761777
4	0xbe69049d	-0.22755666
5	0xbdcdc62b	-0.10047563
6	0xbee85fc9	-0.45385578
7	0x3f0b8e99	0.5451446
8	0xbdf8f269	-0.12155611
9	0xbbde70e0	-0.006788358
10	0xbf0d664f	-0.55234236
11	0xbc94f4c1	-0.018183114
12	0xbebc7cc7	-0.36813948
13	0x3ed984fb	0.4248427
14	0xbf1cf3b7	-0.6130938
15	0xbdda4893	-0.10658374
16	0xbe3396e1	-0.17538024
17	0x3ecd7e14	0.40135252
18	0x3eaf5d57	0.342509
19	0xbf0f013b	-0.5586125
20	0x3ee896c7	0.45427534
21	0xbe2bbfc0	-0.16772366
22	0xbebe1b5c	-0.3713025
23	0xbccfdac0	-0.025372863

fc0.bias f4 [8]
0	0x3bbb5864	0.005717324
1	0xbf02a8fc	-0.510391
2	0xbf137ee1	-0.57615477
3	0xbdf30bc9	-0.11867482
4	0xbefd3db3	-0.49461135
5	0xbe58fa9a	-0.21189347
6	0xbf149b13	-0.58049124
7	0xbeb4ebc0	-0.35336113

kp1.mlp.0.weight f4 [16, 11]
0	0x3f00e2c9	0.50346047
1	0x3e78ed32	0.24309233
2	0x3df3b9c9	0.1190067
3	0xbb1af3b2	-0.002364379
4	0xbe6c9f30	-0.231076
5	0xbd3826dc	-0.044958934
6	0xbe7fdcba	-0.24986544
7	0xbbab88c8	-0.0052348115
8	0x3ca8072f	0.020511238
9	0x3e6bbfd9	0.23022403
10	0x3ce83ba9	0.02834876
11	0xbeadd861	-0.33954147
12	0x3e0975d2	0.13423851
13	0x3e8b087b	0.27154908
14	0x3dde8042	0.10864307
15	0xbe814568	-0.25248265
16	0xbc844fd9	-0.016151356
17	0x3e416f79	0.1889018
18	0xbb89bad0	-0.004203178
19	0x3ce63324	0.028100558
20	0x3d174c74	0.036938146
21	0x3e07e3cc	0.13270491
22	0xbe91f50f	-0.28507277
23	0xbed10f77	-0.4083211
24	0xbe39ff53	-0.18163805
25	0x3dafed03	0.08590128
26	0xbe996711	-0.29961446
27	0x3da1b4d2	0.07895817
28	0x3e802329	0.25026825
29	0xbe556a22	-0.20841268
30	0x3d6969f2	0.056985803
31	0xbe4d22a7	-0.2003275
32	0x3e964d1b	0.29355702
33	0x3e924cd9	0.28574255
34	0xbee71639	-0.45134142
35	0xbdf7f0df	-0.121064894
36	0x3e470106	0.19433984
37	0x3e4ecdbe	0.20195672
38	0x3de2d6cd	0.11076126
39	0xbe90bd08	-0.2826922
40	0x3be688c6	0.0070353476
41	0x3d27f863	0.041008364
42	0x3b417c2b	0.0029523473
43	0x3e770af6	0.24125275
44	0xbf07138c	-0.527642
45	0xbe789176	-0.24274239
46	0xbe9b6939	-0.30353716
47	0xbe502ad4	-0.20328838
48	0x3e5e22f8	0.21693027
49	0xbe499e4a	-0.19689289
50	0x3e00469c	0.12526935
51	0x3e066529	0.13124527
52	0x3d92febe	0.071774945
53	0xbce0f7a8	-0.027461842
54	0x3e9cfc02	0.30661017
55	0xbeabafd1	-0.33532575
56	0xbebdeb4f	-0.3709359
57	0x3e9c018f	0.3046994
58	0xbe8388a8	-0.25690198
59	0x3e37e18e	0.17957136
60	0xbd666b9a	-0.05625496
61	0xbdb0e86c	-0.08638081
62	0x3e7b6b85	0.24552734
63	0x3e890f48	0.2676947
64	0x3e69a995	0.22818597
65	0xbddd18a2	-0.10795714
66	0xbe896bda	-0.26840097
67	0x3ea1174c	0.31463087
68	0x3d914e31	0.07094992
69	0x3e6bae00	0.23015594
70	0x3e05e3d1	0.13075186
71	0xbdea84da	-0.11451121
72	0xbd4dc567	-0.050237086
73	0x3df07c37	0.11742442
74	0x3e548565	0.20754011
75	0xbe83dc4a	-0.25754005
76	0xbd642c80	-0.0557065
77	0x3ad67d6d	0.0016364284
78	0x3c94c817	0.018161817
79	0xbe419463	-0.18904261
80	0xbd996360	-0.074896574
81	0xbe190b87	-0.14945804
82	0xbe20e3ab	-0.15711848
83	0xbddefd41	-0.10888148
84	0xbe21fa52	-0.15818146
85	0xbda775dd	-0.081767775
86	0xbdd78862	-0.1052406
87	0x3e411c50	0.18858457
88	0x3eddf73c	0.43352687
89	0xbee865bd	-0.4539012
90	0x3dce917a	0.10086341
91	0x3c01174e	0.007879091
92	0x3e003817	0.12521397
93	0x3e5e9c4e	0.21739313
94	0xbdc50f44	-0.09622052
95	0x3e8a1f96	0.26977223
96	0x3e4400be	0.19140908
97	0xbc30b005	-0.010784154
98	0xbdb7dc22	-0.08977534
99	0x3e3d0b01	0.18461229
100	0x3ed9e8cb	0.4256042
101	0xbd2cccdf	-0.042187568
102	0x3e82669f	0.2546892
103	0xbe973933	-0.29535827
104	0xbd189f6d	-0.037261415
105	0xbcbea03b	-0.023269763
106	0x3d66de94	0.05636461
107	0x3e10a0de	0.14123866
108	0xbe06cc99	-0.13163985
109	0x3d835b8f	0.06413948
110	0xbe0cf6e9	-0.13766064
111	0xbdc82ddf	-0.09774374
112	0xbe0ada0d	-0.13559742
113	0x3dacc25c	0.084355086
114	0x3e0976cb	0.13424222
115	0xbe5a5b7f	-0.21323965
116	0x3c3eee3f	0.011653482
117	0xbe27f275	-0.16401084
118	0xbe91b5e7	-0.28459093
119	0xbe6ccaaa	-0.23124185
120	0x3e5e3929	0.21701492
121	0xbe9db4d9	-0.30802038
122	0x3e729a27	0.23691617
123	0x3e2c3d08	0.16820157
124	0xbe46f908	-0.19430935
125	0x3d80d792	0.06291117
126	0x3e1d89c4	0.15384585
127	0x3e3913bf	0.18073939
128	0x3e616964	0.2201286
129	0xbe1eefca	-0.1552116
130	0xbe54a5b8	-0.20766342
131	0xbdbbe377	-0.09174245
132	0xbe93f44e	-0.28897327
133	0xbe08870d	-0.13332768
134	0x3e9f3dbb	0.31101784
135	0xbe8b8179	-0.27247217
136	0xbdb4dc04	-0.08831027
137	0x3e1e8e69	0.15484013
138	0x3e9c834d	0.30568925
139	0xbe09268e	-0.13393614
140	0xbe95e86e	-0.29278892
141	0xbe85cb02	-0.26131445
142	0x3b3977dd	0.0028300204
143	0xbe3dfd6a	-0.18553701
144	0xbe8f9ce8	-0.28049397
145	0xbd83b129	-0.06430275
146	0x3dbee5de	0.093211874
147	0x3d6a5a4f	0.05721503
148	0xbdba22fc	-0.09088704
149	0xbe4d9b27	-0.20078717
150	0xbe4cdbfd	-0.20005794
151	0x3bb9c9fb	0.00566983
152	0xbd0f8bf8	-0.035045594
153	0xbd76dcb5	-0.060269076
154	0x3eb0a6ca	0.3450225
155	0x3dc0cc2e	0.09413944
156	0xbda910b6	-0.082551405
157	0xbdfd6c2c	-0.12374148
158	0x3e48d472	0.19612291
159	0xbe3ed136	-0.18634495
160	0x3d3c1ff5	0.045928914
161	0x3e79e41b	0.24403422
162	0x3e68c877	0.22732721
163	0xbe11f076	-0.14251885
164	0xbdf81849	-0.12114007
165	0xbd10794c	-0.035271928
166	0x3e8fb917	0.280709
167	0xbe5f7950	-0.21823621
168	0x3e030d8f	0.12798141
169	0x3e1fc13f	0.15601061
170	0x3d067674	0.03282781
171	0x3e9ce02b	0.30639777
172	0x3e96d259	0.29457358
173	0x3e6cf2a9	0.23139443
174	0x3d4cc5d5	0.049993355
175	0x3d4c3e65	0.04986419

kp1.mlp.0.bias f4 [16]
0	0x3e9b359e	0.30314344
1	0xbc022204	-0.00794268
2	0xbd960436	-0.07325022
3	0xbc582e56	-0.013194641
4	0x3dac14cc	0.08402404
5	0x3db7809a	0.08960076
6	0xbe56b32b	-0.20966785
7	0xbd38a539	-0.045079444
8	0x3da1ec6e	0.079064235
9	0xbe08a75a	-0.1334509
10	0x3d87d01a	0.06631489
11	0x3e8f6ff3	0.28015098
12	0xbe84408b	-0.25830492
13	0x3da93445	0.08261923
14	0x3e1554b7	0.14583097
15	0x3e954c2c	0.29159677

kp1.mlp.2.weight f4 [16, 16]
0	0x3e9b46fd	0.30327597
1	0xbe0bc72d	-0.13650198
2	0xbd9d3a52	-0.07677139
3	0x3e210125	0.15723093
4	0xbe430cc2	-0.19047835
5	0xbe1336c6	-0.14376363
6	0xbc51703e	-0.012783108
7	0x3e371e09	0.17882551
8	0x3e22111c	0.15826839
9	0x3e82050e	0.2539448
10	0xbd59647f	-0.053074356
11	0x3e7e5d18	0.248402
12	0xbdc104a3	-0.094247125
13	0xbe899abb	-0.26875862
14	0xbbd9a219	-0.006641638
15	0x3dfb977c	0.12284753
16	0xbe1f5863	-0.1556106
17	0xbd597371	-0.05308861
18	0xbdefbdb0	-0.11706102
19	0x3e33257f	0.17494772
20	0xbe44dd43	-0.1922503
21	0x3dca2fa4	0.09872368
22	0x3e46783c	0.19381803
23	0x3db8f252	0.09030594
24	0xbe353ba7	-0.17698537
25	0xbe73622c	-0.23767918
26	0xbe511e8f	-0.20421813
27	0xbdcbc83f	-0.09950303
28	0x3e55d536	0.20882115
29	0xbe4c6aaf	-0.19962572
30	0xbd07d012	-0.033157416
31	0xbccbffae	-0.024902191
32	0xbd90193b	-0.07036062
33	0x3e2abafd	0.16672893
34	0x3df7dcea	0.12102683
35	0x3e1229ef	0.14273809
36	0x3ddf69d5	0.10908858
37	0x3dbcb0de	0.09213422
38	0x3e745c69	0.23863377
39	0xbe398b69	-0.18119587
40	0xbe39e596	-0.18153986
41	0xbdbd05a3	-0.09229591
42	0xbdac42b7	-0.08411162
43	0x3e8cbe7a	0.27489072
44	0x3d97d6c7	0.074140124
45	0x3e243586	0.16036043
46	0xbce90274	-0.028443553
47	0x3dac2f6e	0.08407484
48	0xbc09072b	-0.008363525
49	0xbe1ca889	-0.15298666
50	0x3d596180	0.0530715
51	0x3d6540ef	0.05597013
52	0xbd6fe30f	-0.05856615
53	0xbd3cb7ab	-0.046073597
54	0xbdc489fb	-0.0959663
55	0x3e1aaf46	0.15105924
56	0xbe20d7ed	-0.15707369
57	0xbe80938c	-0.2511257
58	0x3e12fbd9	0.14353885
59	0x3e6350ff	0.22198866
60	0xbd9cca29	-0.076557465
61	0x3e304c4e	0.17216608
62	0xbe854644	-0.2603017
63	0x3dd71121	0.10501314
64	0x3e950d2c	0.29111612
65	0xbe58decb	-0.21178739
66	0x3c49d60a	0.012319097
67	0x3d4717fa	0.04860685
68	0x3e5396cd	0.20662995
69	0x3d32f4d6	0.043690525
70	0xbc5e506d	-0.01356898
71	0xbde4eb67	-0.11177712
72	0x3e81bc00	0.25338745
73	0x3c7a53ea	0.015278796
74	0x3e125f74	0.14294225
75	0xbe16749c	-0.1469292
76	0x3da1992d	0.07890544
77	0x3e52bd8c	0.20580119
78	0x3e7db15a	0.24774686
79	0xbc06dd5d	-0.008231488
80	0x3ceea39d	0.029130751
81	0xbe69e8fa	-0.2284278
82	0x3dcd4e77	0.100247316
83	0xbe153bba	-0.14573565
84	0xbe22665f	-0.15859364
85	0xbe477e75	-0.19481833
86	0x3d1ef6eb	0.038809698
87	0xbd5365f6	-0.05161091
88	0xbe4b9b5a	-0.1988348
89	0x3e59fba7	0.21287404
90	0xbe26574b	-0.16244237
91	0x3e7a6bd7	0.244552
92	0x3b81b1c1	0.0039579575
93	0xbe12239d	-0.14271398
94	0xbde761e6	-0.112979695
95	0x3d57f37b	0.052722435
96	0x3ddf0ca4	0.10891083
97	0x3e1047ef	0.1408994
98	0x3e0082fe	0.1254997
99	0xbdda380a	-0.1065522
100	0x3ded6ddd	0.115932204
101	0x3d955105	0.07290844
102	0x3cb67e1f	0.022276936
103	0xbe5cece5	-0.21574743
104	0xbe4f0e33	-0.2022026
105	0x3c054608	0.0081343725
106	0x3e75d461	0.24006797
107	0x3db34339	0.08753056
108	0x3e77a30d	0.24183293
109	0xbd00558c	-0.031331584
110	0xbe45d09e	-0.19317862
111	0x3e607b9f	0.21922158
112	0xbd1ca07c	-0.038238987
113	0x3e3a15d9	0.18172397
114	0x3e7710a3	0.2412744
115	0xbd5ce969	-0.053933535
116	0x3dedf2e0	0.1161859
117	0xbc97469d	-0.018466288
118	0xbd632149	-0.055451665
119	0x3ca4db5f	0.020124136
120	0x3c9786a3	0.018496817
121	0xbe55140c	-0.20808429
122	0x3e86bd35	0.26316229
123	0x3d363e3e	0.044492953
124	0xbd758a11	-0.059946124
125	0x3d9558c4	0.07292321
126	0xbe0d4611	-0.1379626
127	0xbd4b3cb3	-0.049618434
128	0xbc915227	-0.017739369
129	0xbe2a558a	-0.16634193
130	0x3e2401d5	0.16016324
131	0xbe1798f1	-0.14804436
132	0x3e406164	0.18787152
133	0x3e9c246d	0.3049654
134	0x3d84a576	0.06476872
135	0x3d0ecef8	0.03486535
136	0xbd06bddb	-0.032895904
137	0xbe584881	-0.21121408
138	0xbe3d7a9c	-0.18503803
139	0xbe287a1d	-0.16452833
140	0xbdd971f6	-0.106174394
141	0x3dbc25db	0.09186908
142	0x3d7b11ee	0.061296396
143	0x3cafbd96	0.021452706
144	0xbe87d9d9	-0.26533392
145	0xbd12a28f	-0.03579956
146	0x3e1552d4	0.14582378
147	0x3dd042cf	0.10168993
148	0x3d3192d2	0.04335291
149	0x3d6f4ed2	0.05842478
150	0x3d42f903	0.047600757
151	0xbe018da3	-0.12651686
152	0xbdb11ef5	-0.08648483
153	0xbe4d826a	-0.2006928
154	0xbe57ea74	-0.2108553
155	0x3e7fa031	0.24963452
156	0x3ddd5892	0.10807909
157	0x3d9c442e	0.07630192
158	0xbdc993f1	-0.09842671
159	0xbd84cd05	-0.06484417
160	0xbe3e38b3	-0.18576317
161	0xbc5df7a1	-0.013547809
162	0x3e1d5523	0.15364508
163	0xbe3b200a	-0.1827394
164	0xbe77998a	-0.24179664
165	0x3e69fcb2	0.22850302
166	0x3d828f4b	0.06374987
167	0xbd8dbe84	-0.069211036
168	0x3d8079cd	0.06273232
169	0x3daad683	0.08341696
170	0xbe7368f4	-0.23770505
171	0xbd91ceb0	-0.07119501
172	0x3bc9fd65	0.00616424
173	0xbe1c0887	-0.15237628
174	0xbe56eb1c	-0.20988125
175	0xbdfe36fd	-0.12412832
176	0xbd4feecf	-0.050764855
177	0xbe81cd42	-0.25351912
178	0x3df4651d	0.11933348
179	0x3d88a44f	0.066719644
180	0x3d3dc934	0.04633446
181	0x3d76e913	0.06028087
182	0x3cc1f2ba	0.023675311
183	0xbe0b8d0b	-0.13628022
184	0xbc73554c	-0.014851879
185	0xbc6de40b	-0.014519702
186	0x3d17f685	0.037100334
187	0x3bc142e8	0.0058978684
188	0xbe6682e5	-0.2251087
189	0xbd47f913	-0.04882152
190	0x3df9fdb2	0.12206592
191	0xbc8e4b4d	-0.01736989
192	0x3ed8009b	0.42187962
193	0x3d5f781c	0.054557905
194	0xbe4f1630	-0.20223308
195	0x3dff1280	0.124547005
196	0x3ca3f705	0.020015249
197	0xbe0b6320	-0.13612032
198	0xbe37a0c3	-0.1793242
199	0xbe051013	-0.12994413
200	0xbdcc3859	-0.09971685
201	0xbcff4bcf	-0.031164078
202	0xbba420e9	-0.005008806
203	0xbe349276	-0.17633995
204	0x3cbb7e22	0.022887293
205	0xbdf40d5b	-0.1191661
206	0x3eb3fcfe	0.35153955
207	0xbe00d4c9	-0.12581171
208	0xbb7229b9	-0.0036951138
209	0x3e34f6e8	0.17672312
210	0x3c825235	0.01590834
211	0xbe179640	-0.1480341
212	0xbe6460dc	-0.22302574
213	0x3e4da07e	0.20080754
214	0xbd78873a	-0.060675837
215	0x3b1b16d0	0.002366472
216	0x3e11f92c	0.14255208
217	0xbd5470a5	-0.05186524
218	0x3cdded6a	0.027090747
219	0xbb9f76f7	-0.0048664766
220	0x3e229393	0.15876608
221	0x3dfc132c	0.12308344
222	0x3e1d291c	0.15347713
223	0xbe7f14d6	-0.24910292
224	0xbe14594e	-0.14487192
225	0xbd2f96d7	-0.04286846
226	0xbe086ddb	-0.13323157
227	0x3e379d7e	0.17931172
228	0xbe062439	-0.13099755
229	0x3e234e12	0.1594775
230	0xbdf9589a	-0.121751025
231	0xbdbd6550	-0.092478395
232	0x3e246509	0.16054167
233	0x3d8569fd	0.06514356
234	0xba339e12	-0.00068518624
235	0xbdbcc5fe	-0.092174515
236	0x3d9b7850	0.07591307
237	0x3e758ae8	0.2397877
238	0xbe01eea7	-0.12688695
239	0xbe4ae4ad	-0.19813795
240	0xbe88d393	-0.26723918
241	0x3e503953	0.20334367
242	0x3d52fdcd	0.051511575
243	0xbe763d9c	-0.2404694
244	0x3cb951bf	0.022621987
245	0xbe53262e	-0.20620033
246	0xbe128888	-0.14309895
247	0x3d1ece21	0.0387708
248	0xbe4af091	-0.19818331
249	0x3dfd3b6c	0.123648494
250	0x3d98cd77	0.07461064
251	0xbe3b214a	-0.18274418
252	0x3cc9e40d	0.024644876
253	0x3e5509c8	0.20804513
254	0xbe16ff74	-0.14745885
255	0xbe63503e	-0.22198579

kp1.mlp.2.bias f4 [16]
0	0xbd716114	-0.05893047
1	0xbd29e0d4	-0.04147418
2	0xbd97fa4d	-0.07420788
3	0xbe695324	-0.22785622
4	0xbba34b6d	-0.0049833567
5	0xbe61d6c9	-0.2205459
6	0x3e0e3fe5	0.13891561
7	0x3e7e14dd	0.24812646
8	0x3dc6735b	0.09689971
9	0xbda1dbb8	-0.07903236
10	0xbde24ec3	-0.11050179
11	0xbe99e0c6	-0.300543
12	0x3e8eccc8	0.2789061
13	0xbc91329d	-0.01772433
14	0x3cef7936	0.029232603
15	0xbe1c9132	-0.15289763

kp2.mlp.0.weight f4 [32, 19]
0	0x3ef35e00	0.47532654
1	0x3e2f1429	0.17097534
2	0x3c50270a	0.01270462
3	0xbe24109c	-0.16021961
4	0x3e6ef5f5	0.23336013
5	0xbc884984	-0.016636617
6	0xba6af692	-0.00089631334
7	0xbc43eb16	-0.011957904
8	0xbe35c00f	-0.17749046
9	0x3e4a6587	0.19765292
10	0xbe0371ad	-0.12836333
11	0xbe3a561e	-0.18196914
12	0xbd2cb1fb	-0.042161923
13	0xbe432cac	-0.1906001
14	0x3e450ae2	0.19242433
15	0xbe550df5	-0.20806105
16	0x3e30623b	0.17224972
17	0x3d667b9e	0.056270234
18	0x3d3807e5	0.044929404
19	0xbebc3507	-0.36759207
20	0x3ef9aa1c	0.48762596
21	0x3e6021ef	0.21887945
22	0x3e5ff37d	0.21870227
23	0xbd3039ba	-0.043023802
24	0x3df81f3f	0.12115335
25	0x3de590ee	0.11209284
26	0x3cdf0c0a	0.02722742
27	0x3d41bc97	0.047298994
28	0xbde3fcb4	-0.11132184
29	0x3e696dc5	0.2279578
30	0xbd28a8cf	-0.041176613
31	0xbe41ca32	-0.18924788
32	0xbe518578	-0.2046107
33	0xbd6d8133	-0.057984542
34	0x3e61c6d7	0.22048508
35	0xbe051c8d	-0.12999173
36	0x3e65a2e9	0.22425427
37	0x3d9f8e9f	0.07790875
38	0x3ef330ce	0.47498173
39	0xbdf0e561	-0.117625006
40	0x3ed1e4a1	0.40994743
41	0x3de7e504	0.11322978
42	0xbe03d217	-0.12873112
43	0xbc707572	-0.014676439
44	0x3d11080b	0.03540806
45	0xbda45389	-0.080237456
46	0xbd25fbd1	-0.040523354
47	0x3e3a1517	0.18172108
48	0xbe2e44ef	-0.17018484
49	0xbdb3ec02	-0.08785249
50	0x3dc1d237	0.094639234
51	0xbe0a58ef	-0.13510488
52	0xbdcebb62	-0.10094334
53	0xbdf34dc0	-0.11880064
54	0x3ce533ea	0.027978856
55	0x3df4e5ea	0.11957915
56	0x3cdb1278	0.026742205
57	0x3e963319	0.2933586
58	0x3edf6139	0.43628863
59	0x3acbeb84	0.001555786
60	0x3ce7d07f	0.02829766
61	0xbdeed912	-0.116624966
62	0x3e1ab15b	0.15106718
63	0x3e0999c1	0.13437559
64	0xbd5e05b5	-0.05420466
65	0x3de041d7	0.10950058
66	0xbde273a3	-0.11057212
67	0x3e38af7f	0.18035696
68	0x3de2595d	0.11052201
69	0x3db2e75c	0.087355345
70	0x3d6426b4	0.055700973
71	0x3e1d965a	0.15389386
72	0x3dc31ecf	0.09527361
73	0xbe27301f	-0.1632695
74	0x3e1358a9	0.1438929
75	0x3d5d4698	0.0540224
76	0x3ce78e28	0.028266028
77	0xbed3637e	-0.41286844
78	0x3e95b892	0.29242378
79	0x3d0f69e0	0.03501308
80	0x3d8768c6	0.06611781
81	0xbe0576fc	-0.1303367
82	0x3e13c335	0.14429934
83	0x3e229941	0.15878774
84	0xbe660141	-0.22461416
85	0xbc9cdfa5	-0.01914961
86	0xbe14eb5f	-0.14542912
87	0xbdb60391	-0.08887399
88	0x3e119cff	0.14220046
89	0xbc125966	-0.008932447
90	0x3e010547	0.1259967
91	0xbd09f83d	-0.033684004
92	0xbe47d287	-0.19513904
93	0xbd3672bb	-0.04454301
94	0xbda523cb	-0.080634676
95	0xbde320db	-0.11090251
96	0x3e6c322b	0.23066013
97	0xbac5e52d	-0.0015098207
98	0x3e1cc05f	0.15307759
99	0xbd077088	-0.033066303
100	0xbdd26602	-0.10273363
101	0x3e0572fe	0.13032147
102	0x3dcc1335	0.09964601
103	0x3e5ec5b3	0.21755104
104	0x3e24dcb1	0.16099812
105	0x3d1b5789	0.037925277
106	0xbd00c80a	-0.031440772
107	0xbe0603d8	-0.13087404
108	0x3d975c34	0.07390633
109	0xbd3ca488	-0.046055347
110	0x3d527c0b	0.051387828
111	0xbd33ad7a	-0.043866612
112	0xbe4ab423	-0.19795279
113	0x3e27f193	0.16400747
114	0x3ecfe7a0	0.40606403
115	0xbedc9fa5	-0.4309055
116	0x3e8e7cc2	0.27829558
117	0x3d38ad4c	0.045087144
118	0xbe61caa1	-0.22049953
119	0x3dafd10c	0.085847944
120	0x3e2f314a	0.17108646
121	0xbde38c90	-0.111107945
122	0x3dfd6a9d	0.123738505
123	0x3df2ded7	0.118589096
124	0xbdce67f2	-0.1007842
125	0x3e04ada2	0.1295686
126	0x3e157a79	0.14597501
127	0xbdaac629	-0.08338577
128	0xbd762e9c	-0.060103044
129	0x3d4f56a2	0.05061973
130	0x3c68897f	0.014192938
131	0x3e307ff3	0.17236309
132	0x3d92cb5a	0.071676925
133	0xbd92ce62	-0.07168271
134	0xbdb0c485	-0.08631233
135	0x3c781461	0.015141577
136	0xbe0e95ee	-0.13924381
137	0xbe64be3d	-0.22338195
138	0x3e0c3a32	0.13694075
139	0x3d05bb3a	0.032649256
140	0xbd9df7d1	-0.07713283
141	0xbaf60282	-0.0018769058
142	0xbe0442b3	-0.12916069
143	0xbd5a03af	-0.05322617
144	0x3b6d1634	0.0036176564
145	0xbe0fab83	-0.1403027
146	0x3e03f7d7	0.12887512
147	0xbd7cdc9b	-0.061733823
148	0xbe12040a	-0.14259353
149	0xbe2d0606	-0.16896829
150	0xbcaec98d	-0.021336341
151	0x3e2cc4db	0.1687197
152	0xbeaee129	-0.3415616
153	0xbee03b41	-0.43795207
154	0x3e4f7392	0.2025893
155	0xbdc32e24	-0.09530285
156	0x3d879322	0.0661986
157	0x3e63952b	0.22224872
158	0xbceb1c36	-0.028699975
159	0x3e121d02	0.14268878
160	0x3db00ac8	0.08595806
161	0x3e43a597	0.19106136
162	0xbd92882f	-0.07154881
163	0x3e195c72	0.14976671
164	0xbe5ba737	-0.21450506
165	0x3e21c20e	0.15796682
166	0xbe695cbc	-0.22789282
167	0x3da14686	0.078747794
168	0x3e4609d5	0.19339688
169	0xbdf2a821	-0.11848474
170	0xbddad9f3	-0.10686102
171	0xbeb85e72	-0.36009556
172	0xbe99f205	-0.3006746
173	0x3d057d07	0.03258994
174	0xbc760e37	-0.0150180375
175	0xbd0a25b8	-0.033727378
176	0xbdfdf63c	-0.12400481
177	0x3dc927df	0.09822058
178	0xbd9c3850	-0.07627928
179	0x3db5a403	0.088691734
180	0x3e35d16f	0.17755674
181	0xbd2e6033	-0.04257221
182	0x3dd90bf0	0.1059798
183	0x3e286124	0.16443306
184	0xbd399d6e	-0.045316152
185	0xbdd358ce	-0.103196725
186	0xbc5a298a	-0.013315568
187	0xbe04d1d3	-0.12970667
188	0x3db2bc30	0.087273
189	0xbe1d3ab0	-0.15354419
190	0xbe066b7b	-0.13126938
191	0xbddaf698	-0.10691565
192	0xbd7438a6	-0.059624337
193	0x3de7a01d	0.11309836
194	0xbe35b0b0	-0.17743182
195	0x3d530a5d	0.051523555
196	0xbe035e2d	-0.12828894
197	0x3e404995	0.1877807
198	0x3e345fb3	0.17614631
199	0x3da44420	0.08020806
200	0xbd5ab35e	-0.053393714
201	0xbe037e0c	-0.12841052
202	0xbd46a4f6	-0.048497163
203	0x3d9e5512	0.077310696
204	0x3e0b9ea8	0.13634741
205	0x3e5f66cb	0.21816556
206	0x3e2d3c08	0.16917431
207	0xbc37a0b9	-0.011207753
208	0xbe4b1426	-0.19831905
209	0xbecb1dc7	-0.39671156
210	0x3ec06f93	0.37585124
211	0x3ee3ce96	0.4449355
212	0x3e7d1d83	0.24718289
213	0x3dd530e5	0.104097165
214	0xbc770562	-0.015076967
215	0x3cc5616f	0.024094312
216	0x3ded6b8a	0.11592777
217	0x3e40a34d	0.18812294
218	0x3e4bad46	0.19890317
219	0x3d65206b	0.05593912
220	0x3e56526f	0.20929883
221	0x3d7e101c	0.06202708
222	0x3df0a5d5	0.1175038
223	0xbcf9ba5d	-0.030484373
224	0x3e7bacf5	0.24577697
225	0xbd249421	-0.04018033
226	0xbdcc3175	-0.09970371
227	0xbd5e71ff	-0.054307934
228	0xbe3fe8c0	-0.18741131
229	0xbe7c6164	-0.24646527
230	0xbc688ccf	-0.014193728
231	0xbe1dde61	-0.15416862
232	0x3c6f02b0	0.014588043
233	0xbda570fa	-0.08078189
234	0xbd2148a5	-0.03937592
235	0xbdb61d7f	-0.08892345
236	0xbe65af3f	-0.22430132
237	0x3e26da51	0.16294219
238	0x3e47d69c	0.1951546
239	0xbdc92898	-0.09822196
240	0x3cb677e8	0.022273973
241	0xbddeaee7	-0.10873204
242	0x3e1a3a10	0.15061212
243	0x3ddaa448	0.106758654
244	0xbd9e8c66	-0.077416226
245	0x3df4f5ea	0.11960967
246	0xbda2c181	-0.07947064
247	0xbd2ae246	-0.041719697
248	0x3c6b635a	0.014366949
249	0xbe88f6a4	-0.26750672
250	0x3ca1c258	0.01974599
251	0xbd812005	-0.06304935
252	0x3d5100b3	0.051026057
253	0x3e311d25	0.17296274
254	0x3da02c0d	0.07820902
255	0x3da64346	0.081183

kp2.mlp.0.bias f4 [32]
0	0x3e0330f0	0.12811637
1	0x3e88388b	0.2660564
2	0xbdd674e3	-0.10471513
3	0x3dd02226	0.10162763
4	0x3e0dbf07	0.13842402
5	0xbd775d31	-0.06039161
6	0x3d115e13	0.035490107
7	0xbd81a763	-0.063307546
8	0x3e86f879	0.26361445
9	0x3d8ddc09	0.06926734
10	0xbde3973d	-0.11112831
11	0xbd528215	-0.051393587
12	0xbe0f2cba	-0.13981906
13	0xbd9ee34f	-0.077581994
14	0x3e940122	0.28907114
15	0x3da2d68a	0.07951076
16	0x3e64957d	0.2232265
17	0xbd0ff309	-0.035143886
18	0x3d8081d7	0.06274765
19	0x3e544b54	0.2073186
20	0x3e2f7ec1	0.17138197
21	0xbe3e74cc	-0.18599242
22	0xbe273358	-0.1632818
23	0x3e0ad686	0.13558397
24	0xbc998204	-0.018738754
25	0xbdf5688a	-0.1198283
26	0x3c5b7418	0.013394378
27	0xbe5bac8a	-0.21452537
28	0xbe615a4c	-0.22007102
29	0x3ded930c	0.116003126
30	0xbbe89dfa	-0.0070989104
31	0x3dbc603e	0.09198044

kp2.mlp.2.weight f4 [32, 32]
0	0x3c8b62ad	0.017014826
1	0x3db0411e	0.0860617
2	0x3e34b74e	0.1764805
3	0x3e5426da	0.20717946
4	0xbd4e3df2	-0.050352044
5	0x3e545853	0.20736818
6	0xbe0334f8	-0.12813175
7	0x3d26ba80	0.040705204
8	0xbdb7b313	-0.089697026
9	0xbd635534	-0.055501178
10	0x3d8065ad	0.06269393
11	0x3e71bc66	0.23607025
12	0xbce110b5	-0.027473787
13	0xbe3492f3	-0.17634182
14	0xbe2cf228	-0.1688925
15	0xbcbd2f7c	-0.023093931
16	0x3e130cfd	0.14360423
17	0x3da272e9	0.079320736
18	0xbe169d21	-0.14708377
19	0xbd291c23	-0.0412866
20	0x3db2fff5	0.08740226
21	0xbdafdf02	-0.08587457
22	0xbe2c0f2c	-0.16802663
23	0x3e1ed783	0.15511899
24	0x3d1f3a4b	0.038873952
25	0x3d837e27	0.06420546
26	0x3e42cf81	0.19024469
27	0xbd14d002	-0.036331184
28	0xbdf0cc9e	-0.11757778
29	0x3df3b0d1	0.118989594
30	0x3daf840b	0.08570107
31	0x3dce06f3	0.10059919
32	0x3c842a55	0.016133467
33	0xbe39a6f3	-0.18130092
34	0xbdda667e	-0.1066408
35	0x3e0ad504	0.13557822
36	0xbd9fe210	-0.0780679
37	0x3cf56086	0.029953253
38	0xbd3c6710	-0.045996726
39	0x3e19cd9e	0.15019843
40	0xbc4a81d9	-0.01236006
41	0xbe116645	-0.14199169
42	0x3d734605	0.059392948
43	0xbdf04d81	-0.11733533
44	0xbdc4d4a0	-0.096108675
45	0x3e5338a8	0.20627081
46	0xbddcb662	-0.10776974
47	0xbd86d8f5	-0.0658435
48	0xbdfa1228	-0.12210494
49	0x3ce8d9e7	0.028424216
50	0xbd5ab4f2	-0.05339522
51	0xbcac3b32	-0.02102432
52	0x3d9d3b7e	0.07677363
53	0x3d75b212	0.059984274
54	0xbd4c7d34	-0.04992409
55	0xbe463b28	-0.19358504
56	0x3db85a9c	0.09001657
57	0x3e1370c4	0.14398485
58	0xbde75044	-0.11294606
59	0x3db9e4fe	0.0907688
60	0x3e3f5137	0.18683325
61	0xbd5a373a	-0.053275324
62	0xbd4e192c	-0.050316975
63	0xbdd390b3	-0.103303336
64	0xbc7f6365	-0.015587662
65	0x3dc52974	0.09627047
66	0xbca357a4	-0.019939251
67	0xbd9e0051	-0.07714904
68	0xbe0b3378	-0.13593853
69	0xbdaeb0b1	-0.08529795
70	0xbe27976b	-0.16366355
71	0x3e1cd63b	0.15316097
72	0xbd8b5ff4	-0.06805411
73	0x3cad49a4	0.021153279
74	0x3d1566b3	0.036474895
75	0x3c32dd2d	0.01091699
76	0xbd3b927c	-0.045793995
77	0x3e2bd8d0	0.16781926
78	0x3d3c35be	0.04594969
79	0x3d0d2a43	0.034464132
80	0xbe0afafc	-0.13572305
81	0xbca21541	-0.019785525
82	0xbdb905d8	-0.09034318
83	0xbc8bc067	-0.017059518
84	0xbe3d1faf	-0.18469118
85	0x3e1b9b2f	0.15195917
86	0xbdf9c95f	-0.121966116
87	0xbe3252f4	-0.17414457
88	0xbe17bf61	-0.14819099
89	0xbd28a0db	-0.04116903
90	0xbdb91a8a	-0.09038265
91	0x3da9db48	0.08293778
92	0xbddacb82	-0.10683347
93	0x3cfe0947	0.031010283
94	0xbbd008c5	-0.0063487017
95	0x3dfb6cc8	0.12276608
96	0x3bf70fc8	0.007539723
97	0x3ccb43b5	0.024812559
98	0x3e5642ce	0.20923921
99	0x3e9433ad	0.28945675
100	0x3e23c2ac	0.1599223
101	0x3de461a1	0.11151434
102	0x3e340a36	0.1758202
103	0xbdf2b427	-0.118507676
104	0x3c37eddc	0.011226144
105	0xbcfcabcd	-0.03084364
106	0xbd85b706	-0.065290496
107	0xbbe07b61	-0.0068506454
108	0xbe37217a	-0.17883864
109	0xbe29c0d3	-0.16577463
110	0x3e910d64	0.2833053
111	0xbe19aacb	-0.15006559
112	0x3c72d819	0.0148220295
113	0xbdc21ef8	-0.09478563
114	0x3e16e35b	0.14735167
115	0x3e2c01cd	0.16797562
116	0xbdb7e74d	-0.08979664
117	0x3dd7935e	0.10526155
118	0xbdbe0e21	-0.092800386
119	0x3e0e9ba3	0.13926558
120	0xbd5a835f	-0.05334794
121	0x3d6ec060	0.05828893
122	0x3ea61dd0	0.3244462
123	0x3e2625f9	0.16225423
124	0xbdecc09f	-0.11560177
125	0x3e1adc8b	0.15123193
126	0xbe2490d0	-0.16070867
127	0x3e4764d0	0.1947205
128	0xbdfc23bd	-0.12311504
129	0xbd84fe86	-0.06493859
130	0xbd0dbf50	-0.034606278
131	0x3e2bcdae	0.1677768
132	0xbe47329a	-0.19452897
133	0x3db48932	0.088152304
134	0x3eba989e	0.36444563
135	0x3e2335e7	0.15938531
136	0xbddf3f2e	-0.109007224
137	0x3d855038	0.06509441
138	0xbb651efa	-0.003496109
139	0x3e1557ac	0.14584225
140	0x3e34c0c6	0.17651662
141	0xbe376ade	-0.1791186
142	0xbd887bb6	-0.06664221
143	0x3e048032	0.12939528
144	0x3bb74255	0.005592624
145	0x3de213fe	0.110389695
146	0x3da94121	0.082643755
147	0x3e4842ba	0.19556704
148	0xbdf274ad	-0.118386604
149	0xbdf280c9	-0.1184097
150	0x3e01ebb9	0.12687577
151	0x3d8afcf9	0.06786532
152	0xbd33e32a	-0.043917812
153	0xbe232a03	-0.15933995
154	0x3e964dc1	0.29356197
155	0x3e090b8c	0.13383311
156	0x3de72e75	0.11288158
157	0xbd308e8a	-0.043104686
158	0xbe21e4cf	-0.1580994
159	0x3dd99569	0.10624201
160	0x3d29afdd	0.041427482
161	0x3c3108ae	0.010805292
162	0xbe148e7f	-0.14507483
163	0x3e0a856e	0.13527462
164	0xbda23fa7	-0.07922297
165	0xbdbba570	-0.09162414
166	0xbe2f56c0	-0.17122936
167	0xbde5e5b4	-0.11225453
168	0xbc801402	-0.01563454
169	0xbd82fb73	-0.063956164
170	0x3d873702	0.06602289
171	0xbe823f0e	-0.25438732
172	0x3d014211	0.031557146
173	0xbd28db06	-0.041224502
174	0xbd671e06	-0.056425117
175	0xbe12ddd7	-0.14342438
176	0xbe0fcd89	-0.14043249
177	0x3e232b6a	0.1593453
178	0x3d2688c9	0.040657792
179	0x3d226edc	0.039656505
180	0xbbe11a46	-0.006869587
181	0xbdfbea47	-0.12300544
182	0xbe1fbf8d	-0.15600415
183	0xba495cc0	-0.00076813623
184	0x3dc1d811	0.094650395
185	0xbbb424b1	-0.005497538
186	0x3e29d09a	0.16583481
187	0xbe2ee305	-0.17078789
188	0xbda713fe	-0.0815811
189	0xbd9c0e09	-0.076198645
190	0x3e0ca3d4	0.1373437
191	0x3e366a46	0.17813978
192	0x3da0f187	0.07858568
193	0x3d3d6cd5	0.04624637
194	0x3e5d4c94	0.21611243
195	0x3ddec562	0.108774915
196	0x3e02df2a	0.12780443
197	0xbb517d35	-0.0031965498
198	0x3e22f7de	0.15914866
199	0x3e12ea60	0.1434722
200	0xbcae55cc	-0.021281146
201	0x3d8e97aa	0.069625214
202	0x3e06313a	0.13104716
203	0x3e5a3074	0.21307546
204	0x3db49fc4	0.088195354
205	0x3e00c9e6	0.12577018
206	0x3e611846	0.21981916
207	0x3e08fb51	0.1337712
208	0x3b363f71	0.002780881
209	0xbdc9cc07	-0.09853368
210	0xba38993a	-0.00070418755
211	0x3dc9b3cd	0.098487474
212	0x3dc88e5a	0.097927764
213	0xbdd8e4e1	-0.1059053
214	0x3e062340	0.13099384
215	0xbd12c3eb	-0.035831373
216	0x3cb032ef	0.021508662
217	0x3cdf176e	0.027232852
218	0x3d4216d5	0.047385056
219	0xba86b3cd	-0.0010276973
220	0x3d5b539a	0.053546526
221	0x3e3ebcae	0.18626663
222	0xbdb2e9c1	-0.08735991
223	0x3e0249aa	0.12723413
224	0x3e6516cd	0.22371979
225	0x3cd8ff6e	0.026488986
226	0x3e5cc7ac	0.21560544
227	0x3cb4b8fa	0.02206086
228	0x3c47f00e	0.01220323
229	0xbe23f35a	-0.160108
230	0x3e7a9200	0.24469757
231	0xbd64b6fa	-0.055838563
232	0x3ddeed5c	0.108851165
233	0xbd277dee	-0.04089158
234	0x3e051198	0.12994993
235	0xbdffcfde	-0.124908194
236	0x3d8fe7b7	0.07026618
237	0xbe260428	-0.16212523
238	0xbcff70ff	-0.03118181
239	0x3e3fa038	0.18713462
240	0x3e39404c	0.18090934
241	0x3e4917fa	0.19638053
242	0x3e64308f	0.22284149
243	0xbd7e01f5	-0.062013585
244	0x3e286270	0.16443801
245	0xbd8bfaf2	-0.068349734
246	0xbe0522a4	-0.13001496
247	0x3e1f04f8	0.15529239
248	0x3e112bf9	0.1417693
249	0xbd763625	-0.06011023
250	0x3e258778	0.16164958
251	0x3dce5399	0.10074539
252	0x3d908b9c	0.070578784
253	0xbdd5a35e	-0.104315504
254	0xbe263e8c	-0.16234797
255	0x3e707efd	0.23485942

kp2.mlp.2.bias f4 [32]
0	0xbd7f5266	-0.06233444
1	0x3dcc2c47	0.09969383
2	0xbcd5f78f	-0.026119022
3	0x3e01eec8	0.12688744
4	0x3cbb1db5	0.022841314
5	0xbde63d7e	-0.112421975
6	0x3e10233f	0.14075945
7	0x3c406b76	0.011744371
8	0x3d2cb78d	0.042167235
9	0x3d50cfc6	0.0509794
10	0x3dc20da9	0.09475262
11	0xbdeb38a0	-0.1148541
12	0x3c01de0f	0.007926478
13	0xbdfa5cb5	-0.12224714
14	0x3d7649b2	0.060128875
15	0x3bda73a7	0.006666619
16	0x3e1b5f3b	0.15173046
17	0xbe38ad9c	-0.18034977
18	0xbe3b30d9	-0.18280353
19	0x3e0b302a	0.13592592
20	0xbe292b47	-0.16520415
21	0x3c85be95	0.016326228
22	0xbcdbe042	-0.026840333
23	0xbe4f28bd	-0.20230384
24	0x3cbf5a49	0.023358481
25	0xbd808270	-0.06274879
26	0x3d884af4	0.06654921
27	0x3dc458cd	0.0958725
28	0x3d5f350c	0.05449395
29	0xbd4a859c	-0.049443826
30	0x3c9e47dc	0.019321375
31	0x3d65904a	0.056045808

head.0.weight f4 [32, 32]
0	0xbdb0528c	-0.086094946
1	0xbe082749	-0.13296236
2	0x3d7d3670	0.061819494
3	0x3e7b5759	0.24545039
4	0x3e19087d	0.14944644
5	0x3e06fd22	0.131825
6	0x3e1c2d81	0.15251733
7	0xbe0fdc53	-0.14048891
8	0x3e9a07d1	0.30084088
9	0x3e7f5f63	0.24938731
10	0xbd8ea337	-0.069647245
11	0x3dfbc69f	0.12293743
12	0x3e01d12e	0.12677452
13	0x3e32af8a	0.17449775
14	0xbd332493	-0.04373605
15	0x3d5f3eba	0.05450318
16	0xbcca9f77	-0.024734242
17	0xbe1ef624	-0.15523583
18	0x3dcf5c91	0.101250775
19	0x3dcd1a7f	0.10014819
20	0x3df3e602	0.11909105
21	0xbd3c3a80	-0.045954227
22	0x3e2c03f3	0.16798382
23	0xbe010c73	-0.12602405
24	0x3d463f31	0.048400108
25	0x3e2e30c1	0.17010786
26	0x3e388439	0.18019189
27	0x3dcc59c8	0.09978062
28	0x3e4166da	0.18886891
29	0x3e3936c5	0.18087299
30	0xbe008388	-0.12550175
31	0x3d2ad9de	0.04171168
32	0xbb7dfee2	-0.0038756658
33	0x3d92d70c	0.07169923
34	0x3e302b3e	0.17203996
35	0x3d8f8e40	0.07009554
36	0x3e3855c0	0.18001461
37	0x3cf82cf8	0.03029488
38	0x3cb240ed	0.021759475
39	0xbdba75ee	-0.091045246
40	0x3e0a6482	0.13514903
41	0xbde2f0c0	-0.11081076
42	0xbe3dcf6a	-0.18536153
43	0x3d967e08	0.07348257
44	0xbe185a79	-0.14878263
45	0xbe12a980	-0.14322472
46	0xbde1651f	-0.110056154
47	0x3d7fb138	0.06242487
48	0xbcea63e5	-0.028612087
49	0xbdf470d7	-0.11935585
50	0xbd80b471	-0.062844165
51	0x3d3676ec	0.044547006
52	0x3dfc8254	0.123295456
53	0xbe03a897	-0.1285728
54	0xbddff1bf	-0.10934781
55	0xbe0f308c	-0.13983363
56	0xbe046e0d	-0.12932606
57	0xbc2eb444	-0.010663096
58	0xbd88bbd6	-0.06676452
59	0x3e1f4550	0.15553784
60	0x3db07373	0.0861577
61	0x3d5acd1e	0.05341827
62	0xbdc4f324	-0.09616688
63	0x3d6814c7	0.05666044
64	0xbe150657	-0.145532
65	0xbddfe7ca	-0.10932882
66	0x3dcc2702	0.09968378
67	0xbd946fb2	-0.07247867
68	0xbd284379	-0.041079972
69	0x3e25e15e	0.16199252
70	0x3db4616d	0.08807645
71	0xbd2d0b68	-0.042247206
72	0xbd7a729a	-0.06114445
73	0xbdc64c90	-0.09682572
74	0xbd9dc802	-0.07704164
75	0xbd5dea15	-0.054178316
76	0x3df9f980	0.122057915
77	0xbd5ecc72	-0.054394193
78	0x3c7eb3a4	0.015545759
79	0xbd733ea3	-0.059385907
80	0xbdbd9569	-0.09257013
81	0x3e0dda92	0.13852909
82	0xbda7cad3	-0.081929825
83	0xbd88d1b2	-0.06680621
84	0x3e03b629	0.12862457
85	0xbcc0bb9b	-0.023526957
86	0x3c82a014	0.015945472
87	0xbcb58329	-0.022157269
88	0x3ddae507	0.10688215
89	0x3d3d27c9	0.04618052
90	0x3e0cdbb3	0.13755684
91	0xbd84cb8e	-0.064841375
92	0x3e1f6bd9	0.15568484
93	0xbe0cce70	-0.13750625
94	0xbb964c81	-0.0045867567
95	0xbc493445	-0.012280528
96	0xbd38878d	-0.045051146
97	0x3cbdff5b	0.023193052
98	0x3da836d6	0.08213584
99	0xbdf89e9a	-0.12139626
100	0x3d964c47	0.073387675
101	0x3e0955b9	0.13411607
102	0xbe2688a2	-0.16263059
103	0xbc6ef440	-0.014584601
104	0x3d292858	0.04129824
105	0xbd838437	-0.06421702
106	0xbccdc1f9	-0.025116907
107	0xbd20a949	-0.039223943
108	0xbd9da6f0	-0.076978564
109	0xbdf7505d	-0.12075875
110	0xbd62e56b	-0.05539457
111	0xbe064811	-0.13113429
112	0xbdcf56df	-0.10123991
113	0x3e1b3c73	0.15159778
114	0x3dac4ee4	0.08413485
115	0xbdea8259	-0.11450643
116	0x3e039e72	0.12853411
117	0x3e01b2ae	0.12665817
118	0xbdf332bd	-0.11874912
119	0x3dcb3f1d	0.09924147
120	0x3d92be54	0.071652085
121	0xbdafe621	-0.085888155
122	0x3da6d27a	0.08145614
123	0xbc377142	-0.011196436
124	0xbdfb236e	-0.12262617
125	0x3e176d6c	0.14787835
126	0x3e05f983	0.13083462
127	0xbd2b6ca9	-0.041851673
128	0x3e084b09	0.13309874
129	0x3c0e6685	0.008691435
130	0xbe358d80	-0.17729759
131	0x3e0cf30d	0.13764592
132	0x3e127bcd	0.14305039
133	0xbdc617e0	-0.096725225
134	0xbda85a65	-0.082203664
135	0x3dfea199	0.12433166
136	0x3e72f107	0.23724757
137	0x3e4f32bd	0.20234199
138	0x3e506517	0.20351063
139	0x3e3556af	0.17708848
140	0xbd270e39	-0.04078505
141	0x3d76c183	0.06024314
142	0xbe140e0a	-0.1445848
143	0xbda83287	-0.08212762
144	0x3e3b9c3d	0.18321319
145	0xbd4db630	-0.050222576
146	0x3e650e54	0.22368747
147	0xbde0552a	-0.10953744
148	0xbd9d115b	-0.07669326
149	0x3dae4a4b	0.08510264
150	0xbd90d83a	-0.07072492
151	0xbdddb701	-0.10825921
152	0xbc21744e	-0.009854389
153	0x3e094b2a	0.13407579
154	0x3e29c80b	0.16580217
155	0xbdde61ab	-0.108584724
156	0x3dc32f50	0.095305085
157	0x3e38b431	0.18037488
158	0x3e0350bd	0.12823768
159	0xbb243d6d	-0.0025061027
160	0xbd904bfd	-0.070457436
161	0xbdc5f68c	-0.09666166
162	0x3d284467	0.04108086
163	0x3e64ca1d	0.22342725
164	0x3dea211a	0.11432095
165	0xbc364663	-0.01112518
166	0x3e46250e	0.19350073
167	0x3cdbdbb5	0.026838163
168	0x3e7eee31	0.2489555
169	0x3e65e716	0.22451434
170	0x3dbdcdd5	0.09267775
171	0x3ce4e320	0.027940333
172	0x3df54828	0.11976653
173	0x3e3985d2	0.18117455
174	0xbddb13a2	-0.10697104
175	0xbd880bf0	-0.06642902
176	0xbd6c99a0	-0.057763696
177	0xbd94b4e3	-0.07261064
178	0x3d49119b	0.049089056
179	0x3deedcdf	0.116632216
180	0xbcb8abef	-0.022542922
181	0xbdb5374e	-0.08848439
182	0xbe0691bf	-0.13141535
183	0xbe39903c	-0.18121427
184	0xbb9b81c7	-0.0047456953
185	0x3c5f39db	0.013624634
186	0x3e0aaae0	0.13541746
187	0x3e1bf18e	0.15228865
188	0xbda53bea	-0.08068068
189	0xbd31fb0c	-0.043452308
190	0xbddb4d57	-0.10708111
191	0x3cc06a70	0.023488253
192	0x3e15d3f1	0.1463163
193	0xbdea14ce	-0.114297494
194	0xbe0bdee1	-0.1365924
195	0xbdcdff17	-0.1005842
196	0x3e063f27	0.13110028
197	0xbe1408d9	-0.144565
198	0x3e36198e	0.17783186
199	0x3c242bcb	0.010020207
200	0x3e67e93a	0.22647563
201	0x3e0cb04e	0.1373913
202	0x3e23117b	0.15924637
203	0x3db3c803	0.087783836
204	0xbdc0d381	-0.09415341
205	0x3e19e821	0.15029956
206	0x3ddbda68	0.10735017
207	0xbe11e049	-0.14245714
208	0x3e1af2d1	0.1513169
209	0xbddb325f	-0.10702967
210	0xbda7974e	-0.08183156
211	0x3e078789	0.13235296
212	0x3dead827	0.11467009
213	0xbd8ba653	-0.06818833
214	0xbe1d1731	-0.15340878
215	0xbe25fefa	-0.16210547
216	0xbcbc27d3	-0.022968208
217	0x3d96ce11	0.07363523
218	0x3d950acb	0.07277449
219	0x3dd7097c	0.10499856
220	0x3dd16861	0.10224987
221	0x3db94451	0.090462334
222	0xbe3f94a2	-0.18709043
223	0x3e48bfc9	0.1960441
224	0xbe207cf0	-0.1567266
225	0xbdd84cd0	-0.10561526
226	0x3ddae726	0.10688619
227	0x3ce9f1d9	0.028557705
228	0xbe0055bf	-0.1253271
229	0x3d89fa94	0.06737247
230	0x3e6bd77b	0.23031418
231	0xbe12e3f5	-0.14344771
232	0xbe18aac6	-0.14908895
233	0x3d64e660	0.055883765
234	0xbcf4455b	-0.029818228
235	0xbe0f3107	-0.13983546
236	0x3cff99ff	0.03120136
237	0xbde008b3	-0.10939159
238	0x3e428949	0.18997683
239	0x3c93d8bf	0.018047689
240	0x3e3ed55a	0.18636075
241	0xbe5cf47d	-0.2157764
242	0xbeb4db9b	-0.35323796
243	0x3d0de26c	0.03463976
244	0x3d3afad1	0.045649353
245	0x3d015e8b	0.031584304
246	0xbe48b75c	-0.19601196
247	0xbe464144	-0.19360834
248	0xbdc68604	-0.0969353
249	0xbdef8fad	-0.11697326
250	0xbbfd0290	-0.0077212527
251	0xbd040938	-0.032235354
252	0x3e12ac21	0.14323474
253	0xbc10b0e1	-0.008831234
254	0xbd3d88b9	-0.046272967
255	0xbd382b01	-0.044962887

head.0.bias f4 [32]
0	0xbda19522	-0.07889773
1	0xbe06936b	-0.13142173
2	0xbdc1cd2a	-0.0946296
3	0xbdbcd6e4	-0.09220675
4	0xbc33d836	-0.010976842
5	0x3d29735d	0.041369785
6	0x3e3e7358	0.18598688
7	0x3e636021	0.22204639
8	0x3d4b5240	0.049638987
9	0xbd5286d2	-0.051398106
10	0x3d065d97	0.032804098
11	0xbd53596b	-0.051598947
12	0x3dbf415a	0.09338637
13	0x3d054b49	0.0325425
14	0x3e865ad7	0.2624118
15	0x3e07152a	0.13191667
16	0x3e1471b3	0.14496498
17	0xbd16a873	-0.03678174
18	0x3db9e0c2	0.09076072
19	0x3cd0f3f3	0.025506949
20	0x3dda2a68	0.106526196
21	0x3e12b2a3	0.14325957
22	0xbe409f74	-0.18810827
23	0x3d075ae9	0.033045683
24	0x3e545a6c	0.20737618
25	0xbd27194c	-0.04079561
26	0xbbbba3bb	-0.0057263053
27	0x3e029517	0.12752186
28	0x3db1086b	0.08644184
29	0x3e847f9f	0.25878617
30	0xbc759d15	-0.014991065
31	0x3d4f1601	0.050558094

head.2.weight f4 [3, 32]
0	0x3e7db374	0.24775487
1	0x3de2ce13	0.11074462
2	0xbd209219	-0.03920183
3	0xbdfaa6c8	-0.12238842
4	0x3e4ec2c0	0.20191479
5	0x3d9bd18c	0.07608327
6	0x3e3eb792	0.18624714
7	0x3cbb172e	0.022838201
8	0x3de5a73f	0.1121354
9	0x3e4568dd	0.19278283
10	0x3e346fd1	0.1762078
11	0x3e496618	0.19667852
12	0xbe086088	-0.13318074
13	0xbdc2cf81	-0.095122345
14	0x3d02fcb8	0.031979293
15	0xbdadafe8	-0.08480817
16	0xbc26c8c0	-0.0101796985
17	0x3e233d47	0.15941344
18	0xbd4489d0	-0.04798299
19	0x3d97e202	0.074161544
20	0xbe0c1f20	-0.13683748
21	0x3d471db3	0.048612308
22	0xbe01e83a	-0.12686244
23	0xbe15fc2b	-0.14646976
24	0x3dcfc4a4	0.10144928
25	0xbcdac550	-0.026705414
26	0x3e2bf58e	0.1679289
27	0x3d5bf7d8	0.05370316
28	0x3e4174da	0.18892232
29	0x3df1b270	0.118016124
30	0xbe107929	-0.14108719
31	0xbd04fee9	-0.032469664
32	0x3ce2c6d6	0.027682703
33	0x3dc78267	0.09741669
34	0x3c960b6c	0.018315993
35	0xbdfebdfc	-0.124385804
36	0x3de4a579	0.11164374
37	0xbe291954	-0.16513568
38	0xbe3c4d28	-0.18388808
39	0xbe6c503b	-0.2307748
40	0xbdf0e72e	-0.11762844
41	0x3e0b4fdc	0.13604683
42	0xbd27cdc2	-0.04096771
43	0xbd095d70	-0.033536375
44	0x3dbfd3cc	0.09366569
45	0xbe3cd033	-0.18438797
46	0xbe83b813	-0.25726375
47	0xbd9acaa1	-0.0755818
48	0xbe44cf7e	-0.19219777
49	0xbe3cb032	-0.18426588
50	0x3d48a217	0.048982706
51	0xbe62b6d3	-0.22140054
52	0x3d9a0615	0.07520691
53	0x3b92c681	0.00447923
54	0xbc93a7a1	-0.018024268
55	0x3d3eb8de	0.04656302
56	0xbd9e0c4d	-0.0771719
57	0x3dd46bcf	0.10372125
58	0xbe76d59b	-0.24104922
59	0x3e09e66b	0.13466804
60	0xbc15e9c9	-0.009149977
61	0xbe64e36c	-0.2235238
62	0x3d87d6dc	0.06632778
63	0xbc85b369	-0.016320901
64	0x3d90e3bd	0.07074688
65	0xbdde914e	-0.108675584
66	0xbc2ba7e5	-0.010477041
67	0x3d94fbc2	0.072745815
68	0xbde8aeea	-0.11361487
69	0xbe144e63	-0.14483027
70	0xbe1e051b	-0.15431635
71	0x3e0fa291	0.14026858
72	0xbdb81c72	-0.089898005
73	0xbc1b07b0	-0.009462282
74	0xbe520d77	-0.20512949
75	0xbd2553f7	-0.04036328
76	0xbd1dad1f	-0.03849518
77	0xbdab7060	-0.08371043
78	0x3e189306	0.14899835
79	0xbd3e0dd4	-0.046399906
80	0x3b229855	0.0024810035
81	0x3d467055	0.048446972
82	0x3d9883d9	0.07447023
83	0xbe2d6f8f	-0.16937087
84	0xbde8ff56	-0.113768265
85	0xbcadf572	-0.021235202
86	0xba7520e9	-0.00093509123
87	0xbd175376	-0.03694483
88	0x3d49afa3	0.049239766
89	0xbc4e1470	-0.012578115
90	0x3e0fa85d	0.14029069
91	0x3e09182b	0.13388126
92	0xbe561f36	-0.20910344
93	0x3def7033	0.11691322
94	0xbdf69e26	-0.12041883
95	0x3de9aa22	0.114094034

head.2.bias f4 [3]
0	0xbd95e15d	-0.07318375
1	0xba4bda0e	-0.0007776328
2	0x3e3f3ac4	0.18674761
