checkpoints/epoch_007.pth (torch, 18849 bytes, 14 tensors)

fc0.weight f4 [8, 3]
00000000: 6c03 723e 7266 1f3e bc48 d73c 950c bb3e
00000010: eb00 5abe 9d01 c7bd 146f cebe 10e7 013f
00000020: 74dc 4fbe be59 98bb 686d e7be cdaa 12bd
00000030: 0e0a abbe 13f5 c13e 60ea fabe 79bb dfbd
00000040: d783 2bbe 2a24 f83e 97ac ba3e f698 0bbf
00000050: 39d8 013f 1bab 03be dd66 a8be 06e9 ebbd
0.23634118 0.15566424 0.0262798 0.36533037 -0.21289413 -0.097171046 -0.4031912 0.507432
-0.2029894 -0.00464937 -0.45200658 -0.03580742 -0.3340611 0.3788229 -0.4900694 -0.109244294
-0.16749512 0.4846509 0.364598 -0.54530275 0.50720555 -0.1285824 -0.32890978 -0.11519055

fc0.bias f4 [8]
00000000: 5616 5bbc 166e 0bbf 3dc3 26bf 5c59 66be
00000010: d4e0 ffbe 1d2f 30be f082 0abf 3feb c1be
-0.0133720245 -0.5446485 -0.6514166 -0.22495025 -0.49976218 -0.17205472 -0.54106045 -0.3787479

kp1.mlp.0.weight f4 [16, 11]
00000000: 5794 3a3f 582f f13e b918 243d 327d 003d
00000010: b736 49be f7cd 8cbc 908e 73be 4065 c43c
00000020: e9e1 df3c 128c 7f3e 0246 073d ae55 0bbf
00000030: 9f1f a53e 45af 853e b5f9 c03d c516 a2be
00000040: 3b78 2cbc 3bfc 143e 3b92 05bb 2210 6b3b
00000050: c1bb 96bc 2462 d63d 8cb1 fbbe 0494 2ebf
00000060: c67c cdbd f321 243e f38b 7ebe ecdf 093e
00000070: 7e86 693e 406b 18be 0275 b43c 65ab 48be
00000080: 852a 863e 3925 013f 9fb5 2fbf e119 35be
00000090: f02d 333e 2b7c 3c3e 8667 bf3d 9ab4 70be
000000a0: 97f3 19bc c4dc 6d3d 3ad0 1f3c 03a4 8a3e
000000b0: 9837 47bf c26c e0be b19a a8be 3ba8 3dbe
000000c0: e10f 3d3e d681 fcbd 697b 7c3d 7575 503e
000000d0: d6ad 3d3a 62f5 b3bd e52d 743e eadb 06bf
000000e0: 836c 1cbf 206c 9b3e 2d9a 78be 3ac1 fd3d
000000f0: ecc3 4dbd e1c1 d3bd 92c3 803e 2dc0 8a3e
00000100: b0fe 2d3e c8b2 e1bd 1eb3 c6be 8ae4 f33e
00000110: 928c 353d ae95 5a3e 629a fa3d 476f b8bd
00000120: 5a0e 8cbc f144 163e 5fc7 843e b396 87be
00000130: a0c2 41bc f1bc 713d 778c 463d 9e3f 8fbe
00000140: 21aa 163d 734d 9bbd 843b 2abe 2fef ddbd
00000150: 1fd4 2fbe b434 a7bd 74b1 cebd c3b5 403e
00000160: 6731 1f3f a6d7 e2be 8bf7 0d3e e213 c4bb
00000170: 6478 f33d 4a5f 4d3e cdb8 e1bd 17a6 7e3e
00000180: 4f20 383e af5d 47bc f1ca cdbd b888 d63e
00000190: c69d 2b3f 88a6 fcbd b926 863e 8a79 65be
000001a0: 7843 fcbc f0d3 333d 17da 823d 8da0 3e3e
000001b0: 3253 9c3c 6f7a ec3d c33e 23be e0f7 3bbe
000001c0: 14a5 3cbd fa31 993d ef37 003e 9228 4ebe
000001d0: 7e15 b13c 2525 22be 1027 8bbe 14c0 65be
000001e0: 3d0e 693e 5b14 d5be 956a c53e 365c 093e
000001f0: 4dbb 1bbe b569 163e 60ec 013e dab4 203e
00000200: 5d61 483e 6d9d 31be e872 25be 9c3c eebd
00000210: 961a c2be f80d 2a3d c1d8 4c3e 4c12 a2be
00000220: b2fc a5bd f420 173e ffde 9b3e 28ff 0fbe
00000230: a295 9abe 6872 84be f0c6 0cb9 cb5f e1be
00000240: 4df6 f4be 9d2f 16bd 6af3 653d 0c79 653d
00000250: f661 8bbc 7c92 05be 2458 eebd 3c30 c63d
00000260: 9e8f 663c a8c4 d13d 3870 083f 748c 643d
00000270: ba63 25bd 0004 00be 297c 313e 644d 3ebe
00000280: 329c 833d 84ea 763e dde8 783e 358e 20be
00000290: b05e cbbd c818 063d 544d 093f dd16 69be
000002a0: 9b66 0f3e 53cf 0b3e fcfc 5a3b 8c65 893e
000002b0: d496 873e d380 5c3e 2f34 233c 5931 c93c
0.728826 0.47106433 0.04006264 0.031369396 -0.19649778 -0.017188055 -0.23784852 0.023974061
0.027329402 0.24955776 0.03302575 -0.5442761 0.32250687 0.26110283 0.09422628 -0.31657997
-0.010526712 0.14549343 -0.002038135 0.003586777 -0.018400075 0.104679376 -0.49158895 -0.68194604
-0.10033564 0.16028576 -0.24858074 0.13464326 0.22805211 -0.14884663 0.02202845 -0.19596632
0.26204315 0.5044742 -0.68636507 -0.17685653 0.17497993 0.18406741 0.093459174 -0.23506394
-0.009396455 0.058071867 0.009754235 0.27078256 -0.77819204 -0.43832976 -0.3293052 -0.18521206
0.18463089 -0.12329452 0.06164113 0.20357306 0.00072356814 -0.087870374 0.23845632 -0.5267931
-0.61103076 0.3035593 -0.24277563 0.12390371 -0.050235674 -0.10339714 0.25149208 0.27099743
0.16991687 -0.11020428 -0.3880853 0.476353 0.04432351 0.21346161 0.122364774 -0.090055995
-0.017096687 0.14674737 0.25933358 -0.26482162 -0.011826187 0.05901808 0.0484738 -0.27978224
0.03678334 -0.07583132 -0.16624266 -0.10836636 -0.17170762 -0.08164349 -0.1009244 0.18819337
0.62184757 -0.44305152 0.13863961 -0.0059838155 0.11888197 0.20055881 -0.11021576 0.24868046
0.17981075 -0.012168332 -0.100484736 0.41901183 0.6703762 -0.12336451 0.26201418 -0.22409645
-0.03079389 0.04390329 0.063892536 0.18615933 0.01908264 0.1154679 -0.1594191 -0.18356276
-0.04605587 0.074802354 0.12521337 -0.20132664 0.021616694 -0.15834482 -0.2717824 -0.22436553
0.22759338 -0.41617092 0.38557878 0.13414082 -0.15208168 0.14688762 0.12687826 0.1569399
0.19568391 -0.1734521 -0.16157115 -0.11632654 -0.37910908 0.041517228 0.2000456 -0.31654584
-0.081048384 0.14758664 0.3044357 -0.14062178 -0.30192286 -0.25868535 -0.0001342555 -0.44018397
-0.47844163 -0.0366665 0.05614034 0.056023642 -0.017014485 -0.1304416 -0.11637905 0.09677169
0.014072327 0.10242587 0.5329623 0.05579801 -0.04037831 -0.12501526 0.1733252 -0.1858421
0.06426276 0.24112898 0.2430758 -0.15679248 -0.099301696 0.032738477 0.5363362 -0.22762628
0.14003985 0.13653307 0.003341495 0.26835287 0.2648226 0.21533518 0.009961172 0.024559664

kp1.mlp.0.bias f4 [16]
00000000: 2be9 ba3e 227d 4a3c ff4e b6bd 63c2 ccbc
00000010: 03e4 f53d d64f 013e 240b 70be 6e47 1bbd
00000020: cf5b 083e daa7 4fbd 386c 683d 9d84 743e
00000030: 1b56 6abe 3339 193e c7f6 4e3e 558f 863e
0.36506018 0.012358936 -0.08901786 -0.024995035 0.120063804 0.12628111 -0.2344175 -0.037909918
0.13316272 -0.050697185 0.05674383 0.23878713 -0.22884409 0.14963226 0.20211326 0.2628123

kp1.mlp.2.weight f4 [16, 16]
00000000: 2b20 cf3e b7b6 09be bae7 ebbd 1d21 1f3e
00000010: d88c 43be 5f32 27be cf07 913c 121c 413e
00000020: 5626 1b3e 3676 953e 8e0d 17bd 3e20 643e
00000030: 997c bcbd de24 9cbe 8e69 8a3d e061 003e
00000040: 83ec 99bd d6d9 f7bc b294 a0bd 6112 493e
00000050: 8dd6 2ebe 8fa8 c03d a656 2a3e 7a88 d53d
00000060: 619b 1cbe 5078 46be 2c90 58be 0f2a b1bd
00000070: 5dd7 573e dc76 5fbe afc2 8b3d 9db6 b5ba
00000080: f7c5 c3bd 5019 113e 6401 7a3d 41f1 e53d
00000090: 9cb3 c53d 6612 dd3d 5b64 743e b38d 3abe
000000a0: d253 42be f3ed ddbd 301a dabd 7979 883e
000000b0: a33f 7a3d 16e5 e13d fe8d 8cbd edf6 863d
000000c0: 460b 32bd 0d78 16be 9c2a 343d db13 933d
000000d0: 50f5 10bd 7799 38bc d74f 91bd 6275 103e
000000e0: 4360 21be 3600 86be 987f 173e 08c7 4e3e
000000f0: 6094 6cbd 23a4 3d3e 14a8 88be 18bd dc3d
00000100: 44cb a53e 4e3a 4cbe 46e3 ac3c 9ed9 cb3c
00000110: a339 453e 304c e63a a151 1dbd bb94 d2bd
00000120: af76 673e 573c da3c 5bfc 123e 38ab 37be
00000130: a351 963d 9f6f 463e 9608 883e 059c 08bd
00000140: 2b77 be3d 9aca 61be f587 803d 1f76 23be
00000150: 534d 25be ef96 5cbe 4a08 bb3d 8920 34bd
00000160: a482 57be edf2 803e 32d5 14be 6ab4 663e
00000170: 23b6 323c 1f3f 2abe 00b2 95bd 1824 573d
00000180: d23a 473d ac4b 1b3e aac5 e03d a93e fabd
00000190: 445c ea3d b4fa 6b3d 8060 9c3d d9d4 4fbe
000001a0: d5ef 5abe 5676 d93c f2fb 863e a856 a03d
000001b0: 3c3e 833e ea10 abbc bcd9 5cbe f3d6 583e
000001c0: fe24 48be f34d 273e 51b4 673e b0d5 4ebd
000001d0: 6910 e23d f6fc 0ebc 471a 43bd 13f0 3c3c
000001e0: 491f c83c 004e 93be 5158 943e 7c3f 043d
000001f0: b253 7dbd 3881 c73d 4018 4fbe bf18 adbd
00000200: 62b2 15be 0af8 26be 09f4 173e 4ed4 0cbe
00000210: 8945 443e bc25 9e3e 078b 053e 0ec7 1e3d
00000220: dffb b9bc 5dcd 6fbe a79b ffbd ea25 2cbe
00000230: c1e5 87bd a7d7 093e 2c0d da3c 1d7c da3b
00000240: 2031 f0be dc3a b5bc a3e6 043e 9611 bf3d
00000250: fbf4 a13d e6b2 d03d e6eb ae3d 5e32 03be
00000260: 73b8 bbbd d055 7fbe 623c 34be 5edb 783e
00000270: c09a 1b3e 54f9 d93d 915a 43be 8a45 8bbd
00000280: 897f 7bbe cb5d 06bc 862c 263e 383b 1bbe
00000290: af48 75be a203 753e ed9f c83d 6f86 86bd
000002a0: ea12 a73d 688b b03d 2628 64be cee4 7abd
000002b0: 2503 bf3c 0d3b f7bd d2f3 47be 9ebd e5bd
000002c0: b705 f6bd 462c 7ebe 6f20 f53d a3e3 bb3d
000002d0: 9121 8d3d fc1e 9e3d 454b 933c 1cd0 07be
000002e0: 4d0d 0dbc 488d 2fbd c07e 393d de41 f5bc
000002f0: 8959 4ebe 7733 19bd 074d 123e 5460 07bd
00000300: 2601 e73e 160b 5d3d 20fb 64be a846 083e
00000310: e198 653c 4e57 1bbe 2e63 1dbe 1d1b efbd
00000320: cfbf b1bd 4a4c 25ba 3b67 733c 5e7a 3cbe
00000330: 6d0e c33c 5f8b 10be 854d d03e 5813 fcbd
00000340: 56ac 543c 67dd 3a3e aca6 fc3c 274c 05be
00000350: 60b0 4abe 7b6e 6d3e 6ab5 bcbd 6d78 77bc
00000360: 442e 093e 988b 26bd 2b70 603c 38e3 d7bc
00000370: e3d3 083e fd3d d93d 79c7 1c3e d28c 68be
00000380: 8650 4cbe 799a 12bd 9a4b 0bbe a1ea 313e
00000390: 2193 e2bd 0fc1 2a3e 336b 00be 150b 8fbd
000003a0: 87b2 253e 8cad 653d 16ac 663b 89d3 d9bd
000003b0: bc19 a33d 2e22 6d3e 604c e0bd ab83 4ebe
000003c0: 77fc d0be aacb 533e b79c af3c ea0f 83be
000003d0: a210 733d d0b2 05be bb95 0ebe 8a9e 1d3d
000003e0: c720 38be 7bba 9d3d b4cc 913d 1024 1dbe
000003f0: 4452 513d 11cc 4a3e 8bf9 41be 1eb6 47be
0.4045423 -0.13448606 -0.11518808 0.15539975 -0.19096696 -0.16327809 0.017703919 0.18858364
0.15151343 0.2919175 -0.03687816 0.22277924 -0.092034526 -0.30496877 0.06758414 0.12537336
-0.07515814 -0.03025524 -0.078408614 0.19635917 -0.17074032 0.0940715 0.16634616 0.104264215
-0.15293647 -0.19381833 -0.21148747 -0.086506 0.21078248 -0.21822685 0.06824242 -0.0013863627
-0.09559243 0.14169812 0.061036482 0.11227656 0.096533984 0.10794525 0.23866408 -0.18218116
-0.18977287 -0.10836401 -0.10649526 0.26655176 0.061095845 0.11030023 -0.0686302 0.06590066
-0.043467782 -0.14694233 0.043985948 0.071815215 -0.0353902 -0.011267058 -0.07095306 0.14107278
-0.15759377 -0.26172036 0.14794767 0.20193112 -0.05775869 0.18519644 -0.26690733 0.10778254
0.32381642 -0.19944116 0.021104466 0.024884041 0.19260268 0.0017570313 -0.038407926 -0.10282274
0.22603868 0.0266401 0.14354078 -0.17936409 0.0733979 0.19378518 0.2656905 -0.033351917
0.09300073 -0.22049943 0.06275932 -0.15963028 -0.16142778 -0.21541952 0.091324404 -0.04397634
-0.21045929 0.25185338 -0.14534453 0.2252976 0.010907683 -0.16625641 -0.073093414 0.052524656
0.04864008 0.15165585 0.109752014 -0.12218983 0.114433795 0.057612136 0.076355934 -0.20296039
-0.21380551 0.026545685 0.26364094 0.07829028 0.2563342 -0.020882089 -0.21567434 0.21175747
-0.19545361 0.16338329 0.22627379 -0.050496757 0.11038286 -0.008727303 -0.047632482 0.0115318475
0.02442898 -0.28770447 0.2897363 0.032287106 -0.061847396 0.097414434 -0.20224094 -0.084519856
-0.14618829 -0.16305557 0.14839186 -0.13752863 0.1916715 0.30888164 0.13041316 0.038764052
-0.02270311 -0.23418184 -0.1248086 -0.16811338 -0.06635619 0.13461171 0.026617609 0.0066676275
-0.4691248 -0.022122793 0.12978606 0.09329526 0.079080544 0.10190372 0.08541088 -0.12812182
-0.0916604 -0.24935079 -0.17601159 0.24302432 0.15195751 0.10643259 -0.19077517 -0.06800373
-0.2456037 -0.008201073 0.16227922 -0.15159309 -0.23953508 0.23927167 0.097961284 -0.0656861
0.081579044 0.0862034 -0.2228094 -0.06125336 0.02331693 -0.1207181 -0.19526604 -0.11217807
-0.12012809 -0.24821576 0.11969077 0.09174278 0.06891168 0.077207536 0.017980227 -0.13262981
-0.008609128 -0.042859346 0.045286894 -0.029938634 -0.20151342 -0.037402596 0.14287196 -0.03305085
0.45118064 0.05396565 -0.22361422 0.13308203 0.0140135 -0.15170023 -0.15369865 -0.11675093
-0.08679163 -0.00063056184 0.014856155 -0.18406054 0.02381059 -0.14115666 0.40684143 -0.12308377
0.012980541 0.18248521 0.030841194 -0.13017331 -0.19793844 0.23186676 -0.092142895 -0.015104395
0.13396555 -0.04066047 0.013698618 -0.026353464 0.13362078 0.106075265 0.15310468 -0.22709969
-0.19952592 -0.035791848 -0.13603058 0.1737466 -0.11063219 0.16675209 -0.12540893 -0.069845356
0.16181384 0.05607371 0.0035197786 -0.1063605 0.07963893 0.2315757 -0.109520674 -0.20167415
-0.40817615 0.2068316 0.021437032 -0.2559808 0.059342034 -0.13056493 -0.13924305 0.038481273
-0.17981254 0.07701584 0.07119122 -0.15345788 0.051103845 0.19804408 -0.1894285 -0.19503066

kp1.mlp.2.bias f4 [16]
00000000: f2a3 d9bd df8a 0fbd e0ce fbbd 9afd 86be
00000010: 2601 96b9 8ca7 8ebe fffb d33d b107 5d3e
00000020: 872c 673d dd66 02be 1b85 e2bd fe0b c0be
00000030: 6f5b 873e ee58 ecbc c18b c43b 2722 33be
-0.10626973 -0.035044547 -0.12295318 -0.26365358 -0.00028611085 -0.27862203 0.10350799 0.21584965
0.05643895 -0.12734552 -0.11060544 -0.3750915 0.26436946 -0.028850999 0.0059981053 -0.17493497

kp2.mlp.0.weight f4 [32, 19]
00000000: 9a6c 163f 53a8 a73e 34c1 9ebc a1fa 01be
00000010: 715b 603e dba8 db3b 592f 543b 8e91 983c
00000020: 17f8 35be b2a0 543e 82de eebd e9e6 2ebe
00000030: 2ff4 083d a61f 44be bd5a 473e 3f3b 73be
00000040: b317 303e 96c0 713d 8cc8 033d 50c4 ffbe
00000050: 650f 253f 5374 453f 51fb 423e f8a5 6bbd
00000060: c623 073e efcb bc3d a4d4 373d 9182 2dbc
00000070: eff8 d6bd 37cf 803e a011 a5bc 7fe7 46be
00000080: a068 66be 073b 40bd 8f88 4f3e 9ad3 1dbe
00000090: becf 683e f3b2 913d bcd8 133f 343e a6be
000000a0: 8616 1c3f b126 e63d 9e43 eebd 5039 08b9
000000b0: 19aa 293d 7bf3 8abd e5c3 dcbc 2d5c 443e
000000c0: 3354 2bbe 1863 96bd 6a70 ec3d ada6 0bbe
000000d0: 3202 adbd c9d1 d6bd 695e e43c 5be9 fd3d
000000e0: d06f 243d fd56 fb3e 0b02 273f 78cf 4abe
000000f0: 6241 583d de52 bfbd 10b2 1d3e 716c 103e
00000100: 5225 a4bc 08d6 f83d 9479 f0bd d4ba 343e
00000110: 5c47 033e 8134 213e 122e 973d f79b 383e
00000120: 17fe f93d 8b04 0ebe 1e50 323e 7d4d 733d
00000130: 0dcb 2abd 32dc 0cbf 7519 123f fd45 d13c
00000140: 434d ef3c 6b0b 09be 36b1 cf3d 0796 033e
00000150: a988 70be 00c2 cbbb 85f5 f4bd e5e1 f4bd
00000160: 6537 863d 63b4 ffbc ea00 1f3d 8914 48bd
00000170: 69f7 5fbe bcda afbd 2620 bdbd a687 66be
00000180: 9727 e83e a977 b5be 2761 413e 4e17 23bc
00000190: 6ef7 b7bd 428c 023e 8430 4f3e b6db 483e
000001a0: ccf3 303e 3de4 313d e66a a73c a957 a4bd
000001b0: 2cf2 593d be2d 4ebd c974 053e e233 36bd
000001c0: e64f 36be 54f1 f13d 47b3 003f f49e 1fbf
000001d0: 91d8 973e 4642 793d 0936 51be 50ea d33d
000001e0: 7b4a 3a3e 1174 b4bd 65f9 153e 9a0d 003e
000001f0: 3410 d4bd f91f 0e3e c68b 443e ff83 9fbd
00000200: 47d9 28bd 429b 773d 3365 a73c f27c 3c3e
00000210: a608 a73d 2d8c b7bd 6984 06be bbb2 7b3d
00000220: 4266 f4bd 485a 56be f9b5 f83d c68f 163d
00000230: 13c3 bdbd f1cb 7a3c c96b 13be b50c 90bd
00000240: f9a2 95bc ea96 2bbe 6552 143e ea6a 38bd
00000250: ea38 04be faaa 1bbe 84e7 09bc 787c 373e
00000260: 0fe3 0ebf abf7 1fbf 594d 2c3f cb79 9cbd
00000270: addd 3b3d bc09 393e e65a 8ebd 032d cb3d
00000280: 88c0 de3d d5e6 253e b5a7 cdbd 01b2 643d
00000290: 3232 b8be bfe2 193e 9850 93be bee6 a53d
000002a0: 02c3 483e 2c38 08be 9f75 f1bd 954c 12bf
000002b0: 0c48 07bf c718 a53e 0a9a 0f3b 8176 6abd
000002c0: 7a28 32be a56f 943c 59b8 d0bd ffb8 c63d
000002d0: a202 1c3e 68a7 72bd eae6 c63c 3e55 43bc
000002e0: 6634 87bd 71ac 34be 40b2 193d 4451 02be
000002f0: 6fae 913d 9015 28be de25 a9be 524c 02bf
00000300: d5ba 4dbe cc5b dd3d 04f9 23be c3b8 953d
00000310: a4b2 fabd 411d 553e 9e04 493e 954d 013e
00000320: 1246 36bd ff72 a2bd dc28 38bd 0500 8f3d
00000330: 888e 353e e705 813e 74f3 1d3e 53de 9bbc
00000340: 6f96 36be c48b 04bf aa4b d53e 7145 533f
00000350: 33d4 873e 9586 f73d f6b3 a1ba fd20 f63c
00000360: 9928 1f3e de4b 523e d39a 4d3e f946 643d
00000370: 924a 5f3e 9711 c53d c3c5 f23d d90e 3e3c
00000380: 78bf 903e e250 00bd 82b1 a0bd 39b9 1fbd
00000390: 9638 b7be ce96 e3be 4eae 2e3e dd43 d6bc
000003a0: f310 efbb 0ff5 cdbd 1543 e4bd f53c 8dbd
000003b0: 30e0 54be 4eb2 143e 1994 3a3e 50bb 13be
000003c0: 1dbd b5bd 5bde c5bd 4511 eb3d 590c 233e
000003d0: cde6 6cbd 1ee6 023e e3b1 eabd 84bc 033d
000003e0: c168 933c 5489 9cbf bd6f 673d def2 8ebd
000003f0: 8e64 773d 85e8 073e 2469 ee3d b49e 583d
0.5875946 0.3274561 -0.019379236 -0.12693264 0.21909882 0.0067034787 0.0032376854 0.018624093
-0.1777042 0.20764425 -0.11663534 -0.17080273 0.033435997 -0.19152698 0.19468208 -0.2375307
0.1719654 0.059021555 0.03217368 -0.49954462 0.64476615 0.7713062 0.19041182 -0.057531327
0.1319724 0.09218585 0.044880524 -0.0105902115 -0.10496699 0.25158092 -0.020150006 -0.19424246
-0.22500849 -0.046931293 0.20266937 -0.15412751 0.22735497 0.0711421 0.57752585 -0.32469332
0.6097187 0.112378486 -0.11633991 -0.00012991321 0.041421983 -0.067847215 -0.026948879 0.19175787
-0.16731338 -0.073431194 0.11544879 -0.136378 -0.08447684 -0.10489232 0.02787705 0.12398025
0.040145695 0.49089804 0.6523749 -0.19805706 0.05279673 -0.093419775 0.15399957 0.14103867
-0.020037327 0.12150198 -0.11741939 0.17649394 0.1282019 0.15742685 0.07381834 0.18028246
0.12206667 -0.1386892 0.17413375 0.05940007 -0.04169755 -0.5502349 0.57070094 0.025546068
0.029211646 -0.13383262 0.10141222 0.128502 -0.23489632 -0.006218195 -0.11960892 -0.119571485
0.065535344 -0.031213945 0.03881923 -0.04884771 -0.21871723 -0.08586642 -0.092346475 -0.22512683
0.45342705 -0.35442856 0.18884717 -0.009954287 -0.0898274 0.12748817 0.20233351 0.19615063
0.17280501 0.043430556 0.020436715 -0.08024532 0.05320947 -0.050336592 0.13032831 -0.044483073
-0.17803916 0.11813608 0.50273556 -0.6235192 0.29657415 0.06085422 -0.20430769 0.10347426
0.18192475 -0.088112004 0.14645918 0.12505189 -0.10354653 0.13879384 0.19193944 -0.07788848
-0.041222837 0.0604508 0.020433998 0.18407038 0.081559464 -0.08962283 -0.13136448 0.061449748
-0.11933567 -0.20932877 0.121440835 0.036758207 -0.09265723 0.0153074125 -0.14396586 -0.07033674
-0.018266188 -0.16756788 0.14484556 -0.045023836 -0.12912336 -0.15201941 -0.008417014 0.17918575
-0.55815214 -0.62487286 0.67305523 -0.07640418 0.045865703 0.1807012 -0.06950931 0.09920695
0.10876566 0.16201337 -0.10041753 0.05583382 -0.35975796 0.15027903 -0.28772426 0.08100651
0.1960564 -0.13302678 -0.117900126 -0.57148105 -0.5284431 0.32245466 0.0021911883 -0.05724192
-0.17398253 0.018119643 -0.101914115 0.09703254 0.1523538 -0.059241682 0.02428003 -0.011922179
-0.06601791 -0.17643906 0.037523508 -0.12726313 0.07113349 -0.16414475 -0.33036703 -0.50897706
-0.20090802 0.108085245 -0.1601296 0.07310631 -0.12241104 0.2081194 0.19630668 0.12627251
-0.044500418 -0.0793209 -0.04496084 0.069824256 0.17730153 0.25199816 0.15424901 -0.01902691
-0.17830823 -0.51775765 0.4165929 0.82527834 0.26529083 0.12086216 -0.0012336958 0.030045027
0.1554283 0.20536754 0.20078592 0.055731747 0.2180579 0.096224956 0.11854126 0.01160022
0.2827108 -0.031327136 -0.07846357 -0.038995 -0.3578536 -0.44450992 0.1705868 -0.026155407
-0.0072957217 -0.10056507 -0.111456074 -0.06896392 -0.20788646 0.14521143 0.18220557 -0.14426923
-0.08873961 -0.096615516 0.11477903 0.15922679 -0.057837296 0.12783095 -0.114597104 0.032162204
0.017994286 -1.2229409 0.056503046 -0.06979917 0.06039863 0.13272293 0.11641148 0.052885726

kp2.mlp.0.bias f4 [32]
00000000: 386f f43d 3379 923e 09c2 04be ebd8 8f3d
00000010: 232b 593e c2ac 49bd 89b6 ce3a 2364 b3bd
00000020: c210 9f3e 60da 103e bdff 14be d0cf c6bd
00000030: fd5d c6bd 5754 a9bd 4d19 a83e b3d2 0f3e
00000040: 6114 703e 0912 2cbc 7415 443d 804d 993e
00000050: 75b0 653e d1d5 b8bd fab0 aabd cdf0 c73d
00000060: 5eb5 55bd 8baa 1cbe 51c1 403c 94bd 83be
00000070: b903 72be 806e 333e bd45 103d 6c52 293e
0.11935276 0.28608093 -0.12964644 0.07023796 0.21207862 -0.04923702 0.0015770952 -0.08759334
0.31067473 0.14145803 -0.14550681 -0.09707606 -0.096858956 -0.0826804 0.32831803 0.14045219
0.23445274 -0.010502347 0.04787202 0.2994194 0.22430594 -0.09025157 -0.08334537 0.09762726
-0.05217492 -0.15299432 0.01176484 -0.25730574 -0.23634233 0.17522621 0.035222758 0.16535348

kp2.mlp.2.weight f4 [32, 32]
00000000: cad9 493d 8908 ab3d 6a5a 333e 5957 ad3e
00000010: c36d d3bd 0848 893e ed96 fbbd 5c10 263d
00000020: 04b3 17be 9fb9 edbd 1125 843d d074 a03e
00000030: 9dfa e5bc b971 a8bd b75b 79be 7131 48bd
00000040: 8fb8 f63d 7a26 633d db51 2bbe 51bf c3bd
00000050: 6841 bc3d ebc3 b3bd 0173 97bd 4591 233e
00000060: 4ac1 513c 3cbc 9e3d 4fa4 a63e 9ae3 dcbc
00000070: 4fe9 f0bd 575a e13d 0149 9a3d 6b69 233d
00000080: cb57 0d3e f0ba 38be b60d e8bd 2328 d33e
00000090: 21b4 13be a7ef 273e 07ca 16bd fcdd 1e3e
000000a0: 3f97 cdbd 29e1 6bbe b0c3 4c3d 939c 96bc
000000b0: 47e6 fabd 04b3 373f 4e44 3cbe 1978 9ebd
000000c0: 2ad4 fbbd 8ee0 5b3d 4aa0 a0bd e149 95bd
000000d0: 5f7b e33d ee6a 683d 2d7e d83d 8540 3fbe
000000e0: 7deb 073d 4ad9 413e 83c6 293e 83d9 053e
000000f0: 7615 423e 6036 5bbc 742a 73bd 5782 24be
00000100: 7706 f8bb eb7c 943d 4693 3cbd 913e 95bd
00000110: 1684 d0bd 17b4 cfbd e064 aebd 7cfe 1e3e
00000120: 91dd 38bd 53fa 853d 80f2 a63d 4957 07be
00000130: fcf4 09bd 133c 363f 0112 043e 5f7f 623d
00000140: 0f3a ddbd 2c52 f73d 03b4 9bbd a065 a83c
00000150: 948b 3cbe cf70 293e 3511 ff3d 3a5c 45be
00000160: 8ad6 09be fa36 d9bc 9669 c0bd 0025 143e
00000170: 1dbf 03be 67db 0e3c 09a2 5a3c 61a0 273e
00000180: 69db e83c 8604 1dbc b8fa 7e3e 37ef bc3e
00000190: 82e5 143e 7582 e93d 54eb 823e 11cf f3bd
000001a0: bc74 87bc d299 92bd 5a2c 85bd 951e 1cbd
000001b0: 59d8 3bbe 9967 01bf 5941 933e 4b75 18be
000001c0: b1b3 173c 0bb6 c2bd 69ec 303e 83cd 2b3e
000001d0: c89a dbbd 452e c53d f9d7 c7be b4b7 ed3d
000001e0: a785 8fbd 9f7a 573d 2322 ca3e 093e 363e
000001f0: 876b eabd 3717 0a3e 8161 3abe 51f0 533e
00000200: 3a47 bbbd 266d 1cbe 2371 833c daac 9a3e
00000210: 24a2 62be e9ab bf3d 4471 f73e 80f8 243e
00000220: 39a8 1ebe bb8d 183c b02e 143a 4d99 bb3d
00000230: c872 2c3e cdae 10bd 112f 7dbd 18a5 f23d
00000240: 1f4e 5fbc ea6b 073e e3d5 e93d 00a8 3a3e
00000250: d506 26be dc0c 13be 27ff 483e 0419 e03b
00000260: 2ca7 91bd 50f7 32be c3a5 d43e 09bf 2c3e
00000270: 8025 bc3d 89a0 bfbd 4302 49be f6c8 ed3d
00000280: 3474 e73c 1d29 d6bc 8ce6 3fbe d671 df3d
00000290: ef67 73bd e357 40bd 14ab 4dbe 32b3 dfbd
000002a0: 48ba 763c 6aee a33b 8fc6 ed3d f78d a7be
000002b0: 2d12 6d3d 34df f93e f103 9bbd 186a 27be
000002c0: b26c 18be 03c0 893e f5be 4c3b 0adc 25bc
000002d0: 5c18 15bc dae5 d8bd dc5b 963d 901f 02bd
000002e0: 53f2 023e dd27 a63c 752e 2d3e b39c 00be
000002f0: 19de 7abd bff2 0dbe 523a 2f3e 02d8 103e
00000300: 4d9b cc3d dc98 233d c6dc 963e f901 303e
00000310: 1c63 f33d 6134 9ebc d0f8 823e 94fc 0f3e
00000320: a1da 56bd c0d8 1b3b ab35 f73d 2bcd 803e
00000330: 1304 9a3d 16cf 03bf dc61 703e 9b12 183e
00000340: 9cac 983a 3f2c 3abe b40a 3b3d 4b0b fa3d
00000350: ef97 9e3d a29e dabd a8dd 23be ad6d 02bd
00000360: 3b85 473c f889 233c 6f26 e43d 10a1 adbc
00000370: ea52 4a3d 7aef 593e 4d9f f6bd 4e10 293e
00000380: bdec 603e 6429 11bd 46eb 683e 567d 0b3d
00000390: e7d5 b1ba 8359 34be 42df a43e dbf7 63bd
000003a0: e492 c33d 19d1 61bd 197f 0e3e fb7f 4ebe
000003b0: c080 943d 13d4 1abd aa0f 0fbd 6805 2d3e
000003c0: 7fc4 233e 55c7 593e 2660 6e3e a8f2 afbd
000003d0: 4c24 013e 79fe b9bd 0688 8a3d ee12 e93d
000003e0: 41dd 133e 73c6 acbd 4b33 2d3e 4f0c ed3d
000003f0: 53b5 a13c 294d 2dbe dc93 41be 9278 6c3e
0.049279965 0.08351237 0.17514959 0.33855703 -0.1032367 0.26812768 -0.12284646 0.040542945
-0.14814383 -0.1160767 0.06452382 0.3133912 -0.028073603 -0.08224816 -0.24351393 -0.048875276
0.120469205 0.055456616 -0.16730444 -0.09557975 0.09192163 -0.08777603 -0.07394982 0.15973385
0.012802431 0.077507466 0.32547233 -0.026963998 -0.1176325 0.11003559 0.07533456 0.039895456
0.13803022 -0.18040061 -0.1133074 0.4124156 -0.14424182 0.16400014 -0.036813762 0.15514368
-0.100386135 -0.2303511 0.04999131 -0.018385207 -0.12250953 0.7175753 -0.18385431 -0.077377506
-0.122963265 0.05368095 -0.07843073 -0.07289482 0.111075155 0.0567426 0.10570941 -0.18676956
0.033183564 0.18930545 0.16579632 0.13071255 0.18953499 -0.013379663 -0.05936666 -0.16065346
-0.00756913 0.07250389 -0.04603889 -0.07287324 -0.101814434 -0.10141771 -0.08515334 0.15526766
-0.045133177 0.06541886 0.08151722 -0.1321689 -0.0336809 0.71185416 0.12897493 0.05529725
-0.108020894 0.1207622 -0.07602694 0.020556271 -0.1841262 0.1654694 0.12454454 -0.19273463
-0.13460746 -0.026515473 -0.09395139 0.1446724 -0.12865873 0.008719302 0.013344296 0.16369773
0.028424935 -0.009583598 0.24900329 0.36901256 0.14540675 0.11401836 0.25570166 -0.11904729
-0.016535155 -0.07158245 -0.065026 -0.038115103 -0.18344249 -0.505487 0.28760794 -0.14888494
0.00925915 -0.09507378 0.17277683 0.16777615 -0.107228816 0.09627966 -0.39031962 0.11607304
-0.07007914 0.052607175 0.3947917 0.17797102 -0.114462905 0.13485418 -0.18201257 0.20697142
-0.09144445 -0.15276012 0.016045159 0.3021 -0.22132164 0.09358961 0.48328602 0.1611042
-0.1549386 0.009311135 0.0005652709 0.09160099 0.1684066 -0.035322953 -0.061812464 0.118478954
-0.013629465 0.1322476 0.11417749 0.1822815 -0.16213544 -0.14360374 0.19628583 0.0068389196
-0.07111964 -0.17477155 0.41532716 0.16869749 0.0918684 -0.093567915 -0.19629769 0.11610596
0.028253652 -0.026142651 -0.1874029 0.10910384 -0.05942529 -0.046958815 -0.20084792 -0.10922851
0.015059061 0.0050027864 0.11610138 -0.32725498 0.057878662 0.48803103 -0.07569111 -0.16349065
-0.14885214 0.26904306 0.003124175 -0.010123262 -0.009100046 -0.10590716 0.073417395 -0.03176838
0.12787752 0.02028268 0.16912253 -0.12559776 -0.061246965 -0.13862132 0.17112091 0.141449
0.09990559 0.0399407 0.29465312 0.17188253 0.11884138 -0.019312086 0.25580454 0.14061195
-0.052454595 0.0023780316 0.12070783 0.2515653 0.07520308 -0.51487863 0.2347483 0.14850847
0.0011648121 -0.18180941 0.045664504 0.12209185 0.07743823 -0.10674788 -0.16002524 -0.031842876
0.012177761 0.009981625 0.11140143 -0.021194965 0.04939548 0.2128276 -0.12042103 0.16510126
0.21965308 -0.035439864 0.22746 0.034055077 -0.0013567776 -0.17612271 0.32201582 -0.055656295
0.095495015 -0.05513105 0.13915671 -0.20166008 0.072511196 -0.037799906 -0.034927048 0.16896594
0.15992926 0.21267445 0.23278865 -0.08591205 0.12611502 -0.0908174 0.06764226 0.11380564
0.1443987 -0.08436289 0.16914098 0.11574613 0.019739782 -0.16923966 -0.1890406 0.23092869

kp2.mlp.2.bias f4 [32]
00000000: 53ff e8bd fec4 7c3d dd0a c53c 33a0 b93d
00000010: 55bc 3abd aeb9 dfbd a3d4 d83d 31a3 13bd
00000020: 21fd 85bc b104 d8bb 058d b63c 7726 29be
00000030: 2522 8e3d 0aba 34be 9aa1 ab3d 4294 543d
00000040: af76 e03d 6a38 46be 73f3 86be 1ec8 753d
00000050: 9e39 33be 0d58 dcbc da25 fbbc 2777 8dbe
00000060: 4748 f93c e569 1dbe 10b7 813c ebd1 cd3b
00000070: f653 8b3c 47ff c3bd 660f 8f3d a0c2 eabc
-0.11376824 0.061711304 0.024053032 0.09063759 -0.045589764 -0.109240875 0.10587432 -0.036044303
-0.016356053 -0.006592356 0.02228404 -0.1651858 0.06940106 -0.17649093 0.083804324 0.051899202
0.10960137 -0.19357458 -0.26357612 0.0600053 -0.17502448 -0.026897455 -0.030657697 -0.2762997
0.030429972 -0.15372427 0.015834361 0.0062811277 0.01700781 -0.09570175 0.06985359 -0.028657258

head.0.weight f4 [32, 32]
00000000: 8158 f6bc 8637 49be 69ff 263d adad 893e
00000010: 0584 573e 7ffc e93d 12fb 163e 0c29 f1bd
00000020: a2ab b83e f1b8 af3e 6f0b 8abb ea33 3f3e
00000030: 17b8 dc3d f2c0 713e d47a d3bd 8cc2 243c
00000040: 2f19 6d3d 8dcc 3bbe ba49 453e eaaa 253e
00000050: 7381 c63d 48ee dabc d798 043e 3b1b 13be
00000060: c510 4b3d 69ff 6b3e 2402 703e 3b5c 1b3e
00000070: a73e 833e 7fac 6b3e fb15 32be b1f6 043e
00000080: 8afb 533e c13a b13d b66a 3b3e 6e64 063e
00000090: 99ce 983e e96a 9a3c 6c14 9b3c d03b cebc
000000a0: ba58 8d3e 3036 0b3e e957 fabd ea7c 593e
000000b0: 9279 43be 65e9 8fbb ac40 5abe 81cb b43b
000000c0: 8060 0b3e d0c7 2dbe c2f8 073e 9b16 453e
000000d0: 0c8f 993d 0380 d8bd 4b5e 1cbe 5df8 28be
000000e0: d7bb 03be c6db 693d fac2 83bc 388f 623e
000000f0: c76f 613e 5a7f 233e 9f0a 1dbe a02c 813e
00000100: df50 87be f849 73be c3b4 e63d e6ea 8d3b
00000110: 1b9a 97be 4013 b63d 5c78 583e b2a0 7dbc
00000120: 5af2 9dbe 2185 78be 640e 70be 1617 10be
00000130: a24c 913e 3646 adbd 9c03 0c3d 8506 dabd
00000140: 9567 00be f627 843d 8f0e 9fbe c1d9 60be
00000150: be09 803d 9ac7 07be 40cc 2abd 6152 f9bd
00000160: 948a 763e c747 19be da77 a53d a6fe 06be
00000170: 1d0b 103e 61b7 e7bd c007 e43d 8aa2 80be
00000180: 4d89 3bbd f2ad 893e fab9 9c3e f184 7bbd
00000190: e3ba adbc 1d90 0e3f 42cd a4bb d9ec 0e3c
000001a0: 4b57 cebd 9f85 dbbc f212 80be 6e98 c4bd
000001b0: 239c 313e ab54 f4bd b671 563d 2f23 8f3e
000001c0: acf5 c0bd b9b1 393f a636 4d3e 49eb 6abd
000001d0: 517b 3a3f f66d 03be 33a9 ab3e f1bb 123f
000001e0: ae12 683e 4089 2abe 2a30 80bc 663a b63d
000001f0: 465b 60bd db30 373e f003 033f 1d39 f0bd
00000200: b020 463e bd5c 04bc bf33 3cbe 786e 313e
00000210: 5a38 573e d601 e5bd 92e6 9dbd 3fb1 243e
00000220: 416b 9b3e 4242 933e 04e8 773e 358f 833e
00000230: 1ad7 66bd b79e 183e d799 4ebe 960c f9bd
00000240: a9b9 7e3e 2ccc c1bd f600 a53e b782 f0bc
00000250: 4551 e9bd b28a a23d 3ef4 dfbd cec8 0ebe
00000260: 2694 eaba 44c7 2d3e 73e9 463e e749 3fbd
00000270: 968e 363e ed21 713e c73e c23d 75df 973d
00000280: f7ac 41bd 8fe3 febd 7673 f03c 2638 5d3e
00000290: b1ba 193e 3b98 a2bb e943 303e 0d10 ae3c
000002a0: de09 973e 5162 8e3e cc3c 3a3e a295 553d
000002b0: 5907 d63d 96b2 4c3e 6309 f5bd 6c58 90bd
000002c0: 5a23 52bc d55a 7bbd 3eb1 153e b495 0b3e
000002d0: 1f5a 24bc fd0c 28bd c7f4 08be 1bdf 23be
000002e0: d16d b7bc f85a ae3d 01b3 493e d05d 2e3e
000002f0: ebbf 67bd 9862 01bd df3e fcbd b88c be3d
00000300: e2ae 263e 984d 2abe b98f 20be e7cc debd
00000310: 01ed 1e3e a2ac 13be 8302 223e c6ef d63a
00000320: dcde 863e 04af 3d3e 3a30 783e 0b97 d43d
00000330: 633c d8bd 26a3 253e 8393 c63d 7227 20be
00000340: 611b 443e 3b0a d7bd 5c23 0bbc 10ac 133e
00000350: 2091 fb3d 74a0 c3bc c968 27be 29af 19be
00000360: 88a4 1bbd c7d4 0b3e c8ed 073e d9c7 f43d
00000370: ae12 f83d 4a69 ca3d 565c 53be 6f47 843e
00000380: 3ba0 56be e174 8bbe 47a8 2c3d 7683 b53d
00000390: dc86 81be c306 73bc 6193 a93e 8e71 08be
000003a0: b290 8cbe c977 07bd 544e 21be 80ec 66be
000003b0: e76c 153e e90b 25be 2d74 593e 22e8 89bd
000003c0: 0df1 1e3e 5c8e a1be e33e 15bf 651f 42bd
000003d0: 2e66 b0bc 1022 20bd abc5 8bbe e464 9fbe
000003e0: 748e 4d3c 8920 8fbe cd09 5dbd a2e9 44bd
000003f0: 7227 e53d 4e98 f3bb 5a1a 86bd 2a43 27be
-0.030071499 -0.19650087 0.04077092 0.26890317 0.21046455 0.11425113 0.14744213 -0.11775407
0.36068445 0.34320787 -0.004212789 0.18672147 0.107773 0.23608759 -0.10326162 0.010056149
0.057885345 -0.18339749 0.19266406 0.1617848 0.09692659 -0.02672495 0.12948929 -0.14365856
0.04957654 0.2304665 0.23438317 0.15171902 0.25633737 0.23015021 -0.17391197 0.1298473
0.20701423 0.086537845 0.18302426 0.13124248 0.29845122 0.018849807 0.018930636 -0.025175005
0.27606755 0.1359489 -0.12223799 0.21239057 -0.19089344 -0.0043918365 -0.21313733 0.0055174236
0.1361103 -0.16970754 0.13278487 0.19246905 0.07497987 -0.10571291 -0.15270345 -0.16500993
-0.12864624 0.057094358 -0.016084183 0.22124946 0.22015296 0.1596655 -0.15336083 0.2522936
-0.26428887 -0.23758686 0.11264946 0.0043309806 -0.2960976 0.088903904 0.21139663 -0.015480207
-0.30848962 -0.24269535 -0.2344299 -0.14071307 0.2837878 -0.08460657 0.03418313 -0.10645775
-0.12539513 0.064529344 -0.31065795 -0.21958067 0.06251858 -0.13259736 -0.041698694 -0.12173916
0.24076301 -0.14968787 0.080795005 -0.13183078 0.1406674 -0.113142736 0.11134291 -0.25124007
-0.045785237 0.26890522 0.3061064 -0.06140608 -0.021207279 0.5568865 -0.0050293515 0.008723461
-0.100752436 -0.026797114 -0.25014454 -0.09599386 0.17344718 -0.11930212 0.052354537 0.2795653
-0.09421858 0.7253681 0.20040378 -0.05735329 0.72844416 -0.12834916 0.33527526 0.57318026
0.22663376 -0.16653919 -0.015647966 0.08897857 -0.054774545 0.1788973 0.51177883 -0.117296435
0.19348407 -0.008078751 -0.18379115 0.17327297 0.2101759 -0.11181991 -0.077099934 0.16083239
0.30355266 0.28761488 0.242096 0.25695196 -0.05635748 0.14904295 -0.20175873 -0.12160604
0.24875511 -0.09462771 0.32227296 -0.029359205 -0.11392454 0.0793661 -0.109352574 -0.13943788
-0.0017896935 0.16970545 0.19424991 -0.04670134 0.1782783 0.23548098 0.0948463 0.07415668
-0.047284093 -0.12445747 0.029351931 0.2160345 0.15012623 -0.004961995 0.17213406 0.021247888
0.29499716 0.27809384 0.18187255 0.052144654 0.1045062 0.1999 -0.11964681 -0.07048115
-0.012825811 -0.06136592 0.14618394 0.13631326 -0.010031252 -0.04102801 -0.13374625 -0.16003077
-0.022391232 0.08513445 0.19697191 0.17027974 -0.05657951 -0.031588167 -0.12316679 0.09304184
0.1627765 -0.16631162 -0.15679826 -0.10878926 0.15520097 -0.14421323 0.1582127 0.0016398362
0.26341903 0.18523794 0.24237147 0.10380372 -0.10558393 0.16175517 0.096961044 -0.15640047
0.19151069 -0.10499998 -0.008492317 0.14421105 0.1228354 -0.023880221 -0.16348566 -0.15008225
-0.037998706 0.13655387 0.132743 0.119521804 0.12112938 0.098833635 -0.20640692 0.2583575
-0.2095956 -0.2723761 0.04215267 0.08862965 -0.25298202 -0.014833155 0.33120254 -0.13324568
-0.27454144 -0.03307322 -0.15752536 -0.22551155 0.14592324 -0.16117825 0.21235724 -0.06733729
0.15521641 -0.31553924 -0.5829908 -0.04739322 -0.021533098 -0.039094985 -0.27299246 -0.3113166
0.0125461705 -0.2795451 -0.053964425 -0.048074372 0.11189164 -0.0074339276 -0.06547995 -0.16334215

head.0.bias f4 [32]
00000000: b38c edbd 9ba5 0ebe 771a 313d f696 24bd
00000010: 018e 91bc 8021 69bc 6ec3 063e 25c7 aa3e
00000020: 19a8 a43a 7574 3abd f015 8c3c 7826 a9bd
00000030: edfa 343d 4ce5 b33d 256c ae3e 4de8 983e
00000040: 23ae 8e3e 8f11 e4bd 464f 4b3d 6317 b4bc
00000050: f4b5 6f3e 4288 113e 7ca2 46be bd14 ecb7
00000060: ffa7 153e 4c19 27bd b53a 05bc 1832 893e
00000070: 25a5 823d 2b8f 993e b8ba 33bd 35fd 0e3e
-0.11599102 -0.13930361 0.04323813 -0.04018303 -0.017767908 -0.014229178 0.13160488 0.3335506
0.0012562304 -0.04552122 0.017100304 -0.082592905 0.044184614 0.08783969 0.34066883 0.2986473
0.2786723 -0.111361615 0.049636148 -0.021983808 0.23409253 0.14212134 -0.1939792 -2.814305e-05
0.14614867 -0.04079561 -0.008131673 0.2679603 0.06379155 0.2999204 -0.04387924 0.13963778

head.2.weight f4 [3, 32]
00000000: 0221 9e3e 8005 293e 36ae 9bbe ae69 103e
00000010: 7b48 833e dffb bf3d 29c1 513e 40b2 a9bd
00000020: 5756 043e 5974 6e3e a6fa 5c3e 9a58 833e
00000030: 41b2 a1bd 865f d8bd 54cc babc a162 a9be
00000040: bfce 85bd 3db1 373e 4cfd 8cbb d3b2 b93d
00000050: 2293 c7be 7ab0 ee3d f9da f8bd b33c f3bd
00000060: e2ba fd3d 50c5 dabc d2d9 2e3e 8907 80be
00000070: 767b 5f3e 65e5 b73d cd37 f8bd af1d 28be
00000080: 31d2 213e 4900 9e3e 7db0 59be b13b 03bf
00000090: 60da 863e d46c c7bd 8504 f1bd 21c6 e6be
000000a0: 867e d7bc 9a44 943e 7d88 f53d b2f2 743d
000000b0: 366a 333d 1394 d9be 61e8 f4be acbf b1be
000000c0: 9325 f6be 39d1 09be d969 18bb 2506 0bbe
000000d0: b8a3 b9bd 8c54 ad3e 5d62 8fbc 598a 9c3c
000000e0: c047 39bc cf6b d43d 482b 06bf 61c5 933e
000000f0: b74f 003e b55e ebbe 169b 303d 445c 9e3d
00000100: 8052 0abd 8921 8bbe b0fe 843e 6e0a 413e
00000110: 3080 60be c144 35be 3a75 3fbe c28a 893e
00000120: baec 03be 6bb8 ccbd d269 99be 68b7 00be
00000130: 449e b6bd 7abe 15bd cf5c 6c3e 9674 583e
00000140: 0f40 bc3d 4e1e 9b3c 953f 3b3d 2221 52be
00000150: 1d61 0e3e d91a 9ebe 85a1 bdbb 7fde 5ebd
00000160: 3f61 783c 7014 4ebc 76aa 3a3e 28bb c03e
00000170: 8216 8dbe 39f1 353e d17c f2bd 7532 723e
0.30884558 0.16506004 -0.3040635 0.14102814 0.25641236 0.093742125 0.20483841 -0.082859516
0.12923561 0.2328657 0.2157999 0.25653535 -0.07895327 -0.10565095 -0.02280251 -0.3308306
-0.06533574 0.17938705 -0.0043026563 0.09067311 -0.3897944 0.11654754 -0.12151141 -0.11876812
0.12389161 -0.026705414 0.1707528 -0.2500575 0.2182444 0.089793004 -0.12120018 -0.16417573
0.15802838 0.30859593 -0.21258731 -0.51262957 0.26338482 -0.09737554 -0.1176844 -0.45073035
-0.026305448 0.2895859 0.11988924 0.059801765 0.043802463 -0.42495784 -0.4783354 -0.34716547
-0.48075542 -0.13458718 -0.002325645 -0.13576563 -0.0906443 0.33853567 -0.017502958 0.019108938
-0.01130861 0.10372125 -0.5240979 0.28861526 0.12530409 -0.45970693 0.04311665 0.07732442
-0.033770084 -0.27174023 0.2597556 0.18851635 -0.219239 -0.17702009 -0.18697062 0.26863676
-0.12883273 -0.099961124 -0.29963547 -0.12569964 -0.089169055 -0.036558606 0.23082279 0.21138224
0.09191906 0.018935349 0.045714933 -0.20520452 0.13904233 -0.30879858 -0.005787077 -0.054411408
0.015159904 -0.012578115 0.18229088 0.3764279 -0.27556235 0.177678 -0.11840213 0.2365206

head.2.bias f4 [3]
00000000: 0c4e fcbd 7cc1 893c cb03 6d3e
-0.12319574 0.016815893 0.23145978
