checkpoints/epoch_006.pth (torch, 18849 bytes, 14 tensors)

fc0.weight f4 [8, 3]
0	0x3e7dd17e	0.24786946
1	0x3e269450	0.16267514
2	0x3c98b649	0.018641608
3	0x3ec3307e	0.38122934
4	0xbe5162ed	-0.20447893
5	0xbda3e13b	-0.08001944
6	0xbecdbb5e	-0.40182012
7	0x3f035869	0.5130678
8	0xbe387c54	-0.18016177
9	0xbc16c3df	-0.009201973
10	0xbee8e504	-0.45487225
11	0xbcd11a98	-0.025525376
12	0xbead8b26	-0.33895224
13	0x3ec5527a	0.38539487
14	0xbf02fa1a	-0.51162875
15	0xbdf2ba80	-0.11851978
16	0xbe2731a9	-0.16327538
17	0x3ef28134	0.473642
18	0x3eb66b54	0.3562876
19	0xbf0dc82b	-0.5538356
20	0x3efabf68	0.48974156
21	0xbe0fd4eb	-0.14046066
22	0xbead84d5	-0.33890405
23	0xbdeda486	-0.11603646

fc0.bias f4 [8]
0	0xbc59d79e	-0.013296036
1	0xbf09ef4b	-0.5388076
2	0xbf274bd4	-0.6535008
3	0xbe61fadc	-0.22068352
4	0xbefc4e1c	-0.49278343
5	0xbe2f9709	-0.17147459
6	0xbf0a191c	-0.53944564
7	0xbebfc0e3	-0.37451848

kp1.mlp.0.weight f4 [16, 11]
0	0x3f379960	0.71718407
1	0x3eeb685e	0.45978063
2	0x3d5041e6	0.050844096
3	0x3cd6aa7f	0.026204346
4	0xbe4dbabe	-0.20090768
5	0xbcabc088	-0.02096583
6	0xbe6bb034	-0.23016435
7	0x3ca75547	0.020426406
8	0x3d068c71	0.03284878
9	0x3e80a800	0.25128174
10	0x3d286e10	0.04112059
11	0xbf06a9cc	-0.5260284
12	0x3e9d7c9b	0.3075913
13	0x3e5a4b71	0.21317841
14	0x3dad5a36	0.08464472
15	0xbea1b49a	-0.315831
16	0xbc8984e4	-0.016787
17	0x3e1ba37a	0.1519908
18	0xbbd28531	-0.006424569
19	0x3c5f9323	0.01364592
20	0xbca3d318	-0.019998118
21	0x3de532ad	0.11191306
22	0xbef6eace	-0.48226017
23	0xbf2964eb	-0.66169614
24	0xbdbef9a4	-0.09324959
25	0x3e2cc5c0	0.1687231
26	0xbe841d77	-0.2580373
27	0x3e0d10b7	0.13775907
28	0x3e6d72cc	0.23188323
29	0xbe1631b1	-0.14667393
30	0x3cd5e5d8	0.026110575
31	0xbe4636d9	-0.1935686
32	0x3e887545	0.2665197
33	0x3ef8fd8b	0.48630938
34	0xbf28cee7	-0.6594071
35	0xbe1f579f	-0.15560769
36	0x3e45fd56	0.19334921
37	0x3e4540f5	0.1926306
38	0x3dbf7536	0.09348528
39	0xbe7ade71	-0.24498917
40	0xbc279212	-0.010227697
41	0x3d47f021	0.04881299
42	0x3c38bb3c	0.011275109
43	0x3e85da46	0.26143092
44	0xbf43151b	-0.7620408
45	0xbed56d1b	-0.41684803
46	0xbe9ee44f	-0.3103356
47	0xbe38d16c	-0.18048638
48	0x3e421ebc	0.18957037
49	0xbdfa7a10	-0.12230313
50	0x3d9c8c12	0.07643904
51	0x3e51e839	0.20498742
52	0x3cc411d0	0.023934275
53	0xbd9bed7c	-0.07613656
54	0x3e841172	0.2579456
55	0xbf059e2e	-0.5219449
56	0xbf18693d	-0.5953558
57	0x3e952c68	0.29135442
58	0xbe718fc5	-0.2359
59	0x3e09c740	0.13454914
60	0xbd5be5c8	-0.053685933
61	0xbdd0ad3f	-0.10189294
62	0x3e7db5bd	0.24776359
63	0x3e8a257e	0.2698173
64	0x3e38aaea	0.18033949
65	0xbde0b2fa	-0.10971637
66	0xbecdc879	-0.4019201
67	0x3ee372df	0.44423577
68	0x3db135d2	0.086528435
69	0x3e6dd421	0.23225452
70	0x3e099091	0.13434054
71	0xbdb15d69	-0.08660395
72	0xbd3eec6d	-0.046612192
73	0x3e183165	0.14862593
74	0x3e74c02e	0.23901436
75	0xbe800e3e	-0.25010866
76	0xbd02152c	-0.031758472
77	0x3d4695a7	0.048482563
78	0x3d244e4d	0.040113736
79	0xbe883320	-0.26601505
80	0x3d3dc6cf	0.046332177
81	0xbd76cda2	-0.0602547
82	0xbe29a79b	-0.16567843
83	0xbdd7e2ad	-0.10541282
84	0xbe2c03be	-0.16798303
85	0xbda015b1	-0.07816637
86	0xbdcc66dc	-0.09980556
87	0x3e43d69a	0.19124833
88	0x3f1eb8e4	0.6200087
89	0xbee84946	-0.45368403
90	0x3df314c3	0.11869194
91	0xbc9e9b46	-0.01936115
92	0x3ddcbb91	0.10777963
93	0x3e4cf535	0.20015414
94	0xbdc737e3	-0.097274564
95	0x3e7f71e9	0.24945797
96	0x3e466726	0.19375286
97	0xbcc44af6	-0.023961525
98	0xbdb27a8e	-0.08714782
99	0x3ed4b936	0.41547555
100	0x3f285008	0.6574712
101	0xbdab39e3	-0.083606504
102	0x3e8bde45	0.27318016
103	0xbe69a3d8	-0.22816408
104	0xbce4c5c4	-0.027926333
105	0x3cb09c8e	0.021559026
106	0x3d88865a	0.066662505
107	0x3e2ef710	0.17086434
108	0xbc1f80c4	-0.00973529
109	0x3dc874be	0.09787892
110	0xbe1d5ab7	-0.15366636
111	0xbe295be9	-0.16538967
112	0xbd8c91ce	-0.068637475
113	0x3d974785	0.07386688
114	0x3dfd323d	0.12363098
115	0xbe515a41	-0.20444585
116	0x3cc8f0ed	0.024528945
117	0xbe23ab71	-0.15983368
118	0xbe89f1a9	-0.26942185
119	0xbe6915d1	-0.22762229
120	0x3e6baed3	0.23015909
121	0xbecd51ab	-0.4010137
122	0x3ebf1c2b	0.37326178
123	0x3e2ace90	0.1668036
124	0xbe0f64cf	-0.14003299
125	0x3e16efe7	0.14739953
126	0x3e0535d9	0.13008823
127	0x3e169d1f	0.14708374
128	0x3e4a9a20	0.19785357
129	0xbe3e2647	-0.18569289
130	0xbe26599a	-0.16245118
131	0xbe01cfd9	-0.12676944
132	0xbec12556	-0.37723798
133	0x3cccf4bf	0.025019048
134	0x3e5887ed	0.21145602
135	0xbe9f2213	-0.31080684
136	0xbda75cd4	-0.081720024
137	0x3e16ac3a	0.14714137
138	0x3e9ff633	0.31242523
139	0xbe106039	-0.14099206
140	0xbe9503cf	-0.29104468
141	0xbe824207	-0.25441
142	0x3c08ec09	0.008357056
143	0xbedaf5bc	-0.42765605
144	0xbeed73c8	-0.46377397
145	0xbd08d747	-0.03340843
146	0x3d8631dc	0.06552479
147	0x3d66d986	0.05635979
148	0xbc9e48cf	-0.019321827
149	0xbdfb4b82	-0.12270261
150	0xbdf6ff61	-0.120604284
151	0x3ded204d	0.115784265
152	0x3c877ef2	0.016540024
153	0x3df0194b	0.11723574
154	0x3f02f4bd	0.5115469
155	0x3d7cd569	0.06172696
156	0xbd09e030	-0.033661067
157	0xbdd710a5	-0.105012216
158	0x3e39dae9	0.18149914
159	0xbe397590	-0.18111253
160	0x3d675f6a	0.05648748
161	0x3e7c579f	0.246428
162	0x3e78fae4	0.24314457
163	0xbe28bbfb	-0.16477959
164	0xbdd1246c	-0.10212025
165	0x3cbc1d20	0.022963107
166	0x3f01f650	0.5076647
167	0xbe4f83a4	-0.2026506
168	0x3e0cc9b7	0.13748823
169	0x3e09f2fc	0.13471597
170	0x3bf28e87	0.0074022445
171	0x3e8a0be6	0.26962203
172	0x3e897e98	0.26854396
173	0x3e57b0b7	0.21063505
174	0x3c3ee1e4	0.011650536
175	0x3cbab63e	0.022791978

kp1.mlp.0.bias f4 [16]
0	0x3eb8150c	0.35953557
1	0x3c708b23	0.01468161
2	0xbdb4d090	-0.08828843
3	0xbca5de0a	-0.020247478
4	0x3dfa8914	0.12233177
5	0x3dfff184	0.12497237
6	0xbe67ddc9	-0.22643198
7	0xbd12017a	-0.03564594
8	0x3e033d0a	0.12816253
9	0xbd92c837	-0.07167094
10	0x3d6cd7a8	0.057822853
11	0x3e704333	0.23463134
12	0xbe66f1d6	-0.2255319
13	0x3e11f7a7	0.14254628
14	0x3e58a595	0.21156915
15	0x3e8449df	0.2583761

kp1.mlp.2.weight f4 [16, 16]
0	0x3ecf1da4	0.40452302
1	0xbe0b35fb	-0.1359481
2	0xbde552d2	-0.11197437
3	0x3e29ff25	0.16601236
4	0xbe485dbe	-0.1956701
5	0xbe26efec	-0.1630246
6	0x3cd4486f	0.025913445
7	0x3e3b3136	0.18280491
8	0x3e1e3b0f	0.15452217
9	0x3e9730a9	0.29529312
10	0xbd0e9493	-0.03480966
11	0x3e66cff4	0.22540265
12	0xbdc57f04	-0.09643367
13	0xbe92ad8f	-0.2864804
14	0x3d42f5e9	0.0475978
15	0x3e009166	0.12555465
16	0xbda15344	-0.0787721
17	0xbd1a8948	-0.037728578
18	0xbdb9168d	-0.09037504
19	0x3e43fc97	0.19139324
20	0xbe348186	-0.17627534
21	0x3dc83072	0.09774865
22	0x3e297b3d	0.16550918
23	0x3dd61acc	0.1045433
24	0xbe20ab22	-0.15690282
25	0xbe5da67b	-0.21645539
26	0xbe579d3b	-0.21056072
27	0xbdafee56	-0.08590381
28	0x3e56b80e	0.20968649
29	0xbe5ae91b	-0.21377985
30	0x3cf856b3	0.030314779
31	0xbbfb8aea	-0.007676472
32	0xbdbdca6c	-0.092671245
33	0x3e1b423f	0.1516199
34	0x3da027d7	0.07820099
35	0x3e044067	0.12915193
36	0x3dc1f6c1	0.09470893
37	0x3dce40eb	0.10070976
38	0x3e837ed0	0.25682688
39	0xbe3d21b7	-0.18469892
40	0xbe4067c3	-0.18789582
41	0xbdbc0642	-0.09180881
42	0xbdc39850	-0.09550536
43	0x3e8857f3	0.266296
44	0x3d7c0f9a	0.061538316
45	0x3e076a82	0.13224223
46	0xbd95a18b	-0.073062025
47	0x3d8d6d36	0.06905596
48	0xbd19adc2	-0.037519224
49	0xbe14ce52	-0.1453183
50	0x3d3f47ad	0.046699215
51	0x3da1ba2a	0.07896836
52	0xbd23c7c4	-0.039985433
53	0xbc756b69	-0.014979222
54	0xbd7ae0d0	-0.061249554
55	0x3e0cfa73	0.13767414
56	0xbe20981b	-0.15683024
57	0xbe7fd026	-0.24981746
58	0x3e1a3741	0.1506014
59	0x3e4fb741	0.2028475
60	0xbd815827	-0.06315642
61	0x3e42ac64	0.19011074
62	0xbe924bdc	-0.285735
63	0x3de2255b	0.11042281
64	0x3ea31dee	0.31858772
65	0xbe524a64	-0.2053619
66	0x3c70a08f	0.014686718
67	0x3d069dc3	0.032865297
68	0x3e40e4a1	0.18837215
69	0x3b606106	0.0034237518
70	0xbcaab451	-0.020837935
71	0xbdda5592	-0.106608525
72	0x3e6af7c7	0.22946082
73	0x3cc638c3	0.024196988
74	0x3e1a3cd3	0.15062265
75	0xbe324712	-0.17409924
76	0x3d92d09e	0.07168697
77	0x3e554a94	0.2082923
78	0x3e75a3c9	0.2398826
79	0xbd069452	-0.032856293
80	0x3dc1e3af	0.09467255
81	0xbe653f7d	-0.223875
82	0x3d84146e	0.06449209
83	0xbe18c159	-0.14917506
84	0xbe2a7664	-0.16646725
85	0xbe5b5e2f	-0.21422647
86	0x3dc8725e	0.09787439
87	0xbd529a12	-0.051416464
88	0xbe54d751	-0.20785262
89	0x3e822a5e	0.2542295
90	0xbe13a9d8	-0.14420259
91	0x3e6876a1	0.22701503
92	0x3bba8842	0.0056925127
93	0xbe1baaca	-0.1520187
94	0xbdc1b886	-0.09459023
95	0x3d58e4f2	0.052952714
96	0x3d4c57ee	0.049888544
97	0x3e17ff24	0.14843422
98	0x3de3d94c	0.111254305
99	0xbdeaea42	-0.114704624
100	0x3de335e1	0.11094261
101	0x3d6d1760	0.05788362
102	0x3d9ef1a3	0.07760932
103	0xbe546092	-0.20739964
104	0xbe58d887	-0.21176349
105	0x3cdd1b80	0.026990652
106	0x3e870f64	0.2637893
107	0x3da13fb4	0.078734785
108	0x3e80f80c	0.25189245
109	0xbc6fa152	-0.014625864
110	0xbe6de4a5	-0.23231752
111	0x3e583bb5	0.21116526
112	0xbe32b53d	-0.1745195
113	0x3e2f1bc8	0.17100441
114	0x3e6d5d79	0.23180188
115	0xbd44bc95	-0.04803141
116	0x3de8040b	0.11328896
117	0xbbbcb820	-0.005759254
118	0xbd50de2c	-0.05099313
119	0x3c334616	0.010942003
120	0x3cc565fc	0.024096482
121	0xbe88e90e	-0.26740307
122	0x3e922f24	0.2855159
123	0x3d04ae46	0.032392763
124	0xbd8161c0	-0.063174725
125	0x3dc7f450	0.09763396
126	0xbe56e57e	-0.20985982
127	0xbd9b5cdf	-0.07586073
128	0xbe0ab8ab	-0.13547008
129	0xbe24c3af	-0.16090272
130	0x3e1c457e	0.15260884
131	0xbe018fdf	-0.12652539
132	0x3e4203af	0.18946718
133	0x3e9ebb1e	0.31002134
134	0x3e0b3a8e	0.13596556
135	0x3d0d01b7	0.034425464
136	0xbcaa454b	-0.020784995
137	0xbe64ab43	-0.22330956
138	0xbe017e1c	-0.12645763
139	0xbe2b3742	-0.16720298
140	0xbd943073	-0.072358035
141	0x3e1207f9	0.14260854
142	0x3c04eb5a	0.008112753
143	0x3c363830	0.011121795
144	0xbee78c32	-0.45224148
145	0xbc92126e	-0.017831054
146	0x3e0bbc37	0.13646017
147	0x3dd83a73	0.10558023
148	0x3d97740e	0.073951825
149	0x3dc96015	0.09832779
150	0x3dbfb3f7	0.093604974
151	0xbe081d50	-0.13292432
152	0xbdb5e51c	-0.0888159
153	0xbe6f88fa	-0.23392096
154	0xbe34336c	-0.17597741
155	0x3e79da0f	0.24399589
156	0x3e160c16	0.14653048
157	0x3de84a93	0.11342349
158	0xbe5098fc	-0.20370859
159	0xbd82a2a1	-0.06378675
160	0xbe797947	-0.2436267
161	0xbc29917e	-0.010349629
162	0x3e22e676	0.15908226
163	0xbe207357	-0.15668999
164	0xbe799357	-0.24372612
165	0x3e7100f6	0.23535523
166	0x3dc53ce7	0.09630757
167	0xbd8ab7aa	-0.067733124
168	0x3da7adcc	0.08187446
169	0x3db855a0	0.09000707
170	0xbe678ba6	-0.22611865
171	0xbd784730	-0.060614765
172	0x3cb0d1c7	0.021584405
173	0xbe080b9b	-0.13285677
174	0xbe493b29	-0.19651474
175	0xbdeabb1f	-0.11461472
176	0xbde60804	-0.112319976
177	0xbe8047b1	-0.25054696
178	0x3df1fa79	0.11815352
179	0x3dc6b778	0.09702963
180	0x3d792739	0.06082842
181	0x3d984b67	0.07436257
182	0x3ce00c57	0.027349634
183	0xbe0e5d8c	-0.13902873
184	0xbbff6ea6	-0.0077951727
185	0xbd17dc41	-0.037075285
186	0x3d3ada80	0.045618534
187	0xbcdf4b53	-0.027257597
188	0xbe5573aa	-0.20844904
189	0xbd092d0e	-0.033490233
190	0x3df834cb	0.121194445
191	0xbd04ec52	-0.032451935
192	0x3ee99949	0.4562476
193	0x3d65f0b6	0.056137763
194	0xbe60cd6f	-0.21953367
195	0x3e113f15	0.1418422
196	0x3c4078f7	0.01174759
197	0xbe1a5504	-0.15071493
198	0xbe163ecb	-0.14672391
199	0xbdf334a5	-0.118752755
200	0xbdb0feb6	-0.08642332
201	0x3b9ba43c	0.004749803
202	0x3c90a1c4	0.01765526
203	0xbe3ba923	-0.1832624
204	0x3cb03b22	0.021512572
205	0xbe002773	-0.12515049
206	0x3ec927b9	0.39288118
207	0xbdf76f0d	-0.12081728
208	0x3c5c8557	0.013459525
209	0x3e38680e	0.18008444
210	0x3cd6085d	0.026127035
211	0xbe0968ab	-0.13418834
212	0xbe4d97e3	-0.20077471
213	0x3e68f496	0.22749552
214	0xbdbcf53c	-0.09226462
215	0xbbe9d945	-0.0071364962
216	0x3e081bc0	0.13291836
217	0xbd693e6d	-0.0569443
218	0x3c85bca8	0.01632531
219	0xbcc36015	-0.023849526
220	0x3e0c9644	0.13729197
221	0x3de3e95e	0.11128496
222	0x3e23191e	0.1592755
223	0xbe6d1a6a	-0.23154607
224	0xbe3f1e42	-0.18663886
225	0xbd05c50e	-0.03265863
226	0xbe07bf53	-0.13256578
227	0x3e39ce5b	0.18145125
228	0xbdeb93f6	-0.11502831
229	0x3e299d02	0.165638
230	0xbdf3362c	-0.11875567
231	0xbd98aabd	-0.07454441
232	0x3e264992	0.16239002
233	0x3d878d2b	0.066187225
234	0x3bc10bb0	0.005891286
235	0xbdd90281	-0.10596181
236	0x3d9e1616	0.07719056
237	0x3e7532e6	0.23945197
238	0xbdfb98de	-0.122850165
239	0xbe4b9259	-0.19880046
240	0xbeca4cf5	-0.3951184
241	0x3e592252	0.21204498
242	0x3cf27f0a	0.029601593
243	0xbe79e60c	-0.24404162
244	0x3d5f706e	0.05455058
245	0xbe0da8ae	-0.13833877
246	0xbe069310	-0.13142037
247	0x3d0ee3a2	0.034885056
248	0xbe356f5b	-0.1771826
249	0x3dbcbf52	0.09216179
250	0x3d9347ae	0.07191406
251	0xbe1dd229	-0.15412201
252	0x3d4088f9	0.047005627
253	0x3e5173c5	0.20454319
254	0xbe4b0083	-0.19824414
255	0xbe458c9a	-0.19291916

kp1.mlp.2.bias f4 [16]
0	0xbdd2b4ef	-0.102884166
1	0xbd0ad3d4	-0.03389342
2	0xbdf1a7c4	-0.11799577
3	0xbe85e6cb	-0.26152644
4	0xba59de1d	-0.00083109905
5	0xbe8cdbc2	-0.27511412
6	0x3dd8b806	0.10581975
7	0x3e662205	0.22473915
8	0x3d7c7fa7	0.061645176
9	0xbdf9f2f6	-0.12204544
10	0xbde98dbc	-0.11403987
11	0xbebe106a	-0.37121898
12	0x3e89f7bc	0.2694682
13	0xbcd2e3e2	-0.025743429
14	0x3c4048d6	0.011736115
15	0xbe301481	-0.17195322

kp2.mlp.0.weight f4 [32, 19]
0	0x3f1595a7	0.58431476
1	0x3ea35b4c	0.3190559
2	0x3c9ffcfb	0.01952981
3	0xbe0315e8	-0.12801325
4	0x3e63711e	0.2221112
5	0x3b816e21	0.003949896
6	0x3b9fdea3	0.0048788353
7	0x3c7b9a8d	0.015356672
8	0xbe35b32c	-0.1774413
9	0x3e534690	0.20632386
10	0xbdf0d120	-0.117586374
11	0xbe32b5dd	-0.17452188
12	0x3caacd78	0.020849928
13	0xbe44936c	-0.19196862
14	0x3e441db3	0.19151954
15	0xbe6c554d	-0.23079415
16	0x3e2e7c13	0.17039518
17	0x3d79776b	0.0609049
18	0x3d087c5f	0.033321735
19	0xbf01d2b2	-0.5071212
20	0x3f24f9c4	0.6444361
21	0x3f2e9084	0.68189263
22	0x3e404544	0.18776423
23	0xbd5db628	-0.054128796
24	0x3dfe83b9	0.12427468
25	0x3db28430	0.08716619
26	0x3d217375	0.03941675
27	0x3a048cb0	0.00050563645
28	0xbddab770	-0.10679519
29	0x3e7f188d	0.24911709
30	0xbc8d6704	-0.017261036
31	0xbe4ca3fa	-0.19984427
32	0xbe61d417	-0.22053562
33	0xbd53cbe1	-0.051708106
34	0x3e5b018f	0.21387313
35	0xbe15f756	-0.14645132
36	0x3e626ec5	0.22112568
37	0x3d9cfcea	0.07665427
38	0x3f1278b2	0.57215416
39	0xbe965de5	-0.2936851
40	0x3f15a143	0.5844919
41	0x3de8924b	0.11356028
42	0xbdeebea2	-0.11657454
43	0xbb17454f	-0.0023082083
44	0x3d23962d	0.03993814
45	0xbd8ea8ac	-0.06965765
46	0xbcdf0b54	-0.027227081
47	0x3e435cc4	0.19078356
48	0xbe2a915a	-0.1665701
49	0xbd9b2fd6	-0.07577483
50	0x3de549d6	0.11195724
51	0xbe08ef87	-0.13372622
52	0xbdb359b4	-0.08757344
53	0xbdd7cbde	-0.105369315
54	0x3cdb6864	0.026783176
55	0x3e0013cd	0.12507553
56	0x3d212ecf	0.03935128
57	0x3ef8299a	0.4846924
58	0x3f25da62	0.6478635
59	0xbe10e86a	-0.14151159
60	0x3d67ab3b	0.056559782
61	0xbdc6cd87	-0.0970717
62	0x3e2235db	0.15840857
63	0x3e0d3864	0.13791043
64	0xbca1e48e	-0.019762304
65	0x3df4ef95	0.11959759
66	0xbde651c0	-0.11246061
67	0x3e378ab8	0.17924011
68	0x3e0054f6	0.1253241
69	0x3e175938	0.14780128
70	0x3d8f6c71	0.070031054
71	0x3e314032	0.17309645
72	0x3df34b27	0.118795685
73	0xbe1603ea	-0.1464993
74	0x3e2fa22f	0.17151712
75	0x3d681244	0.056658044
76	0xbd5dfd6b	-0.054196756
77	0xbf0e860a	-0.5567328
78	0x3f07de0d	0.530732
79	0x3c9c701f	0.019096432
80	0x3ce7c2cb	0.028291127
81	0xbe0a053e	-0.13478562
82	0x3dc5948f	0.09647476
83	0x3e04ee96	0.12981638
84	0xbe7142d5	-0.2356065
85	0xbba6532a	-0.005075832
86	0xbdf000fc	-0.11718938
87	0xbde21832	-0.11039771
88	0x3d945ed3	0.07244649
89	0xbcf8e923	-0.030384606
90	0x3d3c5d7d	0.045987595
91	0xbd459227	-0.048235085
92	0xbe5c2b95	-0.21501
93	0xbdb9e50d	-0.09076891
94	0xbdb5312d	-0.0884727
95	0xbe6a9ec7	-0.22912131
96	0x3ee59a50	0.44844294
97	0xbe927810	-0.28607225
98	0x3e4860ef	0.19568227
99	0xbc6ab01a	-0.014324212
100	0xbdb1fead	-0.08691154
101	0x3e069205	0.1314164
102	0x3e4b6a36	0.19864735
103	0x3e4aa42c	0.19789189
104	0x3e314524	0.17311531
105	0x3d36ab97	0.044597235
106	0x3c4f5c53	0.012656289
107	0xbd9976c7	-0.07493358
108	0x3d65946f	0.05604976
109	0xbd5dae1d	-0.054121125
110	0x3de929d8	0.11384934
111	0xbd45a2c7	-0.04825094
112	0xbe35c70f	-0.17751716
113	0x3dea02a4	0.11426285
114	0x3f01ad00	0.506546
115	0xbf1bacc8	-0.6081052
116	0x3ea51a26	0.32246512
117	0x3d8328b9	0.064042516
118	0xbe51087a	-0.2041339
119	0x3dd56efc	0.10421559
120	0x3e3ca51f	0.18422364
121	0xbdb30e8b	-0.08743008
122	0x3e126c1a	0.1429905
123	0x3e0069d6	0.12540373
124	0xbdd1ff3d	-0.10253761
125	0x3e0ba620	0.1363759
126	0x3e407da6	0.18797931
127	0xbda0a75c	-0.07844421
128	0xbd358469	-0.04431573
129	0x3d7475f4	0.0596828
130	0x3c8776f7	0.016536219
131	0x3e404105	0.18774803
132	0x3da082e7	0.07837468
133	0xbdbb2192	-0.091372624
134	0xbe09e476	-0.13466057
135	0x3d5eddc4	0.05441071
136	0xbdf8b319	-0.12143535
137	0xbe542a99	-0.20719375
138	0x3df6ac0e	0.120445356
139	0x3d28e944	0.041238084
140	0xbdbff8c2	-0.09373619
141	0x3c6e6504	0.014550451
142	0xbe153b43	-0.14573388
143	0xbd8e6eb9	-0.069547124
144	0xbc8faaa9	-0.017537432
145	0xbe22c8d3	-0.15896921
146	0x3e14d56c	0.14534539
147	0xbd351165	-0.04420604
148	0xbe00e33e	-0.12586686
149	0xbe1a0e69	-0.1504456
150	0xbbc4345c	-0.005987687
151	0x3e387268	0.18012393
152	0xbf0cd0bf	-0.5500602
153	0xbf1e7bb6	-0.6190752
154	0x3f1c8515	0.6114057
155	0xbdb0dc06	-0.08635716
156	0x3d39e6b3	0.045386028
157	0x3e3a8b0b	0.18217103
158	0xbd964549	-0.07337434
159	0x3dd0f5f5	0.102031626
160	0x3dd46936	0.1037163
161	0x3e2993f6	0.16560349
162	0xbdbe56a1	-0.09293867
163	0x3d914b4c	0.0709444
164	0xbeb06dcd	-0.3445877
165	0x3e1934da	0.14961568
166	0xbe904e5f	-0.28184792
167	0x3da91dbc	0.082576245
168	0x3e4ba947	0.19888793
169	0xbe0b2de5	-0.13591726
170	0xbde8d13a	-0.11368032
171	0xbf1160c1	-0.5678826
172	0xbf0330a6	-0.51246107
173	0x3e8948db	0.26813397
174	0xbbd0543c	-0.006357698
175	0xbd645fcd	-0.055755425
176	0xbe2fc7e0	-0.1716609
177	0x3cdfe68b	0.027331611
178	0xbdd2356b	-0.10264095
179	0x3dc393a3	0.09549644
180	0x3e1cb5cf	0.1530373
181	0xbd617236	-0.05504056
182	0x3d0fe7a0	0.035133004
183	0x3c68a8d1	0.014200405
184	0xbd80b28d	-0.06284056
185	0xbe2a30d7	-0.16620193
186	0x3cfb1cad	0.030653322
187	0xbdfab0d9	-0.12240762
188	0x3d93244d	0.07184658
189	0xbe23c57a	-0.159933
190	0xbe9e5d20	-0.30930424
191	0xbed9e04e	-0.42553943
192	0xbdf3fac9	-0.11913068
193	0x3de8c9f3	0.11366644
194	0xbe1a520c	-0.15070361
195	0x3d9028f1	0.07039059
196	0xbdd73a9e	-0.10509227
197	0x3e552eaa	0.20818582
198	0x3e478b13	0.19486646
199	0x3dd7a28b	0.105290495
200	0xbd742d1e	-0.05961334
201	0xbdce5ad9	-0.100759216
202	0xbd2df7b1	-0.042472545
203	0x3d97501e	0.07388328
204	0x3e35f568	0.17769396
205	0x3e816de2	0.25279146
206	0x3e2010a1	0.15631343
207	0x3c859e0d	0.016310716
208	0xbe3b5354	-0.18293506
209	0xbf07c016	-0.53027475
210	0x3ee03302	0.43788916
211	0x3f48961e	0.7835406
212	0x3e889599	0.26676634
213	0x3dfc8c5b	0.12331458
214	0xbae0f7af	-0.0017163659
215	0x3d1736d0	0.036917508
216	0x3e1bba70	0.15207839
217	0x3e51e645	0.20497997
218	0x3e4c97e3	0.19979815
219	0x3d6283d5	0.055301506
220	0x3e5caa3b	0.21549313
221	0x3dc574dd	0.096414305
222	0x3df76ec9	0.120816775
223	0x3bfc5632	0.007700705
224	0x3e8f94a4	0.2804309
225	0xbd07b21a	-0.033128835
226	0xbd98884a	-0.0744787
227	0xbd26e946	-0.04074981
228	0xbeadec75	-0.33969465
229	0xbec7085f	-0.38873574
230	0x3e07d4a3	0.13264708
231	0xbd72c950	-0.059274018
232	0x3a4471ce	0.0007493765
233	0xbdd1b1f3	-0.10239019
234	0xbdba7ded	-0.0910605
235	0xbd9d1c9e	-0.07671474
236	0xbe5b2b28	-0.21403182
237	0x3e1401d2	0.1445382
238	0x3e3f4fca	0.18682781
239	0xbe0d174f	-0.13778423
240	0xbd9271d2	-0.07150616
241	0xbdcdbd9a	-0.10045929
242	0x3df14705	0.11781124
243	0x3e22b5e6	0.15889701
244	0xbd77e4b8	-0.060520858
245	0x3e062f4c	0.1310398
246	0xbdd9c2f4	-0.106328875
247	0x3d630e51	0.055433575
248	0x3cf20db9	0.02954756
249	0xbf8f2dd7	-1.1185864
250	0x3d72f8b3	0.05931921
251	0xbd9a190c	-0.075243086
252	0x3d95355b	0.072855674
253	0x3e1dc170	0.15405822
254	0x3df22338	0.11823124
255	0x3d529940	0.05141568

kp2.mlp.0.bias f4 [32]
0	0x3df87dae	0.121333465
1	0x3e90c63d	0.28276244
2	0xbe022443	-0.12709145
3	0x3d9bd36e	0.076086864
4	0x3e541503	0.2071114
5	0xbd410c21	-0.047130708
6	0x3bcae785	0.00619215
7	0xbdb24bc5	-0.08705858
8	0x3e9e9149	0.3097022
9	0x3e0a8944	0.13528925
10	0xbe12ad9e	-0.14324042
11	0xbdc0a824	-0.0940707
12	0xbdc02e34	-0.093838125
13	0xbdb2d3f9	-0.08731837
14	0x3ea737bf	0.32659718
15	0x3e0ad343	0.13557152
16	0x3e7018b0	0.23446918
17	0xbca1568d	-0.019694591
18	0x3d51ad47	0.05119064
19	0x3e973add	0.29537097
20	0x3e62025b	0.22071211
21	0xbdc593f4	-0.096473604
22	0xbdb94a4d	-0.09047375
23	0x3dcf411c	0.101198405
24	0xbd438c54	-0.04774125
25	0xbe1bd1b3	-0.15216713
26	0x3c9adb5b	0.018903425
27	0xbe82470e	-0.25444835
28	0xbe6e9a0b	-0.2330095
29	0x3e2e8953	0.17044573
30	0x3d0b04af	0.033940013
31	0x3e209cda	0.15684834

kp2.mlp.2.weight f4 [32, 32]
0	0x3d42ff51	0.04760677
1	0x3db8edd7	0.09029739
2	0x3e37fd5f	0.17967747
3	0x3eabbb62	0.335414
4	0xbdc7b649	-0.09751565
5	0x3e89c998	0.26911616
6	0xbdf9d638	-0.12199062
7	0x3d2114e9	0.039326582
8	0xbe1223b3	-0.1427143
9	0xbddf8e11	-0.10915769
10	0x3d87babb	0.06627413
11	0x3ea4f1e5	0.322158
12	0xbcd7f48e	-0.02636173
13	0xbda47cad	-0.080315925
14	0xbe73fca7	-0.23826848
15	0xbd4560f9	-0.048188183
16	0x3e0017d2	0.12509087
17	0x3d65deeb	0.056120794
18	0xbe2502a7	-0.16114293
19	0xbdb8236d	-0.08991132
20	0x3dc4cfe5	0.09609965
21	0xbdabdfba	-0.08392282
22	0xbe091b69	-0.13389362
23	0x3e291960	0.16513586
24	0x3c8fafd2	0.017539892
25	0x3da6ec5e	0.08150552
26	0x3ea1e04d	0.3161644
27	0xbcf3ab57	-0.029744787
28	0xbdf0e94f	-0.1176325
29	0x3de7bc18	0.11315173
30	0x3d9f93e5	0.077918805
31	0x3d36aa08	0.04459575
32	0x3df6972b	0.12040552
33	0xbe37f579	-0.17964734
34	0xbdccf6d3	-0.100080155
35	0x3ec81a4c	0.39082563
36	0xbe09fff5	-0.13476546
37	0x3e1a76f3	0.15084438
38	0xbd104094	-0.035217836
39	0x3e1c43b2	0.15260199
40	0xbdbf1109	-0.09329421
41	0xbe5eaf59	-0.21746577
42	0x3d7fc4d8	0.062443584
43	0xbc48d8f1	-0.012258754
44	0xbdde94d8	-0.108682334
45	0x3f3207d1	0.69543177
46	0xbe3d9d9d	-0.18517156
47	0xbdaafb31	-0.08348692
48	0xbe010f8d	-0.12603588
49	0x3d52f23e	0.05150055
50	0xbd8e1da7	-0.069392495
51	0xbd9647ac	-0.07337889
52	0x3ddf8368	0.10913736
53	0x3d797a32	0.06090755
54	0x3d87b439	0.066261716
55	0xbe3f2560	-0.18666601
56	0x3d3fd683	0.046835434
57	0x3e4357c1	0.19076444
58	0x3dff5b59	0.12468595
59	0x3e03e41d	0.12879987
60	0x3e421576	0.18953499
61	0xbcd3bf76	-0.025848132
62	0xbd5b8f6e	-0.053603582
63	0xbe24587b	-0.16049378
64	0xbbb63696	-0.0055607064
65	0x3da27a37	0.07933467
66	0xbd0d556c	-0.034505293
67	0xbd8248d2	-0.063615456
68	0xbde09ecf	-0.1096779
69	0xbdb46bd7	-0.08809631
70	0xbdce6fae	-0.10079895
71	0x3e1f0eba	0.15532961
72	0xbd618ea7	-0.055067685
73	0x3d45c5ed	0.04828446
74	0x3d8745b0	0.06605089
75	0xbdcae287	-0.09906488
76	0xbd26f513	-0.040761065
77	0x3f2de70b	0.6793067
78	0x3ddcf537	0.107889585
79	0x3d5c5750	0.053794205
80	0xbde76174	-0.112978846
81	0x3dbbc9e5	0.09169368
82	0xbda0c37a	-0.07849784
83	0x3c81cd41	0.015844943
84	0xbe39659a	-0.18105164
85	0x3e2897a1	0.16464092
86	0x3dd0344b	0.10166224
87	0xbe3eca97	-0.1863197
88	0xbe11ff26	-0.14257488
89	0xbcb8aec2	-0.022544269
90	0xbdba7b39	-0.09105534
91	0x3e04b18e	0.12958357
92	0xbdd9a224	-0.10626629
93	0x3cb8e55a	0.0225703
94	0x3c21aea6	0.0098683
95	0x3e21b452	0.15791443
96	0x3ce4548f	0.027872352
97	0xbb0a4b2d	-0.0021101937
98	0x3e7ddf1b	0.24792139
99	0x3ebbf785	0.3671228
100	0x3e173366	0.147657
101	0x3dee7988	0.11644274
102	0x3e80e00e	0.2517094
103	0xbdf4a193	-0.1194488
104	0xbc59054f	-0.013245895
105	0xbd8a055c	-0.067393035
106	0xbd854628	-0.06507522
107	0xbcc49e75	-0.02400134
108	0xbe39f1a2	-0.18158582
109	0xbee9dd1d	-0.4567651
110	0x3e945a81	0.289753
111	0xbe18261c	-0.14858288
112	0x3c30d241	0.010792316
113	0xbdc3af6f	-0.09554946
114	0x3e3171a9	0.17328514
115	0x3e2e3a5b	0.17014448
116	0xbdd471b6	-0.10373251
117	0x3dcabfb1	0.098998435
118	0xbec462c4	-0.38356602
119	0x3df90e24	0.121609
120	0xbd88e12b	-0.066835724
121	0x3d5a8158	0.053346008
122	0x3eca22dd	0.39479724
123	0x3e33e909	0.17569365
124	0xbdea849e	-0.11451076
125	0x3e0ddc0e	0.13853475
126	0xbe38c79a	-0.18044892
127	0x3e5562af	0.20838426
128	0xbdb19863	-0.086716436
129	0xbe124d81	-0.14287378
130	0x3cc5647a	0.024095763
131	0x3e99081b	0.29888996
132	0xbe5c5b95	-0.21519311
133	0x3db94479	0.09046263
134	0x3ef7efdd	0.4842519
135	0x3e22bee4	0.15893131
136	0xbe1bd601	-0.15218355
137	0x3c5f59ce	0.013632251
138	0x3b2b81da	0.0026169927
139	0x3dcbe6f8	0.09956163
140	0x3e313fe6	0.17309532
141	0xbd34ba7d	-0.04412316
142	0xbd6c8325	-0.057742257
143	0x3df7c288	0.12097651
144	0xbc23dba7	-0.0100011
145	0x3e06f136	0.13177952
146	0x3df3f95e	0.119127974
147	0x3e407332	0.18793944
148	0xbe208c28	-0.15678465
149	0xbe0d6a70	-0.13810134
150	0x3e1a404f	0.15063594
151	0x3c843921	0.016140522
152	0xbd843264	-0.06454924
153	0xbe30de62	-0.17272332
154	0x3ed2a5db	0.41142163
155	0x3e2ad7ef	0.16683935
156	0x3dbc2580	0.0918684
157	0xbdb4d9b7	-0.08830588
158	0xbe44bd14	-0.19212753
159	0x3df8c192	0.121462956
160	0x3d130769	0.03589574
161	0xbc49ae99	-0.012309694
162	0xbe2eba59	-0.17063273
163	0x3e034912	0.12820843
164	0xbd6138f3	-0.05498595
165	0xbd87d3f4	-0.06632224
166	0xbe3afbb7	-0.18260084
167	0xbde128bf	-0.109941
168	0x3c34685c	0.011011209
169	0xbb9e7fd6	-0.0048370166
170	0x3dd42951	0.10359443
171	0xbe9ac31d	-0.30226985
172	0x3d5b786d	0.053581644
173	0x3eceb8e6	0.4037544
174	0xbd819fc0	-0.06329298
175	0xbe2034fa	-0.15645209
176	0xbe12c8c6	-0.14334401
177	0x3e77951e	0.24177977
178	0x3cc43349	0.023950236
179	0x3c2215b2	0.009892868
180	0xbba170aa	-0.0049267607
181	0xbdcf7b88	-0.101309836
182	0x3b486eb4	0.0030583562
183	0xbca1c467	-0.019746972
184	0x3e058075	0.13037284
185	0x3c8f7fd0	0.017517
186	0x3e430dce	0.19048235
187	0xbe0a7dc8	-0.13524544
188	0xbd7707d3	-0.060310196
189	0xbdfc8e89	-0.12331874
190	0x3e2db3c6	0.1696311
191	0x3e23763e	0.15963075
192	0x3db8beb6	0.0902075
193	0x3d4d8d82	0.05018378
194	0x3e8b0e06	0.27159137
195	0x3e28d0f4	0.1648596
196	0x3deb40eb	0.114869915
197	0x3b4d5f48	0.003133731
198	0x3e6a98bc	0.22909826
199	0x3e103fc3	0.14086823
200	0xbd3508c9	-0.04419783
201	0x3c843493	0.01613835
202	0x3df9e85e	0.12202524
203	0x3e89f920	0.2694788
204	0x3d9de855	0.077103294
205	0xbee9a7f5	-0.45635954
206	0x3e6927e8	0.2276913
207	0x3e113c2c	0.1418311
208	0xb92dfc0a	-0.00016592458
209	0xbe308034	-0.17236406
210	0x3cf31bb9	0.029676305
211	0x3de6f90f	0.11277973
212	0x3dadc3af	0.08484589
213	0xbdda503e	-0.10659836
214	0xbe05e70b	-0.13076417
215	0xbcda4a8a	-0.026646871
216	0x3c488fcf	0.012241318
217	0x3c64cd88	0.013965018
218	0x3dd74578	0.10511297
219	0xbcbb25a0	-0.02284509
220	0x3d4a0c13	0.04932792
221	0x3e54bd3a	0.20775309
222	0xbdebeec3	-0.115201496
223	0x3e196ef6	0.14983734
224	0x3e657e8e	0.22411558
225	0xbcda52e6	-0.026650857
226	0x3e6df80b	0.23239152
227	0x3d1e2f83	0.03861953
228	0x3b317832	0.0027079699
229	0xbe366d47	-0.17815123
230	0x3ea52f59	0.32262686
231	0xbd66812f	-0.056275543
232	0x3dc46aa2	0.09590651
233	0xbd605c34	-0.05477543
234	0x3e0ca82d	0.13736029
235	0xbe41353a	-0.1886796
236	0x3d95c09d	0.07312129
237	0xbd44f844	-0.048088327
238	0xbcff3ec8	-0.031157866
239	0x3e30611b	0.17224543
240	0x3e271263	0.16315608
241	0x3e57e002	0.21081546
242	0x3e72feb2	0.23729971
243	0xbda39773	-0.07987871
244	0x3e06321f	0.13105057
245	0xbdafbe05	-0.08581165
246	0x3c8f1f76	0.017471056
247	0x3df6a860	0.12043834
248	0x3e159285	0.14606674
249	0xbda8122e	-0.082065925
250	0x3e31e363	0.17371897
251	0x3deb03bd	0.114753224
252	0x3c3d3222	0.011547597
253	0xbe2419ac	-0.16025418
254	0xbe3e1880	-0.18564034
255	0x3e71c8c6	0.23611745

kp2.mlp.2.bias f4 [32]
0	0xbddf1959	-0.108935066
1	0x3d721a16	0.05910691
2	0x3c093fb3	0.0083770035
3	0x3dc0608c	0.09393415
4	0xbd25c9ed	-0.040475775
5	0xbde8bd39	-0.11364216
6	0x3de94296	0.113896534
7	0xbd014db2	-0.031568237
8	0xbc3f7c5c	-0.011687364
9	0xb9240dbb	-0.00015645374
10	0x3ce7e889	0.028309124
11	0xbe24c687	-0.16091357
12	0x3d8b7bbd	0.068107106
13	0xbe2fa91f	-0.17154358
14	0x3daf6573	0.08564272
15	0x3d1515e2	0.036397822
16	0x3dee2a51	0.11629165
17	0xbe46a6b3	-0.19399528
18	0xbe857869	-0.26068428
19	0x3d857f69	0.06518442
20	0xbe2e87f3	-0.17044048
21	0xbcabf683	-0.02099157
22	0xbd155f19	-0.036467645
23	0xbe8e73ef	-0.27822825
24	0x3d112a84	0.035440937
25	0xbe19429d	-0.14966817
26	0x3cb978a3	0.022640532
27	0x3c8ea93a	0.017414678
28	0x3ca2aa2b	0.019856533
29	0xbdb745bc	-0.08948848
30	0x3d824edf	0.063627
31	0xbcb55665	-0.022135923

head.0.weight f4 [32, 32]
0	0xbccd27de	-0.025043424
1	0xbe46c64c	-0.19411582
2	0x3d2a86c7	0.04163244
3	0x3e8b2e6c	0.27183855
4	0x3e57fe0e	0.21093008
5	0x3deb9916	0.11503808
6	0x3e1c5455	0.15266545
7	0xbdee6747	-0.11640792
8	0x3eb872b1	0.36025003
9	0x3eaef797	0.3417327
10	0xbb82d224	-0.003992336
11	0x3e422a94	0.18961555
12	0x3decafa7	0.115569405
13	0x3e71cafa	0.23612586
14	0xbdd49036	-0.103790686
15	0x3c43fd8e	0.011962308
16	0x3d6cfcf2	0.057858415
17	0xbe3b2f9f	-0.18279885
18	0x3e4896be	0.19588754
19	0x3e232b3e	0.15934464
20	0x3dc57e02	0.09643175
21	0xbcc2f0c8	-0.023796454
22	0x3e06ecfd	0.13176341
23	0xbe13a4e8	-0.14418375
24	0x3d5f4631	0.0545103
25	0x3e673e18	0.2258228
26	0x3e71b90a	0.23605743
27	0x3e15250d	0.14564915
28	0x3e83b7a1	0.25726035
29	0x3e6d8d1a	0.23198357
30	0xbe30524e	-0.17218897
31	0x3e099998	0.13437498
32	0x3e4aee6d	0.19817515
33	0x3db2686d	0.08711324
34	0x3e311867	0.17294465
35	0x3e0be159	0.13660182
36	0x3e913e29	0.28367737
37	0x3cb1deed	0.021712745
38	0x3cf30f6c	0.02967044
39	0xbcf53fd5	-0.029937664
40	0x3e88684b	0.2664207
41	0x3e03f8c1	0.12887861
42	0xbdfd6026	-0.123718545
43	0x3e521df7	0.20519243
44	0xbe2e345f	-0.17012165
45	0xbc53bf7a	-0.01292407
46	0xbe53d37d	-0.20686145
47	0x3c9254df	0.017862735
48	0x3e0d6686	0.13808641
49	0xbe1f43a6	-0.1555315
50	0x3e01a25b	0.1265959
51	0x3e324d68	0.1741234
52	0x3dac6366	0.08417396
53	0xbdd62ba5	-0.10457543
54	0xbe1303df	-0.14356945
55	0xbe2405d6	-0.16017851
56	0xbdf29db9	-0.118464895
57	0x3d5053d4	0.050861195
58	0xbc324f38	-0.010883145
59	0x3e5ccaf1	0.21561791
60	0x3e5b64f0	0.21425223
61	0x3e2672ae	0.16254684
62	0xbe13632f	-0.14393304
63	0x3e7fd028	0.24981749
64	0xbe8a3fd3	-0.2700182
65	0xbe84be6c	-0.2592653
66	0x3dbdcd29	0.09267647
67	0xbc0ed4f9	-0.008717769
68	0xbe8cca55	-0.27498117
69	0x3d9eb88c	0.07750043
70	0x3e44f7ef	0.19235204
71	0xbc9a5559	-0.018839525
72	0xbe9167cd	-0.28399506
73	0xbe753bf7	-0.23948656
74	0xbe63f9b1	-0.22263218
75	0xbe0be037	-0.1365975
76	0x3e83d24e	0.25746387
77	0xbdab3ea8	-0.0836156
78	0x3d1039c1	0.03521133
79	0xbdfe203b	-0.12408491
80	0xbe064403	-0.13111882
81	0x3d703828	0.058647305
82	0xbe9a4d71	-0.30137208
83	0xbe580a39	-0.2109765
84	0x3d7cd289	0.06172422
85	0xbe0274b4	-0.12739831
86	0xbd4ef093	-0.0505224
87	0xbdf3c243	-0.11902287
88	0x3e62b821	0.22140552
89	0xbe060b08	-0.13090146
90	0x3d9754e1	0.07389236
91	0xbdfc3db2	-0.12316455
92	0x3e0c20bb	0.1368436
93	0xbdf7e5cd	-0.12104378
94	0x3d94af5f	0.07260012
95	0xbe7adc08	-0.24497998
96	0xbc9f3e99	-0.019439029
97	0x3e59f66b	0.21285407
98	0x3e8a3465	0.269931
99	0xbd7af5f3	-0.06126971
100	0x3d4f178d	0.05055957
101	0x3ee4769b	0.4462174
102	0xbd247226	-0.040147923
103	0x3d1cdf4a	0.038298883
104	0xbcc464ec	-0.023973905
105	0xbc3038d0	-0.010755733
106	0xbe47e628	-0.19521391
107	0xbd287d94	-0.041135386
108	0x3dc4340c	0.0958024
109	0xbda7d791	-0.08195413
110	0xbcec8cd1	-0.02887574
111	0x3e253be4	0.16136128
112	0xbdb427db	-0.08796664
113	0x3f0779a3	0.5291998
114	0x3e3684f0	0.17824149
115	0xbc901dd0	-0.01759234
116	0x3efb69cb	0.4910415
117	0xbd3bf3f1	-0.045886938
118	0x3e471e00	0.19445038
119	0x3ed3988c	0.41327322
120	0x3e4c0c20	0.199265
121	0xbe304f4c	-0.1721775
122	0xbbc56cfd	-0.0060249553
123	0x3da5eca0	0.08101773
124	0xbd114452	-0.035465546
125	0x3e3e5dcf	0.18590473
126	0x3ecb8887	0.397526
127	0xbdb1dbcb	-0.086845
128	0x3e454299	0.19263686
129	0xbbc4dad6	-0.0060075326
130	0xbe3dc301	-0.1853142
131	0x3e34a6e1	0.17641784
132	0x3e523884	0.20529372
133	0xbde1c2e9	-0.11023504
134	0xbd9258b0	-0.07145822
135	0x3e2386fe	0.15969464
136	0x3e99ed82	0.30064017
137	0x3e91cdcf	0.28477332
138	0x3e778a29	0.24173798
139	0x3e82ba39	0.25532702
140	0xbd3ad1a2	-0.045610078
141	0x3e154bcd	0.14579697
142	0xbe4b8b07	-0.19877253
143	0xbded12d7	-0.11575859
144	0x3e7f4af9	0.24930944
145	0xbdb24101	-0.08703805
146	0x3ea47470	0.32120085
147	0xbd1487c1	-0.036262278
148	0xbde09d79	-0.109675355
149	0x3da6abff	0.081382744
150	0xbdd5acc2	-0.104333416
151	0xbe0beda1	-0.13664867
152	0x3b6cc1f0	0.0036126338
153	0x3e2a17d7	0.16610657
154	0x3e498f24	0.1968351
155	0xbd4fbfba	-0.050719954
156	0x3e3428b9	0.1759366
157	0x3e72fa33	0.23728256
158	0x3dc8cd9d	0.098048426
159	0x3d98bc60	0.07457805
160	0xbd2ab77d	-0.041678894
161	0xbdeeb59d	-0.11655734
162	0x3d0b679c	0.034034356
163	0x3e5fe869	0.21866001
164	0x3e1df239	0.15424432
165	0xbb5d3131	-0.0033751244
166	0x3e33c9c7	0.1755744
167	0x3cc24506	0.023714554
168	0x3e974d5e	0.29551214
169	0x3e8e6770	0.27813292
170	0x3e3976c5	0.18111713
171	0x3d681054	0.056656197
172	0x3ddd2073	0.10797205
173	0x3e4f4043	0.20239358
174	0xbdfa668c	-0.122265905
175	0xbd8bf51e	-0.06833862
176	0xbc533661	-0.012891383
177	0xbd7f4f3c	-0.062331423
178	0x3e1c8d0d	0.15288182
179	0x3e0dab57	0.13834892
180	0xbc40a002	-0.011756899
181	0xbd21a305	-0.03946211
182	0xbe071146	-0.13190183
183	0xbe2484fc	-0.16066355
184	0xbc9a2e23	-0.018820828
185	0x3da6ca06	0.08144002
186	0x3e491f6a	0.1964089
187	0x3e2ab260	0.16669607
188	0xbd5ab11f	-0.053391572
189	0xbcf36304	-0.0297103
190	0xbdf8d4d7	-0.12149971
191	0x3dc4f8a6	0.096177384
192	0x3e2f0eff	0.17095564
193	0xbe149319	-0.14509238
194	0xbe163cbe	-0.14671609
195	0xbdd70dab	-0.10500654
196	0x3e284564	0.1643272
197	0xbe0ef258	-0.13959634
198	0x3e25f98f	0.1620848
199	0x3bbc31ad	0.0057432265
200	0x3e88b11e	0.2669763
201	0x3e3f176a	0.18661276
202	0x3e789376	0.24275002
203	0x3de480d6	0.11157386
204	0xbdd23b3a	-0.10265203
205	0x3e2b5f2d	0.16735525
206	0x3dc10507	0.09424787
207	0xbe17da4a	-0.14829364
208	0x3e45e44c	0.1932537
209	0xbdceffc1	-0.10107375
210	0x3be38ed9	0.006944519
211	0x3e19086c	0.14944619
212	0x3dfcbef9	0.12341113
213	0xbcb2177a	-0.02173971
214	0xbe211043	-0.1572886
215	0xbe161ac0	-0.14658642
216	0xbd0bcfbb	-0.034133654
217	0x3e0a3765	0.13497694
218	0x3e074fb6	0.13214001
219	0x3df08665	0.11744384
220	0x3e017a02	0.12644199
221	0x3dd1b793	0.10240092
222	0xbe4ecb73	-0.20194797
223	0x3e86a73c	0.26299465
224	0xbe5b33fc	-0.21406549
225	0xbe8c5d3b	-0.2741488
226	0x3d318794	0.043342188
227	0x3da18332	0.07886352
228	0xbe7cf570	-0.24703002
229	0xbc6c0251	-0.014404849
230	0x3ea2f652	0.31828552
231	0xbe0a1621	-0.13485004
232	0xbe8a422c	-0.2700361
233	0xbd0ff7c4	-0.035148397
234	0xbe1f7f97	-0.15576015
235	0xbe68b360	-0.22724676
236	0x3dfd7f37	0.1237778
237	0xbe260dbf	-0.16216181
238	0x3e5ac736	0.21365055
239	0xbd92c6c3	-0.07166817
240	0x3e1530dc	0.1456942
241	0xbea2e4c2	-0.31815153
242	0xbf14b053	-0.5808155
243	0xbd263c10	-0.040584624
244	0xbcb290a1	-0.02179748
245	0xbd25780d	-0.040397692
246	0xbe8cd3db	-0.27505383
247	0xbe9e7dfd	-0.30955496
248	0xbad09937	-0.0015914802
249	0xbe8afde1	-0.2714682
250	0xbd80e029	-0.06292755
251	0xbd3fe51c	-0.046849355
252	0x3ddf74e9	0.10910971
253	0xbc74aeae	-0.014934225
254	0xbd8e1f68	-0.06939584
255	0xbe2cde2e	-0.1688163

head.0.bias f4 [32]
0	0xbde61be6	-0.1123579
1	0xbe1051d8	-0.14093721
2	0x3cebce95	0.02878503
3	0xb9a17fc4	-0.00030803506
4	0xbc8e8cf1	-0.01740119
5	0xbc19d9b7	-0.009390286
6	0x3e0cc65f	0.13747548
7	0x3ea8972b	0.32927832
8	0x3b91ae2b	0.0044458113
9	0xbd3bce02	-0.04585076
10	0x3c99b11b	0.018761208
11	0xbda0e2b4	-0.0785574
12	0x3d4aec35	0.04954167
13	0x3dc3f58c	0.09568319
14	0x3eadba1e	0.3393106
15	0x3e94b179	0.2904165
16	0x3e8edce0	0.2790289
17	0xbdcac3ec	-0.099006504
18	0x3d4b4f58	0.049636215
19	0xbc9712a9	-0.018441515
20	0x3e604c49	0.219041
21	0x3e10b95c	0.14133209
22	0xbe468fb2	-0.19390753
23	0xb7eaf8b2	-2.8010782e-05
24	0x3e22896d	0.15872736
25	0xbd27194c	-0.04079561
26	0xb8cb78e7	-9.702314e-05
27	0x3e7fdb36	0.24985966
28	0x3d860dbf	0.065455906
29	0x3e9fe083	0.31225976
30	0xbd33a9d4	-0.043863133
31	0x3ddb9971	0.10722626

head.2.weight f4 [3, 32]
0	0x3e9fa389	0.31179455
1	0x3e2fa29f	0.17151879
2	0xbe8e2ff8	-0.27770972
3	0x3c833f5c	0.016021423
4	0x3e861a0f	0.26191756
5	0x3dc3b1b1	0.09555376
6	0x3e5330e5	0.2062412
7	0xbda2d297	-0.07950323
8	0x3e06ca47	0.131631
9	0x3e7431aa	0.2384707
10	0x3e63c9f3	0.22245006
11	0x3e8533a9	0.26015976
12	0xbda49b4e	-0.080374345
13	0xbdec912e	-0.11551128
14	0xbcc17f83	-0.023620373
15	0xbea51367	-0.32241365
16	0xbd941ddf	-0.0723226
17	0x3e389c9f	0.18028496
18	0xbb8cfe62	-0.0043027857
19	0x3dbe0729	0.092787094
20	0xbebc30ed	-0.36756077
21	0x3e003f6a	0.1252419
22	0xbdf8e59b	-0.12153169
23	0xbdf33cc1	-0.11876822
24	0x3dfc2a35	0.12312738
25	0xbcdac550	-0.026705414
26	0x3e245e19	0.1605152
27	0xbe793ad3	-0.24338846
28	0x3e640630	0.22267985
29	0x3dada3f8	0.0847854
30	0xbdf7abb5	-0.120932974
31	0xbdf64126	-0.12024145
32	0x3e19a034	0.15002519
33	0x3e937d1d	0.2880639
34	0xbe69ccae	-0.22831985
35	0xbec2821d	-0.37989894
36	0x3e7e00e6	0.2480503
37	0xbddba741	-0.107252605
38	0xbe06b894	-0.13156348
39	0xbee39b90	-0.44454622
40	0xbd1aaf34	-0.037764743
41	0x3e8a1452	0.26968628
42	0x3dd468f9	0.103715844
43	0x3d555f68	0.05209294
44	0x3d342944	0.043984666
45	0xbeb72eb4	-0.3577782
46	0xbee3133e	-0.44350618
47	0xbeb48916	-0.35260838
48	0xbed31fe8	-0.4123528
49	0xbe0dd0a1	-0.13849117
50	0xbb1867a4	-0.0023255134
51	0xbe125d34	-0.14293367
52	0xbdd71af0	-0.10503185
53	0x3ea265ab	0.31718192
54	0xbc8f6220	-0.017502844
55	0x3c9c8a9c	0.019109063
56	0xbc6bf729	-0.014402189
57	0x3dd46bcf	0.10372125
58	0xbee901c4	-0.4550916
59	0x3e8bcd55	0.27305093
60	0x3de7dfd0	0.11321986
61	0xbed19ccc	-0.4093994
62	0x3d30b1bc	0.04313825
63	0x3cdf2a7c	0.027241938
64	0xbd044762	-0.03229464
65	0xbe854333	-0.2602783
66	0x3e703ea4	0.23461396
67	0x3e7094c7	0.23494254
68	0xbe5cf641	-0.21578313
69	0xbe33e7b0	-0.1756885
70	0xbe3cbf94	-0.18432456
71	0x3e878f3b	0.26476464
72	0xbe0241f2	-0.12720469
73	0xbdc1630a	-0.09442718
74	0xbe97f6e9	-0.29680565
75	0xbe003985	-0.12521942
76	0xbdac175b	-0.08402892
77	0xbd1891d1	-0.037248436
78	0x3e68b70a	0.22726074
79	0x3e50c19c	0.20386356
80	0x3db89f2f	0.09014737
81	0x3c9cdc9c	0.019148163
82	0x3d3b3fa3	0.045714986
83	0xbe51a6fa	-0.20473853
84	0x3df256e3	0.118329786
85	0xbe984e8f	-0.29747435
86	0xbbbd0f31	-0.005769633
87	0xbd5ede67	-0.05441132
88	0x3c8ab9b0	0.016934246
89	0xbc4e1470	-0.012578115
90	0x3e396c9c	0.18107837
91	0x3ecef010	0.40417528
92	0xbe8c63ea	-0.27419978
93	0x3e338b1f	0.17533539
94	0xbdf67ba7	-0.120353036
95	0x3e484c6d	0.19560404

head.2.bias f4 [3]
0	0xbdf45669	-0.11930544
1	0x3b6b64f6	0.0035918332
2	0x3e6b8567	0.23000108
