checkpoints_kpconv_25nov/best_model_25nov_mIoU_0.2387.pth (torch, 19357 bytes, 14 tensors)

fc0.weight f4 [8, 3]
00000000: f7ed 583d fc78 c5bd 1164 b33e d9aa 55bc
00000010: 9b36 febd 1c31 863e fe88 d9be 1904 653d
00000020: af46 013e 889b e1bd d456 e23c 64a2 193e
00000030: 3b45 cf3e 01bb 753e e94d 9c3e a9cc cdbe
00000040: 9641 62bd 195b 82be b16f 89be 97a9 adbe
00000050: 45ee 0dbf 02d0 a2be e917 e2be 91aa b93d
0.052961316 -0.096422166 0.35037282 -0.013041222 -0.12412759 0.26209342 -0.4248733 0.05591211
0.1262462 -0.11015993 0.027629294 0.15003353 0.40482506 0.23997118 0.3052819 -0.40195206
-0.05523833 -0.25460127 -0.26843026 -0.3391845 -0.55441695 -0.31799322 -0.44158867 0.09065736

fc0.bias f4 [8]
00000000: bc32 debe 39e8 c8be e352 3eb9 da2e ab3e
00000010: 0373 91be 2e4b d33e 69d5 783e 9d8e 0fbf
-0.43398082 -0.39239672 -0.0001815069 0.33434182 -0.2840806 0.41268295 0.2430016 -0.56076986

kp1.mlp.0.weight f4 [16, 11]
00000000: 972e 51be 7113 8abb a994 493e c3e9 703e
00000010: 313b 2dbe 86b4 9cbc 3954 913c 05a4 8bbe
00000020: 5562 9fbe aa83 24be 2247 883c f563 043e
00000030: 7116 35bf fbe1 683d efa7 f3bd 24be 28bb
00000040: 63cc 773c b4e3 90bd 704b 9f3d 1e86 4f3e
00000050: 4d64 bb3d 5a96 323d 4355 c9be caa3 debe
00000060: dc61 6bbe 07f4 27be c968 48be 2944 b7bd
00000070: 77f8 e03d c9ea fabb a7d2 a03d 2b15 d93d
00000080: db57 36bd 5fff bc3e f06a 063f 15e1 ec3d
00000090: bb12 313e f6a7 d5bd 7c2d 0dbe 483e 50be
000000a0: d86c 663d 4699 6a3e 2383 8bbe 2d1f 1f3e
000000b0: fdb2 e33d b5da 11bf e0f3 953e 53d4 29be
000000c0: 991e 59bd f044 a63d 5921 88be 5a48 62be
000000d0: caaa 38bc ef25 743e ec6f 62be 019e eebe
000000e0: 80b7 52bf 2b91 cebd 7385 26be c86e a5be
000000f0: b71d 85bd 450b e13d 5d19 523d 2503 9b3e
00000100: d7db 0d3e 804f cebc 9468 c6bd 80b1 e33e
00000110: 6972 3cbe 780f a03d fbae 40be ae95 b13b
00000120: 1e9b 22be 1599 0f3d 1e86 2e3e 6881 e9bd
00000130: 02e5 163e 2eab b3bc 9c59 ef3e 2e1f f3bd
00000140: 73a5 283e 1fe6 f0bd 2878 d43d aaff d3bd
00000150: 8803 7c3d 3bd5 0dbe b668 9fbe 1acc a33b
00000160: 3620 563e 4eb4 593f e385 f33c 6fea e5bd
00000170: c39f 703e fc78 a23e d649 90bd cb3b 8a3e
00000180: 7396 83be 77b9 4ebe 86f8 313e 4d89 103e
00000190: 2341 b43d dbf6 8a3e f3da edbd 663c 3cbe
000001a0: e3ce 6dbe de7a ba3a ed5f 18be 7072 e33d
000001b0: 0738 123e cbf7 89bd 6321 a63e e37a ae3e
000001c0: d053 163d 6347 f7ba 6b4b 583d fd4d 1a3e
000001d0: 2425 823e b798 9dbd 34f1 6abe ddba 2e3e
000001e0: 6535 aebc 3c59 2fbf 2e42 2dbf 58a0 17be
000001f0: 2432 833c 1077 003e 9c07 2e3e 2904 f2bd
00000200: 0f42 623e d6de 1e3d b6f7 69bc ab06 09bd
00000210: 28f3 27bf 85f5 9fbe bb20 25be ce41 513e
00000220: a58c 03bd 58e4 f33d a163 87be c16f e33d
00000230: 46cc 053e c070 ac3c c19b 21be 4c3d 13be
00000240: 839f 1c3f d0de 9f3e 7f4b 153e 98a6 963e
00000250: ba01 ed3b c452 81bc 5793 6cbe a007 e43b
00000260: b725 f63d aec9 f43d e7c2 003d e1b0 af3e
00000270: 7591 2d3d ddca 893e 3b6f 58be 3ebb 2fbe
00000280: d8d6 6bbe 0206 6f3e 7777 cebd f8d3 1a3e
00000290: c8ca 263e 5096 af3d 6834 a4be 4025 9fbc
000002a0: c408 983d 6138 81be 20c3 8a3e 5219 14be
000002b0: 6245 703e 21dd d93d e032 673e 1792 6cbe
-0.20427929 -0.0042137434 0.19685616 0.23526673 -0.16917111 -0.019129049 0.017740356 -0.27273574
-0.3112971 -0.16065851 0.016635481 0.12928756 -0.7073737 0.056856137 -0.11897265 -0.0025748098
0.015124413 -0.07074681 0.077780604 0.20266005 0.0914999 0.043600418 -0.39322862 -0.43484336
-0.22986549 -0.16401683 -0.19571222 -0.089485474 0.10984891 -0.007657383 0.07852679 0.105997406
-0.04451738 0.36913583 0.52506924 0.115663685 0.17292301 -0.10432427 -0.13786882 -0.20336258
0.056256145 0.22910032 -0.27248487 0.15539236 0.11118124 -0.56974345 0.29287624 -0.16584902
-0.053007696 0.081186175 -0.26587942 -0.22097912 -0.011271188 0.23842596 -0.22113007 -0.46604922
-0.8231125 -0.10086282 -0.16261844 -0.32311082 -0.06499808 0.109884776 0.05129372 0.30275837
0.13853393 -0.025184393 -0.096879154 0.4447136 -0.18403019 0.078154504 -0.1881675 0.0054194545
-0.15879485 0.0350581 0.17043349 -0.114016354 0.14735797 -0.02193221 0.46748054 -0.118711814
0.16469364 -0.11762642 0.103744805 -0.103514984 0.061526805 -0.13850872 -0.31134576 0.004998696
0.20910725 0.8504075 0.029726928 -0.11226355 0.23498444 0.3173293 -0.07045333 0.26998743
-0.2570072 -0.20187937 0.1737996 0.14114876 0.08801486 0.2714146 -0.11614027 -0.18382415
-0.23223452 0.0014227291 -0.14880343 0.111058116 0.14279185 -0.06736716 0.32447347 0.3407813
0.036701024 -0.0018865879 0.0528063 0.15068813 0.2541896 -0.07695144 -0.22943574 0.1706347
-0.021265695 -0.68495536 -0.6767911 -0.1480726 0.01601512 0.12545419 0.1699509 -0.118172
0.22095512 0.03878673 -0.01428025 -0.033453625 -0.656054 -0.31242004 -0.16125767 0.20435259
-0.03211655 0.119087875 -0.26443198 0.111053 0.13066205 0.021049857 -0.15782072 -0.14378852
0.61180896 0.3122468 0.1457958 0.29423976 0.007232872 -0.015786536 -0.2310308 0.006958917
0.12018912 0.1195253 0.031435873 0.34314635 0.042375047 0.26912585 -0.21136181 -0.17161271
-0.23031175 0.23342136 -0.1008138 0.15119922 0.16288292 0.08573592 -0.32071233 -0.019426942
0.07423547 -0.25238326 0.27101994 -0.14462784 0.23463967 0.1063788 0.22578001 -0.23102604

kp1.mlp.0.bias f4 [16]
00000000: c3cc debd 69ed 62bd 68e6 a13d 33e4 ae3c
00000010: 4b23 3f3e 373f 6b3b a199 973e d279 2a3e
00000020: 13df a13d 5233 5e3d 085b 8b3e 61a6 3cbe
00000030: 3698 17bd 991b 9bbe 29b8 35bd 254d e6bd
-0.10878899 -0.055402193 0.07905275 0.021349048 0.18665807 0.0035895833 0.29609397 0.16648033
0.07903876 0.05424816 0.2721789 -0.18422844 -0.037010394 -0.30294493 -0.044365082 -0.11245183

kp1.mlp.2.weight f4 [16, 16]
00000000: 88bd 823d e093 69be 265a 463e b6cf 50be
00000010: 0e11 343d f723 32be 3e57 e23c 7fa5 f4bd
00000020: bf3f 5c3d a385 adbd ff28 4ebe 6059 42bc
00000030: 04ad 09be c453 0d3e f525 67be 70a4 4a3e
00000040: e946 85bd fd30 7cbe ce35 423d d6e9 7a3e
00000050: bb8a a8bc a40d 173d 25ef debd 6b36 70be
00000060: d249 37be 18d1 193d 23d1 52bd 2fc6 3cbe
00000070: 4a9e 9b3b 6093 20be c30e 68be 954c 70be
00000080: 8539 46bc 1491 13be 9085 afbb b0a8 16be
00000090: c446 44be c231 863c 7797 2dbe f332 91be
000000a0: 50b1 123e 9a61 363e 8ee4 62be fd3a 89be
000000b0: f686 e0bc 1ddb dabd 8429 67be 7a76 d83c
000000c0: fea4 373e 600e ab3d ad9e afbd f208 d5bc
000000d0: b00e 50be e636 3abe b3a4 d8bd 73ce 2abe
000000e0: 7927 6dbe 0acc 7fbe 04b1 12be 672f 4bbe
000000f0: c1d9 5e3e ac40 49bc 31da 87be 4b4d 61be
00000100: e69e b23d 2fd3 ac3d b7ea aa3d 13a3 ef3d
00000110: 9b75 aabd 983e 293d 47a7 ae3d d507 34be
00000120: 5aa0 16bd d31d 543e 496b 35be c010 003e
00000130: d210 5c3d c2a0 fe3d 7d86 fdbd e788 483b
00000140: 40e7 bf3d ecef 193e a6fd ccbd 0f33 11be
00000150: 4bc4 163e d614 67bd 04e9 72be 1865 013e
00000160: 7be5 5f3d 5e94 773e 6ea9 743d 08aa 18bd
00000170: 95e3 8dbe 701e ddbd 5189 f1bc f4c6 4f3c
00000180: fc1c ac3d 3371 40be 6a8c 9dbc 5af3 ff3d
00000190: b635 cdbd 9301 b5bd 7239 abbd 7852 0e3e
000001a0: eb9f a53e 25e3 d5bc 3d4c 0dbe ece2 18be
000001b0: 3696 4fbe 1256 693e aafb d53d 030d 553d
000001c0: fc69 8fbc 14c4 bb3c 3860 653d 88a3 723c
000001d0: 93a0 b5bd 1c46 563d 66a9 993d a3ad 033d
000001e0: e5bb 293e 80ec 27be 12cd 17be cf80 7ebe
000001f0: f8cf 6cbd 1772 06bc a83b d9bb 4ba2 1bbe
00000200: 5e85 a8bd 7116 2ebe acfa 33be fd3e 973d
00000210: 8b53 86bd ac3e 2ebe 3cc7 683e 8b60 713e
00000220: c827 803e 4cbe 863e d750 043e 69e9 12be
00000230: ca51 7bbc b06f fabc bb30 33be d843 4f3e
00000240: 6211 2dbe bd84 a73c be89 633e 8653 40be
00000250: c88f ae3d 529b 7bbe 8967 1cbe 6eed 29be
00000260: 8438 dcbd 061c ddbd aa66 bc3d 0c2d 52be
00000270: e0a6 3f3e b03c e6bd 33c2 7b3e 3bfc 5f3e
00000280: fd80 8abd 20ee 7b3e 9a36 fe3d c5e0 113b
00000290: 66ec 103e fc8b 9dbd 1d71 4ebd 2f72 22be
000002a0: 7570 473d 3d71 243e fc01 3cbe 9660 343e
000002b0: 4741 d93d 87fd 84bc 5f77 2abe bb1a 5d3e
000002c0: 3865 273c e9b0 ebbd 3d8c 3dbe d07f 3bbe
000002d0: 4f90 efbb a4da d13d 6a06 3f3e a764 50be
000002e0: aa00 00bc d8c1 3d3e e6f4 c8bd 67c2 e2bd
000002f0: 4d55 83bc e6a9 10be 53ac 483e 0add 52bd
00000300: 4200 563e 52bf 27bd 89f7 02be 2fa1 d53d
00000310: 3e10 6bbe da61 58be 5c5d 6b3e bd62 723e
00000320: 5dc2 d8bc 5db4 89bd a184 e33d b612 4ebe
00000330: 722e 38bd 71dd 43be faac 653e 64e8 423c
00000340: fbb7 38be facd 48be 1c0c 133e ad16 4bbe
00000350: 629b f1bd 8a9a a9bd f929 b33d 421b f33b
00000360: 27f8 933d defa ac3c a110 40be cd35 a53d
00000370: 976d 493e 1882 51be 3206 b83d 5199 55be
00000380: ef88 06be 7d0f 5a3e 41d6 59be fb3c fc3d
00000390: 45ca 533e 78d6 cbbd af86 f33d dd46 6a3d
000003a0: 26cb 26be 7798 3cbe 1660 373c 1381 20be
000003b0: 2581 a8bd 48b0 5bbe ed6f 77bc 9a8d 38be
000003c0: 95eb 5cba 6147 2d3e f35a 63be 71e2 953d
000003d0: 935f 9cbd f6e7 a0bd 0e42 20be 221c a3bd
000003e0: 3546 02bc f551 8bbe b494 703d ae04 65bd
000003f0: 0609 153b 47d2 843a 9aba 9c3c a85d 0ebe
0.063838065 -0.22810316 0.19370326 -0.20391735 0.043961577 -0.17396532 0.027629491 -0.119456284
0.05377173 -0.08472755 -0.20132826 -0.011862129 -0.13444906 0.13801485 -0.22573073 0.1978929
-0.06507666 -0.24628063 0.047414593 0.24503264 -0.020573964 0.036878243 -0.10885457 -0.23458259
-0.17899254 0.037552923 -0.05146898 -0.18434976 0.004749094 -0.15681219 -0.22661881 -0.23466714
-0.012098675 -0.14410812 -0.005356498 -0.14712787 -0.1916762 0.016381148 -0.1695231 -0.28359184
0.14325452 0.1781067 -0.22157499 -0.26802817 -0.027408104 -0.10686324 -0.2257443 0.026423682
0.17934033 0.08352351 -0.08575187 -0.026005242 -0.20318103 -0.18185005 -0.10578289 -0.16680317
-0.23159589 -0.24980178 -0.14325339 -0.19842301 0.21762754 -0.012283485 -0.26533654 -0.22002141
0.08721714 0.084387176 0.083455496 0.11701026 -0.08323213 0.04131946 0.08527999 -0.17581113
-0.036774017 0.20714502 -0.17716707 0.1250639 0.05372698 0.12433006 -0.12379167 0.0030599178
0.09370279 0.15032929 -0.10009317 -0.14179634 0.14723317 -0.056416355 -0.23721701 0.1263622
0.05466221 0.24177691 0.059731893 -0.03727153 -0.27712694 -0.10796821 -0.029484423 0.012681711
0.08403966 -0.18793182 -0.019231994 0.124975875 -0.1002001 -0.08838191 -0.08360566 0.13898647
0.3234857 -0.026109288 -0.13798614 -0.14930314 -0.20272145 0.2278674 0.10448392 0.052014362
-0.017506592 0.022920646 0.055999964 0.014809497 -0.08868518 0.052312955 0.07503013 0.032148015
0.16575582 -0.16398811 -0.14824322 -0.24853824 -0.057815522 -0.008205912 -0.006629426 -0.15198629
-0.08228563 -0.17000748 -0.17576092 0.07385061 -0.06558903 -0.17016095 0.22732252 0.23571984
0.2503035 0.2631706 0.12921463 -0.14346851 -0.015339324 -0.030570835 -0.17499058 0.20240724
-0.16901162 0.020449037 0.22220513 -0.18781862 0.08523518 -0.24570969 -0.1527387 -0.16594478
-0.10752967 -0.10796361 0.09199269 -0.20524997 0.18716002 -0.11242044 0.245858 0.21873562
-0.06762884 0.24602556 0.12412758 0.0022259217 0.14152679 -0.076927155 -0.050400842 -0.1586387
0.04869123 0.16058822 -0.18360132 0.1761497 0.10608154 -0.016234173 -0.16647099 0.21592228
0.0102170035 -0.11508352 -0.18510528 -0.18310475 -0.007310904 0.102467805 0.1865479 -0.20350896
-0.007812658 0.18530977 -0.09812336 -0.110722356 -0.016031886 -0.14127311 0.19596986 -0.05148033
0.20898536 -0.04095394 -0.1278974 0.10431134 -0.22955415 -0.21131077 0.22984833 0.23670478
-0.026459867 -0.06723855 0.11109281 -0.20124325 -0.04496617 -0.19127442 0.22429267 0.011896227
-0.18038933 -0.19609824 0.14360088 -0.19832869 -0.11797215 -0.08281429 0.0874824 0.007419021
0.07225066 0.021115717 -0.18756343 0.08066902 0.19670711 -0.20459783 0.08985557 -0.20859267
-0.13138174 0.21294971 -0.21273138 0.123163186 0.20682628 -0.09953016 0.11890923 0.057196487
-0.16288432 -0.18417536 0.011192342 -0.15674238 -0.08227757 -0.21453965 -0.015102369 -0.18022767
-0.00084274384 0.1692176 -0.22202663 0.07318581 -0.07635417 -0.07856743 -0.15650198 -0.0796435
-0.007951309 -0.27210966 0.058735564 -0.055912666 0.0022740974 0.0010133468 0.019131947 -0.13902915

kp1.mlp.2.bias f4 [16]
00000000: a925 18bd 7561 84be 6bc7 cdbd 2810 14bc
00000010: be81 a7bd cfea b83d 819d 803e 3cb4 aabd
00000020: 7b9a 1b3e 4cf1 1d3e 00ce adbb b9ee 87be
00000030: 3933 4f3e 999f 293e 0b24 153e 03af de3d
-0.03714529 -0.25855604 -0.100478016 -0.009037055 -0.08179043 0.09029161 0.25120166 -0.08335158
0.15195648 0.15424079 -0.005304098 -0.26549318 0.20234384 0.16564788 0.1456453 0.108732246

kp2.mlp.0.weight f4 [32, 19]
00000000: 5778 5abf 0ca0 ae3f 5bdd fcbe a06c b8bd
00000010: eb56 9b3c be3f 43be f243 1d3e 27ae 17be
00000020: c93e 493e 01fb 103e 6ea1 67bb a8ba 653d
00000030: c441 3ebe 4fd2 153e 37ce 3ebe fed2 cd3b
00000040: def3 92bd 79f6 cf3d 8c7e 5ebe 9653 373f
00000050: 405a a4bf 3a26 c93e ce81 03be ffce 5cbe
00000060: 8bd0 23bd fc28 78be 87e1 4bbe dba7 58bd
00000070: d4bb a9bd 6de2 a9bd fcdd 3c3e 53bd 5d3e
00000080: 1720 da3d f78c 2c3e 16d7 11bd c62d 293e
00000090: 6fc0 c6bd 1705 923c 6a18 63bf 5463 ccbd
000000a0: a5d5 e3be 652a 15be 91df d8bd 2e5a 4dbb
000000b0: e32c 783d c44e e63d 1658 093b b481 87bd
000000c0: 3c3f bfbc 5180 a7bd 2308 be3b e405 45be
000000d0: 4ee4 3dbd 3582 df3d 3ded 27bd 6df2 2f3d
000000e0: cbf3 c73d 2b13 003f 0e66 833f 6d38 e73d
000000f0: bff6 a43c 72f0 1cbe 1ddb 3c3e 1e66 74be
00000100: 82da ff3c eb69 013e 3664 0f3e 83f4 0ebe
00000110: c302 763b 0e27 65bd 00d6 9abd aed6 59be
00000120: 8b6a 03be 6fe8 7d3d 4b2c b1bd 08dc 2b3c
00000130: 270b d8bd af03 8e3f aa01 a13e 924e 2c3d
00000140: d8ec 243d 64c3 bcbd e925 323d 1ef1 a4bd
00000150: 1b1b 8d3d 6e4c 85bc b7dc 943c 7761 6d3e
00000160: d7e4 813d b2d4 563d 52c7 e23c fd59 853e
00000170: c60c 523e 1b48 41bd f02b 013e 41c7 d13d
00000180: cb5e 05be 21e0 02be 555f 5e3e 096c 7d3e
00000190: 6d00 52be bbcc 14be 96d3 b53d bb26 4dbe
000001a0: 9b6e 373e 4899 423e 0ecc f5bd 701b 4d3d
000001b0: 870e da3d ae3a edbd 62cd 60be 4e29 3f3e
000001c0: b59e 14be fd1c b7bd 9375 3a3f a7aa 7c3f
000001d0: a71f bdbe 684b bebd 7899 fbbd 20a3 c0bd
000001e0: 66fa 3d3e c6c9 38be ec7d a9bd e37c 043e
000001f0: 7b51 1e3d 9099 97bd 5b6c 803d a360 c33c
00000200: 4cdd 35bd 9301 673e 97e0 3c3c 7d8c aa3d
00000210: 47fc 283d 8b08 0abe 0fa7 883f aed8 43bd
00000220: f250 7e3d 0d4d 2ebe 4d24 4cbe 2713 bcbd
00000230: 3a32 bcbb a171 663d e6d6 0dbe 52ed a8bd
00000240: d690 d8bd 001b af3d 7a38 14bd 1f0a 4c3e
00000250: cb0f 0cba 8ed0 09be 0bd0 7fbd e56b babd
00000260: 8103 753f 3383 933d 52f5 c73e 621f 183e
00000270: e164 afbc 8f84 01be 59b0 463e 4513 16be
00000280: ee1b b9bd a1d5 953e 22a8 55bd 56aa 173e
00000290: 546a 5e3e ef45 0a3e a61b 2bbd cca9 3abe
000002a0: 7459 4b3e 4afb 71be 4496 c8bd 34b5 623f
000002b0: 5ab8 a23f 74b4 7dbd 81ae 08be 6275 8fbd
000002c0: 5142 603e 7eae 05be 2219 4a3e 156c 33bd
000002d0: 0fc9 393c 60b9 e73c 5fe4 4cbd 19fe 12bd
000002e0: 880c 1f3e 2177 05bd 6c40 883d 902e 573e
000002f0: aeb6 8bbd 77b6 0dbd db8f 35be 9a34 383e
00000300: db52 58bd daa0 533e 6606 2f3e 9c05 ce3d
00000310: 6cec 143d a18f e5bd b136 0a3e 2df5 74be
00000320: 3d72 623e dfa6 133e 4f52 c9bd 8fe8 0bbe
00000330: a461 37be e6e6 183d 6c61 3bbd 4278 f73c
00000340: b783 45bb b900 02bf 95fe 7d3f 5768 71be
00000350: d1cc 483d 6d25 01be 030d f73c f4e2 0abd
00000360: 6b3d 173d f79d e03d c238 2d3e 29fe 06be
00000370: eed3 1c3d 2196 c43d c61f f3bd 8c5a 14be
00000380: a303 18be aa89 a0bd b714 523e 9d60 4c3e
00000390: e678 70bf fd06 88bf 4a96 94be 668e ddbd
000003a0: 0a30 afbd b0da 213e f562 92bd 32d1 9f3d
000003b0: 7ce0 8f3d 06aa 4b3d 4f97 273d d254 afbd
000003c0: 1995 34be 060e 013e ec0a 993d fc10 063d
000003d0: 6e8d 29bd 7420 b4bd 960b 7dbd c178 7c3f
000003e0: 93b3 c0bf 665c 633e f2db 393d bee4 c23d
000003f0: c715 6dbe 7659 4ebe 2de0 e13d 58be acbc
-0.85339874 1.3642592 -0.4938763 -0.090050936 0.018962344 -0.19067284 0.1535795 -0.14812528
0.19652857 0.1415825 -0.0035344022 0.056086212 -0.18579775 0.14631008 -0.18633352 0.0062812557
-0.0717542 0.10154433 -0.21727961 0.71611917 -1.2840042 0.39286977 -0.12842485 -0.21563338
-0.039993804 -0.24234384 -0.1991025 -0.052894454 -0.082877785 -0.082951404 0.18444055 0.21654253
0.10650652 0.16850649 -0.035605513 0.16521367 -0.097046725 0.017824693 -0.8870913 -0.09979883
-0.44498935 -0.14566953 -0.10589517 -0.003133427 0.060589682 0.11245492 0.0020957044 -0.06616536
-0.023345582 -0.08178771 0.00579931 -0.19240528 -0.046360306 0.10913507 -0.040997732 0.042955805
0.09763297 0.5002925 1.026552 0.11290059 0.020137189 -0.15326098 0.1844296 -0.2386708
0.031232122 0.12638061 0.14003071 -0.13960461 0.0037538267 -0.05594545 -0.075603485 -0.212733
-0.12833612 0.061989244 -0.08651026 0.010489471 -0.10549002 1.1094874 0.31446582 0.042067118
0.040264934 -0.09216955 0.043493185 -0.08053802 0.068899356 -0.016271796 0.018171651 0.23181711
0.06342476 0.052448936 0.027682934 0.26045218 0.20512685 -0.047187906 0.12614417 0.10243083
-0.13024442 -0.12780811 0.21716054 0.24748243 -0.20507975 -0.14531223 0.088782474 -0.20034306
0.17913286 0.19003785 -0.12001811 0.050074995 0.10647302 -0.11583458 -0.21953347 0.186681
-0.14513667 -0.08941076 0.72835654 0.98697895 -0.3693821 -0.09291726 -0.12285131 -0.094061136
0.1855255 -0.1804572 -0.08275971 0.12938266 0.038651925 -0.074023366 0.06270667 0.02384979
-0.0444005 0.22559194 0.011528156 0.08327577 0.041256215 -0.13479821 1.0675982 -0.047814064
0.062088914 -0.1702158 -0.19935723 -0.091833405 -0.005743292 0.05626071 -0.13851508 -0.0824839
-0.105745 0.08550072 -0.036186673 0.19925736 -0.00053429295 -0.13458464 -0.062454265 -0.091026105
0.9570847 0.07202759 0.39054352 0.14855722 -0.021410407 -0.12648223 0.19403209 -0.14655788
-0.0903853 0.29264548 -0.052162297 0.14811072 0.21720248 0.1350324 -0.041774414 -0.18228835
0.19858342 -0.23631015 -0.09794286 0.88557744 1.271251 -0.06193967 -0.13347818 -0.07004811
0.21900298 -0.13054845 0.1973615 -0.043804247 0.01133944 0.028286636 -0.05002248 -0.035886858
0.15532124 -0.032584313 0.066529125 0.21013856 -0.06821953 -0.03459784 -0.17730658 0.17988816
-0.052813392 0.20666829 0.17092285 0.10059664 0.036358282 -0.11209036 0.13497426 -0.23921652
0.22113891 0.14419125 -0.09830152 -0.13662933 -0.1790834 0.037329577 -0.045747206 0.03020871
-0.0030138323 -0.5078235 0.99216586 -0.23574959 0.049023453 -0.12611933 0.030157572 -0.033907846
0.036923807 0.109676294 0.16916183 -0.13182892 0.03828805 0.09598947 -0.11871295 -0.14487666
-0.14845137 -0.07838757 0.20515715 0.1995873 -0.93934476 -1.0627133 -0.2902091 -0.10818176
-0.085540846 0.15806079 -0.07147781 0.07803573 0.07025239 0.049722694 0.040915783 -0.085611
-0.17635001 0.12603006 0.07472786 0.03273104 -0.041394643 -0.087952524 -0.061778627 0.98621756
-1.5054802 0.22203216 0.04537577 0.09516285 -0.23152839 -0.20151314 0.11029086 -0.021086857

kp2.mlp.0.bias f4 [32]
00000000: 07cb abbb 0836 14be 6a76 643e 9db6 4f3d
00000010: 3b17 acbd 5893 33be 97b2 663e 92d8 a03d
00000020: 1502 553e 46db 203d 92d3 eb3a 329f 58bd
00000030: cfad 343e 6d95 423d 8a6a 773e 8760 fd3c
00000040: 3390 933e dd11 2b3e 6e28 263e 77fd d0bb
00000050: 59d3 e93d de68 443d 27c3 a8bc 14ef 5b3e
00000060: 8365 a63d 01f7 ae3d 1508 5bbe b369 3e3e
00000070: 3be7 993d 1ae8 993d 6da3 63be 59aa e23c
-0.0052427086 -0.14473736 0.22310796 0.050711263 -0.08402868 -0.17536676 0.22529064 0.078538075
0.20801575 0.039271615 0.001799213 -0.052886195 0.17644428 0.047505785 0.24161735 0.030929817
0.28820953 0.16706033 0.1622636 -0.0063778716 0.114172645 0.04795157 -0.020600868 0.2147792
0.081248306 0.08543206 -0.21389802 0.18595009 0.07514807 0.07514973 -0.2223031 0.027669119

kp2.mlp.2.weight f4 [32, 32]
00000000: 9711 003d 00b7 a5ba 3c53 3bbe b474 07be
00000010: 5680 c7bc 41a7 9fbd 891a ee3d 2e6f 243e
00000020: dae4 39be c0be 1f3d b94a f03d babb bfbd
00000030: f874 36bd 8312 8c3d c186 933d 08f5 0d3b
00000040: 9283 e0bd 79fa b33d 6a98 ee3d ee92 a73d
00000050: dc58 bc3c df9f 1fbd f505 ee3c 6e36 e7bc
00000060: 987f 46be e5de debd 8538 19be bb0c 533c
00000070: 35d6 13bd c2cd ad3d 2266 72bd d716 15be
00000080: 4fec 133e e770 6f3d 9982 80bd d160 95bd
00000090: f62f 713e 1953 c3bd a0bc e23d 05aa 0b3e
000000a0: 6396 1d3e 8188 8e3d ae8f f6bd 522e 853d
000000b0: cba9 58be 03a0 babd 45c2 423e c130 86be
000000c0: a929 1b3e 825e 453e c55c 8abd 3896 cfbd
000000d0: 318b cfbd 4695 70be 09bc 353e 10d1 a1bd
000000e0: c28d 703d 0461 293e 8b0b 0e3e 5022 853d
000000f0: 6815 8e3d a75d 663d cf5b 11be 8d62 3fbe
00000100: 3651 35be 3a83 eebc b8f6 57bd 06be 563e
00000110: 9142 313d b2d7 a0bd bb47 1d3e 993b 9f3d
00000120: 6cf0 043e 02da 523e 0ab7 37bd 6ef7 b8bd
00000130: 3829 8fbe bce6 c8bd 5ba3 d03d c32c bdbd
00000140: 73c8 113e 032a 093d 4390 8e3d 13b9 0dbd
00000150: 7412 5fbd 4022 83be f59b ed3d 625e 573d
00000160: cd22 943d b346 afbd 6a0b b7bd 484e 10be
00000170: f9f5 c03c 665a 95be 77d6 2d3d 4a27 7ebe
00000180: 63ee 9abd 42c1 1c3e 52ac 8cbd 6e48 b13d
00000190: 7735 b3bd bb59 443e 6eed 48bb 38a5 2cbe
000001a0: 7698 3d3e 933d 94bd ea14 4f3d 8e87 0cbe
000001b0: b322 1c3e e7f3 953e 720b 3b3e 93a6 873e
000001c0: ad33 793d ceba afbc 5d06 253e 251c f83d
000001d0: 136f 0cbe d71b 713e d945 9e3e 8b40 ad3c
000001e0: c0f8 c03d 22ac 043e 8c24 d0bd e679 a73d
000001f0: 6c3c 60bd 2557 233e 43b7 22be 7566 1ebd
00000200: 8efb 973d ceca 86bb a4b9 b1bd 9266 543e
00000210: 1934 173e 2178 0bbe 2c3e e83d 433a de3d
00000220: a847 143e 8b4d 8e3e 7a91 6bbd 488e ad3d
00000230: edd7 c0bd 56f0 df3d 7add eabc a85e e6bc
00000240: 800a 213e 8023 5b3e 05bc 6ebd d516 023e
00000250: 2c1e 153e 575c 7fbe f3dc e83d 8dc0 1a3d
00000260: d175 463e df43 b0bc e2ca 8bbd b0d6 e2bc
00000270: 358d 7ebd 456f 53be 2a0f 19be 0c26 993c
00000280: c6c9 16be 7685 58be be35 bcba 9c1a 113e
00000290: 4b0e 52bc 6f72 07be f3c9 283e d888 46bd
000002a0: 2191 2a3e 82f6 1b3e 5126 06be f8ec f2bd
000002b0: a84a 40be 7c19 59bc 60fa 243e b8a1 5b3d
000002c0: 5cce d53d 0718 633d 9d35 1abe 1a71 0abe
000002d0: 4cca f53d d1f9 05be a63e 773d e111 0c3e
000002e0: 5766 12bd b8c2 43ba 8a16 00bd 9ec1 02be
000002f0: ca1d 65be 8250 83be 2bbf 333d c4bd c6bd
00000300: 6491 cfbd 4453 48bd e525 3d3d 3469 f83d
00000310: 8115 cbbc 284d e23d 4315 abbc 8e9c e93d
00000320: 8632 70bd b027 b23d 340e 173e 12b8 853d
00000330: ef00 30be fce4 ab3c 9f0c e4bd 605b dabd
00000340: c13c 943c d6c8 3c3d 9cbb b8bd cdf7 00be
00000350: f323 23be 7057 da3d 9074 2dbe ca5e 9b3d
00000360: 4ccb 22be 5821 8bbc eea9 9f3d 17c8 09be
00000370: a5b8 3dbc ce78 adbd 6247 e1bd 7087 8b3d
00000380: 7d12 7b3e 20f8 febd c78a c13c 05d1 cdbd
00000390: 75aa 533e c4fe 563d 306e 093e 1deb 5d3d
000003a0: 559a edbd 9f8c 8e3c cd8b 43bc aad7 083e
000003b0: 6638 4abe 0a52 5abe 607c c93c c564 19be
000003c0: 535b 3e3e 60fd 353e 9df8 ec3d 22a1 07be
000003d0: c269 9c3d 5c04 e33d 6316 053d 879a 0c3e
000003e0: f4ad 1a3e 429c fe3c 0c26 7e3d 2831 11be
000003f0: 967c 0bbe 8e05 a53d 126a fa3d 13f8 a0bd
0.031266775 -0.0012643039 -0.1829347 -0.13228112 -0.024353188 -0.07795573 0.11626155 0.16058037
-0.18153706 0.039000273 0.11733002 -0.09361978 -0.044545144 0.06839468 0.07203437 0.0021660943
-0.10962595 0.08788008 0.116501644 0.081823215 0.02299159 -0.038970824 0.029055575 -0.028224196
-0.1938461 -0.108823575 -0.14962967 0.012881453 -0.036092956 0.08486511 -0.059179433 -0.14559494
0.14445613 0.05845728 -0.062749095 -0.07293857 0.23553452 -0.09537334 0.110711336 0.13639076
0.15389399 0.0695963 -0.120391235 0.065029755 -0.21158521 -0.09112551 0.1901942 -0.2620907
0.15152611 0.19274333 -0.06755976 -0.10136074 -0.101339705 -0.23494443 0.17747511 -0.07901204
0.05872894 0.16540915 0.13871591 0.06500685 0.06937677 0.056241658 -0.14195178 -0.18689938
-0.17706761 -0.029115308 -0.052725524 0.20970926 0.043276373 -0.078536406 0.15359394 0.07775039
0.12982339 0.20590976 -0.044852294 -0.090315685 -0.27961135 -0.09809634 0.101874076 -0.09237053
0.14236622 0.03348733 0.069611095 -0.03460033 -0.054460958 -0.25612068 0.11602012 0.052580245
0.072332 -0.08558407 -0.08937724 -0.14092362 0.023554789 -0.2917053 0.042440858 -0.24819675
-0.07565 0.15308097 -0.06868805 0.08656393 -0.08750432 0.19174854 -0.0030659097 -0.16859901
0.1851519 -0.07238307 0.050557055 -0.13723585 0.15247612 0.29287645 0.18266085 0.26494274
0.060840297 -0.02145138 0.16115709 0.12114743 -0.13714246 0.23545776 0.30912665 0.02114894
0.09422445 0.12956288 -0.10163221 0.08177547 -0.054745123 0.15951212 -0.15890221 -0.03867193
0.07421027 -0.0041135317 -0.08677986 0.20742252 0.14765967 -0.13620044 0.11339983 0.10850956
0.1448046 0.27793536 -0.057511784 0.084744036 -0.094161846 0.10934512 -0.028670061 -0.028121307
0.15726662 0.21400261 -0.05828478 0.12704022 0.14562291 -0.24937569 0.11370268 0.037781287
0.19380881 -0.021516738 -0.06825806 -0.027690262 -0.062146384 -0.20647915 -0.14947191 0.0186949
-0.14725408 -0.21144661 -0.0014359278 0.14170307 -0.0128207905 -0.13227247 0.16483288 -0.048470348
0.16656925 0.15230754 -0.13100554 -0.118616045 -0.18778479 -0.013250705 0.16111135 0.053621024
0.104397506 0.055442836 -0.15059514 -0.13519707 0.12001476 -0.13083579 0.06036248 0.13678695
-0.03574213 -0.0007467675 -0.031271495 -0.12769172 -0.22374645 -0.2564736 0.043883484 -0.09704164
-0.10135153 -0.048907533 0.046178717 0.12129441 -0.024790527 0.11049873 -0.020884162 0.114068136
-0.058641933 0.08698976 0.14751512 0.06529249 -0.17187856 0.020983212 -0.1113522 -0.1066196
0.018095376 0.04608997 -0.09020159 -0.12594528 -0.15931682 0.10661209 -0.16938996 0.07586439
-0.15897864 -0.016983673 0.077960834 -0.13455234 -0.011579667 -0.08470307 -0.10999943 0.06812942
0.24518771 -0.1244967 0.023625745 -0.10049633 0.20670493 0.052489057 0.1342094 0.0541793
-0.11601702 0.017401038 -0.011935187 0.1336352 -0.19748077 -0.21320358 0.02459544 -0.14979847
0.18589525 0.17772436 0.11570857 -0.13245061 0.07637359 0.11084816 0.032492053 0.13730823
0.1510542 0.031080369 0.062048003 -0.14178908 -0.13621745 0.080577 0.122272626 -0.078598164

kp2.mlp.2.bias f4 [32]
00000000: 3c81 5cbe c211 833d 51cc 04be e8b9 f5bc
00000010: 9fa0 173e f6a4 b9bd 7c39 abbd 0f46 e73d
00000020: 7e05 0f3e 87bb b53c 7a5b d7bc 22ba 793d
00000030: 56f0 653d 6c33 ad3d 70ea 19be 0366 4f3e
00000040: e457 df3d 0fb0 233d 9647 cabd 52b3 e93c
00000050: 6d50 023d 7b62 37be 4525 9cbd cf61 bebd
00000060: e493 0abe 3856 21be debf 743a 9096 0d3e
00000070: 480b 12be cf39 033e 9a4e 963d 02b9 9d3d
-0.21533674 0.063998714 -0.12968566 -0.029995874 0.14807366 -0.09064667 -0.08360574 0.112926595
0.13966939 0.022184147 -0.026288737 0.060968526 0.056137405 0.084570736 -0.15030837 0.20253758
0.10905436 0.039962824 -0.09876935 0.02852789 0.03181498 -0.17908661 -0.07624296 -0.09295999
-0.13532978 -0.15755546 0.0009336452 0.13826966 -0.14262116 0.12815021 0.07339211 0.07701303

head.0.weight f4 [32, 32]
00000000: 29ea 74bd 8cc8 e53d 9861 17be ade5 053e
00000010: 2958 c83d 109c fb3d cc15 20bd b68a c2bd
00000020: 6886 113e db2f 223e 702c 59bd 55c7 293e
00000030: e525 313c 428e 1d3b f8ac 3bbd 7b4a 4b3d
00000040: fd90 b13d 9e80 9f3d 8702 67b9 5040 313c
00000050: 7947 b93d 47cf 68bd 8b64 50bd fa73 323e
00000060: 6eb6 3cbd a8c2 e93d e87a 173e 7162 e0bd
00000070: 4a53 1dbe 8aea ce3d 927d 10be 7860 07be
00000080: 12f6 b03d 238b b8bd a269 bfba 518a 193d
00000090: 9d57 af3c f7f6 663d 08a8 13be 3ab9 103c
000000a0: 58d0 0d3e 9df3 8d3d 4884 25bd 5d7c 8e3c
000000b0: a8da 04be f2a5 82bd c7fd 8fbd 4c74 413d
000000c0: 3274 113e 8fee 8bbd 8e01 30bd 6cf7 25bc
000000d0: 6f3b 0d3e 95c3 a13c 1a14 88bd b9a6 8c3d
000000e0: 4b9b 29be 02e7 393e 1634 9cbd 0b3d 413d
000000f0: 7612 cabd 52b3 ccbc a33e 1ebe 328a 1dbe
00000100: 9129 fcbd c72d 323e 3f24 713e 221a 4f3e
00000110: 7a8e 3c3e 1265 c03b c94b 89bd 30d4 8d3d
00000120: c99c 6bbd 5c0a a23d a9ad 243e a152 00be
00000130: c912 373d 5850 473e 9b75 193e a1ed 8e3d
00000140: 1488 9f3e 2f14 743d 26bd 6b3e b1e2 7abd
00000150: 7f48 af3d 9367 d7bd 763b 81bd 8c9b 523d
00000160: cea5 1abe 7da5 a73c a2d6 1f3e 461f 113e
00000170: 5666 393d 1bdb 173e 3000 d33c 1088 d73d
00000180: cb51 2b3e 965a 0c3e 811e 5f3d 2cb1 183e
00000190: 21e8 1c3d bb8e e53d 6f5c ec3d 40df 40be
000001a0: fa62 b4bd 2d2a c13d 88ad b23d 625d 19bd
000001b0: 952a e2bc 6ee4 f0bd ede6 0e3d e08d 26be
000001c0: 792b 433c eff5 ec3d 57ec 523d 14d3 45bc
000001d0: 7b69 08be 0dba c23c c038 013e adeb c03d
000001e0: b52f 06be f411 3c3e 3ac5 2e3e 75b0 0fbe
000001f0: 522d 6f3d d69d 043e ff3e a13d 631b e5bc
00000200: 0da1 143e 39bb 2c3d 805d 643d 1382 a9bd
00000210: 1193 b6bb 045c 5c3b a650 83bd 4842 bd3d
00000220: a1d5 5e3d 47a8 583d ba93 d5bd cf90 12bd
00000230: c345 15be 573d 113e 8025 c03d 8fa4 343d
00000240: 0987 c43d dac2 50be 2e22 8cbd 1af5 c8bd
00000250: 218c 343e 71f6 043e 380c a63d 70b8 103e
00000260: 0235 dfbd 731c 58bd 7f82 2f3e 12ef f3bd
00000270: 3bf2 f43d efa8 41be 3fca 873d 51a0 0fbe
00000280: fd4e 22be 1101 5e3c 9171 2c3e 22fc 5c3e
00000290: 835d d33d db1e 043e 332d 05be b484 8e3d
000002a0: 49f3 29bd 11a9 14be 82bb ce3d 2f19 82bc
000002b0: 544e 173e cfc4 67bd acf0 303d 94b0 483c
000002c0: f98a 0e3e a789 253d 4248 4a3e 73ea 703d
000002d0: d03b 39be 7569 debc 196a 13bd a8e9 04bc
000002e0: 38b4 6fbd 36ae 9e3c 63ac 63bd 9598 633e
000002f0: 56fb 6fbd 67ae a8bd 1edb 3ebd 816d 523e
00000300: e605 933d 5b34 df3d 569b c63c 1c85 c0bb
00000310: 120c 733d 5514 88bd 31f6 d6bd f7b5 773b
00000320: 8f8d 0dbe fdc5 b83d a123 40be c75a dc3d
00000330: cac8 f1bd 9396 25be a2a6 03be ee40 5c3d
00000340: 53e1 e73c 7b60 0cbe 401f 0dbe 6280 abbd
00000350: 4a60 b83d 43bb 203e e36a 3e3e 6ebc 23be
00000360: f81c 96bd 72c5 58bd ea3d d3bd 86fa 86bd
00000370: 7686 a83b e4ce 46bd c2c6 b9bc f2bc cd3d
00000380: 3caf 46be adb9 4cbd 4294 6ebd bf1e 783d
00000390: be23 073e d6e2 5b3e d591 b03c a0d6 ba3d
000003a0: e7aa 853d 9004 04bd bb4e c5bd f05d 233e
000003b0: 5bb8 4e3e 02d5 893d 4f5c d8bc e080 2e3e
000003c0: 4a6c 4c3e 2718 babb 04da 0e3e e563 a73d
000003d0: 3249 31be 7a55 a7bd f6a5 38be d107 a3bd
000003e0: 2fb7 f2bd 52cc b4bd b4ba 30be b73e ff3d
000003f0: 87bf 253e 6a21 033d 292d 8a3e 9d14 1fbd
-0.059793625 0.11219892 -0.14783323 0.13075896 0.0978244 0.12285626 -0.039083287 -0.09499113
0.14211428 0.15838568 -0.053020895 0.16579945 0.010812257 0.002404109 -0.045819253 0.049631577
0.086702324 0.07788204 -0.00022030818 0.010818556 0.090468355 -0.0568383 -0.050877135 0.17427054
-0.046072416 0.11414081 0.14792979 -0.10956276 -0.15363804 0.101033285 -0.14110401 -0.13220394
0.08640684 -0.09010913 -0.0014603625 0.037485424 0.021404082 0.056387868 -0.14419568 0.008833224
0.13849008 0.06931231 -0.040409356 0.017393285 -0.12974036 -0.06379308 -0.07030826 0.04723005
0.14204481 -0.06832611 -0.042970233 -0.010129791 0.13792203 0.019746581 -0.06644459 0.06867737
-0.16563146 0.18154529 -0.07627122 0.047177356 -0.098668024 -0.02498785 -0.15453582 -0.15384749
-0.12312616 0.17400275 0.23548983 0.20224813 0.18413725 0.0058714235 -0.06703908 0.06925237
-0.05752257 0.07912132 0.16081871 -0.1253152 0.04469565 0.19464242 0.14986269 0.06978918
0.31158507 0.05958956 0.23021373 -0.061251346 0.085587494 -0.10517802 -0.063101694 0.051417872
-0.15102312 0.020464653 0.1560922 0.14172086 0.04526361 0.14829676 0.025756925 0.10523999
0.1673042 0.13706431 0.05447245 0.14911336 0.038307313 0.11208864 0.11541068 -0.18835163
-0.08807941 0.094318725 0.08724505 -0.037442572 -0.027608195 -0.117623195 0.034888197 -0.16265059
0.01191222 0.115703456 0.051494922 -0.012074251 -0.13321488 0.023770357 0.12619305 0.094199516
-0.13104136 0.18366224 0.17067423 -0.14032157 0.05839283 0.12950835 0.07873344 -0.02796716
0.14514561 0.042170737 0.05575323 -0.08276763 -0.005571731 0.0033624182 -0.06411867 0.09241158
0.05440295 0.052894857 -0.10428567 -0.03578263 -0.14577393 0.14183556 0.093821526 0.044102248
0.095960684 -0.2038683 -0.06842457 -0.098123744 0.1763158 0.12984635 0.08107799 0.14132857
-0.10898782 -0.052761506 0.17139624 -0.119108334 0.11960264 -0.189121 0.06630372 -0.14026
-0.15850444 0.013550059 0.16840197 0.21580556 0.1032057 0.12902395 -0.13005523 0.06958905
-0.04149178 -0.14517619 0.10094358 -0.01588115 0.14775974 -0.056584176 0.043198273 0.012249131
0.13920201 0.04041448 0.19754127 0.05881734 -0.18089223 -0.027149895 -0.035989854 -0.008112349
-0.05852148 0.01937018 -0.055584323 0.22226174 -0.058589302 -0.082363896 -0.046595685 0.20549585
0.071788594 0.10898658 0.024243992 -0.005875243 0.059337683 -0.06644503 -0.10496176 0.0037797668
-0.13823532 0.09022138 -0.18763591 0.10759502 -0.118058756 -0.16170721 -0.12856534 0.05377286
0.028305685 -0.1370868 -0.13781452 -0.083740965 0.09002741 0.15696435 0.18595462 -0.15989849
-0.07329744 -0.052922674 -0.103145435 -0.06590752 0.005142982 -0.04853715 -0.022677783 0.10045804
-0.19402784 -0.04998176 -0.05824686 0.060576197 0.13197228 0.2147325 0.021553913 0.09122968
0.06526738 -0.032230914 -0.09634157 0.15953803 0.20187514 0.06730081 -0.026411204 0.1704135
0.19963184 -0.0056791487 0.13950354 0.0817335 -0.17313078 -0.081706 -0.18032059 -0.07960475
-0.11851346 -0.088280335 -0.17258722 0.12463134 0.16186343 0.032014288 0.2698758 -0.038838018

head.0.bias f4 [32]
00000000: ada4 f6bd ebcc e83a c9cc 023e d1db d63d
00000010: 7dbf b83d 06c2 813e c76f 4abd c269 e63d
00000020: de81 283e ab33 b0bd 039d fdbc 1985 2f3e
00000030: 8288 093e 7051 92bd 0f3d 6b3d a4c6 d43d
00000040: f70d 483e d940 6ebd d4d0 08be 93d7 27bd
00000050: 19ab 16bd 0701 27be 4c88 41be 88f2 013c
00000060: 8be9 08be 0036 5c3e 67f5 81bd 9edd 49bd
00000070: a7cf 2dbc 6e80 353c 98f9 b2bd 7796 e9bc
-0.12043128 0.0017761266 0.12773432 0.104911454 0.090208985 0.2534334 -0.049423005 0.112506405
0.1645579 -0.08603605 -0.030958658 0.17140616 0.1343098 -0.07144439 0.057431277 0.1038945
0.19536577 -0.058167312 -0.13360912 -0.040977072 -0.036784265 -0.16308986 -0.1889965 0.007931359
-0.1337034 0.21504974 -0.06345635 -0.049283616 -0.01060859 0.011077983 -0.087390125 -0.02851413

head.2.weight f4 [3, 32]
00000000: 40a8 d9bd 8670 9f3c 2231 183e 99d9 0cbe
00000010: 2d69 f6bd e47f d6bc 54ae 8fbd d562 ae3d
00000020: 0616 443e 4df2 253e c6fe 84bd 1a65 8c3d
00000030: 49ef 243e 9f53 95bd 9095 06be bf33 643e
00000040: 0e42 533e 1b53 1abe b1d8 08be 00d8 7cbd
00000050: 2c16 183e bbbc 24bc fa25 26bd a6f3 4d3e
00000060: a599 0b3e 095a cf3d cd4a 61bd 46d7 34be
00000070: 9b93 bfbd a466 b83b 5006 783d fa5d 363e
00000080: 5065 b8bc 087a 6837 5fe5 10be 1535 e13c
00000090: bba8 353c d479 52be 03c1 10be 4217 e8bd
000000a0: c2c5 5bbd 9001 25be 7fe1 1d3e 86d8 17bd
000000b0: ac0f 5bbd ea1b d5bb 2fc2 ba3d ae70 2ebe
000000c0: 9520 19be e3ad 263e f90a c3bd 0039 293e
000000d0: 5bb8 9bbe e30e 2e3e 5479 8abc 503a a4be
000000e0: 47a0 fb3d 5616 6ebe aa84 9d3d f36e 6cbd
000000f0: 059f 52be e98e 63bd feea 013e 3f2d 35be
00000100: b397 2bbe efed 223e 001c f3bd 3652 223d
00000110: 2e0a e0bd a20e 92bd 0473 b23c 6bef fb3b
00000120: be75 bdbd eb99 93bd 2008 72bd b821 06be
00000130: f329 19bd 0354 ba3d 440e 25be 075f ed3d
00000140: 1a20 d63b 9482 42bc 7145 63bd e658 d53d
00000150: cbd6 2abe 46f3 f33c 7248 5b3d b525 153b
00000160: 3426 073e 038b a8bc fb58 183e 8ecf 253d
00000170: d34e d6bd 54cb 2bbd 130c be3d 799d 163e
-0.10627794 0.019462835 0.14862493 -0.13754882 -0.120317794 -0.02618403 -0.07015672 0.085149445
0.19149026 0.16205712 -0.06493907 0.06855221 0.16106905 -0.0729134 -0.13142991 0.22285365
0.20630667 -0.15070765 -0.13363911 -0.06172943 0.14852208 -0.0100547625 -0.04056356 0.20112476
0.1363283 0.10124595 -0.055002976 -0.17660245 -0.093543254 0.00562747 0.060552895 0.17809287
-0.022509247 1.385669e-05 -0.14149998 0.027491132 0.011087592 -0.20554286 -0.14136128 -0.11332561
-0.053655393 -0.16113877 0.15418051 -0.037071727 -0.053481743 -0.0065035718 0.09119069 -0.17035171
-0.14953835 0.1627727 -0.09523577 0.1652565 -0.3041409 0.16997866 -0.016903557 -0.3207574
0.1228643 -0.23250708 0.07691319 -0.057722997 -0.20568474 -0.05555621 0.12687299 -0.17693041
-0.16757087 0.15911077 -0.11870575 0.039629184 -0.109394416 -0.07131697 0.02178336 0.007688453
-0.09250973 -0.07207092 -0.05908978 -0.130988 -0.03739352 0.09098055 -0.16118723 0.11590391
0.0065345885 -0.011871953 -0.055486146 0.10417347 -0.166835 0.029779088 0.053535886 0.002275807
0.13198167 -0.020574098 0.14877693 0.040481143 -0.10464253 -0.041941956 0.09279647 0.14708509

head.2.bias f4 [3]
00000000: 5248 82bd a6ef bdbd a0a0 fdbc
-0.0636145 -0.09274225 -0.030960381
