checkpoints_kpconv_25nov/checkpoint_epoch_3_25nov.pth (torch, 19277 bytes, 14 tensors)

fc0.weight f4 [8, 3]
0	0x3c3c95be	0.011510311
1	0xbd26bcf9	-0.040707562
2	0x3eb70b07	0.357506
3	0xbc6a67b9	-0.014306956
4	0xbe2d2726	-0.16909465
5	0x3e80a7bf	0.2512798
6	0xbeb5441b	-0.35403523
7	0x3c04cba5	0.008105193
8	0x3dc183c5	0.09448961
9	0xbe25f3f3	-0.1620634
10	0xbaa53530	-0.0012604352
11	0xbd14b6f0	-0.036307275
12	0x3ea25fd3	0.31713733
13	0x3e5668d3	0.20938425
14	0x3ea6ef25	0.32604328
15	0xbebfc024	-0.3745128
16	0x3c68dc57	0.014212689
17	0xbe3b8b14	-0.18314773
18	0xbe84dc74	-0.25949442
19	0xbe5b4079	-0.21411313
20	0xbef9e87c	-0.48810184
21	0xbea9dbfd	-0.3317565
22	0xbee50aea	-0.4473489
23	0x3dc50c2c	0.09621462

fc0.bias f4 [8]
0	0xbef2b834	-0.4740616
1	0xbebe9f81	-0.37231067
2	0xbd381e40	-0.044950724
3	0x3ea20c44	0.31649983
4	0xbea39809	-0.3195193
5	0x3ec1e9a8	0.37873578
6	0x3e17b7dd	0.14816232
7	0xbf14099c	-0.5782716

kp1.mlp.0.weight f4 [16, 11]
0	0xbe51b6b7	-0.20479856
1	0xbc79b4c3	-0.015240851
2	0x3e633d75	0.22191413
3	0x3e759542	0.23982719
4	0xbe282679	-0.16420926
5	0x3b9bd04d	0.004755056
6	0x3cb79890	0.022411615
7	0xbe8c0330	-0.27346182
8	0xbe9f30e0	-0.31091976
9	0xbe251e8e	-0.16124937
10	0x3cac9476	0.021066885
11	0xbf2a4478	-0.66510725
12	0xbfc13345	-1.5093771
13	0x3eda4744	0.42632496
14	0xbd47b068	-0.04875222
15	0x3ba502fa	0.005035755
16	0xbc7a17e8	-0.015264489
17	0xbdaa83ba	-0.08325906
18	0x3d8cfa72	0.06883706
19	0x3e1fd309	0.15607847
20	0x3d8d0cf2	0.06887235
21	0x3c7cd8dd	0.015432564
22	0xbfa9a753	-1.3254188
23	0xbfa4027f	-1.2813262
24	0xbf04523c	-0.5168798
25	0xbdc42b99	-0.09578628
26	0xbe4a4669	-0.19753422
27	0xbda7ab71	-0.08186997
28	0x3dbe86b6	0.09303038
29	0x3c61a1a2	0.013771446
30	0x3d5d2668	0.053991705
31	0x3d7be20a	0.061494865
32	0xbda24a88	-0.07924372
33	0x3f8266e8	1.0187654
34	0x3f5d5659	0.8645988
35	0x3efaca4f	0.48982474
36	0x3e698ecf	0.22808383
37	0xbdcb08cf	-0.099137895
38	0xbde23114	-0.11044517
39	0xbe05dccb	-0.13072507
40	0x3d9c97db	0.07646152
41	0x3e664cea	0.22490278
42	0xbea76f30	-0.32702017
43	0x3de8dfc3	0.11370804
44	0xbe17f31c	-0.14838833
45	0xbf777012	-0.9665538
46	0x3e884488	0.26614785
47	0xbe1f06e6	-0.15529975
48	0xbddba975	-0.10725681
49	0x3d05295d	0.03251015
50	0xbea00100	-0.31250763
51	0xbdb3b0ff	-0.08773994
52	0xbda8b873	-0.08238306
53	0x3e3362a3	0.17518096
54	0xbe89b61a	-0.26896745
55	0xbf7d10d3	-0.98853797
56	0xbfac729d	-1.3472477
57	0xbe6d32c6	-0.231639
58	0xbe2147c0	-0.15750027
59	0xbec0473f	-0.37554356
60	0xbd89e19c	-0.06732485
61	0x3daae26e	0.08343969
62	0x3d827c3e	0.063713536
63	0x3e8be26c	0.27321184
64	0x3dbe94f9	0.09305758
65	0xbdb550c1	-0.08853293
66	0x3e9bb33d	0.30410185
67	0x3fa6d130	1.3032589
68	0xbf3a69f4	-0.7281792
69	0x3e0ff1bf	0.14057063
70	0xbdd82992	-0.10554804
71	0xbd23e94d	-0.040017415
72	0xbe437e51	-0.19091155
73	0x3d1f3a15	0.03887375
74	0x3e08f90e	0.13376257
75	0xbddf5e73	-0.10906687
76	0x3e1b054e	0.15138742
77	0x3f320453	0.6953785
78	0x3f851ba6	1.0399063
79	0x3e815772	0.25262028
80	0x3e14c3ce	0.14527819
81	0xbe10f4e2	-0.14155915
82	0x3de48477	0.11158078
83	0xbdb455df	-0.08805441
84	0x3bea7922	0.0071555534
85	0xbde075f0	-0.10959995
86	0xbe8fd3f1	-0.28091386
87	0x3b82ec4f	0.0039954553
88	0x3f111df1	0.5668631
89	0x3fb58b15	1.418307
90	0xbeb6957b	-0.3566092
91	0xbdad998d	-0.08476553
92	0x3e816885	0.25275055
93	0x3e96c908	0.2945025
94	0xbdabd2e0	-0.083898306
95	0x3e6abb26	0.22922954
96	0xbe8ee9b8	-0.27912688
97	0xbe5aaa89	-0.21354116
98	0x3e24691a	0.16055718
99	0x3ee9a514	0.45633757
100	0x3ea58ae4	0.32332528
101	0xbe89fd4b	-0.2695106
102	0x3c8dd784	0.01731468
103	0xbe0bb7d6	-0.13644347
104	0xbe6d3916	-0.23166308
105	0x3ba39ea1	0.0049932753
106	0xbd99ac39	-0.07503552
107	0x3dccddea	0.10003264
108	0x3e17d5d0	0.14827657
109	0xbd9e583e	-0.077316746
110	0x3fa5d8c1	1.2956773
111	0x3f823e51	1.0175267
112	0x3ee74ea4	0.45177186
113	0xbd9be69c	-0.076123446
114	0xbd468c01	-0.048473362
115	0x3db2a820	0.087234735
116	0x3e310960	0.17288733
117	0xbc9b472e	-0.01895484
118	0xbe94641e	-0.28982633
119	0x3dc633b1	0.09677828
120	0xbdcc1588	-0.09965044
121	0xbfab6f69	-1.3393375
122	0xbfa4358e	-1.2828844
123	0xbebd3030	-0.36950827
124	0x3c9bbb76	0.019010287
125	0x3e35a592	0.17738941
126	0x3dfc6ae7	0.123250775
127	0xbe169dfa	-0.14708701
128	0x3e29d081	0.16583444
129	0xbc662c92	-0.014048712
130	0xbd825fa7	-0.063659005
131	0xbdcb7b2d	-0.09935603
132	0xbfa29617	-1.2702054
133	0xbf6e10fe	-0.9299468
134	0xbea0611e	-0.31324095
135	0x3e8b3a26	0.271928
136	0x3df75996	0.12077634
137	0x3d60bece	0.054869466
138	0xbea55012	-0.3228765
139	0x3e044986	0.12918672
140	0x3d643c9d	0.055721868
141	0xbc23d410	-0.00999929
142	0xbe4b8676	-0.19875512
143	0xbf1ec618	-0.6202102
144	0x3eb7d117	0.3590171
145	0x3e673a3c	0.22580808
146	0x3e1ac32a	0.15113512
147	0x3e7632dc	0.24042839
148	0xbbabdd94	-0.00524492
149	0xbcee9a18	-0.029126212
150	0xbe7dd64e	-0.24788782
151	0xbc4296a7	-0.011876739
152	0x3dc2c89e	0.09510921
153	0x3db542a3	0.088506006
154	0x3ee48b80	0.4463768
155	0x3f6877ed	0.9080799
156	0x3d2c6fac	0.042098686
157	0x3e5eb352	0.21748093
158	0xbea5931b	-0.32338795
159	0xbe378608	-0.17922223
160	0xbe8970b2	-0.26843792
161	0x3e2e41ed	0.17017336
162	0xbdec0baf	-0.11525666
163	0x3dbd3073	0.092377566
164	0x3dd0446f	0.10169303
165	0xbe7afc65	-0.24510343
166	0xbe6d0daa	-0.23149744
167	0xbef73adf	-0.48287103
168	0x3d9cdc73	0.07659235
169	0xbe82a153	-0.25513706
170	0x3e41b866	0.18917999
171	0xbe657f1c	-0.2241177
172	0x3e224ddf	0.15850018
173	0x3cb36e88	0.021903291
174	0x3e253148	0.1613208
175	0xbe98fb7b	-0.29879364

kp1.mlp.0.bias f4 [16]
0	0xbdd373dc	-0.10324833
1	0x3ca6a015	0.020340005
2	0x3e0f6151	0.14001967
3	0xbd06098c	-0.03272395
4	0x3e52586e	0.20541546
5	0x3d86c4d9	0.065805145
6	0x3e6a660f	0.22890495
7	0x3e282cd6	0.16423354
8	0x3d01de00	0.031705856
9	0x3dbdf406	0.092750594
10	0x3e6b9cce	0.23009035
11	0xbe1732d2	-0.1476548
12	0xbd84d43b	-0.06485792
13	0xbea5e606	-0.32402056
14	0xbd9e81ce	-0.07739602
15	0xbe56e982	-0.20987514

kp1.mlp.2.weight f4 [16, 16]
0	0x3d79a94a	0.060952462
1	0xbe47219b	-0.19446413
2	0x3e83cd01	0.25742343
3	0xbe52e305	-0.20594414
4	0x3d81e5ce	0.0634266
5	0xbdfef569	-0.12449152
6	0x3d7ce5f9	0.061742757
7	0xbde5eb79	-0.112265535
8	0x3dd01244	0.10159734
9	0xbddb5427	-0.1070941
10	0xbe403705	-0.18770988
11	0x3d486f8e	0.04893451
12	0xbdb7340b	-0.08945473
13	0x3e24a15a	0.16077176
14	0xbe3be5b2	-0.1834934
15	0x3e681acd	0.22666474
16	0xbd8b54ee	-0.068033084
17	0xbe4b04af	-0.19826005
18	0x3dbef149	0.09323365
19	0x3e996738	0.29961562
20	0x3bcc1f34	0.0062293056
21	0x3dae1e8d	0.08501921
22	0xbda558e3	-0.080735944
23	0xbe61a19d	-0.22034307
24	0xbde544e5	-0.11194781
25	0x3d1ca9ab	0.038247745
26	0xbca2f259	-0.019890951
27	0xbddcf905	-0.10789684
28	0x3d5890d6	0.0528725
29	0xbdc4a564	-0.09601858
30	0xbe1fdec8	-0.15612328
31	0xbe4de0ce	-0.20105287
32	0xbc58e768	-0.013238765
33	0xbd986781	-0.07441617
34	0x3dc26760	0.094923735
35	0xbe206960	-0.15665197
36	0xbe2540c4	-0.16137987
37	0x3d83d481	0.06437016
38	0xbdd36738	-0.10322422
39	0xbe8a3a66	-0.2699768
40	0x3e03fc19	0.12889136
41	0x3e2f85b7	0.17140852
42	0xbe48c9bf	-0.1960821
43	0xbe8664cb	-0.26248774
44	0x3b9fb855	0.004874269
45	0xbdbad145	-0.09121946
46	0xbe66fa2e	-0.22556373
47	0x3d87642b	0.066109024
48	0x3e331492	0.17488316
49	0x3e39b039	0.1813363
50	0x3c51e002	0.012809755
51	0x3cca813d	0.024719829
52	0xbe42772f	-0.18990777
53	0xbd895d61	-0.06707264
54	0xbda65a42	-0.08122684
55	0xbe058aa7	-0.13041173
56	0xbe13f118	-0.14447439
57	0xbe734694	-0.23757392
58	0xbe120afe	-0.14262006
59	0xbd986ff1	-0.07443226
60	0x3ea05403	0.31314096
61	0x3c80fde7	0.01574607
62	0xbe3f0c66	-0.18657073
63	0xbe170eea	-0.14751783
64	0x3de5253d	0.11188743
65	0x3e00884a	0.1255199
66	0x3e3d1f86	0.18469056
67	0xbc737e06	-0.014861589
68	0x3aaa98a6	0.0013015463
69	0x3dc5b699	0.09653968
70	0x3c88dbd7	0.01670639
71	0xbe7ae754	-0.24502307
72	0xbd19f8b4	-0.037590697
73	0x3e05b7dd	0.1305842
74	0xbe61fd2a	-0.2206923
75	0x3e7d1a7f	0.24717139
76	0x3e11ee40	0.14251041
77	0x3e236c88	0.1595937
78	0xbdb793b2	-0.089637175
79	0xbb85116d	-0.004060915
80	0x3dda551c	0.106607646
81	0x3e321763	0.17391734
82	0xbd799710	-0.06093508
83	0xbe4e4c42	-0.20146278
84	0x3de87262	0.11349942
85	0xbcbb99de	-0.022900518
86	0xbe829353	-0.25503024
87	0x3da927b9	0.082595296
88	0xbc580d45	-0.013186757
89	0x3e26a358	0.16273248
90	0xbd29186a	-0.04128305
91	0xbd2deaaa	-0.04246012
92	0xbe73328d	-0.23749752
93	0xbe264e6b	-0.16240852
94	0xbdcc98fa	-0.099901155
95	0x3cc52931	0.024067493
96	0x3daf8f82	0.08572294
97	0xbe5c2faa	-0.21502557
98	0xbc9f2195	-0.019425193
99	0x3df08c03	0.11745455
100	0xbdfbb39d	-0.12290118
101	0xbdd21317	-0.10257547
102	0xbdfd492c	-0.12367472
103	0x3de620c9	0.11236722
104	0x3e8d394a	0.2758277
105	0xbb17afd9	-0.0023145585
106	0xbe2bcb49	-0.16776766
107	0xbe351871	-0.17685105
108	0xbe668be5	-0.22514303
109	0x3e4d33fe	0.20039365
110	0x3d8d7008	0.06906134
111	0x3c8c373c	0.017116182
112	0xba822d01	-0.0009931625
113	0x3d05d4d7	0.032673683
114	0x3db62fbd	0.08895824
115	0x3d0f3fc2	0.034972914
116	0xbdb1779c	-0.08665392
117	0x3d9cf9a2	0.07664801
118	0x3d54e0b3	0.051972102
119	0x3d53f10c	0.051743552
120	0x3e4af706	0.19820794
121	0xbe68fe22	-0.22753194
122	0xbe18c9cc	-0.1492073
123	0xbe6a832b	-0.22901599
124	0xbd1202b8	-0.035647124
125	0x3ce273d4	0.027643122
126	0x3cf39080	0.029731989
127	0xbe1b1b5b	-0.15147154
128	0xbd9bc0f7	-0.076051645
129	0xbe8a27e1	-0.2698355
130	0xbeb38848	-0.35064912
131	0x3e1216dc	0.14266533
132	0xbe0078a1	-0.12546016
133	0xbe6e7c0d	-0.23289509
134	0x3e614504	0.21998984
135	0x3e73b0c1	0.23797895
136	0x3e8c6e6a	0.2742799
137	0x3e8befdd	0.2733144
138	0x3e4c87b2	0.19973639
139	0xbe2608e5	-0.1621433
140	0xbd947204	-0.07248309
141	0x3d8e9636	0.06962244
142	0xbdfdf5d3	-0.12400403
143	0x3e20fc9d	0.15721364
144	0xbe296c65	-0.16545255
145	0xbc9532ab	-0.018212637
146	0x3e54dc2a	0.20787111
147	0xbe25f031	-0.16204907
148	0xbc15b448	-0.009137221
149	0xbe8b6d23	-0.27231702
150	0xbded4489	-0.11585338
151	0xbe223c76	-0.15843377
152	0xbe0069b4	-0.12540323
153	0xbdcb114e	-0.0991541
154	0x3d129e17	0.035795297
155	0xbe8d807a	-0.27637082
156	0x3e141d76	0.14464363
157	0xbdbe46c6	-0.09290843
158	0x3e517356	0.20454153
159	0x3e299cdc	0.16563743
160	0xbce9ffb6	-0.028564315
161	0x3e8aa872	0.2708164
162	0x3e4a4cf1	0.19755913
163	0xbe18faf8	-0.14939487
164	0x3e71762f	0.2358024
165	0xbd3aaed6	-0.045576893
166	0xbe00d374	-0.12580663
167	0xbe857ec4	-0.26073277
168	0x3bc5b8fa	0.006034014
169	0x3dba66bb	0.091016255
170	0xbe4f874a	-0.20266452
171	0x3e70e81f	0.23526047
172	0x3e15f2ca	0.14643398
173	0x3cec8e7f	0.028876541
174	0xbe151f1f	-0.14562653
175	0x3e348460	0.17628622
176	0x3c911957	0.017712278
177	0xbe198786	-0.14993104
178	0xbe5f8d41	-0.21831228
179	0xbdc06678	-0.09394544
180	0x3c84f1e8	0.016228631
181	0x3dc56fbc	0.09640452
182	0x3e80e44a	0.2517417
183	0xbe05cb10	-0.13065743
184	0x3db6cef1	0.0892619
185	0x3e6e2bba	0.23258868
186	0x3b4b146e	0.003098752
187	0xbd8d20d8	-0.0689103
188	0xba064c5c	-0.0005123073
189	0xbdba74fb	-0.091043435
190	0x3e8df2b9	0.27724245
191	0xbd2a8510	-0.041630805
192	0x3e592c06	0.212082
193	0xbdf156ca	-0.11784132
194	0xbe6e03f6	-0.23243698
195	0x3e12ac0c	0.14323443
196	0xbe88e8dd	-0.2674016
197	0xbe893ec3	-0.26805696
198	0x3e47b82b	0.19503848
199	0x3e6c35fd	0.2306747
200	0xbccd5496	-0.025064748
201	0xbcafe357	-0.021470709
202	0x3df3a8e1	0.118974455
203	0xbe5d5d93	-0.21617727
204	0xbda8764a	-0.08225687
205	0xbe20acb5	-0.15690883
206	0x3e7af3fe	0.24507138
207	0xbcc12379	-0.023576485
208	0xbe2bf638	-0.16793144
209	0xbe5c5aeb	-0.21519057
210	0x3e06a003	0.13146977
211	0xbe67abae	-0.22624084
212	0xbe139858	-0.14413583
213	0xbd8879ec	-0.0666388
214	0x3dbdc771	0.09266556
215	0xbc965f9a	-0.018356133
216	0x3c030e7a	0.007999057
217	0x3cf5cc98	0.030004784
218	0xbe4b8724	-0.19875771
219	0x3caf8d85	0.021429786
220	0x3e1c3a2c	0.15256566
221	0xbe2ed2d6	-0.17072615
222	0x3d28360f	0.04106718
223	0xbe6fbc7c	-0.23411745
224	0xbe1b61d9	-0.15174045
225	0x3e48f727	0.19625531
226	0xbe468f85	-0.19390686
227	0x3e35e707	0.17763911
228	0x3e169a37	0.14707266
229	0xbdc8018f	-0.09765922
230	0x3e00eedc	0.12591118
231	0x3dbc456e	0.0919293
232	0xbe11d986	-0.14243135
233	0xbdf27d9e	-0.11840366
234	0xbc0e4b74	-0.008684982
235	0xbe132ab4	-0.14371759
236	0xbd5cb50f	-0.05388361
237	0xbe780b75	-0.2422312
238	0xbcb23b3d	-0.021756763
239	0xbe286a11	-0.16446711
240	0x3d0ca36a	0.03433553
241	0x3e7abc9d	0.24486013
242	0xbe06c97b	-0.13162796
243	0xbd021304	-0.031756416
244	0xbcc0751d	-0.023493344
245	0xbc2af2db	-0.010433878
246	0xbe6da206	-0.23206338
247	0xbe42aa10	-0.19010186
248	0xbd95ff2b	-0.0732406
249	0xbed67f00	-0.41893768
250	0xbcbd4d85	-0.023108253
251	0xbc895e38	-0.01676856
252	0x3d83b05c	0.06430122
253	0xbcb6b67f	-0.022303818
254	0xbc8ef1c9	-0.017449277
255	0xbdf67a1c	-0.12035009

kp1.mlp.2.bias f4 [16]
0	0xbbbfa46a	-0.005848457
1	0xbe6c3968	-0.23068774
2	0x3b791466	0.0038006543
3	0x3cffee2e	0.031241503
4	0xbde721c4	-0.11285737
5	0x3da24a6b	0.0792435
6	0x3e543711	0.20724131
7	0xbdd8a9d3	-0.105792664
8	0x3da8c7b2	0.08241214
9	0x3de8fe50	0.11376631
10	0xbd0eec0c	-0.03489308
11	0xbe5c2077	-0.2149676
12	0x3e0ff5e8	0.1405865
13	0x3e1029d9	0.14078464
14	0x3e20ca1a	0.15702096
15	0x3daa82c6	0.08325724

kp2.mlp.0.weight f4 [32, 19]
0	0xbffb5d4b	-1.9637846
1	0x4001217a	2.0176682
2	0xbf03d5ed	-0.514983
3	0xbdf28b57	-0.11842983
4	0x3becb581	0.0072237854
5	0xbe50d910	-0.20395303
6	0x3e211ac7	0.15732871
7	0xbe2d92fa	-0.16950598
8	0x3e58f131	0.21185757
9	0x3dbf8575	0.09351627
10	0xbd24b5da	-0.04021249
11	0xbb6c6928	-0.003607342
12	0xbe2a4695	-0.16628487
13	0x3e28ec62	0.16496423
14	0xbe8f4aae	-0.27986664
15	0xbd40f517	-0.047108736
16	0xbd58247d	-0.052769173
17	0x3e0bdb4f	0.13657878
18	0xbe68c5da	-0.22731724
19	0x3fc63749	1.5485622
20	0xbffa2eb4	-1.9545503
21	0x3ecbf09a	0.39832002
22	0xbdd6a3df	-0.10480475
23	0xbe513943	-0.20432
24	0xbd70cb5b	-0.058787685
25	0xbe6bc669	-0.23024906
26	0xbeacdcce	-0.3376221
27	0xbded574c	-0.11588916
28	0xbc770850	-0.015077665
29	0xbda1f1d8	-0.07907456
30	0x3e833b43	0.2563115
31	0x3e71f2a5	0.23627718
32	0xbdc6ae02	-0.09701158
33	0x3e12616b	0.14294975
34	0x3d8067a9	0.062697716
35	0x3e6025de	0.21889445
36	0x3ca6cad3	0.020360386
37	0xbcac1a63	-0.021008676
38	0xbfdefa08	-1.7420053
39	0x3f0f55d6	0.5599035
40	0xbe387e12	-0.18016842
41	0xbe103ce6	-0.14085731
42	0xbdd0a631	-0.101879485
43	0xbb0078f3	-0.0019603341
44	0x3d800529	0.06250984
45	0x3c139746	0.009008234
46	0xbcaf6e12	-0.02141479
47	0xbde40db8	-0.11135429
48	0xbc96b107	-0.01839496
49	0xbdd99820	-0.10624719
50	0xbc77dbb4	-0.015128065
51	0xbe8a138f	-0.26968047
52	0xbdc2ef1f	-0.09518265
53	0x3da4c917	0.08046167
54	0xbc9cfc14	-0.019163169
55	0x3d8a1ad4	0.06743398
56	0x3d8f099b	0.06984254
57	0x3f8238dd	1.0173603
58	0x3fd4b435	1.6617495
59	0x3e41b7c7	0.18917762
60	0x3d1aad3c	0.037762865
61	0xbe077b5b	-0.1323065
62	0x3e492db0	0.19646335
63	0xbe4b182c	-0.1983344
64	0x3d53f084	0.051743045
65	0x3deb01cb	0.11474951
66	0x3d9373e5	0.071998395
67	0xbe006dc5	-0.12541874
68	0xbd76d18d	-0.060258437
69	0xbd8b304b	-0.067963205
70	0xbd92c899	-0.07167167
71	0xbe6c64e9	-0.23085369
72	0xbe3118db	-0.17294638
73	0x3d9ba908	0.076005995
74	0xbd23e883	-0.040016662
75	0x3c1a0da2	0.009402664
76	0xbf22133c	-0.633106
77	0x3fc27397	1.5191525
78	0xbdadf024	-0.08493069
79	0x3cb39064	0.021919437
80	0x3ce5a9c9	0.028035061
81	0xbdc247bb	-0.09486338
82	0x3d0303e6	0.03198614
83	0xbb538efb	-0.0032281268
84	0x3d86d9ca	0.06584509
85	0x3ad285f3	0.0016061648
86	0xbc863072	-0.016380522
87	0x3e7f2c08	0.2491914
88	0x3d8f99aa	0.07011731
89	0x3de4a5f8	0.111644685
90	0x3d5d6d2a	0.054059185
91	0x3e8eb505	0.27872482
92	0x3e50fc7d	0.20408817
93	0xbd59066a	-0.052984633
94	0x3de791fd	0.11307142
95	0x3dee72cb	0.11642989
96	0xbde65777	-0.11247151
97	0xbe27ff43	-0.16405968
98	0x3e6962b0	0.22791553
99	0x3e89ce3b	0.26915154
100	0xbe3d9c0c	-0.18516558
101	0xbe019bb2	-0.1265705
102	0x3d739620	0.059469342
103	0xbe1d5513	-0.15364484
104	0x3e1fefdd	0.15618844
105	0x3e47c897	0.19510113
106	0xbe0c06b3	-0.1367443
107	0x3d74ad49	0.05973557
108	0x3dbe22b2	0.09283961
109	0xbddda453	-0.10822358
110	0xbe60723e	-0.2191858
111	0x3e490d59	0.19633998
112	0xbded566d	-0.1158875
113	0xbd911863	-0.070847295
114	0x3fc5630b	1.542085
115	0x3fd186ff	1.6369323
116	0xbe72dc3f	-0.2371683
117	0xbd7e9194	-0.062150553
118	0xbdbab121	-0.09115816
119	0xbd80699b	-0.06270143
120	0x3e6343fe	0.22193906
121	0xbe223d1d	-0.15843625
122	0xbd971671	-0.07377327
123	0x3d1a6896	0.037697397
124	0x3d863576	0.065531656
125	0xbe341f8e	-0.17590162
126	0x3d1774d2	0.036976643
127	0x3d2f9b37	0.042872634
128	0xbd7a7c00	-0.061153412
129	0x3e0390ac	0.12848157
130	0x3b4eaf71	0.0031537677
131	0x3d7347e1	0.05939472
132	0x3d130cd3	0.035900902
133	0x3c7a2287	0.015267021
134	0x3fd3c2a2	1.6543772
135	0x3d383c1d	0.044979203
136	0x3dd72e2e	0.10506855
137	0xbe1bbdd3	-0.15209131
138	0xbe322fc6	-0.17401037
139	0xbd3c253d	-0.04593395
140	0x3c1ede84	0.009696607
141	0x3de4c242	0.11169864
142	0xbe281ccc	-0.16417235
143	0xbd2555b7	-0.040364947
144	0xbe1b9b63	-0.15195994
145	0x3db60383	0.088873886
146	0x3c3dc5da	0.011582816
147	0x3e09beb4	0.13451654
148	0xbd26941b	-0.040668588
149	0xbda96b44	-0.082724124
150	0xbc0f6866	-0.008752918
151	0xbd615ea3	-0.055021893
152	0x3feee8ef	1.8664836
153	0xbf7fbb71	-0.9989539
154	0x3ee3735f	0.4442396
155	0x3e347076	0.17621025
156	0x3cbf9814	0.023387946
157	0xbdb9138b	-0.09036931
158	0x3e705f03	0.23473744
159	0xbdd7ecb7	-0.10543197
160	0xbd80b83d	-0.06285141
161	0x3e7537f4	0.23947126
162	0xbc60e627	-0.013726748
163	0x3da2ffe6	0.07958965
164	0x3e3afffe	0.18261716
165	0x3e03aad2	0.12858132
166	0xbac6f917	-0.0015180436
167	0xbe6ebfd5	-0.23315366
168	0x3e3c8d2e	0.18413231
169	0xbe8789c3	-0.2647229
170	0xbd78c43e	-0.060734026
171	0x3fc7ead4	1.5618539
172	0x3fed6966	1.854779
173	0xbdad28ce	-0.084550485
174	0xbe02f47b	-0.12788574
175	0xbd9a101a	-0.075226024
176	0x3e54a44a	0.20765796
177	0xbde4209c	-0.11139032
178	0x3e775141	0.2415209
179	0x3c45c07d	0.012069819
180	0x3bb03d30	0.005378388
181	0xbc866b8c	-0.016408704
182	0xbda29919	-0.07939357
183	0x3cb7f89e	0.022457417
184	0x3e4b415e	0.19849154
185	0xbd8c4a7f	-0.068501465
186	0x3d5cd366	0.053912543
187	0x3e58e6f4	0.21181852
188	0xbc7cd90e	-0.015432609
189	0xbb9e93be	-0.0048393896
190	0xbe549453	-0.20759706
191	0x3e85cfe5	0.26135173
192	0xbd914a1a	-0.07094212
193	0x3e621a9a	0.2208046
194	0x3e360105	0.17773826
195	0x3dcaa09e	0.098939165
196	0x3d2c1acf	0.042017754
197	0xbdab6cc6	-0.08370356
198	0x3ddd3af2	0.108022586
199	0xbe7d6342	-0.24744895
200	0x3e83d004	0.2574464
201	0x3e16c5d3	0.14723901
202	0xbde8b02d	-0.11361728
203	0xbe0a803c	-0.1352548
204	0xbe11cd20	-0.14238405
205	0x3d08a847	0.033363607
206	0xbd8952ca	-0.06705244
207	0x3c937142	0.017998341
208	0xbc8e6bb7	-0.017385347
209	0xbfd014ce	-1.6256349
210	0x3fd617e1	1.6726037
211	0xbe9612a6	-0.29311103
212	0x3bde7d4b	0.0067898384
213	0xbe110313	-0.14161329
214	0x3c49968b	0.012303959
215	0xbd2b8227	-0.04187217
216	0x3d0649f3	0.032785367
217	0x3dc05791	0.09391702
218	0x3dcdb8ed	0.100450374
219	0xbe47e702	-0.19521716
220	0xbc25a968	-0.01011119
221	0x3dbd49ff	0.09242629
222	0xbd618101	-0.05505467
223	0xbe5b3cbb	-0.21409886
224	0xbe4d4ddc	-0.20049232
225	0xbd5eb5fb	-0.05437277
226	0x3e79dd86	0.2440091
227	0x3e20c04c	0.15698355
228	0xbfe72c86	-1.8060462
229	0xbfd32cc5	-1.6498038
230	0xbe867485	-0.26260772
231	0xbdec9ace	-0.11552964
232	0xbdb7d655	-0.089764275
233	0x3e1449ff	0.14481352
234	0xbdb14fd4	-0.08657804
235	0xbda95549	-0.0826822
236	0x3d0d7b5f	0.034541484
237	0x3d35347f	0.044239517
238	0x3d0db458	0.034595817
239	0xbd575c4e	-0.052578263
240	0xbe3c80f8	-0.18408573
241	0xbc388383	-0.011261824
242	0x3d202bac	0.03910415
243	0x3d80ca0c	0.062885374
244	0xbd0dbdd6	-0.03460487
245	0xbd16956e	-0.0367636
246	0xbde176ef	-0.11009013
247	0x3fd296f2	1.6452315
248	0xc00b0d0c	-2.1726713
249	0x3e583549	0.21114077
250	0x3d5e0396	0.05420264
251	0x3dccdd28	0.1000312
252	0xbe722fce	-0.23651049
253	0xbe5c55d2	-0.21517113
254	0x3c9cfda2	0.01916391
255	0x3c8b7fc2	0.017028693

kp2.mlp.0.bias f4 [32]
0	0x3d7b326f	0.061327394
1	0xbdbf4bc3	-0.09340622
2	0x3e834678	0.256397
3	0x3d8386b2	0.064221755
4	0xbda67b7f	-0.08129024
5	0xbe43c6e0	-0.19118834
6	0x3e580b8d	0.21098156
7	0x3dd76de7	0.10519009
8	0x3e1b2a41	0.15152837
9	0x3d96e6c1	0.073682316
10	0xbc94fb14	-0.01818613
11	0x3c3c6824	0.011499438
12	0x3e5c7566	0.21529159
13	0x3cefaae3	0.02925629
14	0x3e358df0	0.17729926
15	0xbc8beb9f	-0.017080126
16	0x3e80db7c	0.25167453
17	0x3de035d1	0.10947765
18	0x3e307e15	0.17235596
19	0xbac906e4	-0.0015337137
20	0x3e197878	0.14987361
21	0x3de7d811	0.11320508
22	0xbc346d27	-0.011012352
23	0x3e460066	0.1933609
24	0x3d0cc1cb	0.034364503
25	0x3cac5f3e	0.021041509
26	0xbd5f62e1	-0.054537658
27	0x3e2ff188	0.1718198
28	0x3e378313	0.17921095
29	0x3e039a54	0.1285184
30	0xbe55f037	-0.20892416
31	0x3d264acd	0.04059868

kp2.mlp.2.weight f4 [32, 32]
0	0x3ca3a836	0.01997767
1	0xbc3b4cd6	-0.011431893
2	0xbe433dab	-0.19066493
3	0xbe051168	-0.12994921
4	0xbbf27018	-0.0073986165
5	0xbd9a553b	-0.07535788
6	0x3de082e3	0.10962465
7	0x3e25969f	0.16170739
8	0xbe3930eb	-0.18085067
9	0x3cb9d3b3	0.022683954
10	0x3df4a141	0.11944819
11	0xbdcfb725	-0.10142354
12	0xbd6b2eac	-0.057417557
13	0x3d7d740e	0.061878256
14	0x3d9922d9	0.0747735
15	0xbb944fc9	-0.0045261127
16	0xbdda3026	-0.10653715
17	0x3dae4e95	0.08511082
18	0xbdcda696	-0.10041539
19	0xbdd8eb62	-0.10591771
20	0x3cebc58f	0.028780727
21	0xbd4724bb	-0.048619013
22	0x3c8d33e6	0.017236661
23	0xbc0e21c9	-0.008675047
24	0xbe414f20	-0.1887784
25	0xbe28e23c	-0.16492552
26	0xbea99d39	-0.33127764
27	0x3c815770	0.015788764
28	0xbd1ecc4b	-0.038769048
29	0x3da52ea1	0.080655344
30	0xbd748b5f	-0.059703227
31	0xbe1d149e	-0.15339896
32	0x3e592c00	0.21208191
33	0x3d5438d5	0.05181201
34	0xbd8475d3	-0.06467786
35	0xbc9d0b4c	-0.019170426
36	0x3e9695f1	0.2941127
37	0xbdbf0889	-0.093278
38	0x3e1a694f	0.15079235
39	0x3e36377d	0.17794605
40	0x3e279dec	0.16368836
41	0x3e3737d5	0.17892392
42	0xbe24937b	-0.16071884
43	0x3e0882a3	0.13331084
44	0xbe8939a1	-0.2680178
45	0xbe04509e	-0.12921378
46	0x3e54ca4c	0.20780295
47	0xbea9dcde	-0.3317632
48	0x3e2c7a19	0.16843452
49	0x3e7d4096	0.24731669
50	0x3cd0035c	0.025392227
51	0xbb5de558	-0.0033858623
52	0xbdaf2714	-0.085523754
53	0xbea37072	-0.31921726
54	0x3e276d52	0.16350296
55	0xbdd45e52	-0.10369553
56	0x3dc217f0	0.09477222
57	0x3e75cc82	0.24003795
58	0x3e8d44e9	0.27591637
59	0x3d90e810	0.070755124
60	0xbcc47912	-0.023983512
61	0xbc58ab50	-0.013224438
62	0xbe10cf9d	-0.14141698
63	0xbe75ccdc	-0.24003929
64	0xbe63a347	-0.22230254
65	0xbccd8820	-0.025089324
66	0xbe0f1ed5	-0.13976605
67	0x3e7b862b	0.245629
68	0x3da536bc	0.080670804
69	0xbd95d581	-0.07316113
70	0x3e2d2aea	0.16910902
71	0x3da136ea	0.07871802
72	0x3e11d372	0.14240816
73	0x3ea22404	0.31668103
74	0xbd9f170d	-0.077680685
75	0xbe0a139f	-0.13484047
76	0xbed3e334	-0.4138428
77	0xbde21103	-0.11038401
78	0x3dca20be	0.09869526
79	0xbe27df47	-0.16393767
80	0x3dffcec8	0.12490612
81	0x3da7a397	0.08185499
82	0x3e1c0abd	0.15238471
83	0x3d71e0b1	0.059052173
84	0xbe17d70d	-0.14828129
85	0xbed659e0	-0.41865444
86	0x3e30beae	0.17260239
87	0xbdcf5d70	-0.10125244
88	0x3dcb597c	0.09929177
89	0x3b1b61f2	0.0023709503
90	0x3d8b13ee	0.06790911
91	0xbe44c15b	-0.19214384
92	0xbe2d98ba	-0.16952792
93	0xbef15e36	-0.4714219
94	0x3d442c8e	0.047894053
95	0xbebdc74e	-0.3706612
96	0xbe6764b9	-0.22597016
97	0x3e5b2ca5	0.2140375
98	0xbdd27085	-0.10275368
99	0x3d79c3b7	0.060977664
100	0xbe25d05e	-0.16192767
101	0x3e459f69	0.19299091
102	0xbc9b0aba	-0.018926013
103	0xbe5da961	-0.21646644
104	0x3e48ecca	0.19621578
105	0xbe01bbe7	-0.12669335
106	0x3d46fa11	0.048578326
107	0xbe8b3a16	-0.27192754
108	0x3e2f786e	0.17135784
109	0x3eb6176d	0.35564747
110	0x3e23d2c4	0.1599837
111	0x3eb1c173	0.34717903
112	0x3cd09fa3	0.025466746
113	0xbd5607ff	-0.05225372
114	0x3e80bc34	0.25143588
115	0x3e65e946	0.22452268
116	0xbe7b2f66	-0.245298
117	0x3e8a4539	0.27005938
118	0x3ec99fcd	0.3937973
119	0xbd928b12	-0.07155432
120	0x3d816091	0.06317247
121	0x3e2cba39	0.16867913
122	0x3d43ac46	0.047771715
123	0x3d4af7e7	0.049552824
124	0xbc598cc2	-0.013278188
125	0x3e34c6a3	0.17653899
126	0xbe1e935d	-0.15485902
127	0xbcc3b013	-0.02388767
128	0x3dd07592	0.10178675
129	0xbc21596d	-0.009847981
130	0xbdd16c46	-0.1022573
131	0x3e747e39	0.23876275
132	0x3e2c4108	0.16821682
133	0xbe0c6d01	-0.13713457
134	0x3e0bf8a2	0.13669065
135	0x3e02535a	0.12727109
136	0x3e1a4bbd	0.15067954
137	0x3eb65dc9	0.35618427
138	0xbda2257f	-0.07917308
139	0x3de79bd6	0.1130902
140	0xbe1ca408	-0.15296948
141	0x3da960a9	0.082703896
142	0xbcc0ffe2	-0.023559514
143	0xbdb54ff7	-0.08853143
144	0x3e256b85	0.16154297
145	0x3e7db470	0.24775863
146	0x3d140684	0.036139026
147	0x3e6fe967	0.2342888
148	0x3e0b2566	0.13588485
149	0xbeac02ec	-0.3359598
150	0x3de3166e	0.110882625
151	0xbc2656f7	-0.01015257
152	0x3e5951e6	0.21222648
153	0x3d4fc375	0.05072351
154	0x3db55a8f	0.08855163
155	0xbd168bd8	-0.03675446
156	0xbe29e520	-0.1659131
157	0xbe8e5585	-0.2779962
158	0xbe1c8da4	-0.15288407
159	0xbcecba78	-0.028897509
160	0xbe3ba0df	-0.18323086
161	0xbe61263d	-0.21987243
162	0xbdcd0410	-0.100105405
163	0x3e4bf552	0.19917801
164	0x3d4d1ad7	0.050074425
165	0xbdf4dccb	-0.119561754
166	0x3e3fd758	0.18734491
167	0xbcf54e26	-0.02994449
168	0x3e32600c	0.17419451
169	0x3e93c5df	0.288619
170	0xbe3098ee	-0.17245838
171	0xbe1870a5	-0.1488672
172	0xbeb3dfd1	-0.35131696
173	0xbd453d3a	-0.048154093
174	0x3e243c05	0.1603852
175	0xbd615ed5	-0.05502208
176	0x3db5e92a	0.08882363
177	0x3df8d60c	0.12150201
178	0xbd54b4f1	-0.05193037
179	0xbd190298	-0.03735599
180	0x3cdd983a	0.027050126
181	0xbeade2b0	-0.3396201
182	0x3df5d176	0.12002842
183	0xbcb73b69	-0.022367196
184	0xba28df12	-0.00064419315
185	0x3dac2abd	0.08406589
186	0x3df2a0e6	0.11847095
187	0xbe3e1a91	-0.18564822
188	0xbee70cfa	-0.45127088
189	0xbeefed26	-0.46860617
190	0x3d82148a	0.06351574
191	0xbe80c40c	-0.25149572
192	0xbe2e93b6	-0.17048535
193	0xbd53dae4	-0.051722422
194	0xbc758bfc	-0.014986988
195	0x3e03f119	0.1288494
196	0x3bbcaf44	0.005758198
197	0x3df81c8b	0.12114819
198	0xbd0f7db2	-0.03503198
199	0x3ddae575	0.10688297
200	0xbd7b7421	-0.061390046
201	0x3dba8112	0.091066495
202	0x3e185951	0.14877822
203	0x3b6fb7be	0.0036578025
204	0xbe81f3cc	-0.25381315
205	0x3c2e0daf	0.01062338
206	0xbdf4dded	-0.119563915
207	0xbe0cff6a	-0.13769308
208	0x3a2efbd1	0.0006675097
209	0x3d4b9885	0.049706
210	0xbd938b8b	-0.0720435
211	0xbe001f7f	-0.12512015
212	0xbe563a49	-0.20920672
213	0x3c89ae15	0.016806642
214	0xbe084cd5	-0.13310559
215	0x3d072293	0.032991957
216	0xbe1f6d42	-0.15569022
217	0x3d1294dc	0.035786495
218	0xbd2d1b22	-0.042262204
219	0xbe231ae4	-0.15928227
220	0xbde7bd34	-0.113153845
221	0xbe20b162	-0.15692666
222	0xbd9e1870	-0.07719505
223	0x3bb0b727	0.005392927
224	0x3ebe77e2	0.37200838
225	0xbe668299	-0.22510757
226	0x3d5092b3	0.050921153
227	0xbdc9438d	-0.098273374
228	0x3e96d722	0.29461008
229	0x3d54492c	0.051827595
230	0x3dfc7a41	0.123280056
231	0x3dbe3b25	0.09288625
232	0xbe4eb3f2	-0.20185831
233	0x3cb5a355	0.02217261
234	0xbd9164d4	-0.070993096
235	0x3e82eb23	0.2557002
236	0xbe51edd6	-0.20500883
237	0xbebf92da	-0.37416726
238	0xbbdfe8b6	-0.006833161
239	0xbe8a8e17	-0.2706153
240	0x3e2dc67d	0.16970249
241	0x3e2d73b0	0.16938663
242	0x3e49b22c	0.19696873
243	0xbc913cbc	-0.017729156
244	0x3e1c9dc7	0.15294562
245	0x3da7cb60	0.081930876
246	0xbe1267cd	-0.1429741
247	0x3e5693cb	0.20954816
248	0x3dfa5953	0.122240685
249	0x3d77027d	0.060305107
250	0x3e346ee7	0.17620431
251	0xbe008370	-0.1255014
252	0xbe278b74	-0.16361791
253	0x3d8ba8b8	0.0681929
254	0x3e0e70cc	0.13910216
255	0xbdc8cde8	-0.098048985

kp2.mlp.2.bias f4 [32]
0	0xbe5eec81	-0.21769907
1	0x3d742ba7	0.059611943
2	0xbe3af902	-0.18259051
3	0xbd668ef3	-0.05628867
4	0x3e0adce2	0.13560823
5	0xbe1eb162	-0.15497354
6	0xbe05f3aa	-0.13081232
7	0x3da99955	0.08281199
8	0x3d9a1907	0.07524305
9	0xbd16c047	-0.036804464
10	0xbda7468d	-0.08167753
11	0x3da88f7f	0.08230495
12	0x3ca6deed	0.020369971
13	0x3c7361f4	0.014854897
14	0xbe7f4c5b	-0.24931471
15	0x3e47ec48	0.19523728
16	0x3d8a9992	0.067675725
17	0xbda64060	-0.08117747
18	0xbe26cc10	-0.16288781
19	0xbc9cd639	-0.019145118
20	0x3ca71643	0.020396357
21	0xbdae7507	-0.08518415
22	0xbd32c240	-0.043642282
23	0xbe2a1a3f	-0.16611575
24	0xbe633162	-0.22186807
25	0xbe379b6d	-0.17930384
26	0xbd707dad	-0.058713604
27	0x3dde8488	0.10865122
28	0xbe50abda	-0.20378056
29	0x3db8cd61	0.09023548
30	0x3c99c759	0.018771814
31	0x3d606434	0.05478306

head.0.weight f4 [32, 32]
0	0xbda84ed7	-0.082181625
1	0x3ebd8733	0.3701721
2	0x3bab7582	0.005232514
3	0x3ec6f142	0.3885594
4	0x3ea68e5d	0.3253049
5	0x3ea7dc62	0.32785326
6	0xbda66910	-0.08125508
7	0x3e84765d	0.25871554
8	0x3f04fdbf	0.51949686
9	0x3fa86992	1.3157218
10	0x3edf3468	0.4359467
11	0x3dfd91d2	0.12381329
12	0x3e642eed	0.22283526
13	0x3ea99c10	0.3312688
14	0xbdd456c9	-0.103681155
15	0x3e9c0f2d	0.30480328
16	0x3f349183	0.70534533
17	0x3e3b9b06	0.18320855
18	0x3eab5765	0.33465114
19	0xbd38615d	-0.045014728
20	0x3e026100	0.12732315
21	0x3e2ea190	0.17053819
22	0xbdc4efa0	-0.09616017
23	0x3f8dfe14	1.1093163
24	0xbd9bc465	-0.07605819
25	0x3d762c05	0.060100574
26	0x3ef0ebbf	0.4705486
27	0x3d80a46b	0.0628136
28	0x3f1c60de	0.6108531
29	0x3ea4a738	0.32158828
30	0x3f1daad2	0.61588776
31	0x3e96b97c	0.29438388
32	0x3de060d4	0.109559685
33	0xbdd26720	-0.10273576
34	0x3ce4ec9d	0.027944857
35	0xbda25cf6	-0.07927887
36	0xb8dd942c	-0.000105657
37	0x3dfb782b	0.122787796
38	0xbda218f5	-0.079149164
39	0xbaab34af	-0.0013061966
40	0x3e1502ef	0.145519
41	0x3d2b1bae	0.041774444
42	0xbd86d73a	-0.0658402
43	0x3c6fac1e	0.014628438
44	0xbe119b51	-0.14219405
45	0xbd689218	-0.05677995
46	0xbd1db8d6	-0.03850635
47	0x3cf12137	0.029434783
48	0x3dd27bf0	0.102775455
49	0xbd2bdd47	-0.041959073
50	0xbd103dd2	-0.035215206
51	0x3d8184a2	0.06324126
52	0x3e11cc2f	0.14238046
53	0xbbe48f8d	-0.0069751204
54	0xbd4a69f5	-0.049417455
55	0x3cab2c1e	0.02089506
56	0xbdeff5a7	-0.11716776
57	0x3e4e534d	0.20148964
58	0xbd632096	-0.055451
59	0x3ca9dcd4	0.020735182
60	0xbd831ea0	-0.06402326
61	0xbd091dbf	-0.033475634
62	0xbdfd5dec	-0.1237143
63	0xbe5e4e37	-0.21709524
64	0xbdcb7246	-0.09933905
65	0x3e4dec15	0.2010959
66	0x3ec7e4cd	0.3904175
67	0x3e741f2c	0.23840016
68	0x3e542d04	0.20720297
69	0x3dd2725a	0.10275717
70	0xbd50d330	-0.050982654
71	0x3e03d433	0.12873916
72	0x3c5a4f8b	0.013324629
73	0x3eea2c3f	0.45736882
74	0x3e7b3d3d	0.2453508
75	0xbddf22f4	-0.10895339
76	0x3d81a7a5	0.06330804
77	0x3e64298e	0.22281477
78	0x3e26c8a6	0.16287479
79	0x3df294ec	0.11844811
80	0x3eeafec0	0.45897484
81	0x3d9dbf78	0.077025354
82	0x3ecca7a2	0.39971644
83	0xbd4bc99f	-0.049752828
84	0x3e056710	0.13027596
85	0xbd30a2b7	-0.043123927
86	0xbd37fd77	-0.044919457
87	0x3e54d3bc	0.20783895
88	0xbe160dc9	-0.14653696
89	0x3d0bde15	0.03414734
90	0x3e910021	0.2832041
91	0x3e24d4cf	0.16096805
92	0x3e162dca	0.14665905
93	0x3e2ad563	0.16682963
94	0x3e55c12c	0.2087447
95	0x3e584d4b	0.21123235
96	0x3e3027bd	0.17202659
97	0x3e15cd7e	0.1462917
98	0x3e1a2bf8	0.15055835
99	0x3e4054c4	0.18782336
100	0x3d74d34e	0.05977183
101	0x3e54f150	0.20795178
102	0x3debebce	0.115195855
103	0xbe4a80e7	-0.19775735
104	0xbd3f5cb1	-0.046719257
105	0x3e1dca4d	0.15409203
106	0x3dd0459e	0.101695284
107	0xbdd9f8bc	-0.106431454
108	0xbbc28878	-0.0059366785
109	0xbde8f851	-0.113754876
110	0x3d0b498c	0.034005687
111	0xbe29143c	-0.16511625
112	0x3d5e2f3c	0.054244265
113	0x3e2b47d6	0.16726622
114	0x3e3b1635	0.1827019
115	0xbc750fd4	-0.014957387
116	0xbe0b3e6a	-0.13598028
117	0x3d1df531	0.03856391
118	0x3e04b7a9	0.12960686
119	0x3e3657fc	0.17807001
120	0xbdf0efef	-0.11764514
121	0x3e4b7f2a	0.19872728
122	0x3e4b83aa	0.19874445
123	0xbe0cf588	-0.13765538
124	0x3d562aa6	0.052286766
125	0x3e25dc4b	0.16197316
126	0x3db4a82c	0.08821139
127	0x3bb84e3c	0.0056245606
128	0x3e1f2f31	0.15545346
129	0x3e45475a	0.192655
130	0x3e39601b	0.18103068
131	0x3d8c7f72	0.06860246
132	0x3e07254e	0.13197824
133	0x3df66754	0.12031427
134	0xbd8cd881	-0.06877232
135	0x3e9becfc	0.30454242
136	0x3e8c0c4d	0.27353135
137	0x3f3ad384	0.72979
138	0x3e8c91b5	0.27454916
139	0xbdd11fe6	-0.10211162
140	0x3d3054fd	0.0430498
141	0x3f1efc88	0.6210408
142	0x3dbb093b	0.0913262
143	0x3e26641f	0.1624913
144	0x3eaf56fa	0.34246045
145	0xbe097921	-0.13425113
146	0x3de73201	0.11288834
147	0xbdd4f545	-0.10398344
148	0x3e845771	0.25847962
149	0x3e2e53d8	0.17024171
150	0x3d97defc	0.07415578
151	0x3f44dd0c	0.7689979
152	0xbdca5fd6	-0.098815605
153	0xbd718b10	-0.05897051
154	0x3ea5459a	0.32279664
155	0xbc822ed9	-0.01589148
156	0x3f4ce86e	0.8004216
157	0x3e064d0a	0.13115326
158	0x3ec63717	0.38713905
159	0x3cc2f545	0.023798594
160	0xbdce7d25	-0.10082463
161	0xbce06159	-0.027390169
162	0x3e8ec073	0.27881202
163	0x3e383702	0.17989734
164	0x3d8225e4	0.06354883
165	0x3e593b5b	0.21214049
166	0xbd846903	-0.06465342
167	0x3d179952	0.037011452
168	0x3c8cddcd	0.017195607
169	0xbd68a1ce	-0.056794934
170	0x3db6d668	0.089276135
171	0x3c14e37c	0.00908744
172	0x3df47770	0.119368434
173	0xbd93403f	-0.07189988
174	0x3de44a8c	0.11147031
175	0xbc998bc3	-0.018743401
176	0x3e13ec2b	0.1444556
177	0x3df94a5d	0.12172387
178	0x3ea1d09e	0.31604475
179	0x3deb3048	0.11483818
180	0xbe0f72be	-0.14008614
181	0xbd9effff	-0.07763671
182	0x3c0f533a	0.00874787
183	0x3c4af9a8	0.012388624
184	0x3c84ed4d	0.016226435
185	0x3d9011ef	0.070346706
186	0x3d0a42a9	0.03375498
187	0x3e3ef939	0.18649758
188	0xbd7ef09c	-0.06224118
189	0xbdd9a1c7	-0.1062656
190	0x3c931945	0.017956385
191	0x3e413daf	0.18871187
192	0xbe75155a	-0.23933926
193	0x3de60ea1	0.11233259
194	0xbef11051	-0.4708276
195	0x3cc5eea5	0.024161646
196	0x3df6f805	0.12059025
197	0xbf121a4b	-0.5707137
198	0xbecc4c5d	-0.3990201
199	0xbd9cda79	-0.07658858
200	0xbf48909d	-0.7834566
201	0xbf8e1d83	-1.1102756
202	0xbeda87cd	-0.42681733
203	0x3c569962	0.013098093
204	0xbdd6ef0c	-0.10494813
205	0xbf0466f1	-0.51719576
206	0xbedc7d5e	-0.43064398
207	0x3e21a073	0.15783863
208	0xbe9e1d46	-0.3088171
209	0xbf16b3f8	-0.5886836
210	0xbf342ea7	-0.70383686
211	0xbebabe98	-0.36473536
212	0xbe3f5df4	-0.18688184
213	0x3e569f30	0.20959163
214	0xbd9564f2	-0.072946444
215	0xbfa67398	-1.3004026
216	0xbed79b1c	-0.42110527
217	0xbea87cb8	-0.32907653
218	0xbf296b5b	-0.66179436
219	0x3db5edc6	0.08883242
220	0xbf4af260	-0.79276085
221	0xbe2aa80f	-0.16665672
222	0xbf57ae12	-0.84249985
223	0x3d6a3f90	0.057189524
224	0xbe102676	-0.14077172
225	0xbd8e6bf7	-0.069541864
226	0x3dd61bdd	0.10454533
227	0x3d2294ea	0.039692797
228	0x3de2e2f9	0.11078448
229	0x3eab5e59	0.3347042
230	0x3d9f19cf	0.077685945
231	0x3dac9614	0.08427063
232	0x3e0e43da	0.13893071
233	0x3e147d81	0.14501001
234	0xbda65c55	-0.0812308
235	0x3e387729	0.18014206
236	0x3e3f1112	0.18658856
237	0x3d8e858c	0.06959066
238	0x3d158d41	0.036511663
239	0x3e202a83	0.15641217
240	0x3e723aab	0.23655193
241	0x3d9bfdb8	0.076167524
242	0x3e984d3d	0.29746428
243	0x3e02b892	0.1276572
244	0xbdfdbe05	-0.12389759
245	0xbde18beb	-0.11013015
246	0xbe0df935	-0.13864596
247	0xbcc4d1a0	-0.024025738
248	0xbd58b66e	-0.052908354
249	0xbd2b0efe	-0.041762345
250	0xbcd234a8	-0.025659874
251	0x3dcb7a04	0.09935382
252	0x3e462ef7	0.19353853
253	0x3ca47f11	0.020080121
254	0x3ecd2edd	0.40074816
255	0xbd04439f	-0.03229105

head.0.bias f4 [32]
0	0xbd65b4d1	-0.056080643
1	0xbc0d64a5	-0.008629953
2	0x3deb20b1	0.11480845
3	0x3db7fbe4	0.08983591
4	0x3da5cf91	0.08096231
5	0x3e53427a	0.20630828
6	0x3e6e2927	0.23257886
7	0x3d899169	0.06717188
8	0x3e0e6aa2	0.13907865
9	0xbde0f8e3	-0.109849714
10	0xbcedcf57	-0.029029531
11	0x3e37a1eb	0.1793286
12	0x3e25007e	0.16113469
13	0xbddc9a53	-0.107716225
14	0x3d6ae35b	0.05734573
15	0x3d9d8ec4	0.07693246
16	0x3e230271	0.159189
17	0xbd8c894d	-0.068621255
18	0xbe48aa47	-0.19596206
19	0xbd27d793	-0.040977072
20	0xbd346c5d	-0.044048656
21	0xbe562280	-0.20911598
22	0xbe47f16c	-0.19525689
23	0x39cebbe3	0.00039431368
24	0xbe08e98b	-0.1337034
25	0x3e2c64f4	0.16835386
26	0xbd88415c	-0.06653091
27	0xbd49dd9e	-0.049283616
28	0x3dbcef04	0.09225276
29	0x3e16989b	0.14706652
30	0xbdb2f998	-0.087390125
31	0xbbdfd29b	-0.006830526

head.2.weight f4 [3, 32]
0	0x3e8e6a85	0.27815643
1	0x3d1f14c3	0.03883816
2	0x3e4b92f9	0.19880284
3	0xbe581228	-0.21100676
4	0x3c926bc0	0.017873645
5	0xbd01c040	-0.031677485
6	0xbf08e3b2	-0.53472435
7	0x3db6e857	0.08931034
8	0x3e7dfb65	0.2480293
9	0x3e4ea100	0.20178604
10	0x3ebc9a41	0.36836436
11	0x3e412e68	0.18865359
12	0x3e62d28a	0.22150627
13	0xbe285cd3	-0.1644166
14	0xbe068ae8	-0.13138926
15	0x3e5306bd	0.20608039
16	0x3e6123e7	0.21986352
17	0xbe35dd12	-0.17760113
18	0xbe6fb890	-0.23410249
19	0xbd7cd800	-0.06172943
20	0x3e7b07c7	0.24514686
21	0x3cfe759d	0.031061942
22	0xbd472174	-0.048615888
23	0x3ea05e7e	0.31322092
24	0x3e0b99a5	0.1363283
25	0x3db50be7	0.08840161
26	0xbd33158d	-0.043721724
27	0xbe34d746	-0.17660245
28	0xbe79d8a4	-0.24399048
29	0x3d4fc31c	0.05072318
30	0x3d780650	0.060552895
31	0x3de1d5d3	0.11027112
32	0x3d612a1f	0.05497181
33	0xbc77ef1f	-0.0151326945
34	0xbd731fd0	-0.05935651
35	0x3dfc556e	0.12320982
36	0x3d83fa2a	0.064441994
37	0xbe22675c	-0.15859741
38	0xbea30408	-0.31839013
39	0xbd93a6d3	-0.072095536
40	0x3d02bd9c	0.031919107
41	0xbda836ab	-0.08213552
42	0x3c8e5adf	0.017377315
43	0x3d9f42e0	0.07776427
44	0x3d304b40	0.043040514
45	0x3d1375c1	0.03600097
46	0x3dba91af	0.09109818
47	0xbe07d6e1	-0.13265564
48	0xbdb6c410	-0.08924115
49	0x3e54a09a	0.2076439
50	0x3d19eae8	0.03757754
51	0x3e293900	0.1652565
52	0xbe42cc71	-0.190233
53	0x3e101354	0.14069873
54	0x3c99faa2	0.018796269
55	0xbe51f968	-0.20505297
56	0x3dfba047	0.1228643
57	0xbe4a7792	-0.19772175
58	0x3d9e0e39	0.077175565
59	0xbd6c6ef3	-0.057722997
60	0xbe77dc4d	-0.24205132
61	0xbe867d0c	-0.26267278
62	0x3e01eafe	0.12687299
63	0xbe2cf009	-0.16888441
64	0xbf6d3f5d	-0.9267481
65	0x3e0c3e75	0.136957
66	0xbe71034a	-0.23536411
67	0x3d03a36e	0.03213828
68	0xbf2bdebb	-0.67136735
69	0xbdc6fe75	-0.097165026
70	0x3f0b9ae9	0.5453325
71	0xbcb13760	-0.02163285
72	0xbe62d45d	-0.22151323
73	0xbe2ebe99	-0.17064895
74	0xbf79bb48	-0.97551394
75	0xbecfb62c	-0.40568674
76	0xbe3b2538	-0.18275917
77	0xbb901b93	-0.0043978184
78	0xbe2512c0	-0.16120434
79	0x3dda47fd	0.10658262
80	0xbd3c58fd	-0.045983303
81	0xbcd432b6	-0.025903087
82	0xbea85c34	-0.32882845
83	0x3dd558e6	0.10417347
84	0xbeca75da	-0.3954304
85	0xbd5e6757	-0.05429777
86	0x3d453503	0.04814626
87	0xbe86f9e1	-0.26362517
88	0x3e072634	0.13198167
89	0xbcf38a44	-0.029729016
90	0x3e0573aa	0.13032404
91	0x3d25cf8e	0.040481143
92	0x3da9987e	0.08281039
93	0x3c8e911c	0.017403178
94	0x3dbe0c13	0.09279647
95	0x3e5a2051	0.2130139

head.2.bias f4 [3]
0	0xbe12b98e	-0.14328596
1	0xbdedc5a1	-0.1160996
2	0x3d8c7876	0.068589136
