checkpoints_kpconv_25nov/checkpoint_epoch_4_25nov.pth (torch, 19277 bytes, 14 tensors)

fc0.weight f4 [8, 3]
000000 e4 f5 8d 3b 14 3d 13 bd a9 34 9a 3e cc ed 3a bd
       0.004332291 -0.03594692 0.30118302 -0.045636937
000010 a1 ec f8 bd 48 11 92 3e 1d e2 b7 be 2b d5 55 3c
       -0.121545084 0.2852881 -0.35914698 0.0130513115
000020 94 47 8e 3d c8 86 2d be 26 7b 0e bc ea 59 3b bd
       0.06947246 -0.16945946 -0.008696353 -0.045740046
000030 26 a4 97 3e d3 bc 55 3e c5 51 9b 3e 7d ec b1 be
       0.29617423 0.20872812 0.30335823 -0.3475074
000040 e4 0d 0b b9 23 c6 18 be 15 0a 79 be 42 45 71 be
       -0.00013261248 -0.14919333 -0.24320252 -0.23561576
000050 ac 1d 01 bf 15 3c a5 be 09 24 d6 be 2f d6 a2 3d
       -0.504359 -0.322724 -0.41824368 0.079510085

fc0.bias f4 [8]
000000 d2 f7 00 bf c9 38 ce be ab 5a 22 bd 10 f4 8d 3e
       -0.50378144 -0.402777 -0.03963725 0.27725267
000010 95 3f 9e be bf ab b3 3e 27 33 e9 3d ab e3 18 bf
       -0.30907884 0.3509197 0.1138671 -0.59722394

kp1.mlp.0.weight f4 [16, 11]
000000 50 d8 51 be 2d 10 7b bc ee 99 63 3e 13 9a 75 3e
       -0.20492673 -0.015323681 0.22226688 0.23984556
000010 9f 1e 28 be 3f 46 9c 3b dd b6 b7 3c 30 03 8c be
       -0.16417931 0.004769116 0.022426063 -0.27346182
000020 e0 30 9f be 8e 1e 25 be 3a bd ac 3c 49 c4 3a bf
       -0.31091976 -0.16124937 0.021086324 -0.7295576
000030 a8 e8 ca bf ad 64 f5 3e 38 a8 bc bc 06 c4 ac 3c
       -1.5852251 0.47928372 -0.023029432 0.021089565
000040 d3 f1 c5 bc d0 6e c9 bd 0b 0f 89 3d 2d 5c 11 3e
       -0.024163162 -0.09835589 0.06692322 0.14195319
000050 a3 36 7a 3d 37 49 94 3c 3e b6 b8 bf ba 47 ab bf
       0.061087262 0.018101318 -1.4430616 -1.3381264
000060 13 d9 25 bf 13 d1 85 bd 53 26 28 be b7 28 af bd
       -0.64784354 -0.06534018 -0.1642087 -0.085526876
000070 49 eb b0 3d 30 25 37 3d 90 4e 41 3d 87 ef 93 3d
       0.08638627 0.0447132 0.047194064 0.072234206
000080 c3 b0 51 bd de 70 8b 3f 12 a9 5e 3f 41 9b 10 3f
       -0.051193964 1.0893819 0.8697673 0.564869
000090 2e 25 5a 3e 82 72 dd bd 71 58 e0 bd 37 6d d3 bd
       0.21303245 -0.10812856 -0.10954369 -0.103235655
0000a0 77 f1 a7 3d f4 01 72 3e 21 e7 92 be 47 77 07 3e
       0.08200353 0.23633558 -0.28691962 0.13229094
0000b0 90 e2 50 be 29 fd 81 bf 72 61 45 3e 43 13 17 be
       -0.20398927 -1.0155383 0.19275454 -0.14753442
0000c0 8c 13 7e bb cc c2 ef 3c f1 2b 9f be fa 8f be bc
       -0.0038768975 0.029267691 -0.31088212 -0.023262013
0000d0 dd b7 a8 bd b5 a0 5b 3e 2e ca 4c be 28 f1 81 bf
       -0.08238194 0.21448024 -0.19999 -1.015172
0000e0 62 89 b1 bf 9d 94 9b be 14 04 20 be 74 34 b3 be
       -1.3870051 -0.3038682 -0.15626556 -0.35000956
0000f0 db 21 a1 bd ac d5 87 3d ff 9b 02 3e 64 8f 84 3e
       -0.078677855 0.066325516 0.1275482 0.25890648
000100 4c 47 ac 3d 10 9a b1 bd 1d 82 ba 3e 28 44 b2 3f
       0.08412036 -0.08671963 0.36427394 1.392705
000110 12 96 5e bf ad 5d 14 3e 9c 53 ea bd 95 d0 05 bd
       -0.8694774 0.1448886 -0.114417285 -0.032669622
000120 5b 57 37 be 03 41 f4 3c d6 16 13 3e 43 af d4 bd
       -0.17904417 0.029816156 0.1436418 -0.10384991
000130 43 1c 17 3e fa dd 42 3f 23 48 88 3f 0e df bf 3e
       0.14756875 0.7611996 1.0647014 0.37474865
000140 63 62 fb 3d 49 23 04 be 7d 32 dc 3d 61 46 ab bd
       0.12274625 -0.12904085 0.107518174 -0.08363033
000150 42 43 78 3b 16 a0 c6 bd 36 0d 6b be a8 23 33 3d
       0.0037881886 -0.09698503 -0.22954258 0.043735176
000160 4b 7f 0f 3f 2a 40 bb 3f b5 58 fd be 92 b3 a8 bd
       0.5605361 1.4628956 -0.4948174 -0.08237375
000170 5b 7f 87 3e 76 de 9a 3e ba d5 83 bd 0a e4 22 3e
       0.26464352 0.3024785 -0.064372495 0.15907302
000180 f7 ea 88 be b3 f5 42 be 2d 76 38 3e ed 29 24 3f
       -0.26741764 -0.1903904 0.1801383 0.64126474
000190 76 b9 05 3f bb 16 f6 be 7d d8 42 3d b6 e8 c6 bd
       0.52236116 -0.48064217 0.04756974 -0.09712355
0001a0 a9 4b 3e be c3 a0 6b 3d 8c e3 bb bd d3 7e 14 3e
       -0.1858355 0.05752636 -0.091742605 0.14501505
0001b0 31 cf 37 3e 3a d5 38 bd e9 78 b6 3f 78 80 8b 3f
       0.17950131 -0.045125224 1.4255649 1.089858
0001c0 87 df 24 3f 1d 3d b3 bd 59 0f 16 bd 15 7d e3 3d
       0.64403576 -0.08751891 -0.03663573 0.11107842
0001d0 15 50 50 3e fd 5d 20 3c d6 7e 84 be 94 24 e8 3d
       0.20343049 0.009788034 -0.25878018 0.11335102
0001e0 79 c2 b4 bd 75 29 ad bf ec 93 a0 bf b4 ef d9 be
       -0.08826155 -1.3528277 -1.2545142 -0.4256569
0001f0 ce 1a 5a 3d f6 e9 3d 3e 19 de 1e 3e 80 10 d4 bd
       0.05324822 0.1854628 0.15514411 -0.103547096
000200 3e e2 49 3e ae c0 77 3c c2 97 78 bd 8b b7 da bd
       0.19715211 0.015121622 -0.060691603 -0.10679539
000210 6b 76 a6 bf 19 dd 68 bf f7 42 c6 be 6b ba 8e 3e
       -1.3004888 -0.9096237 -0.38722965 0.278766
000220 96 e2 f7 3d 08 40 56 3d ed e7 a4 be df eb 0f 3e
       0.12103765 0.05230716 -0.32208195 0.14054821
000230 06 4e 37 3d 65 2c d6 bb 6a 54 4f be 84 71 46 bf
       0.044752143 -0.006536054 -0.20247045 -0.7751696
000240 f0 6c 9d 3e 95 38 15 3e 2f 9b 17 3e ca 7d 5a 3e
       0.30747175 0.14572366 0.14805292 0.21337047
000250 0e bf 81 bc 2a 62 12 bd f9 d9 7e be f7 a0 93 bc
       -0.015838172 -0.035738148 -0.24887837 -0.01802109
000260 e5 3c b1 3d 23 a0 96 3d 76 7b ed 3e 18 2e 6a 3f
       0.08654193 0.073547624 0.46383256 0.91476583
000270 ed bc e0 3c db 66 5d 3e e1 df a1 be b9 7a 41 be
       0.027433837 0.21621267 -0.3161612 -0.18894471
000280 7d b8 93 be 1d eb 34 3e 44 5f 06 be ec 64 a9 3d
       -0.2885169 0.17667814 -0.13122278 0.082712024
000290 ba 35 c7 3d f5 7d 8b be 28 3d 66 be 88 cb 14 bf
       0.097270444 -0.27244535 -0.22484267 -0.58123064
0002a0 d4 89 92 3d 71 f3 8c be 24 1d 43 3e bf 58 63 be
       0.07155195 -0.2752948 0.19054085 -0.22201823
0002b0 32 e9 e5 3d f8 42 bf 3c a9 d6 25 3e 0e b4 98 be
       0.11226119 0.023347363 0.16195168 -0.2982487

kp1.mlp.0.bias f4 [16]
000000 ea 55 d3 bd 0d be f6 3c 21 da 28 3e a7 23 7b bb
       -0.10319121 0.03011992 0.1648946 -0.003832081
000010 b8 9f 86 3e 84 28 ad 3d 17 a6 6d 3e c0 00 11 3e
       0.2629373 0.08454993 0.2320789 0.14160442
000020 16 58 9e 3b 2a 38 f7 3d 54 ba 7d 3e f5 b9 be bd
       0.004832278 0.12071259 0.2477811 -0.09312812
000030 1a 90 0e bd e9 87 a8 be 04 4d 3f bd 3d 5d 71 be
       -0.034805395 -0.3291619 -0.046704307 -0.23570724

kp1.mlp.2.weight f4 [16, 16]
000000 3a a9 79 3d ba 71 30 be 50 17 96 3e 54 05 74 be
       0.060952403 -0.17230883 0.2931466 -0.23830158
000010 8e b5 b0 3d 05 de b3 bd 0f fb 9c 3d d1 17 ea bd
       0.08628379 -0.08782581 0.07665073 -0.11430324
000020 4d 55 96 3d b9 50 d4 bd 5f 68 49 be 59 91 27 3d
       0.073404886 -0.10366959 -0.1966872 0.0409101
000030 0a ef d0 bd 77 fa 2c 3e 56 50 4b be cf 04 65 3e
       -0.10201843 0.1689242 -0.19854864 0.22365116
000040 f1 54 8b bd a4 c3 3a be 6e 36 e7 3d d7 7a 92 3e
       -0.06803311 -0.18238693 0.112896785 0.28609344
000050 97 2e 06 3d 6f e4 cf 3d ec e6 96 bd f2 02 5b be
       0.032759275 0.10150992 -0.073682636 -0.21387842
000060 9f 76 ef bd e3 38 b5 3c a1 cb 13 bc 6b 91 c9 bd
       -0.11692547 0.022121852 -0.009020717 -0.098421894
000070 79 2e 6c 3d 73 49 ac bd 2f 80 19 be 0e e5 46 be
       0.057661507 -0.08412447 -0.14990304 -0.19423315
000080 04 e8 58 bc 68 a1 81 bd 26 ad d5 3d 13 41 f1 bd
       -0.013238911 -0.06329614 0.10433416 -0.1177999
000090 6f b6 00 be fc c0 89 3d d0 c0 c0 bd e2 40 6e be
       -0.12569593 0.06726262 -0.09411776 -0.23266938
0000a0 e2 6c 18 3e 95 5e 12 3e 9e 03 3b be ab a9 82 be
       0.14885285 0.14293893 -0.18263099 -0.2552007
0000b0 84 1c 9a 3c ba 14 a6 bd 66 ec 55 be 15 dc 84 3d
       0.018812425 -0.08109422 -0.2089096 0.0648729
0000c0 b9 14 33 3e b5 c5 40 3e 40 1c 20 3c e5 dc 34 bd
       0.17488374 0.18825419 0.00977236 -0.044155974
0000d0 21 9d 29 be ae 77 84 bd 04 40 ce bd 9e b9 16 be
       -0.16563846 -0.064681396 -0.10070804 -0.14719245
0000e0 53 c0 32 be e7 2f 88 be 1d dc 1f be 2c ae be bd
       -0.17456178 -0.26599047 -0.1561131 -0.093105644
0000f0 e5 b9 94 3e dd c9 ed 3c 93 a1 52 be 6b 8d 18 be
       0.29048076 0.02902692 -0.20569448 -0.14897697
000100 28 25 e5 3d 10 9f 0b 3e bd d8 55 3e 2e d4 89 bd
       0.111887276 0.13634896 0.2088346 -0.06729923
000110 62 b8 e8 3c d0 ea d0 3d 95 87 22 3c 17 04 7a be
       0.028408233 0.10201037 0.009920021 -0.24415623
000120 a6 37 88 bd 6d ae db 3d 80 1e 72 be 3e 24 70 3e
       -0.06651239 0.107266285 -0.23644447 0.23451325
000130 79 0c 01 3e bc a8 2d 3e bc ec d4 bd 29 d3 3c bc
       0.12602414 0.16958898 -0.10396716 -0.011524954
000140 07 58 da 3d 64 cc 3a 3e 14 1f a7 bd d3 30 47 be
       0.10661321 0.18242031 -0.081602246 -0.19452219
000150 62 42 f4 3d 15 65 39 bd 8b 13 87 be bc 4e b2 3d
       0.11926724 -0.045262415 -0.26382098 0.08706424
000160 4e 06 e3 bc 39 eb 2c 3e 08 d4 58 bd 02 45 8b bd
       -0.027712967 0.16886605 -0.052936584 -0.068002716
000170 d8 b9 84 be 01 87 13 be d6 a0 da bd c4 10 47 3c
       -0.25923038 -0.14406969 -0.10675208 0.012149993
000180 82 8f af 3d b0 bc 69 be b9 da 33 bd 2b 75 1d 3d
       0.08572294 -0.22825885 -0.043909762 0.03844182
000190 97 20 2c be 41 b1 d5 bd b7 5d 10 be 96 a2 2c 3d
       -0.16809307 -0.10434199 -0.1409825 0.04214724
0001a0 ab fe 5d 3e ba 6a 47 3d ed 1a 4d be 93 51 63 be
       0.2167918 0.048685767 -0.20029803 -0.22199087
0001b0 b0 14 8c be 6d da 49 3e c8 d5 b1 3b fc f4 91 3b
       -0.27359533 0.19712229 0.005427096 0.0044542532
0001c0 29 4b 82 ba a8 e7 20 3d 50 bc 03 3e 0c 00 17 bb
       -0.0009940612 0.039283425 0.12864804 -0.00230408
0001d0 06 5e 56 bd 3b e4 ba 3d e5 b8 57 3d c4 db 63 3d
       -0.05233576 0.09125563 0.052666564 0.055629507
0001e0 cd a1 2f 3e ba 24 55 be 26 0c 18 be 1e 57 81 be
       0.17151566 -0.20814791 -0.14848384 -0.25261778
0001f0 59 d3 7d bd 1a 85 d7 3c ba 27 5c 3c 9a 3f 26 be
       -0.061969135 0.026308585 0.013437206 -0.162352
000200 f7 c0 9b bd a5 fa 91 be a5 77 c3 be 0d 6e f5 3d
       -0.076051645 -0.2851154 -0.3817722 0.11983881
000210 1d e9 1e be 51 f6 69 be 1a 87 6b 3e 71 24 5f 3e
       -0.15518613 -0.22847869 0.23000756 0.21791245
000220 75 6d 79 3e 7a 9d b2 3e 32 f1 5d 3e ea e7 40 be
       0.24358161 0.3488577 0.2167404 -0.18838468
000230 de cc db bd d2 a7 b2 3d 21 0e 1a be 4d f3 1d 3e
       -0.10732435 0.087234154 -0.15044452 0.15424843
000240 23 6d 29 be 0b f9 dc 3c b1 aa 87 3e a5 d5 e5 bd
       -0.16545539 0.026974222 0.26497415 -0.1122239
000250 1a 53 b1 36 3a c7 6c be 06 42 b1 bd d4 a9 06 be
       5.2846854e-06 -0.23122874 -0.08655171 -0.13150722
000260 f3 13 e2 bd ed 84 4e bd 05 4d 21 3d f2 91 81 be
       -0.11038961 -0.050419737 0.039380092 -0.2530666
000270 02 fe 27 3e ea 46 a8 bd 12 55 70 3e 32 5d 2c 3e
       0.1640549 -0.08216651 0.23469952 0.16832426
000280 78 fb e9 bc 5e 55 8d 3e 5a 7c 54 3e c2 60 65 be
       -0.028562292 0.27604192 0.20750561 -0.22400191
000290 b1 97 80 3e 15 8e 2e bd 0d e2 0f be 8e aa 91 be
       0.2511573 -0.04261597 -0.14051075 -0.28450435
0002a0 76 0e 24 bd 71 9a b7 3d d5 f5 62 be ce 63 52 3e
       -0.040052854 0.08965004 -0.2216409 0.20545885
0002b0 e2 ba e7 3d be 5a 22 3d 29 e8 37 be f8 16 25 3e
       0.11314942 0.03963732 -0.17959656 0.16122043
0002c0 57 19 91 3c 6b 52 0f be ed 47 4f be 4f b6 87 bd
       0.017712278 -0.13996284 -0.20242281 -0.066265695
0002d0 99 c6 01 3d 48 c8 fc 3d 9a 7f 93 3e 95 74 de bd
       0.031683538 0.12342888 0.2880829 -0.1086208
0002e0 9b 42 df 3d 7d db 7e 3e 4f 9f 29 3d 29 8b 4c bd
       0.10901376 0.24888416 0.041411694 -0.0499374
0002f0 8e 48 99 3c 4d a6 8a bd 8f f4 97 3e 55 33 0b bd
       0.018711355 -0.067700006 0.2967877 -0.0339845
000300 06 2c 59 3e b1 85 2f be 12 78 90 be 31 18 99 3d
       0.212082 -0.17140843 -0.28216606 0.07475317
000310 2f de 99 be 1b 32 99 be af c8 33 3e 48 a7 48 3e
       -0.30052325 -0.2992104 0.17557023 0.19595063
000320 60 23 9d bd 8b 26 9a 3c ff a4 e2 3d 6e 6d 89 be
       -0.07672763 0.018817207 0.11066627 -0.268413
000330 0c 02 15 be f6 ae 1d be 09 50 49 3e 03 06 23 bd
       -0.14551562 -0.15398774 0.19659437 -0.039800655
000340 30 f6 2b be 12 a5 59 be da 5e f4 3d 69 f5 77 be
       -0.16793132 -0.21254376 0.11932154 -0.2421471
000350 3a 1d 55 be b9 18 3c bd 48 b5 d4 3d 20 fb 72 bd
       -0.2081193 -0.045922015 0.10386139 -0.059321523
000360 60 a6 ae bc d9 df 90 3d 43 b3 67 be 42 cf 1f bc
       -0.021319568 0.070739456 -0.22626977 -0.009754004
000370 bb 76 f3 3d 91 15 21 be 9a 8f ef 3b 48 61 7a be
       0.118878804 -0.15730883 0.00731082 -0.24451172
000380 d9 61 1b be a2 63 56 3e ef 3d 64 be 53 36 1f 3e
       -0.15174045 0.20936444 -0.22289251 0.15548067
000390 4e 03 d4 3d 45 88 9c bd b6 a7 01 3e ce 44 a6 3c
       0.10352193 -0.07643179 0.12661633 0.02029648
0003a0 a8 72 1c be cc 90 e2 bd 82 8b 00 bd 84 c9 09 be
       -0.15278113 -0.11062774 -0.031383045 -0.13455778
0003b0 21 50 1f bd ad 5a 66 be 39 59 3f bd bc 71 21 be
       -0.038894776 -0.22495528 -0.04671595 -0.15766042
0003c0 eb a7 0c 3d 07 43 80 3e a4 14 0c be 1c 98 c6 bd
       0.034339827 0.25051138 -0.13679749 -0.09696981
0003d0 6b 30 88 3b 9b 4a 44 bc 29 b1 81 be a7 82 54 be
       0.0041561625 -0.011980678 -0.25330475 -0.20752965
0003e0 4c 06 f3 bd 8c 66 dd be 87 a5 17 bd 7f cf 29 bd
       -0.118664354 -0.432423 -0.037023094 -0.04145765
0003f0 79 5e 0e 3d 80 92 0f bc 46 60 3b bd 5c 4f 04 be
       0.034758065 -0.008762956 -0.04574611 -0.12920898

kp1.mlp.2.bias f4 [16]
000000 5d 7a a6 3b 34 cd 62 be 8c 7c 17 3c 3a d8 65 3c
       0.005080505 -0.22148591 0.009246003 0.014028603
000010 3f 47 e4 bd 25 8d 8b 3d cb 44 3d 3e 4e 7a bd bd
       -0.111464016 0.068140306 0.18483274 -0.092518434
000020 2b 97 b0 3d 26 d1 23 3e 0c 7f 2e bd b3 e0 3c be
       0.08622583 0.15997753 -0.04260163 -0.18445091
000030 75 8e e9 3d a5 b4 0c 3e 5b 12 0e 3e 17 16 88 3d
       0.11404125 0.13740785 0.1387419 0.06644838

kp2.mlp.0.weight f4 [32, 19]
000000 c8 ca 0b c0 8c 83 01 40 92 c4 08 bf 14 63 0f be
       -2.1842518 2.023654 -0.5342494 -0.14002639
000010 b2 5f a8 3b 04 8b 4c be e3 6b 1c 3e 66 93 25 be
       0.005138361 -0.19974905 0.1527553 -0.1616951
000020 d9 49 5f 3e 4f f2 bb 3d 2c 4a 45 bd 3e 6b cb 3b
       0.21805514 0.09177076 -0.04816644 0.0062078526
000030 d6 bc 1d be f2 db 2a 3e 23 62 8a be 1f a5 45 bd
       -0.15404066 0.16685465 -0.27027997 -0.048253175
000040 9f 3b 98 bd c4 9d fd 3d 42 25 81 be 3f 59 e2 3f
       -0.07433247 0.12383607 -0.25223738 1.7683486
000050 ad 10 fa bf 5b 8f d0 3e 75 06 17 be 81 50 61 be
       -1.9536339 0.40734372 -0.14748557 -0.22003366
000060 05 2a 38 bd 59 1e 7d be d9 95 90 be 2f ac d9 bd
       -0.044961948 -0.24718608 -0.28239325 -0.106285445
000070 d0 82 46 bc e1 58 c4 bd 49 d7 82 3e b3 3a 4c 3e
       -0.012116149 -0.09587265 0.25554875 0.19944267
000080 37 22 aa bd e7 dd 01 3e 06 73 db 3c 23 a8 81 3e
       -0.08307307 0.12682305 0.026788246 0.2532359
000090 f0 7e ed 3c e2 46 ac bd 18 d3 ec bf ec c0 1a 3f
       0.028991193 -0.08411957 -1.8501921 0.60450625
0000a0 ec 0e d2 bd 49 36 03 be 9c f1 bc bd 9e c9 17 bc
       -0.10256752 -0.12813677 -0.09225771 -0.009264378
0000b0 e6 80 87 3d 8d 50 95 3b e8 04 29 bd d4 f4 de bd
       0.06616382 0.0045567215 -0.041264445 -0.10886541
0000c0 bd 7a 94 3b d5 96 01 be 07 bf 13 bd 05 3d 8a be
       0.004531233 -0.12655194 -0.03607085 -0.2699968
0000d0 3a 3b ca bd bc fd 86 3d c3 78 f3 bc de df 4c 3d
       -0.09874578 0.06591365 -0.02972067 0.050018184
0000e0 58 a1 99 3d 0f 7d 87 3f 4b 04 d5 3f d3 38 4d 3e
       0.07501477 1.058504 1.6641935 0.20041208
0000f0 6f cf 44 3d ca cc cf bd 9c 8c 63 3e 2c a7 38 be
       0.048049387 -0.10146482 0.22221607 -0.18032521
000100 c2 5d 33 3d a0 b2 0d 3e 2f 0e 4b 3d d8 76 d4 bd
       0.043790586 0.13837671 0.049574073 -0.1037423
000110 cf 88 ca bd 22 b3 80 bd 7a 3d c6 bd ed 46 6c be
       -0.098893754 -0.06284167 -0.096796945 -0.23073931
000120 63 2a 50 be 65 bf 76 3d 6b d0 8a bd fd 6d b4 3c
       -0.20328669 0.06024112 -0.06778034 0.022025103
000130 7a 1d 67 bf 24 f5 bf 3f 2a 68 73 be e4 32 09 3d
       -0.9027935 1.4996686 -0.23770204 0.0334958
000140 ac 8e 2b 3d 5c 6a 63 bd cc 39 33 3d f1 fa 37 bc
       0.04188411 -0.055521354 0.04375629 -0.011229263
000150 16 56 fb 3d 67 f7 1d bc fb 8b 22 bd 20 3f 88 3e
       0.12272279 -0.009641505 -0.039684277 0.2661066
000160 b6 28 d1 3d ed 64 b5 3d 07 94 8b 3d 94 34 95 3e
       0.10212843 0.08857141 0.06815343 0.29141676
000170 21 b2 50 3e 27 e9 5c bd 4c f2 ca 3d d3 5e dc 3d
       0.20380451 -0.05393329 0.09909496 0.10760274
000180 18 87 d4 bd 06 43 27 be b3 22 6c 3e 3f 3c 89 3e
       -0.103773296 -0.16334161 0.23060112 0.26803777
000190 db 2a 3e be 87 da 01 be cb 03 81 3d 67 41 21 be
       -0.18571036 -0.12681018 0.062995516 -0.15747605
0001a0 71 f2 23 3e ac 32 4a 3e 57 dd 08 be 5c 38 62 3d
       0.16010453 0.19745892 -0.13365684 0.05522953
0001b0 68 01 bf 3d bb ef dc bd be 6a 63 be 60 11 46 3e
       0.0932644 -0.107879125 -0.22208688 0.19342566
0001c0 cd 7b f1 bd 74 7c 95 bd 08 44 d1 3f fc c5 d0 3f
       -0.11791191 -0.07299128 1.6348886 1.631042
0001d0 9f b5 24 be 38 61 37 bd 04 e0 9e bd 83 66 84 bd
       -0.16084908 -0.04477045 -0.07757571 -0.06464865
0001e0 04 79 6b 3e 64 f6 1a be 9d 20 b1 bd 92 ef 0d 3d
       0.22995383 -0.15133053 -0.086487986 0.0346523
0001f0 b7 92 c8 3d 39 c8 59 be 5b 60 65 3c 13 69 54 3d
       0.09793609 -0.21267785 0.014000024 0.05185802
000200 2c a0 93 bd 6f f2 c5 3d f8 b9 43 bc 4d 14 18 3d
       -0.07208285 0.09665381 -0.011946194 0.037128735
000210 7c 07 4d 3d a2 72 09 bd 9f 7f d3 3f b4 f1 71 3d
       0.050055966 -0.033556588 1.6523322 0.059068397
000220 a4 e1 dd 3d 47 19 0b be a2 8b 2a be 47 16 16 bd
       0.10834053 -0.13583861 -0.16654828 -0.03664234
000230 92 de 1d ba 27 26 fc 3d 05 17 28 be 7a 60 ad bc
       -0.000602224 0.123119645 -0.16415031 -0.021164168
000240 56 89 2a be e9 c9 bc 3d 7e 33 22 3a c8 c1 01 3e
       -0.16653952 0.09218199 0.00061874825 0.12671578
000250 1a a4 4c bd fa 06 c6 bd 3f d7 a1 bc 83 4d 30 bd
       -0.049961187 -0.096692994 -0.019755958 -0.04304267
000260 ba e1 00 40 2b c3 8c bf f4 10 ee 3e d0 b3 35 3e
       2.0137773 -1.099706 0.4649731 0.17744374
000270 f6 0b 0d 3d 31 b6 9d bd a8 19 81 3e dc 62 5a bd
       0.034435235 -0.07700766 0.25214887 -0.053316936
000280 62 6d 7f bd 6c e6 68 3e 85 61 ce 3c bf 8c fa 3c
       -0.062360175 0.22744149 0.025192985 0.030584691
000290 f5 7a 00 3e 5f bf 1d 3e 06 2d 24 bc e1 f5 8b be
       0.12546904 0.15405034 -0.0100205 -0.27336028
0002a0 2e 6f 39 3e c6 6c 8a be ba 08 24 bd 43 1e cf 3f
       0.18108818 -0.27036113 -0.040047385 1.618111
0002b0 41 03 ec 3f 46 40 b6 bd d9 4f 0e be e7 15 95 bd
       1.8438493 -0.08898978 -0.13897647 -0.07279568
0002c0 f9 08 52 3e b8 a5 e9 bd 4d bf 4a 3e f4 c5 06 3d
       0.20511235 -0.114085615 0.19799538 0.032903627
0002d0 1c 33 a0 ba 66 21 8f bc 4d db c0 bd 1b 51 66 3d
       -0.0012222263 -0.01747198 -0.09416828 0.056229692
0002e0 30 a5 29 3e d8 59 a8 bd 40 c8 2f 3d 63 67 4c 3e
       0.1656692 -0.08220261 0.042915583 0.19961314
0002f0 40 7f 2c bc 90 d8 19 3b 8d 9e 2c be f7 11 a4 3e
       -0.010528386 0.0023475029 -0.16857357 0.32044956
000300 6d 0d b2 bd e7 ee 6a 3e 2d 4b 3a 3e b5 95 af 3d
       -0.08693967 0.22942697 0.1819274 0.08573476
000310 7d 44 88 3d 47 8c 78 bd 78 dc ce 3d 78 31 63 be
       0.06653688 -0.060680654 0.10100645 -0.2218684
000320 f8 e7 91 3e e1 33 35 3e e2 be 20 be c9 b8 e8 bd
       0.2849729 0.17695571 -0.15697816 -0.1136337
000330 4d 32 db bd 62 44 78 3d 9f dd ab bd cf f1 d0 3c
       -0.107029535 0.06061209 -0.0839188 0.025505928
000340 bf 57 1e 3d 8c 78 e9 bf 1c 2c d7 3f 36 4b 9c be
       0.0386579 -1.8239913 1.6810336 -0.3052613
000350 ce 50 06 bd b9 82 16 be 6a 89 76 3c c0 fe 4e bd
       -0.032791905 -0.14698304 0.0150474105 -0.050535917
000360 7e 79 45 3d 22 a8 c9 3d 89 57 c4 3d d3 5e 5c be
       0.048211567 0.09846522 0.095870085 -0.21520548
000370 c1 8f 1e 3c c0 67 bf 3d d5 dd 51 bd 0c 92 45 be
       0.009677828 0.093459606 -0.051236946 -0.19293994
000380 83 2c 4c be 89 09 bc bd ce 66 6b 3e 38 a5 ed 3d
       -0.19938855 -0.09181506 0.22988436 0.116037786
000390 2c 4f f1 bf 9b f5 d1 bf 89 78 83 be 42 f7 d4 bd
       -1.8852286 -1.6403078 -0.256779 -0.10398723
0003a0 8b 1b 9f bd 17 8d 0e 3e a6 40 ad bd 7e 88 cb bd
       -0.07768925 0.13921009 -0.08459596 -0.09938143
0003b0 3b c5 21 3c 60 79 2b 3d 34 3a 4d 3d 3c d3 8e bd
       0.009873684 0.0418638 0.050104335 -0.069738835
0003c0 6f c5 57 be 29 92 00 bd 3f a7 2e 3d 49 59 4d 3d
       -0.21071409 -0.03138939 0.042639967 0.050133977
0003d0 ee 91 36 bd 92 2c 65 bd 92 bb f3 bd 71 f3 f0 3f
       -0.044572763 -0.05595071 -0.119010106 1.8824292
0003e0 9d f1 0a c0 ab ad 58 3e e1 9a 1f 3d 18 55 b0 3d
       -2.170997 0.21159999 0.038966063 0.0860998
0003f0 81 31 63 be fd c5 59 be 1a ce 83 3d aa 70 96 3c
       -0.22186853 -0.21266933 0.06435795 0.01836427

kp2.mlp.0.bias f4 [32]
000000 c5 a8 8d 3d e4 90 7d bd 6d 8f 78 3e 45 b2 1e 3d
       0.06916956 -0.061905757 0.24273463 0.03874423
000010 fa c4 b2 bd 63 77 43 be e7 9b 46 3e f2 eb bc 3d
       -0.087289765 -0.19088511 0.1939541 0.092246905
000020 17 73 17 3e 6d b5 9f 3d 05 2b c9 bc bd bd bc 3c
       0.14789997 0.07798276 -0.024556646 0.023039693
000030 2b d8 4b 3e c1 f7 52 3d 9a fc 1e 3e c2 da 53 39
       0.1990668 0.051505808 0.15526047 0.00020204022
000040 fb c6 58 3e 67 30 90 3d 5a c4 22 3e 0f 12 bd 3c
       0.21169655 0.07040482 0.15895215 0.0230799
000050 bc b5 12 3e 47 d3 da 3d f9 c2 69 3c 5c ba 40 3e
       0.14327139 0.10684829 0.0142676765 0.1882109
000060 c6 1a cb 3c 29 0a 84 bb aa fb a8 bd 04 98 09 3e
       0.02479304 -0.0040295315 -0.08251126 0.13436896
000070 c5 fc 26 3e 97 dc f0 3d 9e 1d 60 be f7 67 e5 3b
       0.16307361 0.11760824 -0.21886298 0.007000919

kp2.mlp.2.weight f4 [32, 32]
000000 f0 13 59 3d a3 61 ca ba 58 be 31 be 4c 0e ce bd
       0.05299753 -0.0015440475 -0.17357767 -0.10061321
000010 32 7a 99 3c d0 67 9f bd a5 ae 09 3e ed 60 3f 3e
       0.018735025 -0.077834725 0.13445528 0.18689318
000020 84 da 23 be 3f 2b 54 3d 9d 3f 17 3e 06 6e 8c bd
       -0.16001326 0.051799055 0.1477036 -0.06856923
000030 f5 01 3e bd ad 7d 97 3d 9d 5d c3 3d 6d e9 5e 3b
       -0.046388585 0.07397018 0.0953934 0.0034013644
000040 f2 9c ae bd ba 6d e3 3d 58 2c 13 be 3a 30 1c be
       -0.08526029 0.11104913 -0.14372385 -0.15252772
000050 34 67 54 3d b5 3d 0a bd 28 83 1e 3d a2 a9 00 3c
       0.051856235 -0.033750255 0.0386993 0.007852944
000060 1d cc 25 be 83 6a 73 be ea d5 cb be 4b 65 16 3d
       -0.16191144 -0.237711 -0.3981164 0.036717694
000070 ed 99 74 bc 56 4f c3 3d b6 34 3c bd 58 df 0f be
       -0.014929277 0.095366165 -0.045948707 -0.14050043
000080 12 1c 4e 3e d8 7f 84 3d 76 af 77 bd 0d 99 97 bc
       0.20127895 0.06469697 -0.060470067 -0.018505597
000090 3d c8 94 3e 97 31 bb bd 88 7b 1d 3e 85 2a 39 3e
       0.2905902 -0.09140318 0.15379155 0.18082626
0000a0 2e 13 2d 3e 95 80 37 3e 44 e4 4b be 9d 2b 00 3e
       0.16901848 0.17920144 -0.19911295 0.12516637
0000b0 b3 8b 85 be 98 d2 ff bd d4 18 53 3e 61 05 a6 be
       -0.26083145 -0.124913394 0.2061494 -0.3242598
0000c0 93 bb 2c 3e 49 20 7c 3e ce 59 1d 3d e4 0d 39 3c
       0.16868429 0.24621691 0.038415723 0.011294816
0000d0 f0 37 b2 bd 42 f1 a1 be d0 1e 2a 3e fd 7f f2 bd
       -0.087020755 -0.31629378 0.16613317 -0.11840818
0000e0 db 9b b5 3d ad d8 6c 3e d9 d6 54 3e 60 fc 8b 3d
       0.08867618 0.2312953 0.20785083 0.06835246
0000f0 dd 24 da bc ad 5d 34 bc d4 9f 10 be c7 09 73 be
       -0.026628906 -0.011008662 -0.1412347 -0.23734199
000100 41 ad 81 be 3b 88 d1 ba 76 c6 14 be 78 21 77 3e
       -0.25327495 -0.0015986034 -0.14528832 0.24133861
000110 cf 3b 95 3d e0 3a 91 bd 71 f1 2e 3e 6f ee 93 3d
       0.07286798 -0.07091308 0.1708429 0.07223212
000120 38 25 1d 3e 5e e9 a1 3e 9c b3 cc bd 0e 13 26 be
       0.15346229 0.31623358 -0.09995195 -0.16218206
000130 c2 6f d4 be c4 b5 be bd 32 3b c7 3d b8 96 18 be
       -0.41491514 -0.09312013 0.097280875 -0.14901245
000140 9a 87 f6 3d a5 e0 a5 3d e2 01 20 3e 5d 4f 86 3d
       0.12037583 0.08099488 0.15625718 0.06558106
000150 89 7c 2e be 3c c2 d5 be f1 21 3f 3e 1d 84 10 be
       -0.17039694 -0.41749752 0.18665291 -0.14112897
000160 b3 53 c2 3d cf f0 0a bc 01 28 3d bb 35 3f 4e be
       0.094886206 -0.008480265 -0.0028862956 -0.20141299
000170 80 92 36 be fa e5 f3 be 51 e7 43 3d 2d fd c0 be
       -0.17829323 -0.47636396 0.047828022 -0.37693158
000180 0e bb 83 be fa 4b 60 3e 19 50 de bd 0b b0 9b 3d
       -0.2572865 0.21903983 -0.10855121 0.07601937
000190 e8 e7 2a be 07 ea 47 3e 84 9b b6 bb b0 1a 4f be
       -0.16690028 0.19522868 -0.005572738 -0.20225024
0001a0 64 94 54 3e 8f 3a d5 bd 1f eb c9 3c bf 30 98 be
       0.20759732 -0.1041156 0.024648247 -0.2972469
0001b0 b4 fb 24 3e 5c 33 b6 3e 8c ea 27 3e da 63 ac 3e
       0.16111642 0.3558606 0.16398066 0.3366993
0001c0 1b be f9 3c e4 91 18 bd f7 40 88 3e 45 4e 73 3e
       0.030486157 -0.037248507 0.26612064 0.23760326
0001d0 91 04 85 be c9 40 82 3e 0e d5 cd 3e e7 d3 f0 bd
       -0.25980046 0.25440052 0.4020161 -0.11759167
0001e0 5b ad 8d 3d 4f 32 26 3e 68 d7 ed bc 87 27 20 3d
       0.069178306 0.16230129 -0.029033378 0.039100196
0001f0 e6 eb f3 bc e6 a5 22 3e 6c 72 0b be ed 55 23 bd
       -0.029775571 0.15883598 -0.13617867 -0.039876867
000200 f2 84 9e 3d 87 0a 8d b8 84 91 da bd 5a 06 6b 3e
       0.07740201 -6.725365e-05 -0.10672286 0.22951642
000210 24 c3 1b 3e 8b 17 0a be c1 f3 05 3e 89 15 f5 3d
       0.15211159 -0.13485543 0.13081266 0.11966998
000220 a4 b2 19 3e 11 f0 b1 3e 45 7c ed bd 01 14 bb 3d
       0.15009552 0.3475347 -0.11595968 0.09134675
000230 d0 f5 1b be 21 82 ae 3d fa d3 02 bd 2b 7d aa bd
       -0.15230489 0.08520914 -0.031940438 -0.08324655
000240 aa 63 1e 3e 31 1b 74 3e e3 a4 4d 3d f1 14 81 3e
       0.15467706 0.23838498 0.050206076 0.2521129
000250 3e 39 fc 3d 42 87 ae be da d2 e1 3d dd 88 0f bd
       0.123156056 -0.3408757 0.11026545 -0.035042632
000260 b6 76 4b 3e 5e 7d 46 3d 44 55 cb 3c 66 24 44 bd
       0.19869503 0.048459403 0.024820931 -0.047886275
000270 d5 8e 35 be b3 21 91 be dd c1 21 be 92 7f 02 bd
       -0.17730267 -0.28346023 -0.15796609 -0.03185994
000280 d8 f2 4c be 27 a3 47 be c6 b3 c6 bd 89 48 55 3e
       -0.20014513 -0.19495831 -0.09702258 0.20828451
000290 fe 96 54 3d 16 d1 f1 bd 6d b3 4c 3e e9 39 bc bc
       0.05190181 -0.11807458 0.1999032 -0.022976832
0002a0 0d 81 46 3e aa b8 99 3e df ad 39 be 8b cc 25 be
       0.19385166 0.300237 -0.18132733 -0.16191308
0002b0 3b 9a b1 be 19 32 f6 bc 99 e3 2a 3e a9 10 2a bd
       -0.3468798 -0.030053185 0.16688384 -0.041519795
0002c0 3c 29 c1 3d 45 75 06 3e a0 fa 25 bd d0 ff cf bc
       0.09431693 0.13130672 -0.040522218 -0.025390536
0002d0 9e d6 90 3c 94 7f ac be 7e a2 10 3e ca a7 57 bd
       0.017680462 -0.33691084 0.14124486 -0.05265025
0002e0 98 32 8e 3b 92 63 94 3d 13 d0 5c 3d a5 27 3f be
       0.0043395273 0.07245554 0.053909373 -0.18667467
0002f0 d1 ff e7 be dd 23 f0 be 5d c7 95 3d e2 0a 81 be
       -0.4531236 -0.46902362 0.07313416 -0.25203615
000300 cc 43 26 be 05 c9 10 bd 69 26 20 bc ba 19 1d 3e
       -0.162368 -0.035347957 -0.009774783 0.15341845
000310 9d 26 1d 3d a9 cd f4 3d db 27 2d bc e0 24 05 3e
       0.038366903 0.11953289 -0.010568584 0.13002348
000320 a2 56 25 bd ae 7d 01 3e a5 48 22 3e 70 6c 4b 3c
       -0.040365823 0.12645599 0.15848024 0.01241599
000330 c4 86 84 be 7f 30 b0 3c 65 89 d0 bd ae 6e 0c be
       -0.25884068 0.0215075 -0.10182456 -0.13714096
000340 4f 92 8d 3c d0 fa a0 3d 50 8a 7b bd 12 9a eb bd
       0.01728168 0.07860339 -0.061411202 -0.11503996
000350 3f 7a 56 be 35 76 39 3c 38 01 da bd 80 b5 a1 3c
       -0.2094507 0.011319687 -0.10644764 0.019739866
000360 b4 e7 05 be dd eb 43 3c 98 03 7b bd 57 30 19 be
       -0.13076669 0.01195809 -0.061282724 -0.14959846
000370 a1 68 e5 bd 30 76 26 be c0 87 65 bd e4 c1 8a ba
       -0.11201597 -0.16256022 -0.056037664 -0.0010586348
000380 03 5e c5 3e 75 ff 6c be e6 a4 86 3d c9 8b ee bd
       0.38548288 -0.23144324 0.06574421 -0.11647756
000390 71 15 9e 3e 8c 8c 6a 3d 11 1d e1 3d b9 7b c1 3d
       0.30875733 0.057262942 0.10991872 0.09447426
0003a0 b7 ff 6d be bd 06 bb ba ed 52 cb bd c1 9c 89 3e
       -0.23242079 -0.0014268976 -0.09927926 0.26877406
0003b0 ea df 3c be e6 95 cd be c0 71 bd bc 2b 68 88 be
       -0.18444791 -0.40153426 -0.02312553 -0.26641974
0003c0 9c fd 25 3e 90 e5 19 3e 6e 59 57 3e 4e b1 21 bc
       0.16210026 0.15028977 0.21030208 -0.009868933
0003d0 85 62 2e 3e c7 e4 cc 3d 8a cd 4d be 94 ad 6f 3e
       0.1702977 0.10004573 -0.20097938 0.23406059
0003e0 f9 77 bf 3d f8 ad 39 3d 80 d5 cd 3d b8 4b f2 bd
       0.09349055 0.045331925 0.100504875 -0.118308485
0003f0 36 68 1c be d5 f8 b8 3d 4a b1 1a 3e 3d 38 9a bd
       -0.15274128 0.09031836 0.15106693 -0.07530258

kp2.mlp.2.bias f4 [32]
000000 8c 36 4b be 68 c3 7d 3d ef 0e 3c be a0 d1 69 bd
       -0.19845027 0.061953932 -0.18365072 -0.05708468
000010 2a ae 05 3e 81 b0 17 be 35 9e f5 bd 6b 70 a5 3d
       0.1305472 -0.14813425 -0.11993066 0.08078083
000020 ee fe a1 3d e6 68 07 bd 13 d1 ac bd 1a d7 b9 3d
       0.07909952 -0.033059023 -0.08438315 0.090742305
000030 76 f0 8e 3c 1d a9 86 3c 71 a0 6a be b9 46 45 3e
       0.017448645 0.016438061 -0.22912766 0.1926526
000040 96 bd 8e 3d 34 2a a8 bd 6a f3 21 be 2f b4 45 3b
       0.069697544 -0.082111746 -0.15815511 0.0030167212
000050 18 bf f0 3c 75 4a cc bd 13 76 f9 bc 57 dc 21 be
       0.029387996 -0.09975139 -0.03045181 -0.15806709
000060 4f 91 3f be c4 9e 1f be 41 91 58 bd 88 a4 bb 3d
       -0.18707775 -0.15587908 -0.0528729 0.09162241
000070 d6 70 4d be 5c 17 a5 3d d8 fb a3 3c ae 8c 65 3d
       -0.20062575 0.08061096 0.02001755 0.056042366

head.0.weight f4 [32, 32]
000000 ae 7e c6 bd 79 6d c4 3e d8 dc 00 bc 78 34 d2 3e
       -0.09692131 0.3836477 -0.007865153 0.41055655
000010 b5 d7 af 3e 3f f8 9f 3e 31 9b ce bd 8c 05 96 3e
       0.3434426 0.31244084 -0.10088194 0.29301107
000020 4a 95 05 3f e2 95 ae 3f 40 3f ff 3e a6 dc f8 3d
       0.5218092 1.3639491 0.49852943 0.1215146
000030 d7 58 71 3e b3 4c a8 3e 2c c4 fb bd b0 55 af 3e
       0.23569046 0.32871017 -0.12293276 0.34245062
000040 8a f2 39 3f 68 dc 2e 3e 7e ae a7 3e f6 5d 82 bd
       0.7263571 0.17076266 0.32750314 -0.06365578
000050 ea a6 58 3e 4d 61 4d 3e 89 09 df bd ac 06 8e 3f
       0.21157423 0.20056649 -0.108904906 1.1095786
000060 fd 15 bf bd ed 1b 2e 3d 06 bf e7 3e 64 cd c8 3d
       -0.09330366 0.0425071 0.45262927 0.098048
000070 92 5e 28 3f 6e 49 ae 3e 26 ae 1d 3f 56 5b a8 3e
       0.657693 0.34040397 0.61593854 0.32882184
000080 21 5c e0 3d ea 5d d2 bd a1 ea e4 3c 91 3e a2 bd
       0.10955072 -0.10271819 0.027943911 -0.0792209
000090 f0 40 a7 b8 e1 76 fb 3d 59 25 a2 bd 4e 57 ac ba
       -7.975276e-05 0.12278534 -0.0791728 -0.0013148577
0000a0 17 06 15 3e 95 41 2b 3d 38 f4 86 bd aa cd 6f 3c
       0.14553104 0.04181059 -0.0658955 0.0146364365
0000b0 4c 95 11 be fa a2 68 bd d1 c7 1d bd 17 2f f1 3c
       -0.14217108 -0.05679605 -0.038520638 0.0294414
0000c0 55 92 d2 3d 22 de 2b bd 01 26 10 bd 1b 7b 81 3d
       0.10281817 -0.04195989 -0.035192493 0.06322309
0000d0 38 d2 11 3e 78 23 e4 bb de 6b 4a bd 1d e7 ab 3c
       0.14240348 -0.006962236 -0.049419276 0.020984227
0000e0 10 fd ef bd e1 51 4e 3e 5d 2e 63 bd 59 eb a9 3c
       -0.1171819 0.20148422 -0.055464137 0.020742105
0000f0 8a 4f 83 bd 92 02 09 bd 3b 71 fd bd 23 45 5e be
       -0.06411655 -0.033449717 -0.123751126 -0.21706061
000100 5f 74 b8 bd c2 dd 3d 3e c0 a8 c3 3e 74 af 70 3e
       -0.09006571 0.18541625 0.38214684 0.2350443
000110 43 c0 49 3e c9 17 c0 3d ce e4 3f bd 25 95 02 3e
       0.19702248 0.09379537 -0.046849065 0.12752207
000120 7d cd 61 3c 6c 43 e7 3e 65 0e 84 3e cb 5a ce bd
       0.013781902 0.45168626 0.25792232 -0.10075911
000130 84 49 5d 3d 0b 3a 4f 3e cd 88 29 3e 46 c7 00 3e
       0.054025188 0.20236985 0.16556092 0.12576017
000140 7c b8 e5 3e d6 25 af 3d 08 ba d0 3e 91 bb 34 bd
       0.44867313 0.085521385 0.4076693 -0.04412419
000150 76 c3 22 3e 4b cc 26 bd c8 b5 20 bd 84 f6 3e 3e
       0.15894875 -0.040722173 -0.03923586 0.18648726
000160 bc 99 0e be 93 e0 18 3d 9f 27 84 3e b7 dc 29 3e
       -0.13925833 0.037323546 0.25811478 0.16588102
000170 37 ea 12 3e 04 7b 2d 3e 7c 63 31 3e b7 80 58 3e
       0.14347158 0.16941458 0.17323107 0.21142851
000180 b9 39 2c 3e 08 cb 36 3e dc 6d 9c 3e c4 bb 41 3e
       0.16818894 0.17850888 0.30552566 0.18919283
000190 3b f7 a5 3d 37 2e c3 3e 5f 8b 00 3e 9c d5 40 be
       0.08103796 0.38121197 0.12553166 -0.18831486
0001a0 a5 a4 e6 bc 52 95 32 3e c9 e9 b2 3d 44 99 5a be
       -0.02815468 0.17439774 0.08735997 -0.21347529
0001b0 84 67 83 3c 65 a7 37 bd 3d e4 35 3d 18 f1 40 be
       0.016040571 -0.044837374 0.044407118 -0.1884197
0001c0 8c 54 85 3d 85 9d 25 3e d6 b1 3d 3e 91 ff 62 bc
       0.06510267 0.1617337 0.1852487 -0.013854877
0001d0 7a 4c 73 be 92 a3 9d 3c 21 0b de 3d 29 7c 54 3e
       -0.23759642 0.019243035 0.108419664 0.20750488
0001e0 e7 8e e5 bd f7 a6 4e 3e cb 17 db 3e e1 c8 1d be
       -0.11208897 0.2018088 0.4279159 -0.1540866
0001f0 e2 58 d2 3d 26 88 1a 3e 89 69 5f 3e b3 68 02 3c
       0.10270859 0.15090999 0.21817602 0.007959533
000200 9c 54 00 3e c1 14 6a 3e 82 6d 24 3e fc bd f0 3d
       0.12532276 0.2285948 0.16057399 0.11754987
000210 f2 11 2a 3e c7 c9 c7 3d fb 72 d2 bd 81 93 b1 3e
       0.16608408 0.09755283 -0.10275837 0.3468285
000220 13 9f 85 3e 40 10 53 3f 68 4b ad 3e 9c 1d 18 be
       0.26097926 0.8244667 0.33846593 -0.14855045
000230 21 2b a4 3d a0 be 1e 3f d6 3e 71 3d 42 b7 52 3e
       0.08016039 0.6200962 0.058897816 0.2057772
000240 b4 74 cd 3e 1f 28 23 be 8b ac d4 3d 20 e3 0d be
       0.401281 -0.15933274 0.103844725 -0.13856173
000250 4a 5b b1 3e 2f 4e 58 3e e0 18 3c 3d 51 e3 52 3f
       0.3463996 0.21123575 0.04592216 0.8237811
000260 08 8b 05 be 6b 85 b8 bd da 3e 9a 3e 01 70 f4 3c
       -0.13041317 -0.090098225 0.30126077 0.029838564
000270 a3 14 5b 3f 52 7a 1c 3e 02 73 c7 3e 93 8d a0 3d
       0.85578364 0.15281036 0.38954931 0.07839503
000280 bf f2 a4 bd 27 45 4c bd 52 88 93 3e 2a be 2b 3e
       -0.08054113 -0.049870636 0.28814942 0.1677176
000290 0a a1 31 3d ba ec 62 3e 51 6a 3d bd ea 2e af 3c
       0.04336647 0.22160617 -0.04624397 0.021384675
0002a0 b0 ed 06 3d ef 59 a1 bd ab 9d a7 3d 5a 4f 99 3c
       0.03294152 -0.078784816 0.0818437 0.018714596
0002b0 08 ba d8 3d 34 9c b8 bd b1 fa 03 3e c2 15 f4 bc
       0.10582358 -0.090141684 0.128886 -0.029795531
0002c0 54 db 00 3e 58 ee 17 3e d0 48 b0 3e e6 35 08 3e
       0.12583667 0.14837015 0.34430552 0.1330181
0002d0 f8 45 06 be 2d 92 bb bd e4 b4 b8 3c c3 91 1a bc
       -0.13112628 -0.0915874 0.022547193 -0.009434166
0002e0 c8 d0 1b 3d 48 06 ae 3d bb 60 e0 3c ab b9 34 3e
       0.038040906 0.08497292 0.027389875 0.17648952
0002f0 2f 28 a4 bd 7b 21 d5 bd b0 1e c5 bc 35 2e 30 3e
       -0.08015477 -0.104067765 -0.024062485 0.17205127
000300 2e bd 86 be 53 05 ea 3d d8 f0 01 bf 76 69 31 3c
       -0.26316208 0.11426797 -0.50758123 0.0108283665
000310 38 84 fc 3d fd e0 1a bf 32 68 d7 be cc 1d be bd
       0.12329906 -0.60499555 -0.42071682 -0.09283027
000320 d6 b2 58 bf 65 5a 95 bf 72 23 f9 be 53 99 b9 3b
       -0.8464788 -1.1668211 -0.48659855 0.0056640296
000330 00 10 02 be d2 29 0e bf d5 58 e7 be 6c 62 1a 3e
       -0.12701416 -0.5553256 -0.4518496 0.15076607
000340 75 e4 a5 be 31 f7 20 bf b5 f9 41 bf 38 d5 c4 be
       -0.3240086 -0.62877184 -0.7577165 -0.38443923
000350 12 1f 82 be 4a c9 52 3e 1e 7a b4 bd 1b 06 ad bf
       -0.2541433 0.20584598 -0.088123545 -1.3517488
000360 09 80 e4 be 6f 6a b1 be c5 7f 31 bf bd 7e 9f 3d
       -0.44628933 -0.34651515 -0.69335586 0.07787845
000370 8b e7 5c bf 38 d0 7a be b6 0b 61 bf 79 48 47 3d
       -0.86290807 -0.24493492 -0.87908494 0.0486531
000380 7a 82 f5 bd fc a8 b8 bd 31 e1 f5 3d 9d 47 b6 3c
       -0.11987777 -0.09016606 0.120058425 0.022250945
000390 14 f0 bd 3d 66 7e b3 3e c0 80 c7 3d da 44 8d 3d
       0.09274307 0.35057372 0.09741354 0.06897898
0003a0 4c 71 23 3e c2 17 de 3d 75 f7 b6 bd cd 43 3f 3e
       0.15961188 0.10844375 -0.089339174 0.18678208
0003b0 61 38 32 3e ff 85 65 3d 7f 82 66 3d 06 21 13 3e
       0.1740432 0.05603599 0.056276795 0.14368066
0003c0 98 8e 54 3e 45 b7 d4 3d 9a ad a2 3e 98 e9 16 3e
       0.2075752 0.103865184 0.31773072 0.14737546
0003d0 b0 ce f5 bd 43 4d 01 be 69 57 00 be 65 d2 81 bd
       -0.12002313 -0.1262713 -0.12533344 -0.06338958
0003e0 9c ed eb bc 98 a5 d1 bc d8 a6 c9 bc ee 66 b2 3d
       -0.028799824 -0.025591657 -0.02461569 0.087110385
0003f0 bf d9 36 3e 97 30 a0 3c 29 5d bf 3e d2 e2 62 bd
       0.17856501 0.01955442 0.37375763 -0.055392094

head.0.bias f4 [32]
000000 33 0d 0f bd 43 49 0d bc 79 eb f0 3d b2 fe 85 3d
       -0.034924697 -0.008623424 0.11763663 0.0654272
000010 20 61 de 3d 8a 05 47 3e 2f 5f 7f 3e c1 25 5a 3d
       0.10858369 0.19435707 0.24938653 0.05325866
000020 ea 67 12 3e f9 fb e5 bd 43 29 94 bc 93 de 4a 3e
       0.14297453 -0.112297006 -0.018086081 0.19811468
000030 79 ff 2b 3e 07 63 11 be 13 99 6a 3d b4 84 38 3d
       0.16796674 -0.14197932 0.05727489 0.04504843
000040 53 d5 10 3e 45 97 cd bd 7f 3f 5a be cd a9 86 bd
       0.14143877 -0.10038618 -0.21313284 -0.06575356
000050 5d 52 34 bd 80 22 56 be bd 4e 7b be af 4d c5 bb
       -0.04402386 -0.20911598 -0.24541755 -0.0060212235
000060 8b e9 08 be 4c 14 1b 3e ee 41 88 bd 9e dd 49 bd
       -0.1337034 0.15144461 -0.066532 -0.049283616
000070 9a ed c0 3d 7a 10 4c 3e 98 f9 b2 bd 3e 4d 04 bd
       0.09420319 0.1992816 -0.087390125 -0.032300226

head.2.weight f4 [3, 32]
000000 c8 d4 83 3e ff 1d 1f 3d 1c 46 37 3e 8c 7f 88 be
       0.25748277 0.038846966 0.17897838 -0.2665981
000010 ea c6 d3 ba a9 50 1c bd 94 22 19 bf 53 16 a1 3d
       -0.0016157303 -0.03816286 -0.5981839 0.07865586
000020 fc 7d 69 3e a0 c0 32 3e 87 79 b1 3e de 14 2c 3e
       0.22801965 0.17456293 0.3466303 0.16804835
000030 65 ea 4a 3e bb d5 49 be af 82 06 be db af 44 3e
       0.19815977 -0.19710438 -0.1313579 0.19207709
000040 e1 d1 4b 3e e7 c1 3f be e1 2d 96 be eb 3f fb bc
       0.19904281 -0.18726312 -0.29331878 -0.030670127
000050 42 2f 64 3e 9d 75 fe 3c 80 08 e6 bd 29 f6 93 3e
       0.22283652 0.031061942 -0.1123209 0.28898743
000060 a5 99 0b 3e a6 2d ab 3d f7 14 33 bd 46 d7 34 be
       0.1363283 0.08358316 -0.043721166 -0.17660245
000070 1d 16 9d be 43 d7 ae 3c 50 06 78 3d 3c 6f 93 3d
       -0.30680934 0.02134288 0.060552895 0.07198951
000080 06 9e bf 3d 24 3a 78 bc d8 d9 b7 bc 9d 77 36 3e
       0.093563125 -0.015150581 -0.022442743 0.17819066
000090 9a ba d3 3d 66 bd 18 be 07 a1 90 be a3 5b 5b bd
       0.10338326 -0.14916 -0.28247854 -0.05355419
0000a0 15 e1 8f 3d 5a 31 21 bd f6 d7 68 3d 3b 82 ee 3d
       0.07025353 -0.039353706 0.05684658 0.11645933
0000b0 cf a4 a8 3d c8 e4 9b 3d a1 54 ba 3d 8b 25 db bd
       0.0823456 0.07611996 0.09098173 -0.1070052
0000c0 a9 34 73 bd 81 da 5e 3e ed e8 cd 3d c1 67 09 3e
       -0.059376393 0.2176304 0.10054193 0.13418485
0000d0 e0 8b 19 be 54 13 10 3e 05 6c a9 3d 85 7f 29 be
       -0.14994764 0.14069873 0.08272556 -0.16552551
0000e0 47 a0 fb 3d 9f ad 3e be 1c 0e 9e 3d f3 6e 6c bd
       0.1228643 -0.18620919 0.07717535 -0.057722997
0000f0 a3 b5 53 be 08 ce b7 be fe ea 01 3e 1c cc 07 be
       -0.20674758 -0.35899377 0.12687299 -0.13261455
000100 f0 51 81 bf 75 3e 0c 3e 7e 98 86 be 41 8e 69 3d
       -1.010313 0.136957 -0.26288217 0.05702043
000110 c0 6c 40 bf 61 5b c6 bd 53 83 12 3f 15 27 b8 bc
       -0.7516594 -0.09685398 0.57231635 -0.022479573
000120 3f 0c 83 be 90 ad 40 be bf 4b 88 bf bb fc f0 be
       -0.2559528 -0.18816209 -1.0648116 -0.47067818
000130 63 a4 5e be 80 b5 83 3b c0 12 25 be 29 2f c9 3d
       -0.21742396 0.004019439 -0.16120434 0.09823448
000140 3d 92 40 bd 52 17 dc bc 07 c4 a1 be 2b 49 d5 3d
       -0.047014464 -0.026866589 -0.3159487 0.10414346
000150 2d f0 e4 be 57 67 5e bd 43 0f a5 3d 3e 2d 9e be
       -0.4471449 -0.05429777 0.080595516 -0.30893892
000160 34 26 07 3e 56 37 07 bd 7c 73 05 3e 8e cf 25 3d
       0.13198167 -0.033011757 0.13032335 0.040481143
000170 b2 f5 e0 3d c7 11 44 bb 13 0c be 3d 51 3e 5c 3e
       0.10984363 -0.0029917823 0.09279647 0.21508147

head.2.bias f4 [3]
000000 b8 f7 30 be 96 65 b5 bd e7 8f 91 3d
       -0.17281997 -0.088572666 0.07107525
