checkpoints_kpconv_25nov/checkpoint_epoch_8_25nov.pth (torch, 19277 bytes, 14 tensors)

fc0.weight f4 [8, 3]
0	0xbca07050	-0.019584805
1	0xbca679d8	-0.020321772
2	0x3e8b4288	0.27199197
3	0xbbd11df5	-0.006381745
4	0xbe1f42c8	-0.15552819
5	0x3e8de819	0.2771614
6	0xbe97cf1a	-0.29650193
7	0xbcbadc54	-0.022810139
8	0x3affdf8b	0.0019521577
9	0xbe33ce36	-0.17559132
10	0xbb6e1373	-0.003632751
11	0xbcefce8e	-0.029273298
12	0x3e4375ba	0.19087878
13	0x3e4878ad	0.19577284
14	0x3e94b324	0.29042923
15	0xbe936b13	-0.2879263
16	0x3c3a82d7	0.011383734
17	0xbe2e4f83	-0.17022519
18	0xbe2ea19b	-0.17053835
19	0xbde645a7	-0.11243754
20	0xbece5289	-0.40297344
21	0xbe7ee012	-0.24890164
22	0xbeab6ab3	-0.33479843
23	0xbbd4c3f5	-0.0064930865

fc0.bias f4 [8]
0	0xbf130832	-0.5743438
1	0xbed49365	-0.41518703
2	0xbe093dba	-0.13402453
3	0x3e3b895a	0.18314114
4	0xbecd8437	-0.40139934
5	0x3e841183	0.2579461
6	0xbd9bad8a	-0.07601459
7	0xbf29d8b4	-0.6634629

kp1.mlp.0.weight f4 [16, 11]
0	0xbe2a91f6	-0.16657242
1	0x3c87b48d	0.016565586
2	0x3e7f54a5	0.24934633
3	0x3e75a122	0.23987249
4	0xbe36c382	-0.17848018
5	0x3b9d14c6	0.004793736
6	0x3cb7c752	0.02243391
7	0xbe8be7df	-0.2732534
8	0xbe9f2b31	-0.3108764
9	0xbe2519d4	-0.16123134
10	0x3cad0c85	0.021124134
11	0xbf44ea5b	-0.769201
12	0xbfe3be75	-1.7792498
13	0x3f29c10f	0.6631021
14	0xbcd4b254	-0.02596394
15	0x3d7f728e	0.062365107
16	0xbd3392d6	-0.043841206
17	0xbde3d85d	-0.111252524
18	0x3d77835b	0.060428005
19	0x3ddee809	0.10884101
20	0x3d0a0796	0.03369864
21	0x3c78da61	0.015188784
22	0xbfdc5367	-1.7212952
23	0xbfc1e7d2	-1.5148871
24	0xbf6a2b16	-0.91471994
25	0xbbcb6302	-0.006206871
26	0xbe1290fd	-0.14313121
27	0xbda355f9	-0.07975382
28	0x3da6862a	0.081310585
29	0xbb94adfd	-0.0045373426
30	0x3ce65ca5	0.028120348
31	0x3dab9b0c	0.08379182
32	0xbc9a28b6	-0.01881824
33	0x3f975880	1.1823883
34	0x3f661e8f	0.8989038
35	0x3f22db66	0.63616025
36	0x3e3f4672	0.18679217
37	0xbde28872	-0.11061181
38	0xbe33760e	-0.17525503
39	0xbe246e79	-0.16057767
40	0x3da79b77	0.081839494
41	0x3e376eae	0.17913315
42	0xbe96b460	-0.2943449
43	0x3e0d90be	0.13824746
44	0xbea74109	-0.32666805
45	0xbf98be67	-1.1933106
46	0x3d293437	0.04130956
47	0xbe24d1c6	-0.16095647
48	0x3c392dde	0.0113024395
49	0x3c902969	0.01759787
50	0xbe9cf192	-0.30653054
51	0xbdce3b5b	-0.10069915
52	0xbdfa704f	-0.122284524
53	0x3e66747e	0.22505376
54	0xbe01fd42	-0.12694266
55	0xbf8ba7ab	-1.0910543
56	0xbfc49505	-1.5357977
57	0xbf1241f2	-0.57131875
58	0xbe1ab219	-0.15107001
59	0xbea56b91	-0.3230863
60	0xbda36d43	-0.079798244
61	0x3d307166	0.043076895
62	0x3d2e4815	0.04254921
63	0x3e7e264e	0.248193
64	0x3d79c13b	0.060975295
65	0xbdcdc2c8	-0.10046917
66	0x3edca37c	0.4309348
67	0x3fcce655	1.6007792
68	0xbf9ed768	-1.2409487
69	0x3e442ddc	0.19158119
70	0xbe3b8580	-0.18312645
71	0xbcd9d6f5	-0.026591757
72	0xbe2be586	-0.16786775
73	0xbc74b6e6	-0.0149361845
74	0x3e1d7a03	0.15378575
75	0xbdc317a2	-0.09525992
76	0x3e0474d3	0.1293519
77	0x3f6bcf1c	0.921129
78	0x3f949826	1.1608932
79	0x3f0469b7	0.5172381
80	0x3da02a9d	0.07820628
81	0xbde839a4	-0.11339119
82	0x3d088c5d	0.033336986
83	0xbdbe914e	-0.093050584
84	0xbcf9e1eb	-0.030503234
85	0xbdf48f65	-0.11941413
86	0xbdb10197	-0.08642881
87	0x3dc09fc1	0.09405471
88	0x3ef9139e	0.4864778
89	0x3fc9b30e	1.5757768
90	0xbf5766c4	-0.8414118
91	0x3cbd770f	0.02312806
92	0x3ea0a3e5	0.31375042
93	0x3e9342c3	0.28761873
94	0xbd8f32d9	-0.0699212
95	0x3e18e9ff	0.14933012
96	0xbe914666	-0.28374022
97	0xbe3c0df5	-0.18364699
98	0x3e36e53f	0.17860888
99	0x3f446f5f	0.7673244
100	0x3f3c8968	0.73647165
101	0xbf6f7e1f	-0.9355182
102	0x3e0795f3	0.13240795
103	0xbd827b77	-0.06371205
104	0xbe7c242a	-0.2462317
105	0x3c2da139	0.0105975205
106	0xbe0edac8	-0.13950646
107	0x3db2187d	0.08696077
108	0x3e2106bf	0.1572523
109	0xbd7495bd	-0.059713114
110	0x3fdaea32	1.7102721
111	0x3f9d0c34	1.2269349
112	0x3f7420eb	0.9536273
113	0xbdd3b320	-0.103369
114	0xbddbaefc	-0.10726735
115	0x3dd2abb1	0.10286654
116	0x3e515eab	0.20446269
117	0xbce1165c	-0.027476482
118	0xbe7362e9	-0.237682
119	0x3df8f9f3	0.12157049
120	0xbddcac0e	-0.10775004
121	0xbfb6b6c1	-1.4274522
122	0xbfa44992	-1.2834952
123	0xbf311c8b	-0.6918418
124	0x3d31b6a4	0.04338707
125	0x3e54aa11	0.20768
126	0x3e0cbc16	0.13743624
127	0xbdf6b0d1	-0.12045444
128	0x3e247d20	0.16063356
129	0xbc9ef1a5	-0.019402334
130	0xbdc515cc	-0.09623298
131	0xbdd30822	-0.103042856
132	0xbfb20628	-1.3908129
133	0xbf6e7853	-0.9315235
134	0xbefb2b04	-0.49056256
135	0x3e9747f3	0.2954708
136	0x3e21a2fd	0.15784831
137	0x3bb69df8	0.0055730306
138	0xbebad3fc	-0.36489856
139	0x3e0baa37	0.1363915
140	0x3c144a74	0.009050954
141	0x3c8d5215	0.017251054
142	0xbe0cf651	-0.13765837
143	0xbf7689b4	-0.9630387
144	0x3e10eb53	0.14152269
145	0x3d816bd8	0.06319398
146	0x3e109e2d	0.1412284
147	0x3e855754	0.2604319
148	0xbd825f97	-0.063658886
149	0xbd780530	-0.060551822
150	0xbe8c5ab3	-0.27412948
151	0xbd84d8cc	-0.06486663
152	0x3da8a36b	0.082342945
153	0x3d96e839	0.07368512
154	0x3f05d8b9	0.5228382
155	0x3f7e44fe	0.99324024
156	0x3cb518bf	0.022106526
157	0x3e3970cd	0.18109436
158	0xbec72449	-0.3889487
159	0xbe338d2d	-0.17534323
160	0xbe7c5da2	-0.24645093
161	0x3de79a0e	0.113086805
162	0xbdd2e06c	-0.10296711
163	0x3d802398	0.06256789
164	0x3d73b594	0.05949934
165	0xbf0348ff	-0.5128326
166	0xbebecfa7	-0.372678
167	0xbf70a5a2	-0.94002736
168	0x3e0fb456	0.14033636
169	0xbe82b822	-0.25531107
170	0x3e2168c5	0.15762623
171	0xbe7f6265	-0.24939878
172	0x3e42889b	0.18997423
173	0xbc90a25f	-0.01765555
174	0x3dfc7212	0.12326445
175	0xbe8b2072	-0.2717319

kp1.mlp.0.bias f4 [16]
0	0xbe10d5ae	-0.14144012
1	0x3d5a6024	0.053314343
2	0x3e005afd	0.1253471
3	0xbd043d05	-0.032284755
4	0x3e5bd886	0.21469316
5	0x3d453e78	0.048155278
6	0x3e34327e	0.17597386
7	0x3e0426c4	0.12905413
8	0xba09c658	-0.0005255691
9	0x3d86495e	0.065569624
10	0x3e5062db	0.2035021
11	0xbe34a192	-0.17639759
12	0xbde9b2e5	-0.114110745
13	0xbe971046	-0.29504603
14	0xbdead990	-0.11467278
15	0xbe66fae6	-0.22556648

kp1.mlp.2.weight f4 [16, 16]
0	0x3ccef7af	0.02526459
1	0xbe51424c	-0.20435447
2	0x3e9cb933	0.30610046
3	0xbe832757	-0.2561595
4	0x3de385ff	0.11109542
5	0xbdef83aa	-0.11695035
6	0x3d94fa1e	0.072742686
7	0xbdde48b9	-0.108537145
8	0x3deecc74	0.1166009
9	0xbe2e82a2	-0.1704202
10	0xbe69b76e	-0.22823879
11	0x3da0946a	0.07840808
12	0xbd716bef	-0.058940824
13	0x3e3e4f97	0.18585049
14	0xbe2b7002	-0.16741946
15	0x3e7f584a	0.24936023
16	0xbd03aa1b	-0.032144647
17	0xbdf679f1	-0.12034977
18	0x3e426af5	0.18986113
19	0x3ea4804e	0.3212914
20	0x3d9ac31c	0.075567454
21	0x3e25113c	0.16119856
22	0xbdb2e043	-0.08734181
23	0xbe5aaa6a	-0.2135407
24	0xbd5828b3	-0.05277319
25	0xbb0d59e8	-0.002156848
26	0x3c3481da	0.011017287
27	0xbd09a0c7	-0.033600595
28	0x3dff02b3	0.12451687
29	0xbd01ea5e	-0.03171765
30	0xbdc35f14	-0.09539619
31	0xbe057b89	-0.13035406
32	0xbc58e804	-0.013238911
33	0xbdd34989	-0.1031676
34	0x3da67e31	0.08129538
35	0xbe0fa8d6	-0.1402925
36	0xbd47b10f	-0.04875284
37	0x3c19c935	0.00938635
38	0xbd9248ce	-0.07142793
39	0xbe338e45	-0.1753474
40	0x3dfe64c1	0.12421561
41	0x3dec2cfe	0.11532019
42	0xbe2bee70	-0.16790175
43	0xbe912f4a	-0.2835639
44	0xbbc62f27	-0.0060481015
45	0xbddce884	-0.10786536
46	0xbe70b9ea	-0.2350842
47	0x3afd3a9c	0.0019319835
48	0x3e1681d7	0.14697967
49	0x3e4e317d	0.20136066
50	0x3d22de79	0.039762948
51	0x3d18e2e8	0.03732577
52	0xbe1567f1	-0.14590432
53	0xbd101adf	-0.035181876
54	0xbe02a1db	-0.12757055
55	0xbdeb60e3	-0.11493089
56	0xbde1c2d4	-0.11023489
57	0xbe8a7578	-0.27042747
58	0xbe0ea325	-0.13929422
59	0xbd8a0a61	-0.06740261
60	0x3eab8599	0.33500364
61	0x3d6d381e	0.057914846
62	0xbe00da3e	-0.12583253
63	0xbca0c2d2	-0.019624148
64	0x3d9fdbb1	0.07805575
65	0x3e1a57f9	0.15072621
66	0x3e946fec	0.2899164
67	0xbda8c725	-0.08241109
68	0x3d5faf3c	0.054610476
69	0x3e073e71	0.13207413
70	0xbc38ec19	-0.011286759
71	0xbe8b858c	-0.27250326
72	0xbcce15ee	-0.025156941
73	0x3d070938	0.032967776
74	0xbe9001ee	-0.28126472
75	0x3e832b03	0.25618753
76	0x3e24c6df	0.16091488
77	0x3e654a43	0.2239161
78	0xbd962f2b	-0.07333215
79	0xbc50537b	-0.012715216
80	0x3dda677a	0.10664268
81	0x3e4301dd	0.1904368
82	0xbdce23a9	-0.100653954
83	0xbdf513af	-0.11966645
84	0x3e2d9f74	0.16955358
85	0xbda26d51	-0.07931007
86	0xbe9d57e6	-0.30731124
87	0x3dd2fe6b	0.103024326
88	0x3d850cea	0.06496604
89	0x3e03e635	0.12880786
90	0xbd9bdb71	-0.076102145
91	0xbdc38a6c	-0.09547886
92	0xbe497b88	-0.1967603
93	0xbdca7087	-0.09884744
94	0xbdac3c32	-0.08409919
95	0x3d8b9244	0.06815007
96	0x3daf8fa9	0.08572323
97	0xbe36b5b0	-0.17842746
98	0xbbd9e751	-0.0066498895
99	0x3c7fcc3e	0.01561266
100	0xbe38296d	-0.17984553
101	0xbddd9e60	-0.10821223
102	0xbe26e29f	-0.16297387
103	0x3cab34fe	0.020899292
104	0x3e4be0d3	0.19909982
105	0x3d6d33e9	0.057910834
106	0xbe6d5691	-0.23177554
107	0xbe2a0c33	-0.16606216
108	0xbe629ec4	-0.22130877
109	0x3e0c1006	0.13677987
110	0x3bc820ab	0.00610741
111	0x3bd15620	0.0063884407
112	0xbd0099cd	-0.031396676
113	0x3d251ef1	0.04031271
114	0x3e31c876	0.17361626
115	0xbca4ebd2	-0.02013198
116	0xbc3f9fbe	-0.0116958
117	0x3d96ad79	0.07357306
118	0x3db9d2b1	0.09073389
119	0x3db9f3f3	0.09079733
120	0x3e4ded5e	0.2011008
121	0xbe37d156	-0.17950949
122	0xbe0b508e	-0.13604948
123	0xbe7ac315	-0.2448848
124	0xbd8ad956	-0.06779735
125	0x3d63ac65	0.05558433
126	0x3c7b2081	0.015327574
127	0xbe1d5343	-0.15363793
128	0xbd9b50fc	-0.07583806
129	0xbebe84db	-0.37210736
130	0xbedfb180	-0.4369011
131	0x3e2d217f	0.16907309
132	0xbe4db3be	-0.20088097
133	0xbe3e0337	-0.18555914
134	0x3e80ab33	0.25130615
135	0x3e84e29f	0.25954148
136	0x3e9e9b8a	0.30978042
137	0x3eb4e55a	0.3533123
138	0x3e8b8137	0.2724702
139	0xbe13ec02	-0.14445499
140	0xbd3013f8	-0.042987794
141	0x3df987b2	0.12184085
142	0xbd9d9fe8	-0.07696515
143	0x3e0aaf1c	0.13543361
144	0xbdfd5f40	-0.12371683
145	0x3d7da635	0.061926086
146	0x3e83b242	0.25721937
147	0xbe06dfbd	-0.13171287
148	0xbd2e3951	-0.04253513
149	0xbe67c3c7	-0.22633277
150	0xbe3401ac	-0.17578763
151	0xbe96f7bd	-0.29485884
152	0xbdbad79b	-0.09123155
153	0xbdf08c25	-0.117454804
154	0xbd43cf71	-0.047805253
155	0xbe66d337	-0.2254151
156	0x3e3a5f2c	0.18200368
157	0xbc570348	-0.013123341
158	0x3e69f64e	0.22847864
159	0x3e1b83a9	0.15186943
160	0xbd7d171e	-0.061789624
161	0x3e988a4d	0.29793015
162	0x3e8ab515	0.2709128
163	0xbe5a6306	-0.21326837
164	0x3e91900d	0.28430215
165	0xbc64532f	-0.013935848
166	0xbe3e35e7	-0.1857525
167	0xbe9ca38b	-0.30593523
168	0x3bb8c5ca	0.0056388127
169	0x3c6a0b94	0.014284987
170	0xbe8c5a9a	-0.27412874
171	0x3e64a7c5	0.22329624
172	0x3e2cf0a0	0.16888666
173	0x3d8d83bd	0.06909893
174	0xbe11ccdb	-0.14238302
175	0x3e3d20b1	0.18469502
176	0x3c9191dc	0.017769746
177	0xbe59983b	-0.21249478
178	0xbe4cf4e3	-0.20015292
179	0xbd9502ac	-0.072759
180	0xbc10e27f	-0.008843063
181	0x3e0fad84	0.14031035
182	0x3ea40c7b	0.32040772
183	0xbdbbafb9	-0.09164376
184	0x3e14effe	0.14544675
185	0x3e8401a8	0.25782514
186	0x3dbe1bd5	0.09282652
187	0xbc9df688	-0.019282594
188	0x3cf1b87f	0.02950692
189	0x3b55b977	0.0032611766
190	0x3ea899ad	0.32929745
191	0xbd35b01a	-0.044357397
192	0x3e596a9b	0.21232073
193	0xbe682d06	-0.22673425
194	0xbebab135	-0.36463323
195	0x3dd93169	0.10605127
196	0xbea507b2	-0.32232434
197	0xbe7cb7fe	-0.24679562
198	0x3e31a5c5	0.17348392
199	0x3e6eb5e3	0.23311572
200	0xbd03a5ae	-0.032140426
201	0x3d006c87	0.0313535
202	0x3e11707a	0.14203063
203	0xbe6f99e0	-0.23398542
204	0xbde3d19a	-0.11123963
205	0xbdfed690	-0.12443268
206	0x3e78f2a3	0.24311309
207	0xbd550f94	-0.05201681
208	0xbe2bf630	-0.16793132
209	0xbe8ea5f7	-0.27860996
210	0x3e29f10e	0.16595861
211	0xbe9047b4	-0.28179705
212	0xbe5c9cfa	-0.21544257
213	0xbda7f775	-0.082014956
214	0x3e033edf	0.12816952
215	0xbd85b463	-0.06528547
216	0xbce3a572	-0.027788851
217	0x3d3e7532	0.046498485
218	0xbe90625d	-0.28200045
219	0x3b855cec	0.004069915
220	0x3e0ef814	0.13961822
221	0xbe293f9e	-0.16528174
222	0xbc42faaf	-0.011900588
223	0xbea73e50	-0.32664728
224	0xbe1b5bcf	-0.15171741
225	0x3e439ead	0.19103499
226	0xbe886b34	-0.2664429
227	0x3e3fc0b9	0.18725862
228	0x3d569b27	0.05239406
229	0xbdb8526f	-0.09000098
230	0x3dc2f2ad	0.09518943
231	0xbb5b56bb	-0.0033468443
232	0xbe12c123	-0.14331488
233	0xbe0d7f28	-0.13818038
234	0xbd832027	-0.06402617
235	0xbdd006a9	-0.1015752
236	0x3c89f566	0.016840648
237	0xbe68ba2c	-0.22727269
238	0xbbc6bff0	-0.006065361
239	0xbde0e127	-0.109804444
240	0x3d7fdec8	0.06246832
241	0x3e861d6a	0.26194316
242	0xbe03d20d	-0.12873097
243	0xbdb652dd	-0.08902524
244	0x3d753afb	0.0598707
245	0xbd2e06d5	-0.042486984
246	0xbeb1cd29	-0.34726837
247	0xbe4e2793	-0.20132284
248	0xbdd5d76c	-0.10441479
249	0xbf034ddb	-0.51290673
250	0xbd89532a	-0.067053154
251	0xbd66c886	-0.056343578
252	0x3d332d49	0.04374436
253	0x3d122613	0.03568084
254	0xbd49f605	-0.049306888
255	0xbde4f0d7	-0.11178749

kp1.mlp.2.bias f4 [16]
0	0xbc876868	-0.016529277
1	0xbe43ae0b	-0.19109361
2	0x3cac26cf	0.0210146
3	0x3c0e48c2	0.008684339
4	0xbdda9c5d	-0.10674355
5	0x3d3204fd	0.04346179
6	0x3e27494f	0.16336559
7	0xbd81f476	-0.06345455
8	0x3dc79ba8	0.09746486
9	0x3de37275	0.11105815
10	0xbd428f3a	-0.047499873
11	0xbe2fd673	-0.1717165
12	0x3de48513	0.111581944
13	0x3df6ccee	0.12050806
14	0x3dab2148	0.08355957
15	0x3d3598f7	0.04433533

kp2.mlp.0.weight f4 [32, 19]
0	0xc015ab3c	-2.3385763
1	0x4004bba4	2.0739527
2	0xbed242a0	-0.41066456
3	0xbe2f61b4	-0.17127115
4	0x3c2fe144	0.01073486
5	0xbe38f994	-0.18063956
6	0x3de8e4c1	0.11371756
7	0xbdef7b78	-0.11693472
8	0x3e20de11	0.15709712
9	0x3d189c24	0.037258282
10	0x3b1a2336	0.0023519523
11	0xba20130a	-0.00061063527
12	0xbd155990	-0.036462367
13	0x3e47e681	0.19521524
14	0xbe837bca	-0.2568038
15	0xbdbdd885	-0.092698134
16	0xbdff6688	-0.12470728
17	0x3d83204a	0.06402643
18	0xbea2ebb4	-0.31820452
19	0x3ffbba4d	1.966623
20	0xc000624b	-2.0059993
21	0x3e7b80e9	0.24560894
22	0xbdecb776	-0.1155843
23	0xbe562812	-0.20913723
24	0xbcf7eee5	-0.030265281
25	0xbe3cff0b	-0.18456666
26	0xbe788695	-0.24270089
27	0xbd690460	-0.056888938
28	0xbc130ec7	-0.008975691
29	0xbdd802e3	-0.105474256
30	0x3e5812a5	0.21100862
31	0x3e593cf0	0.21214652
32	0xbd7a2a20	-0.06107533
33	0x3dd3115f	0.10306048
34	0x3c726670	0.014794931
35	0x3ea9c403	0.33157358
36	0x3c98092a	0.018559057
37	0xbdc15bc1	-0.09441329
38	0xbffc6722	-1.9718974
39	0x3f31e4f2	0.6948997
40	0x3e723c2c	0.23655766
41	0xbe22278a	-0.15835395
42	0xbd52979b	-0.051414113
43	0xbc46ec99	-0.01214137
44	0x3db690e0	0.089143515
45	0xbdd4995c	-0.103808135
46	0x3d029a4c	0.03188543
47	0xbe12cdf3	-0.14336376
48	0xbc5eb059	-0.013591849
49	0xbe44ad1e	-0.19206664
50	0xbd89bf3b	-0.067259274
51	0xbec7f71e	-0.39055723
52	0xbe022b8a	-0.12711921
53	0x3d02ae7f	0.031904694
54	0xbd5754f3	-0.05257125
55	0x3d202467	0.039097216
56	0x3da0d410	0.07852948
57	0x3f9750c7	1.1821526
58	0x3fd89f82	1.6923678
59	0x3e8b0ef6	0.27159852
60	0x3d55608d	0.05209403
61	0xbddcdacf	-0.10783922
62	0x3e1dfde4	0.15428883
63	0xbe3124aa	-0.17299142
64	0x3c281fe0	0.010261506
65	0x3e1bf3ac	0.15229672
66	0x3d22b8ba	0.03972695
67	0xbe1976c8	-0.14986718
68	0xbdc0be2b	-0.09411272
69	0xbbc51ae9	-0.006015171
70	0xbddf33b9	-0.10898537
71	0xbe856bf0	-0.26058912
72	0xbe3ccda5	-0.18437822
73	0x3dd7a834	0.10530129
74	0xbc186a46	-0.009302681
75	0xbc84957b	-0.01618456
76	0xbf8c534b	-1.0962919
77	0x3fc0aff8	1.5053701
78	0xbef5c6af	-0.48003146
79	0x3d1585a4	0.036504403
80	0x3d24623e	0.040132754
81	0xbd93a04c	-0.072083086
82	0x3d6f38eb	0.05840389
83	0x3d106a66	0.03525772
84	0x3ddab55d	0.106791236
85	0xb95dc167	-0.0002114825
86	0xbcedb8a0	-0.0290187
87	0x3eb07fb7	0.3447244
88	0x3dec6444	0.11542562
89	0x3e4292c8	0.19001305
90	0x3df32e7d	0.11874101
91	0x3eba35bc	0.3636912
92	0x3e2f1b4e	0.1710026
93	0xbd333d33	-0.043759536
94	0x3dfb143a	0.12259717
95	0x3e1edb6c	0.1551339
96	0xbdcace3e	-0.09902619
97	0xbdf2b4eb	-0.118509136
98	0x3e2854bc	0.16438574
99	0x3eafd4e6	0.34342116
100	0xbe547e6d	-0.20751353
101	0xbd921a03	-0.071338676
102	0xbc3c20dc	-0.011482444
103	0xbdbdfbf0	-0.09276569
104	0x3dd38f2c	0.10330042
105	0x3e143822	0.14474538
106	0xbddeeca7	-0.108849816
107	0x3d684cf3	0.05671401
108	0x3c566579	0.013085716
109	0xbd705d0b	-0.058682483
110	0xbe016b99	-0.12638701
111	0x3e4e8f2c	0.20171803
112	0xbd1e1de9	-0.038602743
113	0x3c1a66b2	0.0094238985
114	0x3fe88526	1.8165634
115	0x3fd5d2d4	1.6704965
116	0x3c1ded25	0.009639059
117	0xbccb4ac4	-0.024815924
118	0xbd3c7279	-0.046007607
119	0xbd95b817	-0.07310503
120	0x3e754ec0	0.23955822
121	0xbe49c2b7	-0.19703184
122	0xbd00fa43	-0.03148867
123	0x3a44b74b	0.00075041194
124	0x3d73537a	0.05940578
125	0xbe94621a	-0.28981096
126	0x3ba09e97	0.004901718
127	0x3a935ed0	0.0011243466
128	0xbe04575a	-0.12923947
129	0x3cd7d144	0.026344903
130	0xbc5c9679	-0.01346361
131	0x3c8a1d49	0.016859667
132	0x3d169bcc	0.036769673
133	0xbcfd73ed	-0.030939067
134	0x3fd76210	1.6826801
135	0x3dffc0b6	0.124879286
136	0x3e1e7b27	0.15476666
137	0xbdc0b6b8	-0.09409851
138	0xbdc8e3d9	-0.098090835
139	0xbafa77fb	-0.0019109243
140	0x3c7ddf96	0.015495202
141	0x3e296cc0	0.16545391
142	0xbe0f4e43	-0.13994698
143	0x3d5c09e2	0.053720362
144	0xbe26b235	-0.16278918
145	0x3e1b9dfa	0.15196982
146	0x3ceb1b32	0.028699491
147	0x3dddf8ce	0.10838471
148	0xbd1353af	-0.03596848
149	0xbdb155d8	-0.086589515
150	0xbcb81f4d	-0.022475863
151	0xbced1f81	-0.028945686
152	0x400afa95	2.1715443
153	0xbf9b8d2d	-1.2152458
154	0x3eb39328	0.3507321
155	0x3e6bc390	0.2302382
156	0x3d8a9054	0.0676581
157	0xbdc90c2a	-0.09816773
158	0x3e8342e5	0.25636974
159	0xbdc22ab0	-0.09480798
160	0xbd67f35a	-0.056628563
161	0x3e4cf052	0.2001355
162	0xbc203755	-0.009778817
163	0xbcc215f9	-0.023692118
164	0x3de16336	0.11005251
165	0x3da8a7aa	0.082351044
166	0x3bc29087	0.005937639
167	0xbe95f692	-0.2928968
168	0x3e8fc91e	0.28083128
169	0xbe83b2bb	-0.25722298
170	0xbdb9166e	-0.09037481
171	0x3fe12bb0	1.7591457
172	0x3fef6fe2	1.8706019
173	0xbe40877e	-0.18801686
174	0xbdffa540	-0.12482691
175	0xbd797708	-0.060904533
176	0x3e2f1568	0.1709801
177	0xbdecaee6	-0.11556797
178	0x3e339eec	0.17541093
179	0x3c963448	0.018335477
180	0xbc455f06	-0.012046581
181	0xbc4c266a	-0.0124603305
182	0xbdda987b	-0.106736146
183	0x3dbed39e	0.093177065
184	0x3e0918c7	0.13388358
185	0xbdc50426	-0.09619932
186	0x3d85498b	0.06508168
187	0x3e8938d8	0.2680118
188	0x3d08f568	0.033437163
189	0xbc9e5555	-0.019327799
190	0xbea07e04	-0.31346142
191	0x3ee9e9f2	0.456863
192	0xbe2ff523	-0.17183356
193	0x3e36b17c	0.17841142
194	0x3e85322b	0.26014838
195	0x3cd0a503	0.025469309
196	0x3e300101	0.17187883
197	0x3cb8b853	0.02254883
198	0x3e2e68e1	0.17032196
199	0xbe89c868	-0.2691071
200	0x3e8366e3	0.25664434
201	0x3e25b94c	0.16183966
202	0xbe045eae	-0.12926742
203	0xbd07af76	-0.033126317
204	0x3c73117c	0.014835712
205	0x3da087fa	0.078384355
206	0xbd389704	-0.045065895
207	0x3d2ce56f	0.042210992
208	0x3dd9f9a7	0.106433205
209	0xbffb7ec7	-1.9648064
210	0x3fdd3176	1.7280719
211	0xbe46bb06	-0.19407281
212	0xbdc85795	-0.0978233
213	0xbe0a1069	-0.13482822
214	0xbc61f160	-0.013790458
215	0xbd4c6384	-0.049899593
216	0x3ddb46b3	0.10706844
217	0x3d833392	0.06406321
218	0x3d74d8b1	0.059776966
219	0xbe063276	-0.13105187
220	0x3dbcc42f	0.092171066
221	0x3e261889	0.16220297
222	0xbc451f33	-0.012031364
223	0xbdf3243b	-0.11872145
224	0xbe0ce41e	-0.13758895
225	0xbe315f88	-0.17321599
226	0x3e504aec	0.2034108
227	0x3daa667c	0.083203286
228	0xc001496f	-2.020107
229	0xbfd529b6	-1.6653354
230	0xbdb678e6	-0.08909778
231	0xbe3147ac	-0.17312497
232	0xbcd03809	-0.025417345
233	0x3dfd7d0d	0.12377367
234	0xbd2fa001	-0.0428772
235	0xbe65bfa5	-0.22436388
236	0x3da4def4	0.080503374
237	0xbcc2ba9c	-0.023770623
238	0x3d26065c	0.04053341
239	0xbdea503d	-0.114410855
240	0xbe7e53af	-0.2483661
241	0xbe05dd30	-0.13072658
242	0x3d26c765	0.0407175
243	0x3d984b56	0.07436244
244	0xbd829857	-0.06376713
245	0xbd6c0f5a	-0.057631828
246	0xbdd5b646	-0.104351565
247	0x4003cc58	2.0593472
248	0xc00e0433	-2.2190063
249	0x3d4d29ca	0.05008868
250	0x3d8f631d	0.07001326
251	0x3d957ad6	0.0729882
252	0xbe4c1053	-0.19928102
253	0xbe1bd5e5	-0.15218313
254	0x3e0b508d	0.13604946
255	0xbb3a556a	-0.0028432258

kp2.mlp.0.bias f4 [32]
0	0x3dcc4b70	0.09975326
1	0xbd4e9a04	-0.05043985
2	0x3e52c573	0.20583133
3	0x3da080c2	0.078370586
4	0xbda10fcb	-0.078643404
5	0xbe8358da	-0.25653726
6	0x3e303b3a	0.17210093
7	0x3db793b6	0.089637205
8	0x3e0b5e8a	0.13610283
9	0x3dbfafe7	0.093597226
10	0xbdb691f1	-0.08914555
11	0x3d3441f1	0.0440082
12	0x3e1d6079	0.15368833
13	0x3dae0613	0.08497252
14	0x3da0b623	0.0784724
15	0x3d32b609	0.043630634
16	0x3e2902b8	0.16504943
17	0x3d2a51b1	0.041581813
18	0x3dea0266	0.11426239
19	0x3cd02b3c	0.02541124
20	0x3e167ad1	0.14695288
21	0x3e110581	0.14162256
22	0x3d7b3dfb	0.061338406
23	0x3e2e5a1d	0.17026563
24	0x3d1d8d61	0.038464908
25	0xbd3bb46d	-0.045826364
26	0xbd923ea4	-0.07140854
27	0x3da5bd7a	0.080927804
28	0x3e139c9a	0.14415208
29	0x3df646dd	0.12025235
30	0xbe77c508	-0.24196255
31	0x3c9af3dd	0.018915111

kp2.mlp.2.weight f4 [32, 32]
0	0x3d32248d	0.04349189
1	0x3d279e48	0.040922433
2	0xbe2bcf98	-0.1677841
3	0xbd16e6cf	-0.03684121
4	0xbc35680d	-0.011072171
5	0xba930cf9	-0.0011219076
6	0x3e2f09a1	0.17093517
7	0x3e64daf1	0.22349145
8	0xbdcf6f4f	-0.10128652
9	0x3dc9b960	0.098498106
10	0x3e8fd3ba	0.28091222
11	0xbd71ee50	-0.059065163
12	0xbd87386a	-0.06602557
13	0x3db44861	0.08802868
14	0x3df0781a	0.117416576
15	0x3bfa442b	0.007637521
16	0xbd06f24e	-0.032945924
17	0x3e0c4fc4	0.13702303
18	0xbdd4809b	-0.10376092
19	0xbdc43a02	-0.095813766
20	0x3da49c7b	0.08037659
21	0xbda8d845	-0.08244375
22	0x3d90657c	0.070506066
23	0xbc9bb0e8	-0.019005254
24	0xbddb9b17	-0.107229404
25	0xbe2a6f5e	-0.16644046
26	0xbec9e296	-0.39430684
27	0x3d212457	0.039341297
28	0xbc17a9a6	-0.009256756
29	0x3d897b4c	0.0671297
30	0x3b0ae76d	0.002119507
31	0xbe292c0c	-0.16520709
32	0x3e4eab97	0.20182644
33	0x3d2c53d3	0.04207213
34	0xbd68b24f	-0.056810673
35	0xbc1ca70e	-0.009561313
36	0x3ea73f27	0.3266537
37	0xbdc1da1e	-0.09465431
38	0x3e2aba49	0.16672625
39	0x3e3dd214	0.1853717
40	0x3e37fcc1	0.17967512
41	0x3e442803	0.19155888
42	0xbe97800c	-0.2958988
43	0x3df72d4e	0.12069188
44	0xbe862347	-0.2619879
45	0xbe1090f8	-0.14117801
46	0x3e5072f2	0.20356348
47	0xbeb083cc	-0.34475553
48	0x3e337842	0.17526343
49	0x3e7df0d2	0.24798897
50	0xbb60e6c3	-0.0034317232
51	0x3b203bfe	0.002444982
52	0xbdba81ca	-0.091067865
53	0xbea80d95	-0.32822862
54	0x3e1d7c22	0.15379384
55	0xbddd3490	-0.10801041
56	0x3dbdf774	0.092757136
57	0x3e4caa04	0.19986731
58	0x3e4447f6	0.19168076
59	0x3d8c56d4	0.06852499
60	0xbd2f36bc	-0.04277681
61	0xbcc6f59d	-0.02428704
62	0xbe044f76	-0.12920937
63	0xbe8167a5	-0.25274387
64	0xbe94e0dd	-0.29077807
65	0x3cc39572	0.023874972
66	0xbe224461	-0.15846397
67	0x3e85b7b3	0.26116714
68	0x3e09a4b3	0.13441734
69	0xbdab5118	-0.08365077
70	0x3e4a643f	0.19764803
71	0x3d8ea0ef	0.069642894
72	0x3e4ccad4	0.19999248
73	0x3eb53039	0.35388353
74	0xbe407eaa	-0.18798319
75	0xbe481fe2	-0.19543412
76	0xbedbdf1c	-0.42943656
77	0xbd5877f6	-0.05284878
78	0x3dea400c	0.11437997
79	0xbe0536f1	-0.1300924
80	0x3e07e27d	0.13269992
81	0x3dced889	0.100998946
82	0x3db7a3ef	0.08966815
83	0x3d25f4b3	0.040516566
84	0xbe52db3f	-0.20591448
85	0xbedeed17	-0.4354026
86	0x3e65ed59	0.22453822
87	0xbe3d3502	-0.18477252
88	0x3e01920b	0.12653367
89	0xbd13ad69	-0.03605405
90	0x3c0dce1e	0.008655099
91	0xbe63a326	-0.22230205
92	0xbe4bd750	-0.19906354
93	0xbf0380b2	-0.5136825
94	0x3d50cda8	0.05097738
95	0xbed3f79a	-0.41399843
96	0xbea63208	-0.32460046
97	0x3e6182fb	0.22022621
98	0xbe06d3e6	-0.1316677
99	0x3dbfffa2	0.0937493
100	0xbe779b1b	-0.24180262
101	0x3e4495be	0.19197747
102	0x3c277a5e	0.010222046
103	0xbe6e20bf	-0.23254679
104	0x3e7a21dc	0.24426979
105	0xbda36ad6	-0.07979362
106	0xbda94fed	-0.08267198
107	0xbebbe6ce	-0.36699528
108	0x3e1627d0	0.14663625
109	0x3ebdab09	0.37044552
110	0x3e2030fe	0.15643689
111	0x3ea81104	0.32825482
112	0x3d127de9	0.03576461
113	0xbcd1c700	-0.025607586
114	0x3e625e6f	0.22106336
115	0x3e5ed1ac	0.21759671
116	0xbe9ced8e	-0.3064999
117	0x3e683f5d	0.22680421
118	0x3ed894b9	0.42300966
119	0xbe432871	-0.19058396
120	0x3d9c190b	0.07621964
121	0x3dfd4894	0.12367359
122	0xbd69d4bb	-0.05708764
123	0x3b66ab2a	0.0035197237
124	0xbd603a0d	-0.05474286
125	0x3e010720	0.12600374
126	0xbe031d5e	-0.12804171
127	0xbd9f2060	-0.07769847
128	0x3d9ca397	0.0764839
129	0xbcba0e47	-0.022711886
130	0xbdd6dbf5	-0.10491172
131	0x3e6c4cef	0.23076223
132	0x3e423b1d	0.18967862
133	0xbe12e106	-0.14343652
134	0x3e104523	0.14088874
135	0x3df34b3d	0.11879585
136	0x3e21a7a0	0.157866
137	0x3eb71abc	0.35762584
138	0xbe6e544e	-0.23274347
139	0x3daa78a0	0.08323789
140	0xbe1b7f47	-0.15185271
141	0x3da5bb33	0.08092346
142	0xbd108ef7	-0.035292592
143	0xbdc5f5e0	-0.096660376
144	0x3e1e4813	0.15457182
145	0x3e751fc6	0.23937902
146	0x385b86b9	5.233914e-05
147	0x3e64a0df	0.22326992
148	0x3de3488f	0.11097824
149	0xbeb1d03f	-0.34729192
150	0x3dd6315a	0.10458632
151	0xbcdf42a9	-0.027253466
152	0x3e48eb4f	0.19621013
153	0x3c51888e	0.012788905
154	0x3c8e529b	0.017373374
155	0xbd4c1803	-0.049827587
156	0xbe48c208	-0.19605267
157	0xbe98721b	-0.29774556
158	0xbe2e20be	-0.17004678
159	0xbd36ca45	-0.044626493
160	0xbe674fa4	-0.22588974
161	0xbe38b6af	-0.18038438
162	0xbdd14533	-0.10218277
163	0x3e778b76	0.24174294
164	0x3dd9dc2d	0.10637698
165	0xbdff14b6	-0.12455122
166	0x3e6f58d3	0.23373728
167	0xbc3b39a1	-0.011427314
168	0x3e7a72fe	0.24457929
169	0x3eb07bc8	0.34469438
170	0xbe5398fa	-0.20663825
171	0xbe3b6588	-0.1830045
172	0xbeb90906	-0.36139697
173	0xbb92532f	-0.0044654827
174	0x3e3d84dd	0.18507715
175	0xbd2214a2	-0.03957046
176	0x3df296ff	0.118452065
177	0x3e203510	0.15645242
178	0xbdbe2926	-0.09285192
179	0xbd15d6d7	-0.03658184
180	0xb9bb2085	-0.00035691648
181	0xbebb4d16	-0.3658225
182	0x3e31d1e9	0.1736523
183	0xbdb2ac29	-0.08724243
184	0x3d2f3cc0	0.042782545
185	0x3d6358b2	0.05550451
186	0x3d60ec5d	0.054912914
187	0xbe4c586b	-0.19955604
188	0xbef1fbcf	-0.47262427
189	0xbf020fb7	-0.5080523
190	0x3dc66afc	0.096883744
191	0xbe940751	-0.28911832
192	0xbe65c752	-0.22439316
193	0x3c8d49de	0.017247137
194	0xbd04fd3e	-0.032468073
195	0x3e664fd5	0.22491391
196	0x3dab7f14	0.083738476
197	0x3e4a3ec0	0.197505
198	0x3d29f770	0.04149574
199	0x3e2a3e85	0.16625412
200	0x3d32beb3	0.043638896
201	0x3e5ccbad	0.21562071
202	0x3e887312	0.26650292
203	0xbca09149	-0.019600527
204	0xbe9cd16e	-0.30628532
205	0x3d885e17	0.06658571
206	0xbd42164e	-0.047384553
207	0xbe07315c	-0.13202423
208	0x3d89fbb4	0.06737462
209	0x3e10eaee	0.14152119
210	0xbdb460bd	-0.08807514
211	0xbdc104bf	-0.09424733
212	0xbe74cc33	-0.23906021
213	0xbd8cbe94	-0.068722874
214	0xbd067347	-0.03282478
215	0xbd9decb7	-0.077111654
216	0xbcf08f77	-0.029365284
217	0x3deadbcf	0.114677064
218	0xbc893887	-0.016750587
219	0xbe3975c7	-0.18111335
220	0xbe114857	-0.14187752
221	0xbe7cb21b	-0.24677317
222	0x3d76cfb3	0.06025667
223	0xbd97da21	-0.07414652
224	0x3eccd76a	0.40008098
225	0xbe89d8b5	-0.26923147
226	0x3da41256	0.0801131
227	0xbe1228f4	-0.14273435
228	0x3eaf5ad9	0.34249
229	0x3d56dbf5	0.05245586
230	0x3dbfada5	0.09359292
231	0x3db0c9c2	0.08632232
232	0xbe8e1196	-0.27747792
233	0xbcbbc200	-0.022919655
234	0xbe6fb2c7	-0.23408042
235	0x3e8ebad8	0.27876925
236	0xbe2a190b	-0.16611116
237	0xbee6ad51	-0.45054105
238	0xbd423da4	-0.047422066
239	0xbe8ef5c6	-0.27921885
240	0x3e18f74f	0.1493809
241	0x3e082c78	0.13298213
242	0x3e217770	0.15768218
243	0xbd188787	-0.037238624
244	0x3e357950	0.17722058
245	0x3de31ce0	0.11089492
246	0xbe953d50	-0.2914834
247	0x3e8a121d	0.26966944
248	0x3d7a728d	0.0611444
249	0x3c8adcfa	0.016951073
250	0x3da7d8a9	0.081956215
251	0xbdd8574e	-0.10563527
252	0xbe170e48	-0.14751542
253	0x3dddbcc7	0.10827022
254	0x3e211ef2	0.15734461
255	0xbd8f374e	-0.069929704

kp2.mlp.2.bias f4 [32]
0	0xbe4df268	-0.20112002
1	0x3d66468e	0.05621963
2	0xbe373118	-0.17889822
3	0xbd8a4d64	-0.06753042
4	0x3e07b591	0.13252856
5	0xbe156d06	-0.1459237
6	0xbdfeb25c	-0.12436363
7	0x3d908345	0.07056288
8	0x3d95bfb4	0.07311955
9	0xbd16803b	-0.036743384
10	0xbdb6d988	-0.089282095
11	0x3dda7e07	0.10668569
12	0x3c28c285	0.010300283
13	0x3ad977b6	0.0016591463
14	0xbe6de198	-0.23230588
15	0x3e4c200b	0.19934098
16	0x3d8da5da	0.06916399
17	0xbda17e8c	-0.07885465
18	0xbe19024f	-0.14942287
19	0x3c665af9	0.0140597755
20	0x3c927eac	0.017882667
21	0xbdf6ca9e	-0.12050365
22	0xbc7a3ac8	-0.015272804
23	0xbe2aafb2	-0.16668585
24	0xbe3f1192	-0.18659046
25	0xbe124ee5	-0.14287908
26	0xbd6611ed	-0.05616944
27	0x3da7d971	0.081957705
28	0xbe52a8b8	-0.20572174
29	0x3d99a23b	0.07501646
30	0x3ca0b544	0.019617684
31	0x3d811416	0.06302659

head.0.weight f4 [32, 32]
0	0xbdcc2de2	-0.09969689
1	0x3ec833ad	0.39101925
2	0xbcd05363	-0.025430387
3	0x3ed8d417	0.42349312
4	0x3eba02e2	0.36330324
5	0x3e9627ce	0.29327244
6	0xbdf6d217	-0.1205179
7	0x3ea2dff4	0.31811488
8	0x3f03e088	0.5151448
9	0x3fb2299d	1.3918949
10	0x3f12ac53	0.57294196
11	0x3dd6e8cf	0.104936235
12	0x3e773bcc	0.24143904
13	0x3e9f79c8	0.311476
14	0xbe11dc98	-0.14244306
15	0x3ec38d35	0.3819367
16	0x3f3ae65e	0.7300776
17	0x3e1a137e	0.15046498
18	0x3ea44cd4	0.32089865
19	0xbdb3c39f	-0.08777546
20	0x3e921bd8	0.28536868
21	0x3e6559d9	0.22397555
22	0xbe0e33cf	-0.13886951
23	0x3f8a6d35	1.0814577
24	0xbdd78180	-0.10522747
25	0x3c69e636	0.014276078
26	0x3ed75467	0.4205658
27	0x3e04509b	0.12921374
28	0x3f38df58	0.72215796
29	0x3eb2122e	0.34779495
30	0x3f1f600a	0.6225592
31	0x3eb933ab	0.36172232
32	0x3e08ecf3	0.13371639
33	0xbd9f683f	-0.07783555
34	0x3d64c117	0.055848207
35	0xbddd5567	-0.10807305
36	0xbb952908	-0.0045520104
37	0x3e1baa36	0.15201649
38	0xbd4de5ad	-0.050267864
39	0x3c3773ae	0.011197014
40	0x3e28021a	0.16407052
41	0x3c4a9e34	0.01236682
42	0xbd13f546	-0.036122583
43	0x3b4e1d0e	0.0031450423
44	0xbe005f67	-0.12536393
45	0xbce7641a	-0.028245974
46	0xbc398e7a	-0.011325473
47	0x3ca55a9b	0.020184806
48	0x3d98ce9b	0.07461282
49	0xbc77e09f	-0.015129237
50	0xbd136c83	-0.035992157
51	0x3dba5c5d	0.09099648
52	0x3de6081d	0.11232016
53	0xbcc6f6a2	-0.024287526
54	0xbd1f5824	-0.038902417
55	0xbc0dbb36	-0.008650592
56	0xbdb795f5	-0.08964149
57	0x3e5f68b6	0.21817288
58	0xbce1cbcf	-0.027563004
59	0x3c08a51c	0.008340146
60	0xbd0abf10	-0.033873618
61	0xbd3a8971	-0.04554123
62	0xbdc08f16	-0.094022915
63	0xbe7cc781	-0.2468548
64	0xbd9a7ad7	-0.07542961
65	0x3e39a16d	0.18127985
66	0x3eae8486	0.34085482
67	0x3e7ca3ce	0.24671862
68	0x3e4b02cd	0.19825287
69	0x3d70cc95	0.058788855
70	0xbd6b8951	-0.057504002
71	0x3e050e71	0.1299379
72	0x3c08ffc5	0.008361761
73	0x3ef0f9cd	0.47065583
74	0x3e8881cb	0.26661524
75	0xbdcd6277	-0.10028546
76	0x3d2814a0	0.041035295
77	0x3e2c201e	0.16809127
78	0x3e17ca27	0.14823209
79	0x3e17e6bd	0.14834113
80	0x3ee87895	0.45404497
81	0x3d857ed5	0.06518332
82	0x3ecf95ae	0.40543884
83	0xbd468414	-0.048465803
84	0x3e554736	0.20827946
85	0xbd1a3d9a	-0.037656404
86	0xbd0f4321	-0.03497613
87	0x3e3388b6	0.1753262
88	0xbe152896	-0.14566264
89	0x3cbe4448	0.023225918
90	0x3e587e74	0.21141988
91	0x3e3370b2	0.17523459
92	0x3df42fbf	0.11923169
93	0x3e2a9a8a	0.16660514
94	0x3e0391c0	0.12848568
95	0x3e6eb7c9	0.23312296
96	0x3e53150b	0.20613496
97	0x3de91812	0.11381544
98	0x3ea1996f	0.31562373
99	0x3deeb11f	0.11654877
100	0x3b58dfe3	0.0033092431
101	0x3eb2c172	0.34913212
102	0x3e15fa56	0.14646277
103	0xbe797f19	-0.2436489
104	0xbdee516f	-0.11636626
105	0x3e174a16	0.14774355
106	0x3dc95840	0.098312855
107	0xbec80c3a	-0.39071828
108	0xbd3f752c	-0.046742603
109	0xbddd15f7	-0.10795205
110	0x3dfcc0bc	0.12341449
111	0xbe8a93fa	-0.27066022
112	0xbbaa733f	-0.0052017267
113	0x3e435fd3	0.19079523
114	0x3de1ed54	0.11031595
115	0xbd5e8763	-0.054328334
116	0xbe9a8db1	-0.30186227
117	0xbc9bfbde	-0.019040998
118	0x3c2e0234	0.010620642
119	0x3e326cb5	0.17424281
120	0xbdab8cd7	-0.083764724
121	0x3e8420a5	0.25806156
122	0x3ecb2f01	0.396843
123	0xbe4143a2	-0.18873456
124	0x3e023398	0.12714994
125	0x3d6cf777	0.05785319
126	0x3e2bc9dc	0.16776222
127	0xbd665dbf	-0.056241747
128	0x3e0404c9	0.1289245
129	0x3e468f80	0.19390678
130	0x3e2e9416	0.17048678
131	0x3dd1e328	0.10248405
132	0x3e18f51f	0.14937256
133	0x3dc6087f	0.09669589
134	0xbddd9856	-0.108200714
135	0x3eae024d	0.3398613
136	0x3e66c672	0.22536638
137	0x3f54f5fa	0.8318783
138	0x3ecdbd51	0.401835
139	0xbe629217	-0.22126041
140	0x3d7682b0	0.060183227
141	0x3f144693	0.5792019
142	0x3d8113a0	0.06302571
143	0x3e582f91	0.21111895
144	0x3ec746a7	0.3892109
145	0xbe2022a2	-0.15638211
146	0x3ded1913	0.11577048
147	0xbe253fb3	-0.1613758
148	0x3ec36bae	0.3816809
149	0x3e66753a	0.22505656
150	0x3ba4f5a9	0.005034168
151	0x3f4d51b9	0.80202824
152	0xbe04a78c	-0.12954539
153	0xbdc8b9a4	-0.09801033
154	0x3e8dfce9	0.27732018
155	0x3d1e5ef3	0.03866477
156	0x3f72b0ab	0.94800824
157	0x3e0bf505	0.13667686
158	0x3ec9bffe	0.3940429
159	0x3daeb12d	0.08529887
160	0xbd0d5362	-0.03450335
161	0xbd2fd44c	-0.04292707
162	0x3e9bc1e2	0.30421358
163	0x3e479d51	0.19493605
164	0x3d270c80	0.040783405
165	0x3e8580ef	0.2607493
166	0xbbd9ffe1	-0.0066528176
167	0x3b2836be	0.0025667395
168	0x3e00c300	0.12574387
169	0xbd723e56	-0.05914148
170	0x3d2a6f1a	0.04160986
171	0x3d138c53	0.036022495
172	0x3e04badb	0.12961905
173	0xbd9329c6	-0.07185702
174	0x3e154082	0.14575389
175	0xbd27ed8c	-0.040998027
176	0x3e17142b	0.14753787
177	0x3e61a829	0.22036804
178	0x3f0f99b4	0.5609391
179	0x3e4d4106	0.20044336
180	0xbdebf432	-0.11521186
181	0xbdf28bdc	-0.11843082
182	0x3d8e1423	0.069374345
183	0x3d3734f3	0.04472823
184	0x3dab1937	0.08354419
185	0x3dea1343	0.11429455
186	0x3d57adb8	0.052655905
187	0x3e273fb6	0.16332898
188	0xbe1f3635	-0.15548022
189	0xbd1feffa	-0.03904722
190	0xbd839e03	-0.06426623
191	0x3e31e437	0.17372213
192	0xbea7477a	-0.3267172
193	0x3ddd21c0	0.10797453
194	0xbf1990f5	-0.5998681
195	0xbd1dbefd	-0.03851222
196	0x3e005e4f	0.12535976
197	0xbf329414	-0.697572
198	0xbef32c4c	-0.47494733
199	0xbdbb04c1	-0.09131766
200	0xbf7de739	-0.9918094
201	0xbf9c3e5a	-1.2206528
202	0xbf18c0c5	-0.5966914
203	0xbd22fe3b	-0.039793234
204	0xbe7826ae	-0.24233505
205	0xbf2544e4	-0.64558244
206	0xbf016496	-0.50544107
207	0x3e1cede3	0.15325122
208	0xbeb269c5	-0.3484632
209	0xbf387743	-0.7205698
210	0xbf6b8df7	-0.92013496
211	0xbedf6030	-0.43628073
212	0xbea55116	-0.32288426
213	0x3e4b9bf9	0.19883718
214	0xbe0c6e61	-0.13713981
215	0xbfba7fe8	-1.4570284
216	0xbf0536d2	-0.52036774
217	0xbec5f9b2	-0.38667065
218	0xbf45511c	-0.7707689
219	0x3d90c633	0.070690535
220	0xbf832fa3	-1.0248913
221	0xbed8295b	-0.42219052
222	0xbf79b3f1	-0.97540194
223	0x3d202c47	0.039104726
224	0xbd9f1dc0	-0.07769346
225	0xbd9c103d	-0.07620285
226	0x3e0bc394	0.13648826
227	0x3d2b672f	0.04184645
228	0x3dc0c4ab	0.094125114
229	0x3ecfbcf9	0.40573862
230	0x3e094bf3	0.13407879
231	0x3d76e10c	0.060273215
232	0x3e7c641e	0.24647567
233	0x3e04d5aa	0.12972131
234	0xbde669c0	-0.11250639
235	0x3e4dfc17	0.20115696
236	0x3e4ab822	0.19796804
237	0x3da368de	0.07978986
238	0x3d8c4029	0.06848175
239	0x3e11107f	0.14166449
240	0x3e6a6504	0.22890097
241	0x3e186b3d	0.14884658
242	0x3ee75924	0.45185196
243	0x3e5ec993	0.21756582
244	0xbdb964e4	-0.090524465
245	0xbe15e0df	-0.14636563
246	0xbd8aa19c	-0.06769106
247	0xbcceaea9	-0.025229769
248	0x3bc0344d	0.0058656097
249	0xbad0f3da	-0.0015941814
250	0x3cda08b7	0.026615484
251	0x3da6487d	0.08119295
252	0x3e089290	0.13337159
253	0x3d973b00	0.073843
254	0x3eb7de2e	0.35911697
255	0xbd45f162	-0.048325904

head.0.bias f4 [32]
0	0xbc83fe2d	-0.016112411
1	0xbcc3380e	-0.02383044
2	0x3e1645bb	0.14675038
3	0xbd436169	-0.04770032
4	0x3da5def4	0.080991656
5	0x3e54eb9c	0.20793003
6	0x3e9791c4	0.29603398
7	0x3d91ffb3	0.07128849
8	0x3e2061d8	0.15662324
9	0xbd97cf35	-0.074125685
10	0x3908abf0	0.00013034022
11	0x3e42a9b6	0.19010052
12	0x3e2f30de	0.17108485
13	0xbe7cff44	-0.24706751
14	0x3cc0f36e	0.023553576
15	0x3d70b660	0.058767676
16	0x3e1a1a95	0.15049203
17	0xbe60c161	-0.21948768
18	0xbe9dc560	-0.30814648
19	0xbd86a9cd	-0.06575356
20	0xbc30474d	-0.010759187
21	0xbe562292	-0.20911625
22	0xbea0b47d	-0.31387702
23	0x3d0c65e6	0.034276865
24	0xbe08e98b	-0.1337034
25	0x3e37df44	0.17956263
26	0xbdb530dc	-0.0884721
27	0xbd9bb180	-0.07602215
28	0x3de6fc46	0.11278586
29	0x3e619576	0.22029671
30	0xbe18ce6f	-0.14922498
31	0xbd3acdf2	-0.04560656

head.2.weight f4 [3, 32]
0	0x3e90f1d6	0.28309506
1	0x3d84d24f	0.06485426
2	0x3e438daa	0.1909701
3	0xbe6c2e46	-0.23064527
4	0x3d076934	0.033059314
5	0xbc049cc7	-0.008094019
6	0xbf28c47a	-0.659248
7	0x3dad2bcf	0.084556215
8	0x3e797798	0.24362028
9	0x3e2b6d41	0.16740896
10	0x3ebcdd1c	0.36887443
11	0x3e46465a	0.19362774
12	0x3e5ae0e2	0.21374848
13	0xbe585f92	-0.21130207
14	0xbdcdf5c7	-0.10056644
15	0x3e437acf	0.19089817
16	0x3e673df9	0.22582234
17	0xbea2334e	-0.31679767
18	0xbeae12a5	-0.339986
19	0xbcfb3feb	-0.030670127
20	0x3e6504d3	0.22365122
21	0x3cfe75d6	0.031062048
22	0xbe336b66	-0.17521438
23	0x3e97f32e	0.2967772
24	0x3e0b99a5	0.1363283
25	0x3daa711b	0.083223544
26	0xbc0cc949	-0.008592912
27	0xbe32d910	-0.17465615
28	0xbebae357	-0.36501572
29	0xbb8f3e9f	-0.0043714787
30	0x3a5af3fc	0.00083523965
31	0x3acd0f59	0.0015644833
32	0x3d8ed39c	0.06973955
33	0xbd259795	-0.040427763
34	0xbd102d92	-0.03519971
35	0x3e0b3d35	0.13597567
36	0x3d8f1aff	0.06987571
37	0xbe521ef6	-0.20519623
38	0xbe9a8684	-0.30180752
39	0xbdc4a42d	-0.096016265
40	0x3d63c676	0.05560919
41	0xbd0c36cc	-0.034231946
42	0x3d14dae7	0.036341574
43	0x3dba135c	0.09085724
44	0x3d823a80	0.06358814
45	0x3da0dc46	0.07854514
46	0x3d6e7574	0.05821748
47	0xbe026f0c	-0.12737674
48	0xbe000a90	-0.1250403
49	0x3eb0690e	0.3445515
50	0x3e09bc85	0.1345082
51	0x3e0967c1	0.13418485
52	0xbe17c981	-0.14822961
53	0x3e10134b	0.1406986
54	0x3e12b771	0.1432779
55	0xbe31bcd2	-0.17357185
56	0x3dfba047	0.1228643
57	0xbe559c30	-0.20860362
58	0x3d373747	0.04473045
59	0xbd74679f	-0.059669133
60	0xbe83dad6	-0.25752896
61	0xbeb4e2e2	-0.35329348
62	0x3e3f1108	0.1865884
63	0xbdc9527d	-0.098301865
64	0xbf8743e5	-1.0567595
65	0x3de367f7	0.11103814
66	0xbe97adb2	-0.29624707
67	0x3da46eec	0.08028969
68	0xbf4ac24d	-0.7920273
69	0xbd8be1d4	-0.06830183
70	0x3f32395b	0.6961877
71	0x3cefe020	0.029281676
72	0xbe96c703	-0.2944871
73	0xbe5c179a	-0.21493378
74	0xbf8e32e8	-1.1109285
75	0xbf020e2f	-0.5080289
76	0xbe76b183	-0.24091153
77	0x3d83fcc0	0.064446926
78	0xbe39ad86	-0.181326
79	0x3e09397a	0.13400832
80	0x3cb2c5ea	0.021822888
81	0x3dc95e58	0.09832448
82	0xbe7de2d8	-0.24793565
83	0x3dd5492b	0.10414346
84	0xbf00e81b	-0.50354165
85	0xbd5e6757	-0.05429777
86	0x3e051159	0.12994899
87	0xbeb5ec8e	-0.3553204
88	0x3e072634	0.13198167
89	0xbb5c4792	-0.0033611995
90	0x3de41cdd	0.11138318
91	0x3d25cf8e	0.040481143
92	0x3e84fd57	0.25974533
93	0x3d42e8f9	0.04758546
94	0x3daaf438	0.08347362
95	0x3e8bd17f	0.2730827

head.2.bias f4 [3]
0	0xbe280348	-0.16407502
1	0xbdfe664f	-0.124218576
2	0x3e114b62	0.14188913
