checkpoints_kpconv_25nov/checkpoint_epoch_7_25nov.pth (torch, 19277 bytes, 14 tensors)

fc0.weight f4 [8, 3]
-0.032175597 -0.03195444 0.2914576 -0.0026977253 -0.12072408 0.27783623 -0.3079315 0.018700821
0.020170463 -0.1701002 -0.009316957 0.041499354 0.22409245 0.17407404 0.29914293 -0.30422404
-0.047121562 -0.21118103 -0.22433138 -0.1968004 -0.40696034 -0.23848157 -0.31236848 -0.012973409
00000000: 8fca 03bd a9e2 02bd ee39 953e 52cc 30bb
00000010: 303e f7bd 8d40 8e3e 33a9 9dbe 7732 993c
00000020: 873c a53c bf2e 2ebe 26a6 18bc 3afb 293d
00000030: 7e78 653e 7740 323e 4329 993e 41c3 9bbe
00000040: 8a02 41bd d73f 58be 20b7 65be 0b86 49be
00000050: 1b5d d0be 8334 74be c3ee 9fbe 6c8e 54bc

fc0.bias f4 [8]
-0.5507968 -0.43642506 -0.12490235 0.23457211 -0.39565977 0.2917603 -0.0055219484 -0.6807353
00000000: 0501 0dbf 1b73 dfbe cecc ffbd ac33 703e
00000010: eb93 cabe 9b61 953e 76f1 b4bb ab44 2ebf

kp1.mlp.0.weight f4 [16, 11]
-0.16657254 0.016564583 0.2493308 0.23987249 -0.17848018 0.004793736 0.02243391 -0.2732541
-0.3108764 -0.1612378 0.021124134 -0.76892424 -1.7247367 0.57907104 -0.05670017 0.05651314
-0.037716568 -0.09997781 0.058795962 0.12290824 0.054098405 0.031683244 -1.6553838 -1.4651729
-0.8369088 -0.053096354 -0.107938014 -0.075725585 0.09396641 -0.027407749 0.041875027 0.10510497
0.005475587 1.1517097 0.88128024 0.59157676 0.2076995 -0.07528692 -0.17926939 -0.16669662
0.07306179 0.17042112 -0.2946129 0.12561664 -0.28149214 -1.1254599 0.09545836 -0.17659105
-0.019153142 -0.026160326 -0.32866734 -0.06321101 -0.12808184 0.2101855 -0.15399396 -1.0993862
-1.491549 -0.56635594 -0.16407439 -0.31795684 -0.075356446 0.054590914 0.07686056 0.25667125
0.07296801 -0.08134292 0.41463876 1.5445764 -1.1404017 0.2030613 -0.17666362 -0.04061554
-0.1870838 0.008849297 0.13168707 -0.1272712 0.09680036 0.8495009 1.1066062 0.46435773
0.09008355 -0.12053741 0.036467683 -0.10060946 -0.032537784 -0.13198256 -0.095735505 0.07896389
0.48901048 1.5064472 -0.72099197 -0.010854493 0.25390804 0.26854533 -0.100774094 0.16152987
-0.3062801 -0.21394874 0.14246696 0.74130976 0.70107555 -0.9045572 0.15100184 -0.10043343
-0.23551421 0.0163505 -0.14311656 0.09268943 0.15530299 -0.07594363 1.6333789 1.1854861
0.87677926 -0.07931378 -0.059792876 0.08916102 0.18529591 0.0025414312 -0.26623946 0.099121936
-0.11318359 -1.4157 -1.2836281 -0.66497254 0.031341527 0.20545495 0.15935677 -0.10212565
0.16324587 0.0040763505 -0.07261531 -0.0935266 -1.3566738 -0.91314524 -0.43322256 0.29111862
0.1562607 -0.0101692565 -0.37345764 0.14661726 0.0050112526 0.017398875 -0.13771799 -0.93158555
0.16681047 0.07454559 0.13921848 0.25343385 -0.05342036 -0.056803633 -0.23962264 -0.053919286
0.08433975 0.075446956 0.5053332 0.9716771 0.02098758 0.19638167 -0.3656978 -0.1723568
-0.24608669 0.10330026 -0.08791707 0.0629042 0.060609512 -0.4774374 -0.33290753 -0.8877352
0.11582174 -0.30127606 0.19720468 -0.21291983 0.20124437 0.024138432 0.1602333 -0.27165827
00000000: fe91 2abe 73b2 873c 9350 7f3e 22a1 753e
00000010: 82c3 36be c614 9d3b 52c7 b73c f6e7 8bbe
00000020: 312b 9fbe 861b 25be 850c ad3c 38d8 44bf
00000030: 2cc4 dcbf 003e 143f 703e 68bd 537a 673d
00000040: b07c 1abd 2bc1 ccbd 09d4 703d 51b7 fb3d
00000050: 4a96 5d3d 4ac6 013d 9ee3 d3bf c98a bbbf
00000060: a83f 56bf 907b 59bd 9b0e ddbd 0416 9bbd
00000070: 7671 c03d 3786 e0bc 2685 2b3d 4641 d73d
00000080: 8e6c b33b 396b 933f 959b 613f 9371 173f
00000090: 2daf 543e 0730 9abd 6592 37be 85b2 2abe
000000a0: 6ba1 953d e082 2e3e 81d7 96be a6a1 003e
000000b0: bd1f 90be 120f 90bf ac7f c33d 49d4 34be
000000c0: 0de7 9cbc 2e4e d6bc 1647 a8be c674 81bd
000000d0: e327 03be de3a 573e 98b0 1dbe b0b8 8cbf
000000e0: 14eb bebf b4fc 10bf 1e03 28be 3dcb a2be
000000f0: 7b54 9abd b99a 5f3d 1269 9d3d 6a6a 833e
00000100: 4170 953d 1e97 a6bd 884b d43e aeb4 c53f
00000110: aff8 91bf 4def 4f3e 4fe7 34be 7b5c 26bd
00000120: e592 3fbe a4fc 103c fad8 063e 6253 02be
00000130: 443f c63d e478 593f 46a5 8d3f 4cc0 ed3e
00000140: b97d b83d 51dc f6bd 235f 153d 550c cebd
00000150: 5746 05bd 7026 07be fa10 c4bd d2b7 a13d
00000160: 955f fa3e 43d3 c03f ee92 38bf 0bd7 31bc
00000170: 3c00 823e c67e 893e a662 cebd 1668 253e
00000180: bfd0 9cbe 6115 5bbe dce2 113e 7ac6 3d3f
00000190: b079 333f 1091 67bf 3aa0 1a3e 0bb0 cdbd
000001a0: a32a 71be 7cf1 853c 268d 12be f5d3 bd3d
000001b0: bf07 1f3e 5588 9bbd 8f12 d13f 02be 973f
000001c0: 9b74 603f 436f a2bd 60e9 74bd 0e9a b63d
000001d0: 36be 3d3e 248e 263b 8a50 88be 7100 cb3d
000001e0: cccc e7bd a835 b5bf ed4d a4bf a43b 2abf
000001f0: f95f 003d c862 523e 6c2e 233e 4127 d1bd
00000200: ed29 273e e892 853b 56b7 94bd e08a bfbd
00000210: 7da7 adbf e3c3 69bf 59cf ddbe 800d 953e
00000220: ce02 203e f49c 26bc d735 bfbe d622 163e
00000230: 6f35 a43b 1688 8e3c f205 0dbe 647c 6ebf
00000240: 5dd0 2a3e 5cab 983d 4a8f 0e3e 15c2 813e
00000250: 4fcf 5abd edaa 68bd a35f 75be 78da 5cbd
00000260: 52ba ac3d ef83 9a3d 845d 013f d5bf 783f
00000270: 25ee ab3c 4718 493e be3c bbbe 4d7e 30be
00000280: 26fe 7bbe 168f d33d dd0d b4bd ebd3 803d
00000290: ae41 783d ad72 f4be db72 aabe 9d42 63bf
000002a0: f333 ed3d db40 9abe 06f0 493e a807 5abe
000002b0: 0113 4e3e f6bd c53c 3314 243e cb16 8bbe

kp1.mlp.0.bias f4 [16]
-0.14144027 0.049405325 0.1348015 -0.051631466 0.19392315 0.07516797 0.18427652 0.1606864
-0.044207186 0.062458504 0.22557838 -0.15902604 -0.11134301 -0.30912656 -0.11842114 -0.19639005
00000000: b8d5 10be 3d5d 4a3d 6809 0a3e 847b 53bd
00000010: ca93 463e aaf1 993d fcb2 3c3e fa8a 243e
00000020: 9812 35bd 7dd4 7f3d 05fe 663e b9d7 22be
00000030: ce07 e4bd d645 9ebe c886 f2bd 791a 49be

kp1.mlp.2.weight f4 [16, 16]
0.02526459 -0.18767513 0.29279378 -0.19671488 0.078818165 -0.09693503 0.05846618 -0.1426742
0.12985013 -0.1563516 -0.24076678 0.08483637 -0.058265787 0.19172007 -0.13626091 0.29056385
-0.032144707 -0.120347336 0.18683392 0.34923306 0.06618226 0.1859131 -0.08064809 -0.22906168
-0.04381187 -0.01345887 0.004276559 -0.01600605 0.1419599 -0.043453496 -0.07811888 -0.10420073
-0.013238911 -0.09997606 0.081844576 -0.11096683 -0.11480728 0.03418453 -0.059665907 -0.1709557
0.163409 0.1350315 -0.16254418 -0.2622045 0.012282883 -0.07632888 -0.20234308 0.050616004
0.14697967 0.20857479 0.04564713 0.03195686 -0.13370696 -0.016067412 -0.12097252 -0.12768613
-0.13147172 -0.27682075 -0.13533188 -0.06350803 0.3365193 0.034377493 -0.1318853 -0.03507814
0.07805575 0.1446793 0.27471617 -0.03508386 0.04033823 0.13935454 -0.008176695 -0.28052297
-0.015691139 0.048712067 -0.2820585 0.26569 0.16026312 0.21766979 -0.052374974 0.03232221
0.10664268 0.16978693 -0.10027043 -0.14748958 0.12600562 -0.0695954 -0.29829326 0.09908694
0.051529594 0.13809335 -0.08796296 -0.10187635 -0.22464867 -0.10511332 -0.089468 0.03320567
0.08572323 -0.20662813 -0.023273079 -0.02477856 -0.16081055 -0.12863816 -0.18580037 0.005592908
0.15110227 0.0603468 -0.23891234 -0.20109458 -0.25590432 0.13174601 -0.029718073 -0.030779423
-0.031396676 0.050225455 0.17345476 -0.0014144877 -0.034451257 0.114622146 0.09029898 0.068275146
0.20082967 -0.1686954 -0.14395915 -0.23382 -0.069953226 0.06754987 0.026642997 -0.12243958
-0.075960316 -0.33888018 -0.439983 0.16489512 -0.18440253 -0.18189165 0.2352269 0.23202927
0.28487477 0.34257272 0.25239146 -0.12105997 -0.021702588 0.09490103 -0.07904634 0.18234794
-0.12371683 0.054912306 0.25232676 -0.13058117 -0.036468104 -0.22700103 -0.15800416 -0.2560761
-0.09867312 -0.085600756 -0.033072967 -0.22496854 0.16681314 -0.016771622 0.22760953 0.15777417
-0.061789624 0.28663033 0.2595027 -0.17753841 0.2646606 -0.0040992065 -0.18014397 -0.32070145
0.0007822593 0.025145233 -0.2751498 0.23182401 0.16270007 0.053978153 -0.12373859 0.22319518
0.017712278 -0.17143393 -0.20126155 -0.056236293 0.0014937719 0.1542312 0.30213338 -0.11819119
0.13114947 0.24576592 0.08022058 -0.008502682 0.05473947 -0.012740129 0.33684182 -0.0026378636
0.21221235 -0.21449283 -0.36866325 0.095073916 -0.3030564 -0.25558937 0.16411142 0.20508052
-0.060681835 0.018768143 0.12702142 -0.21587446 -0.085701354 -0.15870424 0.23904388 -0.025943683
-0.16793132 -0.26365173 0.16393553 -0.3082394 -0.20415565 -0.085050896 0.12507637 -0.05980008
-0.06251137 0.060519997 -0.2608752 -0.016367089 0.11071611 -0.18105295 -0.033629972 -0.3414551
-0.1516952 0.16358022 -0.2870524 0.1701109 0.06967839 -0.1345888 0.08154961 0.0377442
-0.17075337 -0.13077061 -0.054025866 -0.12395997 -0.0035110605 -0.24986252 -0.024940927 -0.13114507
0.06246832 0.26441354 -0.12142256 -0.0501267 0.029544186 0.0012897177 -0.3141882 -0.22654006
-0.07425979 -0.499428 -0.06974576 -0.033402212 0.060808875 0.0275828 -0.016204325 -0.05760083
00000000: aff7 ce3c e92d 40be 11e9 953e a06f 49be
00000010: 6b6b a13d df85 c6bd 3c7a 6f3d 2f19 12be
00000020: 6ff7 043e a21a 20be 918b 76be b1be ad3d
00000030: 1ba8 6ebd 4452 443e fb87 0bbe c9c4 943e
00000040: 2baa 03bd aa78 f6bd 6451 3f3e adce b23e
00000050: 918a 873d 0160 3e3e d32a a5bd 258f 6abe
00000060: 1374 33bd 9882 5cbc 6122 8c3b 1f1f 83bc
00000070: f05d 113e 4bfc 31bd cbfc 9fbd 3167 d5bd
00000080: 04e8 58bc 40c0 ccbd 219e a73d 9442 e3bd
00000090: 1420 ebbd 1405 0c3d 3d64 74bd 030f 2fbe
000000a0: b054 273e b345 0a3e fb71 26be ab3f 86be
000000b0: 253e 493c 5152 9cbd 0633 4fbe ba52 4f3d
000000c0: d781 163e a194 553e 7cf8 3a3d 32e5 023d
000000d0: 7aea 08be ce9f 83bc 71c0 f7bd 27c0 02be
000000e0: 86a0 06be 73bb 8dbe 7194 0abe 7f10 82bd
000000f0: 424c ac3e 6acf 0c3d f10c 07be 19ae 0fbd
00000100: b1db 9f3d cf26 143e 99a7 8c3e 18b4 0fbd
00000110: b339 253d f5b2 0e3e 8bf7 05bc b5a0 8fbe
00000120: b48a 80bc 4e86 473d f969 90be 8508 883e
00000130: 041c 243e d4e4 5e3e 2487 56bd 4b64 043d
00000140: 7a67 da3d a0dc 2d3e 955a cdbd 8207 17be
00000150: 9e07 013e 0888 8ebd e5b9 98be 18ee ca3d
00000160: b210 533d 5868 0d3e ed25 b4bd 8ca4 d0bd
00000170: 4d0a 66be a745 d7bd 003b b7bd ab02 083d
00000180: a98f af3d 5396 53be 2fa7 bebc 68fc cabc
00000190: 85ab 24be b9b9 03be 7442 3ebe b644 b73b
000001a0: 8eba 1a3e 352e 773d 70a5 74be bdeb 4dbe
000001b0: e405 83be 6de8 063e 5173 f3bc 2125 fcbc
000001c0: cd99 00bd 35b9 4d3d 209e 313e 5566 b9ba
000001d0: c31c 0dbd 04bf ea3d acee b83d d7d3 8b3d
000001e0: 4ba6 4d3e 7dbe 2cbe 076a 13be 836e 6fbe
000001f0: a343 8fbd 9657 8a3d 6a42 da3c 9ac1 fabd
00000200: 1591 9bbd b481 adbe 7445 e1be 44da 283e
00000210: 04d4 3cbe ce41 3abe 52df 703e 1599 6d3e
00000220: 1bdb 913e b165 af3e 7439 813e 4aee f7bd
00000230: a0c9 b1bc 795b c23d 0ce3 a1bd 6bb9 3a3e
00000240: 405f fdbd baeb 603d f930 813e 12b7 05be
00000250: 945f 15bd f572 68be d8cb 21be 681c 83be
00000260: 2215 cabd 734f afbd 8577 07bd 275e 66be
00000270: 10d1 2a3e a464 89bc 7912 693e 8d8f 213e
00000280: 1e17 7dbd 36c1 923e 8add 843e a1cc 35be
00000290: 9881 873e a352 86bb a977 38be fb32 a4be
000002a0: 8810 4d3a 60fd cd3c 6fe0 8cbe 4663 6d3e
000002b0: d99a 263e 3218 5d3d a86a fdbd 478d 643e
000002c0: 5719 913c 608c 2fbe 8217 4ebe 0758 66bd
000002d0: abca c33a c9ee 1d3e 3ab1 9a3e 390e f2bd
000002e0: 0c4c 063e 10aa 7b3e b04a a43d d54e 0bbc
000002f0: 7f36 603d f9bb 50bc 8876 ac3e 02e0 2cbb
00000300: 324e 593e 02a4 5bbe 6ec1 bcbe 1db6 c23d
00000310: 352a 9bbe 9cdc 82be d30c 283e a100 523e
00000320: 848d 78bd a6bf 993c e711 023e 320e 5dbe
00000330: 3184 afbd 5d83 22be ebc7 743e d987 d4bc
00000340: 30f6 2bbe 5cfd 86be b7de 273e 8ed1 9dbe
00000350: 2e0e 51be 2a2f aebd 0514 003e eef0 74bd
00000360: f605 80bd d1e3 773d 6f91 85be 4614 86bc
00000370: 21bf e23d f265 39be 95bf 09bd 34d3 aebe
00000380: fd55 1bbe 9381 273e 88f8 92be 8d31 2e3e
00000390: 8bb3 8e3d a5d1 09be 7b03 a73d aa99 1a3d
000003a0: f9d9 2ebe bbe8 05be 3a4a 5dbd bade fdbd
000003b0: d219 66bb f6db 7fbe ea50 ccbc e54a 06be
000003c0: c8de 7f3d 3661 873e 64ac f8bd a851 4dbd
000003d0: a606 f23c bf0b a93a 47dd a0be 1efa 67be
000003e0: 8415 98bd 07b5 ffbe ddd6 8ebd c2d0 08bd
000003f0: ba12 793d 53f5 e13c efbe 84bc d9ee 6bbd

kp1.mlp.2.bias f4 [16]
-0.027036212 -0.19130303 0.024318013 0.017980034 -0.110360496 0.032002576 0.1458705 -0.06338792
0.0881933 0.12106133 -0.052692782 -0.17806886 0.10351352 0.12437712 0.08003031 0.050690092
00000000: 0c7b ddbc f1e4 43be 9236 c73c dd4a 933c
00000010: af04 e2bd 2215 033d 145f 153e 87d1 81bd
00000020: b09e b43d 01ef f73d 63d4 57bd af57 36be
00000030: e5fe d33d 6eb9 fe3d eee6 a33d 6aa0 4f3d

kp2.mlp.0.weight f4 [32, 19]
-2.3146644 2.0506804 -0.42546394 -0.18538575 0.0053076623 -0.18810183 0.10334272 -0.15701841
0.16654387 0.05402925 -0.013151448 0.012332402 -0.04074894 0.14686747 -0.25748894 -0.056509376
-0.09887955 0.09407551 -0.32507443 1.934577 -1.9897702 0.26746565 -0.1479573 -0.22405933
-0.05222144 -0.21844839 -0.27403566 -0.066385984 -0.031128772 -0.16374142 0.23573205 0.21867049
-0.08863711 0.10538928 0.036548004 0.32505932 0.036210146 -0.13188702 -1.953247 0.6666451
0.1675708 -0.16957216 -0.06312363 -0.018348979 0.09657663 -0.12031228 0.03451209 -0.12512839
-0.014689593 -0.15400854 -0.050048392 -0.40069824 -0.13429748 0.084536634 -0.026219778 0.070090786
0.0799034 1.1546483 1.6798671 0.24367821 0.039971247 -0.11310348 0.17480464 -0.1897726
-0.007001036 0.16218641 0.05570511 -0.15333214 -0.08167197 -0.012000025 -0.14117354 -0.25423816
-0.16633081 0.12514032 -0.005511696 -0.030111954 -1.0577476 1.4908906 -0.43607488 0.05016008
0.053911168 -0.04507646 0.06381871 0.044902265 0.119301684 -0.012078479 -0.01531644 0.31002218
0.1042038 0.18492576 0.12153319 0.33115765 0.16680229 -0.049514852 0.13124667 0.15623888
-0.097830765 -0.11950805 0.1655617 0.342255 -0.20631137 -0.072522566 -0.010308242 -0.09396335
0.10447021 0.14594367 -0.11007486 0.05789229 0.014083786 -0.059895884 -0.12761486 0.20290914
-0.03981423 0.008248062 1.7794033 1.6526631 -0.033965506 -0.05374475 -0.06054834 -0.08231449
0.22860612 -0.22392952 -0.038206913 0.013295596 0.053371556 -0.25319907 0.014951906 -0.036811784
-0.12789711 0.0749901 0.014330056 0.044290654 0.020577624 -0.031859316 1.6666535 0.12926131
0.13437578 -0.100035265 -0.0844732 -0.03682547 -0.00930381 0.15115689 -0.14074151 0.04782426
-0.15721495 0.13737856 -0.014264561 0.12866314 -0.029926421 -0.06589791 -0.0297257 -0.06785979
2.1446867 -1.1877652 0.37022078 0.18337905 0.052121103 -0.0932827 0.23963064 -0.12328131
-0.04751139 0.20805308 -0.019768808 -0.009689195 0.12163059 0.042233 -0.015607981 -0.27800214
0.29315963 -0.2408177 -0.10450088 1.7326777 1.854581 -0.17156303 -0.15449706 -0.07443062
0.18863963 -0.1328996 0.15848403 0.027335407 0.0023406567 -0.032553874 -0.09817682 0.10297821
0.11940061 -0.10257072 0.079879925 0.29654548 0.049426917 -0.031049775 -0.2752333 0.4191954
-0.15063567 0.17500736 0.25369996 0.046441466 0.13989732 0.0021114703 0.16967386 -0.2677484
0.25688988 0.14199166 -0.14597532 -0.05509889 0.0042434474 0.052684825 -0.050153196 0.027198793
0.09801584 -1.942425 1.708144 -0.20013776 -0.10270098 -0.124624625 0.006375538 -0.06687759
0.06546992 0.08973999 0.06731887 -0.18423156 0.08062687 0.15346745 -0.05349014 -0.1000461
-0.12702096 -0.1629584 0.22110316 0.0788413 -1.9995816 -1.6577107 -0.12255985 -0.18257016
-0.027798323 0.12204504 -0.025507731 -0.23630092 0.09453513 -0.007137471 0.033016205 -0.105239175
-0.23630863 -0.13311662 0.029093713 0.09761017 -0.048070498 -0.028808773 -0.08733562 2.0354097
-2.2023795 0.07560725 0.033065252 0.059247818 -0.21465918 -0.1779786 0.08219821 0.026325326
00000000: 7623 14c0 593e 0340 69d6 d9be c3d5 3dbe
00000010: e6eb ad3b c49d 40be 59a5 d33d 6fc9 20be
00000020: 7a8a 2a3e c64d 5d3d 2c79 57bc d80d 4a3c
00000030: 5ce8 26bd 6d64 163e 97d5 83be 6076 67bd
00000040: 5d81 cabd a9aa c03d 2870 a6be 38a0 f73f
00000050: cab0 febf 42f1 883e 1e82 17be cf6f 65be
00000060: 26e6 55bd efb0 5fbe 674e 8cbe 60f5 87bd
00000070: c401 ffbc d5ab 27be be63 713e 28eb 5f3e
00000080: 6087 b5bd 56d6 d73d 5cb3 153d 2d6e a63e
00000090: 1751 143d 640d 07be ff03 fabf 41a9 2a3f
000000a0: ae97 2b3e 53a4 2dbe f646 81bd 9950 96bc
000000b0: f8c9 c53d 4966 f6bd 8d5c 0d3d a821 00be
000000c0: 9eac 70bc 6ab4 1dbe 8bff 4cbd 5228 cdbe
000000d0: 4785 09be 8b21 ad3d dcca d6bc c28b 8f3d
000000e0: 65a4 a33d 84cb 933f e305 d73f c886 793e
000000f0: e4b8 233d cca2 e7bd fdff 323e c053 42be
00000100: f268 e5bb 3214 263e 0b2b 643d 1a03 1dbe
00000110: a243 a7bd c19b 44bc cc8f 10be 812b 82be
00000120: a052 2abe c924 003e 759b b4bb 58ad f6bc
00000130: 4664 87bf 81d5 be3f 3545 dfbe a874 4d3d
00000140: f5d1 5c3d 18a2 38bd 62b3 823d 70eb 373d
00000150: 7154 f43d d0e4 45bc cef1 7abc 3abb 9e3e
00000160: cd68 d53d 2e5d 3d3e 65e6 f83d 7f8d a93e
00000170: 38ce 2a3e 16d0 4abd 8765 063e 16fd 1f3e
00000180: 7f5b c8bd a3c0 f4bd 0289 293e 0c3c af3e
00000190: 4a43 53be b686 94bd e7e3 28bc db6f c0bd
000001a0: 7af4 d53d 4272 153e ee6e e1bd 7720 6d3d
000001b0: aebf 663c 6355 75bd 78ad 02be 6ac7 4f3e
000001c0: 3f14 23bd e122 073c 7dc3 e33f 778a d33f
000001d0: 6a1f 0bbd 7423 5cbd 8901 78bd 8094 a8bd
000001e0: b917 6a3e c84d 65be da7e 1cbd c6d5 593c
000001f0: 229c 5a3d 4fa3 81be d7f8 743c f4c7 16bd
00000200: 76f7 02be 6994 993d 9cc8 6a3c 1e6a 353d
00000210: 6892 a83c ea7e 02bd e754 d53f 145d 043e
00000220: ce99 093e 4adf ccbd 4900 adbd 4ed6 16bd
00000230: 026f 18bc dfc8 1a3e 8b1e 10be 5fe3 433d
00000240: f5fc 20be f7ac 0c3e e8b5 69bc 45c0 033e
00000250: 4128 f5bc 7cf5 86bd 5083 f3bc 13fa 8abd
00000260: 8c42 0940 b108 98bf 948d bd3e b8c7 3b3e
00000270: f07c 553d 000b bfbd bc61 753e e97a fcbd
00000280: 4e9b 42bd de0b 553e 32f2 a1bc 6ebf 1ebc
00000290: 7519 f93d 83fc 2c3d 9eb8 7fbc 4c56 8ebe
000002a0: 0519 963e ea98 76be 8f04 d6bd 62c8 dd3f
000002b0: e962 ed3f 38ae 2fbe 7a34 1ebe 156f 98bd
000002c0: bf2a 413e d516 08be a349 223e 81ee df3c
000002d0: b465 193b 3657 05bd ee10 c9bd 3de6 d23d
000002e0: 4f88 f43d 9910 d2bd 1698 a33d cfd4 973e
000002f0: e173 4a3d 195c febc 61eb 8cbe c8a0 d63e
00000300: 3d40 1abe 2135 333e f6e4 813e 6839 3e3d
00000310: 3e41 0f3e 9860 0a3b fcbe 2d3e 5116 89be
00000320: 1287 833e 4366 113e 8e7a 15be 60af 61bd
00000330: 9e0c 8b3b 0bcc 573d 706d 4dbd 01d0 de3c
00000340: 87bc c83d 62a1 f8bf 76a4 da3f eaf0 4cbe
00000350: e454 d2bd 323b ffbd e4e9 d03b 1ef7 88bd
00000360: 1815 863d 9ac9 b73d 7ade 893d 33a7 3cbe
00000370: b31f a53d 9226 1d3e 7a18 5bbd f8e4 ccbd
00000380: c811 02be 91de 26be de68 623e 8c77 a13d
00000390: 4af2 ffbf dd2f d4bf a900 fbbd acf3 3abe
000003a0: 4fb9 e3bc c0f2 f93d 97f5 d0bc def8 71be
000003b0: a29b c13d 72e1 e9bb 003c 073d a387 d7bd
000003c0: e4fa 71be b94f 08be f055 ee3c d7e7 c73d
000003d0: 92e5 44bd 6000 ecbc 04dd b2bd 2744 0240
000003e0: c9f3 0cc0 f9d7 9a3d 6e6f 073d d7ad 723d
000003f0: 9ecf 5bbe 0640 36be 8957 a83d 36a8 d73c

kp2.mlp.0.bias f4 [32]
0.09760913 -0.042301033 0.21702306 0.07193234 -0.0936665 -0.25533205 0.18463217 0.085159495
0.14924811 0.10323893 -0.10409304 0.020573214 0.1511567 0.08216753 0.06717999 0.02062146
0.16066065 0.038933482 0.157054 0.025170801 0.13915756 0.13430633 0.044830155 0.18467589
0.044946313 -0.027402028 -0.08467101 0.08747066 0.1418582 0.122379825 -0.24305497 0.013596487
00000000: 4ce7 c73d d943 2dbd 4b3b 5e3e 4351 933d
00000010: 39d4 bfbd e2ba 82be 3710 3d3e 1a68 ae3d
00000020: 7fd4 183e ef6e d33d bb2e d5bd 2889 a83c
00000030: d2c8 1a3e 7347 a83d aa95 893d 56ee a83c
00000040: 3a84 243e b778 1f3d c4d2 203e ff32 ce3c
00000050: 527f 0e3e 9987 093e d39f 373d ad1b 3d3e
00000060: a019 383d 387a e0bc ff67 adbd d123 b33d
00000070: 4743 113e 46a2 fa3d 67e3 78be cdc3 5e3c

kp2.mlp.2.weight f4 [32, 32]
0.058835093 0.021276424 -0.15710211 -0.03643097 0.013215085 -0.0022724422 0.1787139 0.22845735
-0.09762643 0.103815205 0.2606436 -0.048494153 -0.055982802 0.08236348 0.1264449 0.005588415
-0.027790641 0.14564352 -0.085416004 -0.08960726 0.08983546 -0.07837021 0.07352981 0.005288032
-0.10295042 -0.18349129 -0.36987185 0.047384933 -0.010500815 0.08008413 0.0031972413 -0.15580276
0.18614756 0.031244937 -0.0709272 -0.016414834 0.30432326 -0.09562656 0.15487677 0.17595325
0.17622231 0.18144396 -0.2780239 0.11086555 -0.26990938 -0.14443769 0.19968346 -0.3511504
0.17023928 0.24390958 -0.006889266 -0.015636194 -0.09950927 -0.34659424 0.15449941 -0.13324
0.08522732 0.17007421 0.1765749 0.054684803 -0.05479226 -0.038052704 -0.13161057 -0.26241788
-0.29423198 0.0072418055 -0.16208819 0.2583735 0.09250463 -0.08472466 0.18919322 0.06701641
0.19521056 0.3438048 -0.16897215 -0.19757423 -0.428411 -0.066693425 0.101802506 -0.13982026
0.13552605 0.09157749 0.10265971 0.048475537 -0.19999431 -0.4499966 0.21592155 -0.19561724
0.11315715 -0.066175126 -0.02624351 -0.22608718 -0.2044537 -0.52098125 0.048897486 -0.41668576
-0.31963322 0.2087786 -0.13810065 0.09406705 -0.2523038 0.19101445 0.003806111 -0.21925887
0.23607175 -0.08543589 -0.040164325 -0.35386112 0.14031242 0.35898986 0.162431 0.31873295
0.042508945 -0.023253556 0.21419771 0.20885798 -0.30289632 0.21348566 0.41517872 -0.19983047
0.07287235 0.096253045 -0.07260582 0.003733286 -0.06326686 0.115803294 -0.13032496 -0.0786171
0.05712771 -0.02694396 -0.120767705 0.22319458 0.15871319 -0.14428233 0.12730081 0.107475534
0.15296778 0.3453443 -0.21402155 0.07008376 -0.16067281 0.077827774 -0.043332968 -0.10113282
0.1485688 0.23161916 -0.0057893796 0.2151519 0.10103854 -0.3647024 0.10258872 -0.057562433
0.18595798 -0.013036672 -0.0060769916 -0.06574457 -0.20620175 -0.3133424 -0.1721546 -0.055742253
-0.23198733 -0.19690053 -0.10787649 0.2370893 0.07060564 -0.12562259 0.22481391 -0.016838422
0.24039274 0.33452266 -0.19405599 -0.18672052 -0.3611292 -0.015695432 0.17640807 -0.047068477
0.1192124 0.14959492 -0.08077218 -0.03272717 0.0018365167 -0.37961316 0.16798976 -0.09983521
0.031059746 0.023865197 0.028093813 -0.20618077 -0.479789 -0.51403016 0.09471395 -0.29066187
-0.19637288 -0.0036207645 -0.015206281 0.2300781 0.08724648 0.19635655 0.05269948 0.17924109
0.050654203 0.22092433 0.24174957 -0.0024341678 -0.28850946 0.060189646 -0.04242954 -0.13329221
0.080499046 0.1517084 -0.04175778 -0.06639914 -0.21913777 -0.06190802 -0.027966706 -0.037841767
-0.030220037 0.0833127 -0.006039907 -0.16403623 -0.1374203 -0.22874476 0.060806576 -0.05820246
0.38930705 -0.28969005 0.06905134 -0.14121488 0.3268235 0.051476013 0.08952258 0.08423443
-0.26800022 -0.026115116 -0.20315488 0.2708151 -0.17522448 -0.45195886 -0.04230228 -0.28993452
0.15413836 0.1309024 0.16799885 -0.044067193 0.17150751 0.093158424 -0.276801 0.25355843
0.059199296 -0.010934746 0.07063716 -0.11648568 -0.15901114 0.09410921 0.1553962 -0.07957189
00000000: 11fd 703d e54b ae3c 60df 20be a438 15bd
00000010: 1584 583c 41ed 14bb c700 373e b9f0 693e
00000020: 5ef0 c7bd 119d d43d 1473 853e cea1 46bd
00000030: 394e 65bd 2fae a83d c67a 013e 061f b73b
00000040: 33a9 e3bc 9323 153e 96ee aebd 0384 b7bd
00000050: a7fb b73d 9080 a0bd cc96 963d 3a47 ad3b
00000060: abd7 d2bd 24e5 3bbe d85f bdbe b416 423d
00000070: 9c0b 2cbc 2603 a43d cf88 513b c28a 1fbe
00000080: 779d 3e3e 62f5 ff3c 4842 91bd 6778 86bc
00000090: 42d0 9b3e dcd7 c3bd 0498 1e3e 172d 343e
000000a0: 9f73 343e 72cc 393e 2659 8ebe 7a0d e33d
000000b0: 9031 8abe 79e7 13be d279 4c3e fcc9 b3be
000000c0: 3553 2e3e 6fc3 793e 5abf e1bb 7a17 80bc
000000d0: 84cb cbbd cd74 b1be 1835 1e3e 1170 08be
000000e0: a98b ae3d ef27 2e3e 0dd0 343e 2cfd 5f3d
000000f0: d96d 60bd 27dd 1bbd ecc4 06be a35b 86be
00000100: 93a5 96be ab4c ed3b 72fa 25be 8849 843e
00000110: 1173 bd3d 1f84 adbd debb 413e e63f 893d
00000120: 47e5 473e 2f07 b03e 0907 2dbe e650 4abe
00000130: b058 dbbe 9096 88bd d57d d03d 0b2d 0fbe
00000140: 57c7 0a3e fb8c bb3d 413f d23d 498e 463d
00000150: 4fcb 4cbe f465 e6be 8a1a 5d3e e34f 48be
00000160: f0be e73d d386 87bd a1fc d6bc 6683 67be
00000170: 505c 51be 075f 05bf bb48 483d d657 d5be
00000180: f7a6 a3be 0fca 553e 426a 0dbe 3aa6 c03d
00000190: f72d 81be 4b99 433e f26f 793b 6685 60be
000001a0: cbbc 713e 03f9 aebd 5983 24bd 492d b5be
000001b0: 0fae 0f3e 85cd b73e 5054 263e f730 a33e
000001c0: dc1d 2e3d 3e7e bebc a556 5b3e dede 553e
000001d0: 3a15 9bbe fc9b 5a3e 4e92 d43e 5ca0 4cbe
000001e0: 193e 953d 5120 c53d 5cb2 94bd 25aa 743b
000001f0: 0e92 81bd 472a ed3d e873 05be 0102 a1bd
00000200: bffe 693d 94b9 dcbc 0f55 f7bd 1f8d 643e
00000210: b685 223e bfbe 13be 255b 023e 221c dc3d
00000220: 96a3 1c3e f8d0 b03e 7728 5bbe 1388 8f3d
00000230: 6a87 24be 2b64 9f3d e97d 31bd b91e cfbd
00000240: 6b22 183e 932d 6d3e d6b4 bdbb c850 5c3e
00000250: 4bed ce3d 46ba babe 091a d23d 96c6 6bbd
00000260: c56b 3e3e c497 55bc 8021 c7bb 17a5 86bd
00000270: 8d26 53be 6a6e a0be 4c49 30be fd51 64bd
00000280: 168e 6dbe 4ba0 49be 59ee dcbd 8ac7 723e
00000290: b199 903d 35a3 00be 9e35 663e bbf0 89bc
000002a0: 8429 763e 8e46 ab3e 9db6 46be aa33 3fbe
000002b0: ede5 b8be b593 80bc 51a4 343e e0ca 40bd
000002c0: a125 f43d 692f 193e e26b a5bd ed0c 06bd
000002d0: 46b7 f03a a85c c2be 8205 2c3e 6776 ccbd
000002e0: 0271 fe3c f280 c33c ff24 e63c 0d21 53be
000002f0: e7a6 f5be 7b97 03bf 63f9 c13d a2d1 94be
00000300: f915 49be 594a 6dbb c423 79bc 9899 6b3e
00000310: 48ae b23d b111 493e 69db 573d fa8a 373e
00000320: c87a 4f3d fd39 623e 338d 773e 8f86 1fbb
00000330: 83b7 93be 6b89 763d 99ca 2dbd c17d 08be
00000340: afdc a43d 7259 1b3e 350a 2bbd 46fc 87bd
00000350: a765 60be 4493 7dbd 6f1a e5bc f8ff 1abd
00000360: 0390 f7bc d99f aa3d 6aea c5bb 1df9 27be
00000370: e8b7 0cbe 113c 6abe 5110 793d b465 6ebd
00000380: 4153 c73e 4152 94be ca6a 8d3d a29a 10be
00000390: 6955 a73e 83d8 523d 9d57 b73d 1a83 ac3d
000003a0: 5337 89be 5eef d5bc d507 50be 47a8 8a3e
000003b0: 0c6e 33be 2767 e7be 2845 2dbd 4c72 94be
000003c0: 72d6 1d3e 470b 063e e407 2c3e cd7f 34bd
000003d0: aa9f 2f3e d8c9 be3d dcb8 8dbe 69d2 813e
000003e0: f67a 723d a627 33bc 37aa 903d 0b90 eebd
000003f0: d1d3 22be 54bc c03d 2e20 1f3e 96f6 a2bd

kp2.mlp.2.bias f4 [32]
-0.18495658 0.047247842 -0.18601902 -0.07468609 0.11929587 -0.1514545 -0.10439984 0.06493166
0.06849194 -0.042814232 -0.094011664 0.10227394 0.0036008277 0.0009982294 -0.22008324 0.18623346
0.061307717 -0.081407964 -0.1577527 0.03796861 0.014375536 -0.12686451 0.0011927328 -0.1699672
-0.16305096 -0.13400204 -0.060034256 0.074490406 -0.21074069 0.06944805 0.013383803 0.05129117
00000000: 4265 3dbe f486 413d c57b 3ebe 05f5 98bd
00000010: 6551 f43d e316 1bbe 95cf d5bd e4fa 843d
00000020: 8145 8c3d fa5d 2fbd 3089 c0bd 0075 d13d
00000030: ddfb 6b3b 05d7 823a 805d 61be fcb3 3e3e
00000040: cd1d 7b3d 38b9 a6bd ec89 21be f984 1b3d
00000050: 5e87 6b3c c5e8 01be 7955 9c3a e20b 2ebe
00000060: d5f6 26be d537 09be 7be6 75bd 6d8e 983d
00000070: 68cc 57be c73a 8e3d bd47 5b3c b116 523d

head.0.weight f4 [32, 32]
-0.090610765 0.39540306 -0.0010563862 0.41537797 0.36194566 0.3206983 -0.107984714 0.30818167
0.53627586 1.3736951 0.55404747 0.11454411 0.25771013 0.3260386 -0.12657073 0.36619264
0.7168414 0.16972426 0.33593625 -0.07587462 0.26275727 0.2153396 -0.12965162 1.0763264
-0.09495703 0.03202527 0.44822958 0.11532454 0.71508205 0.35686126 0.63700604 0.34397095
0.13371639 -0.07783555 0.055848207 -0.10807305 -0.0045520104 0.15201649 -0.050267864 0.011197014
0.16407052 0.01236682 -0.036122583 0.0031450423 -0.12536393 -0.028245974 -0.011325473 0.020184806
0.07461282 -0.015129237 -0.035992157 0.09099648 0.11232016 -0.024287526 -0.038902417 -0.008650592
-0.08964149 0.21817288 -0.027563004 0.008340146 -0.033873618 -0.04554123 -0.094022915 -0.2468548
-0.07419372 0.17364225 0.3613835 0.24012786 0.19448255 0.077751435 -0.051202293 0.11649296
0.016234927 0.452799 0.2515404 -0.11430529 0.046137884 0.15685223 0.15796909 0.13488118
0.4417748 0.0785157 0.41607988 -0.046860967 0.18847688 -0.042258468 -0.027324384 0.16564074
-0.13879035 0.032947946 0.21834973 0.16115518 0.11043536 0.17114401 0.123102196 0.2191083
0.20058821 0.1310584 0.32398543 0.12748365 0.02036571 0.36369228 0.15338391 -0.23283063
-0.0978521 0.15304598 0.08542398 -0.37016937 -0.03311082 -0.087002285 0.11145445 -0.25655442
0.00907178 0.19225122 0.11342389 -0.031485494 -0.30333892 -0.02101079 0.020371415 0.17976996
-0.08438287 0.25144833 0.41563666 -0.18521284 0.11520673 0.07446045 0.18241109 -0.0437166
0.13577032 0.22773585 0.18778083 0.10210681 0.16583262 0.12141454 -0.09829738 0.35436374
0.26390433 0.82524455 0.40460262 -0.17506406 0.09631701 0.63039494 0.07251419 0.21077299
0.38453192 -0.14601713 0.12147722 -0.14521827 0.3725339 0.22065769 0.008243712 0.79965967
-0.12359837 -0.08699882 0.31670892 0.04038555 0.96955055 0.15756 0.4434772 0.07835203
-0.04347949 -0.06401828 0.2944567 0.18132184 0.030787455 0.23489799 -0.02049196 -0.017105315
0.09998244 -0.079026565 0.019070681 0.02185275 0.11108701 -0.118505076 0.14367077 -0.052459713
0.13261817 0.19517402 0.50029075 0.1646461 -0.13504884 -0.12308503 0.07197503 0.02294341
0.067196675 0.109839 0.0012909416 0.14475791 -0.18086618 -0.0564229 -0.098897286 0.16335414
-0.31189144 0.0871099 -0.5906469 -0.029376235 0.107096665 -0.6917832 -0.46371043 -0.09565059
-0.994423 -1.1901128 -0.57130665 -0.037131585 -0.2492729 -0.6474943 -0.49336368 0.14956662
-0.33177432 -0.70263094 -0.88243866 -0.42648408 -0.2959198 0.20719898 -0.124149255 -1.4055165
-0.50489765 -0.37703946 -0.76677513 0.07984233 -1.0019263 -0.4192097 -0.974695 0.046313833
-0.07764661 -0.100450896 0.15189476 0.02224506 0.07942292 0.39654943 0.1333004 0.035681866
0.22332317 0.095504895 -0.13836455 0.1852688 0.17904331 0.04577934 0.07837827 0.120605946
0.200335 0.15039252 0.41842228 0.19028252 -0.12589855 -0.16033919 -0.076806724 -0.057265796
0.007500537 0.0025403698 -0.018741403 0.055758577 0.1112693 0.055606216 0.33248496 -0.07189302
00000000: 2392 b9bd 4572 ca3e 7076 8aba 6cac d43e
00000010: f150 b93e 9132 a43e 1727 ddbd fdc9 9d3e
00000020: 6049 093f 3ed5 af3f 0ed6 0d3f 1a96 ea3d
00000030: 95f2 833e 88ee a63e c29b 01be 9a7d bb3e
00000040: eb82 373f 32cc 2d3e d6ff ab3e 2764 9bbd
00000050: 1f88 863e fc81 5c3e 65c3 04be 10c5 893f
00000060: d578 c2bd ee2c 033d 597e e53e 462f ec3d
00000070: 9e0f 373f 85b6 b63e d412 233f f61c b03e
00000080: f3ec 083e 3f68 9fbd 17c1 643d 6755 ddbd
00000090: 0829 95bb 36aa 1b3e ade5 4dbd ae73 373c
000000a0: 1a02 283e 349e 4a3c 46f5 13bd 0e1d 4e3b
000000b0: 675f 00be 1a64 e7bc 7a8e 39bc 9b5a a53c
000000c0: 9bce 983d 9fe0 77bc 836c 13bd 5d5c ba3d
000000d0: 1d08 e63d a2f6 c6bc 2458 1fbd 36bb 0dbc
000000e0: f595 b7bd b668 5f3e cfcb e1bc 1ca5 083c
000000f0: 10bf 0abd 7189 3abd 168f c0bd 81c7 7cbe
00000100: e1f2 97bd 46cf 313e 4207 b93e 14e4 753e
00000110: 6f26 473e 253c 9f3d 7fb9 51bd dc93 ee3d
00000120: 1cff 843c 45d5 e73e e7c9 803e e418 eabd
00000130: 14fb 3c3d df9d 203e a6c2 213e 4b1e 0a3e
00000140: 4e30 e23e d7cc a03d 6c08 d53e 49f1 3fbd
00000150: 1500 413e 3717 2dbd 63d7 dfbc ba9d 293e
00000160: 0f1f 0ebe 6df4 063d 1297 5f3e dd05 253e
00000170: ef2b e23d 6040 2f3e 011d fc3d ed5d 603e
00000180: ff66 4d3e 2c34 063e 6be1 a53e 138b 023e
00000190: fdd5 a63c e035 ba3e ac10 1d3e 276b 6ebe
000001a0: af66 c8bd 16b8 1c3e c5f2 ae3d d786 bdbe
000001b0: 369f 07bd 412e b2bd 3b42 e43d 1a5b 83be
000001c0: cea1 143c 81dd 443e c94a e83d eff6 00bd
000001d0: 3d4f 9bbe d21e acbc f4e1 a63c 9e15 383e
000001e0: edd0 acbd d6bd 803e 54ce d43e 6fa8 3dbe
000001f0: 82f1 eb3d b87e 983d f9c9 3a3e 2d10 33bd
00000200: 6007 0b3e 9633 693e 9e49 403e 601d d13d
00000210: 07d0 293e 30a8 f83d 2350 c9bd 2a6f b53e
00000220: 781e 873e 3a43 533f 1328 cf3e fe43 33be
00000230: da41 c53d 9061 213f 5282 943d e0d4 573e
00000240: 5ee1 c43e 8485 15be 0cc9 f83d 19b4 14be
00000250: c3bc be3e 17f4 613e a210 073c 7fb6 4c3f
00000260: 2421 fdbd 702c b2bd ac27 a23e 526b 253d
00000270: 7734 783f 6957 213e 720f e33e 0777 a03d
00000280: 8d17 32bd 041c 83bd 07c3 963e 6fac 393e
00000290: f935 fc3c 1989 703e c1de a7bc 7220 8cbc
000002a0: 98c3 cc3d aed8 a1bd 1e3a 9c3c 8a04 b33c
000002b0: 9681 e33d cab2 f2bd 6e1e 133e ffdf 56bd
000002c0: 0fcd 073e b3db 473e 0e13 003f fd98 283e
000002d0: 3e4a 0abe 0114 fcbd a567 933d d1f3 bb3c
000002e0: 699e 893d 45f3 e03d d034 a93a 6b3b 143e
000002f0: fc34 39be b31b 67bd a98a cabd 4f46 273e
00000300: 3cb0 9fbe ad66 b23d a334 17bf 6ea6 f0bc
00000310: 7f55 db3d b418 31bf 746b edbe 75e4 c3bd
00000320: 8192 7ebf 9e55 98bf 2741 12bf 4a17 18bd
00000330: 6541 7fbe 30c2 25bf 2a9a fcbe fe27 193e
00000340: 53de a9be 9fdf 33bf 80e7 61bf 1f5c dabe
00000350: cd82 97be f82b 543e f741 febd f7e7 b3bf
00000360: f940 01bf 510b c1be 604b 44bf 6084 a33d
00000370: 1f3f 80bf a7a2 d6be 9d85 79bf 93b3 3d3d
00000380: 3005 9fbd 33b9 cdbd 4d8a 1b3e 463b b63c
00000390: 7ca8 a23d 8708 cb3e e67f 083e 2627 123d
000003a0: d4ae 643e 1298 c33d 70af 0dbe 1bb7 3d3e
000003b0: 2157 373e 1e83 3b3d c984 a03d 4000 f73d
000003c0: 9e24 4d3e 7f00 1a3e 723b d63e 6cd9 423e
000003d0: 8deb 00be f52f 24be d84c 9dbd 8a8f 6abd
000003e0: 11c7 f53b 557c 263b 9287 99bc 1b63 643d
000003f0: 29e1 e33d 58c3 633d 783b aa3e a63c 93bd

head.0.bias f4 [32]
-0.030377606 -0.02383044 0.13301894 -0.022747565 0.08249902 0.19703235 0.27855486 0.050372127
0.14492032 -0.09147236 -0.016465856 0.18519637 0.1696912 -0.19873029 0.020896712 0.03688382
0.13434038 -0.1708453 -0.2826902 -0.06575356 -0.029765429 -0.20911598 -0.30699804 0.01690325
-0.1337034 0.1542891 -0.091085434 -0.07602215 0.10641389 0.20762749 -0.08748194 -0.03331073
00000000: 75da f8bc 0e38 c3bc 1e36 083e 1a59 babc
00000010: 3ff5 a83d d9c2 493e be9e 8e3e 0153 4e3d
00000020: fe65 143e dc55 bbbd 67e3 86bc 1ea4 3d3e
00000030: 88c3 2d3e f47f 4bbe 952f ab3c 7d13 173d
00000040: 8690 093e 12f2 2ebe c5bc 90be cda9 86bd
00000050: a1d6 f3bc 8022 56be d92e 9dbe af78 8a3c
00000060: 8be9 08be f6fd 1d3e 008b babd 80b1 9bbd
00000070: 87ef d93d 4d9c 543e bb29 b3bd d570 08bd

head.2.weight f4 [3, 32]
0.2630464 0.06485426 0.17443569 -0.2362628 0.010266047 -0.021878839 -0.6449401 0.06465747
0.22638187 0.15473557 0.3497227 0.17373173 0.19734837 -0.20318963 -0.099135585 0.17567734
0.20137845 -0.27172482 -0.32643357 -0.030670127 0.20908202 0.031061942 -0.1445288 0.2807141
0.1363283 0.06843929 -0.008550389 -0.17465615 -0.3518098 -0.0073419907 0.060595892 0.018508743
0.09159606 -0.040427763 -0.015964301 0.14176267 0.09494108 -0.18225327 -0.29711488 -0.064792246
0.07534576 -0.017659184 0.057135895 0.11318911 0.08355307 0.07095143 0.05663475 -0.102577716
-0.08778984 0.30065006 0.12152728 0.13418485 -0.13073282 0.14069873 0.112887904 -0.15449932
0.1228643 -0.18562348 0.04487637 -0.059669133 -0.24141876 -0.34596312 0.12682648 -0.10439669
-1.0565753 0.11103814 -0.2987293 0.079023905 -0.7938003 -0.08401015 0.6684469 0.0074262302
-0.29640815 -0.22070679 -1.1098987 -0.5105145 -0.24780184 0.057023384 -0.18150733 0.11422123
-0.0016835723 0.06731506 -0.25446406 0.10414346 -0.5045587 -0.05429777 0.121765204 -0.35758978
0.13198167 -0.022197656 0.10970812 0.040481143 0.22311877 0.03482101 0.09279647 0.25554776
00000000: 05ae 863e 4fd2 843d 459f 323e e0ee 71be
00000010: ec32 283c 403b b3bc cb1a 25bf 236b 843d
00000020: a6d0 673e 0073 1e3e db0e b33e bbe6 313e
00000030: b115 4a3e f110 50be 9907 cbbd c3e4 333e
00000040: 2736 4e3e 841f 8bbe 4d22 a7be eb3f fbbc
00000050: 9919 563e 9d75 fe3c 5cff 13be c2b9 8f3e
00000060: a599 0b3e e629 8c3d ee16 0cbc 10d9 32be
00000070: 6a20 b4be 1595 f0bb 6633 783d a69f 973c
00000080: b796 bb3d 9597 25bd 91c7 82bc 3c2a 113e
00000090: 7870 c23d 9aa0 3abe 711f 98be ccb1 84bd
000000a0: e14e 9a3d fea9 90bc 5407 6a3d b1cf e73d
000000b0: df1d ab3d fc4e 913d d7f9 673d 4414 d2bd
000000c0: 29cb b3bd ceee 993e 4be3 f83d c167 093e
000000d0: d3de 05be 5413 103e c631 e73d 1235 1ebe
000000e0: 47a0 fb3d 1514 3ebe 49d0 373d 9f67 74bd
000000f0: 7b36 77be 1422 b1be cdde 013e efcd d5bd
00000100: dc3d 87bf f767 e33d 0cf3 98be 49d7 a13d
00000110: 7f36 4bbf 830d acbd 561f 2b3f bc57 f33b
00000120: cfc2 97be f600 62be 2911 8ebf 14b1 02bf
00000130: c4bf 7dbe 5a91 693d 0fdd 39be d2ec e93d
00000140: 50ab dcba 7adc 893d 1d49 82be 2b49 d53d
00000150: c22a 01bf 5767 5ebd 0960 f93d 0216 b7be
00000160: 3426 073e dcd7 b5bc a7ae e03d 8ecf 253d
00000170: 3f79 643e 7aa0 0e3d 130c be3d 28d7 823e

head.2.bias f4 [3]
-0.17375518 -0.107977554 0.120881125
00000000: e1ec 31be 5623 ddbd 8690 f73d
