checkpoints_kpconv_25nov/checkpoint_epoch_5_25nov.pth (torch, 19277 bytes, 14 tensors)

fc0.weight f4 [8, 3]
-0.02646692 -0.06292496 0.28880426 0.0026759375 -0.10377492 0.3304173 -0.3443337 -0.016251177
0.048724838 -0.18391202 -0.008617892 -0.021195289 0.25112522 0.16848227 0.29372898 -0.32386744
0.021395601 -0.16083814 -0.21524745 -0.20263793 -0.4590755 -0.30411163 -0.37717763 0.04346491
00000000: 27d1 d8bc cdde 80bd 27de 933e c85e 2f3b
00000010: f287 d4bd 752c a93e 824c b0be 3021 85bc
00000020: b293 473d 6f53 3cbe 0f32 0dbc bea1 adbc
00000030: 7c93 803e 9e86 2c3e a563 963e f4d1 a5be
00000040: d445 af3c c1b2 24be d469 5cbe 5180 4fbe
00000050: f20b ebbe 85b4 9bbe 6d1d c1be 4308 323d

fc0.bias f4 [8]
-0.511687 -0.4256863 -0.07064934 0.28007662 -0.3464218 0.3392107 0.06976263 -0.6271218
00000000: ebfd 02bf 8ef3 d9be 9ab0 90bd 3466 8f3e
00000010: 335e b1be 06ad ad3e b6df 8e3d 0e8b 20bf

kp1.mlp.0.weight f4 [16, 11]
-0.20497012 -0.015328237 0.22290386 0.23985066 -0.16417041 0.004773778 0.022430733 -0.27329114
-0.3108764 -0.16123816 0.021093478 -0.7681764 -1.6351051 0.5022924 -0.05280217 0.0068580597
-0.029780824 -0.11343421 0.056060154 0.13020396 0.025886877 -0.016907733 -1.5436283 -1.3992071
-0.7075523 -0.07694075 -0.12409752 -0.11276449 0.06697956 0.016007436 0.021787565 0.0874996
-0.018755943 1.1156554 0.87876123 0.5988605 0.18126217 -0.09792703 -0.16021225 -0.14372292
0.08053775 0.19110802 -0.289176 0.1206219 -0.23480712 -1.053416 0.1701409 -0.143731
0.013545022 0.025474004 -0.31680816 -0.060978245 -0.09089151 0.21397462 -0.1874412 -1.0208646
-1.4102674 -0.4163507 -0.17522278 -0.33428857 -0.07694284 0.05843363 0.10804609 0.25393537
0.067086555 -0.093599126 0.40633753 1.4525968 -0.97610474 0.20287408 -0.103061765 -0.04380952
-0.18167514 0.03482181 0.13695782 -0.09472915 0.14770302 0.79310304 1.078594 0.43258485
0.08665235 -0.16077174 0.05363344 -0.12901086 -0.0107359905 -0.14217557 -0.15547837 0.048596
0.55064124 1.4770108 -0.5563745 -0.06936989 0.26136136 0.2762905 -0.08581071 0.16657506
-0.29415044 -0.2007757 0.1645191 0.7400313 0.6299891 -0.6919567 0.09316427 -0.08406073
-0.19539675 0.05752051 -0.09759273 0.1386096 0.18171516 -0.05528685 1.5271143 1.1477079
0.708214 -0.06106374 -0.025936993 0.116740234 0.21090178 -0.0030375372 -0.24907503 0.121645324
-0.081814215 -1.3715016 -1.2599286 -0.50775915 0.07201897 0.21780033 0.17916784 -0.08492386
0.1771196 0.03332416 -0.04527681 -0.07396366 -1.3321683 -0.9177636 -0.41157812 0.31309277
0.17961222 0.016346313 -0.348498 0.13646652 0.01065656 0.017947271 -0.17016737 -0.8423401
0.25323746 0.17575373 0.18135424 0.23234464 -0.03272478 -0.051088035 -0.25114477 -0.037152354
0.08006874 0.06900109 0.48151332 0.94035107 0.011775574 0.19931802 -0.35146827 -0.18846212
-0.28869498 0.15109056 -0.12673077 0.04914377 0.063925534 -0.34674677 -0.21624771 -0.69413245
0.08047521 -0.2725399 0.18874241 -0.22253859 0.12465402 0.021149091 0.16397505 -0.29837322
00000000: b0e3 51be 4923 7bbc e940 643e 699b 753e
00000010: 4a1c 28be 5a6d 9c3b a8c0 b73c d1ec 8bbe
00000020: 312b 9fbe 9e1b 25be 3bcc ac3c 35a7 44bf
00000030: 204b d1bf 3c96 003f 1747 58bd 93b9 e03b
00000040: eaf6 f3bc 3250 e8bd 559f 653d 3054 053e
00000050: b710 d43c 1682 8abc 9d95 c5bf 3819 b3bf
00000060: 2622 35bf 1d93 9dbd d726 febd 12f1 e6bd
00000070: 942c 893d 0722 833c d67b b23c fe32 b33d
00000080: 10a6 99bc cccd 8e3f 7ff6 603f ec4e 193f
00000090: ca9c 393e f78d c8bd ae0e 24be 1a2c 13be
000000a0: faf0 a43d d2b1 433e e00e 94be 9d08 f73d
000000b0: 4771 70be 56d6 86bf 6b39 2e3e 382e 13be
000000c0: f1eb 5d3c dcae d03c ae34 a2be 53c4 79bd
000000d0: 5425 babd 2a1c 5b3e 96f0 3fbe b1ab 82bf
000000e0: a483 b4bf eb2b d5be 9a6d 33be df27 abbe
000000f0: 3594 9dbd 1a58 6f3d 4547 dd3d d103 823e
00000100: ad64 893d e6b0 bfbd 790b d03e b1ee b93f
00000110: 00e2 79bf 39be 4f3e 0c12 d3bd 9c71 33bd
00000120: 0c09 3abe 50a1 0e3d ac3e 0c3e 5b01 c2bd
00000130: 763f 173e cd08 4b3f 5e0f 8a3f c37b dd3e
00000140: ca76 b13d 59a1 24be bdae 5b3d 6c1b 04be
00000150: 02e6 2fbc 7996 11be b935 1fbe 990c 473d
00000160: d3f6 0c3f b10e bd3f 8f6e 0ebf cd11 8ebd
00000170: 28d1 853e f375 8d3e 87bd afbd a792 2a3e
00000180: e39a 96be 2598 4dbe b277 283e b172 3d3f
00000190: f746 213f 1324 31bf e9cc be3d 0828 acbd
000001a0: 1616 48be a09a 6b3d b2de c7bd adef 0d3e
000001b0: 8a13 3a3e 7774 62bd 7b78 c33f 18e8 923f
000001c0: 834d 353f f91d 7abd d179 d4bc 8115 ef3d
000001d0: a3f6 573e 6b11 47bb 860d 7fbe 2f21 f93d
000001e0: 368e a7bd 5d8d afbf 5745 a1bf 81fc 01bf
000001f0: af7e 933d 0d07 5f3e c677 373e 90ec adbd
00000200: d75e 353e ea7e 083d 2d74 39bd 427a 97bd
00000210: 7e84 aabf 8ef2 6abf 5eba d2be b24d a03e
00000220: 44ec 373e b4e8 853c 546e b2be e1bd 0b3e
00000230: da98 2e3c 2806 933c 5b40 2ebe 9aa3 57bf
00000240: 57a8 813e c9f8 333e edb4 393e c1eb 6d3e
00000250: 6b0a 06bd b041 51bd 0c96 80be 112d 18bd
00000260: 14fb a33d 7250 8d3d ea88 f63e d9ba 703f
00000270: 56ee 403c 061a 4c3e a6f3 b3be 37fc 40be
00000280: d4cf 93be 7cb7 1a3e b6c5 01be fa4a 493d
00000290: 64eb 823d cb88 b1be 0a70 5dbe aab2 31bf
000002a0: 30d0 a43d 5a8a 8bbe b145 413e 28e1 63be
000002b0: 9b4a ff3d dc40 ad3c 13e9 273e 60c4 98be

kp1.mlp.0.bias f4 [16]
-0.10317251 0.039501872 0.14224629 -0.019034497 0.2322198 0.07946542 0.21484144 0.13394797
-0.0015501212 0.1362419 0.23203488 -0.09884286 -0.058018386 -0.340225 -0.06570561 -0.23883766
00000000: 1c4c d3bd b7cc 213d 03a9 113e 3cee 9bbc
00000010: 07cb 6d3e c4be a23d 65ff 5b3e a829 093e
00000020: 702d cbba ff82 0b3e 8d9a 6d3e 206e cabd
00000030: b0a4 6dbd f931 aebe aa90 86bd dc91 74be

kp1.mlp.2.weight f4 [16, 16]
0.060952436 -0.16486016 0.30538255 -0.22157802 0.0905484 -0.08970852 0.070077695 -0.1280011
0.11055643 -0.12676612 -0.21933135 0.055834763 -0.08006973 0.20863664 -0.1761289 0.251926
-0.06803315 -0.16556288 0.12210656 0.3026068 0.053554974 0.11246449 -0.08053454 -0.21896236
-0.0930224 0.0073250807 0.009591465 -0.07635247 0.08004098 -0.07260797 -0.12517668 -0.17810132
-0.013238911 -0.057741523 0.1307671 -0.10797374 -0.09563427 0.07564715 -0.084962755 -0.22012678
0.15666603 0.12396914 -0.17424269 -0.24163781 0.03242874 -0.09039169 -0.20602222 0.08057533
0.17488551 0.20030838 0.018401626 -0.018337471 -0.15161777 -0.053443983 -0.10800275 -0.13898881
-0.14962906 -0.27915743 -0.1293671 -0.07071361 0.31384513 0.03771934 -0.17473637 -0.12749942
0.11189219 0.14367458 0.23008856 -0.050764848 0.047569964 0.10495708 -0.014713023 -0.25087216
-0.043285005 0.06490578 -0.25318795 0.2511463 0.14921388 0.16653883 -0.07831015 0.006858594
0.10663157 0.18821706 -0.062723435 -0.16888113 0.14550534 -0.04846537 -0.25719917 0.105165415
-0.010797061 0.16189304 -0.048540767 -0.06906682 -0.24628279 -0.17548423 -0.09565649 0.023063142
0.08572307 -0.20278446 0.016110811 0.027574012 -0.15579835 -0.082154 -0.12695408 0.033455342
0.19767812 0.100387886 -0.20857768 -0.19668458 -0.2508814 0.18555155 0.008214649 -0.009405262
-0.0009926888 0.060959145 0.15966907 -0.007873326 -0.026135009 0.107163414 0.056816965 0.055856146
0.1797523 -0.19291605 -0.14850755 -0.25094327 -0.06162949 0.048788317 0.009173356 -0.15942466
-0.07604003 -0.29211852 -0.3963189 0.13663188 -0.14330012 -0.21634124 0.23337747 0.21971905
0.2607704 0.3612738 0.24037163 -0.16073917 -0.073635966 0.08372463 -0.11683314 0.15621951
-0.16545166 0.03881316 0.28434604 -0.12423884 -0.0002757445 -0.2271618 -0.12575942 -0.1669999
-0.11321694 -0.07161248 -0.017424732 -0.2584507 0.17281967 -0.0703775 0.2353959 0.1407831
-0.028544404 0.28050703 0.22331011 -0.20871435 0.266761 -0.041165076 -0.15837611 -0.2932194
-0.02305984 0.060723655 -0.23871015 0.21009326 0.13062625 0.042015832 -0.1591439 0.17008641
0.017712278 -0.16416693 -0.23555064 -0.06576784 0.03214891 0.111720726 0.2742979 -0.12184706
0.11730563 0.24449907 0.058639813 -0.055313814 0.030977985 -0.03674266 0.31389472 -0.03948102
0.21208978 -0.16420718 -0.2842359 0.07036174 -0.28871024 -0.27776292 0.17355084 0.1871143
-0.07617961 0.034570765 0.11629125 -0.23600847 -0.12910385 -0.16589876 0.20992157 -0.04285769
-0.16793132 -0.2267432 0.15358604 -0.2399449 -0.18992381 -0.05498931 0.10206912 -0.045200687
-0.050192557 0.065456055 -0.2652944 -0.017971795 0.14355205 -0.1689329 0.014071287 -0.28960603
-0.15173298 0.18263498 -0.22828075 0.201822 0.08870665 -0.086817265 0.13460632 0.045128267
-0.13536304 -0.11654463 -0.02002692 -0.11380743 0.003498879 -0.2257438 -0.0075160423 -0.14702675
0.034354474 0.24892828 -0.13658555 -0.10554224 0.019191613 -0.024508173 -0.2904239 -0.22820696
-0.117864944 -0.4852706 -0.064037494 -0.054550383 0.0291378 -0.0074788216 -0.059450608 -0.12321398
00000000: 43a9 793d 1ad1 28be 1a5b 9c3e 59e5 62be
00000010: 7171 b93d 1ab9 b7bd e584 8f3d b812 03be
00000020: 696b e23d face 01be 6698 60be feb2 643d
00000030: 99fb a3bd d8a4 553e 225b 34be 72fc 803e
00000040: f754 8bbd 5189 29be 0113 fa3d 47ef 9a3e
00000050: 765c 5b3d c853 e63d 4bef a4bd ab37 60be
00000060: 8782 bebd 3b07 f03b 8525 1d3c af5e 9cbd
00000070: 86ec a33d 7db3 94bd 512e 00be 3160 36be
00000080: 04e8 58bc 6082 6cbd d0e7 053e 5621 ddbd
00000090: e6db c3bd e5ec 9a3d f400 aebd ea68 61be
000000a0: 0f6d 203e 88e3 fd3d ad6c 32be e76f 77be
000000b0: 00d4 043d 471f b9bd 7df7 52be ae04 a53d
000000c0: 3015 333e a41d 4d3e 02bf 963c 7738 96bc
000000d0: b041 1bbe 14e8 5abd 8c30 ddbd 1553 0ebe
000000e0: 5c38 19be b9ed 8ebe cf78 04be 4cd2 90bd
000000f0: 4fb0 a03e 987f 1a3d 17ee 32be 358f 02be
00000100: bc27 e53d 6e1f 133e 569c 6b3e cdee 4fbd
00000110: b9d8 423d bdf3 d63d e40e 71bc 5172 80be
00000120: 9e4b 31bd 52ed 843d daa1 81be 3f96 803e
00000130: 86cb 183e 2889 2a3e 1261 a0bd 0ebe e03b
00000140: a761 da3d f9bb 403e 2575 80bd 2def 2cbe
00000150: 5aff 143e a083 46bd 9caf 83be f760 d73d
00000160: 28e6 30bc 4ac7 253e afd2 46bd e872 8dbd
00000170: 8e31 7cbe 23b2 33be 8de7 c3bd eaee bc3c
00000180: 948f af3d bba6 4fbe d2fa 833c e5e2 e13c
00000190: 9a89 1fbe 5b40 a8bd 4000 02be 7808 093d
000001a0: 226c 4a3e 2a98 cd3d 6395 55be af67 49be
000001b0: 8773 80be 3a01 3e3e bc96 063c 8718 1abc
000001c0: 1c1d 82ba 4cb0 793d 4a80 233e 1fff 00bc
000001d0: 1619 d6bc 7e78 db3d e8b8 683d 6ac9 643d
000001e0: fd10 383e c98b 45be 5d12 18be a37b 80be
000001f0: 346f 7cbd 42d6 473d d84b 163c 3840 23be
00000200: e0ba 9bbd 8f90 95be 50ea cabe 3ae9 0b3e
00000210: 44bd 12be 8f88 5dbe 81fa 6e3e 08fe 603e
00000220: b383 853e e1f8 b83e fb23 763e cf98 24be
00000230: 74ce 96bd d277 ab3d 3746 efbd 02f8 1f3e
00000240: 296c 29be 8cfa 1e3d ce95 913e ef70 febd
00000250: cd91 90b9 1a9d 68be 14c7 00be 0602 2bbe
00000260: 48de e7bd 90a9 92bd 50be 8ebc a653 84be
00000270: a4f7 303e 1422 90bd 9f0b 713e 7229 103e
00000280: f4d5 e9bc 9e9e 8f3e 68ab 643e 37b9 55be
00000290: e694 883e b69c 28bd 592d 22be da20 96be
000002a0: fde7 bcbc 5eb9 783d 6f70 74be b022 573e
000002b0: e3c2 053e cb18 2c3d 9ef6 22be 222b 2e3e
000002c0: 5719 913c 601b 28be 3034 71be 4ab1 86bd
000002d0: 93ae 033d d6cd e43d c670 8c3e f48a f9bd
000002e0: ef3d f03d f75d 7a3e 4d30 703d bd90 62bd
000002f0: 8bc5 fd3c 797f 16bd cfb6 a03e dab6 21bd
00000300: 102e 593e ed25 28be 5e87 91be d119 903d
00000310: d4d1 93be f136 8ebe 50b7 313e e49a 3f3e
00000320: 0e04 9cbd 139a 0d3d 1b2a ee3d 34ac 71be
00000330: cd33 04be 5de1 29be aef5 563e 8c8b 2fbd
00000340: 30f6 2bbe 5f2f 68be a945 1d3e 1eb4 75be
00000350: 637b 42be 793c 61bd 9d09 d13d 5b24 39bd
00000360: b696 4dbd d30d 863d abd4 87be 9639 93bc
00000370: 4fff 123e bffc 2cbe 418b 663c 3e47 94be
00000380: e45f 1bbe aa04 3b3e 6ec2 69be 6daa 4e3e
00000390: d5ab b53d 40cd b1bd 3dd6 093e 6bd8 383d
000003a0: 9c9c 0abe f3ae eebd 7f0f a4bc df13 e9bd
000003b0: 734d 653b 6229 67be 2249 f6bb 2e8e 16be
000003c0: 47b7 0c3d 0ee7 7e3e 15dd 0bbe 8826 d8bd
000003d0: bb37 9d3c 5dc5 c8bc 71b2 94be 16af 69be
000003e0: 2d63 f1bd 6375 f8be 1726 83bd 3970 5fbd
000003f0: 65b2 ee3c e710 f5bb 7b82 73bd 9c57 fcbd

kp1.mlp.2.bias f4 [16]
-0.0027798617 -0.21505903 0.032374114 0.01919605 -0.11154487 0.07792065 0.1971328 -0.07183442
0.09145142 0.14589594 -0.04487365 -0.19820726 0.11501243 0.12722625 0.12932768 0.058887217
00000000: 572e 36bb 6f38 5cbe b89a 043d 0941 9d3c
00000010: a371 e4bd dd94 9f3d 2edd 493e ed1d 93bd
00000020: e24a bb3d bf65 153e 6fcd 37bd d8f6 4abe
00000030: a38b eb3d 9947 023e 7a6e 043e b933 713d

kp2.mlp.0.weight f4 [32, 19]
-2.262171 2.0442188 -0.51933795 -0.17107883 -0.011741482 -0.2387194 0.12159978 -0.14852206
0.1669213 0.07145826 -0.074728 0.026967738 -0.11372375 0.16475311 -0.2211408 -0.044010747
-0.08017452 0.13866377 -0.31495515 1.8566651 -1.9767946 0.39440337 -0.13302362 -0.20065185
-0.014387677 -0.21967313 -0.26990876 -0.10818406 -0.012301005 -0.06936342 0.23788175 0.20290217
-0.10210994 0.12896208 0.033320945 0.2872187 0.02093364 -0.10335619 -1.9054471 0.63849527
-0.030595848 -0.10335125 -0.08038969 0.01012538 0.073466964 -0.02298411 -0.013698347 -0.11274536
0.010866697 -0.13953541 -0.038596265 -0.30223665 -0.12119534 0.059054177 -0.022236077 0.055214982
0.06582163 1.1141216 1.6739964 0.22768284 0.075781435 -0.10345656 0.22792205 -0.17800288
0.046315804 0.15150873 0.04134748 -0.11072851 -0.1029032 -0.025315192 -0.087905884 -0.25329968
-0.20912491 0.094323985 -0.03692413 -0.0017214555 -0.97954017 1.5092719 -0.32171294 0.019363113
0.043982934 -0.04678782 0.050355908 -0.017029984 0.121233635 -0.0068685063 -0.036422774 0.28006315
0.11973821 0.0995214 0.08134314 0.31144944 0.213308 -0.03584131 0.107628234 0.107573494
-0.10006093 -0.163693 0.22819595 0.2680847 -0.18577464 -0.12741801 0.056073733 -0.15822448
0.15912327 0.19706745 -0.13508263 0.05438627 0.09046375 -0.108372815 -0.22327314 0.1933093
-0.11837003 -0.0733489 1.7081807 1.6439048 -0.092589155 -0.01994586 -0.06385497 -0.04981828
0.24069376 -0.1596532 -0.06827612 0.018603172 0.105376564 -0.24254613 0.021498907 0.038164906
-0.112704076 0.074378535 0.002563033 0.038479615 0.04671328 -0.03268063 1.6672592 0.07433085
0.12788975 -0.12282184 -0.13020705 -0.022739682 0.0008834568 0.16345656 -0.14867438 -0.0028531991
-0.15981126 0.1109938 0.0046138405 0.110456035 -0.04304255 -0.07878258 -0.011464978 -0.04952133
2.0858836 -1.1488833 0.47496414 0.18816781 0.039821874 -0.055817097 0.25275102 -0.042487126
-0.039908394 0.2061054 0.019930767 0.0038593784 0.11722929 0.13900341 -0.022600792 -0.30335355
0.23382854 -0.25695202 -0.06821181 1.6795685 1.8552793 -0.09291137 -0.12461806 -0.068540804
0.20195313 -0.10121376 0.220436 0.016169885 -0.024314435 -0.003421096 -0.11691202 0.09830033
0.18032473 -0.090716265 0.023067743 0.22334109 -0.0010801031 -0.002213369 -0.20302619 0.35061717
-0.08418583 0.18602228 0.20661867 0.10440368 0.086277045 -0.018050041 0.14034115 -0.24773623
0.23837829 0.14958411 -0.123573676 -0.082736805 -0.05462816 0.031953167 -0.048136353 0.0062983916
0.055779852 -1.8970208 1.7034582 -0.29750437 -0.089399 -0.1540285 -0.013930702 -0.07132388
0.054601107 0.070121504 0.08639649 -0.23345582 0.054466903 0.13137987 -0.053907923 -0.14036289
-0.16163339 -0.10307618 0.25482038 0.071501486 -1.9424069 -1.6529497 -0.24023901 -0.09637671
-0.061707765 0.15708548 -0.081583306 -0.14270765 0.033859227 0.028496262 0.050534017 -0.079172865
-0.22078043 -0.07204255 0.03899654 0.05505129 -0.040660664 -0.048280865 -0.13495141 1.9673272
-2.1899216 0.19987433 0.004422383 0.0646426 -0.2522089 -0.23293407 0.09659604 -0.01603948
00000000: 69c7 10c0 7bd4 0240 55f3 04bf 4a2f 2fbe
00000010: 585f 40bc dc72 74be 4e09 f93d 2b16 18be
00000020: 6bed 2a3e b558 923d fe0a 99bd 72eb dc3c
00000030: ffe7 e8bd 0ab5 283e bc72 62be 9d44 34bd
00000040: 8a32 a4bd e0fd 0d3e cd41 a1be 34a7 ed3f
00000050: 9b07 fdbf 3def c93e 5837 08be ae77 4dbe
00000060: 4bba 6bbc fef1 60be 7b31 8abe 9b8f ddbd
00000070: 288a 49bc 690e 8ebd 4697 733e 96c5 4f3e
00000080: 041f d1bd a30e 043e 8b7b 083d 540e 933e
00000090: 067d ab3c 69ac d3bd b1e5 f3bf 6d74 233f
000000a0: 25a4 fabc d2a9 d3bd 5aa3 a4bd ece4 253c
000000b0: d975 963d 2c49 bcbc 086f 60bc 0ae7 e6bd
000000c0: 3b0a 323c 5fe2 0ebe 1e17 1ebd c3be 9abe
000000d0: 4335 f8bd cbe2 713d 6f28 b6bc 1b29 623d
000000e0: 7ecd 863d 899b 8e3f 8445 d63f b125 693e
000000f0: 4c33 9b3d 08e1 d3bd 6664 693e 6346 36be
00000100: a4b5 3d3d 1b25 1b3e fa5b 293d a1c5 e2bd
00000110: eabe d2bd ce61 cfbc 0008 b4bd 7fb0 81be
00000120: d724 56be ef2c c13d c23d 17bd 76a2 e1ba
00000130: 25c3 7abf d22f c13f 8fb7 a4be 649f 9e3c
00000140: 7327 343d 96a4 3fbd ff41 4e3d 7782 8bbc
00000150: 5749 f83d 3511 e1bb 0c30 15bd 7064 8f3e
00000160: 4f39 f53d e0d1 cb3d 3b97 a63d 4d76 9f3e
00000170: 6a6d 5a3e 56ce 12bd 316c dc3d 7e4f dc3d
00000180: bfec ccbd 239f 27be 33ac 693e 6642 893e
00000190: b53b 3ebe de79 02be 92ad 653d 9905 22be
000001a0: 36f1 223e 0dcc 493e 1a53 0abe 23c4 5e3d
000001b0: 0f45 b93d 91f2 ddbd b7a1 64be e0f2 453e
000001c0: fc6b f2bd f337 96bd aaa5 da3f 796b d23f
000001d0: 629f bdbd 8065 a3bc 65c6 82bd 410e 4cbd
000001e0: 6d78 763e 217c 23be 5ad4 8bbd ae65 983c
000001f0: abcf d73d 035e 78be 7a1e b03c ce52 1c3d
00000200: 65d1 e6bd c653 983d 8ff8 273b cd9c 1d3d
00000210: 6d56 3f3d 20dc 05bd c068 d53f c63a 983d
00000220: 88f5 023e 048a fbbd ff54 05be 9248 babc
00000230: c897 673a 2861 273e 193e 18be bdfc 3abb
00000240: 90a5 23be b850 e33d b32f 973b c636 e23d
00000250: 634d 30bd c358 a1bd 9ad7 3bbc e1d6 4abd
00000260: 1e7f 0540 9c0e 93bf 802e f33e 10af 403e
00000270: 431c 233d 78a0 64bd 9568 813e fb06 2ebd
00000280: fc76 23bd 4b0d 533e d945 a33c a0ed 7c3b
00000290: e915 f03d e956 0e3e 4c25 b9bc 2851 9bbe
000002a0: c070 6f3e 378f 83be a2b2 8bbd 1afc d63f
000002b0: cb79 ed3f 5148 bebd c137 ffbd 1f5f 8cbd
000002c0: cdcc 4e3e 2949 cfbd fab9 613e b576 843c
000002d0: 112f c7bc 7734 60bb 926f efbd af51 c93d
000002e0: 0ca7 383e 73c9 b9bd 90f8 bc3c 87b3 643e
000002f0: 3f92 8dba 2b0e 11bb 19e6 4fbe 1884 b33e
00000300: 9f69 acbd a07c 3e3e d893 533e 99d1 d53d
00000310: 05b2 b03d aedd 93bc 97b5 0f3e 91ae 7dbe
00000320: 7019 743e 942c 193e 3214 fdbd ea71 a9bd
00000330: c7c1 5fbd 53e1 023d a02a 45bd bd62 ce3b
00000340: 6a79 643d 94d1 f2bf eb0a da3f 7e52 98be
00000350: d316 b7bd a6b9 1dbe 993d 64bc 4112 92bd
00000360: 69a5 5f3d dd9b 8f3d a5f0 b03d 0b0f 6fbe
00000370: b018 5f3d 7288 063e 8ece 5cbd 4abb 0fbe
00000380: 3983 25be 9b19 d3bd d177 823e 5f6f 923d
00000390: caa0 f8bf db93 d3bf 3701 76be 2761 c5bd
000003a0: 48c1 7cbd 04db 203e 2615 a7bd f421 12be
000003b0: f9af 0a3d fe70 e93c c2fc 4e3d 6225 a2bd
000003c0: 4414 62be 0b8b 93bd d6ba 1f3d 767d 613d
000003d0: cc8b 26bd 28c2 45bd b430 0abe 61d1 fb3f
000003e0: ad27 0cc0 dbab 4c3e a3e9 903b 5763 843d
000003f0: 8621 81be 4586 6ebe 25d4 c53d 3a65 83bc

kp2.mlp.0.bias f4 [32]
0.09717947 -0.06798077 0.23697382 0.05959809 -0.08272288 -0.19185282 0.19010949 0.09423844
0.16057283 0.08764569 -0.04789818 0.04509209 0.18809478 0.077192284 0.13450833 0.014532419
0.21073416 0.092134126 0.15429816 0.009518306 0.14819674 0.115534276 0.029473437 0.1921575
0.040226758 -0.014234572 -0.08853857 0.11361801 0.15614259 0.123145685 -0.2219136 0.032733526
00000000: 0806 c73d 8039 8bbd 44a9 723e 201d 743d
00000010: 9d6a a9bd 1175 44be 10ac 423e 1500 c13d
00000020: 346d 243e 957f b33d e230 44bd 7cb2 383d
00000030: eb9b 403e fd16 9e3d 8dbc 093e 6219 6e3c
00000040: b2ca 573e d1b0 bc3d 5600 1e3e abf2 1b3c
00000050: e3c0 173e 3c9d ec3d 4772 f13c f0c4 443e
00000060: d0c4 243d 1f38 69bc b653 b5bd 8fb0 e83d
00000070: d8e3 1f3e ce33 fc3d 523d 63be 9713 063d

kp2.mlp.2.weight f4 [32, 32]
0.04242964 -0.0053274636 -0.1901427 -0.09481028 0.00075345155 -0.07816071 0.12784977 0.18319568
-0.16157028 0.049552098 0.17679965 -0.076035276 -0.0636693 0.06334979 0.0899482 -0.007919311
-0.088539176 0.10879012 -0.17613722 -0.15806805 0.042499676 -0.058052354 0.03847582 -0.019750493
-0.15782131 -0.24545796 -0.39597747 0.029947553 -0.029259194 0.079330064 -0.049988236 -0.14925875
0.20248194 0.06302382 -0.056061666 -0.0125642335 0.2926705 -0.09309195 0.16376682 0.18741268
0.17780405 0.18719673 -0.21837042 0.12685283 -0.258627 -0.12335322 0.21052808 -0.32537177
0.17455329 0.25255233 0.010215921 -0.026191307 -0.08430072 -0.31809235 0.16797638 -0.11816919
0.095106065 0.23064987 0.20192476 0.07257557 -0.027731055 -0.01763664 -0.112925 -0.24873558
-0.2687067 0.0068311747 -0.14720835 0.24309868 0.07730478 -0.07693025 0.18289052 0.07292282
0.17030695 0.3253508 -0.09199599 -0.17424317 -0.41851872 -0.07908484 0.10675699 -0.14222398
0.1236493 0.08998607 0.1261339 0.024661807 -0.18462268 -0.42139098 0.20051639 -0.16068181
0.103973135 -0.008164376 -0.0064993124 -0.20304695 -0.18432699 -0.48777846 0.074730776 -0.39915925
-0.28421915 0.22444436 -0.11222672 0.08457372 -0.19330625 0.19159827 0.007294656 -0.20308113
0.224121 -0.093785495 0.029000064 -0.32054305 0.15938726 0.365049 0.1694328 0.33664408
0.034725264 -0.02815108 0.22873464 0.19176008 -0.275351 0.24995925 0.4134394 -0.1499132
0.07824791 0.15801613 -0.03953633 0.033312876 -0.033339668 0.15104783 -0.10699889 -0.05082369
0.07696518 -0.00015203805 -0.099730775 0.2325285 0.15587045 -0.13753124 0.14215405 0.12516236
0.1605974 0.355165 -0.13821204 0.091456085 -0.14821269 0.09062355 -0.02589208 -0.08242267
0.16110007 0.2443182 0.030876182 0.21920966 0.12445467 -0.33963212 0.114130944 -0.033430275
0.2025439 0.04896584 0.020197319 -0.044237174 -0.17633191 -0.28775844 -0.1360564 -0.042698212
-0.21212415 -0.1901925 -0.099287465 0.21539582 0.052897952 -0.12000041 0.21273495 -0.01940506
0.21106124 0.31177413 -0.16671416 -0.1707017 -0.35180232 -0.020460255 0.17591095 -0.040267758
0.09985426 0.14213029 -0.0725446 -0.065140955 0.007835305 -0.3457139 0.1543077 -0.073292755
0.016565723 0.07252668 0.05007809 -0.18765451 -0.460533 -0.48325497 0.10526944 -0.27324018
-0.18094824 -0.035196237 -0.02648537 0.16394244 0.043033537 0.12164694 -0.005429842 0.12993884
-0.031057807 0.13698299 0.16513166 -0.0010702454 -0.28028855 0.020682681 -0.09439106 -0.14843251
0.016248262 0.091338895 -0.10067941 -0.14862427 -0.23051313 -0.017203845 -0.0932117 -0.02069046
-0.11329712 0.0133412415 -0.0559088 -0.15637447 -0.13419141 -0.18843327 -0.015874078 -0.029105349
0.39899355 -0.24633124 0.07747292 -0.12688692 0.32145885 0.051991474 0.1097313 0.09847738
-0.2551016 -0.010897289 -0.118516125 0.28124782 -0.17256504 -0.41908914 -0.027001807 -0.2685552
0.16124023 0.14425954 0.18343256 -0.05887436 0.18197007 0.1110269 -0.23999922 0.2561009
0.08607078 0.04428766 0.092381954 -0.10580069 -0.1435997 0.10304596 0.17787574 -0.071172066
00000000: b4ca 2d3d 0192 aebb c5b4 42be e42b c2bd
00000010: 4783 453a b912 a0bd 0deb 023e a697 3b3e
00000020: ae72 25be 24f7 4a3d f80a 353e 62b8 9bbd
00000030: 0d65 82bd 89bd 813d c336 b83d ffbf 01bc
00000040: 0754 b5bd 5bcd de3d 515d 34be 97dc 21be
00000050: 2414 2e3d 4ec8 6dbd d298 1d3d c9cb a1bc
00000060: e99b 21be 5559 7bbe 8fbd cabe 9254 f53c
00000070: fab0 efbc cd77 a23d 77c0 4cbd 49d7 18be
00000080: 6d57 4f3e a212 813d eba0 65bd 37da 4dbc
00000090: e8d8 953e fea6 bebd 7db2 273e 1ce9 3f3e
000000a0: 4412 363e 80b0 3f3e 7f9c 5fbe b5e5 013e
000000b0: c26a 84be 9da0 fcbd ac94 573e 2197 a6be
000000c0: 19be 323e 8a4e 813e ae60 273c 278f d6bc
000000d0: dba5 acbd 00dd a2be 0002 2c3e b002 f2bd
000000e0: f8c6 c23d 7b2f 6c3e 5dc5 4e3e 80a2 943d
000000f0: 3d2c e3bc b77a 90bc 3945 e7bd 8ab4 7ebe
00000100: ed93 89be 0cd8 df3b c9bd 16be dcee 783e
00000110: f851 9e3d 9b8d 9dbd a747 3b3e 8f58 953d
00000120: f264 2e3e 6194 a63e 6568 bcbd cd6c 32be
00000130: 1648 d6be 3cf7 a1bd 69a3 da3d 2aa3 11be
00000140: d83b fd3d 9e4a b83d 3f29 013e 8f07 ca3c
00000150: ba0d 3dbe 8fc0 d7be 2b54 4d3e c689 24be
00000160: deef d43d e0c3 05bc 2ff8 d4bb 8aeb 4fbe
00000170: 37c0 3cbe 19be f9be 730c 993d 9a5e ccbe
00000180: 2c85 91be bed4 653e 1fd7 e5bd fd34 ad3d
00000190: 13f2 45be 5632 443e 0208 ef3b 80f4 4fbe
000001a0: fa7f 653e 9c12 c0bd 8b91 ed3c 381e a4be
000001b0: 6a36 233e b4e7 ba3e cb7f 2d3e 9d5c ac3e
000001c0: 143c 0e3d 189d e6bc 6a39 6a3e c15c 443e
000001d0: cefa 8cbe 51f5 7f3e 54ae d33e d982 19be
000001e0: 7140 a03d fbce 213e d9f0 21bd 1573 083d
000001f0: 2d8f 08bd 48ac 1a3e 3c22 dbbd 802c 50bd
00000200: ec9f 9d3d 676c 1fb9 a63f ccbd f31b 6e3e
00000210: 819c 1f3e fdd4 0cbe d590 113e 902a 003e
00000220: a573 243e 30d8 b53e 7587 0dbe 544d bb3d
00000230: 11c5 17be d798 b93d a11b d4bc 38cd a8bd
00000240: 6bf7 243e 8d2e 7a3e 0cf0 fc3c 7f78 603e
00000250: 17e2 fe3d 43e4 adbe 7cbd e93d 2fee 08bd
00000260: ab67 4f3e 6890 483d d974 a53c 0a32 35bd
00000270: 5a90 34be 1355 93be 5e52 0bbe 52e4 2ebd
00000280: 1337 59be d3c1 42be 3a57 cbbd b990 5c3e
00000290: 86ab 583d c6c2 f5bd 31d7 593e 5cf7 9ebc
000002a0: 7020 583e dca0 9f3e 1eb7 2abe 6dcc 2ebe
000002b0: 6f1f b4be 449c a7bc 0022 343e ceef 24bd
000002c0: 6480 cc3d 9a8a 113e 4392 94bd 9f68 85bd
000002d0: a75f 003c 6a01 b1be d602 1e3e 831a 96bd
000002e0: d7b4 873c de88 943d af1e 4d3d 8128 40be
000002f0: fbca ebbe 326d f7be 8197 d73d 23e6 8bbe
00000300: 7f4a 39be ee29 10bd d9f7 d8bc 87e0 273e
00000310: ef43 303d 0822 f93d d1ec b1bb b00e 053e
00000320: f16c febc 4545 0c3e 4618 293e 7a47 8cba
00000330: fb81 8fbe ba6e a93c 1a50 c1bd b1fe 17be
00000340: 131b 853c e30f bb3d 0231 cebd f630 18be
00000350: a20b 6cbe 14ef 8cbc c7e5 bebd 0a7f a9bc
00000360: 5208 e8bd 3995 5a3c a000 65bd a120 20be
00000370: 7969 09be a7f4 40be 5b0a 82bc 576e eebc
00000380: e248 cc3e 423e 7cbe 1faa 9e3d a5ee 01be
00000390: 4196 a43e 03f5 543d ceba e03d 82ae c93d
000003a0: ad9c 82be 8b8a 32bc 95b8 f2bd b7ff 8f3e
000003b0: e4b4 30be da92 d6be e532 ddbc 1180 89be
000003c0: 291c 253e c6b8 133e bfd5 3b3e 3e26 71bd
000003d0: 5d56 3a3e 1262 e33d 5bc2 75be a81f 833e
000003e0: e145 b03d fa66 353d c032 bd3d 08ae d8bd
000003f0: cd0b 13be c309 d33d 0f25 363e a9c2 91bd

kp2.mlp.2.bias f4 [32]
-0.21352674 0.063117534 -0.18247154 -0.05803159 0.13553444 -0.14896609 -0.1338028 0.08009373
0.076556705 -0.034885854 -0.08436767 0.093324974 0.016644562 0.010953315 -0.2447081 0.19932513
0.07065427 -0.0840584 -0.15516451 -0.006918819 0.025202636 -0.09796471 -0.03694186 -0.1624273
-0.19777338 -0.16446492 -0.055250358 0.094529815 -0.20263419 0.079831466 0.020378623 0.060392443
00000000: c1a6 5abe c443 813d d2d9 3abe 88b2 6dbd
00000010: 8ac9 0a3e 918a 18be 9a03 09be 2e08 a43d
00000020: c3c9 9c3d 78e4 0ebd f5c8 acbd 2a21 bf3d
00000030: 2d5a 883c 8875 333c c394 7abe e31b 4c3e
00000040: 30b3 903d cf26 acbd 72e3 1ebe 43b7 e2bb
00000050: c275 ce3c b9a1 c8bd 5950 17bd 5853 26be
00000060: 1b85 4abe 7e69 28be 334e 62bd d998 c13d
00000070: 567f 4fbe ae7e a33d 12f1 a63c 115e 773d

head.0.weight f4 [32, 32]
-0.09393286 0.3926807 -0.0040994757 0.41787773 0.35251486 0.31708267 -0.10420895 0.31024253
0.53249526 1.3817036 0.5402066 0.12511632 0.25130183 0.33141786 -0.12515463 0.35870612
0.7342946 0.17124183 0.3408497 -0.06675352 0.25046638 0.21402474 -0.10383054 1.1167706
-0.09443657 0.03927345 0.45143574 0.11287086 0.70526767 0.35747406 0.63101125 0.34390157
0.13371639 -0.07783555 0.055848207 -0.10807305 -0.0045520104 0.15201649 -0.050267864 0.011197014
0.16407052 0.01236682 -0.036122583 0.0031450423 -0.12536393 -0.028245974 -0.011325473 0.020184806
0.07461282 -0.015129237 -0.035992157 0.09099648 0.11232016 -0.024287526 -0.038902417 -0.008650592
-0.08964149 0.21817288 -0.027563004 0.008340146 -0.033873618 -0.04554123 -0.094022915 -0.2468548
-0.09185566 0.19128023 0.3655561 0.24423802 0.20209512 0.080235675 -0.056380548 0.14326163
0.009660434 0.47040027 0.28053355 -0.09765495 0.055707935 0.1973391 0.15499261 0.14433907
0.45970038 0.07337577 0.4055009 -0.050041042 0.19331942 -0.027266541 -0.036872376 0.1921294
-0.14765207 0.028384645 0.23956376 0.18035115 0.15794808 0.17061625 0.16343011 0.22940356
0.18121342 0.16220042 0.32931668 0.17427973 0.066191375 0.3861515 0.13403127 -0.21230505
-0.045585934 0.17662965 0.06991918 -0.2989673 0.004610021 -0.073652364 0.05840953 -0.20757292
0.0538499 0.18164612 0.17513177 -0.01152434 -0.24661514 0.018094953 0.106694706 0.20765236
-0.099605136 0.21807414 0.41711208 -0.16418378 0.08376927 0.13701865 0.19361937 0.001860389
0.13706465 0.22545949 0.17925464 0.11720916 0.16357858 0.11440961 -0.09530838 0.3451331
0.27521795 0.8321745 0.36308232 -0.16949706 0.09694367 0.6182349 0.068812415 0.20458268
0.40295872 -0.14552806 0.13096128 -0.1342387 0.3633973 0.21442139 0.055562492 0.83886063
-0.121450186 -0.081295796 0.30954206 0.030098777 0.8996574 0.17724295 0.40783527 0.08032248
-0.06936662 -0.048473213 0.29555798 0.17156565 0.03938703 0.23315114 -0.036496308 0.02444538
0.070573926 -0.07516316 0.08283389 0.033321705 0.11004035 -0.072613955 0.1360466 -0.029043537
0.12937987 0.16235931 0.37751377 0.14613535 -0.12205347 -0.097541 0.032061037 -0.004608328
0.047445428 0.09094684 0.032996565 0.17575566 -0.08440106 -0.08505518 -0.036542557 0.17266664
-0.29078686 0.10498801 -0.5396504 -0.00093466096 0.124244615 -0.6381479 -0.44016868 -0.108409256
-0.89720774 -1.1970736 -0.54041034 0.01708422 -0.1666946 -0.5928554 -0.47206593 0.14559881
-0.33671424 -0.65925914 -0.8133636 -0.4037864 -0.2934279 0.20089778 -0.111615725 -1.3903755
-0.4682299 -0.36361668 -0.7218058 0.06955144 -0.9393439 -0.31922615 -0.91815853 0.039575573
-0.1103123 -0.08601126 0.12561427 0.025392862 0.09011846 0.36062825 0.105409294 0.07455441
0.18747354 0.113379225 -0.08588518 0.20098947 0.17794254 0.071122356 0.06102648 0.14721416
0.21377122 0.11183136 0.33556572 0.15820701 -0.10795642 -0.12940453 -0.117514625 -0.061296247
-0.02196773 -0.022921404 -0.018465849 0.08833144 0.17995422 0.03212514 0.37044248 -0.05209079
00000000: df5f c0bd 720d c93e e554 86bb 12f4 d53e
00000010: d47c b43e a958 a23e 816b d5bd 1cd8 9e3e
00000020: 9c51 083f aadb b03f fb4a 0a3f 7e1e 003e
00000030: a2aa 803e 9aaf a93e 8928 00be 54a8 b73e
00000040: bbfa 3b3f 055a 2f3e da83 ae3e 12b6 88bd
00000050: 213d 803e 4d29 5b3e 1ba5 d4bd 57f2 8e3f
00000060: f667 c1bd 32dd 203d 9622 e73e d628 e73d
00000070: 6c8c 343f d706 b73e f489 213f de13 b03e
00000080: f3ec 083e 3f68 9fbd 17c1 643d 6755 ddbd
00000090: 0829 95bb 36aa 1b3e ade5 4dbd ae73 373c
000000a0: 1a02 283e 349e 4a3c 46f5 13bd 0e1d 4e3b
000000b0: 675f 00be 1a64 e7bc 7a8e 39bc 9b5a a53c
000000c0: 9bce 983d 9fe0 77bc 836c 13bd 5d5c ba3d
000000d0: 1d08 e63d a2f6 c6bc 2458 1fbd 36bb 0dbc
000000e0: f595 b7bd b668 5f3e cfcb e1bc 1ca5 083c
000000f0: 10bf 0abd 7189 3abd 168f c0bd 81c7 7cbe
00000100: d21e bcbd f7de 433e 2b2a bb3e 8819 7a3e
00000110: 06f2 4e3e 9a52 a43d 4aef 66bd 2db3 123e
00000120: cc46 1e3c 4ed8 f03e 18a2 8f3e 52ff c7bd
00000130: 012e 643d 4313 4a3e 62b6 1e3e 9fcd 133e
00000140: d95d eb3e 0946 963d d09d cf3e d6f7 4cbd
00000150: 87f5 453e 155e dfbc 7d07 17bd 92bd 443e
00000160: 1b32 17be ea86 e83c 3450 753e f9ad 383e
00000170: 24bd 213e 07b6 2e3e 395a 273e c4e8 6a3e
00000180: 0390 393e de17 263e 329c a83e 6376 323e
00000190: 588f 873d a6b5 c53e 7e3f 093e 7f66 59be
000001a0: 51b8 3abd 67de 343e c931 8f3d 3e12 99be
000001b0: a90f 973b 0dd7 96bd d53e 6f3d ff8d 54be
000001c0: b691 5c3d 7101 3a3e be55 333e 96d0 3cbc
000001d0: ae88 7cbe de3b 943c c182 da3d d2a2 543e
000001e0: c7fd cbbd d44e 5f3e b78f d53e cb1f 28be
000001f0: 398f ab3d 9e4e 0c3e 2844 463e 4cd8 f33a
00000200: ad5a 0c3e dade 663e 878e 373e 5b0b f03d
00000210: 2581 273e 964f ea3d 0a31 c3bd 49b5 b03e
00000220: 5ee9 8c3e 6309 553f ede5 b93e a390 2dbe
00000230: 678a c63d a444 1e3f 86ed 8c3d 1f7e 513e
00000240: 9b50 ce3e 4f05 15be b71a 063e df75 09be
00000250: 360f ba3e 4891 5b3e 7f95 633d 92bf 563f
00000260: e0ba f8bd 697e a6bd 4c7c 9e3e b691 f63c
00000270: f34f 663f 2d7f 353e c9cf d03e 1d80 a43d
00000280: 1610 8ebd d98b 46bd 6053 973e e8ae 2f3e
00000290: 4b54 213d 2cbf 6e3e 277d 15bd ad41 c83c
000002a0: 1089 903d 25ef 99bd d1a4 a93d 577c 083d
000002b0: d65c e13d a0b6 94bd cd4f 0b3e b6ec edbc
000002c0: 287c 043e 8541 263e 7c49 c13e 81a4 153e
000002d0: 2bf7 f9bd 93c3 c7bd 6f52 033d 7501 97bb
000002e0: 2356 423d 5642 ba3d 6827 073d 4bf9 333e
000002f0: 77da acbd 6931 aebd a6ad 15bd 86cf 303e
00000300: 04e2 94be f403 d73d 8726 0abf 0904 75ba
00000310: f673 fe3d a95d 23bf ca5d e1be ac05 debd
00000320: 68af 65bf b539 99bf 5558 0abf 35f4 8b3c
00000330: fdb1 2abe 5fc5 17bf a0b2 f1be db17 153e
00000340: cf65 acbe 35c5 28bf 9938 50bf 17bd cebe
00000350: 2f3c 96be 26b8 4d3e c996 e4bd d3f7 b1bf
00000360: d4bb efbe f72b babe 44c8 38bf fc70 8e3d
00000370: d878 70bf 9c71 a3be 700c 6bbf ff19 223d
00000380: 6aeb e1bd ac26 b0bd 07a1 003e b104 d03c
00000390: 0790 b83d 44a4 b83e d4e0 d73d fcaf 983d
000003a0: 10f9 3f3e 5e33 e83d 92e4 afbd 2fd0 4d3e
000003b0: 9236 363e 99a8 913d e7f6 793d 4fbf 163e
000003c0: d8e6 5a3e d707 e53d 45cf ab3e 0501 223e
000003d0: 4118 ddbd 9f82 04be 82ab f0bd c611 7bbd
000003e0: abf5 b3bc abc5 bbbc b145 97bc 1de7 b43d
000003f0: eb45 383e a795 033d a3aa bd3e 275d 55bd

head.0.bias f4 [32]
-0.032841306 -0.02383044 0.13229382 0.037544522 0.09284888 0.19796368 0.26640916 0.058599137
0.15022638 -0.09309897 -0.013475736 0.19293897 0.17472312 -0.16339909 0.05672594 0.04522545
0.14404605 -0.1126501 -0.23902321 -0.06575356 -0.028246483 -0.20911598 -0.2559226 0.012981796
-0.1337034 0.1590069 -0.06722651 -0.051848922 0.111237004 0.21038093 -0.087390125 -0.01967334
00000000: 9b84 06bd 0e38 c3bc 0878 073e 49c8 193d
00000010: 8e27 be3d feb6 4a3e c866 883e a605 703d
00000020: f2d4 193e acaa bebd 55c9 5cbc cb91 453e
00000030: 9eea 323e 1752 27be 7659 683d 523e 393d
00000040: cf80 133e 18b5 e6bd 80c2 74be cda9 86bd
00000050: 2b65 e7bc 8022 56be 4908 83be 99b1 543c
00000060: 8be9 08be b4d2 223e 0dae 89bd 895f 54bd
00000070: 3ad0 e33d 196e 573e 98f9 b2bd fc29 a1bc

head.2.weight f4 [3, 32]
0.27380037 0.06485426 0.19096003 -0.25726774 0.017962197 -0.03431111 -0.6229056 0.08048631
0.2412669 0.18001796 0.36260208 0.1845068 0.21062663 -0.1921566 -0.13124883 0.19327559
0.2044933 -0.21932122 -0.29863858 -0.030670127 0.23305206 0.031061942 -0.12165066 0.30018753
0.1363283 0.08539484 -0.043317437 -0.17511971 -0.3359036 0.018495822 0.060552895 0.056498773
0.08252739 -0.040427763 -0.029903011 0.1635753 0.08848166 -0.15686253 -0.28882775 -0.06216629
0.062439904 -0.04050385 0.04636434 0.10471402 0.0734584 0.065245025 0.09064478 -0.11077733
-0.071628205 0.2496172 0.09993598 0.13418485 -0.15317705 0.14069873 0.0920372 -0.17140517
0.1228643 -0.19239062 0.07669105 -0.059205573 -0.2149198 -0.3631093 0.12687299 -0.12920812
-1.035945 0.11103814 -0.2818023 0.08472426 -0.77422965 -0.09519102 0.61962193 -0.017314443
-0.27825797 -0.20454878 -1.0910916 -0.49357805 -0.23558472 0.024708001 -0.16122414 0.10101393
-0.037785195 -0.015069456 -0.29270002 0.10414346 -0.48017552 -0.05429777 0.081202894 -0.33630285
0.13198167 -0.029893095 0.13006142 0.040481143 0.16152829 0.015225049 0.09279647 0.23450226
00000000: 902f 8c3e 4fd2 843d 078b 433e 99b8 83be
00000010: 7525 933c ce89 0cbd be76 1fbf 02d6 a43d
00000020: ac0e 773e a156 383e fba6 b93e 5aef 3c3e
00000030: 82ae 573e b3c4 44be 1866 06be 09ea 453e
00000040: b166 513e be95 60be 28e7 98be eb3f fbbc
00000050: 33a5 6e3e 9d75 fe3c fb23 f9bd 2eb2 993e
00000060: a599 0b3e 7de3 ae3d a06d 31bd 9552 33be
00000070: 8ffb abbe 8d84 973c 5006 783d 426b 673d
00000080: 1f04 a93d 9597 25bd 29f7 f4bc 4980 273e
00000090: df35 b53d 92a0 20be 3be1 93be 14a2 7ebd
000000a0: fcc0 7f3d 5de7 25bd 89e8 3d3d 4e74 d63d
000000b0: 5c71 963d 2f9f 853d f8a3 b93d 3adf e2bd
000000c0: cfb1 92bd a79b 7f3e 3cab cc3d c167 093e
000000d0: 72da 1cbe 5413 103e 007e bc3d d684 2fbe
000000e0: 47a0 fb3d 0c02 45be 3210 9d3d 8b81 72bd
000000f0: f013 5cbe 76e9 b9be feea 013e 224f 04be
00000100: d999 84bf f767 e33d 6448 90be ea83 ad3d
00000110: ea33 46bf 82f3 c2bd 8b9f 1e3f 05d7 8dbc
00000120: d477 8ebe 3c75 51be e4a8 8bbf 43b6 fcbe
00000130: 1f3d 71be 6f68 ca3c f117 25be 64e0 ce3d
00000140: a6c4 1abd e1e5 76bc c7dc 95be 2b49 d53d
00000150: 91d9 f5be 5767 5ebd b44d a63d e32f acbe
00000160: 3426 073e 5de2 f4bc d22e 053e 8ecf 253d
00000170: ac67 253e 7c72 793c 130c be3d 5c21 703e

head.2.bias f4 [3]
-0.16868316 -0.10324577 0.09378357
00000000: 47bb 2cbe 8572 d3bd 9a11 c03d
